Models/Reward_shaping_vm/local_trial_0/20000.pth (torch, 78437 bytes, 11 tensors)

actor.0.weight f4 [64, 62]
0.019435406 0.07342301 -0.09604593 0.1025452 -0.06662723 0.003978488 -0.124107294 -0.39394614
-0.07383568 0.1241241 0.39810747 0.4575879 0.11185696 0.035766684 0.05519406 0.34308076
0.021645725 -0.11634268 -0.05929239 -0.031526417 -0.052719094 -0.0044006556 0.008282542 0.049868554
0.089877084 -0.0012756288 0.012730345 0.05428581 0.27621245 0.13429485 0.053111378 0.18909997
0.028836206 -0.11085084 0.024312377 -0.07288107 -0.24532233 -0.119292706 -0.027908383 0.14899282
0.15781626 -0.2707176 0.10508591 -0.041542448 -0.047280442 -0.0063450667 0.10016809 0.028839277
-0.045810394 -0.0478046 0.059029114 -0.10226973 0.10096869 -0.080839396 0.0935565 0.091958694
0.045255594 0.09814498 -0.05249932 0.11075444 -0.21349758 0.0198926 -0.072715804 0.11080694
0.12473047 -0.060445055 -0.04072688 0.061148185 -0.19806255 -0.24596888 0.084231414 0.18462123
0.33085528 0.54211646 0.31940717 0.20949863 0.010946644 0.0119585795 0.008581072 0.053119957
-0.02459722 -0.00605195 -0.033612095 0.083344564 -0.061711967 -0.12425223 -0.112224154 0.0045904964
-0.12220175 0.119470015 0.014794061 0.010646532 -0.08140091 0.0528353 -0.109122455 0.01274398
-0.01635509 -0.036497124 -0.04626002 -0.1652847 -0.08919108 -0.03526311 -0.07458294 0.09169633
0.0859528 0.06757598 -0.04778588 0.021683306 0.059048202 -0.08611544 0.13443163 -0.022815455
-0.11331852 -0.05827778 0.11143008 -0.15262638 0.18057606 0.030882714 -0.038855273 0.12519974
0.10631138 0.09281266 -0.021524755 -0.013545621 -0.094918564 -0.046563365 -0.043672085 0.014005572
-0.1462762 -0.18408504 0.33380052 0.2985235 -0.04466665 -0.0714715 -0.098315895 -0.14015664
0.07260983 -0.045965455 0.16539402 0.45149514 0.054629162 0.018956214 0.0986134 -0.042971544
0.0037425458 -0.029343322 0.122216225 0.10590832 -0.06494783 0.08668275 0.120851114 -0.0686831
0.0055209743 0.17109251 0.09135078 0.23639375 -0.04934466 -0.0012139231 0.11474165 0.07109481
-0.19110356 0.0027373405 0.11073588 0.15637043 -0.19932678 0.045015253 -0.1147859 -0.14397816
-0.08105399 -0.092170134 0.1333714 -0.027682269 -0.09559611 -0.12932277 0.094051376 0.016681947
0.042853832 8.560583e-05 -0.10011064 0.115186244 0.077476025 0.025743544 -0.058249753 0.0032622456
-0.09538922 -0.12174506 0.021254286 -0.0015150905 -0.111940816 0.10472858 -0.11539364 -0.052741036
0.40154997 0.24142002 -0.12745766 0.012478129 -0.19079792 -0.16389367 0.054957896 -0.13098301
0.14844823 0.2880764 0.027408391 -0.03022661 0.115508065 -0.040988304 0.035327315 -0.019483216
-0.088220656 -0.12016766 -0.116413034 0.017666727 0.002155766 -0.08458555 -0.03344821 0.082653
0.05480192 0.08042106 -0.015846126 -0.03261614 0.015257806 -0.0898787 0.11160251 0.19116434
0.11681346 0.007600701 -0.15045734 -0.26988885 -0.14345156 0.05733275 -0.001588274 0.14178193
0.10905966 0.15381822 0.07270091 -0.020270215 0.11909328 -0.00923764 0.0016361475 -0.13181306
-0.044281084 0.19292542 -0.00981282 -0.075720936 -0.016985605 -0.12961413 -0.009413615 0.14341037
0.047154352 -0.1171527 -0.021118551 0.04874511 -0.15319338 0.0036989616 0.08198821 -0.17084497
00000000: 0037 9f3c ce5e 963d bbb3 c4bd 3803 d23d
00000010: db73 88bd fa5d 823b f72b febd 4fb3 c9be
00000020: 2937 97bd c734 fe3d bed4 cb3e f648 ea3e
00000030: 4315 e53d 1680 123d 2b13 623d 48a8 af3e
00000040: 6052 b13c 1245 eebd 94dc 72bd d821 01bd
00000050: faef 57bd 6033 90bb 80b3 073c f842 4c3d
00000060: 7a11 b83d 0033 a7ba f092 503c cc5a 5e3d
00000070: b86b 8d3e 9784 093e 518b 593d 6ca3 413e
00000080: e839 ec3c c405 e3bd c02a c73c ac42 95bd
00000090: c735 7bbe bc4f f4bd 1fa0 e4bc 9391 183e
000000a0: 969a 213e 7f9b 8abe 4837 d73d 6a28 2abd
000000b0: 23a9 41bd 47ea cfbb ed24 cd3d 5940 ec3c
000000c0: aea3 3bbd c2ce 43bd 83c8 713d cb72 d1bd
000000d0: acc8 ce3d 208f a5bd 8d9a bf3d d754 bc3d
000000e0: ee5d 393d 3c00 c93d 8709 57bd 39d3 e23d
000000f0: 1c9f 5abe cef5 a23c 06ec 94bd c0ee e23d
00000100: b072 ff3d 3c95 77bd 3bd1 26bd 8576 7a3d
00000110: e9d0 4abe 44df 7bbe 8581 ac3d 590d 3d3e
00000120: dd65 a93e 25c8 0a3f 5689 a33e cf86 563e
00000130: 8d59 333c ebed 433c a097 0c3c 5094 593d
00000140: 1c80 c9bc 704f c6bb d6ac 09bd 8eb0 aa3d
00000150: b0c5 7cbd f477 febd c7d5 e5bd e06b 963b
00000160: e944 fabd b2ac f43d ca62 723c cb6e 2e3c
00000170: 85b5 a6bd d469 583d 987b dfbd 20cc 503c
00000180: 1cfb 85bc 027e 15bd 267b 3dbd 6440 29be
00000190: d0a9 b6bd 0d70 10bd f1be 98bd 49cb bb3d
000001a0: 0608 b03d 4765 8a3d 20bb 43bd 30a1 b13c
000001b0: 87dc 713d 4b5d b0bd 72a8 093e 7ae7 babc
000001c0: 8a13 e8bd aeb4 6ebd 7435 e43d 174a 1cbe
000001d0: eee8 383e bffd fc3c b526 1fbd 5c34 003e
000001e0: c8b9 d93d 9014 be3d af54 b0bc 74ee 5dbc
000001f0: aa64 c2bd 3ab9 3ebd 80e1 32bd a077 653c
00000200: 6ec9 15be ca80 3cbe e7e7 aa3e 12d8 983e
00000210: 61f4 36bd a65f 92bd d859 c9bd 3985 0fbe
00000220: 76b4 943d 4646 3cbd 0d5d 293e 5f2a e73e
00000230: d4c2 5f3d 104a 9b3c d2f5 c93d ee02 30bd
00000240: 8045 753b 6861 f0bc 804c fa3d 76e6 d83d
00000250: 5e03 85bd ba86 b13d ca80 f73d baa9 8cbd
00000260: 4ae9 b43b e032 2f3e 1e16 bb3d 3411 723e
00000270: a01d 4abd 801c 9fba acfd ea3d 289a 913d
00000280: a7b0 43be f464 333b 7ec9 e23d 921f 203e
00000290: 521c 4cbe ea61 383d df14 ebbd 036f 13be
000002a0: a2ff a5bd b2c3 bcbd 8392 083e edc5 e2bc
000002b0: e5c7 c3bd 306d 04be 029e c03d 94a8 883c
000002c0: 8087 2f3d 4887 b338 cf06 cdbd c4e6 eb3d
000002d0: c0ab 9e3d 20e4 d23c 4b97 6ebd 66cb 553b
000002e0: 6c5b c3bd 7955 f9bd 781d ae3c 0096 c6ba
000002f0: 3a41 e5bd f07b d63d 8053 ecbd fc06 58bd
00000300: f597 cd3e cf36 773e 4384 02be 1171 4c3c
00000310: 8860 43be bed3 27be 881b 613d 6920 06be
00000320: d002 183e c07e 933e 9087 e03c cc9d f7bc
00000330: 7e8f ec3d 5ae3 27bd 60b3 103d 449b 9fbc
00000340: 08ad b4bd 761a f6bd f569 eebd d0b9 903c
00000350: c047 0d3b 303b adbd fe00 09bd fa45 a93d
00000360: fa77 603d ccb3 a43d bccf 81bc 8098 05bd
00000370: e0fb 793c 5312 b8bd db8f e43d 96c0 433e
00000380: e53b ef3d 4d0f f93b 7d11 1abe df2e 8abe
00000390: f7e4 12be bfd5 6a3d a22d d0ba 482f 113e
000003a0: ac5a df3d 8682 1d3e 37e4 943d b90d a6bc
000003b0: 2de7 f33d 7859 17bc 0074 d63a 01fa 06be
000003c0: 1560 35bd 3e8e 453e f3c5 20bc 9413 9bbd
000003d0: 6525 8bbc 91b9 04be 903b 1abc 2bda 123e
000003e0: ec24 413d c1ed efbd d000 adbc f4a8 473d
000003f0: bade 1cbe 476a 723b 6fe9 a73d fcf1 2ebe

actor.0.bias f4 [64]
0.006979493 0.072940506 -0.070075415 0.03541854 -0.093975544 0.03872749 0.05198958 0.0013509109
-0.057011183 0.0016327071 0.07648113 -0.03467768 -0.038200118 -0.06435968 0.11518272 0.028734794
0.14275128 0.10928342 0.009937166 -0.075291045 0.042354807 -0.06052665 -0.03614747 -0.065063775
-0.060847975 -0.04368187 0.03098651 0.25801525 -0.04936628 0.102092974 -0.06989017 0.054119132
0.2028296 0.11855686 0.18894106 -0.056699198 0.018370844 0.08436238 0.16164635 0.16407184
0.021424353 0.118690886 -0.071553215 0.21529141 0.09572694 0.13600317 0.11516848 0.05368074
0.16326292 0.009071923 0.12511769 0.124741055 0.08692466 0.0079399375 0.060848508 0.0603392
0.123676576 -0.0425334 0.12157444 0.12739018 0.05143112 -0.02374805 -0.061641056 0.101373315
00000000: 3bb4 e43b d561 953d b383 8fbd 0813 113d
00000010: 4076 c0bd b7a0 1e3d 07f3 543d 0c11 b13a
00000020: 8f84 69bd 8f00 d63a 24a2 9c3d 2f0a 0ebd
00000030: ba77 1cbd 02cf 83bd ebe4 eb3d 3b65 eb3c
00000040: 642d 123e fccf df3d 7fcf 223c 3132 9abd
00000050: 3c7c 2d3d cbea 77bd 5f0f 14bd 2840 85bd
00000060: ba3b 79bd c3eb 32bd 6cd7 fd3c 931a 843e
00000070: 4c34 4abd 1f16 d13d 9422 8fbd 06ac 5d3d
00000080: 90b2 4f3e f0cd f23d c479 413e 6b3d 68bd
00000090: 747e 963c 2fc6 ac3d 9f86 253e 7302 283e
000000a0: 2082 af3c 3514 f33d 7e8a 92bd 5a75 5c3e
000000b0: 7c0c c43d 6a44 0b3e 74dd eb3d 56e0 5b3d
000000c0: 652e 273e 67a2 143c da1e 003e 3d78 ff3d
000000d0: 8e05 b23d 8316 023c 493c 793d 3d26 773d
000000e0: 254a fd3d 8137 2ebd 05fc f83d 9272 023e
000000f0: 70a9 523d 458b c2bc 557b 7cbd d09c cf3d

actor.2.weight f4 [64, 64]
-0.08600338 -0.06430836 -0.08596922 0.078279436 0.040758193 0.092972554 0.017316872 -0.006126538
0.05854179 -0.08605778 0.0723227 -0.119684264 0.09114492 0.03638914 -0.035091005 -0.13268463
0.061745506 -0.09534283 0.075919405 -0.04947737 0.09862851 -0.10237962 -0.11167054 0.032766674
-0.110837266 0.11406274 -0.03747019 -0.036132883 0.013312414 -0.029684246 -0.029329225 -0.020761184
-0.11035535 -0.12122304 -0.0041295425 0.09228216 -0.10598187 -0.030150026 -0.07048869 -0.007548618
-0.07439522 -0.10880794 -0.086257145 -0.0060842657 0.05316572 -0.07068856 0.0035868387 -0.021657847
0.024084598 -0.027121484 -0.08582959 0.05273618 0.017630413 -0.13445684 -0.041188136 0.10148796
0.043150935 -0.044340156 0.01892011 -0.1271685 0.08811732 0.06467368 -0.06878269 0.0008282484
-0.31639358 -0.38927203 0.24299236 0.26589328 0.091583036 0.108950295 -0.20916627 0.40655822
0.26561576 -0.0419572 -0.08285905 -0.2536379 -0.20388512 -0.35601172 -0.25720343 0.23355933
-0.20751636 -0.028173648 0.18924706 0.23030521 0.15402643 -0.18306744 -0.05901301 0.11216043
-0.16215043 0.1133051 0.19725247 0.07760989 0.01758358 -0.018799905 0.16433945 0.098876946
-0.22037184 0.15653174 0.15177733 0.118374996 0.11680368 -0.09601401 -0.42990962 -0.17127189
0.27293035 0.1373454 0.12665601 -0.104900934 -0.19542512 -0.24417649 0.34950927 -0.18697727
-0.2766765 -0.09599369 0.095286675 0.10277216 -0.13263243 0.03835528 -0.21477266 0.05454918
0.14473678 0.19552493 -0.023722945 -0.196039 -0.2424547 0.06633897 0.0039371704 -0.073277526
-0.1699027 0.06104855 0.0685809 0.009754581 -0.039463345 0.06607848 -0.06328584 0.027491467
-0.18965971 0.048192725 0.09009057 -0.036372643 -0.14966853 0.014496841 -0.038435455 -0.07869171
0.10702375 0.1858736 -0.022646539 -0.17965499 0.13578478 -0.0877751 -0.15332103 -0.064261705
0.18706624 -0.07334031 -0.027278952 0.162744 -0.17677212 0.0667441 -0.2308838 0.11462021
0.20050481 0.21316972 -0.10018665 0.18013276 -0.018682884 -0.2129008 -0.19026734 0.025360256
-0.105581634 0.00492748 0.0027728004 0.0052508987 -0.0013551291 0.07945204 -0.06363712 -0.15732862
-0.008597008 -0.29838613 -0.023761533 0.0116048865 -0.0734869 -0.12772347 -0.07308716 0.06028001
0.05125732 -0.2535347 0.09729039 -0.17175418 -0.20931664 -0.02746525 -0.13876002 -0.082129575
-0.11961819 -0.048861917 0.0024659492 0.13078554 -0.0088575035 0.20824432 -0.012946943 0.34013498
0.13285129 0.06891163 0.18080322 -0.19630177 -0.2585231 -0.037090972 0.042012893 0.009944606
-0.1392076 -0.018953951 0.15525304 -0.09860588 0.048273426 0.16724686 -0.13987978 0.037887074
-0.074500434 0.20265836 0.15468009 -0.112987146 -0.20397721 -0.18185136 -0.0011778171 -0.002387132
0.13359788 -0.1864587 0.32596257 -0.08396172 0.13385907 -0.00056065235 0.17659588 0.0034717366
0.044317655 -0.05405235 -0.15581556 -0.053461265 -0.09527469 -0.069558546 0.2499277 0.16463202
-0.10352006 -0.14837468 -0.010210135 0.04807222 0.17922506 -0.0059303525 -0.021551557 0.028034825
0.061430655 0.22061023 -0.054099403 -0.030330356 0.16441147 0.06991977 -0.19065917 -0.13073155
00000000: 8a22 b0bd 1ab4 83bd a110 b0bd f850 a03d
00000010: 10f2 263d 6568 be3d 1ddc 8d3c 20c1 c8bb
00000020: 84c9 6f3d 103f b0bd ec1d 943d 061d f5bd
00000030: 30aa ba3d c70c 153d 96bb 0fbd 7bde 07be
00000040: dbe8 7c3d 1a43 c3bd a27b 9b3d c8a8 4abd
00000050: bffd c93d 68ac d1bd 86b3 e4bd 5936 063d
00000060: a6fe e2bd ba99 e93d 587a 19bd 1300 14bd
00000070: 501c 5a3c 602c f3bc d843 f0bc 5c13 aabc
00000080: fc01 e2bd c943 f8bd 1d51 87bb 6efe bc3d
00000090: 060d d9bd 30fd f6bc 605c 90bd 665a f7bb
000000a0: 855c 98bd b2d6 debd 96a7 b0bd 855e c7bb
000000b0: 4cc4 593d 2ac5 90bd 2b11 6b3b cc6b b1bc
000000c0: 104d c53c e02d debc 6dc7 afbd e501 583d
000000d0: a86d 903c 0eaf 09be e4b4 28bd ebd8 cf3d
000000e0: 09bf 303d 069e 35bd 59fe 9a3c 7638 02be
000000f0: da76 b43d a273 843d f0dd 8cbd cf1e 593a
00000100: 57fe a1be aa4e c7be fdd2 783e 2a23 883e
00000110: e38f bb3d 5521 df3d af2f 56be 6628 d03e
00000120: cafe 873e 50db 2bbd 01b2 a9bd d4dc 81be
00000130: 43c7 50be 2b47 b6be 2bb0 83be 2d2a 6f3e
00000140: 2b7f 54be 6ccc e6bc fbc9 413e 21d5 6b3e
00000150: 1bb9 1d3e 0876 3bbe a0b7 71bd 5eb4 e53d
00000160: c30a 26be 810c e83d 8dfc 493e eff1 9e3d
00000170: 710b 903c 4202 9abc 9a48 283e ff7f ca3d
00000180: 28a9 61be db49 203e 846b 1b3e 976e f23d
00000190: c536 ef3d fea2 c4bd 1d1d dcbe e661 2fbe
000001a0: 87bd 8b3e 46a4 0c3e 1db2 013e 4dd6 d6bd
000001b0: 861d 48be 6709 7abe e1f2 b23e f876 3fbe
000001c0: 8ba8 8dbe 5798 c4bd a925 c33d 367a d23d
000001d0: ccd0 07be 6d1a 1d3d 5ded 5bbe f66e 5f3d
000001e0: e135 143e b037 483e 9f56 c2bc 73be 48be
000001f0: 0b46 78be badc 873d 6103 813b 8712 96bd
00000200: f9fa 2dbe 0b0e 7a3d 2574 8c3d aed1 1f3c
00000210: 51a4 21bd 2754 873d 029c 81bd c935 e13c
00000220: 2836 42be bc65 453d 6881 b83d 7bfb 14bd
00000230: b542 19be 2884 6d3c 7f6e 1dbd 1f29 a1bd
00000240: 452f db3d a655 3e3e 3c85 b9bc 7af7 37be
00000250: 2a0b 0b3e 6ec3 b3bd 3000 1dbe a49b 83bd
00000260: 4b8e 3f3e 7233 96bd 1c78 dfbc 5da6 263e
00000270: c003 35be 21b1 883d ce6c 6cbe 00be ea3d
00000280: 2251 4d3e 2a49 5a3e a92e cdbd b974 383e
00000290: d90c 99bc ab02 5abe 71d5 42be 50c0 cf3c
000002a0: 2f3b d8bd b376 a13b dfb7 353b bb0f ac3b
000002b0: 969e b1ba c0b7 a23d 2e54 82bd c11a 21be
000002c0: 77da 0cbc 11c6 98be 8ca7 c2bc 6c22 3e3c
000002d0: 4d80 96bd f1c9 02be b9ae 95bd 2ce8 763d
000002e0: 32f3 513d 4dcf 81be 2f40 c73d 54e0 2fbe
000002f0: 1a57 56be cefe e0bc 1b17 0ebe 8d33 a8bd
00000300: 62fa f4bd 6f23 48bd c39b 213b a5ec 053e
00000310: 101f 11bc 003e 553e 6a1f 54bc 2c26 ae3e
00000320: 2b0a 083e 8a21 8d3d 7b24 393e 5503 49be
00000330: 245d 84be b4ec 17bd b615 2c3d b3ee 223c
00000340: 708c 0ebe 5145 9bbc a7fa 1e3e e1f1 c9bd
00000350: 5bba 453d c342 2b3e a53c 0fbe 7a2f 1b3d
00000360: af93 98bd ac85 4f3e 7564 1e3e ce65 e7bd
00000370: 67df 50be 3e37 3abe fc60 9aba 6e71 1cbb
00000380: e2cd 083e 08ef 3ebe 91e4 a63e 1ff4 abbd
00000390: 5a12 093e bef8 12ba 8dd5 343e 1386 633b
000003a0: 6e86 353d ff65 5dbd 1d8e 1fbe 33fa 5abd
000003b0: 601f c3bd b674 8ebd 0ced 7f3e 4c95 283e
000003c0: 5302 d4bd 88ef 17be 6948 27bc 60e7 443d
000003d0: c686 373e 6753 c2bb e48c b0bc 4aa9 e53c
000003e0: b69e 7b3d a6e7 613e 5697 5dbd 5e77 f8bc
000003f0: 7b5b 283e 1932 8f3d 283c 43be 7ede 05be

actor.2.bias f4 [64]
-0.13904215 -0.033518355 0.014003964 0.11758537 0.09607439 0.18427552 0.12826093 0.033760227
0.14336725 0.09237716 0.101447664 0.2421605 0.09275464 0.045326 0.08786611 0.17498444
0.16726129 -0.0388312 0.044029485 0.021624435 -0.08536438 0.07242911 0.038213413 -0.0109591605
-0.009146021 0.22967419 -0.089538746 -0.07162204 0.006847299 -0.09135255 0.004815176 -0.01419363
-0.100998506 0.12755968 0.06190511 -0.13352579 0.19649656 0.118130215 0.2342089 0.010171169
0.018318385 0.08421829 0.021623269 0.12731785 0.12564887 0.19740483 -0.09038524 0.08184071
-0.06448349 0.054742713 -0.1092729 -0.10085566 0.14963068 0.10596402 0.009693555 0.08763657
0.055658896 0.16911727 -0.036109764 0.20527476 0.13759185 0.06410372 -0.057092104 -0.116788484
00000000: 1161 0ebe 8b4a 09bd e270 653c 99d0 f03d
00000010: a6c2 c43d b9b2 3c3e d556 033e 2a48 0a3d
00000020: ddce 123e 3d30 bd3d cbc3 cf3d ecf8 773e
00000030: 25f6 bd3d c1a7 393d 26f3 b33d 1f2f 333e
00000040: 8b46 2b3e 770d 1fbd 4358 343d ba25 b13c
00000050: 85d3 aebd b755 943d ab85 1c3d 0d8e 33bc
00000060: 31d9 15bc b62f 6b3e 1760 b7bd 93ae 92bd
00000070: 4f5f e03b 0c17 bbbd a0c8 9d3b 668c 68bc
00000080: 4ed8 cebd 019f 023e 3690 7d3d fcba 08be
00000090: 6536 493e 41ee f13d 75d4 6f3e faa4 263c
000000a0: 7010 963c a47a ac3d 4823 b13c 9c5f 023e
000000b0: 19aa 003e 7e24 4a3e e61b b9bd 1a9c a73d
000000c0: ec0f 84bd e539 603d 78ca dfbd 6a8d cebd
000000d0: c938 193e aa03 d93d b7d1 1e3c cd7a b33d
000000e0: 95fa 633d 142d 2d3e d5e7 13bd 8c33 523e
000000f0: e1e4 0c3e d048 833d 69d9 69bd cd2e efbd

actor.4.weight f4 [36, 64]
0.13178967 0.5814769 -0.15453976 0.16384628 0.00041240838 -0.08781465 -0.24431169 -0.15468125
0.039522387 -0.1267235 0.23687577 -0.08558426 -0.29131725 -0.17324835 -0.40945154 -0.040093474
-0.13363342 -0.08408616 -0.47399166 0.1842182 0.09925166 -0.51832783 -0.2953603 0.08545792
-0.32601687 -0.51543236 -0.12880489 0.56164587 -0.0887669 0.037455007 0.14994018 -0.1750534
0.076552145 0.14390023 -0.08696761 0.11596021 -0.094024435 0.22143999 -0.55769056 0.27765056
0.048621893 -0.123178884 -0.062186815 -0.4614064 0.32102537 -0.14182752 -0.24471098 0.38076985
0.4732749 0.040110786 -0.079390995 0.036547523 -0.3779596 -0.092968844 -0.062765814 0.15730874
-0.22901227 -0.13871412 -0.10749431 -0.52296937 -0.20772187 0.059877016 -0.21971563 0.055624004
-0.07898656 -0.32722384 -0.098478846 -0.14438951 -0.083459444 -0.65417945 0.31158245 0.082965784
0.22252679 0.057826012 -0.14032786 -0.634836 0.34472266 0.3237314 0.12672877 -0.600798
-0.31134254 0.00077038276 0.018164035 0.12715124 -0.02316049 -0.18731968 -0.044458374 -0.12846284
0.25259167 -0.66250956 0.19478308 -0.010032884 0.0927605 0.016776592 -0.057263643 -0.16044164
0.16192955 -0.48525524 0.029755872 0.099617176 0.019704022 0.17263006 -0.12496247 0.058870498
0.0309496 -0.27143976 0.11543859 -0.19892712 -0.1459015 -0.6191433 0.3187991 0.37497205
-0.092371315 0.01908358 0.13321215 0.1101142 -0.3829358 0.28906614 0.25610325 0.32564124
-0.31235847 -0.34727415 0.14319949 -0.3824712 0.23677777 0.08105619 0.27234033 0.072894126
-0.08537563 0.052135736 -0.06544977 0.057158988 0.23750183 -0.37374875 -0.08182946 0.3104344
-0.43978915 0.23934333 -0.11292223 -0.12679075 0.19555093 -0.007323669 -0.22494037 -0.13129024
-0.12888509 0.049440447 0.007215877 -0.34370378 0.06433406 -0.28808397 -0.21355857 0.23279808
-0.36802894 -0.039980296 -0.08688582 -0.16236536 0.07207034 -0.02617772 0.32158315 0.11171844
0.19249868 0.24757622 0.29330638 0.090111755 -0.35443336 0.26359713 -0.4688977 0.032361545
-0.039243393 -0.040364046 -0.16521095 -0.46038863 0.23834999 -0.39062932 -0.094950065 -0.16494694
0.17034744 -0.081845544 0.046603084 0.0140148895 -0.28352022 0.27449206 0.3412029 0.12539315
-0.043207746 -0.433776 0.2681546 -0.31467575 -0.28010905 -0.06882419 -0.40829226 0.22612137
-0.05665145 0.0440641 -0.12838142 0.14624701 0.2018854 0.009500463 -0.051010765 0.1827139
-0.2378497 0.19359362 0.122664236 -0.01645941 -0.11929397 0.15546861 -0.114855245 -0.26818466
0.10191043 0.060880963 -0.07193884 0.07618835 -0.034795754 -0.017230399 -0.08920427 0.16687363
0.15446502 -0.28421548 -0.11108017 -0.14977483 -0.085062236 0.022867575 0.22476064 0.14261566
0.22329997 0.17353426 0.21121316 -0.0724929 -0.27992854 -0.1007538 -0.22441192 0.22989354
-0.06683393 -0.17838638 -0.028052494 -0.083468944 0.0159754 -0.15053022 -0.16213064 -0.025072888
0.013598653 -0.04540648 0.03872231 0.16257837 -0.18276829 0.13428561 -0.050636105 -0.25832298
0.23884341 -0.5288691 -0.05410483 -0.06245988 -0.103659056 -0.038192444 0.066957116 0.15034541
00000000: dff3 063e acdb 143f ac3f 1ebe 52c7 273e
00000010: 8438 d839 2bd8 b3bd d82c 7abe c364 1ebe
00000020: 3ae2 213d cec3 01be 908f 723e cd46 afbd
00000030: 8927 95be 0468 31be a2a3 d1be 0e39 24bd
00000040: 33d7 08be 5d35 acbd 09af f2be b2a3 3c3e
00000050: 7444 cb3d 22b1 04bf 7739 97be 9004 af3d
00000060: afeb a6be 60f3 03bf 6ee5 03be 06c8 0f3f
00000070: 6ccb b5bd 6c6a 193d eb89 193e 3341 33be
00000080: 5fc7 9c3d 955a 133e 131c b2bd 8c7c ed3d
00000090: e28f c0bd 2ac1 623e cfc4 0ebf 3728 8e3e
000000a0: c027 473d 3645 fcbd 9ab7 7ebd 763d ecbe
000000b0: 705d a43e 3c3b 11be 8495 7abe 44f4 c23e
000000c0: 1651 f23e 354b 243d bf97 a2bd dbb2 153d
000000d0: ec83 c1be 7366 bebd 5d8b 80bd 8b15 213e
000000e0: 3182 6abe 130b 0ebe fa25 dcbd 52e1 05bf
000000f0: 0bb5 54be 9a41 753d 22fd 60be ffd5 633d
00000100: b5c3 a1bd e289 a7be 47af c9bd d8da 13be
00000110: c9ec aabd 4e78 27bf bc87 9f3e f7e9 a93d
00000120: 10de 633e f8da 6c3d 1bb2 0fbe 9d84 22bf
00000130: 7d7f b03e 1fc0 a53e 30c5 013e e6cd 19bf
00000140: 4a68 9fbe 83f3 493a becc 943c ef33 023e
00000150: 11bb bdbc bbd0 3fbe fc19 36bd c38b 03be
00000160: b253 813e 3a9a 29bf 3775 473e f760 24bc
00000170: 38f9 bd3d 106f 893c 488d 6abd d04a 24be
00000180: dcd0 253e 6073 f8be 96c2 f33c 1704 cc3d
00000190: 546a a13c efc5 303e 53ec ffbd 3122 713d
000001a0: 048a fd3c 27fa 8abe 116b ec3d 8db3 4bbe
000001b0: 3467 15be 2d80 1ebf a339 a33e 56fc bf3e
000001c0: 2c2d bdbd 2b55 9c3c c468 083e 8e83 e13d
000001d0: 2910 c4be 7a00 943e f71f 833e 73ba a63e
000001e0: 73ed 9fbe ebcd b1be e3a2 123e 44d3 c3be
000001f0: df75 723e ca00 a63d 3170 8b3e 8449 953d
00000200: 6bd9 aebd 488c 553d 870a 86bd 8b1f 6a3d
00000210: ae33 733e ff5b bfbe 3496 a7bd 42f1 9e3e
00000220: 0b2c e1be 6b16 753e c543 e7bd 6fd5 01be
00000230: 813e 483e 63fb efbb c556 66be f370 06be
00000240: 74fa 03be 1182 4a3d 2a73 ec3b f1f9 afbe
00000250: 93c1 833d be7f 93be 19af 5abe 9f62 6e3e
00000260: 4a6e bcbe 61c2 23bd 31f1 b1bd 1b43 26be
00000270: 9d99 933d a872 d6bc 8ca6 a43e a3cc e43d
00000280: 601e 453e 9f84 7d3e 412c 963e 838c b83d
00000290: 4a78 b5be 34f6 863e 5c13 f0be 8a8d 043d
000002a0: aebd 20bd c554 25bd 0f2d 29be 0fb8 ebbe
000002b0: 0512 743e 9100 c8be 2e75 c2bd dae7 28be
000002c0: 8f6f 2e3e a39e a7bd e0e2 3e3d b59e 653c
000002d0: 9029 91be 398a 8c3e 26b2 ae3e 1067 003e
000002e0: 9bfa 30bd e317 debe 8f4b 893e 2e1d a1be
000002f0: 746a 8fbe b2f3 8cbd af0b d1be 5c8c 673e
00000300: 5a0b 68bd 8f7c 343d 6b76 03be c7c1 153e
00000310: 0cbb 4e3e d4a7 1b3c aaf0 50bd 5a19 3b3e
00000320: df8e 73be 683d 463e 6337 fb3d e2d5 86bc
00000330: 6650 f4bd 2a33 1f3e 3a39 ebbd 804f 89be
00000340: 6ab6 d03d 515e 793d ac54 93bd a308 9c3d
00000350: fe85 0ebd c426 8dbc bab0 b6bd ece0 2a3e
00000360: 142c 1e3e b184 91be 007e e3bd 935e 19be
00000370: 1c35 aebd c854 bb3c a727 663e d709 123e
00000380: bfa8 643e f7b2 313e 4348 583e 2877 94bd
00000390: cb52 8fbe 0258 cebd 3dcc 65be 3669 6b3e
000003a0: 3ae0 88bd ebaa 36be 58ce e5bc c4f1 aabd
000003b0: d8de 823c 9824 1abe 9305 26be a865 cdbc
000003c0: e2cc 5e3c 25fc 39bd 499b 1e3d f27a 263e
000003d0: 9c27 3bbe 2b82 093e ce67 4fbd e942 84be
000003e0: 5e93 743e f763 07bf 079d 5dbd eed5 7fbd
000003f0: 334b d4bd ae6f 1cbd d020 893d 26f4 193e

actor.4.bias f4 [36]
-0.053413566 -0.119612336 0.04638534 -0.1276957 0.096862465 0.06133504 0.031013276 -0.040557053
0.0444228 -0.116271384 0.043252446 -0.011756827 0.01034349 -0.100402966 -0.0026812293 -0.065029
-0.115439184 -0.1839146 -0.22187112 -0.11783166 -0.16531946 0.057490863 0.06649187 -0.05570648
0.07956511 0.011360952 -0.008521949 0.07845924 0.0067127245 0.11256988 0.038114917 0.10886742
-0.14144716 -0.098744266 0.13472824 0.12771656
00000000: 2fc8 5abd 50f7 f4bd 8efe 3d3d a9c2 02be
00000010: d45f c63d 733a 7b3d 8e0f fe3c 271f 26bd
00000020: aff4 353d b11f eebd 7a29 313d b59f 40bc
00000030: be77 293c 12a0 cdbd 90b7 2fbb ed2d 85bd
00000040: 616b ecbd 1c54 3cbe 2f32 63be ba51 f1bd
00000050: 8149 29be 8a7b 6b3d e42c 883d 7a2c 64bd
00000060: 08f3 a23d 4923 3a3c a59f 0bbc 3daf a03d
00000070: 6af6 db3b 0a8b e63d 631e 1c3d e2f5 de3d
00000080: 86d7 10be 6f3a cabd 33f6 093e 21c8 023e

critic.0.weight f4 [64, 62]
0.030292213 -0.097238936 -0.011536278 -0.123385906 0.035690054 -0.12030303 -0.026802385 -0.087820195
0.07256112 0.11624383 0.019068213 -0.014491037 -0.099396765 0.17638642 0.03305023 -0.051045064
-0.11663263 -0.121277004 -0.07881379 -0.108862236 0.06742033 -0.106881164 0.0021799654 -0.05956628
0.08041467 -0.005555868 -0.061272755 -0.099336386 -0.0844171 0.059033237 -0.016333409 -0.030909587
-0.12338191 -0.037791185 0.12471506 -0.026483737 -0.04102502 -0.10628383 -0.004566478 0.12835373
-0.11295842 -0.007867411 -0.093038686 -0.0072228215 0.016082685 -0.13464992 0.08240769 0.042888816
0.0061627408 0.10105508 -0.1261912 -0.08313932 0.033000022 -0.034765624 0.040121697 -0.08275704
-0.09085432 0.12018554 -0.075207405 -0.16741242 -0.04075153 -0.14479278 -0.0013952404 -0.021613665
0.0056124628 -0.08416614 0.083256155 0.023691343 -0.08692735 0.003908469 -0.22509588 -0.21909502
0.051019114 -0.04360615 -0.15424058 0.0061060376 0.11050186 -0.0028992414 -0.07520911 0.06834163
-0.009511739 0.042604685 0.07705319 0.016670883 0.041298583 -0.0086682215 -0.047144547 -0.026875123
-0.014677137 0.057978258 -0.082212225 -0.15327941 0.083837524 -0.014590318 -0.08819707 0.092053875
0.052569315 -0.074915275 -0.18096985 -0.03143817 0.095186144 -0.13781083 -0.018609472 0.076102704
-0.20157425 -0.09141609 -0.028180815 0.035269156 -0.051481653 0.07437824 0.032301605 0.24342306
0.02992507 -0.040637456 0.019877926 -0.035263926 -0.16990319 0.12347506 0.10360054 0.040550843
0.09066081 -0.03243953 0.012143466 0.16207471 -0.10591156 -0.103253484 -0.022133887 -0.121411644
0.05404689 -0.3238908 0.15673456 -0.17711625 -0.091840535 -0.04985368 0.07766076 -0.15473668
0.02819386 0.14339843 -0.11808287 -0.08839408 0.10602322 0.035036907 0.0083204955 0.11273205
-0.020464338 -0.08096587 -0.031970672 0.042729408 -0.021479286 0.028285965 0.024721071 -0.115284905
0.080911815 0.13400473 0.030099975 0.18635325 -0.1002527 0.008160055 -0.048473105 0.041045845
-0.02198832 0.07876816 -0.076912835 -0.11363698 -0.017421354 -0.0070039923 -0.094235465 -0.11332311
-0.08005897 -0.028449733 0.09203701 0.031973258 -0.0734253 -0.118606664 0.014819009 -0.025516571
0.06608178 -0.088348664 0.06280626 0.0005065794 0.16818632 -0.091637544 -0.08645039 -0.05867997
-0.11875853 -0.18013562 0.07316597 0.07486072 0.078757316 0.002111122 0.029756967 0.23576212
-0.2177846 -0.12992504 0.12517396 0.015566066 -0.25926942 -0.30289355 -0.04137933 -0.07160673
0.088004135 0.104574576 0.04447964 0.057753086 -0.06508587 -0.02089294 -0.11627461 -0.10023367
0.08809665 -0.03352736 -0.09340739 -0.10857844 0.026641846 0.10356572 0.033914246 0.111667015
0.005143788 -0.05689729 0.022204578 0.04081121 -0.052126944 0.07821305 0.12310867 0.07755249
-0.013444818 -0.17171396 -0.04542497 -0.046426103 -0.014972713 -0.029267533 0.47168386 -0.5232408
0.06657642 -0.0769854 -0.07413633 0.0040618386 0.1165382 -0.066567466 -0.021716222 -0.13731582
-0.0541523 -0.005497712 -0.0698129 0.05467613 0.09960681 -0.017129675 -0.047939375 -0.14247647
0.0034680068 -0.07020521 0.00925079 0.07843265 -0.27877077 -0.11465244 -0.17298783 -0.33103144
00000000: 6027 f83c 3525 c7bd a802 3dbc c0b1 fcbd
00000010: bc2f 123d 6f61 f6bd ad90 dbbc 13db b3bd
00000020: ed9a 943d 3f11 ee3d f134 9c3c d16b 6dbc
00000030: 8890 cbbd a49e 343e ae5f 073d a114 51bd
00000040: 17dd eebd 1460 f8bd 2069 a1bd 2af3 debd
00000050: ac13 8a3d 83e4 dabd c0dd 0e3b c6fb 73bd
00000060: 72b0 a43d 000e b6bb 24f9 7abd e070 cbbd
00000070: dfe2 acbd d6cc 713d a4cd 85bc 1a36 fdbc
00000080: a8af fcbd eeca 1abd 9c6a ff3d 6cf4 d8bc
00000090: da09 28bd 56ab d9bd 65a2 95bb 296f 033e
000000a0: be56 e7bd 50e6 00bc 118b bebd 6bad ecbb
000000b0: d6bf 833c abe1 09be 5dc5 a83d 2fac 2f3d
000000c0: d1f0 c93b f7f5 ce3d 4438 01be f344 aabd
000000d0: 082b 073d 6666 0ebd a656 243d 867c a9bd
000000e0: d411 babd d623 f63d 5706 9abd 296e 2bbe
000000f0: 14eb 26bd 8f44 14be 80e0 b6ba 240f b1bc
00000100: c0e8 b73b 4c5f acbd 3482 aa3d 5914 c23c
00000110: f706 b2bd 9d12 803b 897f 66be 725a 60be
00000120: 6bf9 503d 5d9c 32bd 3ef1 1dbe 2815 c83b
00000130: cd4e e23d 3301 3ebb 3c07 9abd b2f6 8b3d
00000140: 20d7 1bbc 4082 2e3d 10ce 9d3d 6091 883c
00000150: b428 293d 2805 0ebc a41a 41bd 3829 dcbc
00000160: 6078 70bc 9c7a 6d3d e25e a8bd 47f5 1cbe
00000170: 02b3 ab3d 3b0c 6fbc aaa0 b4bd be86 bc3d
00000180: ec52 573d 2e6d 99bd 2950 39be 4fc5 00bd
00000190: f4f0 c23d 481e 0dbe e472 98bc bcdb 9b3d
000001a0: 7b69 4ebe 5c38 bbbd 74db e6bc 6476 103d
000001b0: 6dde 52bd 9e53 983d b04e 043d e543 793e
000001c0: 6c25 f53c 7673 26bd 08d7 a23c e870 10bd
000001d0: 1afb 2dbe 7ee0 fc3d 852c d43d a418 263d
000001e0: 60ac b93d 50df 04bd 63f5 463c eaf6 253e
000001f0: 29e8 d8bd 9076 d3bd 2052 b5bc aba6 f8bd
00000200: 4660 5d3d 04d5 a5be 067f 203e f65d 35be
00000210: e416 bcbd 5f33 4cbd 9b0c 9f3d 4b73 1ebe
00000220: cff6 e63c 0ad7 123e 6fd5 f1bd f507 b5bd
00000230: b422 d93d dc82 0f3d b052 083c 10e0 e63d
00000240: d4a4 a7bc 6fd1 a5bd aef3 02bd 0805 2f3d
00000250: 54f5 afbc f8b7 e73c d883 ca3c 7e1a ecbd
00000260: 18b5 a53d 8938 093e 3994 f63c 63d3 3e3e
00000270: 4a51 cdbd c0b1 053c bc8b 46bd b01f 283d
00000280: d920 b4bc 3351 a13d 7a84 9dbd 81ba e8bd
00000290: 3ab7 8ebc bf81 e5bb 86fe c0bd f215 e8bd
000002a0: f5f5 a3bd 6a0f e9bc e67d bc3d 64f6 023d
000002b0: 0160 96bd 0de8 f2bd 6ecb 723c 2108 d1bc
000002c0: e255 873d 25f0 b4bd 92a0 803d f8cb 043a
000002d0: 0939 2c3e 77ac bbbd e70c b1bd 695a 70bd
000002e0: ac37 f3bd 7975 38be 0ad8 953d 9450 993d
000002f0: 844b a13d c05a 0a3b e2c4 f33c a06b 713e
00000300: ed02 5fbe 120b 05be 9a2d 003e d008 7f3c
00000310: f6be 84be dd14 9bbe 5f7d 29bd 8da6 92bd
00000320: 833b b43d 322b d63d 4830 363d 808e 6c3d
00000330: be4b 85bd ac27 abbc 6221 eebd 4f47 cdbd
00000340: 046c b43d fc53 09bd 604c bfbd 605e debd
00000350: 0040 da3c 441a d43d aae9 0a3d adb1 e43d
00000360: 398d a83b 220d 69bd 60e6 b53c a829 273d
00000370: 1083 55bd 2a2e a03d 6620 fc3d d7d3 9e3d
00000380: a747 5cbc c9d5 2fbe 890f 3abd 4c29 3ebd
00000390: 1c50 75bc 77c2 efbc 8c80 f13e 1cf3 05bf
000003a0: 3859 883d 85aa 9dbd cad4 97bd 2c19 853b
000003b0: 94ab ee3d 8654 88bd 38e6 b1bc 859c 0cbe
000003c0: cdce 5dbd 2726 b4bb 11fa 8ebd 14f4 5f3d
000003d0: a8fe cb3d 8853 8cbc 145c 44bd 5ae5 11be
000003e0: 8047 633b c0c7 8fbd a090 173c 4ca1 a03d
000003f0: 0bbb 8ebe e6ce eabd b923 31be f47c a9be

critic.0.bias f4 [64]
-0.14210747 -0.046896502 -0.027339248 0.14808087 0.03319606 0.09242764 0.07304528 -0.061765365
0.0028236844 0.22969988 -0.049447306 -0.11248211 0.11208007 -0.14603809 0.077679485 0.0350905
-0.095343865 0.12957974 -0.044397328 0.1890081 -0.06189476 -0.049826935 0.030265346 -0.1366207
0.03705317 -0.040763993 -0.04913231 -0.09026791 -0.014323755 -0.079714514 -0.114406355 -0.12782791
-0.07740498 -0.024851803 -0.17260656 0.2836822 -0.20560558 -0.015700445 -0.13166936 -0.09167435
0.06585336 -0.16327628 -0.08689819 -0.12715083 -0.066952765 0.041459925 0.004317721 3.3502118e-05
0.05219267 -0.18768682 -0.041835092 0.050953176 -0.04364129 -0.16351691 -0.11696439 -0.079801925
-0.08160965 -0.11442366 -0.05773324 -0.14561735 -0.041915845 0.002602858 -0.05630217 0.14513306
00000000: 9f84 11be 8c16 40bd 8ff6 dfbc 83a2 173e
00000010: 98f8 073d b44a bd3d c498 953d aefd 7cbd
00000020: 900d 393b 7236 6b3e 4289 4abd 055d e6bd
00000030: 3c8a e53d 028b 15be 6c16 9f3d 0ebb 0f3d
00000040: a543 c3bd 8db0 043e f9d9 35bd 578b 413e
00000050: 5c85 7dbd 5417 4cbd 08ef f73c 4ce6 0bbe
00000060: 11c5 173d 25f8 26bd f63e 49bd 62de b8bd
00000070: 2fae 6abc 5d41 a3bd e14d eabd 52e5 02be
00000080: 8186 9ebd 0296 cbbc c6bf 30be cb3e 913e
00000090: 458a 52be 389e 80bc 55d4 06be c3bf bbbd
000000a0: 20de 863d e631 27be aef7 b1bd d433 02be
000000b0: 881e 89bd e2d1 293d ab7b 8d3b a084 0c38
000000c0: fbc7 553d f930 40be 465b 2bbd 47b4 503d
000000d0: 36c1 32bd fa70 27be 078b efbd 316f a3bd
000000e0: f622 a7bd f456 eabd b179 6cbd b71c 15be
000000f0: f3af 2bbd b694 2a3b 1b9d 66bd c39d 143e

critic.2.weight f4 [64, 64]
0.03304374 0.073731825 -0.0003504441 -0.1882275 0.040346984 0.07031647 0.09193286 0.13185239
0.15443829 -0.043736547 -0.06078594 -0.09685666 -2.9374845e-05 0.049863283 -0.1192801 -0.016594045
-0.075315125 -0.25465417 0.18300045 0.037738856 0.11530021 -0.053035893 0.17085654 -0.019125642
0.022397017 -0.07445572 0.16251169 0.10874926 0.042626992 0.039292794 -0.027558923 0.07585163
0.15870155 0.16652688 0.08386153 -0.18631704 -0.06505468 0.004133252 0.27151117 0.092591524
0.09595939 0.09460186 0.10010788 0.1573054 0.113486625 0.11758349 -0.028083915 -0.1442255
0.13560222 -0.06894674 0.19793785 0.0759465 -0.33921605 -0.08065493 0.15922993 0.024653742
-0.04035156 0.079315394 0.024413642 0.08195365 0.107047394 0.08287198 0.07433044 0.0030072401
-0.12630849 0.0925216 0.012780287 0.057998512 -0.16235228 0.11778975 0.2587428 0.21614681
0.1869057 -0.014923004 -0.0068250136 0.12963736 -0.016818179 -0.15929794 -0.14300865 -0.05644792
-0.12347892 -0.17100945 0.23295887 0.13746089 0.006795597 -0.16429247 0.22780044 -0.121571146
0.014270763 -0.04798504 0.13584626 -0.003096827 -0.017918026 0.05736826 -0.034489185 0.03903477
0.16499361 0.3480847 0.11914471 0.032542076 -0.029153734 -0.04973076 0.32413098 0.013772734
0.15856127 0.11930167 0.00302942 0.0524531 0.12277645 0.0076805344 -0.06770539 0.13146898
0.01705648 -0.08047667 0.3389586 -0.0837014 -0.061171003 0.075035326 -0.07510603 0.21492504
-0.0651598 0.2571605 0.10951904 0.010845841 0.014661391 0.13170716 0.111080386 0.100741886
-0.06519689 -8.9844085e-05 -0.07906076 0.0065459074 0.08325256 0.07628359 0.09301651 -0.14214501
-0.10936516 0.0488838 0.0777118 -0.03292326 0.048923634 -0.116647355 0.065475084 -0.09780876
0.11351906 -0.09902093 -0.033647794 -0.05739652 0.04447937 0.07834389 0.077253476 -0.14390056
0.01117128 0.075952694 -0.091885574 0.025931908 -0.008800742 -0.053953297 0.023478722 -0.013207312
-0.0071402215 0.08997586 -0.057468336 -0.019767027 -0.059871297 -0.09070282 0.026388358 -0.022951411
-0.033641547 0.030093642 -0.093783244 -0.026794527 -0.02935597 0.09416851 -0.028051428 0.062192217
-0.13422607 -0.118676655 -0.002167952 -0.083328165 0.0008526868 0.010380021 -0.04772257 -0.12420247
0.066109106 -0.01879909 0.07544373 0.05274627 -0.13429706 -0.06993932 0.07286567 -0.07487696
-0.092395715 -0.03827793 -0.017412368 -0.1942244 -0.021764783 0.016233947 0.07650979 -0.12510096
-0.2194531 0.020282632 -0.10967159 -0.017991215 -0.1680021 -0.08404875 0.014385792 -0.16983262
-0.054113798 -0.04797885 0.03767407 -0.045084924 -0.03164384 0.047407005 -0.07729405 -0.10460873
-0.031009907 0.050611123 -0.12889166 0.056601666 -0.06904428 0.027575905 0.006655057 -0.13354135
0.05611457 -0.11045923 -0.06425299 0.055124767 0.09602793 0.013476613 -0.13278398 -0.1418748
-0.09134582 0.054614827 0.049168654 -0.1262777 0.01782069 0.067915596 0.026870431 -0.048918795
-0.14236055 -0.08023539 -0.07705992 -0.037838157 0.03237603 -0.076558486 -0.036729693 0.0530216
-0.030567665 0.11161058 0.03589146 -0.04616334 0.026995562 0.02327298 0.062385697 0.031058185
00000000: df58 073d b600 973d d0bb b7b9 b6be 40be
00000010: e142 253d 1502 903d 4c47 bc3d 5004 073e
00000020: 1225 1e3e 1825 33bd aefa 78bd c95c c6bd
00000030: 006a f6b7 713d 4c3d 2049 f4bd 3cf0 87bc
00000040: d13e 9abd 0862 82be 7864 3b3e 0f94 1a3d
00000050: 8422 ec3d 2a3c 59bd 04f5 2e3e 61ad 9cbc
00000060: f379 b73c 3e7c 98bd 7769 263e efb7 de3d
00000070: a499 2e3d 7bf1 203d 40c3 e1bc 1958 9b3d
00000080: a982 223e 0686 2a3e 98bf ab3d e5c9 3ebe
00000090: 633b 85bd 3b70 873b 8303 8b3e a0a0 bd3d
000000a0: 5b86 c43d 9fbe c13d 5c05 cd3d ab14 213e
000000b0: ad6b e83d 9dcf f03d 3d10 e6bc d9af 13be
000000c0: 4fdb 0a3e f333 8dbd 38b0 4a3e d789 9b3d
000000d0: baad adbe 692e a5bd 2c0d 233e a5f6 c93c
000000e0: ad47 25bd 1c70 a23d 1eff c73c 51d7 a73d
000000f0: aa3b db3d c9b8 a93d 8f3a 983d 1e15 453b
00000100: 0357 01be f77b bd3d 6964 513c d98f 6d3d
00000110: ad3f 26be c13b f13d f079 843e 9755 5d3e
00000120: 3564 3f3e 9e7f 74bc 5da4 dfbb a8bf 043e
00000130: 47c6 89bc 001f 23be dc70 12be ef35 67bd
00000140: 84e2 fcbd 1a1d 2fbe c58c 6e3e 8cc2 0c3e
00000150: 99ad de3b 493c 28be 8544 693e 4bfa f8bd
00000160: ebcf 693c f68b 44bd 481b 0b3e 23f4 4abb
00000170: d3c8 92bc fbfa 6a3d 8844 0dbd ece2 1f3d
00000180: 16f4 283e 2838 b23e 2402 f43d d74a 053d
00000190: d0d3 eebc 7bb2 4bbd 7ff4 a53e 09a7 613c
000001a0: e35d 223e 6f54 f43d 3c89 463b 10d9 563d
000001b0: 3872 fb3d feac fb3b 20a9 8abd ce9f 063e
000001c0: 08ba 8b3c f4d0 a4bd fb8b ad3e a46b abbd
000001d0: 728e 7abd 1fac 993d 31d1 99bd 4f15 5c3e
000001e0: 8072 85bd 8baa 833e 854b e03d c1b2 313c
000001f0: 5536 703c 3ede 063e 1d7e e33d c351 ce3d
00000200: f285 85bd ad6a bcb8 9cea a1bd 0d7f d63b
00000210: 5180 aa3d 923a 9c3d 717f be3d 768e 11be
00000220: d7fa dfbd 613a 483d 5d27 9f3d 8ada 06bd
00000230: 2664 483d cfe4 eebd cd17 863d f64f c8bd
00000240: ae7c e83d 7ccb cabd 45d2 09bd 9d18 6bbd
00000250: 0030 363d c372 a03d 1237 9e3d ab5a 13be
00000260: bf07 373c 168d 9b3d 812e bcbd 276f d43c
00000270: fd30 10bc 22fe 5cbd 7356 c03c 7b63 58bc
00000280: 85f8 e9bb 4445 b83d eb63 6bbd 76ee a1bc
00000290: 9b3b 75bd 66c2 b9bd 662c d83c 9904 bcbc
000002a0: b8cb 09bd f186 f63c 6e11 c0bd 3280 dbbc
000002b0: ee7b f0bc 6bdb c03d 1ccc e5bc 44bd 7e3d
000002c0: 8f72 09be bf0c f3bd 3314 0ebb f5a7 aabd
000002d0: d886 5f3a f710 2a3c be78 43bd dd5d febd
000002e0: 3664 873d 8d00 9abc 3e82 9a3d 790c 583d
000002f0: 2b85 09be 593c 8fbd 993a 953d 1759 99bd
00000300: f739 bdbd 52c9 1cbd 62a4 8ebc c3e2 46be
00000310: 0f4c b2bc 0efd 843c 2ab1 9c3d 771a 00be
00000320: 50b8 60be c327 a63c 809b e0bd 5062 93bc
00000330: be08 2cbe c021 acbd 63b2 6b3c 9ae8 2dbe
00000340: 6ea6 5dbd 7885 44bd 2050 1a3d f8aa 38bd
00000350: f99c 01bd d92d 423d 584c 9ebd 1a3d d6bd
00000360: 7d08 febc 9c4d 4f3d 2dfc 03be 26d7 673d
00000370: 1667 8dbd dde6 e13c aa12 da3b 10bf 08be
00000380: 64d8 653d 7338 e2bd 1297 83bd 82ca 613d
00000390: 4baa c43d 03cd 5c3c 86f8 07be a147 11be
000003a0: 8413 bbbd ccb3 5f3d 1265 493d f14e 01be
000003b0: b2fc 913c 5517 8b3d 611f dc3c 135f 48bd
000003c0: f7c6 11be 7452 a4bd 97d1 9dbd 2ffc 1abd
000003d0: ba9c 043d b2ca 9cbd e071 16bd 2d2d 593d
000003e0: 0a69 fabc 1694 e43d ec02 133d c515 3dbd
000003f0: cc25 dd3c faa6 be3c 2588 7f3d bc6d fe3c

critic.2.bias f4 [64]
0.06553357 -0.109678335 -0.13082473 -0.042059578 -0.11292724 -0.029937828 0.057359207 0.04285796
0.0673978 -0.0648936 -0.06920856 -0.082236975 0.06610092 0.07654007 0.10408313 -0.05537621
0.014824752 0.040199988 -0.09348707 -0.08427919 0.018196 0.024705335 0.0730856 -0.0374231
-0.11749358 0.012338344 -0.05298889 -0.06772829 -0.08000743 -0.13250823 -0.027832985 0.10652188
-0.1661312 0.09178464 0.011908152 -0.039088022 0.028300637 -0.05879057 -0.0727618 0.08004328
0.03445352 -0.078115016 -0.101458326 -0.090296425 0.043647032 0.10467995 0.07175685 -0.005390151
-0.019538837 0.10147145 -0.14922968 0.081999846 -0.044696752 -0.06814269 -0.04096469 -0.1226368
0.08689971 0.06636684 0.0057852864 0.028138572 0.01594916 -0.080749854 -0.049625665 0.111555144
00000000: 7736 863d 099f e0bd ebf6 05be aa46 2cbd
00000010: 6646 e7bd 2d40 f5bc 7df1 6a3d d48b 2f3d
00000020: dc07 8a3d f0e6 84bd 38bd 8dbd dc6b a8bd
00000030: eb5f 873d 0ac1 9c3d 8929 d53d 2ad2 62bd
00000040: 84e3 723c bea8 243d 2676 bfbd 919a acbd
00000050: c70f 953c d862 ca3c e7ad 953d f748 19bd
00000060: 79a0 f0bd c426 4a3c e10a 59bd 21b5 8abd
00000070: efda a3bd 3db0 07be 0002 e4bc 2528 da3d
00000080: 4c1e 2abe 96f9 bb3d 691a 433c c31a 20bd
00000090: bdd6 e73c 61ce 70bd 2304 95bd bbed a33d
000000a0: 221f 0d3d c4fa 9fbd 62c9 cfbd 55ed b8bd
000000b0: 3bc7 323d 7162 d63d 41f5 923d dd9f b0bb
000000c0: e90f a0bc 43d0 cf3d aacf 18be 89ef a73d
000000d0: f113 37bd 658e 8bbd 97ca 27bd 0129 fbbd
000000e0: 7af8 b13d 56eb 873d 8092 bd3b dd82 e63c
000000f0: d0a7 823c 2e60 a5bd 4844 4bbd 0677 e43d

critic.4.weight f4 [1, 64]
-0.04228779 -0.15472803 0.029995235 0.021173859 -0.1484393 -0.0255501 -0.11797563 -0.024472158
0.117459744 -0.13191208 -0.14467032 0.08430323 -0.03715992 0.017203297 -0.07740339 0.014464963
-0.005112141 0.03636245 -0.10570666 0.002621194 -0.11938382 0.008528844 0.052634615 0.003429368
-0.034625597 0.0082929535 -0.056945793 -0.12200669 0.10852326 0.003451673 0.0469414 0.07589154
-0.09705398 -0.09431928 0.010967227 -0.08643341 0.059636995 -0.005330608 0.0129409535 0.070865124
0.04200784 0.1306612 0.10202701 -0.0036179603 -0.08310296 -0.10399876 0.04001084 0.0032401194
-0.08132576 0.085455835 -0.04649158 0.083584756 -0.06775293 -0.15005328 0.05088632 0.03579401
0.016927738 -0.1083457 0.03645189 0.0012334158 -0.13756993 -0.12166176 0.10733214 0.086079106
00000000: f635 2dbd 0671 1ebe 91b8 f53c cd74 ad3c
00000010: 7900 18be 714e d1bc 359d f1bd d679 c8bc
00000020: bc8e f03d f613 07be 7524 14be 2ca7 ac3d
00000030: 0035 18bd eeed 8c3c ab85 9ebd 74fe 6c3c
00000040: bf83 a7bb cbf0 143d bc7c d8bd 57c8 2b3b
00000050: 817f f4bd 91bc 0b3c 6597 573d 3fbf 603b
00000060: 92d3 0dbd 2bdf 073c fe3f 69bd a5de f9bd
00000070: 7141 de3d 7735 623b a045 403d 066d 9b3d
00000080: 3dc4 c6bd 772a c1bd e2af 333c 0004 b1bd
00000090: ec45 743d 62ac aebb 4b06 543c bc21 913d
000000a0: 6a10 2c3d 0dcc 053e 89f3 d03d 4d1b 6dbb
000000b0: e231 aabd 4dfd d4bd 68e2 233d 2f58 543b
000000c0: 1f8e a6bd 7803 af3d f46d 3ebd 7c2e ab3d
000000d0: 0cc2 8abd 91a7 19be 2d6e 503d bd9c 123d
000000e0: 0aac 8a3c 5ae4 ddbd 944e 153d 91aa a13a
000000f0: 22df 0cbe cd29 f9bd f4d0 db3d 3e4a b03d
