Models/Reward_shaping_vm/Sparse_ICM_local_5_0/50000.pth (torch, 78437 bytes, 11 tensors)

actor.0.weight f4 [64, 62]
000000 ba 44 20 bd 18 7a e0 3d 4c 7f 2c 3d f7 16 a4 bd
       -0.039128043 0.109607875 0.042113587 -0.08012193
000010 70 6b 01 bd 49 33 22 3d e2 8d 67 3d b6 db f4 bc
       -0.0315966 0.03959969 0.056531794 -0.029889923
000020 7b 74 9c 3d 68 99 0d bd 6c 29 20 bd 63 c2 72 3d
       0.076394044 -0.034570128 -0.039102003 0.059267413
000030 e2 15 8e 3b a8 71 0b 3e dc 41 18 bc 62 6b c5 bd
       0.0043361047 0.13617575 -0.009293046 -0.09639622
000040 b0 dc ce bd 66 9a d9 bd 88 cb ec 3c 6e 49 8e bd
       -0.101006866 -0.10625152 0.028905645 -0.06947599
000050 50 d8 89 3d e2 36 9f 3d 34 2d 54 bd db fe fb bd
       0.067307115 0.0777414 -0.05180092 -0.12304469
000060 d4 ad c8 bd d4 f4 89 3d 6a 36 78 bd b4 c0 5b bd
       -0.0979878 0.067361504 -0.06059877 -0.053650573
000070 d2 2f 4c 3d 8f d4 bd bd ec 3d 39 bd 5f a0 65 bd
       0.049850293 -0.09269058 -0.04522507 -0.056061145
000080 7d 3f b9 bd 78 be cb 3d e0 56 d2 bc be 71 fb 3d
       -0.090453126 0.099484384 -0.02567619 0.12277554
000090 7e c5 92 bc a3 46 42 bd 61 2b 93 bd 1d bb 6d bc
       -0.017916437 -0.047430646 -0.07186008 -0.014509943
0000a0 dd 38 69 bc 9a 9a 90 bd 0d c7 d7 bc 19 54 68 be
       -0.014234749 -0.07060738 -0.026340032 -0.2268833
0000b0 a8 d1 12 bd 90 11 c3 bd 56 56 e1 3d 64 61 a3 3d
       -0.035844475 -0.09524834 0.110027954 0.0797756
0000c0 f0 cd bc 3d 73 1c 73 3d 1c e5 86 bc 58 fc cb 3b
       0.09218967 0.059353303 -0.01646667 0.00622515
0000d0 5c f4 c0 3d d1 93 1e be 9b a0 ef bc 16 51 0c be
       0.09421608 -0.15486075 -0.029251387 -0.13702807
0000e0 e4 b7 1c 3b 40 7b 0a bc 1e c5 f9 3a e9 05 56 3d
       0.0023913318 -0.008452237 0.0019055938 0.05225173
0000f0 ab 8b d5 bd 45 90 49 bd 28 06 cb 3c b6 97 00 3e
       -0.1042703 -0.04920985 0.024783209 0.12557873
000100 76 59 e2 3d 24 06 da bd 06 77 2a 3e 25 8e e7 3d
       0.110522196 -0.106457025 0.16646966 0.11306409
000110 b9 f2 d2 bd 55 ed 41 3e af fd 02 3e ac aa 74 3e
       -0.10300202 0.18938191 0.12792085 0.23893231
000120 b2 5b 7b 3d d5 a4 1c bd 57 4e dc bd a3 fa 95 bd
       0.061366744 -0.038243134 -0.1075713 -0.07323196
000130 22 12 98 3d 20 f6 a5 bd 5a 59 0f bd 48 a2 e9 3c
       0.074253336 -0.08103585 -0.03499732 0.028519765
000140 2c ca e5 3d ba 08 b0 bd a2 f7 e0 bd ec 4e ec bc
       0.11220202 -0.085954145 -0.10984732 -0.028846227
000150 18 a6 af bd 4e cd 75 bd a0 89 92 3c 1c 56 c6 bc
       -0.08576602 -0.060010247 0.01788789 -0.024210982
000160 d4 3b d6 bd a4 4d c4 3d 7f eb c0 3d 11 28 38 3e
       -0.1046063 0.09585121 0.09419917 0.17984034
000170 92 2a 4b 3d b3 49 45 bd ac 55 97 bc 50 5e e8 3d
       0.049601145 -0.04816599 -0.018473469 0.11346114
000180 dc f2 fc bc 8a de bd 3d e4 54 ac bd 35 cd 38 be
       -0.030877523 0.092709616 -0.08414629 -0.1804703
000190 93 7c ee be 71 4f 09 be cd 00 49 bd 16 32 c8 bd
       -0.46579418 -0.1340921 -0.04907303 -0.09775178
0001a0 2e 5b 15 be 14 d7 8c be ce b9 73 be 30 cf 88 be
       -0.14585564 -0.27507842 -0.23801348 -0.26720572
0001b0 36 b4 76 3d a6 c2 0f 3e 07 07 41 3d 2f 95 01 3e
       0.060230456 0.14039096 0.047125842 0.12654565
0001c0 dc d8 cf bd 69 49 c1 3c c4 f9 8d 3d 48 c3 6e 3d
       -0.101487845 0.023594575 0.06932405 0.058291703
0001d0 a7 6f 04 3e 56 68 1b bf 51 5f 46 be 9e c2 50 bd
       0.12933217 -0.6070608 -0.19372298 -0.05096685
0001e0 03 af 1e be 94 d6 8f 3d e9 95 31 bd 5b f3 30 3e
       -0.15496449 0.070233494 -0.043355856 0.17280333
0001f0 78 cb f3 3c 4d 17 97 bd 8e 7a fb 3d 20 ee a0 3c
       0.029760107 -0.07377491 0.12279235 0.019644797
000200 d0 4c 80 bc 0d 26 ab ba b1 36 da bb 63 d3 67 bd
       -0.015661627 -0.0013057605 -0.0066593518 -0.05659808
000210 e0 0e 24 be 79 28 b2 3b 23 d8 67 3c ec ff 1a be
       -0.160213 0.0054369536 0.014150652 -0.15136689
000220 29 8f 7e bc 17 9d 34 bd 03 da 3a 3d b2 8b 1f be
       -0.015537062 -0.044095125 0.04561807 -0.15580633
000230 3c 22 7d 3d d4 8e cc 3d 07 bd d4 bd 36 a5 a4 bd
       0.061800227 0.0998818 -0.103876166 -0.08039324
000240 f0 f1 83 3d 18 d6 b2 3c ac 86 c3 bd 6c c1 61 bd
       0.0644263 0.021830603 -0.09547171 -0.055116102
000250 b4 ea 3f 3d c0 8e ba 3d f0 c3 fe 3d 24 ac f4 bc
       0.04685469 0.09109259 0.12439716 -0.02986724
000260 c3 fe 19 be 4a ce 9a 3c 11 8d a9 bc 2b 68 9e bc
       -0.1503859 0.018897194 -0.020697149 -0.01933678
000270 cc 21 e8 bc 14 4b f6 bd c0 12 8b 3b 90 2d d5 3d
       -0.028336428 -0.12026039 0.0042441785 0.10409081
000280 f4 27 2b be 87 dd eb bc 32 ea 45 3c 2e 3f 45 be
       -0.1671446 -0.028792156 0.012079762 -0.19262382
000290 ad fb 64 3d c2 c1 c2 3b 5d c0 28 3d 47 1e e7 3c
       0.05590408 0.005943508 0.041199077 0.02821268
0002a0 43 7e 11 3d 48 fa 90 3d c9 6f a1 3d 46 9a a3 bd
       0.035520803 0.07078987 0.078826495 -0.0798841
0002b0 ee 4c ce bd 9a 6c c3 bd 51 0b 86 39 f4 cb 1d bd
       -0.10073267 -0.095421985 0.00025566903 -0.038524583
0002c0 b3 b7 d1 bd 7d 1f 7c bd 15 5a 0d be b8 fa 1f be
       -0.10240116 -0.061553467 -0.13803895 -0.15622985
0002d0 56 4b 06 3d 36 e2 2a bd a3 74 89 3c eb b2 ce bd
       0.03278669 -0.041719638 0.01677925 -0.1009272
0002e0 72 18 0a be f6 4b 10 be 98 e0 89 bd 50 1b 23 3d
       -0.13485888 -0.14091477 -0.06732291 0.03982097
0002f0 58 a5 1b 3d f4 9a 01 3e 83 89 2e 3d bb 03 06 3e
       0.03799948 0.12656766 0.04261161 0.1308736
000300 f1 d6 9a bd 9a 34 90 bd 38 18 d8 3d 1b c6 7b 3e
       -0.07560528 -0.07041283 0.10551494 0.2458729
000310 81 8f e4 3d dd ab e4 3d d9 d2 d1 3b f6 7b 83 3d
       0.11160184 0.11165593 0.006403309 0.06420128
000320 86 0b 82 3c 0b df 1b be d4 94 d3 bd e9 53 f7 bd
       0.015874635 -0.15221803 -0.10331121 -0.120765515
000330 c0 98 20 bd 0c 60 a6 bd 92 66 e4 bd be 4e 96 bd
       -0.039208174 -0.08123788 -0.11152376 -0.07339238
000340 d2 28 93 3d 58 6f c9 3c e8 44 cf 3c 46 03 da bd
       0.0718552 0.024589226 0.025301412 -0.106451556
000350 54 d6 75 3d 10 db 85 bb d0 38 18 bd 3a 3f b5 3d
       0.060018852 -0.004084952 -0.037163556 0.0884995
000360 2c 91 e3 bd c5 88 80 3c 24 0c 37 3d 14 63 7c 3d
       -0.11111674 0.015690217 0.044689313 0.061617926
000370 d2 65 9d 3d 50 bd fd 3d 36 bd d7 bd 59 85 c4 bd
       0.07685436 0.12389624 -0.10534136 -0.095957465
000380 7a 03 ab be b4 95 7e bd 82 ea d0 3d 5b aa 7a bd
       -0.3340109 -0.062154487 0.10200979 -0.06119762
000390 79 8c 0e bd 44 37 64 bd 4c 43 72 3d 71 c7 23 be
       -0.034801934 -0.055716768 0.05914621 -0.1599405
0003a0 2b f2 bf 3d 9f 9d 8f bc 4b f2 9d 3d b6 a8 a6 bd
       0.09372362 -0.017531214 0.07712229 -0.08137648
0003b0 86 dd a6 bd f8 92 13 be f5 d0 f0 bd d2 cb 84 bd
       -0.08147721 -0.14411533 -0.117586054 -0.06484188
0003c0 7a d7 10 3e ed a8 aa be 26 45 5f be 48 79 81 3c
       0.14144698 -0.33332005 -0.21803722 0.015804902
0003d0 ae 37 3d be 94 a4 95 3d d6 5d 01 bc d6 c9 30 be
       -0.18478271 0.073067814 -0.007895907 -0.17264494
0003e0 3c 14 cf bd a2 61 60 bd b8 55 72 bd 0c 58 42 3d
       -0.10111281 -0.05478061 -0.05916378 0.04744725
0003f0 35 3d 62 be c6 58 ee 3d 1b c2 df bc 47 db 71 be
       -0.22093661 0.11638026 -0.027314236 -0.23618804

actor.0.bias f4 [64]
000000 42 56 fc bd a4 b8 69 bb 4c 67 b5 bd 57 0e c6 bd
       -0.1232114 -0.0035663033 -0.08857593 -0.09670704
000010 69 37 df bd 3f 9c 62 be 0e 23 5d bd eb 43 8e 3d
       -0.108992405 -0.22129916 -0.05398851 0.06946548
000020 ae f4 2c bd 9f f3 38 3d 6c 9b 10 be ba 98 5a bd
       -0.042225532 0.04515421 -0.14121789 -0.053368308
000030 8f c2 81 bd 80 31 45 bd de 85 8c bd eb b0 82 3d
       -0.06335937 -0.04814291 -0.06861471 0.06381401
000040 1a a7 1d be 2d 6d 07 be 0a 23 75 bd 93 c0 f9 bc
       -0.15395775 -0.13225241 -0.05984787 -0.030487334
000050 73 8d 3e bd 9e cd 5d bd 11 27 26 be 6f 6b 7a bd
       -0.046521615 -0.05415117 -0.1622584 -0.061137613
000060 08 bb b5 bc 53 1c 2e bc 71 c5 2b bd c7 6e c0 bd
       -0.02218391 -0.01062687 -0.04193634 -0.09396129
000070 61 0c 4c be 95 a3 1c bb 31 ab bd 3d 5f 04 09 be
       -0.19926597 -0.0023901213 0.09261168 -0.13380574
000080 58 48 22 bd f5 4e 80 bc f0 80 c0 bb f3 fa 6d bd
       -0.039619774 -0.01566265 -0.0058747455 -0.058100652
000090 90 f6 59 3e b6 9a d6 bd 19 87 ca 3b 6e 2f f5 3b
       0.21285462 -0.104787275 0.0061806557 0.0074824607
0000a0 eb 8d 5f bd 1a e0 fe bc d0 35 b3 bd 92 e3 30 bd
       -0.054578703 -0.03111272 -0.08750498 -0.043185778
0000b0 27 56 58 bd 3d b9 2f be 38 22 5f bd ef b2 28 bd
       -0.052816536 -0.17160507 -0.054475993 -0.04118627
0000c0 26 c7 a7 3c c6 2c 0b be 8c e6 ee bc 33 9d a2 3d
       0.020480704 -0.13591298 -0.029162668 0.079401396
0000d0 a9 be 92 be b6 9e e4 3d f7 16 b7 bd 1d 3a ea bc
       -0.28661087 0.11163084 -0.08939927 -0.028592164
0000e0 4c bf a7 bd c3 aa d4 bd 26 9c a3 3d 64 20 d1 bd
       -0.08190784 -0.10384133 0.07988767 -0.10211256
0000f0 ce 18 c7 bd 70 22 64 bd 98 61 ec bb 7e 89 ee bd
       -0.09721528 -0.055696905 -0.0072137825 -0.11647318

actor.2.weight f4 [64, 64]
000000 b5 8f 94 3b bf 91 e3 3d 86 e1 9f 3d f2 fa 06 be
       0.004533733 0.11111783 0.07806687 -0.13181666
000010 e3 63 92 bb bd b8 c5 bc da b4 70 3d 25 87 a5 3d
       -0.004467474 -0.024135942 0.058766223 0.080824174
000020 f1 b6 3a be e5 1c 87 3e b4 b0 e1 bd 22 1f b1 3d
       -0.18233849 0.26389232 -0.110200316 0.08648516
000030 41 c5 5c bd 15 7e 2c 3e 7f d5 a0 3d de 13 70 be
       -0.053899053 0.16844971 0.07853221 -0.23445079
000040 0b 86 b1 bb 73 2f 33 bd 84 cb fa 3b f9 c1 53 3d
       -0.0054175905 -0.043746423 0.0076536555 0.05169866
000050 4d 1a 4e 3d 3c d7 80 bc 6d c7 e5 bd 86 d5 07 3e
       0.05031805 -0.015727632 -0.11219678 0.13265046
000060 e1 c3 9f 3d d3 74 a2 be d4 83 8d bd 23 fb b1 3d
       0.07801033 -0.31729755 -0.0690991 0.08690479
000070 68 74 aa be 5f fc 40 3b d0 58 a9 bd 0a 64 97 bd
       -0.33291936 0.00294473 -0.08268893 -0.07392128
000080 bf e0 64 be 24 a8 e0 bd 94 a2 f7 bd 91 bf 3c bd
       -0.22351359 -0.1096957 -0.12091556 -0.04608113
000090 7f c6 19 be 25 a7 5b 3e 42 fc 86 bc 59 30 11 3e
       -0.15017127 0.2145048 -0.016477708 0.141786
0000a0 db 5c 6e 3e cc d6 07 3e eb e1 25 3c 45 c7 4b bd
       0.23277609 0.13265532 0.010124664 -0.049750585
0000b0 f3 47 c8 bd 3f 4f c5 3d ac dd 3d 3d 44 76 07 3e
       -0.09779348 0.096342556 0.04635398 0.13228709
0000c0 9b 93 f6 3d 39 b8 42 bd f3 ef 4e bd 96 f6 10 be
       0.12039872 -0.04753897 -0.050521802 -0.14156565
0000d0 cb 92 dd 3d 30 22 00 be 5e 70 6e 3e a0 75 fe 3d
       0.10819014 -0.12513041 0.23285052 0.12424779
0000e0 61 09 2f 3e 19 89 35 3d bc 79 bb bd 63 72 0b 3e
       0.17093422 0.0443202 -0.09154078 0.13617854
0000f0 6b 77 3e be 60 f7 35 bd 1f c6 0b 3d 0a 78 3d 3b
       -0.18600242 -0.04442537 0.03412449 0.002891066
000100 56 57 09 be 73 21 cf bd 6a a8 aa 3c f7 79 2b bd
       -0.13412222 -0.10113802 0.02083226 -0.04186436
000110 05 b8 70 bc 30 db c3 3c e8 b2 62 be 29 78 64 3d
       -0.014692311 0.023908228 -0.2213856 0.055778656
000120 c1 90 80 bc 7a 67 85 bd 6c d0 72 3d 64 0d aa 3d
       -0.015694024 -0.06513877 0.059280798 0.08303335
000130 e6 e6 03 be c0 2a a3 be 0f 52 3b be ae 78 ff 3d
       -0.1288105 -0.31868553 -0.18293022 0.1247419
000140 c1 71 16 3d aa 0e 30 3e b2 78 80 3c 1e 45 2c 3e
       0.036729578 0.17193094 0.015682552 0.16823241
000150 dc 90 90 bd 20 93 36 3e 61 ff d9 bc b8 23 ff 3c
       -0.0705888 0.17829561 -0.026611032 0.031144962
000160 54 4b 38 bd cc 3a 85 3d 56 b7 52 ba d6 4e b8 bd
       -0.044993713 0.06505355 -0.00080381834 -0.08999412
000170 11 92 89 3d ac cd 56 be dc c4 84 bd ed 26 0a 3e
       0.06717313 -0.20976895 -0.064828604 0.13491412
000180 40 c6 46 3e c0 42 ae bb 30 2f 5d bc 9a 73 b2 3d
       0.19411564 -0.005318016 -0.01350002 0.087134555
000190 c1 68 a2 3e a0 04 4d be fe 34 a3 3d f0 36 d0 bd
       0.31720546 -0.20021296 0.07969092 -0.101667285
0001a0 c7 eb 09 be 52 69 23 bd 72 59 aa 3c e9 1a 04 be
       -0.13468848 -0.039895363 0.020794604 -0.1290089
0001b0 95 78 91 3c cd 19 f9 3b 08 44 08 3e 7d 30 0b be
       0.017757693 0.0076019526 0.13307202 -0.13592716
0001c0 cc 2e c4 be 52 4e 84 be 32 f1 a0 3d 22 5c 4e 3e
       -0.38316953 -0.25841004 0.07858504 0.20152333
0001d0 fa d9 d1 3d e6 02 cf 3d 3c 35 ea bd fc 86 c8 3d
       0.10246654 0.10107975 -0.11435935 0.09791371
0001e0 a4 c7 d9 bc 8e 1f 35 3e 98 74 90 3e 35 91 1a 3d
       -0.026584454 0.17687818 0.28213954 0.037736136
0001f0 14 7e 1f 3d a7 95 68 be 6e 49 01 3d 28 a2 a1 bd
       0.038938597 -0.22713338 0.03156417 -0.07892257
000200 5c 61 d7 3b 34 c7 23 3e 2a 96 18 bd b0 76 a6 3d
       0.0065728854 0.15993959 -0.037252583 0.081281066
000210 0e 90 ea bd 11 6d 47 be 6e 8d a5 3d f9 5b 14 be
       -0.114532575 -0.194752 0.08083616 -0.1448821
000220 30 01 4e bd 7b 60 28 ba 20 0d 4b bd 05 84 ae bd
       -0.0502941 -0.0006423068 -0.049573064 -0.085212745
000230 7c 94 13 bd 76 d1 f4 bd 6b f5 97 3d 34 7b 9e 3d
       -0.036030278 -0.11954014 0.07419857 0.07738343
000240 47 8b 0b 3c 91 08 eb bd eb 28 3c 3d b6 fd f0 bd
       0.008517093 -0.11476243 0.04593746 -0.117671415
000250 11 c7 8f 3d 04 2a 0d bd d1 b3 e5 bc c8 8b 21 3c
       0.07020391 -0.034463897 -0.028039845 0.009859987
000260 ec 8f ac 3d 62 fd c6 3d 47 df ce bd ae 79 e8 3c
       0.084258884 0.09716298 -0.101011805 0.028378334
000270 25 9b 6d 3d e8 d5 b0 bd a4 73 9c bd 93 3d 01 3d
       0.058009285 -0.086345494 -0.07639244 0.031552862
000280 05 00 0c be a5 4c 6e 3e 97 d1 5f be 3e bd 84 3d
       -0.13671882 0.23271425 -0.21857296 0.064814076
000290 a0 4d aa 3d 5b 8f 5e be 81 ea 58 3e e6 fc c0 be
       0.08315587 -0.21734373 0.21183206 -0.37692946
0002a0 05 f9 a3 3b 16 45 4e be 7f 4b da bb 6c 41 d9 bc
       0.0050040507 -0.20143542 -0.006661832 -0.026520453
0002b0 94 63 89 3d 53 8a 72 bd ac c9 0a bd ef 57 43 3e
       0.06708446 -0.059213948 -0.033883736 0.19076513
0002c0 bb 7f 97 bd ad 1f c7 3d 77 99 87 3e 8e 5f 97 3d
       -0.073974095 0.097228386 0.26484272 0.073912725
0002d0 a5 44 0c be 5e 49 a2 3d d4 b0 64 be ea 81 08 3c
       -0.13698061 0.0792415 -0.2233308 0.008331755
0002e0 7b 2b dc bd ee 92 c3 bd a9 b2 69 bc 54 86 31 be
       -0.10750481 -0.09549509 -0.014263787 -0.17336398
0002f0 b0 7c 4d be 2f 7c 17 3e 32 16 ec 3d 75 93 ed bc
       -0.20067096 0.14793466 0.11527671 -0.029000977
000300 06 c2 a9 bd aa a6 42 be 55 c1 9d 3d 89 56 fb bd
       -0.0828896 -0.1900889 0.07702891 -0.12272365
000310 52 a2 40 bd ee 42 25 3e 98 15 29 3e 7a ca 79 3e
       -0.0470298 0.16138813 0.16512144 0.24393645
000320 fc 3f 2f 3e ce e1 9c 3c dd a5 66 bc df 3b 27 3c
       0.17114252 0.01915064 -0.014077631 0.0102071455
000330 9d bc 05 bd 82 de 40 be d2 f6 96 3d e8 cd 4d 3d
       -0.03265058 -0.1883488 0.07371296 0.050245196
000340 e7 af e6 bd 4a a3 56 3d a3 78 e5 bd 58 55 77 3e
       -0.112640195 0.05240182 -0.1120465 0.2415365
000350 d9 48 64 3d d4 07 0f be 22 0c c7 3d 48 26 2f 3e
       0.055733535 -0.1396783 0.09719111 0.17104447
000360 f1 d1 32 be 23 04 1b 3d 84 ee 8e 3e e6 e9 a6 bd
       -0.17462899 0.037845742 0.27916348 -0.08150081
000370 8e a1 e0 3d a2 e4 47 bd a3 ec 8f 3e 33 44 ba bd
       0.10968314 -0.048802026 0.28110227 -0.09095039
000380 a0 b4 f8 3d d9 8c 9e bd c3 d2 38 be dc 72 28 be
       0.121438265 -0.07741708 -0.18049149 -0.16450065
000390 57 63 c4 3d da ac 60 be ef 1d 91 bd 3b ea d4 3d
       0.0958926 -0.21940938 -0.070857875 0.103962384
0003a0 25 83 00 be ce f4 5b 3e 47 9c f3 bd 3a 59 29 3e
       -0.12550028 0.21480104 -0.11895042 0.16537943
0003b0 f8 52 ef 3d b7 59 6d be 23 2e 3f be 3b 10 b1 be
       0.11685747 -0.23178755 -0.18669944 -0.34582695
0003c0 78 43 3f be 90 54 17 be 22 13 6d bd f6 b6 4b be
       -0.18678081 -0.14778352 -0.057879575 -0.19894013
0003d0 93 a3 a7 38 47 17 f0 3d d3 34 af be 98 ca 14 3d
       7.9936486e-05 0.1172319 -0.3421999 0.03632602
0003e0 fe 05 29 be 0d 72 2c bd 43 c2 63 3c 18 5b 9d bd
       -0.16506192 -0.042100955 0.013901296 -0.076833904
0003f0 51 21 01 bc 57 79 96 3e c4 63 ce 3e a5 d2 3a 3e
       -0.007881478 0.2938945 0.4031049 0.18244417

actor.2.bias f4 [64]
000000 37 42 a9 bc 24 c2 ec 3d 68 d9 2b bd bd f7 10 3e
       -0.020661457 0.11560467 -0.04195538 0.14157005
000010 bd c4 ad 3d 65 9f 65 bd 54 c4 e7 3d e5 8c f0 bc
       0.084847905 -0.056060214 0.113167435 -0.029364059
000020 fd 93 22 be 5a 01 48 bd 6a cb 72 bd 6f 7f f7 3d
       -0.15876766 -0.048829414 -0.059276022 0.12084853
000030 44 ad 2c bb b1 34 13 be 0a b7 31 bb d3 86 0e 3d
       -0.0026348392 -0.14375569 -0.0027117156 0.034796547
000040 6d 8a 71 bd e5 c0 22 be b2 ce 44 bd 5c 82 c9 bc
       -0.058969904 -0.15893896 -0.048048683 -0.024598293
000050 99 37 17 be 62 04 75 bc b8 98 df bd 70 35 fe 3d
       -0.14767303 -0.014954658 -0.10917801 0.12412536
000060 3d a0 44 3c cd 2a af 3d f5 cc dc bd f5 69 39 bd
       0.012001094 0.085530855 -0.1078128 -0.045267064
000070 b1 4f cc bc 2a 0c 22 be b6 37 1d be 7b 42 92 bd
       -0.024940344 -0.15824953 -0.15353283 -0.071415864
000080 87 d9 34 bd c0 50 92 3b 1c 49 74 bb 0d 37 19 bc
       -0.044152763 0.0044651926 -0.0037275022 -0.009351504
000090 63 e7 28 be f6 3d 2d be 7d 6c bf bd d4 8d 17 be
       -0.16494517 -0.16918167 -0.09346864 -0.14800197
0000a0 db fc 9e 3d a5 a2 69 3b d8 f0 24 bc 03 0f a5 3d
       0.07763072 0.0035649922 -0.010067187 0.08059504
0000b0 41 7c 66 3c 6b f5 9d bd ce 48 09 3e 95 24 41 3e
       0.01406771 -0.077128254 0.13406679 0.18861611
0000c0 e3 62 6a be 56 a8 7f 3d ed 13 0e be cb 78 35 bd
       -0.22889285 0.062416397 -0.13874789 -0.04430465
0000d0 a4 64 01 bc ea 0e 52 bd f1 47 b0 bb 6b c2 d4 bd
       -0.00789753 -0.051283754 -0.00537967 -0.10388645
0000e0 bf 7f 2a 3d 2b 37 6d bd 0a 62 33 3d 18 c4 44 bd
       0.041625734 -0.05791394 0.04379467 -0.048038572
0000f0 6a 8a 12 3d fa 74 2a bc 83 af 93 3d a3 6a 44 3d
       0.035776533 -0.010403866 0.072112106 0.04795326

actor.4.weight f4 [36, 64]
000000 6f bc c3 bc 36 b9 c1 3c 06 e5 f4 bc 6a 18 29 3e
       -0.023893563 0.023647886 -0.029894363 0.1651322
000010 eb c6 6e 3d 67 a9 a8 3d 99 1a 00 3e 29 42 04 3c
       0.05829517 0.08235436 0.12510146 0.008072414
000020 07 8a 8d bc ad aa c2 bc 0d 28 d9 bd 0e cd 13 bd
       -0.01727773 -0.023763025 -0.10603342 -0.036084227
000030 d9 d3 75 3e e0 86 ad 3c 2c d6 14 bd ae b6 2c 3e
       0.24006595 0.021182477 -0.036337063 0.16866562
000040 6a 03 1d 3c 90 03 a3 bd a4 63 46 bd a0 1e 1f 3e
       0.0095833335 -0.07959664 -0.04843487 0.15539026
000050 6a 83 c4 3b bb 4f 2b 3e 8b 6e ea 3c 90 b0 8c 3c
       0.005997111 0.16729634 0.028617164 0.017174035
000060 84 89 5e bd 50 bb 28 bd ba 27 fc bd 3e 77 16 be
       -0.054330364 -0.04119426 -0.12312265 -0.14693925
000070 1d f8 6b bc 5d 75 57 3e 2d f9 a0 3d 32 df fb bd
       -0.014402417 0.21040864 0.078600265 -0.122984305
000080 9f 44 96 bd 02 d0 a0 3c 78 e9 46 bd fc f4 29 3d
       -0.07337307 0.019630436 -0.048562497 0.0414934
000090 65 f2 2a be f2 49 ed 3d 93 ac b1 3d 11 b7 e4 3d
       -0.16694029 0.115863696 0.08675494 0.1116773
0000a0 5b 7d 2a 3d c8 5d 8b 3c 57 be de 3d 99 34 f9 bc
       0.041623455 0.017012492 0.10876148 -0.030420588
0000b0 c8 23 5d 3d e0 bd 05 3d c9 7e 38 be 31 d1 ca bc
       0.0539892 0.032651782 -0.18017115 -0.024757953
0000c0 6a d5 36 3e e6 7d ec 3d 29 0f ba bd 18 04 7d 3d
       0.17854849 0.11547451 -0.09084923 0.061771482
0000d0 db 4d 5c 3e 14 00 44 3e ae f7 38 3e c4 6f be 3d
       0.21514075 0.19140655 0.18063232 0.09298661
0000e0 98 fd 6d bb 29 14 e9 3c 84 94 fa 3c b9 1d a5 bd
       -0.0036314484 0.028451996 0.030588396 -0.0806231
0000f0 0f f1 95 3e bf 82 90 3e 12 0b 22 3e 68 54 8c 3d
       0.29285476 0.2822475 0.15824535 0.06852037
000100 17 8d 3d 3e 33 54 a0 bd 21 43 f1 3c 9d a0 9e 3d
       0.18510853 -0.0782856 0.029450955 0.07745478
000110 fb 02 b7 3c e8 c1 59 3d 19 40 1c bd cf 36 34 3e
       0.022340288 0.05316344 -0.038147066 0.17599033
000120 a9 2b 40 3e 1a f5 03 3e d5 01 84 3d fa ac 8b bd
       0.18766655 0.12886468 0.06445662 -0.06820102
000130 5e e1 ee ba ce 8d 8b 3e f3 57 03 3d da 96 74 bd
       -0.0018225124 0.27256626 0.032066297 -0.059714176
000140 fa 45 56 bd bf 07 1a 3c 57 f1 10 3b 22 ed a7 bd
       -0.05231283 0.009401261 0.0022116506 -0.08199526
000150 e4 46 d5 3c ce cc 33 3d 18 71 aa bb 37 f1 d6 bd
       0.02603478 0.04389649 -0.00520147 -0.10495227
000160 b2 37 04 bd a1 81 f3 bd d1 a3 f0 3d 2e b6 9d 3d
       -0.032279678 -0.11889959 0.117499955 0.07700764
000170 25 01 6b 3e bf e1 17 3d 4a 47 95 3d df 72 2d be
       0.22949655 0.037080523 0.07288988 -0.16938351
000180 02 6d 7b 3e 53 1d d6 3d 69 6e f5 3d 7e 30 74 be
       0.24553302 0.10454812 0.1198395 -0.23846623
000190 15 44 66 3d 52 95 32 3d ba 26 91 3d 2b 87 2b bd
       0.05621727 0.043599434 0.07087465 -0.041876953
0001a0 fb 05 3e 3d 34 4f 6a be 72 7a 8e 3e af 1c 65 3d
       0.046392422 -0.22881776 0.27827793 0.055935558
0001b0 df e7 27 3d 9e 5c 52 3e 29 32 e1 3d 04 20 ec 3c
       0.040992614 0.20543143 0.109958954 0.02882386
0001c0 8b 29 ab 3e 9b 82 4f bc 7b 69 81 3e 60 ce a2 3d
       0.33430132 -0.012665416 0.25275788 0.07949519
0001d0 e9 8b fc 3d 9b 39 80 3e 75 19 2b 3e 34 e6 d2 bd
       0.12331373 0.2504395 0.1670893 -0.10297814
0001e0 96 3c 90 bd 34 2a 3d bd 01 30 3b bc 13 f2 f8 3b
       -0.07042806 -0.046182826 -0.011425019 0.007597217
0001f0 05 24 5e 3e 04 10 af 3d 09 41 11 be ed 12 82 3d
       0.21693428 0.085479766 -0.14184965 0.06351266
000200 69 a4 0d 3d a6 a0 95 bd c7 bd ff bc fe 24 41 3d
       0.034580622 -0.07306032 -0.031218423 0.04715442
000210 ea b3 77 bd 0c f4 78 be fd be 22 3e 67 51 28 3e
       -0.060474314 -0.24311846 0.15893169 0.16437303
000220 e8 a8 d5 3d 2a 14 a5 3d 63 83 be bd 2a 38 e1 bd
       0.10432607 0.080604866 -0.09302404 -0.109970406
000230 32 b6 69 3e 4a b4 80 3e 90 9f 85 bd 2b 23 3a be
       0.22823408 0.2513755 -0.06524575 -0.18177478
000240 5c 99 6b 3c 6c cd 13 3d 02 e6 e8 3d 5e 6d f8 3d
       0.014379825 0.036084577 0.113719955 0.12130235
000250 bd 2d ce 3d 52 d8 21 3d 79 b1 53 bd 29 45 1b bd
       0.10067318 0.03951294 -0.051682923 -0.037907753
000260 81 db 28 be 11 f9 18 bb 87 8a 5c 3d a0 65 c9 bd
       -0.16489984 -0.0023341815 0.053843047 -0.098338366
000270 86 8b be bb bc 4f 39 3e 3b a2 90 3c 56 0a 16 3d
       -0.0058149723 0.18096823 0.017655483 0.03663095
000280 53 ac 9d bd 4a 1e a2 bd c6 7f fb 3d bc 09 2d 3d
       -0.07698884 -0.079159334 0.1228023 0.04224561
000290 0c 6a 8d bd a3 8b f0 3b 98 2e d1 3d ff b5 20 be
       -0.069049925 0.0073408647 0.10213965 -0.15694426
0002a0 2a 06 c8 3d 3f 87 ed bd 7c 8c 06 ba 83 c4 b1 3e
       0.09766801 -0.11598062 -0.0005132628 0.3472024
0002b0 54 b0 2e 3d 0e 00 5d bc 69 f8 68 be e8 8f 82 3e
       0.04264863 -0.013488783 -0.22751011 0.25500417
0002c0 8f 13 33 be b0 bf ae 3d 36 8f f8 3d fb fa 50 3d
       -0.1748793 0.08532655 0.1213669 0.051020604
0002d0 9b 32 ae bc 83 de 77 3e 5f 1e 93 3e 67 3e 51 bd
       -0.021264365 0.24205975 0.2873411 -0.051084902
0002e0 76 39 05 be 8c 6c ef 3d 68 da be bc e8 15 ad 3c
       -0.13010201 0.116906255 -0.023297504 0.02112861
0002f0 f5 47 12 3e 08 fb 2c 3e 79 bc 76 3c 2b ef 6a 3d
       0.14285262 0.16892636 0.015059584 0.057356995
000300 40 cb 12 3e ce a7 a6 3d fb 92 98 3e 36 99 b2 3e
       0.14335346 0.08137475 0.29799637 0.34882516
000310 78 5e d1 3e 32 59 af 3d f2 84 9b 3e 69 45 72 3e
       0.40892386 0.085619345 0.30374867 0.2365929
000320 d1 44 91 3e 71 9e bf 3e 68 7c 59 3e 2b 8c 98 3e
       0.28372815 0.3742557 0.21238863 0.2979444
000330 e1 4b 8c 3d da 48 55 3e c8 62 a7 3e bd c6 9c 3e
       0.0685041 0.20828572 0.32692552 0.30620375
000340 c5 21 3e 3e 5d d9 8d 3e 50 23 af 3d f8 c4 a6 3e
       0.1856757 0.27704898 0.08551657 0.3257215
000350 fa 56 8d ba 66 6c 4a bd 37 d6 a8 3e f7 71 b8 3e
       -0.0010783367 -0.049419783 0.32975933 0.36024448
000360 e7 16 ce 3e 29 18 2f 3e 7e f7 f0 3d fd 15 b8 3e
       0.40251848 0.1709906 0.117659554 0.35954276
000370 7c df 8f 3e 78 b8 98 bc 8e 15 40 3c 5f 55 0d 3d
       0.28100193 -0.018642649 0.011723889 0.034505244
000380 f1 93 9d 3d fd 2a aa 3e 42 ff 3c 3e f1 29 ab 3e
       0.07694233 0.33235922 0.18456748 0.33430436
000390 9f 46 36 3d a6 23 89 3d e2 1f 56 bd c7 bf 69 3e
       0.044500943 0.066962525 -0.0522765 0.22827064
0003a0 e4 2c 87 3e 17 9f b3 3e d7 2a 5d bd e6 93 42 3e
       0.26401436 0.35082313 -0.053995933 0.19001731
0003b0 b3 17 c6 3e 1c 35 9d 3e c5 85 ff 3e 8e 44 a6 3d
       0.38689956 0.30704582 0.49906746 0.081185445
0003c0 33 0d 01 3d 66 ae e1 3d fd ee 66 3e a1 cb 65 3e
       0.03150673 0.11019592 0.22552104 0.2244096
0003d0 48 8d 79 3d 56 99 5d 3e 9f 7e aa 3e 87 a3 28 3d
       0.060925752 0.21640524 0.3329973 0.041171577
0003e0 4c 5a 83 3e f2 35 8b 3d a2 2c dc 3e d2 2c 19 3b
       0.2565483 0.067973986 0.43002802 0.0023372662
0003f0 68 ed 90 3e 77 18 21 3e 16 0b 94 3d 57 2f ca 3e
       0.28306127 0.15731989 0.07228677 0.39489242

actor.4.bias f4 [36]
000000 23 d1 34 3d c9 e5 d7 3d 34 48 f7 bd 88 6f 97 3e
       0.04414476 0.10541875 -0.120743185 0.2957728
000010 84 92 a4 bc 4a 0b 40 3c 8a 1c 94 bd 4c 04 83 3c
       -0.020089395 0.0117214415 -0.07232006 0.01599326
000020 25 93 2e bd 83 d2 76 3e 28 98 a6 3d fa 95 02 be
       -0.042620797 0.24103741 0.0813449 -0.12752524
000030 24 eb ef 3d 0b 74 bb 3c 2b a4 bc 3d 93 fe 98 3d
       0.117147714 0.022882482 0.09211 0.07470431
000040 65 66 9b 3d 71 6a aa 3c 54 3b 05 3e a3 90 9a 3b
       0.075878896 0.020802708 0.13010913 0.004716949
000050 75 0d 70 bc 91 a3 15 3e 7a 7d 03 be 41 f6 94 bd
       -0.014651646 0.14613177 -0.12840834 -0.07273532
000060 fb 56 ee bd f0 86 d5 bc e2 1b 68 bc de f7 90 3d
       -0.11637684 -0.02606532 -0.014166804 0.07078527
000070 1c d5 00 be 94 a1 42 3d 40 f1 68 3c fc 3d 07 be
       -0.12581295 0.047517374 0.014217675 -0.13207239
000080 82 3a 09 be 04 a0 05 3e 88 69 a8 3c 1c cc eb 3d
       -0.13401225 0.13049322 0.020558134 0.1151354

critic.0.weight f4 [64, 62]
000000 98 77 cb bd b0 57 7d 3c 58 31 ec 3d 31 5a fa bd
       -0.0993492 0.015462801 0.11532849 -0.12224234
000010 5c e5 ac bd d2 ee cc 3d e5 50 49 3e c6 02 18 be
       -0.08442184 0.10006489 0.19659765 -0.14844808
000020 d5 c8 f7 bd ff a6 05 be b5 fc 54 bd 16 f2 7f be
       -0.120988525 -0.13051985 -0.051998813 -0.24994692
000030 4b 55 81 bd a3 65 24 3e 91 75 61 bc 7b 08 29 be
       -0.063150965 0.16054396 -0.01376094 -0.16507141
000040 d0 08 6d 3d f6 ef e7 bd bc c3 cf 3d 0c 78 ce bc
       0.057869732 -0.11325066 0.10144755 -0.025203727
000050 34 96 e8 bc 90 58 75 3d 08 70 4f bc f7 30 9b bd
       -0.028391935 0.059898913 -0.012660988 -0.07577699
000060 a0 fc bb bd 7c 80 6d bd 74 aa d8 3d 22 1f 29 bd
       -0.09179044 -0.05798386 0.10579386 -0.041289456
000070 65 28 c2 3d 01 88 30 3e 18 bf 76 3d d3 52 81 bb
       0.09480361 0.17239381 0.060240835 -0.003946641
000080 43 77 91 bd dc 6c ab 3d 3e e2 4c bd bc 72 5b 3d
       -0.071028255 0.08370373 -0.05002045 0.053576216
000090 72 5c 3e 3e 14 c4 b6 bd 4d 82 94 3d fc 0a 71 be
       0.18589953 -0.08924118 0.072514154 -0.23539346
0000a0 70 1b 9c b9 b8 59 04 be d9 50 1f 3c 6b d6 ce be
       -0.0002977508 -0.1292485 0.009723865 -0.40397963
0000b0 d6 02 9d 3d 66 37 09 3e 18 55 5e 3d 64 16 6e 3a
       0.076665565 0.13400039 0.05428037 0.0009082316
0000c0 5d e5 02 3e d1 c6 5c 3d b0 af b1 3d 2f 68 a1 bd
       0.12782808 0.053900544 0.08676088 -0.078811996
0000d0 44 7d 71 bd ab 0e fd bb eb c9 69 bd dd ec d7 bd
       -0.058957353 -0.007722696 -0.05707733 -0.10543225
0000e0 09 98 70 bc 88 09 8f 3d ba eb 2b bd cc 81 d4 3d
       -0.0146846855 0.0698424 -0.041972853 0.10376319
0000f0 a3 13 08 be b0 39 6f be 48 d8 b8 3d 1a f5 c0 3d
       -0.13288741 -0.2336185 0.090256274 0.094217494
000100 f0 42 02 3c b2 d3 c3 bd 87 ae 94 3c db c8 29 3e
       0.007950529 -0.09561862 0.018149627 0.16580527
000110 b0 9e c9 3d 2e 41 80 3c 3b 7a 6a bd bf 90 0f 3e
       0.0984472 0.01565608 -0.057245474 0.1402006
000120 13 0d 08 3e 69 4e ff bc 4a b4 35 3e b2 be 48 3e
       0.13286237 -0.031165319 0.17744556 0.19603994
000130 d2 bf d7 bd 31 7c 2d 3d 64 7b bf 3d dc d9 b4 bc
       -0.10534634 0.042354766 0.09349707 -0.02207654
000140 4c 29 8e 3d 58 41 bc 3d 68 76 59 3d 78 8c b5 3d
       0.069414705 0.09192151 0.053091437 0.08864683
000150 fc aa f4 3d a8 d7 85 3c 78 97 12 bc ea 84 99 3d
       0.11946675 0.016338184 -0.008947246 0.074960545
000160 38 6c 82 3c d5 0a c7 bd 9e c6 14 be 7d aa d9 bc
       0.015920743 -0.09718863 -0.14528891 -0.026570553
000170 ac 57 4b be 40 38 a5 bd 40 06 ea 3b fe 8d 50 bd
       -0.19857663 -0.080673695 0.0071418583 -0.050916664
000180 98 2c e6 3d 57 41 ee bd 2f 13 c3 3d cb 60 fc bb
       0.11238974 -0.11633556 0.09525143 -0.0077019683
000190 ad 38 56 3e 3d 04 4f 3c 0e 3e ef 3c c0 4d 05 be
       0.20920058 0.012635288 0.029204395 -0.1301794
0001a0 ac 50 64 3d ad 3c e7 bd 72 c5 01 3e 39 1d ff 3d
       0.055740997 -0.1129087 0.12672976 0.12456746
0001b0 fd d7 4d 3e 75 72 16 bd f3 3f 8e 3d 1a 9d ba 3b
       0.20101924 -0.03673025 0.06945791 0.0056949975
0001c0 7f bd 61 bc 3c 38 d4 3c a8 a1 44 bd 13 5b a9 bd
       -0.01377809 0.02590572 -0.04800573 -0.08269324
0001d0 52 e5 13 3d 95 9d ea bd 5f 67 68 bd 0c 3e c7 3d
       0.03610737 -0.11455838 -0.056739207 0.097286314
0001e0 f3 9c 4d bd 26 26 4f 3d 34 fe 25 3c a8 87 04 be
       -0.050198507 0.05057349 0.0101314075 -0.12942374
0001f0 ef 01 01 be 86 aa a7 3d d0 83 5f 3d 78 ca 1a 3d
       -0.12598394 0.08186822 0.054569066 0.037790745
000200 9b 64 38 bc 59 22 9b 3d 24 38 38 3e b1 64 de 3c
       -0.011254455 0.07574911 0.17990166 0.027147623
000210 e1 36 8d 3e fa 38 00 3f 0f e2 6a 3d 28 13 83 3c
       0.27580932 0.5008694 0.057344493 0.016000345
000220 cb 20 60 3e 0b de 70 3e 06 22 01 3d 05 1c 03 3d
       0.2188751 0.23522203 0.031526588 0.032009143
000230 14 98 81 3d 5a 3b 79 bd a0 50 dd 3b a4 22 91 bc
       0.06327835 -0.060847618 0.006753996 -0.017716713
000240 50 f8 e8 bc 78 8e d2 3c b0 e8 ad bc 18 0c d9 bd
       -0.028438717 0.0257027 -0.021229118 -0.1059801
000250 a0 2d 17 bc c0 b7 ca 3d 8a 10 de 3d 62 17 a3 3d
       -0.009227186 0.09898329 0.10842998 0.07963444
000260 86 12 6d 3e 0a 99 83 be c8 c7 8f be 65 dc e6 bd
       0.23151597 -0.25702697 -0.28082108 -0.11272506
000270 d5 e7 90 bd 28 d4 2b bd 36 47 94 3d 94 5d 93 bc
       -0.070754685 -0.041950375 0.07240145 -0.017988957
000280 24 22 f6 bd cb c8 41 be 49 76 14 3e 1c 7a eb 3d
       -0.120182306 -0.18924253 0.14498247 0.114979
000290 d9 07 1b 3d 3e 16 14 3e a5 8b a7 bd 61 6c 4a 3b
       0.03784928 0.1446161 -0.08180932 0.0030887353
0002a0 8a 13 0e be f0 28 88 bd bf c3 30 3b b5 83 b8 3d
       -0.13874641 -0.06648433 0.0026972143 0.09009496
0002b0 40 55 63 bd aa 24 13 bd 63 d5 6c 3e e5 cc e7 3d
       -0.055501223 -0.035923637 0.23128276 0.113183774
0002c0 28 cc c9 bd bb 48 c6 bd 66 ed bc bd 88 b7 1c 3d
       -0.09853393 -0.09681841 -0.09224968 0.038260967
0002d0 ee 88 26 3e 46 d4 ad bd 84 f4 fe 3c a0 26 96 3d
       0.16263172 -0.084877536 0.031122454 0.07331586
0002e0 e5 c1 e8 bd 93 76 8d 3d 90 5f 83 3c 0a 8c 9c bd
       -0.113651074 0.06907382 0.016036779 -0.07643898
0002f0 d2 db 03 bd 54 39 0c 3d 21 40 f5 bd de 71 9e 3d
       -0.03219206 0.03423436 -0.11975122 0.07736562
000300 a8 50 1f be a2 50 fb bd 5d 4e 1a be 78 dc 1a 3d
       -0.15558112 -0.12271239 -0.15068956 0.03780791
000310 c3 f8 02 be 43 2c 5d be 66 30 43 3d 7a 07 8b bd
       -0.12790208 -0.21598916 0.04765358 -0.067885354
000320 82 25 e6 3c 2b 75 e5 bd 80 73 0b 3b 62 10 dd 3d
       0.028094057 -0.11203989 0.002127856 0.107941404
000330 70 42 d3 3c 80 f5 9e bb f4 87 17 bd e2 c0 b2 3d
       0.025788516 -0.004851043 -0.03699489 0.08728196
000340 08 d2 b9 3c 1c 23 8d 3d e8 6d 21 bd 6e ea 25 bd
       0.022683159 0.06891462 -0.039411455 -0.040506773
000350 68 d8 2a 3d f8 98 2e 3d c2 2d 01 be a6 22 62 bd
       0.041710287 0.04262635 -0.12615111 -0.055208825
000360 87 10 43 bd 72 e9 80 bc 90 ae 32 3d 10 c6 3f bc
       -0.047623184 -0.015736315 0.043623507 -0.011704937
000370 98 14 e3 3d e2 06 e0 3d 1f ec 44 bd 26 75 9d bd
       0.11087912 0.10938813 -0.048076745 -0.0768836
000380 30 a4 cf bd db c4 2c bd 4a 5e 8f 3c 67 54 12 be
       -0.10138738 -0.042179924 0.017501015 -0.1429001
000390 97 73 f9 bd 57 3f a7 bd 7e 14 96 3a 41 25 0d 3e
       -0.1218025 -0.08166378 0.0011450199 0.13783742
0003a0 56 d6 22 be 11 e9 7e bd d7 ab fb bd 93 f9 07 3d
       -0.15902075 -0.06223399 -0.12288635 0.033196997
0003b0 0c 90 89 bd f2 01 14 bd 00 9d 13 3b 73 7a 74 3c
       -0.06716928 -0.036134668 0.0022524 0.014921772
0003c0 1c ce 60 3b e9 d2 83 bd b0 18 a8 3b a0 8b 10 3c
       0.0034302538 -0.06436712 0.005129896 0.008822352
0003d0 85 10 e9 bc f6 c8 d2 bb 6c 2a 45 bd 48 dc 2e bd
       -0.02845026 -0.006432648 -0.04813616 -0.042690545
0003e0 a6 e6 25 bd 00 56 2c ba 1e de 94 3d 16 3e e0 3d
       -0.040503167 -0.00065740943 0.07268928 0.10949342
0003f0 c8 55 25 be aa a1 2e bf cb c2 18 3e 18 04 d0 3d
       -0.16146004 -0.6821543 0.14918058 0.10157031

critic.0.bias f4 [64]
000000 74 f6 9f 3e 93 e2 3b be e5 07 4d be 8b 6e eb bd
       0.31242716 -0.1834815 -0.20022543 -0.11495694
000010 70 56 72 3c 3a 7d 01 be 67 a8 ee bc 55 1f 8d bc
       0.014791116 -0.12645426 -0.029133035 -0.017226854
000020 9f df 28 be 06 e1 af bd 5c 89 0a be 98 74 16 be
       -0.16491555 -0.08587842 -0.13528961 -0.14692914
000030 8d 9a a6 bd 77 3f cd bd a9 aa 82 be 67 41 27 be
       -0.08134947 -0.100218706 -0.25520828 -0.16333543
000040 91 d2 8c bd 1c b8 58 bd 66 af 44 bc 87 c6 19 be
       -0.068761 -0.052909955 -0.012004709 -0.15017138
000050 00 9d 4f be b0 51 e7 bc f0 65 3c be b1 bb 27 3d
       -0.20274734 -0.028237194 -0.18398261 0.04095048
000060 dc fc 58 3e 4d 39 a9 bd 52 3e 34 be fb 8a 3a be
       0.21190208 -0.082628824 -0.17601898 -0.1821708
000070 ea d1 bb bd 1f ac 37 3d 95 6a 15 be 33 1f e4 bc
       -0.09170897 0.04484188 -0.14591439 -0.027846908
000080 a7 a5 77 be 08 6c de bd 4c 7b 8f bd 3d 0c 7d be
       -0.24184285 -0.10860449 -0.07005939 -0.247117
000090 b7 97 0d be 1c 7d 44 be d0 94 b4 bd 03 57 02 be
       -0.13827406 -0.1918835 -0.08817446 -0.12728505
0000a0 46 c0 04 be 84 6a 05 be e5 0c 1d bd c3 9d b9 bd
       -0.12963971 -0.13028914 -0.038342375 -0.09063294
0000b0 b0 a2 4b bd ca 52 84 be aa c5 de bd e1 76 51 be
       -0.049715698 -0.25844413 -0.10877545 -0.20455505
0000c0 75 f2 bf 3e 41 2f eb bd 6b ff 11 bd a2 92 32 bd
       0.37489668 -0.11483622 -0.035643976 -0.04359687
0000d0 81 09 2b 3e 0e 4d 4e bd df da 34 be f5 7e c0 bd
       0.16702844 -0.050366454 -0.17661618 -0.09399215
0000e0 08 9b 8c bd d5 b1 ab bd 91 8c 38 bd 2c d0 2c be
       -0.06865507 -0.08383528 -0.04505593 -0.16876286
0000f0 a2 2e 97 bd 38 48 1a be bf c4 56 be 03 fa 1b be
       -0.073819414 -0.15066612 -0.2097349 -0.1523209

critic.2.weight f4 [64, 64]
000000 95 4a 40 be 6e 5b 85 3d 02 0b 55 bd f3 82 ca bc
       -0.18778451 0.065115795 -0.05201245 -0.024720645
000010 f4 f0 b6 bd df 49 f5 bc b4 74 8e 3d de 76 4b be
       -0.08932677 -0.029942451 0.06955853 -0.19869563
000020 95 53 af bd 80 12 5d 3d 09 54 85 bc 23 4d c9 bd
       -0.08560864 0.05397272 -0.016275423 -0.09829166
000030 9f 2e 4f bd c0 c5 44 be 55 17 b2 3c 12 93 84 3d
       -0.05058157 -0.1921606 0.021739641 0.06473364
000040 8e c1 d0 3d 15 ff 04 be 90 3b 23 3d 95 78 1c 3e
       0.101931676 -0.12987931 0.039851725 0.15280373
000050 02 74 48 3e de bd aa bd ed 21 b8 3c 09 3f 13 be
       0.19575503 -0.083369955 0.022477115 -0.14379515
000060 54 bc 2c bd e4 36 b1 bd 20 3b 90 bc f9 c6 05 bb
       -0.04217179 -0.08653048 -0.017606318 -0.0020412786
000070 e3 b9 e8 bc b4 ac 9e 3d 0c 44 33 3d 83 45 2a be
       -0.02840895 0.07747784 0.043766066 -0.16628079
000080 e4 65 0c bc 86 fd 5b 3c b3 94 ec 3b d6 27 ac bc
       -0.0085692145 0.013427144 0.0072198748 -0.021015089
000090 a2 f5 6f 3c 44 ae d8 bd 3f 1a e3 3d 95 2d b5 3d
       0.014645966 -0.105801135 0.110889904 0.08846585
0000a0 d9 ee 01 be c5 ba e6 ba b4 7a 7d bd 44 e2 93 bd
       -0.1268877 -0.0017603269 -0.061884597 -0.07220891
0000b0 a6 2e 0a be 4a c5 25 be 6a 7d 61 bd d7 3e aa bd
       -0.13494357 -0.16188541 -0.055051245 -0.08312767
0000c0 26 34 c8 bc 52 c7 23 be 23 6e 55 bc 9c b2 f6 3c
       -0.024438929 -0.15994003 -0.013026747 0.030114464
0000d0 dc 7e f3 bc f0 d6 4a 3c 7a de ab bc e8 15 27 3d
       -0.029723577 0.012380347 -0.020980109 0.040792376
0000e0 b4 69 fe bc 34 72 00 bd 1b 37 e6 3d 8b 74 f8 bd
       -0.031056263 -0.031358913 0.11240979 -0.12131604
0000f0 5d 97 fb 3b cb 60 ea 3d 9e 67 34 bd 42 36 33 3d
       0.007677956 0.11444243 -0.04404413 0.043752916
000100 98 d8 29 bd 3d 83 7b 3d 96 a7 96 bc 2d 32 bd 3d
       -0.041466326 0.061404455 -0.018390458 0.09238086
000110 63 b7 0e 3d 73 af a6 3d 9d e8 4d 3d 60 03 65 bd
       0.03484286 0.08138933 0.050270665 -0.05591142
000120 fd 27 93 bd ef 4d 0b bd 5d e1 de 3d a7 f6 a2 bd
       -0.071853615 -0.03400987 0.108828284 -0.079572015
000130 0f 30 a9 bc 33 55 64 bd b3 41 ee 3d c2 ae 82 3d
       -0.020652799 -0.055745315 0.11633625 0.06380989
000140 75 76 d8 3d 2d c2 06 3e 3e 34 15 be 69 c0 93 3c
       0.10569469 0.1316001 -0.1457071 0.018036084
000150 aa 77 3f 3d 5f e8 03 3d e6 79 07 3d 9e 34 55 be
       0.04674498 0.03220403 0.033075236 -0.20820853
000160 67 09 dc bd 30 f3 65 be fe 8e e7 3d 26 9b 13 bd
       -0.10743981 -0.2245605 0.113065705 -0.036036633
000170 9b 2e 72 3d 4e 77 1f bd 88 7f 1d be c2 aa 1d be
       0.059126478 -0.038932137 -0.1538068 -0.1539717
000180 53 a5 65 3d 96 cf f1 3c d3 5f a4 3d e6 1a 60 3d
       0.05606587 0.02951793 0.080260895 0.054713152
000190 fe 13 38 be 64 ec 88 bd 35 3e 8e bd 22 e7 56 bd
       -0.17976376 -0.06685713 -0.06945459 -0.05246652
0001a0 1d 3c eb 3d 4d 87 d0 bd c2 4e dd 3d c1 2f 43 3d
       0.11486075 -0.101820566 0.108060375 0.047652964
0001b0 ab 7b 58 bd cb 6e a4 be 7a 96 18 3d cf 82 1a be
       -0.052852314 -0.32115778 0.03725288 -0.15088962
0001c0 14 d5 d7 bd 15 10 c2 3d 72 75 fd bd bc 5d 2c be
       -0.10538688 0.09475724 -0.123759165 -0.16832632
0001d0 ed d6 4f 3d e6 85 d2 bd ce 2e 95 bd 80 9a d2 bc
       0.05074208 -0.10279445 -0.07284318 -0.025708437
0001e0 4d ed bc bc 0c 10 9c 3c 91 c2 91 bd 68 41 a3 3c
       -0.023062373 0.01905062 -0.07117189 0.019928649
0001f0 ee 34 fd bd 9c 72 1c bd cb 5d a5 bd 36 56 30 bd
       -0.12363611 -0.038195238 -0.0807453 -0.043050967
000200 f0 26 a8 3e 66 4e a5 3d cc 4a 45 bd 6a 56 a0 3d
       0.32842207 0.08071594 -0.048167035 0.07828982
000210 79 fc ce bd 1f 6b 3e be 57 14 bd bb a3 31 b6 3c
       -0.10106749 -0.18595551 -0.005770247 0.022240466
000220 88 f2 82 bd ad 8a de bd fd 57 04 3c a0 ca 7a bd
       -0.063939154 -0.10866294 0.008077619 -0.061228395
000230 40 ab 07 be 70 72 58 3c 56 d2 20 3e 69 e0 5f 3e
       -0.1324892 0.013210878 0.15705237 0.2186295
000240 de aa 8a bd a8 4f 03 be ff fd 36 3d e6 1e 26 3d
       -0.067708716 -0.12823355 0.044675823 0.04055681
000250 92 2c f4 bd 58 3f c0 bc cb 19 00 3c 32 64 e9 3d
       -0.119225636 -0.023467705 0.0078186495 0.11396064
000260 d1 6f 5d 3e ce ba 1f 3d 11 21 33 3e a4 72 13 3d
       0.21624686 0.03899651 0.17493083 0.035998
000270 e2 07 4c be 5c 9b 15 3e a7 02 53 3d 37 08 13 3c
       -0.19924882 0.14610046 0.0515162 0.008974127
000280 c4 aa d9 3d 95 e5 a7 3b 48 ab bf bc 47 6b 70 3d
       0.10628274 0.005123804 -0.023397103 0.058696058
000290 1e d5 f2 bd c3 7f 06 bb 64 28 bf bd 9b 30 6d 3d
       -0.11857055 -0.002052293 -0.09333876 0.057907682
0002a0 17 44 34 3e 95 f9 80 3e 83 f2 42 3e a0 65 20 3c
       0.17604099 0.25190416 0.19037823 0.009789854
0002b0 77 7e 64 be 45 db a0 3d dc 20 2d 3d f4 fd 57 3e
       -0.22313868 0.07854322 0.042267665 0.21092969
0002c0 10 2c 7c 3d 1d 10 08 be 3e 24 07 3e c8 87 3a 3d
       0.06156546 -0.13287397 0.13197419 0.045539647
0002d0 f6 75 37 bc c9 a6 07 3e 97 5c 7a 3d 4c cd 86 3d
       -0.011197558 0.13247217 0.061123457 0.06582126
0002e0 35 64 ac 3c 0c 00 fe bd 8b e7 cb 3d 5e 44 18 3c
       0.021043876 -0.12402353 0.09956273 0.009293644
0002f0 87 b4 d8 bd f9 53 85 3d 6d 0b ab 3d f5 11 f9 3b
       -0.10581308 0.06510157 0.08351789 0.0076010176
000300 56 d8 9b 3e 5b 07 32 be 4d 2d f2 3a fe af 98 3d
       0.3043849 -0.17385618 0.0018476635 0.07455443
000310 05 02 c8 be 6b b6 9b be f9 38 8a bd 04 02 e5 bb
       -0.3906404 -0.3041261 -0.06749148 -0.0069887657
000320 55 95 96 3c 8a 2a 86 be be cc 98 bd 5f 3d eb 3b
       0.018381754 -0.2620433 -0.074609265 0.007178947
000330 49 dd 9a bd 7d 5d 1a 3d 3b 43 74 bc e9 da 10 bd
       -0.07561738 0.037686814 -0.014908607 -0.03536502
000340 10 fe 23 be c1 77 b8 be f4 8f 86 bd 32 78 7d be
       -0.16014886 -0.36028865 -0.06570426 -0.24752882
000350 f0 f7 cf bc d6 f8 88 3d f7 7d 35 3e e1 87 6d bd
       -0.02538678 0.06688087 0.17723833 -0.057990912
000360 1b a0 fa 3d 1f 87 07 3e 36 6c 28 bd 0d fd cc 3d
       0.12237569 0.13235138 -0.041118823 0.10009203
000370 70 a4 11 be a2 98 51 3e f5 e6 00 3e e6 95 90 3d
       -0.14222884 0.20468381 0.12588103 0.07059841
000380 79 6b 81 3d 4f f0 85 3d d5 54 88 3d 54 06 96 3d
       0.06319327 0.06539976 0.066568054 0.07325426
000390 35 d4 b2 bc e3 32 40 bd e1 99 a4 3d ff cc 45 3d
       -0.021829704 -0.04692353 0.080371626 0.048291203
0003a0 3e de 2b 3d 80 91 75 bb 0f 80 87 3d 40 44 a1 3d
       0.041959994 -0.0037470758 0.06616222 0.07874346
0003b0 fc 06 79 bd c9 d9 fe 3c f5 f5 1b be e6 91 6a bd
       -0.060797676 0.031109707 -0.15230544 -0.057268046
0003c0 bf a6 c1 3e 0d 5c 0b 3d 3a da 1b 3e 45 28 06 3d
       0.3782253 0.034023333 0.15219966 0.032753248
0003d0 02 a2 d2 3c 0e e6 83 bc 84 4f cc bd 72 15 86 3c
       0.025712017 -0.01610091 -0.09976104 0.016367648
0003e0 5a dd 95 3b d8 a1 6b be 5e d6 1c be a1 6a 92 be
       0.0045735063 -0.23010957 -0.1531615 -0.28596976
0003f0 52 6b 07 be f9 a5 0b bd f9 22 28 be ea 6b 01 3e
       -0.13224533 -0.03409383 -0.16419591 0.12638822

critic.2.bias f4 [64]
000000 66 8e b6 bc 02 64 4b bd 89 c6 ff 3c 2c f9 2e 3e
       -0.022284698 -0.04965592 0.031222599 0.17087239
000010 72 81 5b bd cd 48 f7 bd d1 69 06 be df 56 0e bd
       -0.053590246 -0.120744325 -0.13126303 -0.034750815
000020 30 17 bd bd 69 fa 16 be f9 25 47 bd c2 4b e3 bd
       -0.09232938 -0.14743961 -0.048620198 -0.11098434
000030 1c c5 e0 bd 74 9b c9 bc c7 9f df 3d 1a fa 09 be
       -0.10975096 -0.024610259 0.10919147 -0.13474312
000040 a0 c6 1b be ea a8 c2 bd 4b 6c 32 be 78 90 5c bd
       -0.15212488 -0.09504874 -0.17424123 -0.053848714
000050 c3 15 2a be ed 72 b9 bd 0a 82 69 bd 1c c0 69 be
       -0.16609864 -0.090551235 -0.05700878 -0.2282719
000060 96 d8 23 bd 43 d3 79 3d 5c 56 c0 bd 88 48 1e bd
       -0.040001474 0.06099249 -0.09391472 -0.03864339
000070 f8 45 8d 3a 97 f6 e2 bc 3b 91 c6 bd ba 70 02 be
       0.0010778299 -0.027705474 -0.09695669 -0.12738314
000080 e9 ef c0 bd 9f 30 bd 3c c9 ec df bd c3 aa 02 be
       -0.09420759 0.023094473 -0.10933835 -0.12760453
000090 b0 e8 41 bd 55 a0 cc bd 68 d5 68 bd bf dc 15 be
       -0.04734105 -0.099915184 -0.056844145 -0.14634989
0000a0 c7 05 29 be c0 3c 86 3c 2b 66 0e be 67 ca 1f be
       -0.1650611 0.01638639 -0.13906161 -0.15604554
0000b0 38 25 9e bd 67 1d dc bd 24 88 18 3c b0 f2 44 be
       -0.07721943 -0.107477956 0.009309802 -0.19233203
0000c0 5e f5 f3 bd 26 ca 08 be cc 17 12 3e ca d4 9f bd
       -0.119120345 -0.13358364 0.1426689 -0.07804258
0000d0 b3 93 08 bd 1d 21 07 be 8f d2 00 be fb 92 f1 3d
       -0.033343982 -0.13196225 -0.12580322 0.117956124
0000e0 38 67 d3 bd 40 ed 83 3e 1b 68 32 bd d8 ef 86 bd
       -0.10322422 0.25766945 -0.043556314 -0.06588715
0000f0 10 fe 7b bd 9f bc 72 bd 3f 85 8f 3d e0 68 ba bd
       -0.06152159 -0.059261914 0.070078366 -0.091020346

critic.4.weight f4 [1, 64]
000000 f0 6b 71 3b d4 19 d1 bc 8b 51 99 3c 07 fb 9f 3d
       0.0036838017 -0.025525011 0.01871564 0.078115515
000010 c1 56 37 bc 3b 70 d2 3d 50 4c 6d ba 31 31 a0 bc
       -0.011190117 0.102753125 -0.0009052204 -0.019554706
000020 39 63 bc 3d e7 54 a9 bc 68 f0 a2 bd 03 eb aa bb
       0.09198613 -0.020670367 -0.0795601 -0.005216004
000030 6a 40 e0 3b c8 35 67 bd c9 c8 88 bc 9e 8a 95 3b
       0.0068436163 -0.056447774 -0.016697304 0.0045636436
000040 d7 08 27 ba 77 20 70 3d 0b 25 23 bd 60 f2 a7 bb
       -0.00063718617 0.05862471 -0.03983025 -0.005125329
000050 ac a0 14 3d 4d 11 17 bc 1e 1a a7 bb d8 59 c7 bc
       0.03628604 -0.009220433 -0.005099549 -0.024334833
000060 e2 d1 e4 3d db ec 05 3d a5 44 28 bc 96 e3 36 bc
       0.111728445 0.032696586 -0.010270272 -0.011162659
000070 7e f5 0f bd 5c a8 47 bc c8 9c af bd 47 b0 99 bd
       -0.03514623 -0.012186136 -0.085748255 -0.07504325
000080 50 bd 00 3e fa 24 a8 3c 6f d7 85 3b 37 f0 29 b9
       0.12572217 0.020525444 0.0040845196 -0.00016206583
000090 65 e8 4c bc c9 e5 62 bc 90 2c e7 bd 77 3f be bd
       -0.012506579 -0.01384873 -0.112877965 -0.09289449
0000a0 21 4f 92 bd a8 b5 5e bd 3d a0 73 3b 5f ae c8 ba
       -0.07143999 -0.05437246 0.0037174367 -0.0015310756
0000b0 7c 2b 41 3c 6f 90 85 bb e2 5a 19 3d 54 e9 42 3a
       0.011790153 -0.0040760557 0.03744019 0.00074352813
0000c0 bd 58 82 bc e2 05 0a bd 0c 26 48 3e e0 a2 ad bc
       -0.015911454 -0.033697017 0.19545764 -0.021195829
0000d0 d2 8a b0 bc 7c ed 0f 3c ee d2 6d bc 7f f4 48 3d
       -0.02155057 0.008784648 -0.014515622 0.049061295
0000e0 98 df 2d 3c 25 34 83 3e d2 6a 0d 3c 3e 5f 02 bd
       0.010612391 0.2562572 0.008631425 -0.03182911
0000f0 57 6b ba bd 6c f7 95 bd 70 81 8d bc 35 96 14 3b
       -0.09102505 -0.073225826 -0.017273635 0.0022672538
