Models/Reward_shaping_vm/Sparse_ICM_local_1_0/19000.pth (torch, 78437 bytes, 11 tensors)

actor.0.weight f4 [64, 62]
0	0x3c9f3700	0.019435406
1	0x3d965ece	0.07342301
2	0xbdc4b3bb	-0.09604593
3	0x3dd20338	0.1025452
4	0x3e058911	0.13040568
5	0xbc4f6a0a	-0.012659559
6	0xbd80384a	-0.06260736
7	0xbe1917ec	-0.14950532
8	0xbc456f24	-0.012050424
9	0x3ccad0a3	0.024757689
10	0x3e0e0ecd	0.13872834
11	0x3ca41e62	0.020034019
12	0x3e0dd359	0.13850154
13	0x3e256c4c	0.16154593
14	0x3d0c42e0	0.034243464
15	0x3daf4a6f	0.08559119
16	0x3cb15260	0.021645725
17	0xbdee4512	-0.11634268
18	0xbd72dc94	-0.05929239
19	0xbd0121d8	-0.031526417
20	0xbd57effa	-0.052719094
21	0xbb903360	-0.0044006556
22	0x3c07b380	0.008282542
23	0x3d4c42f8	0.049868554
24	0x3db8117a	0.089877084
25	0xbaa73300	-0.0012756288
26	0x3c5092f0	0.012730345
27	0x3d5e5acc	0.05428581
28	0xbb4cb21a	-0.0031234086
29	0x3b7531b7	0.0037413666
30	0x3b82870d	0.0039833845
31	0xbd01c874	-0.031685308
32	0x3cec39e8	0.028836206
33	0xbde305c4	-0.11085084
34	0x3cc72ac0	0.024312377
35	0xbd9542ac	-0.07288107
36	0xbe0646c0	-0.13112926
37	0x3d094c19	0.033519838
38	0xbccf1fd5	-0.025283733
39	0x3d901236	0.070347235
40	0x3dfc45e3	0.12318017
41	0x3c4b79e5	0.012419199
42	0xbd7428ad	-0.059609104
43	0xbe11d101	-0.14239885
44	0xbd94c173	-0.0726346
45	0xbcbce890	-0.023060113
46	0x3deeb1c2	0.11654998
47	0x3e048719	0.1294216
48	0xbdb6c214	-0.08923736
49	0x3d207338	0.03917238
50	0xba6bc750	-0.00089942385
51	0xbe171350	-0.14753461
52	0x3dcec8ac	0.10096869
53	0x3c480061	0.012207122
54	0xbd4c1441	-0.049824003
55	0xbcd65c70	-0.026167125
56	0xbe317abc	-0.17331976
57	0x3dc9003c	0.09814498
58	0xbd84cc60	-0.06484294
59	0x3c569513	0.0130970655
60	0xbdacb3ae	-0.08432709
61	0xbe1090cf	-0.1411774
62	0xbd94ec06	-0.072715804
63	0x3de2eec0	0.11080694
64	0x3dff72b0	0.12473047
65	0xbd77953c	-0.060445055
66	0xbb5a1ce5	-0.0033281383
67	0x3dc9d2fa	0.09854694
68	0xbdad050d	-0.08448229
69	0xbd97600d	-0.07391367
70	0x3d6cf428	0.057850033
71	0xbda5cf7d	-0.08096216
72	0x3d86df23	0.06585529
73	0x3e0bc3ae	0.13648865
74	0x3db5e94c	0.088823885
75	0x3de84720	0.11341691
76	0xbbcec88e	-0.006310529
77	0xbc9761cc	-0.01847925
78	0x3c0c97a0	0.008581072
79	0x3d599450	0.053119957
80	0xbcc9801c	-0.02459722
81	0xbbc64f70	-0.00605195
82	0xbd09acd6	-0.033612095
83	0x3daab08e	0.083344564
84	0xbd7cc5b0	-0.061711967
85	0xbdfe77f4	-0.12425223
86	0xbde5d5c7	-0.112224154
87	0x3b966be0	0.0045904964
88	0xbdfa44e9	-0.12220175
89	0x3df4acb2	0.119470015
90	0xbda4cb32	-0.08046569
91	0xbe181794	-0.14852744
92	0xbd6113cb	-0.054950517
93	0xbdcc270a	-0.099683836
94	0xbddf7b98	-0.109122455
95	0x3c50cc20	0.01274398
96	0xbc85fb1c	-0.01635509
97	0xbd157e02	-0.036497124
98	0x3ce9b966	0.028530788
99	0xbc9bbb45	-0.019010196
100	0xbcc6cb91	-0.02426699
101	0x3c586194	0.013206858
102	0xbe35ce4f	-0.17754482
103	0x3dd47d0b	0.103754126
104	0xbd836d80	-0.0641737
105	0xbd8e4ecc	-0.06948623
106	0x3cf39f50	0.029739052
107	0x3cb1a130	0.021683306
108	0x3d162929	0.036660347
109	0xbd2af751	-0.041739766
110	0x3db0e892	0.08638109
111	0x3dff02cb	0.124517046
112	0xbe1b9f32	-0.15197447
113	0x3e3e712c	0.18597859
114	0x3de43574	0.11143008
115	0xbe65bf64	-0.22436291
116	0x3e04b151	0.12958266
117	0xbe1ce739	-0.1532258
118	0xbdeea028	-0.11651641
119	0x3e00345c	0.12519974
120	0x3e17a9b3	0.14810829
121	0xbd1758de	-0.036949985
122	0xbdabd44f	-0.08390104
123	0x3e321228	0.17389739
124	0xbdc264aa	-0.094918564
125	0xbd3eb93a	-0.046563365
126	0xbd32e180	-0.043672085
127	0x3c6577a0	0.014005572
128	0xbe638c24	-0.22221428
129	0xbe2ed612	-0.17073849
130	0x3ddee480	0.10883427
131	0x3d49fda8	0.04931417
132	0x3d3008de	0.042977206
133	0xbbd2066a	-0.006409456
134	0xbc20be13	-0.009810942
135	0xbd756218	-0.059908003
136	0x3da1dae9	0.07903082
137	0x3ebfd7ee	0.3746943
138	0xbcab8605	-0.020937929
139	0x3e29f5b6	0.16597638
140	0x3d5fc2d4	0.054629162
141	0x3c9b4a10	0.018956214
142	0x3dc9f5d2	0.0986134
143	0xbd3002ee	-0.042971544
144	0x3b754580	0.0037425458
145	0xbcf06168	-0.029343322
146	0x3dfa4c80	0.122216225
147	0x3dd8e676	0.10590832
148	0xbd85035e	-0.06494783
149	0x3db186ba	0.08668275
150	0x3df780ca	0.120851114
151	0xbd8ca9ba	-0.0686831
152	0xbd9c35e3	-0.076274656
153	0x3deba5eb	0.11506256
154	0xbd8adeca	-0.06780775
155	0xbc9e747c	-0.019342653
156	0xbd4a1da0	-0.04934466
157	0xba9f1c80	-0.0012139231
158	0x3deafdac	0.11474165
159	0x3d919a28	0.07109481
160	0xbe0debd3	-0.13859491
161	0x3d4dbbcc	0.050227925
162	0xbd31bbbb	-0.043391924
163	0x3da0657a	0.07831855
164	0xbdf771cf	-0.12082254
165	0x3dd07ec3	0.10180428
166	0xbd4f0667	-0.050543215
167	0xbdb84f88	-0.089995444
168	0x3cbf6ebf	0.023368238
169	0xbd2cb31a	-0.042162992
170	0xbbaf01e1	-0.0053408
171	0xbcf27541	-0.029596927
172	0xbd9f3fd1	-0.07775844
173	0xbe2ccf06	-0.16875848
174	0xbdbbd7df	-0.091720335
175	0xbdc22c2e	-0.09481083
176	0x3d2f8780	0.042853832
177	0x3ce84514	0.028353252
178	0xbe083a18	-0.13303411
179	0x3cd6468c	0.026156686
180	0xbdddd792	-0.108321324
181	0x3cd2e420	0.025743544
182	0xbdf8a178	-0.12140173
183	0x3c51328d	0.0127684
184	0xbe3cc88b	-0.18435876
185	0xbdbd7b08	-0.09251982
186	0x3cae1d78	0.021254286
187	0xbac69600	-0.0015150905
188	0xbde5413a	-0.111940816
189	0x3dd67bf0	0.10472858
190	0xbd887b0f	-0.066640966
191	0xbe84ec9d	-0.25961772
192	0x3d70ff6f	0.05883735
193	0xbd14e1fe	-0.036348335
194	0xbcde02be	-0.027100917
195	0x3d099223	0.033586632
196	0xbd808058	-0.0627448
197	0xbd682cdb	-0.056683403
198	0x3e023f4f	0.12719463
199	0x3e8e5648	0.27800202
200	0xbddd792e	-0.10814129
201	0x3e3106d1	0.17287757
202	0x3ce08790	0.027408391
203	0xbcf79dcc	-0.03022661
204	0x3dec8f7e	0.115508065
205	0xbd27e35a	-0.040988304
206	0x3d10b360	0.035327315
207	0xbc9f9b44	-0.019483216
208	0xbdb4ad08	-0.088220656
209	0xbdf61a76	-0.12016766
210	0xbdee69f5	-0.116413034
211	0x3c90b9d0	0.017666727
212	0x3b0d47c0	0.002155766
213	0xbdad3b30	-0.08458555
214	0xbe8ba412	-0.27273613
215	0xbe18f220	-0.14936113
216	0xbe0c0c8b	-0.1367666
217	0xbb8bb048	-0.0042629577
218	0xbc81cfbc	-0.015846126
219	0xbd059880	-0.03261614
220	0x3c79fbe0	0.015257806
221	0xbdb81253	-0.0898787
222	0x3d79a7e5	0.060951132
223	0x3dcfa3a7	0.10138636
224	0xbdc453ce	-0.09586297
225	0x3ca34127	0.019928528
226	0xbcf049cc	-0.029332064
227	0xbdbc752f	-0.092020385
228	0xbdd142fa	-0.10217853
229	0xba0fe478	-0.00054890616
230	0xbd184ec3	-0.037184488
231	0x3ddcb6fc	0.10777089
232	0x3cf79410	0.030221969
233	0x3af1821c	0.0018425616
234	0x3df08e91	0.117459424
235	0xbd64874a	-0.055793084
236	0x3da092fe	0.078405365
237	0xbbd13a67	-0.006385136
238	0x3ad67400	0.0016361475
239	0xbe3ed3fb	-0.18635552
240	0xbda942a6	-0.08264665
241	0x3d708127	0.05871692
242	0xbe285e65	-0.16442259
243	0xbd9b1394	-0.075720936
244	0x3d3442e8	0.04400912
245	0xbe3f0456	-0.18653998
246	0xbe31e327	-0.17371808
247	0x3e420497	0.18947063
248	0x3d4124ec	0.047154352
249	0xbdefedc1	-0.1171527
250	0xbcad00d0	-0.021118551
251	0x3d47a8f4	0.04874511
252	0xbdbb3071	-0.09140099
253	0xbdbad1c2	-0.091220394
254	0x3d987f3d	0.07446144
255	0xbe338a59	-0.17533244

actor.0.bias f4 [64]
0	0xbd9a1e35	-0.07525293
1	0x3d1ef813	0.0388108
2	0xbe034238	-0.12818229
3	0x3ce62880	0.028095484
4	0xbdf5a161	-0.11993671
5	0xbe209f63	-0.15685801
6	0xbd97f4a8	-0.07419711
7	0x3bbf412c	0.0058366265
8	0xbd972144	-0.07379392
9	0x3d7e3a53	0.06206734
10	0x3d909324	0.07059315
11	0xbd4ecf20	-0.0504905
12	0xbdf467a7	-0.119338326
13	0xbe0cbc56	-0.1374372
14	0x3da3104b	0.07962092
15	0x3d99307c	0.07479951
16	0x3db9d03d	0.090729214
17	0x3d41cafa	0.047312714
18	0x3d2d74d6	0.04234775
19	0xbc93255c	-0.01796215
20	0xbce27493	-0.027643478
21	0xbdc0d1cb	-0.09415015
22	0xbd7d3abc	-0.06182359
23	0xbe01580a	-0.1263124
24	0xbe249b77	-0.1607493
25	0xbdc766ba	-0.097363904
26	0x3d01d328	0.031695515
27	0x3e080bf4	0.1328581
28	0xbdeb52ce	-0.11490403
29	0x3df45053	0.11929383
30	0xbdb2b8b0	-0.087266326
31	0x3e0b9c73	0.136339
32	0x3d88452f	0.06653821
33	0xbd3d46b1	-0.046209995
34	0x3e1409ec	0.1445691
35	0xbd2c6509	-0.042088542
36	0xbd0344c3	-0.032048
37	0xbc346c5f	-0.011012166
38	0x3e15cb80	0.1462841
39	0x3dae3b97	0.085074596
40	0xbd5ebc35	-0.054378707
41	0x3e002d55	0.12517293
42	0xbdb125e9	-0.08649809
43	0x3e352790	0.17690873
44	0x3c3b39ce	0.011427356
45	0xbdc5b492	-0.09653582
46	0x3d8f2d05	0.06991009
47	0x3c8050bc	0.015663497
48	0x3d5bc333	0.053652953
49	0xbd2b47c2	-0.04181648
50	0x3ddf5de0	0.10906577
51	0x3d02da63	0.03194655
52	0xbdc257a3	-0.09489372
53	0x3d120663	0.035650622
54	0x3d2953b0	0.041339576
55	0x3cbd4c3a	0.023107637
56	0xbdb6c5fc	-0.08924481
57	0xbda43ff7	-0.08020013
58	0x3dc2b09c	0.09506342
59	0x3d5478e3	0.0518731
60	0xbe03413c	-0.12817854
61	0xbd13036e	-0.035891943
62	0xbe61e241	-0.22058965
63	0x3dae14b2	0.08500041

actor.2.weight f4 [64, 64]
0	0xbdef5503	-0.116861366
1	0xbdda46d0	-0.10658038
2	0xbdfb2d11	-0.12264455
3	0x3d9aba97	0.075551204
4	0x3cc7e92a	0.024403173
5	0x3e218250	0.15772367
6	0x3d119a8b	0.035547774
7	0x3d317a73	0.043329667
8	0x3c93b4ed	0.018030608
9	0xbe127400	-0.14302063
10	0x3d4202f9	0.047366116
11	0xbe1b0254	-0.15137607
12	0x3d609e6a	0.054838575
13	0x3cd10163	0.025513357
14	0xbb9ff8b5	-0.004881943
15	0xbe10e45c	-0.14149612
16	0x3d83b547	0.0643106
17	0xbdb32a44	-0.08748296
18	0x3d46c239	0.04852507
19	0xbceedc23	-0.029157704
20	0x3e1576dd	0.14596124
21	0xbdcdd208	-0.10049826
22	0xbdf126af	-0.117749564
23	0x3b64d591	0.0034917335
24	0xbde637e4	-0.11241129
25	0x3dc1c629	0.09461624
26	0xbb0cf1ea	-0.0021506497
27	0x3c823b59	0.01589744
28	0xbd21710c	-0.03941445
29	0xbd6e3da4	-0.058164254
30	0xbd801d5b	-0.06255599
31	0xbb945fa6	-0.0045280037
32	0xbe1438d3	-0.14474802
33	0xbdd7c2b9	-0.10535187
34	0x3c8b10f8	0.016975865
35	0x3d67bb16	0.056574903
36	0xbe324d98	-0.17412412
37	0xbc923558	-0.017847702
38	0xbdbbcca4	-0.091698915
39	0xbb413086	-0.0029478385
40	0xbd8ad7db	-0.067794524
41	0xbe20a0b0	-0.15686297
42	0xbdac614f	-0.08416998
43	0x3cefd8db	0.02927821
44	0x3b1115b8	0.002213819
45	0xbe00ffa9	-0.12597527
46	0xbca972fa	-0.020684708
47	0xbb9c4c54	-0.004769841
48	0xbcdf988e	-0.027294423
49	0xbd349d78	-0.044095486
50	0xbd9ea7c9	-0.07746846
51	0x3da45a1e	0.08025001
52	0xbca23fc0	-0.019805789
53	0xbde956c4	-0.11393502
54	0xbd029397	-0.031879034
55	0x3ddf9fb3	0.10919132
56	0x3d079ab7	0.033106532
57	0xbdbf3d4d	-0.09337864
58	0x3cb521e3	0.022110885
59	0xbe0e49ed	-0.13895388
60	0x3d425cac	0.04745166
61	0x3d99a5b8	0.075023115
62	0xbdd56766	-0.10420112
63	0x3c70ebb1	0.014704631
64	0xbd9e8f2c	-0.077421516
65	0xbdf3790f	-0.118883245
66	0x3cf8901c	0.030342154
67	0x3dc7e540	0.09760523
68	0x3d63fa0e	0.055658393
69	0xbdbb421c	-0.09143469
70	0xbdd8e133	-0.10589828
71	0xbcbe6b76	-0.0232446
72	0x3da88e57	0.08230274
73	0x3c8d55e3	0.017252868
74	0x3e033d14	0.12816268
75	0x39095670	0.00013097539
76	0x3b7613bf	0.003754839
77	0xbe14b71e	-0.14522979
78	0xbe204f54	-0.15655261
79	0x3d993533	0.0748085
80	0xbd922621	-0.07136179
81	0x3d98933f	0.0744996
82	0x3cb2a977	0.021809323
83	0xbd86f56e	-0.06589781
84	0x3db826e2	0.08991791
85	0x3d7f5843	0.062340032
86	0xbdc07e64	-0.09399107
87	0x3d22a4af	0.039707836
88	0xbe27389e	-0.16330191
89	0xbd94c9ed	-0.07265077
90	0x3cf8c0b6	0.03036533
91	0x3ddba36c	0.107245296
92	0xbdf482ed	-0.119390346
93	0x3de145e7	0.10999661
94	0x3cec49b6	0.028843742
95	0xbd948aaf	-0.07253014
96	0xbde9a0ea	-0.11407645
97	0x3e143bd1	0.14475943
98	0xbca3d3b7	-0.019998414
99	0x3d8fb0ac	0.07016119
100	0x3d520bec	0.0512809
101	0xbe1aef43	-0.15130334
102	0xbde9109e	-0.113801226
103	0xbd44f63c	-0.04808639
104	0x3d8a29f7	0.067462854
105	0x3d82da44	0.06389287
106	0xbc4e1aa6	-0.012579596
107	0xbdd40345	-0.10352186
108	0x3c8fdc08	0.017560974
109	0xbcb70e64	-0.02234573
110	0x3cdb2659	0.026751684
111	0xbdf4b774	-0.119490534
112	0xbcecc01c	-0.028900199
113	0x3ba8fbd2	0.0051569724
114	0xbb56ddfd	-0.0032786124
115	0x3d58dd3e	0.052945368
116	0xbba6a7b3	-0.0050859093
117	0xbe1cc341	-0.15308858
118	0xbe1c5376	-0.15266213
119	0x3d0d7309	0.034533534
120	0x3d460e7e	0.048353665
121	0x3d5f21ab	0.054475468
122	0xbc7e47a0	-0.015520006
123	0x3becaf45	0.007223042
124	0xbe2f6592	-0.1712859
125	0xbdadf3a3	-0.08493736
126	0xbd2a7dbc	-0.041623816
127	0xbccf8923	-0.025333947
128	0xbdd39dbf	-0.10332822
129	0x3dbe633a	0.0929627
130	0x3d355202	0.044267662
131	0x3d2d7f74	0.042357877
132	0x3dc56771	0.096388705
133	0x3e0b2e63	0.13591914
134	0xbe16ab87	-0.1471387
135	0xbde276eb	-0.11057838
136	0xbe1567b0	-0.14590335
137	0x3d9e1c5b	0.07720252
138	0x3d0a9984	0.03383781
139	0x3d56572d	0.05232923
140	0xbd241d54	-0.040067032
141	0x3d79d5e7	0.06099501
142	0xbdee82ab	-0.11646017
143	0xbd6e9ce7	-0.058255102
144	0x3da607ab	0.08106931
145	0x3c8af771	0.016963692
146	0x3b9fe272	0.0048792893
147	0xbe3a5540	-0.18196583
148	0x3db0499d	0.086077906
149	0xbdf77c87	-0.120842986
150	0xbdd85905	-0.10563854
151	0xbd4ed0b5	-0.050492007
152	0x3d3fa5b2	0.04678888
153	0x3dc71438	0.09720653
154	0xbd879273	-0.0661973
155	0x3d80c556	0.06287639
156	0xbe1b8dc5	-0.151908
157	0x3e263146	0.16229734
158	0xbe25f6e9	-0.1620747
159	0x3dd5677f	0.10420131
160	0x3e2220e3	0.15832858
161	0x3dd0ebae	0.10201202
162	0x3d06a1d1	0.032869164
163	0x3d64f8c9	0.055901323
164	0x3dc20a6c	0.09474644
165	0xbdf86747	-0.121290736
166	0xbdef832c	-0.11694941
167	0xbdf47df7	-0.119380884
168	0xbd978eeb	-0.07400306
169	0x3d872b71	0.06600083
170	0x3d8f89ef	0.070087306
171	0xbdc9529f	-0.09830212
172	0xbe0ec542	-0.13942435
173	0x3e00b95b	0.12570707
174	0xbd2d764e	-0.042349152
175	0xbdcea774	-0.10090533
176	0xbe042999	-0.12906493
177	0xbe44260d	-0.1915514
178	0xbd440feb	-0.047866743
179	0xb9581e12	-0.00020610567
180	0xbdd018b5	-0.101609625
181	0xbdaa9455	-0.08329073
182	0xbce23191	-0.027611526
183	0xbc43263c	-0.011910971
184	0xbdc3a5a7	-0.0955308
185	0xbd70be51	-0.05877525
186	0x3b91f9e3	0.0044548376
187	0xbdce6020	-0.10076928
188	0xbda8a86d	-0.0823525
189	0xbd323f3b	-0.043517333
190	0xbdf0aa32	-0.11751212
191	0xbd2e65b5	-0.042577464
192	0x3da2f2cc	0.07956466
193	0x3d3b1b00	0.045680046
194	0x3dc8270d	0.09773073
195	0x3d985460	0.07437968
196	0xbd0cabef	-0.034343656
197	0x3e0594d3	0.13045053
198	0x3d976ceb	0.07393821
199	0xbd7d2973	-0.061807107
200	0x3e3bb4a4	0.18330628
201	0x3e0d3af1	0.13792016
202	0x3e33ddc2	0.17565063
203	0xbd68aee6	-0.05680742
204	0xbe237ed4	-0.1596635
205	0x3ca05d39	0.019575702
206	0x3d26a8fb	0.040688496
207	0x3d4da905	0.050210018
208	0xbda14bf4	-0.07875815
209	0x3e19055e	0.14943454
210	0x3e374513	0.17897443
211	0xbc346b38	-0.011011891
212	0x3d3f5256	0.04670938
213	0xbde46dfc	-0.1115379
214	0xbe063ba0	-0.13108683
215	0x3dcf5813	0.10124221
216	0x3d33c038	0.043884486
217	0x3c480a56	0.0122094955
218	0x3dfc1b6d	0.123099186
219	0x3cc89f62	0.024490062
220	0x3d5838c3	0.052788507
221	0xbccd6ee4	-0.02507729
222	0x3dcb4a3d	0.09926269
223	0x3d3aa22a	0.045564808
224	0x3e225142	0.1585131
225	0x3d034a8d	0.03205352
226	0x3e30d8e4	0.17270237
227	0x3d26d641	0.040731672
228	0x3d9dd255	0.07706133
229	0xbd38f273	-0.045153093
230	0x3e03a846	0.1285716
231	0x3e0ec62e	0.13942787
232	0x3d65c7b2	0.056098647
233	0xbd22066c	-0.039556906
234	0x3cecf3d6	0.028924864
235	0x3d3174e7	0.043324377
236	0x3d7368a1	0.059425954
237	0x3d9058a1	0.070481546
238	0xbbe42578	-0.0069624744
239	0xbd42afae	-0.047530822
240	0xbdc9fd28	-0.09862739
241	0x3ccbdd38	0.024885759
242	0xbd507dd8	-0.050901264
243	0x3d7c1a02	0.06154824
244	0x3dd61ba4	0.10454491
245	0xbc672784	-0.014108542
246	0x3d2b0774	0.041755155
247	0x3d67976f	0.056540903
248	0x3e0b1850	0.13583493
249	0x3d3493ed	0.044086386
250	0x3cdfcd03	0.027319437
251	0xbd645673	-0.055746507
252	0x3ddc33f8	0.107521
253	0x3db60ec2	0.088895336
254	0xbe015092	-0.12628391
255	0x3d0854df	0.033284064

actor.2.bias f4 [64]
0	0xbdfdfd7c	-0.12401864
1	0xbd65929b	-0.056048017
2	0xbbe26702	-0.006909252
3	0x3dce1be3	0.10063913
4	0x3d5bfee1	0.05370987
5	0x3d378789	0.04480699
6	0x3e4bfec4	0.19921404
7	0x3dcbc705	0.09950069
8	0x3d30f7fc	0.043205246
9	0x3dee09bc	0.116229504
10	0x3e2b8295	0.16749032
11	0x3cf55d25	0.029951641
12	0x3dcf4a7f	0.10121631
13	0x3db4ab7b	0.0882177
14	0xbd785059	-0.0606235
15	0x3bcaebe7	0.0061926725
16	0x3cb1bcd3	0.021696484
17	0xbd609800	-0.05483246
18	0xbd15bd68	-0.036557585
19	0x3ba234b8	0.004950132
20	0xbdb67378	-0.08908743
21	0x3996ac00	0.0002873838
22	0x3d3d12da	0.046160556
23	0x3ce97d75	0.028502205
24	0x3c9a5eb1	0.01884398
25	0x3e3b083b	0.18264858
26	0xbdf5839b	-0.119879924
27	0x3cb4711e	0.022026595
28	0x3bbc81a4	0.005752759
29	0xbdd35e9b	-0.10320779
30	0xbd2d403c	-0.042297587
31	0xbbce090c	-0.0062876996
32	0xbc6cf40d	-0.014462483
33	0x3d0c859b	0.034307104
34	0x3e09f446	0.13472089
35	0xbe06b25e	-0.13153979
36	0x3dedd401	0.11612702
37	0x3d762f95	0.06010397
38	0x3e0e30e2	0.13885835
39	0x3d458140	0.048218966
40	0xbd4f2626	-0.05057349
41	0x3baefdef	0.00534033
42	0x3cb0a2b1	0.021561952
43	0xbcf76f66	-0.030204486
44	0x3da29e11	0.07940305
45	0xbd2c6a4b	-0.042093556
46	0xbdd32128	-0.103090584
47	0x3d720cd6	0.059094273
48	0xbd038d61	-0.03211725
49	0x3d902516	0.070383236
50	0xbddf5e10	-0.10906613
51	0xbd07221d	-0.032991517
52	0xbd90591d	-0.07048247
53	0x3e2542a9	0.1613871
54	0xbd06019d	-0.032716382
55	0x3e3a4d7b	0.18193619
56	0xbd323764	-0.043509856
57	0x3c10afb4	0.008830953
58	0xbdea0848	-0.11427361
59	0x3e18f3e1	0.14936782
60	0x3e570e3b	0.21001522
61	0x3d64184b	0.05568723
62	0xbcad75bb	-0.021174302
63	0xbd0f25ca	-0.034948148

actor.4.weight f4 [36, 64]
0	0x3e17186c	0.1475541
1	0x3e142ee4	0.14471012
2	0xbde7018a	-0.112795904
3	0x3d646ab0	0.055765808
4	0xbdc00397	-0.09375685
5	0xbd3fd73e	-0.04683613
6	0xbe12ef59	-0.14349116
7	0xbde045d9	-0.109508224
8	0xbda0fbdc	-0.07860538
9	0x3a9d9bbc	0.0012024562
10	0x3c966373	0.018357968
11	0x3d95f82c	0.07322726
12	0xbe1386c9	-0.14406885
13	0xbe0620b8	-0.13098419
14	0xbe0147e0	-0.12625074
15	0x3e0cc547	0.1374713
16	0xbd95fed3	-0.073239945
17	0xbd2721c5	-0.04080369
18	0xbdce8128	-0.10083228
19	0xbcc41c11	-0.023939164
20	0x3d7fa5dd	0.06241404
21	0xbe22c9a0	-0.15897226
22	0xbd6a7931	-0.057244483
23	0x3b5c8290	0.0033647157
24	0xbd67fc9a	-0.056637384
25	0xbd2369a5	-0.039895672
26	0xbd8632b5	-0.0655264
27	0xbd4198ca	-0.04726485
28	0xbdf9617e	-0.12176798
29	0x3d1a3234	0.037645534
30	0x3de80737	0.11329501
31	0x3ddf7853	0.10911622
32	0x3cdd240f	0.026994733
33	0xbd9df3b4	-0.07712498
34	0xbc852bc7	-0.016256226
35	0x3dce8147	0.100832514
36	0xbd850222	-0.064945474
37	0x3e04e789	0.12978949
38	0xbe0a5757	-0.1350988
39	0x3d0319d2	0.032007046
40	0xbdf2e16d	-0.11859403
41	0x3dc191e5	0.09451655
42	0x3dbdd659	0.09269399
43	0xbd5011cd	-0.050798226
44	0x3b318f04	0.00270933
45	0xbe0015c9	-0.1250831
46	0xbd644b83	-0.055736076
47	0x3dec166a	0.11527713
48	0x3e4fff2c	0.20312184
49	0x3e096631	0.13417889
50	0xbda22b34	-0.079183966
51	0x3ce7d958	0.02830188
52	0xbcfd4c9d	-0.030920321
53	0xbd43752e	-0.047719173
54	0x3dd65594	0.104655415
55	0xbd87f68e	-0.066388234
56	0x3da0f49d	0.07859156
57	0xbdc2981f	-0.09501671
58	0x3bd46a3d	0.006482391
59	0xbe0cc8bf	-0.13748454
60	0xbc816cec	-0.015799008
61	0x3dc4a02f	0.09600865
62	0xbdaafb90	-0.08348763
63	0xbd2c66a7	-0.042090084
64	0xbe01bb6f	-0.12669156
65	0xbde12951	-0.109942086
66	0xbe226309	-0.15858091
67	0x3d81d887	0.063401274
68	0x3db258d5	0.087083496
69	0xbe2270cc	-0.15863341
70	0x3d820d60	0.06350207
71	0x3d982375	0.07428638
72	0x3d981b05	0.074270286
73	0xba8ba382	-0.0010653588
74	0x3c7ba990	0.015360251
75	0xbda3cc65	-0.079979695
76	0x3dc62252	0.09674515
77	0x3e109e88	0.14122975
78	0xbcec6fec	-0.028861962
79	0x3bea66bd	0.0071533606
80	0xbbeb6a20	-0.007184282
81	0xbc3ba6db	-0.011453356
82	0x3d51d80f	0.05123144
83	0x3c744455	0.01490887
84	0x3c0251b0	0.007954046
85	0x3d6415bd	0.055684794
86	0x3c6e26fe	0.014535664
87	0x3aecc4aa	0.0018063982
88	0xbb985bf4	-0.0046496335
89	0xbd51ea17	-0.051248636
90	0x3de16544	0.11005643
91	0xbcd9244c	-0.026506566
92	0x3d2ce5ef	0.04221147
93	0x3c93f20a	0.01805975
94	0xbd075057	-0.033035602
95	0xbd532477	-0.051548447
96	0x3d482b05	0.04886915
97	0xbdaaf54b	-0.08347567
98	0xbcd4610c	-0.025925182
99	0x3d6f707c	0.058456883
100	0x3e37e13f	0.17957018
101	0xbca7c4fe	-0.020479675
102	0x3d78157c	0.060567364
103	0x3d359234	0.044328883
104	0x3e07428c	0.1320898
105	0xbdaddc75	-0.084893145
106	0xbc0caace	-0.008585645
107	0x3da6dde1	0.08147789
108	0x3d59710d	0.05308633
109	0xbe253aff	-0.16135786
110	0x3d000b58	0.03126082
111	0x3e0894e6	0.1333805
112	0xbdbe51ca	-0.09292944
113	0x3cd3236b	0.025773725
114	0x3e00c850	0.12576413
115	0x3bf8b38a	0.007589762
116	0xbd8d9570	-0.069132686
117	0x3ded59d4	0.11589399
118	0x3dfcb282	0.12338735
119	0x3e5588e3	0.20853
120	0xbd436d32	-0.04771156
121	0x3db71e05	0.08941273
122	0xbcb1626e	-0.02165338
123	0xbd735637	-0.059408393
124	0x3dfa2852	0.12214722
125	0x3c75c6de	0.015001027
126	0x3d99e1b1	0.0751375
127	0xbd68ac66	-0.056805037
128	0xbd881978	-0.06645483
129	0x3cd2d06b	0.025734147
130	0x3d9c93ad	0.076453544
131	0x3e03a0bf	0.12854289
132	0x3e0b7d2c	0.13621968
133	0xbd3c0389	-0.04590181
134	0xbc416897	-0.011804721
135	0x3e19949c	0.14998096
136	0xbdbfa4c0	-0.093575954
137	0x3e166f70	0.14690948
138	0xbafbc59e	-0.0019208675
139	0x3d9b886f	0.07594382
140	0x3c19b7b1	0.009382174
141	0xbc80c3a5	-0.01571829
142	0x3dba63eb	0.09101089
143	0xbdcdcc91	-0.100487836
144	0xbd79a87b	-0.06095169
145	0x3e3cd2be	0.18439767
146	0x3c41ee39	0.011836582
147	0xbdde5be5	-0.10857371
148	0x3def07d3	0.11671414
149	0xbe54cfee	-0.20782444
150	0x3d58fa80	0.05297327
151	0x3e1910e0	0.14947844
152	0xbdab1561	-0.08353687
153	0x3d6b7bdc	0.05749117
154	0x3c7c74d4	0.015408713
155	0x3e355dec	0.1771161
156	0x3dc26a39	0.094929166
157	0xbccbaa18	-0.02486138
158	0x3e784f63	0.24249034
159	0x3cbd1553	0.023081457
160	0x3e0da748	0.13833344
161	0x3d92c8aa	0.0716718
162	0x3e46b657	0.19405495
163	0x3dd54951	0.104143746
164	0x3d0d0f98	0.0344387
165	0x3e1fa469	0.15590061
166	0xbe1ef370	-0.15522552
167	0x3dc771b2	0.097384825
168	0xbe08096d	-0.13284846
169	0xbe0648bd	-0.13113685
170	0x3dfcedca	0.12350042
171	0xbd903469	-0.070412464
172	0x3d908bed	0.07057939
173	0xbe1b9007	-0.15191661
174	0x3ca53572	0.020167086
175	0x3c8cbd99	0.017180251
176	0x3d9dd9fd	0.077075936
177	0xbb1ae984	-0.0023637721
178	0x3d405541	0.046956304
179	0x3d801559	0.06254072
180	0xbb151d23	-0.0022752963
181	0x3e4f5bbf	0.20249842
182	0x3e1395f8	0.14412677
183	0x3df5f9ff	0.120105736
184	0xbc6524b6	-0.013985803
185	0xbdf1f208	-0.11813742
186	0x3dc6ec33	0.0971302
187	0xbd5a4615	-0.05328949
188	0x3c9b1255	0.01892964
189	0x3e571885	0.21005447
190	0xbd96eeb8	-0.07369751
191	0x3dbf35fe	0.0933647
192	0x3a8d48b8	0.0010779118
193	0x3d8bd047	0.06826835
194	0x3dbf22dc	0.09332821
195	0x3e630287	0.22168933
196	0x3e0566f5	0.13027556
197	0x3e145c5d	0.14488359
198	0x3dbbd081	0.09170628
199	0x3e816a77	0.2527654
200	0x3cc1d811	0.023662599
201	0x3e58d139	0.21173562
202	0x3e771802	0.24130252
203	0x3cd7b4cf	0.026331333
204	0x3dfc404b	0.123169504
205	0x3e74f320	0.2392087
206	0x3d37f9e8	0.044916064
207	0x3d98d209	0.07461936
208	0x3d0b56c0	0.034018278
209	0x3e1a61bb	0.15076344
210	0x3d991f5b	0.07476684
211	0x3e6ffed2	0.2343705
212	0xbcd9d8ac	-0.026592575
213	0x3e19b9bd	0.1501226
214	0x3df5981b	0.119919024
215	0x3e36102d	0.17779608
216	0x3e99b35d	0.30019656
217	0xbda1c744	-0.07899335
218	0x3e02ad61	0.12761451
219	0x3e19e033	0.15026931
220	0xbd44a03c	-0.048004374
221	0x3cc59915	0.024120847
222	0x3e7598c4	0.23984057
223	0x3e646b56	0.2230657
224	0x3e808b69	0.25106362
225	0x3e5c4124	0.21509224
226	0x3e8a9df6	0.2707364
227	0xbdbd29b7	-0.09236472
228	0x3ca36d81	0.019949676
229	0x3d58195f	0.05275857
230	0x3df974bb	0.12180468
231	0x3e8a20f8	0.26978278
232	0xbc94033a	-0.018067945
233	0x3c4a7620	0.012357265
234	0x3cdc8d87	0.026922954
235	0xbcdccd04	-0.026953228
236	0x3d9e69ed	0.077350475
237	0x3d761831	0.060081664
238	0x3aaa9b9e	0.0013016348
239	0x3d87792c	0.066149086
240	0x3d8edbe1	0.06975532
241	0xbd0a2f46	-0.03373649
242	0x3d2023c6	0.039096616
243	0x3e171825	0.14755304
244	0x3cfdfcbd	0.031004304
245	0x3e5c800b	0.2153322
246	0xbd8cc624	-0.0687373
247	0x3d566db1	0.052350704
248	0x3e0423e5	0.12904318
249	0xbd7f9043	-0.062393438
250	0x3cae7846	0.021297585
251	0x3e16ceb5	0.1472729
252	0x3e5c44c3	0.21510606
253	0x3c985d3e	0.018599149
254	0x3e81485b	0.25250515
255	0x3e80b8b5	0.2514092

actor.4.bias f4 [36]
0	0xbd2c239a	-0.04202614
1	0xbbac2ba6	-0.0052542267
2	0x3d12f0c9	0.035874162
3	0x3d825f78	0.063658655
4	0x3d751ec3	0.05984379
5	0x3dd7c8bc	0.10536334
6	0xbe0c588c	-0.13705653
7	0x3c30e112	0.010795848
8	0x3dfe1a1a	0.12407322
9	0xbe0bc388	-0.13648808
10	0x3d3462c5	0.044039506
11	0x3cf849d6	0.030308645
12	0x3da20b12	0.07912268
13	0xbd432843	-0.04764582
14	0xbe14f5c6	-0.1454688
15	0xbd1a2e45	-0.037641782
16	0x3d042cc0	0.03226924
17	0xbdacdff0	-0.0844115
18	0xbe803886	-0.25043124
19	0xbbc14547	-0.005898151
20	0xbd8db82d	-0.06919894
21	0x3e2919b3	0.1651371
22	0x3d7ccfff	0.061721798
23	0xbde48903	-0.111589454
24	0x3cc0d51d	0.02353912
25	0xbde699d3	-0.112598084
26	0xbd831d9e	-0.064021334
27	0xbd52fe99	-0.051512334
28	0x3d6dbd98	0.05804214
29	0x3d8b6d99	0.068080135
30	0x3dc6bfd9	0.09704561
31	0x3e0c09ae	0.13675568
32	0xbe7a6cdf	-0.24455594
33	0xbe394f1c	-0.18096584
34	0x3d788fc0	0.060683966
35	0x3e293f1f	0.16527985

critic.0.weight f4 [64, 62]
0	0x3cf82760	0.030292213
1	0xbdc72535	-0.097238936
2	0xbc3d02a8	-0.011536278
3	0xbdfcb1c0	-0.123385906
4	0x3d751234	0.059831813
5	0xbdca73b1	-0.09885348
6	0xbd25a482	-0.04044009
7	0xbd6566f6	-0.056006394
8	0x3d7dbdb4	0.061948493
9	0x3d82cece	0.06387101
10	0x3d80572b	0.06266626
11	0x3d357cd4	0.0443085
12	0xbd9495dd	-0.07255147
13	0x3e23a325	0.15980203
14	0x3d71516b	0.058915537
15	0xbd23257c	-0.03983067
16	0xbdeedd17	-0.11663263
17	0xbdf86014	-0.121277004
18	0xbda16920	-0.07881379
19	0xbddef32a	-0.108862236
20	0x3d8a13ac	0.06742033
21	0xbddae483	-0.106881164
22	0x3b0eddc0	0.0021799654
23	0xbd73fbc6	-0.05956628
24	0x3da4b072	0.08041467
25	0xbbb60e00	-0.005555868
26	0xbd7af924	-0.061272755
27	0xbdcb70e0	-0.099336386
28	0x3b996f23	0.004682438
29	0x3e138734	0.14407045
30	0x3d0e952f	0.03481024
31	0xbd114bd9	-0.035472725
32	0xbdfcafa8	-0.12338191
33	0xbd1acaee	-0.037791185
34	0x3dff6a9c	0.12471506
35	0xbcd8f46c	-0.026483737
36	0x3e2cee9e	0.168879
37	0x3dc3a8f0	0.09553707
38	0x3dac87b6	0.08424322
39	0x3df9f7ee	0.12205492
40	0xbd7cd8bf	-0.061730143
41	0x3d592cf5	0.05302139
42	0xbd261ec4	-0.040556684
43	0x3e13ccb3	0.14433555
44	0x3ccf23b5	0.025285581
45	0xbe138484	-0.1440602
46	0x3d620082	0.055176266
47	0x3d50015d	0.05078255
48	0x3bcb69ee	0.006207696
49	0x3dcf0d8d	0.101100065
50	0xbe013844	-0.1261912
51	0xbdaa2d5d	-0.083094336
52	0x3d072b08	0.033000022
53	0xbab300a5	-0.0013656808
54	0x3d70de0a	0.058805503
55	0xbdbb08c4	-0.09132531
56	0xbde50478	-0.11182493
57	0x3df623d6	0.12018554
58	0xbda0bcc1	-0.07848502
59	0xbd5fe91e	-0.054665677
60	0xbc837361	-0.016046228
61	0xbe15486d	-0.1457841
62	0xbab6e080	-0.0013952404
63	0xbcb10f24	-0.021613665
64	0x3bb7e8c0	0.0056124628
65	0xbdac5f4c	-0.08416614
66	0x3e282fb3	0.16424446
67	0x3e022de2	0.12712815
68	0x3d146ed2	0.0362385
69	0x3dbe660f	0.0929681
70	0xbefe9d93	-0.49729595
71	0xbecd93d2	-0.4015184
72	0x3e2a64bf	0.16639994
73	0x3d5795d2	0.052633114
74	0x3e1723e8	0.14759791
75	0x3ce97c59	0.028501676
76	0x3dbf6873	0.09346094
77	0x3cdb243d	0.026750678
78	0xbd9a073c	-0.07520911
79	0x3d8bf6b2	0.06834163
80	0xbc1bd720	-0.009511739
81	0x3d2e8240	0.042604685
82	0x3d9dce10	0.07705319
83	0x3c889160	0.016670883
84	0x3d2928b4	0.041298583
85	0xbc0e0528	-0.0086682215
86	0xbd411aa4	-0.047144547
87	0xbcdc2938	-0.026875123
88	0xbc707860	-0.014677137
89	0x3d6d7a9c	0.057978258
90	0xbdca6d60	-0.09884143
91	0xbd069781	-0.03285933
92	0x3de3f240	0.1113019
93	0x3c84adf9	0.016196238
94	0xbdb4a0aa	-0.08819707
95	0x3dbc86be	0.092053875
96	0x3d5752ec	0.052569315
97	0xbd996d2e	-0.074915275
98	0xbe036f26	-0.12835369
99	0x3d9581f4	0.07300177
100	0xbc064a62	-0.008196445
101	0xbe090179	-0.13379468
102	0x3de3bb02	0.11119653
103	0x3d309c7a	0.043117978
104	0xbde58961	-0.112078436
105	0xbdbde6a4	-0.09272507
106	0xbdf12421	-0.11774469
107	0xbdb07d4c	-0.086176485
108	0xbc3629dd	-0.011118379
109	0x3d9ca182	0.07647993
110	0xbde8fc63	-0.11376264
111	0xbdc61a04	-0.09672931
112	0xbe1236ce	-0.14278719
113	0xbe7e573f	-0.24837969
114	0x3ca2d708	0.019877926
115	0xbc8fe411	-0.017564805
116	0xbd61aeab	-0.055098217
117	0x3e5b92be	0.21442696
118	0x3ddc1856	0.10746829
119	0x3d2618a4	0.040550843
120	0x3e2be4fc	0.1678657
121	0x3d0ce4ed	0.03439801
122	0x3d8530a2	0.065034166
123	0x3cf44c28	0.02982147
124	0xbdd8e829	-0.10591156
125	0xbdd37690	-0.103253484
126	0xbcb55220	-0.022133887
127	0xbdf8a6ab	-0.121411644
128	0x3dc0fe59	0.09423513
129	0xbe49ee66	-0.19719848
130	0xbcd6219f	-0.026139079
131	0xba7c7932	-0.00096310966
132	0xbe2982ed	-0.1655385
133	0xbe660635	-0.22463305
134	0x3c64bfdd	0.013961759
135	0xbdd24df2	-0.10268773
136	0xbe4b1ec1	-0.1983595
137	0xbe123ef1	-0.14281823
138	0xbcb804bd	-0.022463197
139	0xbb82081a	-0.003968251
140	0x3dd922b4	0.10602322
141	0x3d0f82dc	0.035036907
142	0x3c0852b0	0.0083204955
143	0x3de6e010	0.11273205
144	0xbca7a4d4	-0.020464338
145	0xbda5d16f	-0.08096587
146	0xbd02f3ae	-0.031970672
147	0x3d2f0508	0.042729408
148	0xbcaff554	-0.021479286
149	0x3ce7b7f8	0.028285965
150	0x3cca83d8	0.024721071
151	0xbdec1a7e	-0.115284905
152	0xbe339229	-0.17536224
153	0xbe6a32e8	-0.22870982
154	0xbe282550	-0.16420484
155	0x3d8b62cb	0.06805953
156	0xbdcd514a	-0.1002527
157	0x3c05b1c0	0.008160055
158	0xbd468bbc	-0.048473105
159	0x3d281fb0	0.041045845
160	0xbe2ccf1a	-0.16875878
161	0xbdb407e1	-0.08790565
162	0xbcdf142e	-0.027231302
163	0xbda976e5	-0.082746305
164	0xbc400f63	-0.0117224185
165	0xbe3e8b19	-0.18607749
166	0xbddf2aa4	-0.10896805
167	0xbd8a57ca	-0.06755026
168	0xbe8d1ee3	-0.27562627
169	0xbe70db73	-0.23521213
170	0x3df0d76f	0.11759841
171	0x3dd6889d	0.10475276
172	0x3db6587d	0.089035966
173	0x3d8201d4	0.06348005
174	0xbe2fa927	-0.1715437
175	0x3dfd1a83	0.12358572
176	0x3d8755e2	0.06608178
177	0x3cb6aeef	0.022300212
178	0x3e19bfd5	0.15014584
179	0xbce54492	-0.027986798
180	0x3d488372	0.04895348
181	0xbdbbac77	-0.091637544
182	0xbd814a82	-0.06313039
183	0xbc9b46c2	-0.018954638
184	0xbdaddcd1	-0.08489383
185	0xbdfcd662	-0.12345578
186	0x3d95d80a	0.07316597
187	0x3d995094	0.07486072
188	0x3da14b84	0.078757316
189	0x3b0a5ac0	0.002111122
190	0x3e493bd1	0.19651724
191	0x3eca1beb	0.39474425
192	0xbdc65b99	-0.096854396
193	0x3d15a25c	0.03653179
194	0x3caf55a2	0.021403138
195	0xbda49fed	-0.08038316
196	0xbe2880a5	-0.16455324
197	0xbe23d968	-0.16000903
198	0xbdb240e9	-0.08703787
199	0xbe6b5cbb	-0.22984593
200	0x3d34b8ed	0.04412167
201	0x3d0981ce	0.033571057
202	0x3d363048	0.04447964
203	0x3d6c8e80	0.057753086
204	0xbd854bbe	-0.06508587
205	0xbcab27ac	-0.02089294
206	0xbdee2162	-0.11627461
207	0xbdcd474f	-0.10023367
208	0x3db46c04	0.08809665
209	0xbd0953fc	-0.03352736
210	0xbdbf4c60	-0.09340739
211	0xbdde5e60	-0.10857844
212	0x3cda4000	0.026641846
213	0x3dd41a44	0.10356572
214	0xbe1d4e52	-0.15361908
215	0x3ac6b298	0.0015159426
216	0xbc4ffdee	-0.012694819
217	0xbdccfa4d	-0.100086786
218	0x3cb5e660	0.022204578
219	0x3d2729a8	0.04081121
220	0xbd558310	-0.052126944
221	0x3da02e2a	0.07821305
222	0xbe132967	-0.14371262
223	0xbcdfca38	-0.027318105
224	0x3b53bc00	0.0032308102
225	0xbdf7288a	-0.12068279
226	0xbe064d39	-0.13115396
227	0xbd4db390	-0.050220072
228	0xbca0f774	-0.019649245
229	0xbd8bba83	-0.06822684
230	0xbe01da15	-0.12680848
231	0xbdaf36ca	-0.08555372
232	0x3e1c909d	0.1528954
233	0xbd80800a	-0.062744215
234	0xbdaef5f6	-0.08543007
235	0x3ccff8a6	0.02538712
236	0x3ddcbd6e	0.10778318
237	0xbd8915b8	-0.06693596
238	0xbcb1e638	-0.021716222
239	0xbda1c77d	-0.078993775
240	0xbc7e1720	-0.015508443
241	0xbd08378e	-0.033256106
242	0xbd9e245c	-0.07721779
243	0x3d5ff414	0.05467613
244	0x3d12a674	0.035803273
245	0x3a58a5a0	0.0008264426
246	0xbd71e0e4	-0.059052363
247	0xbda36558	-0.07978314
248	0x3b634780	0.0034680068
249	0xbd8fc7c0	-0.07020521
250	0x3c1790a0	0.00925079
251	0x3da0a14c	0.07843265
252	0xbe320d59	-0.17387904
253	0x3d8401b2	0.06445636
254	0x3c8cdb5d	0.017194444
255	0xbde254dd	-0.11051343

critic.0.bias f4 [64]
0	0xbe0d8838	-0.13821495
1	0x3d90d04a	0.07070978
2	0x3c970e5a	0.01843946
3	0x3c99b511	0.018763097
4	0x3d16346b	0.036671083
5	0x3d18c0ee	0.037293367
6	0x3e042475	0.12904532
7	0xbc03e954	-0.008051235
8	0xbd94ee38	-0.07271999
9	0x3e3ea6ad	0.1861827
10	0xbd749ee6	-0.05972185
11	0xbd8f625c	-0.070011824
12	0x3df804b1	0.1211027
13	0xbd96a598	-0.07355803
14	0x3e50a3de	0.2037501
15	0x3b00c8ad	0.0019650862
16	0xbbbbf84c	-0.0057363864
17	0x3e5a7a58	0.21335733
18	0xbe13a78a	-0.1441938
19	0x3dd745bb	0.10511347
20	0xbbca7237	-0.0061781663
21	0xbcf950aa	-0.030433971
22	0x3b925c4f	0.0044665704
23	0xbe45a317	-0.19300495
24	0x3e5bba1f	0.21457718
25	0xbc4580ea	-0.012054661
26	0xbdee434f	-0.11633932
27	0xbd0462ed	-0.032320905
28	0xbce547bf	-0.027988313
29	0xbdc51dda	-0.09624834
30	0xbe0689ba	-0.13138476
31	0xbdd8844e	-0.1057211
32	0x3c45abb2	0.012064861
33	0xbd230fec	-0.039810106
34	0xbd10383f	-0.03520989
35	0x3e399d75	0.18126471
36	0xbe2db6b9	-0.16964234
37	0x3e2e0444	0.16993815
38	0xbde5eaab	-0.112264
39	0x3c42f519	0.011899256
40	0x3c3f29ca	0.011667678
41	0xbe457ac7	-0.19285117
42	0xbe1572f9	-0.1459464
43	0xbe138831	-0.14407422
44	0xbdfdeec7	-0.12399059
45	0xbd6f99ac	-0.058496162
46	0x3dc5a790	0.09651101
47	0xbc6ed4dc	-0.014577117
48	0x3c8145d7	0.015780373
49	0xbe0853d5	-0.1331323
50	0xbdf3e170	-0.11908233
51	0x3dca9b61	0.098929174
52	0xbd4a26f5	-0.04935356
53	0xbdfaa659	-0.122387595
54	0xbe32593c	-0.17416853
55	0xbd0e94b9	-0.0348098
56	0xbdc43791	-0.09580911
57	0xbdb65671	-0.08903206
58	0xbdd4a472	-0.10382928
59	0xbd990357	-0.0747134
60	0xbcfa3a9c	-0.030545525
61	0x3ab45d30	0.0013760682
62	0xbcbe49d0	-0.023228556
63	0xbbd6b1b0	-0.0065519437

critic.2.weight f4 [64, 64]
0	0xbbb06f7b	-0.0053843833
1	0x3da1ee09	0.0790673
2	0xbc57f37c	-0.01318061
3	0xbde05ef5	-0.109556116
4	0x39e10e84	0.0004292616
5	0x3de60819	0.11232013
6	0xbd20e3ea	-0.039279856
7	0x3d9bd6a8	0.07609302
8	0x3d36b742	0.044608362
9	0x3d4ca636	0.0499632
10	0xbce5bca2	-0.028044049
11	0xbdf67c43	-0.1203542
12	0x3d307d6e	0.04308837
13	0xbc9608ca	-0.018314738
14	0xbce8f2ba	-0.028436054
15	0xbd853dd6	-0.06505935
16	0xbe0c3ba8	-0.13694632
17	0xbe268f0a	-0.16265503
18	0x3bbffe92	0.0058592046
19	0x3ce21971	0.027600022
20	0x3e37265f	0.17885731
21	0x3cc1f3e6	0.02367587
22	0x3da8c7d1	0.08241237
23	0x3d1d26ba	0.03836701
24	0x3c8923a9	0.016740637
25	0xbe074141	-0.13208486
26	0x3e3cb46d	0.18428202
27	0x3dbe27a4	0.092849046
28	0xbd344a33	-0.044016074
29	0x3d5907b4	0.052985862
30	0xbd06d466	-0.032917403
31	0x3d5a94b8	0.053364486
32	0x3dd19650	0.10233748
33	0xbdae810a	-0.08520706
34	0x3d5974f5	0.053090055
35	0xbe170c7a	-0.14750853
36	0xbdd9b726	-0.10630636
37	0x3ca099f4	0.01960466
38	0x3d693ee6	0.05694475
39	0x3d1eb8d4	0.038750485
40	0x3dceba93	0.1009418
41	0xbb39bf97	-0.0028342956
42	0x3d88b4fa	0.066751435
43	0x3d541ee8	0.051787287
44	0x3c8f8a07	0.017521871
45	0x3c5874fa	0.013211483
46	0xbe190538	-0.14943397
47	0xbe0314be	-0.12800881
48	0x3db2100e	0.086944684
49	0xbd8a9001	-0.06765748
50	0xbba99ab1	-0.0051759114
51	0x3e0028d9	0.12515582
52	0xbddde2d8	-0.10834283
53	0xbdb6b4ec	-0.08921227
54	0x3de33af3	0.11095228
55	0xbd2ebdb8	-0.0426614
56	0xbd609f6c	-0.054839537
57	0xbd812cd2	-0.06307377
58	0xbd16d484	-0.036823764
59	0x3d0b9e2b	0.034086388
60	0x3ccf9f09	0.025344389
61	0x3d2f19a6	0.04274907
62	0x3dbc48b9	0.09193558
63	0x3dfcb363	0.12338903
64	0xbdd98ba3	-0.10622337
65	0x3dfb2170	0.12262237
66	0xbd9b76fa	-0.07591052
67	0x3d6fac25	0.05851378
68	0xbe2686a4	-0.16262299
69	0x3e064382	0.1311169
70	0x3ddc542c	0.10758242
71	0x3e065350	0.13117719
72	0x3d9465a1	0.07245947
73	0x3d6e5488	0.058186084
74	0xbcdc5ef7	-0.026900752
75	0x3df98e80	0.12185383
76	0x3d1bc12b	0.038026016
77	0xbd42b01e	-0.04753124
78	0xbb1007b9	-0.002197726
79	0xbd9df40d	-0.077125646
80	0xbe34c679	-0.17653836
81	0xbde27938	-0.11058277
82	0x3d9f4d31	0.07778395
83	0x3d8fc7cd	0.07020531
84	0xbdba1fb4	-0.09088078
85	0xbd0f5ae7	-0.0349988
86	0x3deeae23	0.11654308
87	0xbda82341	-0.08209849
88	0xbda556dd	-0.080732085
89	0xbdc508cf	-0.09620821
90	0x3ddae850	0.10688841
91	0xbe2a9f98	-0.16662443
92	0xbd40f8d5	-0.047112305
93	0x3dc52aaf	0.09627282
94	0xbd063138	-0.032761782
95	0xbc59e002	-0.0132980365
96	0x3da6d11e	0.08145355
97	0x3e06fb27	0.13181745
98	0x3d88e883	0.06684973
99	0xbd1e6101	-0.03866673
100	0xbe08ec4c	-0.1337139
101	0x3d0fac2b	0.0350763
102	0x3e14c27f	0.1452732
103	0xbd699910	-0.057030737
104	0x3db2c6b6	0.08729307
105	0xbddd276b	-0.10798534
106	0xbdec8a64	-0.115498334
107	0xbd9b0029	-0.0756839
108	0x3dbe1ad6	0.09282462
109	0xbcad0af7	-0.021123393
110	0xbe1cc081	-0.1530781
111	0x3de5a482	0.11213018
112	0xbd68c0b2	-0.056824394
113	0xbdff64bd	-0.12470386
114	0x3e0b6ddd	0.13616128
115	0xbcb77883	-0.022396332
116	0xbca0d4a7	-0.01963265
117	0x3d95a75a	0.073073104
118	0x3b880523	0.004151003
119	0x3ddc87a1	0.10768057
120	0xbdee5fc0	-0.116393566
121	0x3db3bf01	0.087766655
122	0x3d03b596	0.032155596
123	0xbd94bc78	-0.0726251
124	0xbdc44d47	-0.09585052
125	0x3d4501a8	0.048097283
126	0x3dcd44b2	0.10022868
127	0x3dbfdeed	0.093686916
128	0xbc1c10b6	-0.009525469
129	0x3ce4a178	0.027909026
130	0xbd43c93e	-0.04779934
131	0x3d967b81	0.07347775
132	0x3d87b555	0.06626383
133	0x3cee4e32	0.02909002
134	0x3db38605	0.087657966
135	0xbe1f8013	-0.155762
136	0xbb4d621b	-0.0031338993
137	0xbd37ac72	-0.04484219
138	0x3e2b7cd8	0.16746843
139	0xbda3646a	-0.07978137
140	0xbd262c27	-0.04056945
141	0xbd680a27	-0.056650307
142	0x3d21411f	0.039368745
143	0xbdd014b3	-0.10160198
144	0x3d5ae90c	0.053444907
145	0xbe087ad1	-0.133281
146	0xbcefc6ff	-0.029269693
147	0xbd375a61	-0.044763926
148	0xbc805e8e	-0.015670087
149	0x3d181182	0.03712607
150	0x3dad53c6	0.08463244
151	0xbe0e0982	-0.13870814
152	0x3d050bc1	0.032481913
153	0x3d6d7e81	0.05798197
154	0xbc077c41	-0.0082693705
155	0x3d4c1982	0.049829014
156	0xbd1e625a	-0.038668014
157	0x3a5899cf	0.00082626654
158	0xbd485a20	-0.048914075
159	0xbc34253c	-0.0109952055
160	0xbd208ee9	-0.03919879
161	0x3dc3a33b	0.09552618
162	0xbdb05102	-0.08609201
163	0xbd55d403	-0.052204143
164	0xbe168e90	-0.14702821
165	0xbdc53e6b	-0.09631046
166	0x3da12af6	0.07869522
167	0xbdb8b91d	-0.090196826
168	0xbd8ee063	-0.06976392
169	0x3d805428	0.062660515
170	0xbda1e8ba	-0.07905717
171	0xbccdd69c	-0.025126748
172	0xbe17749b	-0.14790575
173	0x3ddc7a2a	0.107654884
174	0x3d466ed3	0.048445534
175	0x3dc943c2	0.09827377
176	0xbd8085a3	-0.06275489
177	0xbe5507dc	-0.2080378
178	0x3d2a57a3	0.041587483
179	0x3dfa7197	0.12228697
180	0xbb1c9a85	-0.0023895812
181	0x3c8ea5b4	0.017412998
182	0x3e18df3e	0.1492891
183	0xbe17e11f	-0.1483197
184	0x3df8420e	0.12121974
185	0xbd35ae05	-0.04435541
186	0x3b0cc013	0.002147679
187	0xbb636b8a	-0.003470155
188	0xbd63f5d2	-0.055654354
189	0xbd39a67e	-0.045324795
190	0x3d257d24	0.040402547
191	0xbdf18e4c	-0.11794719
192	0xbd1323e2	-0.035922892
193	0x3bccaa0e	0.006245858
194	0x3c45890e	0.012056602
195	0xbe18b8e0	-0.14914274
196	0xbd6a06b8	-0.057135314
197	0xbb1c4570	-0.00238451
198	0x3dc0ae21	0.094082125
199	0xbdd5f11c	-0.104463786
200	0xbdf1df47	-0.11810165
201	0x3c37202b	0.011177103
202	0xbdfce916	-0.12349145
203	0xbce98560	-0.028505981
204	0xbe63f24d	-0.22260399
205	0xbd33fe85	-0.0439439
206	0x3d4d8073	0.050171327
207	0xbdea2265	-0.114323415
208	0xbdbae13f	-0.091249935
209	0xbd399d2e	-0.045315914
210	0x3d1704a4	0.03686966
211	0x3cc21611	0.023692163
212	0xbdbecf6f	-0.093169086
213	0x3cd4856d	0.025942529
214	0xbcbd6b71	-0.023122521
215	0xbdd78657	-0.1052367
216	0xbe2a6a48	-0.16642106
217	0x3d9ae643	0.0756345
218	0xbdc0963e	-0.094036564
219	0x3d859b0c	0.065237135
220	0xbdb898ac	-0.09013495
221	0x3d58d4d1	0.052937333
222	0x3c2c2fb1	0.010509417
223	0xbdd87d9f	-0.10570835
224	0x3db7f797	0.08982771
225	0xbdf57668	-0.11985475
226	0xbc91681d	-0.01774984
227	0x3d125f04	0.035735145
228	0x3db62d48	0.088953555
229	0x3c6b104a	0.014347145
230	0xbdd23cfe	-0.102655396
231	0xbe1bdb31	-0.15220334
232	0xbdfc371b	-0.12315198
233	0x3d241e55	0.04006799
234	0x3d4e4e2c	0.05036752
235	0xbe010edd	-0.12603326
236	0xbd8619ac	-0.06547865
237	0x3d8948e3	0.06703355
238	0x3dacfa83	0.08446219
239	0x3c675e4d	0.014121604
240	0xbe0ec338	-0.13941658
241	0xbdaf6f3d	-0.08566139
242	0x3c48954a	0.012242625
243	0x3d215500	0.039387703
244	0x3dc904c7	0.09815364
245	0xbdb6bcc1	-0.08922721
246	0x3d9dccc9	0.07705075
247	0x3d6deb1a	0.05808554
248	0x3d080fd2	0.033218212
249	0x3de061a8	0.109561265
250	0x3c44389f	0.01197639
251	0x3c59a7f4	0.013284672
252	0xbd0cad59	-0.034345005
253	0x3c334084	0.010940675
254	0x3d4f9b63	0.050685298
255	0x3d0221f2	0.031770654

critic.2.bias f4 [64]
0	0x3d6cdbdc	0.05782686
1	0xbd8e0e0e	-0.069362745
2	0xbe116301	-0.14197923
3	0xbc88c7e8	-0.016696885
4	0xbe0585ab	-0.13039272
5	0xbd013dc4	-0.031553045
6	0x3ddeef7a	0.1088552
7	0x3d0dc9fb	0.03461645
8	0x3d7f2056	0.062286697
9	0xbc10ebc3	-0.0088452725
10	0xbdca4b14	-0.09877601
11	0xbda86bdc	-0.082236975
12	0x3dbb9a0f	0.09160244
13	0x3db56415	0.0885698
14	0x3ddb67b6	0.10713141
15	0xbd18f05c	-0.0373386
16	0x3ded68d6	0.115922615
17	0x3d2a17c1	0.04152656
18	0xbdb7fbc9	-0.08983571
19	0xbd91196f	-0.07084929
20	0xbcde0ef1	-0.027106734
21	0x3dc9d13b	0.09854361
22	0x3cb1a2f8	0.021684155
23	0xbcfb7284	-0.030694254
24	0xbdad6fab	-0.084685646
25	0x3dac0bd0	0.084006906
26	0x3d78f435	0.06077977
27	0xbd24da21	-0.040247086
28	0xbdf0827c	-0.11743638
29	0xbdebe6bd	-0.11518619
30	0xbd415262	-0.047197707
31	0x3cd71f1b	0.02625995
32	0xbde82242	-0.11334659
33	0x3d11be9d	0.035582174
34	0x3c90626b	0.017625054
35	0xbda82bac	-0.08211455
36	0xbd180de8	-0.037122637
37	0xbc9567c9	-0.018237965
38	0xbd85005c	-0.06494209
39	0x3ddfb2cf	0.10922777
40	0x3a8a5337	0.0010553364
41	0xbdba3681	-0.09092427
42	0xbdce3f1e	-0.100706324
43	0xbb4a4d49	-0.003086882
44	0x3d9be8ac	0.07612738
45	0x3da25ac8	0.079274714
46	0x3d0a2b5c	0.033732757
47	0x368330a0	3.909765e-06
48	0x3d5a074f	0.053229626
49	0x3ddb92d7	0.10721367
50	0xbe0d0aae	-0.13773605
51	0x3e1c4eb7	0.15264402
52	0x3cc2a276	0.023759108
53	0x3c9336a2	0.017970387
54	0xbe0a153f	-0.13484667
55	0xbe0c5f72	-0.13708284
56	0x3d8f8ab2	0.07008876
57	0x3cd91152	0.026497517
58	0xbd1439fa	-0.036188103
59	0x3d1f39b7	0.0388734
60	0x3d80ca73	0.06288614
61	0xbe14ac63	-0.14518885
62	0xbd7067b2	-0.05869264
63	0x3d91326b	0.070896946

critic.4.weight f4 [1, 64]
0	0xb9c7ff8a	-0.0003814663
1	0xbc32b6cb	-0.010907839
2	0x3d46250a	0.048375167
3	0x3d042b9c	0.03226815
4	0xbdc19760	-0.094527006
5	0xbd42c7dc	-0.047553882
6	0xbc63b9a0	-0.013899237
7	0xbad5abe9	-0.0016301844
8	0x3ba91d80	0.0051609874
9	0xbc85c05a	-0.016327072
10	0xbc01f2ac	-0.007931393
11	0x3daca72c	0.08430323
12	0xbc239489	-0.009984144
13	0x3caaaa87	0.020833267
14	0xbbd0cc89	-0.0063720387
15	0xba9fdc2a	-0.0012196351
16	0x3dd81b63	0.105520986
17	0xbc517092	-0.0127831865
18	0x3d5a05b3	0.05322809
19	0xbc9e8f2f	-0.019355385
20	0xbd02e048	-0.031952173
21	0x3bdd913b	0.0067616976
22	0xbbb91e78	-0.005649384
23	0xbb4c9233	-0.0031215071
24	0xbd49bfd1	-0.049255196
25	0x3e1a3120	0.15057802
26	0x39749b52	0.00023327515
27	0xbc791ee1	-0.015205116
28	0x3e158631	0.14601971
29	0x3d3abe7e	0.045591824
30	0x3d850933	0.06495895
31	0x3d84aca3	0.0647824
32	0xbc56e0f1	-0.013115154
33	0x3bc426b3	0.0059860586
34	0x3ccc734f	0.024957327
35	0x3c4027b2	0.011728214
36	0x3c07f019	0.00829699
37	0xbd05ebb2	-0.03269548
38	0x3da18eaa	0.07888539
39	0x3df24ae6	0.11830692
40	0xbb4b9229	-0.003106246
41	0x3ca258b4	0.019817688
42	0x3dcb7656	0.0993468
43	0xbd81048a	-0.06299694
44	0xbde1620f	-0.11005031
45	0xbb969bd5	-0.0045962133
46	0x3d704093	0.058655333
47	0xbc9f78cd	-0.019466782
48	0x3abbd309	0.0014329861
49	0x3db716b2	0.08939876
50	0xbc950b58	-0.018193886
51	0x3e56ae73	0.20964985
52	0xbd77cab3	-0.060496043
53	0xbda9d9dc	-0.082935065
54	0x3de9565c	0.11393425
55	0x3d6b91b6	0.057512008
56	0xba85f066	-0.0010218739
57	0xbcdaa249	-0.026688712
58	0x3c375bfa	0.0111913625
59	0xbb16d716	-0.0023016385
60	0xbd1321ce	-0.03592091
61	0xbc85f425	-0.016351769
62	0x3d49f85b	0.049309116
63	0x3d83bd6d	0.064326145
