Models/Reward_shaping_vm/RS_disprop_scale_mag_vm_9_0/32000.pth (torch, 78437 bytes, 11 tensors)

actor.0.weight f4 [64, 62]
000000 6b 13 22 3d fe f8 4d bd db 52 a7 bb a5 49 90 3d
       0.0395693 -0.050286286 -0.0051063127 0.070452966
000010 23 2e e4 3c 83 7f ad 3e 74 17 85 be d7 7e c5 3d
       0.027854031 0.33886346 -0.25994456 0.096433334
000020 7c 2d 1b be 46 6e d8 3d fb 9b 62 3e 46 15 07 3f
       -0.1515407 0.10567908 0.22129814 0.52766836
000030 7b 8e 46 be 07 fe 9e bc 15 24 3d be c9 8d d7 be
       -0.1939029 -0.019408239 -0.18470795 -0.4210036
000040 ae 65 a0 3b df 68 1f bd 9d d8 59 bc 55 de 08 3d
       0.0048949337 -0.038918372 -0.013296274 0.033415157
000050 54 9c 4a 3d ef 39 a7 3d 3f dd d5 3d fd d9 70 3d
       0.049465492 0.08165347 0.1044259 0.05880164
000060 df 6d 5d bc 36 67 de bd ac 43 da 3d 0a 72 93 3d
       -0.013514965 -0.1085953 0.10657439 0.071994856
000070 56 34 e8 bd d0 ca f4 bc 44 be ca bd 73 1c db bd
       -0.11338107 -0.029881865 -0.098995715 -0.10698786
000080 8a c8 ca 3d 6d 4f a5 3d bb 44 6b 3d b5 46 c2 bc
       0.09901531 0.0807179 0.057438593 -0.023715356
000090 71 8a e4 3d 5b 23 dc 3d 2f 22 0f 3e 19 bf a4 3d
       0.11159218 0.10748931 0.13977884 0.080442615
0000a0 ee 8d f8 3c 51 8b ee bb 9b c8 8e bc fa c8 d0 3d
       0.030341115 -0.0072797914 -0.01742964 0.10194583
0000b0 9c a3 38 3d 81 86 33 3e fd b7 0a be 04 56 ce 3d
       0.045077905 0.17531778 -0.13546748 0.10075
0000c0 04 d1 36 3e 20 33 03 be c8 fa 05 be 25 e1 c4 bc
       0.1785317 -0.12812471 -0.13083947 -0.024033139
0000d0 c4 a8 79 3d d3 a9 b2 3b 94 db 67 3d bf 6a f5 bc
       0.060951963 0.0054523735 0.05660589 -0.029958127
0000e0 a4 f4 52 3d 46 b9 37 bd 53 ae 46 3d 5e 65 b9 3c
       0.05150284 -0.044854425 0.048506092 0.022631343
0000f0 9d 87 8b 3c 64 a6 4a 3d 7c 28 04 bd 8c d0 b9 3d
       0.017032439 0.04947509 -0.03226517 0.0907298
000100 36 38 18 3c 7a 36 f1 bd 2d 28 fa 3d 2c 79 4c 3a
       0.0092907455 -0.11777969 0.12214694 0.00078000384
000110 32 6f 69 be da f3 dd bd 69 d1 8a 3d 87 2a 13 3e
       -0.22796324 -0.108375266 0.06778223 0.14371692
000120 b6 cf 8d be b9 76 6d 3e bf ef ce be 48 16 7a bd
       -0.27697533 0.2318982 -0.40417287 -0.061056405
000130 45 7a 54 be 7c b3 04 bf 02 8c 2b 3d 80 9d f8 3d
       -0.20749767 -0.5183637 0.04188157 0.12139416
000140 40 82 52 bd 19 4a 2f bd b1 10 eb bd 88 1a 01 be
       -0.051393747 -0.042795274 -0.11477793 -0.12607777
000150 76 40 10 bd 7e ed c5 3d e0 4e 12 3a b7 71 c3 bd
       -0.035217725 0.09664439 0.00055812113 -0.09543174
000160 78 d0 a8 3d 7b 39 59 3c 1a 3f 10 be 29 f4 82 be
       0.08242887 0.013258333 -0.14086571 -0.25576904
000170 0e 7d 29 be f3 f9 6c be b5 45 ce bd 0e 37 df bd
       -0.16551611 -0.23142223 -0.10071889 -0.10899173
000180 b9 b3 b6 3d de fc d5 bd 2a 7d 34 be 3c 2d c4 bd
       0.08920998 -0.10448621 -0.17625871 -0.0957894
000190 53 c4 2a 3d 37 e8 09 3e 83 e5 88 bd ae f0 a4 be
       0.041691136 0.13467489 -0.06684401 -0.32214874
0001a0 f0 6f 45 be 92 48 22 3d c7 7a ad 3d 66 f9 57 3d
       -0.19280982 0.03961999 0.084706835 0.05272808
0001b0 ed 9e 4b bd 9b 36 81 3d a5 1a 99 3d 08 01 83 3d
       -0.04971211 0.06309243 0.07475785 0.06396681
0001c0 6f 45 9f bd 7d 34 25 3d 99 48 04 3d 8c 9a 4b 3e
       -0.07776915 0.04033326 0.032295797 0.19883174
0001d0 6a 08 57 3d ff 6f 74 3d 5e 11 de bc 71 fd 56 3d
       0.05249826 0.05967712 -0.02710789 0.052487794
0001e0 fa a9 c0 bd de 93 97 3d de 83 85 3d 4d 1d b6 3d
       -0.094074205 0.0740125 0.06519292 0.088923074
0001f0 f9 21 d2 bd 58 47 d2 3d a6 11 56 bd 78 6b b6 bb
       -0.10260386 0.10267514 -0.052262925 -0.0055670105
000200 bc 63 39 be 76 b9 43 be 2f ea 35 3c 82 a3 3c 3d
       -0.18104452 -0.19113716 0.011103197 0.04605437
000210 8f c8 95 be 1d 8f e9 bd 31 1d 01 3e 56 9f 0b 3f
       -0.29254577 -0.1140425 0.12608792 0.5454
000220 4b 94 a4 bc ca 2b 9a be ab 65 81 3e bc bf b3 3e
       -0.020090243 -0.30111533 0.2527288 0.3510722
000230 63 97 c5 3b 18 c1 8b 3d 97 4c de bd 37 e4 b9 3d
       0.0060300096 0.06823939 -0.10854452 0.09076732
000240 2e d2 b5 3d 54 a6 2c 3b b7 6d 27 bc b3 a5 b3 bc
       0.08877979 0.0026344256 -0.010219029 -0.021929597
000250 de 7e f4 bb 57 23 96 bd d1 cf 17 3d 3a 83 c4 3c
       -0.007461413 -0.07330959 0.037063424 0.023988355
000260 da 1f 9d 3e 05 4a 42 3e af 6e f1 bd 2f c4 35 be
       0.30688363 0.18973549 -0.11788689 -0.1775062
000270 2d cb 50 3c c7 cf d7 bd 35 3f d4 bd 80 46 5c bd
       0.012743753 -0.10537677 -0.10363618 -0.05377817
000280 1f 6b 83 be e2 42 a2 be db 50 8e bc 1a 06 c3 3d
       -0.25667664 -0.31691653 -0.01737254 0.09522648
000290 de cc 52 bd 22 84 9e bd e6 ee 40 3d 30 cd ec 3d
       -0.051464908 -0.07740046 0.04710283 0.11562574
0002a0 6d 58 ce bd 6e 32 38 bd 91 1a 8f bd 47 d6 bc 3d
       -0.1007546 -0.04496997 -0.06987489 0.09220558
0002b0 d0 94 5f bc 23 75 2a bd fa 36 2c 3e 51 b7 23 3d
       -0.0136463195 -0.041615617 0.16817847 0.039969746
0002c0 9d 5d c9 3d 1c ca 2c bc 5d 29 23 3e 1b c6 26 3e
       0.098323084 -0.0105462335 0.15933748 0.16286509
0002d0 92 22 2c bc ad 9c b8 bd f1 63 bf bd 7e 99 0b be
       -0.010506289 -0.090142585 -0.09345234 -0.13632771
0002e0 d7 60 36 3d 0a f3 6d bb 94 95 c3 3c 55 55 99 bd
       0.044525947 -0.0036308193 0.023875035 -0.07486979
0002f0 16 1b a4 3d bd e0 00 3e c9 e3 9d bd f5 e2 50 3d
       0.08012979 0.12585731 -0.07709462 0.050997693
000300 c1 ad de be f8 bc 9d be 96 68 19 be 7b 44 81 3c
       -0.4349194 -0.30808234 -0.14981303 0.015779724
000310 99 c2 3a 3e bd c3 e2 3e 95 b8 12 be 3e 30 d9 3c
       0.18238296 0.4428996 -0.14328225 0.026512261
000320 53 35 cc 3d e3 b1 ca 3e 5d 5b a6 3d f9 69 af bb
       0.09971108 0.39588842 0.08122895 -0.005353209
000330 51 c0 9c 3d a5 e4 5a 3d 9b 30 fb bb 09 31 fa bd
       0.07653869 0.05344071 -0.0076657063 -0.12216384
000340 70 42 a3 bd 04 ff c1 bb ab cc a1 3d 4f c4 1b 3d
       -0.07971656 -0.005920293 0.079003654 0.03802901
000350 92 e7 25 bc 5d a8 81 bd 92 31 bb 3e 0c 53 9d 3b
       -0.010126011 -0.06330941 0.36561257 0.0048011597
000360 c0 42 8e 3d 18 05 a9 3c a2 7f b8 bc 6f 93 d4 3d
       0.06946325 0.020632312 -0.022521798 0.10379683
000370 f7 f0 1f bd b1 f4 00 be 52 a8 c0 3e 08 3a 82 3e
       -0.03904816 -0.12593342 0.37628418 0.254349
000380 a2 1c b1 3c 46 36 b3 bd c6 34 fd bd 0c 36 00 3f
       0.021620099 -0.08750586 -0.12363581 0.5008247
000390 22 f3 fb bb 36 ef f2 3d 70 63 7d be 41 9a 98 bc
       -0.007688896 0.11862032 -0.24744964 -0.018628241
0003a0 77 4c 09 3e 72 74 52 3d 77 f2 b8 ba ef 8d f1 bc
       0.13408075 0.051380582 -0.0014110346 -0.029486625
0003b0 4e 8d 61 3d 75 8c d2 bd 44 fe b7 bd 3a c9 05 be
       0.0550664 -0.10280696 -0.08984044 -0.13065043
0003c0 45 13 ae 3d 48 8e 0c 3e 7e c9 a3 3d 51 c6 da bd
       0.08499769 0.13726151 0.07997416 -0.10682357
0003d0 53 f5 44 3e 69 22 36 3e 3f 6a f0 bd 00 f5 3e 3e
       0.19234209 0.17786564 -0.11739015 0.18648148
0003e0 bf 48 2f bd 86 93 18 3c 64 98 ac bc 23 9f 2a 3d
       -0.042793985 0.009312516 -0.02106876 0.04165567
0003f0 5e e6 08 3c 13 8b a4 3d ec 3d c0 3d 06 95 19 bd
       0.008355705 0.08034339 0.09386811 -0.037495635

actor.0.bias f4 [64]
000000 d3 ea 44 bd 66 c2 82 3d a1 f8 34 bc 28 01 30 3d
       -0.04807551 0.06384735 -0.011045606 0.042969853
000010 e4 b1 32 bd d5 08 f5 3d 08 92 2e 3d a5 48 90 bd
       -0.04362668 0.11964575 0.042619735 -0.07045106
000020 68 f2 b6 3d 2b 9f f0 3d 15 33 13 3e 7c 17 6f 3e
       0.08932954 0.11749109 0.14374955 0.23348802
000030 bd d4 5d 3e a4 9e 6a bd 6f e4 1e 3e 16 af f9 bc
       0.21663184 -0.057280198 0.15516828 -0.030478995
000040 2f 46 02 3e 10 f6 30 3e a3 9e 3d 3e 35 8c 24 3d
       0.12722085 0.17281365 0.18517546 0.040172774
000050 b5 93 62 3e 96 65 9d 3b 0c 9b f6 3d 85 fd 3b 3e
       0.22126658 0.0048033698 0.120412916 0.18358429
000060 29 4e 34 bd 48 89 ec 3d 45 65 df 3d a0 d6 06 3e
       -0.04401985 0.11549622 0.109079875 0.1316781
000070 6b 6f ea 3a aa 81 f7 3d 46 23 42 3d 9c 20 be bc
       0.0017885988 0.12085278 0.04739692 -0.023208909
000080 00 6a 14 3c 10 a4 bb 3d e5 db b4 3d 40 c6 1a 3e
       0.0090584755 0.09162152 0.08831004 0.15114689
000090 ae 82 c2 bd ae 12 c4 3c 7f a0 dc 3d 46 fb 01 bc
       -0.094975814 0.023934688 0.107728 -0.007933443
0000a0 51 7e 54 3d b2 2c e6 3d 7c fb b2 3d 7b 78 2a 3e
       0.051878277 0.11238994 0.08739373 0.16647522
0000b0 2a d4 f8 3c 04 b3 2b bd 6e 92 1a 3e e8 1f 1a 3d
       0.030374605 -0.04191877 0.15094921 0.037628084
0000c0 28 27 66 3e ca 14 56 3d e1 6c 1f 3e a1 c8 6f 3d
       0.22475874 0.05226592 0.15568878 0.058540944
0000d0 3a 4d 5d 3d 5b e3 1c bd 34 72 fb bb 64 88 6c bd
       0.054028727 -0.03830276 -0.007673526 -0.05774726
0000e0 4f 9c 87 3d c4 b6 53 bd 66 61 5c 3c aa fa a0 3d
       0.066216104 -0.05168797 0.013450956 0.078603104
0000f0 b0 17 42 3d 3e aa b8 3c ad ed 49 3e 61 2f a9 3d
       0.04738587 0.022542115 0.19719572 0.0826099

actor.2.weight f4 [64, 64]
000000 b5 47 14 3c 69 ed b6 3d 10 c6 9b 3d fa 0a 8f bd
       0.009050299 0.08932001 0.07606137 -0.069845155
000010 4e fd 2b 39 69 91 0e 3d 15 9a 5b bd 0a 6d 04 3d
       0.00016402194 0.034806643 -0.05361374 0.03233055
000020 a5 3d 5a bd 23 4b c1 bd bd 80 bf bc 58 5c 8d bd
       -0.053281445 -0.09438159 -0.023376817 -0.06902379
000030 0c 16 7e 3d bc 09 47 bd 14 b6 ac bd 47 aa 7d bc
       0.062032744 -0.048593268 -0.08433166 -0.015482492
000040 15 65 02 be 29 56 de 3d 70 b9 25 bb a2 91 2a bc
       -0.12733872 0.108562775 -0.0025287531 -0.010410698
000050 94 68 47 bd 92 45 20 bc 7c 75 a0 bd 18 e8 b0 bc
       -0.048683718 -0.009782212 -0.07834908 -0.021595046
000060 45 9e e4 3d 05 35 c1 bc af b5 c4 3c 74 c2 99 3a
       0.11163 -0.023584852 0.024012415 0.0011730925
000070 a6 aa 92 bd b0 34 ac bd 70 9b 0c be 13 48 39 bd
       -0.07161455 -0.08408487 -0.1373117 -0.04523475
000080 a7 96 41 3d 7f 21 0d 3b fd 40 0e bd 15 bc 00 be
       0.047262814 0.0021534858 -0.034729946 -0.12571748
000090 e4 de b0 3d 17 6e 69 bd 9c 0c eb bd 74 6f ac bc
       0.08636263 -0.056989755 -0.114770144 -0.021049239
0000a0 99 e5 ea 3d e2 c3 78 3c d2 3f 4b 3b c9 49 11 3c
       0.114695735 0.015183421 0.0031013382 0.008867689
0000b0 87 e3 16 3d 40 59 85 3d bb 7c e0 3d f0 01 a3 3c
       0.03683808 0.06511164 0.109612904 0.019898385
0000c0 72 14 c0 bd f4 50 9c ba 6b 31 fa bd f3 e4 1b bd
       -0.093789 -0.0011925981 -0.12216457 -0.03806014
0000d0 99 d7 ff 3c dc bd 04 be 29 5f d4 bd cf d6 0e be
       0.031230735 -0.1296305 -0.10369713 -0.1394913
0000e0 de a3 00 be 88 79 c6 3d 6d c3 f0 bc ef bb d7 3d
       -0.1256251 0.09691149 -0.029390061 0.10533892
0000f0 49 46 6a 3d 24 cf ae bc 86 7f c2 3c dc b8 8b 3c
       0.057195935 -0.021339007 0.023742449 0.017055921
000100 38 d3 0a 3e 3b 20 3f be 35 24 d1 3d 2a 90 e6 3c
       0.13557136 -0.18664639 0.10211984 0.028144915
000110 02 39 a5 3e e0 ed 23 3e 15 89 de bd 0b 71 e0 bd
       0.32270056 0.16008711 -0.1086599 -0.10959061
000120 f6 ee ef bc 61 61 c8 3d 95 4b de bd 34 df 08 3d
       -0.02928875 0.097841986 -0.1085426 0.033415988
000130 e6 a1 31 3e 86 b3 48 bd 92 9d 9e 3d a7 3d 14 3e
       0.17346916 -0.048999332 0.07744898 0.14476644
000140 fc 10 44 3e a5 1f 09 3e 7e 04 87 3d 21 4a f3 bd
       0.19147104 0.13390978 0.06592654 -0.11879373
000150 89 c6 8f 3d e5 e6 41 3e 85 81 30 bd 8a 13 95 3e
       0.070202895 0.18935736 -0.04309227 0.2911647
000160 d2 5d 40 3e 2a a3 07 be 28 cf 95 bd b3 d6 ec 3d
       0.1878579 -0.13245836 -0.073149025 0.11564388
000170 c9 28 fe 3b 12 14 0f bd 61 71 87 be cc 25 cf 3e
       0.007756327 -0.03493125 -0.2645369 0.40458524
000180 fb a1 28 3e 8f 63 68 3e 2f 77 2a 3e 67 77 c9 bd
       0.1646804 0.22694229 0.16647027 -0.09837227
000190 44 43 c2 bd b4 0b df 3d f2 e4 00 be 42 ee 71 3d
       -0.09485486 0.10890904 -0.12587336 0.05906511
0001a0 45 8e 40 be ac 65 19 be e0 d3 29 3e ab 25 2f bd
       -0.18804272 -0.14980191 0.1658473 -0.042760532
0001b0 d7 b9 01 3e 2f 8e 7d bc 23 8a 2d 3d c5 6c c3 bd
       0.12668549 -0.015475794 0.042368066 -0.095422305
0001c0 6a 39 89 3e 02 2e 5c be b9 2a 9d 3e 4a 75 1f 3d
       0.26801616 -0.21501926 0.30696657 0.038930215
0001d0 75 d1 4e be 2a 92 0b 3d 53 71 23 3e 42 91 a3 be
       -0.20197089 0.03407494 0.15961199 -0.3194676
0001e0 f8 a3 17 be cf 90 a5 bd 8d e6 3b bb d2 dd 5f 3e
       -0.14808643 -0.08084261 -0.0028671355 0.21861961
0001f0 47 ef 40 3e bf 0b 8d be f6 66 be be 42 74 98 bd
       0.18841277 -0.27548024 -0.37187928 -0.074440494
000200 24 f7 af 3d 86 3c 25 3e 9c a4 80 3e 8c 2b 55 3c
       0.0859206 0.16136369 0.25125587 0.013010871
000210 34 1f d2 3d 70 88 5e bd 5e 91 7e 3e 10 9a cc 3c
       0.10259858 -0.054329336 0.2486014 0.024975806
000220 32 7c 12 be ed b9 99 3d c2 7f 33 3e 5d 37 de bc
       -0.14305189 0.07506166 0.17529204 -0.027126009
000230 39 05 9a bc 8f 8e dd 3d 72 89 fc 3c c3 8e 3e bd
       -0.018801318 0.108182065 0.030827258 -0.046522867
000240 86 61 3c bc 14 78 48 be 74 5b 59 3d f2 e6 1b 3d
       -0.011497861 -0.19577056 0.053065732 0.038062043
000250 a7 09 d8 3c ed 9d 12 3e d0 e3 f3 3c fa c1 bf bd
       0.02637179 0.14318056 0.029771715 -0.0936317
000260 49 fd 8b 3c aa 1c 6d 3c 8b a8 06 3e d1 ef 09 3e
       0.01708855 0.014472166 0.13150232 0.13470389
000270 ed f1 d6 3d 8e 9c 5c 3e 67 4e fd bc e1 8a ce bd
       0.104953624 0.21544096 -0.030921174 -0.10085083
000280 9f 3d c0 3d 1c 39 36 be 58 ca 4b 3c c9 c2 c6 3d
       0.09386753 -0.17795223 0.012438379 0.09705121
000290 97 b1 7b 3e d2 d7 37 3e 51 87 8f 3d c9 b6 39 3d
       0.24579464 0.17953423 0.070082314 0.045340333
0002a0 ef b4 ae 3d cb 83 35 3e c0 e5 6b 3d 4d 89 29 bd
       0.08530604 0.17726056 0.057592154 -0.041390706
0002b0 f9 8b 26 be bd 54 3b bd 6d 5f d9 bd 3b 33 3b 3e
       -0.16264333 -0.04573511 -0.10613904 0.18281262
0002c0 97 f2 6b bd 04 7b 16 3e 39 22 8e be 04 75 12 3e
       -0.0576044 0.14695364 -0.27760485 0.1430245
0002d0 6f 81 fe 3d df 35 a8 3d da 9e 20 3e 97 cb 54 3e
       0.12427031 0.082134 0.15685597 0.20780788
0002e0 ff 04 0d 3e fc 16 16 3e 6a ec 9c 3e f1 be 6a 3d
       0.13771437 0.14657205 0.3064912 0.057311002
0002f0 80 29 8b 3c 6a 09 a1 3d 5c 89 64 3e 4d c6 90 3e
       0.016987562 0.07863124 0.22318023 0.2827629
000300 a2 25 a8 bd 24 da 17 be 30 39 61 3d 80 0c 30 3e
       -0.08210303 -0.14829308 0.05498618 0.17192268
000310 ad db 4d be e4 6b 76 3d 47 23 6e be 25 86 97 3c
       -0.20103331 0.060161486 -0.23255645 0.018496582
000320 3f 25 73 3d dc 78 a0 bd 31 1a 70 be 18 2f 80 bd
       0.059361693 -0.07835552 -0.23447491 -0.062589824
000330 26 29 26 3e 39 f7 1b 3e ed 4c 35 bc f3 cc 07 3d
       0.16226634 0.15231027 -0.011065704 0.03315444
000340 5d 50 85 bd da 42 81 3d 83 3b 7b 3e 0b 2c a1 3d
       -0.06509469 0.06311579 0.2453442 0.07869729
000350 ed 0c 38 be 83 da 45 3c d4 ff 3e bd 6a 12 a4 3e
       -0.17973681 0.012076023 -0.046630695 0.320453
000360 26 36 81 be 50 4e 5f 3e 8d d5 96 bb 5f aa a1 3d
       -0.25236624 0.21807218 -0.004603094 0.07893824
000370 a8 4f 73 3e 39 fd 22 3e e7 c8 55 bb 63 a0 42 bc
       0.23760855 0.1591691 -0.0032620968 -0.0118790595
000380 b9 75 a5 bd 96 be b5 3d 62 73 c4 3c a4 24 b0 3c
       -0.080790944 0.08874242 0.0239808 0.021501847
000390 c1 09 1c bd 85 3d a7 3b 10 19 fb 3d 6e 03 5c 3d
       -0.03809524 0.0051037692 0.1226064 0.05371421
0003a0 92 a9 b4 bc 3c d0 3d be 9c a0 2b bc ed d3 0a 3e
       -0.022053514 -0.18536466 -0.010475304 0.13557406
0003b0 ec 8e 16 3e 24 0d 10 3e 1a 79 f7 3d 27 66 77 3e
       0.14702958 0.14067513 0.12083645 0.24160062
0003c0 2c e1 bc 3d 41 3e 17 be 34 08 8c 3e 49 6f 15 bc
       0.092226356 -0.14769842 0.27350008 -0.009120771
0003d0 5f 43 ad 3e 74 63 eb 3d f6 47 51 3e 60 28 6a 3e
       0.33840463 0.114935786 0.20437607 0.22866964
0003e0 ce b1 5b 3e 43 d4 7e 3e 1d df bb bd 8e e0 22 3e
       0.21454546 0.24885659 -0.09173415 0.15905973
0003f0 36 96 be 3d be 57 fc bd eb 86 e8 3d 9c ae 3b 3e
       0.09305994 -0.12321423 0.113538586 0.18328327

actor.2.bias f4 [64]
000000 b2 ee b2 bd 4b bc 6e bc 5c bf 48 bc 86 4d 1d 3e
       -0.08736934 -0.01457126 -0.012252655 0.15361604
000010 2e 59 0b be 79 02 b0 bd 93 3d e7 3d b2 72 28 3d
       -0.13608238 -0.085942216 0.11291041 0.041125007
000020 83 12 1a be 2d 4d 10 bd 94 c9 6e 3d c9 8a 93 bc
       -0.15046124 -0.03522985 0.05829771 -0.018010514
000030 2c 82 ec 3c df 0e ef 3d 9d 8a 09 3e 3a 59 81 bc
       0.028870665 0.11672758 0.13431783 -0.015789617
000040 7d 4f 7a bd ed 63 5b 3d e1 89 46 3d de ce 08 3e
       -0.061110962 0.053562094 0.048471335 0.13360164
000050 31 6b ad 3d a7 fc 65 bc dc a2 15 3e 38 b8 02 3e
       0.08467711 -0.014037288 0.14612907 0.12765586
000060 e4 93 ba bd 9d 51 9a 3d 81 ee 38 3d 80 c7 7a 3d
       -0.09110239 0.07535098 0.04514933 0.061225414
000070 44 31 aa bd 3c d9 b6 3d e3 f4 e7 3d 8d e5 e8 bd
       -0.08310178 0.08928153 0.11326005 -0.11371908
000080 2a 56 b1 3d f8 0a 38 3d 45 92 8e 3d 60 c6 03 3e
       0.086590126 0.044932336 0.069614924 0.12868643
000090 45 a1 12 3e 74 09 c2 3d 45 8d e1 3d b0 b3 42 3e
       0.14319332 0.09474459 0.11013273 0.19013858
0000a0 d1 7c d2 3d 3e af 10 3e 55 fd 2d 3e fe 2e 2e 3d
       0.10277713 0.1412935 0.1699117 0.042525284
0000b0 ed b4 a6 3c 84 69 17 3c 2e 5f c4 3d 4c 9a b0 3a
       0.020349944 0.0092414655 0.095884666 0.0013473718
0000c0 19 3b d1 3d fb 17 1f 3e 22 90 50 3d fe 16 d7 3c
       0.1021635 0.15536492 0.050918706 0.02625608
0000d0 4f f3 23 bd 2a 33 8b 3d fa 39 30 3e 9b 5b 02 3e
       -0.04002696 0.06796868 0.17209616 0.12730257
0000e0 5c 71 7d bd e0 ed ca 3c 2c 85 95 bc 90 98 35 3a
       -0.061875686 0.02477163 -0.018251978 0.00069273356
0000f0 07 68 4d bd 84 82 59 3d 06 04 43 bd 2c 96 3b 3e
       -0.050148036 0.053102985 -0.04761126 0.18319005

actor.4.weight f4 [36, 64]
000000 1d 98 32 bd ae 0d d6 3e ce e8 d9 be 68 ed 34 3c
       -0.043602098 0.41807312 -0.42560428 0.01104293
000010 db 41 21 3d 7a 78 28 bf 85 15 44 be 33 ba 53 3d
       0.039369445 -0.6580883 -0.19148834 0.051691245
000020 58 2d d9 3d 33 d4 e3 3c 7b d4 be be 25 94 39 3e
       0.10604352 0.027811145 -0.37271485 0.18122919
000030 f8 53 8b 3e d2 3b c9 be c1 09 d3 be 34 cb 4e 3e
       0.272125 -0.39303452 -0.4121838 0.20194703
000040 d7 8a c3 3e 87 7a 02 bd 51 38 ba bd 47 65 b2 3d
       0.38191864 -0.031855132 -0.09092773 0.08710723
000050 05 57 d8 bb 6d db 92 bd c4 a1 94 bd 47 47 bb 3e
       -0.0066021704 -0.071707584 -0.07257417 0.36577818
000060 c2 02 d3 3d 1b db a7 3c c1 b8 92 3e 64 96 5a bd
       0.103032604 0.02049022 0.2865658 -0.05336608
000070 8b 19 e8 3d b0 8e 6a be 2b f7 07 3e 56 0a c4 bd
       0.11332997 -0.22905993 0.13277881 -0.09572284
000080 01 e1 ac 3e fe d9 db 3e a5 2b 3e bf 56 34 c2 be
       0.33765414 0.42939752 -0.74285346 -0.37930554
000090 cc ae ac be 96 df a4 3e fc 47 b9 3e ed 48 54 3e
       -0.3372711 0.32201833 0.36187732 0.20730944
0000a0 4a 14 25 bf 87 9b 34 bd d8 b1 ba 3e d4 60 05 be
       -0.64484084 -0.044093635 0.3646381 -0.13025218
0000b0 39 a8 e7 3e ee 7e a6 bd bb cf fb bd e8 c4 76 be
       0.4524553 -0.08129679 -0.12295481 -0.24098551
0000c0 5d 32 0c bf 13 eb d4 3d cb d3 ec 3e 8c eb 3e 3d
       -0.5476435 0.10396399 0.46255335 0.046611354
0000d0 58 86 15 3d da 1a 2e be da ce 0d be 0a 51 05 bf
       0.036505073 -0.1700243 -0.13848439 -0.5207678
0000e0 c6 3b 02 bf e2 85 23 bd 57 64 52 3e d1 16 c7 bc
       -0.5087246 -0.039922602 0.20546089 -0.024302872
0000f0 ea 17 c9 3e d7 b2 7a 3e 68 99 a3 bc 0e b7 30 bf
       0.39276057 0.24482284 -0.01997061 -0.6902932
000100 a6 9b b5 bb 28 72 28 be d5 45 84 3e 0f 79 34 bf
       -0.0055422364 -0.16449797 0.25834528 -0.7049722
000110 d3 5d 03 3d a2 5e cf be 65 f3 73 3e ad f7 06 be
       0.0320719 -0.40501887 0.23823316 -0.13180418
000120 73 f4 83 3d da d7 63 3e d8 ee be 3e d4 41 7f be
       0.06443109 0.2225031 0.37291598 -0.24927455
000130 d9 d9 8a be b6 10 19 bf e2 af 81 3e b7 1f a9 3e
       -0.2711933 -0.59791124 0.253295 0.3303201
000140 4e 85 2e bb f7 df 90 be 95 20 d6 3e a1 02 23 be
       -0.0026629749 -0.28295872 0.41821733 -0.15918972
000150 20 33 e9 3d 5d ce 55 3e 31 ab df be ba ae a7 3e
       0.113867044 0.20879503 -0.43685296 0.32750493
000160 94 39 ab 3d d7 f1 94 3e 7b b2 9b be 80 2f d9 be
       0.083605915 0.2909076 -0.30409607 -0.42419052
000170 a8 c8 28 3d 03 d0 86 3e 1e 3c 26 bf 84 1f 2a bd
       0.041206986 0.26330575 -0.6493548 -0.041533962
000180 e0 d1 25 bf 77 ef 9b be 26 cc 2d be 9d 48 33 be
       -0.6477337 -0.30456135 -0.16972408 -0.17508169
000190 56 d8 a4 3b e4 02 d5 3d e8 ed 73 be d4 ac a4 be
       0.005030672 0.10400942 -0.23821223 -0.32163107
0001a0 6d 6a 64 3e f4 64 53 bf 2d 8e 08 bc 5b f8 5c be
       0.22306223 -0.8257592 -0.008334679 -0.21579115
0001b0 04 32 16 bd 2c ee 37 3d 15 0b 80 be 1a 6b a5 3e
       -0.036668792 0.044904873 -0.25008455 0.32308275
0001c0 bb 20 b7 3e 5f 22 03 be b4 33 97 be 98 12 02 3c
       0.3576716 -0.1280608 -0.29531634 0.007939003
0001d0 38 db c7 bd 99 a3 be 3e f3 c4 8c 3e 52 dd dc bd
       -0.097586095 0.3723419 0.2749401 -0.10784401
0001e0 1b a1 e4 3e 0f dd 6e be c3 a8 d7 be b5 1f 23 bc
       0.44654164 -0.23326515 -0.42120942 -0.00995629
0001f0 b3 89 c9 be a8 59 6c be a0 a9 0d bf a1 1c 31 3e
       -0.3936287 -0.23081076 -0.5533695 0.17296077
000200 5a 5f d5 bc 08 12 ad be c7 a5 39 3e ba 6c 33 3e
       -0.026046444 -0.3380282 0.18129645 0.17521945
000210 51 e5 95 3d 52 fa b0 be 58 f1 87 3e 82 d1 d9 3e
       0.07319129 -0.3456598 0.26551318 0.42542654
000220 6b 43 fe 3d 5f 0b 16 bf 06 53 90 3e 6f 36 6f 3e
       0.12415203 -0.586111 0.28188342 0.23360609
000230 65 49 76 3d fb 84 5b be 4b d2 e9 3d 4e 94 1e 3c
       0.06012859 -0.21437447 0.11417063 0.009678913
000240 6c f9 42 be 7c 22 68 3e d3 25 5c be 08 c8 66 3e
       -0.1904046 0.22669405 -0.21498804 0.22537243
000250 f0 e4 e6 3c ac 37 95 3d 0e 7f db be 37 73 40 bc
       0.028185338 0.07286009 -0.42870373 -0.011746219
000260 08 65 8f bd 3a cf 32 ba 08 8b 32 3e e5 d0 b2 be
       -0.07001692 -0.00068210403 0.17435849 -0.34925
000270 03 6f a8 bd 66 9f 87 3e 7d 78 02 bd c8 1c 70 bd
       -0.08224299 0.264888 -0.031853188 -0.058621198
000280 c2 ea 53 bd 59 fe e8 3d 38 7b 03 bf 84 22 46 3d
       -0.051737554 0.11376638 -0.5135989 0.04837276
000290 5a 48 fa be f4 ac f4 3c 42 b1 b8 3d 80 0d dd 3d
       -0.48883325 0.029867627 0.09018184 0.107935905
0002a0 ea 07 d5 bd 6c 66 a8 be 8b 64 38 3e 22 bf 81 3e
       -0.104019 -0.32890642 0.18007104 0.25341135
0002b0 b6 ca 1c 3e 2d 7c 61 3d 1f af dc be 20 6e 32 3e
       0.15311703 0.055050064 -0.43102357 0.17424822
0002c0 bf 48 90 3e 32 ba 33 3e 7d 04 0a be 00 2a 0b bd
       0.281805 0.17551497 -0.13478275 -0.0339756
0002d0 09 dd d2 3e 9f 46 3f 3e b8 07 a1 3e 76 67 26 bf
       0.4118426 0.18679284 0.314512 -0.6500162
0002e0 06 b3 39 3d 57 7b ae 3e 83 f0 41 3e cf bd 52 be
       0.045336746 0.34078476 0.18939404 -0.20580219
0002f0 2f 55 6d 3e 82 67 a3 3e 2f cf 15 3e 10 b2 99 bd
       0.23177026 0.31914908 0.14629816 -0.07504666
000300 2b 09 b5 3d b5 12 ca be d2 44 45 3e 8d 1a c4 be
       0.08839639 -0.39467397 0.19264534 -0.38301507
000310 89 3c a0 bd 8a e8 de be 9d e0 d2 3d 6f b8 8a 3e
       -0.07824046 -0.43536788 0.10296748 0.27093837
000320 e0 78 54 3d 81 f4 60 be e7 3c 82 3e f0 2c 23 3e
       0.051873088 -0.21968271 0.2543709 0.15935111
000330 ae e4 77 be cc 34 99 be 1c 72 30 3e 32 cd af bd
       -0.24208328 -0.29923093 0.1723103 -0.0858406
000340 c8 0b 3e bd ff 8d 9c 3e f4 8b 95 bd 01 7a 94 bd
       -0.046397954 0.30577084 -0.073020846 -0.07249833
000350 d2 7b 1a bd 18 23 f4 3e 56 5c 54 be 05 60 b7 bd
       -0.03771574 0.47683024 -0.20738348 -0.08953861
000360 58 fa 7c 3d 2e ce af 3c e8 2d af 3d d7 95 82 be
       0.061762184 0.021460619 0.08553678 -0.25504944
000370 a2 1b fe 3d 8f a6 f3 bd 03 1b 3b 3e cf 0b 84 3d
       0.12407614 -0.11897003 0.18272023 0.06447565
000380 16 1c 48 3e 33 2a 0f 3d 92 54 b8 be 31 8d c8 be
       0.19541964 0.034952354 -0.36002022 -0.3917022
000390 21 6e c7 bd d0 e5 58 3e f0 64 3c 3c b8 23 3a 3e
       -0.09737802 0.21181417 0.011498675 0.18177688
0003a0 f0 dd 3b be b1 06 d0 be 28 ed ba bd d3 88 05 3e
       -0.18346381 -0.40630105 -0.09127265 0.13040476
0003b0 07 a9 96 be 5f f5 7d 3d 0a 0f 88 3c aa 4a 26 bb
       -0.29425833 0.062001582 0.016608734 -0.0025374093
0003c0 f0 b6 65 be 02 1d 59 3e 1e 07 95 be b5 0e 9a 3c
       -0.22433066 0.21202472 -0.29106992 0.018805841
0003d0 1d 5e d5 3d 63 8a e3 3d 2f a4 29 be d6 e6 ef be
       0.10418341 0.111103795 -0.16566537 -0.468558
0003e0 fd 28 e2 3c 3f 09 ac 3e b6 0d 09 bf 25 1c 53 bd
       0.027607435 0.33600804 -0.53536546 -0.051540513
0003f0 59 15 88 bd 15 da bd bd f6 9f 11 3f f4 01 40 be
       -0.06644697 -0.092701115 0.56884706 -0.18750745

actor.4.bias f4 [36]
000000 f3 87 b5 bd ed 42 b5 bd 4b 57 81 bc 3b 26 a4 bd
       -0.08863821 -0.08850656 -0.015788695 -0.080151044
000010 8f 3d 91 3c f2 3a 28 3d ef 5b 8a 3d f5 9d 50 bd
       0.017729549 0.04107184 0.06755816 -0.05093189
000020 58 1c a6 bc a5 78 07 be 5d 9f 8b bd 18 55 0a 3e
       -0.020277187 -0.13229616 -0.068175055 0.13509023
000030 57 53 a1 bd 93 f0 eb bd e6 3a ff 3d 8f ee f6 3c
       -0.07877224 -0.11520495 0.12462406 0.03014305
000040 d3 5d 4c be 80 3a 91 be d7 74 93 be 35 74 0d be
       -0.19957666 -0.28364944 -0.2880008 -0.1381386
000050 41 af 91 be 2a a8 fa bc 5b a1 21 bc 82 21 49 3e
       -0.2845402 -0.030597765 -0.00986513 0.19641688
000060 1a 0f f0 bc 90 be 5c 3d 0c 05 13 3e 12 8a 64 3d
       -0.029304076 0.053892672 0.14357394 0.055795737
000070 99 e9 51 bd a4 5c 1c 3e d7 4e 09 3e 4f 0b b9 3d
       -0.051248167 0.15269715 0.13408981 0.0903536
000080 34 29 c5 bd 74 ad fd 3c a5 6e 9a 3c 5c a2 f2 3b
       -0.096269995 0.030966498 0.018851588 0.0074046087

critic.0.weight f4 [64, 62]
000000 f4 e3 c3 bd af 7e a1 bd f6 8f 0b 3d f2 f2 37 3c
       -0.09564963 -0.07885491 0.03407284 0.011227356
000010 e4 25 18 3c f9 54 86 3e 59 5c 92 3d 7f 75 31 3d
       0.009286378 0.26236704 0.0714652 0.043324944
000020 32 0d f1 bd 67 6a f7 3d 23 7f 17 3e 71 bd d0 3d
       -0.11770095 0.120808415 0.14794593 0.10192383
000030 53 33 a0 3d 74 af bc ba 8f dd 2c 3e 66 59 5b 3d
       0.07822289 -0.0014395551 0.16881393 0.053552054
000040 b3 63 da 3d 2e 8b 63 bd 06 24 a6 3d 3d 32 d4 3c
       0.10663547 -0.055552654 0.0811234 0.025902862
000050 b0 06 29 bd fe b6 84 3d bc cc 95 3d 39 b6 0f 3c
       -0.041266143 0.064802155 0.073144406 0.008771473
000060 86 e4 c4 bd 4e 83 62 bd 83 5a f0 bd 1b 82 c4 3d
       -0.096139 -0.055301003 -0.11736014 0.09595128
000070 da 5f d4 3d 9c 90 b6 3d ab 2b 31 bd 84 9f 1e 3e
       0.10369845 0.08914301 -0.043254536 0.15490538
000080 0b fe f7 3d 35 8f 5d 3c 29 26 3b 3d 83 f2 b9 3d
       0.12109002 0.013522913 0.04569069 0.090794586
000090 2b 76 5a be 83 8a 43 be dd de 73 bd ee 57 11 be
       -0.2133414 -0.19095807 -0.05953871 -0.14193699
0000a0 0a 4c 4f be 2c 2f 28 be 62 8a 9f 3d f9 a1 90 bd
       -0.2024385 -0.16424245 0.07790066 -0.07062144
0000b0 14 41 d2 bc 46 ac 1f be 2d b5 06 be c8 00 b3 bd
       -0.025665797 -0.15593061 -0.1315505 -0.087403834
0000c0 35 2b 96 3d 45 07 7e 3d 00 c5 26 3e b3 30 a7 bc
       0.0733246 0.06201865 0.16286087 -0.020408964
0000d0 1e cd 94 bc 47 b6 c6 bd 1c ff 22 3d 17 75 dc 3d
       -0.018164214 -0.097027354 0.039794073 0.107645206
0000e0 88 8d d9 3d 90 ff 0b 3d c0 9d 30 3d 5f 0b 21 bc
       0.10622698 0.03417927 0.043119192 -0.009829371
0000f0 4e 7a ff 3c 7e 65 8a bd 0d c0 c3 bd d2 d4 9f 3d
       0.03118625 -0.06757639 -0.09558115 0.07804264
000100 68 b1 64 3c 62 75 83 bd c4 77 01 be 7f 00 a4 3e
       0.013958313 -0.06418873 -0.12643343 0.32031628
000110 29 1f 6e 3e 09 05 1c 3e 71 3a 92 be c0 48 3e 3d
       0.23254074 0.15236296 -0.28560212 0.0464561
000120 2e 2d a1 3d d1 2e 87 3e bd 2c 99 3d 02 11 dd 3d
       0.078699455 0.26402906 0.07479236 0.107942596
000130 d4 e5 f2 3d c4 0e 0d 3e 28 70 5a 3d 47 be 21 3d
       0.118602425 0.13775164 0.053329617 0.039488103
000140 05 64 91 bd 99 4e 7f bd 04 db 65 3d 6a b8 52 3d
       -0.07099155 -0.062330816 0.056117073 0.051445402
000150 45 11 78 3d ae 7d e6 bd 7e c0 0d 3d 82 55 29 3d
       0.060563345 -0.1125444 0.034607403 0.041341312
000160 59 a6 d3 bc 27 1b 29 3d 5c 8b de 3d fc 49 51 3e
       -0.025836157 0.04128566 0.108664244 0.20438379
000170 5e 7d 9e 3d 95 9f 8a 3e cb 79 7c bc 17 65 da bd
       0.07738756 0.27074876 -0.015409897 -0.106638126
000180 61 d3 d8 bd 53 cf d8 3d 59 09 9e be e6 02 fc bd
       -0.10587192 0.10586419 -0.30866507 -0.1230524
000190 90 7e 37 3e 4a da d2 bd ef b7 44 be 83 c4 1d be
       0.17919374 -0.102955416 -0.1921079 -0.15406995
0001a0 21 44 57 3d 0c e9 16 be 1a ef 06 be a8 60 4d 3d
       0.052555207 -0.14737338 -0.13177148 0.050141007
0001b0 03 9a e4 bc bf f7 64 3d 37 3d f8 bd 42 d1 a4 bd
       -0.02790547 0.05590033 -0.12121051 -0.08047725
0001c0 bc 93 69 3c 8f b4 71 3d d7 ef 7c bd 15 6b d0 bd
       0.014256414 0.059010085 -0.061752167 -0.10176674
0001d0 7e 5a 42 3c e2 ae 2d 3e a2 68 80 3e 92 e0 40 3d
       0.011862395 0.16961244 0.25079829 0.047089167
0001e0 3b 93 93 bd a7 22 87 3d e3 4c 18 bd a3 58 46 3d
       -0.07205816 0.06598406 -0.0371827 0.048424374
0001f0 1e 32 d2 3d 52 84 e0 bc 81 91 54 3d 4a 3f 54 3c
       0.10263465 -0.027406845 0.051896576 0.012954542
000200 d7 89 54 3e 3e f9 5d be 85 7d ba bc db a6 14 be
       0.20755707 -0.2167711 -0.02276493 -0.14516775
000210 86 34 77 bd 8a f6 8b 3d 7c bd a8 bc e3 e3 6a bc
       -0.060352825 0.06834133 -0.020598166 -0.014336559
000220 7e f7 79 3d 66 55 ad bc 64 90 94 bc fc 81 f7 bd
       0.061027043 -0.021158885 -0.018135257 -0.120853394
000230 eb d8 45 3b 7b 4f f2 3d a8 54 d4 bd 94 82 6d 3a
       0.0030189108 0.11831566 -0.103677094 0.000906029
000240 65 8c b8 bc e3 e2 7f 3d 74 95 fb bd ca b3 01 3e
       -0.022527883 0.062472235 -0.12284365 0.1266624
000250 57 74 91 3c 2b ff be 3d 39 4c e9 bb ca bd 97 bd
       0.01775567 0.09326013 -0.007119682 -0.07409246
000260 58 8e 4a 3d 50 7d 53 3d bb b9 95 3d 6f 5e 1d be
       0.049452156 0.05163318 0.07310816 -0.15368055
000270 9e 6b a3 3c 63 ca 76 bd b1 bf 43 bd 44 10 16 bd
       0.019948777 -0.060251605 -0.047790233 -0.036636606
000280 1f 46 bf bc 74 42 8f 3d 20 30 2d 3c f1 e6 cd bd
       -0.023348866 0.06995097 0.010570556 -0.10053814
000290 26 be fd 3c d9 f7 2c 3b 66 1b 43 bc dc 54 8d 3c
       0.030974459 0.0026392846 -0.011908388 0.017252378
0002a0 6c ef 82 3d 32 13 5f 3d e9 8f b5 3d 67 5b 89 3b
       0.06393322 0.054461665 0.08865339 0.004191804
0002b0 57 e4 a5 3d e3 cd 81 bd 64 77 52 3d 2d 16 06 3e
       0.08100193 -0.06338098 0.05138339 0.13094397
0002c0 7e fd 00 bc 6b fb 86 bd 54 ea 2b 38 33 dc a6 be
       -0.007872937 -0.06590923 4.0987812e-05 -0.32589874
0002d0 b2 2f 9e bd 05 b0 97 3d 84 9f 43 bd 41 f0 c1 bd
       -0.07723941 0.0740662 -0.047759548 -0.09469653
0002e0 0c dc 32 3d 83 67 2c 3e 3e ad c9 3d 8a e9 24 3d
       0.043666884 0.16836362 0.098474964 0.040261783
0002f0 c0 14 42 bd b8 04 69 3d 5b 3c cc bd 4c 88 ac 3c
       -0.04738307 0.056889266 -0.099724494 0.021061085
000300 fe 44 94 3e f9 66 b1 3c 7a 41 52 be 6c 23 0d be
       0.28958887 0.021655547 -0.2053279 -0.13783044
000310 bf 26 bd 3c de 0d 2a be 24 4a d6 3d c5 b9 46 bd
       0.023089765 -0.16606852 0.1046336 -0.048517007
000320 39 52 18 bc b8 68 c4 bd f3 9f b3 3d 55 b4 2d 39
       -0.009296947 -0.09590286 0.08770742 0.00016565745
000330 09 4f 15 bd 60 0d 6f 3d b1 80 33 bd c7 4d 29 3c
       -0.036452327 0.058362365 -0.0438239 0.010333485
000340 ad 50 8f 3d 28 a0 84 3d 5e 8b 82 bd 74 0c 51 bd
       0.069978096 0.0647586 -0.063742384 -0.051037267
000350 6b ec dc 3d b8 c3 16 bc 73 c7 05 bd e2 f1 23 bd
       0.10787281 -0.009201936 -0.032660913 -0.0400256
000360 6c 90 f1 bd 9b 4e db 3d 96 fa 39 3d 9b 74 e9 bc
       -0.117951244 0.10708352 0.045404993 -0.028497985
000370 3c 61 61 3c be 03 01 be 94 f0 11 3e 4a 9d 2e be
       0.013756093 -0.12599084 0.1425193 -0.17052189
000380 5d be 4c bd 8c 74 9a 3d d4 ab 6e bc 1d 6e ab 3d
       -0.049986232 0.07541761 -0.014567334 0.08370612
000390 df f0 d1 bd fc 41 00 3e 26 49 96 3e 55 f6 7f 3e
       -0.10251021 0.12525171 0.29352683 0.24996312
0003a0 0c ea 42 be 08 31 e8 3c c2 8b d4 3d d8 e9 78 3e
       -0.19034594 0.028343692 0.10378219 0.24307954
0003b0 15 95 de bd 72 6a 88 3d 04 c2 b1 bc 69 68 e2 bd
       -0.10868279 0.06660928 -0.02169896 -0.11055071
0003c0 91 62 ba bd fb c7 92 3d 8b e6 51 be 7d 9b d2 bd
       -0.09100831 0.071670495 -0.20498101 -0.10283563
0003d0 8a 98 95 bd de bf 39 bd 6e 60 73 3c 8b 83 14 3d
       -0.07304485 -0.045348994 0.014854534 0.03625826
0003e0 09 2f 88 3d 80 38 b1 bd 76 3d a0 3d 2b 43 e2 bc
       0.06649596 -0.08653355 0.07824223 -0.027619919
0003f0 23 89 08 be b6 94 89 bd 48 44 cf bc de 3b 19 be
       -0.13333564 -0.067178175 -0.025301114 -0.14964244

critic.0.bias f4 [64]
000000 c9 4c a4 3d 64 d1 de 3c f1 80 1e 3c 54 c5 57 bd
       0.08022458 0.027199455 0.009674297 -0.05267842
000010 d7 48 52 be cb 9c 23 3d 3e d6 f0 bd 60 7d 6e 3e
       -0.20535599 0.03994445 -0.117596135 0.23290014
000020 73 77 a0 bb 2b ed 2f bd 8e 65 f8 ba 37 c8 8e 3c
       -0.004897052 -0.04295079 -0.0018951164 0.017429454
000030 e6 54 be 3d 54 6f 5b 3d 45 a1 02 be 5c c0 ad 3b
       0.09293537 0.053572968 -0.12756832 0.005302472
000040 f2 32 14 3d 58 56 e1 3b ac 4f e6 bd 60 cc 5d 3d
       0.036181398 0.006876748 -0.11245665 0.054149985
000050 92 38 be bc 93 46 b1 3c 37 3d 2e be a0 55 15 be
       -0.023220334 0.021640098 -0.17015539 -0.14583445
000060 04 6e b7 bd d9 17 b6 bd 61 3b f4 bc a2 0c 2d be
       -0.08956531 -0.08891267 -0.02981347 -0.1689935
000070 7a bb c0 3c 80 b8 9e bd 47 22 51 3c 15 8f 88 bc
       0.023526896 -0.07750034 0.01276452 -0.01666979
000080 81 1d 9a 3c 69 c6 20 bc 45 a2 40 bd 72 f1 26 3d
       0.018812897 -0.00981293 -0.047029752 0.040757604
000090 f4 6f 1f 3e ea 29 e7 3c 42 a3 2b be 4a 7e 5f be
       0.1557005 0.028218228 -0.16761497 -0.21825519
0000a0 90 97 91 bd 84 9a a5 bd d4 29 fb 3b 0d 5e 72 bd
       -0.071089864 -0.08086112 0.0076648984 -0.059171725
0000b0 0e fd 3a bd 8a b3 07 3c 57 87 22 3d f7 58 ac 3d
       -0.045651488 0.008282552 0.03967985 0.08415406
0000c0 84 60 e1 bd 29 7e 2c be 6e 2c b1 3c ca d5 10 be
       -0.11004737 -0.16845001 0.021627631 -0.14144054
0000d0 a6 34 04 bd 00 6b 19 3d cd 2e bc bd ae 3b e3 bd
       -0.032276772 0.03745556 -0.09188614 -0.11095367
0000e0 42 17 1e bd 2e e0 ea 3c ce 86 90 bd fd cf 60 3d
       -0.0385964 0.02867135 -0.07056962 0.054885853
0000f0 2c c6 10 3e f3 a0 8b bd 3c fe be 3c 24 5f 2d 3d
       0.14138097 -0.06817808 0.023314588 0.04232706

critic.2.weight f4 [64, 64]
000000 50 6d a5 3c e9 29 51 3d 36 60 87 be f8 cf 97 be
       0.020193726 0.05106536 -0.2644059 -0.29650855
000010 a6 0c d1 bc 03 d8 0e be c4 cd a7 3d a0 51 a6 3d
       -0.025518727 -0.1394959 0.081935436 0.081210375
000020 9b 6a fc bd 9f 1e b3 bd ac 9a 23 be f8 b8 2f 3d
       -0.12325021 -0.08746075 -0.15976971 0.04290101
000030 36 57 b9 bd 52 4d ac 3d 85 15 d8 3d b7 68 bc bd
       -0.09049837 0.08413185 0.105509795 -0.0919966
000040 98 a6 ef bd ef f6 57 be 06 2e 73 3e 5d d3 01 be
       -0.11701697 -0.21090291 0.23748025 -0.12678285
000050 88 54 91 bd fe 85 ec 3d 96 9a 0f 3e e5 c7 2b 3d
       -0.07096201 0.115489945 0.14023814 0.04193868
000060 2c be 85 3b 24 e7 91 bd 4f 55 2d 3e fb 8f c7 3d
       0.004081508 -0.07124165 0.16927074 0.09744259
000070 e0 a3 df 3d 60 0e 3f 3d bd 24 31 3e ec ea 8d bd
       0.109199286 0.04664457 0.17299171 -0.069295734
000080 55 6d 92 3d 7c 11 01 3e 2f 5d 93 bd 9c 88 27 3d
       0.0714976 0.12604326 -0.07195508 0.040901765
000090 ea 1e 9c be 51 62 45 bd a3 45 64 3d 44 f9 84 3d
       -0.30492336 -0.048189465 0.055730473 0.06492856
0000a0 fc aa 53 3e 4e 7a b9 bd 35 9e 2d 3e 00 17 05 3e
       0.20670694 -0.09056531 0.16954882 0.12997055
0000b0 67 4c ee 3d c5 5f 1a bc 87 9a 88 bd 02 fd bc bd
       0.11635666 -0.009422247 -0.06670099 -0.09227945
0000c0 de 22 65 3d 6a 1c 2b be 65 b8 1f be fe 1f b5 bd
       0.055941455 -0.16710058 -0.15597685 -0.08843993
0000d0 5f 2f 2e 3d 17 52 bf 3d e0 2c 74 3e d7 6c 9d b9
       0.042525645 0.09341829 0.23845243 -0.00030026466
0000e0 fb d7 7a 3e 39 78 23 be d5 5b cc bd 73 d0 d0 bd
       0.24496453 -0.1596383 -0.09978453 -0.101960085
0000f0 da 22 42 bd 78 2f a3 3b e4 5c 4a 3e d7 37 8c 3d
       -0.04739652 0.004980024 0.19761997 0.06846588
000100 bb 73 c7 bd 0f 51 24 3e c2 88 36 3e 0e 67 3c 3d
       -0.09738871 0.16046546 0.17825606 0.045996718
000110 58 7b 17 3c 72 a3 b7 3d 1c 20 aa bb 8a 93 84 bd
       0.009245716 0.089667216 -0.005191816 -0.06473453
000120 e4 be 9d 3c 8e a4 da 3c 77 c8 24 3e ff 66 37 be
       0.019256063 0.026689794 0.16092096 -0.17910384
000130 ba dd 86 bd 51 24 1d bd 2f b2 48 3c 5d e6 39 3d
       -0.0658526 -0.038364712 0.0122495135 0.045385707
000140 55 77 88 bd 4a 32 e6 bc e0 40 a6 3d 94 ee 5d bd
       -0.06663386 -0.028100152 0.08117843 -0.054182604
000150 72 de b9 3d 2c 5f b1 3d 7d 52 ec bc 07 1c af bb
       0.09075631 0.08660731 -0.028847927 -0.0053439173
000160 6e e2 2b 3c 07 f6 7b bc 6c c9 b7 3d 54 0b cb bd
       0.010490997 -0.015378482 0.08973965 -0.0991427
000170 a9 4d 55 3d f3 40 03 be 06 99 67 3e 4c 0e 07 be
       0.052076016 -0.12817745 0.22616968 -0.13189048
000180 ba a7 22 3d ea e6 1b 3e 32 e4 11 3e 07 33 76 3d
       0.039710738 0.15224805 0.14247206 0.060107257
000190 c4 e4 32 be c2 d0 19 be 4a 3f d8 bd 36 1d 9a bd
       -0.1747008 -0.15021041 -0.105589464 -0.07525103
0001a0 36 fd b4 3d bf 6c 76 3c ed c5 c7 3d a3 0c 5f bd
       0.08837359 0.0150405755 0.09754548 -0.05445541
0001b0 b5 09 58 bd d3 bf bb 3d d2 fb b6 3d 82 14 95 bc
       -0.052743632 0.09167447 0.0893475 -0.018198255
0001c0 7d dd 4d 3d aa 46 7a bd f4 8a fc bc ec f6 dd bc
       0.050260056 -0.061102547 -0.030827977 -0.02709528
0001d0 87 15 77 bd d2 72 04 3e 05 06 b0 3d 55 15 c3 bd
       -0.060323264 0.12934425 0.08594898 -0.09525553
0001e0 78 43 36 3e 3e af 4b be 79 9f 82 3d 72 93 d6 3c
       0.17799175 -0.19891068 0.06378073 0.026193354
0001f0 90 75 b5 bc dd 85 c6 bc 73 1c af 3e 31 9d ed 3d
       -0.022150785 -0.024233753 0.34201393 0.116022475
000200 e2 e3 6e 3d 63 86 18 3e ef ca 2e 3d c7 7d 6e 3d
       0.058322795 0.14895014 0.042674 0.05822542
000210 88 a5 b3 3d 5e f9 55 3d b0 e4 87 3c 4d 80 b6 3d
       0.08771807 0.05223977 0.016588539 0.0891119
000220 a5 55 23 3d d0 a8 48 3d 7d af f3 3d 07 4e ac bd
       0.0398766 0.048989117 0.11898706 -0.0841332
000230 80 63 38 3d 7e a7 67 be f2 63 57 3d 9a 1c 6d 3e
       0.045016766 -0.22622487 0.05258555 0.23155442
000240 5b 5e 43 be 40 85 8d be 4c 25 06 bd 14 e2 28 be
       -0.19078963 -0.27640724 -0.032750413 -0.16492492
000250 80 31 d7 3d d0 34 68 3d ef d8 f7 3c 9c 41 64 bc
       0.10507488 0.05669099 0.03025481 -0.013931658
000260 a5 e6 10 3e 3b a7 25 be 1c 1a 09 3e 52 4c 96 bd
       0.14150484 -0.16177075 0.13388866 -0.07338776
000270 d6 08 fc bd 8f 5c bd bd ce fc 45 3e 43 ee 3c 3e
       -0.12306373 -0.0924617 0.19334719 0.18450265
000280 79 b1 f5 3d 49 a4 09 3e 83 87 2b 3e d3 f1 d8 3d
       0.11996741 0.13441576 0.16750912 0.10592999
000290 fd 7b 2a bc 67 cd 49 bd a6 bb c0 3c 08 10 bc bb
       -0.010405538 -0.049268153 0.023526978 -0.0057392158
0002a0 95 76 48 3d 9c e2 c6 3d 7c 72 80 3d 28 8e 39 3e
       0.048941214 0.09711191 0.06271836 0.18120635
0002b0 db 36 37 bd 0e be 8f 3c 5e 8e 98 3d d5 b2 1b 3e
       -0.04473005 0.01754668 0.074490294 0.15204938
0002c0 ef 29 aa bd 16 55 ae 3d fe b4 59 bd 41 cc a6 bd
       -0.083087794 0.085123226 -0.053151123 -0.08144427
0002d0 c7 ea 83 3d cb 70 cf 3d c4 64 39 3e f5 66 03 be
       0.064412646 0.101289354 0.18104845 -0.12832244
0002e0 00 48 75 3d 19 b6 a9 be 35 2d dd 3c be 59 64 be
       0.059883118 -0.33146742 0.026999095 -0.22299859
0002f0 fd 5c 24 3d e2 20 c5 3d 22 75 7c 3e 18 a4 76 3e
       0.040127743 0.096254125 0.24654058 0.24086034
000300 1d b1 08 bd 36 cd 2d bd a2 8b 69 be 6e 73 ba bd
       -0.033372033 -0.042432033 -0.22807172 -0.09104048
000310 92 4b 2f 3c 22 cc 25 bd 7f e1 90 bd 73 43 81 3e
       0.01069917 -0.04047788 -0.0707426 0.25246772
000320 12 0b 2f be d8 3e c8 3d 7e 2f 07 be eb 8b ca 3d
       -0.17094067 0.097776115 -0.1320171 0.098899685
000330 97 03 84 ba 04 e5 e7 bc 16 8b 28 3c 75 8a 27 bd
       -0.0010071871 -0.028307445 0.010287067 -0.040903527
000340 f0 9f 0b bd 6f 92 b6 3d ce 89 68 3e d4 36 42 bd
       -0.034088075 0.08914649 0.22708818 -0.04741557
000350 5c 46 45 be 5b c4 32 3c 4a e8 95 3b 3c ad 26 3d
       -0.19265121 0.010911073 0.00457481 0.040692553
000360 c3 23 7e 3c bb a3 0b 3e 2c be 26 3e b4 c6 d8 3d
       0.015511456 0.13636677 0.16283482 0.105847746
000370 c2 bc c0 3d f1 28 4d 3d fd 16 78 3d 6a b9 48 3d
       0.09411003 0.050087873 0.0605688 0.04900495
000380 e0 67 18 be b6 41 40 3e 5e f1 1f bd 3d 2e 55 3e
       -0.14883375 0.18775067 -0.039048545 0.2081842
000390 0a 7d f3 bd b5 0b 51 3d 67 bb ef 3d 45 38 f3 3c
       -0.11889084 0.051036555 0.11705666 0.029689917
0003a0 40 c8 5e 3e 9b a9 b9 3d af 1c 6e be ff ce b2 3d
       0.21756077 0.09065553 -0.2325313 0.087308876
0003b0 12 a7 99 3b 0b 37 ab 3b f9 b6 c4 3d ea b4 00 be
       0.004689106 0.0052250675 0.09605212 -0.12569013
0003c0 89 e1 3e 3d 43 ba a4 bc 3a 30 15 3c 5a 49 18 bd
       0.046601806 -0.020108348 0.009105736 -0.03717933
0003d0 02 67 c5 3c d9 f2 e6 bd 57 22 bf bd bb f7 30 3b
       0.02409697 -0.11276788 -0.09332722 0.0027003128
0003e0 87 9a c7 3c 93 26 3e bd 4c 94 11 bc 51 cf fc 3d
       0.024365677 -0.046423506 -0.008885454 0.1234423
0003f0 6f 21 22 3d 66 37 18 3e 85 ef c1 3d 3b d0 14 bd
       0.039582666 0.14864883 0.09469513 -0.036331397

critic.2.bias f4 [64]
000000 75 5b b2 3c 9a 65 00 3d ad 29 13 3d a9 20 0d bd
       0.021772126 0.031346895 0.035928417 -0.034454975
000010 03 13 d4 bc 54 92 d2 3a 2c 40 11 bd a0 34 da bc
       -0.025887972 0.0016065338 -0.03546159 -0.026636422
000020 70 a2 a3 bb 6a 58 e8 bd 01 9b b9 bd df fd fd bc
       -0.0049937293 -0.11344989 -0.09062768 -0.031004844
000030 e2 85 c2 3d 3c 77 90 bd 2b 5d 11 3e 08 f7 66 bd
       0.09498192 -0.07053992 0.14195697 -0.05638793
000040 85 15 c8 ba f6 a7 6b bc 81 c4 4b bd b8 72 32 3d
       -0.0015265202 -0.014383307 -0.049747948 0.043566436
000050 fd ab 1a bc 52 aa 96 bd 8f 5e 2c 3d 39 44 5d 3c
       -0.009440419 -0.07356705 0.042082366 0.013505035
000060 74 77 f4 bd 7e 61 1b 3d f4 39 a3 3c 93 81 09 3c
       -0.119368464 0.037934773 0.019925095 0.008392709
000070 75 e0 80 bd 69 f8 1c bc df d1 cf bd cc a4 a6 3c
       -0.06292812 -0.00958071 -0.101474516 0.020342253
000080 de fe d2 3d d3 0b c3 bd 30 fc 0e be 85 e2 00 3e
       0.10302518 -0.0952374 -0.1396339 0.1258641
000090 d6 d5 70 3d 7e cd 8e 3a 06 52 55 bd 45 69 df 3c
       0.05879768 0.0010894982 -0.052080177 0.027271876
0000a0 aa b4 09 bd 48 6f 86 3d d3 ac e9 bd 76 bc 91 bd
       -0.03361956 0.06564194 -0.11409917 -0.07116024
0000b0 af 2e c8 bd 3d ae df bc 04 af c2 3b f0 c1 e4 bd
       -0.09774529 -0.027304763 0.0059412736 -0.11169803
0000c0 f9 03 fb bc 48 82 20 be 53 de 01 3c 8e fd 64 3c
       -0.030641543 -0.15674698 0.007926541 0.013976468
0000d0 62 a4 bf bc 6a 39 21 bd cf 29 ec bc 72 fe ae 3c
       -0.023393814 -0.039361395 -0.02882853 0.021361563
0000e0 e9 34 51 bc 09 98 1e bc a8 cb 9a bd 2c 50 96 3d
       -0.012768962 -0.009679803 -0.075583756 0.0733951
0000f0 19 ed f0 bd 9b 4e f0 3a ab f2 a6 bd 79 21 6e 3c
       -0.11763973 0.0018333973 -0.08151754 0.014534348

critic.4.weight f4 [1, 64]
000000 aa 45 8a bd 1f e2 11 bd 9e 0c 25 be 2c 02 3a bd
       -0.067515686 -0.035616037 -0.16118094 -0.045412228
000010 7d cc fe bb d5 88 5f 3a 33 b7 13 3d 70 be cd 3c
       -0.0077758417 0.00085271645 0.036063384 0.025115222
000020 38 bb db bc 08 b1 a3 3c 9a f6 a1 3b df 60 14 bd
       -0.026822671 0.019981876 0.0049427273 -0.036225196
000030 4e b8 13 3e 0b b3 f9 bb 3e 41 26 be 3a c8 4b 3e
       0.14425775 -0.0076202205 -0.16235825 0.19900599
000040 9e e2 97 bb 75 e5 b0 bb 06 0c 07 bc 5b cc d3 bd
       -0.004635169 -0.005398447 -0.008242613 -0.10341712
000050 9a 10 12 be 0b e5 84 3d fb c8 84 bd 1d 69 aa 3b
       -0.14264145 0.06488999 -0.064836465 0.0052005188
000060 ee f9 76 bb f3 f6 92 bd 3a d3 93 bc 1e 7c 06 bc
       -0.003768559 -0.07176008 -0.018045057 -0.008208303
000070 b4 14 b8 bd cc 7d 89 bb 31 5b 1b 3c 51 32 d1 bc
       -0.08988324 -0.0041959044 0.009482191 -0.025536688
000080 0b d3 b9 bd 49 6f d5 3b 75 06 02 bc 25 43 19 bd
       -0.090734564 0.0065135104 -0.00793611 -0.03741755
000090 15 48 8a 3c d2 79 b4 bd 13 69 f4 3c 36 5a cd bd
       0.016880075 -0.08812298 0.02983526 -0.10026972
0000a0 95 9a 88 3a 3c 0e b6 bd 7d e1 f9 bb 92 25 0f bb
       0.0010422046 -0.08889434 -0.0076257573 -0.0021842462
0000b0 2b 13 72 3c 17 4e d1 bd da 9f 89 bc 8d 22 50 3c
       0.014775078 -0.102199726 -0.016799856 0.01270355
0000c0 b4 ab ec bd 4b 86 66 bb 1d cd 12 3d 4c 27 8c 3a
       -0.11556187 -0.003517526 0.035840143 0.0010692864
0000d0 4c e3 1e be 71 9b af bb 9b 64 8b bb b4 f7 0e be
       -0.15516394 -0.005359106 -0.0042539365 -0.13961679
0000e0 ed 16 24 3a 89 5a 1e 39 64 16 4b 3b 73 2f 0c bc
       0.000625952 0.00015101781 0.0030988688 -0.008556235
0000f0 5c c0 03 bd 2f c0 52 bd ee b9 b4 3c b6 f5 09 bd
       -0.03216587 -0.05145281 0.022061314 -0.033681594
