Models/Reward_shaping_vm/RS_norm_vm_meander_4_0/61000.pth (torch, 78437 bytes, 11 tensors)

actor.0.weight f4 [64, 62]
0.0037414036 0.0476461 -0.18242823 -0.13624382 -0.18358327 -0.31645998 -0.023534775 -0.29045355
-0.056834705 0.18524297 -0.016706035 -0.05505319 0.75314003 0.4328602 -0.0043070726 0.44927785
-0.0019646762 -0.088668376 -0.04911563 -0.19799447 -0.056890532 -0.0116173485 0.02727413 -0.11759019
0.15497047 -0.002401332 0.063645445 -0.021723887 0.5178351 -0.28328642 0.1495725 0.09106898
0.06357884 0.09697802 0.11741116 -0.24103868 0.49390185 0.46083045 -0.057821166 0.03526064
-0.10481703 0.056040626 -0.005219412 -0.1741164 -0.076687865 0.2044195 -0.073826656 -0.17031147
0.36174008 0.22720307 -0.20030548 -0.037629712 0.054907035 -0.40375727 -0.35418412 0.21794385
0.28133762 0.24081819 0.16874947 0.13322055 -0.031612176 0.2624745 -0.099515006 0.096893616
0.043707006 0.11761476 0.12670983 -0.17212084 -0.09356578 -0.1089138 0.22376943 0.12785755
0.07179405 0.10662135 0.021233663 0.46778083 0.040465556 0.36141378 -0.17503877 -0.18937999
0.027025856 -0.008974524 -0.006419441 -0.14275487 -0.011259392 -0.1348405 0.03958402 0.021708583
-0.08956134 -0.21572901 0.4748577 -0.011399835 0.20397769 0.23942442 0.31503823 0.020265851
-0.12353014 0.009603166 0.74508804 0.38598722 0.044421326 0.1484552 0.09361579 0.38347378
-0.33330607 -0.060201757 -0.27155864 -0.02042986 -0.1426552 -0.005513369 -0.118384324 -0.21514766
-0.22899742 0.049880847 0.19537203 0.15772304 -0.14009199 0.011124036 0.4290821 0.08345758
0.121032394 -0.034273606 0.03225679 0.06797506 -0.105052225 -0.22198486 -0.23478876 -0.02054887
0.02314966 0.5084021 0.14849749 0.6420836 0.20697694 0.25334552 0.34097812 0.4310358
0.63113666 0.26718825 0.07627477 0.11567313 0.056136902 0.15581903 -0.11919442 0.038643487
0.063357286 0.03032692 0.0031136847 -0.014315925 0.0707786 0.08166398 -0.06118045 0.09629487
0.40093812 0.12529466 -0.005955394 -0.061468232 -0.24100985 -0.026975641 0.011698879 0.01875604
0.04449885 0.019566774 -0.09074033 -0.009330913 -0.44055572 -0.26565835 0.12041017 0.14039092
-0.20248485 -0.36480033 0.09603285 0.07388089 -0.14478861 -0.10792121 -0.024221992 0.02046173
0.03386908 -0.04629222 -0.07049244 0.24659601 0.16099343 -0.01518508 -0.108686574 -0.036108382
-0.04868845 -0.033071242 0.22761443 -0.16798818 -0.19374141 -0.16679645 -0.25988993 -0.04479609
0.10351875 -0.41640672 0.3380751 0.41734192 0.2842239 0.53674114 0.4908291 -0.3164386
0.078773126 -0.33555403 0.054547835 0.07631913 -0.057730604 0.016676605 -0.15383385 -0.04523755
0.07156797 0.07549338 0.06773674 0.026894687 -0.052036013 0.11598582 -0.03687815 0.24178429
0.13807978 0.11273406 -0.19452086 0.03543475 0.113675885 -0.065930426 -0.31339768 -0.31368226
0.0547538 -0.034285128 -0.08192222 -0.44304115 0.045007337 0.12624916 0.00058453414 -0.1601345
0.10494165 0.0015426306 0.24481064 0.38397866 -0.008332438 -0.21451333 0.034391996 0.08827819
0.029309573 0.12341003 -0.15196183 -0.016950995 0.022263618 0.059191387 -0.103939846 -0.053884674
-0.117807224 -0.023807624 -0.3829168 -0.022539709 -0.14987369 -0.08582038 -0.20573202 -0.46118093
00000000: 5632 753b 8f28 433d 77ce 3abe 8083 0bbe
00000010: 41fd 3bbe 0b07 a2be 00cc c0bc 54b6 94be
00000020: 82cb 68bd 55b0 3d3e 18db 88bc 747f 61bd
00000030: c9cd 403f da9f dd3e 5822 8dbb bf07 e63e
00000040: ccc1 00bb c497 b5bd 792d 49bd 10bf 4abe
00000050: 0c06 69bd b156 3ebc ff6d df3c 20d3 f0bd
00000060: 94b0 1e3e aa5f 1dbb 8b58 823d 4bf6 b1bc
00000070: d790 043f eb0a 91be 8929 193e 6082 ba3d
00000080: 9f35 823d 6a9c c63d 4375 f03d d8d2 76be
00000090: b4e0 fc3e f8f1 eb3e e3d5 6cbd 766d 103d
000000a0: 50aa d6bd db8a 653d 9a07 abbb 924b 32be
000000b0: 870e 9dbd 5853 513e 6e32 97bd 2166 2ebe
000000c0: ff35 b93e eca7 683e e11c 4dbe 9d21 1abd
000000d0: 33e6 603d 46b9 cebe 9f57 b5be ac2c 5f3e
000000e0: 7c0b 903e 0b99 763e a9cc 2c3e f86a 083e
000000f0: c57b 01bd 0f63 863e 86ce cbbd 2970 c63d
00000100: 1e06 333d 02e0 f03d 39c0 013e 7240 30be
00000110: 6a9f bfbd 330e dfbd d023 653e 17ed 023e
00000120: c208 933d 4b5c da3d 38f2 ad3c f880 ef3e
00000130: 36bf 253d 3a0b b93e 5d3d 33be d4ec 41be
00000140: 5465 dd3c e209 13bc 2d5a d2bb 552e 12be
00000150: 5079 38bc a113 0abe da22 223d 33d6 b13c
00000160: f06b b7bd 11e8 5cbe 8c20 f33e 60c6 3abc
00000170: 87df 503e ad2b 753e b14c a13e 9204 a63c
00000180: 5ffd fcbd 9956 1d3c 17be 3e3f 1ea0 c53e
00000190: 23f3 353d a404 183e a3b9 bf3d ad56 c43e
000001a0: 18a7 aabe 1e96 76bd bc09 8bbe 865c a7bc
000001b0: 3414 12be 7ea9 b4bb 7b73 f2bd ab4f 5cbe
000001c0: 4d7e 6abe dc4f 4c3d 9b0f 483e 2682 213e
000001d0: 4674 0fbe 9741 363c a6b0 db3e cfeb aa3d
000001e0: d5df f73d 7b62 0cbd b21f 043d 8236 8b3d
000001f0: 9f25 d7bd 0050 63be 776c 70be 1b56 a8bc
00000200: 5ba4 bd3c a426 023f ba0f 183e 975f 243f
00000210: c3f1 533e 81b6 813e af94 ae3e b9b0 dc3e
00000220: 2c92 213f e6cc 883e f235 9c3d 09e6 ec3d
00000230: cfef 653d 068f 1f3e 341c f4bd a248 1e3d
00000240: 77c1 813d 2970 f83c f60e 4c3b 578d 6abc
00000250: 5ff4 903d 723f a73d 5a98 7abd 3f36 c53d
00000260: c347 cd3e 3e4d 003e 7725 c3bb 1dc6 7bbd
00000270: 49cb 76be 05fc dcbc a8ac 3f3c 44a6 993c
00000280: 6d44 363d 804a a03c 11d6 b9bd b0e0 18bc
00000290: 8590 e1be 5f04 88be 9b99 f63d a3c2 0f3e
000002a0: 3058 4fbe 1cc7 babe dfac c43d dd4e 973d
000002b0: 7743 14be cc05 ddbd 336d c6bc 5c9f a73c
000002c0: 4eba 0a3d e99c 3dbd 575e 90bd aa83 7c3e
000002d0: 76db 243e d7ca 78bc 1197 debd 62e6 13bd
000002e0: 8a6d 47bd b675 07bd c213 693e 1805 2cbe
000002f0: 2664 46be b0cc 2abe 4b10 85be 1b7c 37bd
00000300: a301 d43d 4333 d5be 2e18 ad3e d7ad d53e
00000310: cc85 913e de67 093f f44d fb3e 3d04 a2be
00000320: ce53 a13d bdcd abbe 8d6d 5f3d 344d 9c3d
00000330: ed76 6cbd 609d 883c 9f86 1dbe 024b 39bd
00000340: 3a92 923d 469c 9a3d 8fb9 8a3d 3f52 dc3c
00000350: b723 55bd f989 ed3d 8b0d 17bd 4d96 773e
00000360: c964 0d3e 1de1 e63d 7a30 47be 0724 113d
00000370: e7ce e83d 8806 87bd a975 a0be f69a a0be
00000380: 8545 603d 906e 0cbd d6c6 a7bd 4ad6 e2be
00000390: 9d59 383d 7647 013e 6c3b 193a 4cfa 23be
000003a0: a6eb d63d 1832 ca3a a4af 7a3e da98 c43e
000003b0: c784 08bc 62a9 5bbe 9fde 0c3d 32cb b43d
000003c0: a11a f03c 66be fc3d e29b 1bbe d0dc 8abc
000003d0: 3162 b63c ab72 723d 6ade d4bd 2db6 5cbd
000003e0: ea44 f1bd 3508 c3bc ac0d c4be 32a5 b8bc
000003f0: 7d78 19be 98c2 afbd 6aab 52be e81f ecbe

actor.0.bias f4 [64]
0.009547398 -0.011294446 0.080440655 -0.0660818 -0.13541679 -0.014974863 0.0874093 -0.11202961
0.07861596 0.039922595 0.048531733 0.039608568 -0.05524815 -0.10661972 0.065738864 -0.07795809
0.039527144 -0.049219925 0.109917596 0.08123648 -0.060362577 0.019510515 0.060710054 -0.007996828
-0.035981413 0.066317864 0.10993135 -0.03955333 -0.0042821635 0.072340034 -0.017168414 0.062394425
-0.0765631 0.048393667 0.19431014 0.16659641 -0.08429497 0.0094289 -0.100556724 0.028686369
-0.07725383 0.018142994 -0.05663532 -0.1382731 -0.06252112 -0.13182023 0.15940599 -0.14445493
-0.02980514 -0.0050027785 -0.004993073 0.11797547 -0.08336148 0.03354937 -0.040353395 0.104236916
0.11945839 -0.04653001 -0.028783021 0.023063656 0.05070594 0.12536187 0.07682171 0.13778111
00000000: b16c 1c3c 570c 39bc 12be a43d e555 87bd
00000010: b3aa 0abe 2159 75bc a603 b33d c86f e5bd
00000020: 6801 a13d e085 233d 36c9 463d 983c 223d
00000030: e24b 62bd 715b dabd 19a2 863d 7ea8 9fbd
00000040: 37e7 213d d59a 49bd 7a1c e13d 505f a63d
00000050: c03e 77bd 84d4 9f3c 1bab 783d 2105 03bc
00000060: 3f61 13bd a9d1 873d b023 e13d ac02 22bd
00000070: 6451 8cbb 0327 943d c6a4 8cbc 4c91 7f3d
00000080: 1dcd 9cbd 7038 463d 3df9 463e 4098 2a3e
00000090: d7a2 acbd ac7b 1a3c aff0 cdbd adff ea3c
000000a0: 4237 9ebd 9ea0 943c 70fa 67bd 7797 0dbe
000000b0: 130b 80bd e2fb 06be 533b 233e feeb 13be
000000c0: e929 f4bc 59ee a3bb ef9c a3bb 209d f13d
000000d0: 6cb9 aabd 106b 093d 9a49 25bd 2a7a d53d
000000e0: 9aa6 f43d 4096 3ebd 5fca ebbc feef bc3c
000000f0: 08b1 4f3d dd5e 003e b354 9d3d 7e16 0d3e

actor.2.weight f4 [64, 64]
0.30246857 0.031891875 0.12681144 0.01295469 0.28203112 0.33418408 -0.14692993 -0.106597
-0.12546135 -0.014249022 0.023808517 0.50193834 -0.019042607 0.08046166 0.09803601 0.06449553
0.26282528 0.23883125 0.20037347 -0.03340922 0.24467747 -0.33193827 -0.23244578 0.09252244
-0.009991611 -0.4322281 0.21372266 0.05858601 0.15269765 -0.06581019 0.34448332 0.05385783
0.21240209 -0.022934081 -0.037970472 -0.32400277 0.050545923 0.06272243 -0.4261848 0.010745085
-0.17405616 -0.0026094872 0.11337462 -0.0014743927 -0.17882489 -0.0038527753 0.07581727 0.03694255
0.3514537 -0.006145235 0.12523943 -0.082890585 -0.056789182 -0.047534898 -0.20635642 -0.002224643
-0.21040913 0.0011770646 -0.027713286 -0.01441658 0.26114708 0.00656705 0.14266321 -0.072922096
-0.25972006 -0.013839961 0.25465667 -0.16243334 -0.23837769 -0.054691974 0.26102424 0.44933388
-0.018495813 0.24726734 -0.35749483 -0.3331733 0.08653599 0.14256439 0.004307109 -0.05072911
0.009418034 0.13745955 -0.2537272 -0.08723637 -0.27023146 -0.040769983 -0.1322666 -0.34265965
0.09151201 0.21779242 -0.056872614 0.01170424 -0.04906564 0.16227916 -0.09686372 -0.28891653
0.120768435 0.030636085 -0.18517789 0.29576623 0.06075229 0.05589458 0.20789894 -0.070799485
0.2146221 0.012595881 0.27125472 -0.0026500993 0.088966124 0.24787818 -0.22130111 -0.105506904
-0.024442881 0.1369023 0.13788016 0.22216125 -0.308597 0.18970704 -0.21498235 0.08396987
0.19607222 -0.013762167 -0.21186058 0.019684507 -0.17047143 0.10783009 -0.097476825 0.15512523
0.0029632156 0.10201695 0.0109038465 0.11607831 -0.03679228 -0.11231406 -0.04707009 0.10160948
0.04516411 0.06954027 -0.010080521 0.06939547 0.03344951 -0.08720702 0.04960213 -0.12425198
0.074061945 0.026692009 -0.06412858 0.04182084 -0.061244197 -0.10136037 -0.0079577025 0.0770375
0.048019275 -0.080840304 -0.024884691 0.0152894985 -0.07808439 -0.060921337 -0.100476116 -0.091439374
-0.077277675 0.06590596 -0.09403018 -0.044483315 0.10139949 0.024335697 -0.011348829 -0.052092273
-0.007414798 -0.11399675 -0.13003439 0.04843571 0.06697471 0.00086970895 -0.12173296 -0.0038481518
-0.039322913 0.08766761 -0.043785274 -0.07364597 -0.036211748 0.07136375 0.007306499 -0.031639814
-0.0013094537 0.13115484 -0.011202379 0.075335346 -0.11951008 -0.13932002 -0.15498534 -0.08834053
-0.018487874 0.013103938 -0.1229209 -0.095514156 -0.2150194 0.06501674 -0.03467831 -0.066340305
-0.11864633 -0.19841714 -0.092342325 0.0960641 -0.13541201 0.041422006 -0.07256348 -0.11548775
-0.013243619 0.02820802 -0.047859915 0.026923237 0.059614994 -0.1431885 -0.08674379 -0.1087394
-0.1640748 -0.19499473 -0.089667104 0.020218842 0.07887107 -0.075570524 -0.030071147 0.019421466
-0.06887081 0.08050715 -0.015750261 -0.10796006 -0.051005065 -0.066264845 -0.0024509702 -0.1159548
0.049084097 -0.09660268 -0.14364888 -0.039588742 0.010261552 -0.096473545 0.06311671 -0.075145654
-0.0006759596 -0.016051358 0.06649688 -0.10004859 0.03223543 -0.018141028 -0.067291625 -0.10380908
0.055564605 -0.051289793 -0.17588268 -0.018101517 0.017645538 -0.07875974 0.035093553 -0.116772495
00000000: 29dd 9a3e 0ea1 023d dcda 013e e83f 543c
00000010: 6266 903e 2d1a ab3e cd74 16be 874f dabd
00000020: f178 00be bb74 69bc 140a c33c 087f 003f
00000030: 3eff 9bbc 15c9 a43d 1bc7 c83d 3c16 843d
00000040: 0991 863e 2e90 743e b42e 4d3e 1bd8 08bd
00000050: bb8c 7a3e d0f3 a9be 4406 6ebe 687c bd3d
00000060: dbb3 23bc 004d ddbe 1dda 5a3e e2f7 6f3d
00000070: c65c 1c3e 7ec7 86bd 1e60 b03e 079a 5c3d
00000080: ef7f 593e 41e0 bbbc ed86 1bbd b1e3 a5be
00000090: 3e09 4f3d 9e74 803d e534 dabe 270c 303c
000000a0: c73b 32be ee03 2bbb f430 e83d 6940 c1ba
000000b0: df1d 37be d87e 7cbb 1646 9b3d 1251 173d
000000c0: bdf1 b33e f85d c9bb c43e 003e 8ac2 a9bd
000000d0: c69b 68bd f4b3 42bd 194f 53be 51cb 11bb
000000e0: 7e75 57be bc47 9a3a f906 e3bc 8533 6cbc
000000f0: 12b5 853e 6830 d73b 4e16 123e 2e58 95bd
00000100: 07fa 84be 01c1 62bc 5c62 823e ed54 26be
00000110: 4819 74be b104 60bd f8a4 853e 170f e63e
00000120: 8884 97bc a633 7d3e 9009 b7be b195 aabe
00000130: c839 b13d 66fc 113e a622 8d3b 54c9 4fbd
00000140: 194e 1a3c 32c2 0c3e 88e8 81be fba8 b2bd
00000150: c75b 8abe 6dfe 26bd e570 07be 1671 afbe
00000160: a66a bb3d fa04 5f3e 42f3 68bd 24c3 3f3c
00000170: 0df9 48bd 822c 263e 7c60 c6bd deec 93be
00000180: 7155 f73d 87f8 fa3c 469f 3dbe ac6e 973e
00000190: 65d7 783d b7f1 643d 76e3 543e 52ff 90bd
000001a0: e5c5 5b3e f45e 4e3c e6e1 8a3e 4aad 2dbb
000001b0: df33 b63d c7d3 7d3e c29c 62be 0114 d8bd
000001c0: 703c c8bc 1e30 0c3e 7530 0d3e 3d7e 633e
000001d0: 6d00 9ebe 9042 423e 5524 5cbe 65f8 ab3d
000001e0: 28c7 483e b67a 61bc fbf1 58be 6741 a13c
000001f0: 1090 2ebe 06d6 dc3d eea1 c7bd 26d9 1e3e
00000200: 8232 423b 43ee d03d 0ca6 323c 77ba ed3d
00000210: 80b3 16bd ea04 e6bd 91cc 40bd a218 d03d
00000220: 00fe 383d 216b 8e3d c528 25bc 361f 8e3d
00000230: 5a02 093d 9899 b2bd 9a2b 4b3d d277 febd
00000240: caad 973d 33a9 da3c d855 83bd 544c 2b3d
00000250: 32db 7abd 0796 cfbd 0661 02bc d6c5 9d3d
00000260: dcaf 443d 9a8f a5bd fbda cbbc ce80 7a3c
00000270: b5ea 9fbd a788 79bd 6cc6 cdbd 9144 bbbd
00000280: c243 9ebd b4f9 863d e592 c0bd 2334 36bd
00000290: 89aa cf3d a85b c73c 70f0 39bc b55e 55bd
000002a0: d5f7 f2bb 2177 e9bd bc27 05be 8664 463d
000002b0: 092a 893d 2efd 633a 214f f9bd 4631 7cbb
000002c0: 1011 21bd 138b b33d 3058 33bd b3d3 96bd
000002d0: c552 14bd 2827 923d 5b6b ef3b c098 01bd
000002e0: faa1 abba 744d 063e 2f8a 37bc 6b49 9a3d
000002f0: b3c1 f4bd e8a9 0ebe 7ab4 1ebe e1eb b4bd
00000300: e273 97bc e6b1 563c f4bd fbbd ed9c c3bd
00000310: 0c2e 5cbe 7f27 853d d80a 0ebd 6ddd 87bd
00000320: d9fc f2bd dd2d 4bbe f91d bdbd 41bd c43d
00000330: 72a9 0abe 1faa 293d 299c 94bd d784 ecbd
00000340: c4fb 58bc 8114 e73c c208 44bd 1f8e dc3c
00000350: da2e 743d 02a0 12be baa6 b1bd c3b2 debd
00000360: 3903 28be b3ac 47be 63a3 b7bd fca1 a53c
00000370: 2887 a13d b8c4 9abd c457 f6bc c419 9f3c
00000380: 240c 8dbd efe0 a43d b106 81bc 2a1a ddbd
00000390: b0ea 50bd ddb5 87bd 75a0 20bb b679 edbd
000003a0: 680c 493d a0d7 c5bd b118 13be ce27 22bd
000003b0: 1220 283c ec93 c5bd 5543 813d f7e5 99bd
000003c0: e232 31ba 237e 83bc 842f 883d 46e6 ccbd
000003d0: 4c09 043d 7e9c 94bc 31d0 89bd db99 d4bd
000003e0: b697 633d 3f15 52bd 971a 34be a249 94bc
000003f0: 608d 903c c94c a1bd 42be 0f3d 6b26 efbd

actor.2.bias f4 [64]
-0.028482715 0.019736484 -0.091819875 -0.15249299 -0.13746847 0.016177893 0.07147921 -0.12110865
-0.062877834 0.009130006 -0.14252937 0.047284514 -0.10550072 -0.09919891 -0.092512086 0.0047546183
-0.08078616 -0.13422278 -0.07215047 -0.07874504 0.03467151 -0.073000215 -0.10062881 0.054050744
0.057533674 0.04518362 0.103794426 0.096689194 0.08199124 0.23712009 0.033893645 -0.16544263
-0.05429175 0.011253926 -0.10536045 0.08468564 -0.09910633 0.03529027 0.019738685 -0.076568894
-0.025016747 0.09004008 -0.10883923 -0.06533914 -0.0725441 -0.08651513 0.19111674 0.029185362
0.0004724037 0.048442133 0.13055414 0.2341253 -0.004321715 0.09079203 0.06176478 0.0489255
0.1150045 0.028197361 -0.087915085 0.033225592 -0.021050304 -0.1262218 0.04273182 -0.018465508
00000000: 9554 e9bc 68ae a13c 0f0c bcbd 1f27 1cbe
00000010: 89c4 0cbe 8087 843c b163 923d d007 f8bd
00000020: 18c6 80bd 0596 153c 38f3 11be 68ad 413d
00000030: c310 d8bd cc28 cbbd fa76 bdbd a1cc 9b3b
00000040: 3773 a5bd b271 09be a0c3 93bd 1445 a1bd
00000050: b703 0e3d 2381 95bd 7a16 cebd 5064 5d3d
00000060: 6ea8 6b3d 7612 393d 2c92 d43d fc04 c63d
00000070: 06eb a73d 9ccf 723e 10d4 0a3d cb69 29be
00000080: 0761 5ebd 6362 383c 38c7 d7bd aa6f ad3d
00000090: 42f8 cabd 888c 103d 06b3 a13c 27d0 9cbd
000000a0: ecef ccbc ef66 b83d 1ae7 debd 87d0 85bd
000000b0: 0092 94bd d82e b1bd 1bb4 433e 2416 ef3c
000000c0: f4ac f739 426b 463d fcaf 053e 8bbe 6f3e
000000d0: 2c9d 8dbb 2cf1 b93d 11fd 7c3d 1b66 483d
000000e0: 7b87 eb3d 27fe e63c d30c b4bd 8f17 083d
000000f0: b071 acbc 4a40 01be 9007 2f3d fa44 97bc

actor.4.weight f4 [36, 64]
-0.37221164 0.6972958 -0.07319069 0.048971623 -0.058525223 -0.22528584 0.46981585 0.05978354
0.10276377 0.35453895 -0.079115696 0.3075817 0.20122485 0.50498945 0.015432793 -0.13644767
0.039890032 -0.6359314 -0.050783765 0.023856021 -0.18888505 -0.004232647 0.007605268 0.07275371
0.34847602 0.4335136 0.07692488 -0.47619694 -0.120354645 -0.24769537 -0.12977977 0.04119696
-0.080224656 0.18620834 0.37374848 0.41155788 -0.3863871 0.47332442 0.0609238 -0.029498972
0.0019392044 -0.5510536 0.47836512 -0.39014217 0.13609158 -0.026396057 0.4044333 -0.060784344
-0.65290606 -0.16616447 -0.27462837 -0.8785195 0.08677528 0.52196217 0.05994565 -0.11829217
0.048143875 -0.05995988 -0.054636553 -0.075412355 0.014674178 -0.04679259 -0.79735833 0.08438476
0.27249515 -0.094686575 0.053763732 0.0149764 0.039109126 -0.0888563 -0.28889236 -0.1507784
0.018101692 -0.4034467 0.13353196 0.3153461 0.34937665 0.49247164 -0.0419892 0.23558779
-0.07540768 0.26791328 0.07207556 0.1479677 0.063632555 -0.071042165 0.012820483 -0.08846015
0.15176716 0.42068508 -0.028299795 -0.7233613 -0.27877426 -0.16426428 0.11985228 0.060946126
0.09214186 -0.32691497 0.43445054 0.29615897 -0.24080989 -0.46760312 0.06889014 0.0613937
0.007974205 0.20989133 0.35690606 -0.44569966 -0.06361584 -0.10790045 0.013825981 0.053772286
-0.87199104 0.44926292 -0.056898136 -1.1698439 0.10659793 0.2722232 0.113636695 -0.05337133
0.20390774 -0.929429 0.114607334 -0.075676024 0.10202148 0.034715895 -0.87188673 0.14466263
0.49089247 -0.33357808 0.060260717 0.19689018 0.049203876 -0.10899341 0.32775506 0.1599713
0.056638386 -0.34704491 0.09676265 -0.10619619 0.011410252 0.07766541 -0.019996092 0.09656752
-0.00014449462 -0.3845327 0.42576107 0.021447191 -0.20368065 0.096143015 -0.013923528 0.005242569
0.50072616 0.41427097 -0.4375706 -0.5624886 -0.22490598 -0.3692907 -0.04589253 -0.027439129
-0.13994782 0.43122634 0.30759922 0.24769917 0.017397957 -0.46417177 0.026891502 0.040687103
-0.028883256 -0.38831046 0.18822701 -0.19662386 -0.032129835 -0.09685428 0.032720372 0.4856966
-0.51666343 0.091263674 -0.51962525 -0.8414244 0.4454869 0.08794763 0.17483485 0.30206916
0.17181517 -0.18176079 0.111312486 0.11725044 -0.042319044 0.10451773 -0.24944963 0.109420754
-0.11727903 0.096189775 0.022674488 -0.03718524 0.059124615 0.04095481 -0.14446306 -0.017655488
0.010369846 -0.40731123 0.057032082 0.16714412 -0.009511181 0.11329867 0.14407243 0.053608585
0.026938517 -0.13333128 0.24976832 -0.081424735 -0.2674071 -0.047539912 0.06495136 0.0033371674
0.08346452 0.070855536 -0.14822707 -0.11453881 -0.19157475 -0.7980591 -0.03129126 -0.017257016
-0.012956183 -0.43567765 0.15046157 0.14244771 -0.25634107 -0.5334563 0.016381009 -0.072107576
0.09143688 -0.23976983 0.095862284 -0.09839463 -0.08043478 0.057119496 -0.068986274 0.15920117
-0.3114035 0.19270343 -0.40159187 -0.27888975 0.18233395 0.11533613 0.20337985 -0.15434256
-0.31512892 -0.30089334 -0.03188783 -0.077977814 0.1575029 0.12438844 -0.30810136 -0.07176334
00000000: 8692 bebe fa81 323f 00e5 95bd 7896 483d
00000010: 25b8 6fbd 55b1 66be b48b f03e 96df 743d
00000020: d075 d23d 2186 b53e 6907 a2bd 597b 9d3e
00000030: e30d 4e3e fd46 013f d3d9 7c3c f0b8 0bbe
00000040: bb63 233d 66cc 22bf a302 50bd b46d c33c
00000050: 156b 41be 04b2 8abb 9d35 f93b e6ff 943d
00000060: 736b b23e 7ff5 dd3e cb8a 9d3d 16d0 f3be
00000070: 7f7c f6bd dba3 7dbe fde4 04be 25be 283d
00000080: d34c a4bd 66ad 3e3e f65b bf3e b7b7 d23e
00000090: 88d4 c5be 9457 f23e 3c8b 793d d4a7 f1bc
000000a0: e72c fe3a d911 0dbf 46ec f43e b7c0 c7be
000000b0: 975b 0b3e 8b3c d8bc e211 cf3e 01f9 78bd
000000c0: da24 27bf 0527 2abe 179c 8cbe a7e6 60bf
000000d0: 3db7 b13d 509f 053f 9289 753d 2a43 f2bd
000000e0: 8332 453d 7e98 75bd 94ca 5fbd cb71 9abd
000000f0: f76b 703c 96a9 3fbd ad1f 4cbf ebd1 ac3d
00000100: 7c84 8b3e 09eb c1bd 5c37 5c3d 935f 753c
00000110: e430 203d 4bfa b5bd b3e9 93be a765 1abe
00000120: 004a 943c 9190 cebe 9abc 083e 0b75 a13e
00000130: 7fe1 b23e 3e25 fc3e defc 2bbd ed3d 713e
00000140: 576f 9abd ee2b 893e 5a9c 933d d884 173e
00000150: c951 823d 8e7e 91bd 010d 523c 982a b5bd
00000160: da68 1b3e 0964 d73e f9d4 e7bc 352e 39bf
00000170: 80bb 8ebe e534 28be 1d75 f53d a5a2 793d
00000180: dfb4 bc3d 6661 a7be 4d70 de3e 26a2 973e
00000190: de96 76be ad69 efbe 4616 8d3d f677 7b3d
000001a0: 3da6 023c c1ed 563e 64bc b63e bf32 e4be
000001b0: 0649 82bd e9fa dcbd 5e86 623c 5440 5c3d
000001c0: ce3a 5fbf ca05 e63e 050e 69bd 72bd 95bf
000001d0: 0450 da3d d760 8b3e 5bba e83d e59b 5abd
000001e0: 31cd 503e 0fef 6dbf 40b7 ea3d 08fc 9abd
000001f0: a3f0 d03d 4132 0e3d f833 5fbf 7122 143e
00000200: 4256 fb3e bfca aabe f1d3 763d 949d 493e
00000210: 018a 493d f037 dfbd 83cf a73e 84cf 233e
00000220: a7fd 673d dfaf b1be 7f2b c63d 637d d9bd
00000230: 11f2 3a3c 0b0f 9f3d d8ce a3bc 31c5 c53d
00000240: 7b83 17b9 78e1 c4be 5bfd d93e 05b2 af3c
00000250: a991 50be a1e6 c43d 821f 64bc dbc9 ab3b
00000260: 972f 003f 531b d43e 4109 e0be 41ff 0fbf
00000270: c14d 66be ac13 bdbe cef9 3bbd 06c8 e0bc
00000280: 7b4e 0fbe b3c9 dc3e a57d 9d3e daa4 7d3e
00000290: 2986 8e3c eca7 edbe 914b dc3c 85a7 263d
000002a0: 949c ecbc a1d0 c6be 95be 403e c457 49be
000002b0: 939a 03bd 895b c6bd cc05 063d 3aad f83e
000002c0: 0e44 04bf 73e8 ba3d 2906 05bf 9767 57bf
000002d0: dc16 e43e e31d b43d e807 333e cfa8 9a3e
000002e0: 51f0 2f3e 801f 3abe cdf7 e33d 0021 f03d
000002f0: bc56 2dbd 640d d63d b96f 7fbe fd17 e03d
00000300: fd2f f0bd 25ff c43d d9bf b93c 8d4f 18bd
00000310: a72c 723d 3bc0 273d 20ee 13be 3ea2 90bc
00000320: 49e6 293c 198b d0be 799a 693d d427 2b3e
00000330: c9d4 1bbc 2209 e83d b987 133e ad94 5b3d
00000340: 2aae dc3c ff87 08be 44c3 7f3e 03c2 a6bd
00000350: 95e9 88be 36b9 42bd 3805 853d 61b4 5a3b
00000360: 72ef aa3d b51c 913d d6c8 17be 5393 eabd
00000370: 2c2c 44be 9a4d 4cbf 442b 00bd 965e 8dbc
00000380: 2c46 54bc 2411 dfbe 9912 1a3e d0dd 113e
00000390: 233f 83be 9890 08bf 7731 863c 23ad 93bd
000003a0: 4243 bb3d 3986 75be 7253 c43d 2083 c9bd
000003b0: fdba a4bd 22f6 693d ad48 8dbd a205 233e
000003c0: 4870 9fbe 0c54 453e 739d cdbe a3ca 8ebe
000003d0: c0b5 3a3e 5935 ec3d cf42 503e fa0b 1ebe
000003e0: 9458 a1be b10e 9abe d09c 02bd d5b2 9fbd
000003f0: 7148 213e 5ebf fe3d 76bf 9dbe a8f8 92bd

actor.4.bias f4 [36]
-0.07105447 -0.34408692 -0.16383876 -0.18042907 -0.073008254 0.014458073 0.2184725 0.11735115
-0.00084369467 -0.078204915 0.17205396 -0.04275724 0.042948313 0.085923254 0.07053401 0.21536605
-0.3105477 -0.28485236 -0.24841122 -0.23883964 -0.287253 -0.073138595 0.02653531 0.13975896
0.15550539 0.22026342 -0.08922588 -0.034683414 0.029833611 0.27948263 0.053475615 0.098061144
0.01561162 -0.005150786 -0.0034002056 0.111780114
00000000: 0285 91bd 292c b0be 59c5 27be 66c2 38be
00000010: 5a85 95bd 8ee1 6c3c 41b7 5f3e cd55 f03d
00000020: 642b 5dba e629 a0bd ea2e 303e 3722 2fbd
00000030: 92ea 2f3d 88f8 af3d 2374 903d eb88 5c3e
00000040: 1c00 9fbe 2bd8 91be 835f 7ebe 6192 74be
00000050: d312 93be b0c9 95bd 9460 d93c f91c 0f3e
00000060: ce3c 1f3e bc8c 613e 0fbc b6bd 3210 0ebd
00000070: 9e65 f43c 5918 8f3e 3f09 5b3d 48d4 c83d
00000080: e1c7 7f3c edc7 a8bb fcd5 5ebb f9ec e43d

critic.0.weight f4 [64, 62]
-0.14727151 -0.22098833 0.36529022 -0.0030079936 0.47423685 0.09844828 -0.007687399 0.23950079
-0.08506425 -0.17630371 -0.081013665 -0.076501496 -0.18123668 -0.04958955 -0.056628834 -0.16408715
-0.107471116 -0.07065449 -0.027613863 -0.077720255 0.02263211 0.0051135365 0.09467029 -0.03680981
-0.03431661 0.013300784 -0.060228426 -0.08245105 0.26674506 -0.035076812 0.054006457 -0.15184695
0.009779091 0.24798743 0.06669272 0.059469625 0.095382065 0.12410487 0.096624725 -0.025867252
-0.045865647 -0.105074555 -0.20372212 -0.105830446 -0.14967173 0.052088168 0.04143591 -0.06585603
-0.29932702 -0.30067477 0.033297993 0.26589847 -0.12469018 0.10023265 -0.06751268 -0.14734651
0.10957256 -0.016069919 0.13174774 -0.021581374 0.040899046 0.053386137 -0.34899336 -0.053325605
-0.04577737 -0.066796854 -0.2232454 -0.2854062 0.21991783 0.016057745 -0.24259123 -0.33935454
-0.122841656 -0.21737427 -0.44412684 -0.42756742 0.017678302 -0.19928308 -0.01329212 0.034543756
0.063344136 -0.023912134 0.0798513 0.1513949 0.12270057 -0.028995916 0.19377972 -0.031876255
-0.09757629 0.09477989 0.06395644 0.6271946 0.099838145 0.8377402 -0.28143275 -0.025867686
-0.031247003 -0.16994911 0.07243977 0.13410243 0.027682561 -0.0509014 -0.079340905 -0.011514688
-0.13182291 -0.016123451 -0.19474255 0.0002801048 0.01724517 -0.07461048 -0.07363522 0.03652618
-0.27184567 0.18392672 0.07854236 -0.006080029 0.10569904 0.085893966 0.2968909 0.005656619
-0.12167724 -0.12778422 0.0229861 -0.15267402 0.22013971 0.17744932 -0.29586488 -0.03526517
-0.11835196 0.1435018 0.16330388 0.15267582 -0.16488157 -0.14922772 -0.00223976 -0.062287956
0.14394414 0.25620383 -0.062317636 0.21833935 -0.15814355 -0.069422476 -0.01663195 -0.15049651
-0.0028925696 -0.019768562 -0.033309773 0.038516335 -0.09421148 -0.1185232 0.06640235 -0.12289151
0.112089865 0.40156826 0.0578943 0.1698599 -0.17797491 -0.11835146 0.06611552 -0.05274841
-0.08990037 0.014207104 -0.4889031 -0.09868254 -0.0021430727 0.1788164 -0.091638945 -0.13857608
-0.19911334 -0.15528932 -0.0117924595 -0.04479982 -0.14525348 -0.11086548 -0.16372712 -0.1042626
0.11346103 0.037271567 0.05456938 0.04961416 -0.19743362 -0.0128155975 0.0036414764 -0.11399942
0.014589543 -0.028865946 -0.051880356 -0.05884873 0.012912654 0.15603064 0.19759107 -0.15404323
-0.06866008 -0.055015806 -0.027950166 -0.06027516 0.061380554 -0.041814305 0.003321838 0.07126267
-0.18536955 -0.21189514 0.05649801 -0.022561168 -0.03501543 0.08803471 -0.037530348 -0.07076274
0.064137466 0.121847846 -0.13830446 -0.06481977 -0.038094006 0.09562021 -0.13371095 -0.015788006
-0.00021187155 -0.14028148 0.02029382 -0.008680025 -0.10527921 -0.009146755 -0.13807207 -0.030551214
-0.18269674 -0.20493604 -0.08737673 -0.11907493 -0.22205776 -0.1885799 0.08340186 -0.1391727
-0.17370604 0.038776416 -0.05627942 0.1131343 -0.20586838 -0.1062337 -0.11871816 0.23446384
-0.2662342 -0.10595524 -0.044806153 -0.06138544 -0.10556908 -0.0148799475 0.16019762 0.07784454
0.10514823 -0.04581831 -0.08479353 -0.016307522 -0.05548532 -0.051660135 0.05605456 -0.021899814
00000000: 58ce 16be c44a 62be 5207 bb3e c221 45bb
00000010: 2ccf f23e 409f c93d 94e6 fbbb b23f 753e
00000020: 2a36 aebd f688 34be 7eea a5bd d1ac 9cbd
00000030: 1c96 39be 691e 4bbd a3f3 67bd 7606 28be
00000040: d119 dcbd 4db3 90bd 7836 e2bc cc2b 9fbd
00000050: fa66 b93c 748f a73b 7fe2 c13d e2c5 16bd
00000060: 938f 0cbd 88eb 593c 15b2 76bd 19dc a8bd
00000070: cf92 883e b4ac 0fbd e035 5d3d c47d 1bbe
00000080: 7b38 203c 6bf0 7d3e 3196 883d 6c96 733d
00000090: ac57 c33d b22a fe3d 2fe3 c53d 8fe7 d3bc
000000a0: 9edd 3bbd 5431 d7bd 889c 50be a2bd d8bd
000000b0: 8c43 19be 675a 553d b3b8 293d 87df 86bd
000000c0: 6441 99be 0bf2 99be 7a63 083d d823 883e
000000d0: 915d ffbd c746 cd3d 1744 8abd 01e2 16be
000000e0: 9467 e03d 10a5 83bc e1e8 063e 6ccb b0bc
000000f0: c285 273d 6cab 5a3d 42af b2be f36b 5abd
00000100: 0d81 3bbd cacc 88bd 719a 64be c320 92be
00000110: 2432 613e 888b 833c d669 78be e1bf adbe
00000120: 6894 fbbd 5c97 5ebe 9864 e3be 1eea dabe
00000130: 16d2 903c dd10 4cbe 31c7 59bc c17d 0d3d
00000140: 92ba 813d 61e3 c3bc 1489 a33d 4407 1b3e
00000150: 704a fb3d d888 edbc 316e 463e ad90 02bd
00000160: 14d6 c7bd f51b c23d 98fb 823d d38f 203f
00000170: f177 cc3d 2476 563f f417 90be 78e8 d3bc
00000180: b7f9 ffbc 2407 2ebe 4d5b 943d 2652 093e
00000190: 8ac6 e23c fd7d 50bd 7c7d a2bd 1aa8 3cbc
000001a0: 96fc 06be 5415 84bc 976a 47be 08db 9239
000001b0: be45 8d3c 61cd 98bd 10ce 96bd 7a9c 153d
000001c0: 5b2f 8bbe 4957 3c3e d1da a03d fb3a c7bb
000001d0: bd78 d83d 2de9 af3d 1602 983e 295b b93b
000001e0: eb31 f9bd ded9 02be 584d bc3c 9456 1cbe
000001f0: 4e6c 613e 46b5 353e 9a7b 97be 3672 10bd
00000200: 8362 f2bd 23f2 123e 2239 273e 0d57 1c3e
00000210: b7d6 28be 27cf 18be f0c8 12bb a821 7fbd
00000220: 1866 133e 262d 833e c740 7fbd 5a94 5f3e
00000230: 62f0 21be 5f2d 8ebd ba3f 88bc c21b 1abe
00000240: 4491 3dbb aef1 a1bc d46f 08bd 4ec3 1d3d
00000250: f3f1 c0bd 4bbc f2bd f5fd 873d 8bae fbbd
00000260: 5f8f e53d 5b9a cd3e 9322 6d3d c1ef 2d3e
00000270: 0e3f 36be 4062 f2bd 9367 873d b70e 58bd
00000280: af1d b8bd eac4 683c 8251 fabe 121a cabd
00000290: cb72 0cbb a51b 373e 33ad bbbd e3e6 0dbe
000002a0: 5ee4 4bbe 2a04 1fbe 2935 41bc 0480 37bd
000002b0: 54bd 14be 710d e3bd 15a8 27be a187 d5bd
000002c0: 425e e83d 12aa 183d 2484 5f3d 3838 4b3d
000002d0: 0a2c 4abe 83f8 51bc d6a5 6e3b 8778 e9bd
000002e0: fb08 6f3c 4778 ecbc 7f80 54bd 5e0b 71bd
000002f0: 998f 533c 7fc6 1f3e 5055 4a3e 82bd 1dbe
00000300: a89d 8cbd 4158 61bd bff7 e4bc 16e3 76bd
00000310: 2d6a 7b3d 7a45 2bbd 32b3 593b 2af2 913d
00000320: 84d1 3dbe 0afb 58be 756a 673d 33d2 b8bc
00000330: 576c 0fbd 8b4b b43d 6cb9 19bd 0eec 90bd
00000340: 815a 833d 5d8b f93d af9f 0dbe 3ac0 84bd
00000350: 7608 1cbd 87d4 c33d 86eb 08be d955 81bc
00000360: d629 5eb9 f3a5 0fbe 3a3f a63c aa36 0ebc
00000370: a09c d7bd 45dc 15bc c462 0dbe 8a46 fabc
00000380: db14 3bbe c1da 51be 92f2 b2bd 8fdd f3bd
00000390: 1c63 63be 171b 41be 98ce aa3d 4a83 0ebe
000003a0: ffdf 31be 05d4 1e3d 4085 66bd f5b2 e73d
000003b0: 29cf 52be 0e91 d9bd 8222 f3bd 4a17 703e
000003c0: d94f 88be 10ff d8bd a886 37bd 4d6f 7bbd
000003d0: 9a34 d8bd 06cb 73bc d80a 243e f56c 9f3d
000003e0: f557 d73d fbab 3bbd 3ba8 adbd 5a97 85bc
000003f0: 9344 63bd 9499 53bd 7799 653d 3d67 b3bc

critic.0.bias f4 [64]
-0.10418567 -0.03713774 -0.07427008 -0.07383136 0.17621875 -0.101376615 -0.21098186 0.0015471155
0.2026976 0.29290214 -0.0026752243 -0.10838166 -0.014700184 0.07648132 0.069894746 -0.16616619
-0.057569675 -0.080213435 0.23713161 0.033960655 -0.12531425 -0.13409337 -0.05709915 -0.07351824
-0.040300585 0.25985578 0.2282076 0.0054018483 -0.19175169 0.03406496 -0.17750232 -0.091716714
-0.12505521 0.15178558 0.20296744 -0.11025737 -0.1686251 -0.10684434 -0.13316905 -0.15732744
0.17927678 -0.10096124 -0.13302957 0.007840569 -0.03356083 -0.017147727 -0.07926802 -0.196538
0.15891281 -0.11998637 -0.13288182 0.16343522 -0.11238386 -0.11843835 0.063115224 0.084847465
-0.17331329 0.20956944 -0.17110413 -0.15729564 0.20141158 -0.1476478 -0.022760738 0.07852043
00000000: 4c5f d5bd be1d 18bd e91a 98bd e534 97bd
00000010: b072 343e 8b9e cfbd a10b 58be 95c8 ca3a
00000020: f68f 4f3e 45f7 953e d152 2fbb 34f7 ddbd
00000030: 0ad9 70bc 3da2 9c3d fa24 8f3d 7827 2abe
00000040: 2ece 6bbd f146 a4bd a1d2 723e 541a 0b3d
00000050: 6152 00be c64f 09be cce0 69bd bb90 96bd
00000060: 3a12 25bd d10b 853e 41af 693e fd01 b13b
00000070: 8e5a 44be b387 0b3d 2bc3 35be f9d5 bbbd
00000080: 790e 00be ae6d 1b3e b2d6 4f3e 9ece e1bd
00000090: 0fac 2cbe 35d1 dabd 785d 08be 721a 21be
000000a0: 5594 373e c4c4 cebd e738 08be bb75 003c
000000b0: 1577 09bd 6479 8cbc 4657 a2bd 4241 49be
000000c0: 0aba 223e 6abb f5bd 2c12 08be 905b 273e
000000d0: 8229 e6bd ce8f f2bd 8e42 813d 82c4 ad3d
000000e0: 0a79 31be 5f99 563e ec35 2fbe 1c12 21be
000000f0: d63e 4e3e fc30 17be ba74 babc 52cf a03d

critic.2.weight f4 [64, 64]
0.10997737 0.10796292 0.08643579 0.039436076 0.106839254 0.067904584 -0.114896506 -0.19001809
0.06342624 0.35371804 -0.3720463 -0.017212555 -0.10969916 0.12039194 -0.10546696 0.057659045
-0.012354604 0.13228956 0.11751597 0.0466505 0.12777625 0.08092046 0.007922587 -0.07305921
0.17118812 0.2861592 0.03008875 -0.020445611 -0.0029244213 0.11049797 -0.3102784 0.02661008
0.039639693 0.1222493 0.15725887 -0.101035185 -0.028635006 -0.043652996 -0.07967222 0.065810435
0.27946115 -0.03557427 -0.35884187 -0.062425677 0.010635268 -0.24205433 -0.23919736 -0.007923365
0.28608337 -0.10296568 -0.0227814 0.11322644 0.04448661 -0.28384662 0.006793169 0.32446647
0.013465588 0.09202557 -0.019635336 0.116616204 0.36409217 0.05684334 -0.0861323 0.027958388
0.025787212 0.14448209 0.08863699 -0.09947451 0.056186993 0.35360584 0.013690112 0.13045472
-0.15168543 -0.32147992 0.03364667 0.035282426 0.15580498 0.08650241 -0.10643773 -0.0037821825
0.36807138 -0.08009639 -0.06978045 0.1664374 0.14697605 0.1844616 0.09775745 0.12663445
0.17583491 0.022588188 -0.34873685 -0.3808229 0.049775977 -0.06685998 -0.10076381 0.120007575
-0.049188245 0.091510706 -0.19980066 0.2915144 0.09078195 0.14175531 -0.051571805 0.07249395
-0.011993081 0.040406633 0.2035108 -0.21578749 0.07330808 0.12566221 0.048341356 0.05569008
-0.0013060546 -0.026291152 0.178962 -0.32821584 0.04091113 0.17732161 -0.10853568 0.06320475
0.10528987 -0.37549016 -0.015628643 -0.13947827 -0.089439586 0.007865319 -0.06960409 -0.019255776
-0.018482191 0.05429084 -0.023846824 0.00030145166 -0.099185236 0.073051654 0.121990524 -0.2019625
-0.053359956 0.16197553 0.044571035 -0.14291902 -0.065568306 -0.097970344 -0.088652425 -0.019147126
-0.0343475 0.014775998 -0.04063963 -0.011840307 0.062213875 -0.131605 -0.094835855 -0.08268794
-0.002376297 -0.037233125 -0.014723025 -0.051555935 -0.07738951 -0.1268091 0.04312566 0.03741293
-0.117675856 -0.11905656 0.114453 0.014391913 -0.053600702 -0.056812234 0.07150415 -0.077604815
-0.06856 -0.002772449 -0.12671883 -0.0052553783 -0.07259921 0.032853764 -0.08557291 0.06312206
-0.16518465 0.0087183695 -0.015200247 -0.009046268 -0.08306765 -0.03217802 -0.07708887 -0.06845959
0.09105562 -0.039140914 -0.020197826 0.013375399 -0.121342525 0.02218655 0.04680729 -0.08121656
-0.17655806 -0.015602373 0.078611486 0.050649006 0.13393559 -0.29460648 -0.049678504 -0.15795544
0.06386718 0.36385998 -0.14768758 0.15693016 0.012617261 0.01285686 -0.01808693 -0.019522838
-0.15019552 0.050079603 0.18035756 -0.06739461 -0.10693371 -0.14152363 0.004572955 -0.00076774444
0.110888764 0.3071262 0.05778664 0.06629356 -0.27615088 -0.15133454 0.060068928 -0.07102934
0.11814472 0.17538768 0.10791388 0.13557187 -0.082430825 -0.10930378 -0.122545965 0.064633705
0.22847636 -0.06547492 0.012812203 -0.13760553 0.117569596 0.022551224 0.013013273 -0.032549758
0.15699524 -0.114684016 -0.10101619 -0.11192754 0.048044816 0.07286289 0.18581447 0.20135304
-0.14435309 0.15897346 -0.13387029 -0.025674272 0.15471889 -0.11958991 0.04094018 -0.09578764
00000000: d13b e13d aa1b dd3d 3f05 b13d b987 213d
00000010: 8ace da3d 8f11 8b3d dc4e ebbd 1a94 42be
00000020: 9ee5 813d 881a b53e da7c bebe 5801 8dbc
00000030: f4a9 e0bd 0d90 f63d 10ff d7bd e42b 6c3d
00000040: f76a 4abc ea76 073e 36ac f03d 9814 3f3d
00000050: c7d7 023e a0b9 a53d bdcd 013c 11a0 95bd
00000060: f04b 2f3e 7583 923e af7c f63c 8e7d a7bc
00000070: a6a7 3fbb c24c e23d cfdc 9ebe 62fd d93c
00000080: 3b5d 223d d75d fa3d 7808 213e 89eb cebd
00000090: f693 eabc 7ccd 32bd 302b a3bd 9fc7 863d
000000a0: 8815 8f3e 53b6 11bd 1fba b7be 11b2 7fbd
000000b0: 8c3f 2e3c 17dd 77be 27f0 74be 00d1 01bc
000000c0: 8579 923e acdf d2bd 0fa0 babc 44e3 e73d
000000d0: 9737 363d 5854 91be 3b99 de3b 7820 a63e
000000e0: c59e 5c3c e777 bc3d 49da a0bc 7ad4 ee3d
000000f0: 4a6a ba3e 90d4 683d 2266 b0bd fd08 e53c
00000100: b43f d33c 1df3 133e 4f87 b53d 4bb9 cbbd
00000110: 5524 663d d30b b53e 7e4c 603c ec95 053e
00000120: 6d53 1bbe 0499 a4be 17d1 093d 4e84 103d
00000130: 578b 1f3e 2d28 b13d 06fc d9bd 7ede 77bb
00000140: da73 bc3e 9309 a4bd 0de9 8ebd 916e 2a3e
00000150: e480 163e 80e3 3c3e 0f35 c83d 76ac 013e
00000160: 110e 343e dd0a b93c a38d b2be 38fb c2be
00000170: e5e1 4b3d e3ed 88bd 425d cebd 88c6 f53d
00000180: 9d79 49bd f769 bb3d 8b98 4cbe 6041 953e
00000190: e3eb b93d 4e28 113e f53c 53bd b577 943d
000001a0: a17e 44bc 6d81 253d 2365 503e 65f7 5cbe
000001b0: 8c22 963d 98ad 003e 9601 463d 481b 643d
000001c0: ec2f abba 8b60 d7bc d141 373e e80b a8be
000001d0: 6e92 273d cc93 353e f447 debd 7e71 813d
000001e0: 37a2 d73d 3f40 c0be a407 80bc 64d3 0ebe
000001f0: 1a2c b7bd 8add 003c 978c 8ebd 4abe 9dbc
00000200: f767 97bc 1260 5e3d 6a5a c3bc 280c 9e39
00000210: a121 cbbd 1b9c 953d 2bd6 f93d 42cf 4ebe
00000220: f88f 5abd eadc 253e 1e90 363d 5d59 12be
00000230: ad48 86bd ada4 c8bd 678f b5bd 6fda 9cbc
00000240: f7af 0cbd 0717 723c be75 26bd d9fd 41bc
00000250: fad3 7e3d 76c3 06be 4d39 c2bd 4b58 a9bd
00000260: a6bb 1bbb c381 18bd d838 71bc 512c 53bd
00000270: 647e 9ebd 3fda 01be 88a4 303d 4d3e 193d
00000280: 0a00 f1bd edd3 f3bd 5666 ea3d 0fcc 6b3c
00000290: 698c 5bbd f2b3 68bd c570 923d 46ef 9ebd
000002a0: 2f69 8cbd fab1 35bb 95c2 01be 4f35 acbb
000002b0: e5ae 94bd ab91 063d da40 afbd 2346 813d
000002c0: 2a26 29be 7ed7 0e3c 750a 79bc cc36 14bc
000002d0: 5f1f aabd 19cd 03bd c5e0 9dbd 8b34 8cbd
000002e0: 5e7b ba3d 3952 20bd e975 a5bc 7d24 5b3c
000002f0: 6e82 f8bd 91c0 b53c 00b9 3f3d de54 a6bd
00000300: a3cb 34be 18a1 7fbc 0fff a03d 5575 4f3d
00000310: 6926 093e a9d6 96be b07b 4bbd 12bf 21be
00000320: cccc 823d db4b ba3e 6a3b 17be 4db2 203e
00000330: a1b8 4e3c 94a5 523c 0b2b 94bc 5cee 9fbc
00000340: dbcc 19be 4520 4d3d a7af 383e 2f06 8abd
00000350: 1000 dbbd 92eb 10be bad8 953b 7542 49ba
00000360: a619 e33d a53f 9d3e afb1 6c3d ebc4 873d
00000370: a663 8dbe 71f7 1abe d60a 763d d577 91bd
00000380: dcf5 f13d d498 333e f401 dd3d 5ad3 0a3e
00000390: 7ed1 a8bd a9da dfbd 61f9 fabd ad5e 843d
000003a0: b5f5 693e b717 86bd 46ea 513c 77e8 0cbe
000003b0: 54c8 f03d 58bd b83c 9f35 553c e552 05bd
000003c0: 5cc3 203e 74df eabd 94e1 cebd 443a e5bd
000003d0: a4ca 443d 2439 953d 2646 3e3e 7e2f 4e3e
000003e0: 4cd1 13be f0c9 223e 4b15 09be da52 d2bc
000003f0: a16e 1e3e 8eeb f4bd e4b0 273d 4f2c c4bd

critic.2.bias f4 [64]
0.16156632 -0.0451889 -0.023180427 0.14555173 0.03653853 -0.12580666 -0.12876666 0.12065631
-0.11305592 0.040238746 -0.030346593 -0.09240116 -0.1759416 -0.09944579 0.050760344 -0.023325756
0.04152425 -0.07043086 -0.023615822 -0.13754438 -0.07820006 0.0029559361 -0.13608254 -0.07417433
-0.031220531 -0.063396014 -0.063995585 -0.08226379 -0.10256913 -0.1500241 -0.007897396 0.057720415
-0.1578191 0.11830207 -0.15521137 0.0035062009 0.002503106 -0.11560639 -0.013811582 0.046656497
-0.105990715 0.010712661 -0.006550428 0.001976955 -0.02992212 -0.007871925 0.025915522 -0.11791024
-0.1373602 -0.17412417 -0.075769536 -0.10180355 -0.040859785 -0.20976017 -0.06992857 0.026607782
-0.1169581 0.08259588 -0.13500616 -0.05769656 -0.03404116 -0.06675237 -0.13574484 -0.1260646
00000000: a471 253e ff17 39bd e1e4 bdbc 830b 153e
00000010: 6da9 153d 76d3 00be 68db 03be a81a f73d
00000020: dd89 e7bd 62d1 243d 6b99 f8bc d23c bdbd
00000030: 092a 34be 3caa cbbd 14ea 4f3d a815 bfbc
00000040: 5515 2a3d 0e3e 90bd f875 c1bc 6fd8 0cbe
00000050: 5a27 a0bd 61b8 413b 3959 0bbe b6e8 97bd
00000060: 33c2 ffbc c5d5 81bd 1e10 83bd eb79 a8bd
00000070: c40f d2bd eb9f 19be 1464 01bc 3e6c 6c3d
00000080: 559b 21be 5b48 f23d bbef 1ebe 4ac8 653b
00000090: 260b 243b 0bc3 ecbd f949 62bc e21a 3f3d
000000a0: a911 d9bd 2884 2f3c f9a4 d6bb cd8f 013b
000000b0: 3c1f f5bc 3ff9 00bc ca4c d43c ed7a f1bd
000000c0: 27a8 0cbe 9b4d 32be 0f2d 9bbd 617e d0bd
000000d0: 975c 27bd 5fcb 56be b636 8fbd 90f8 d93c
000000e0: ba87 efbd 0728 a93d 0e3f 0abe 3a53 6cbd
000000f0: be6e 0bbd 77b5 88bd b200 0bbe 1417 01be

critic.4.weight f4 [1, 64]
0.14760385 -0.20811857 0.0013030719 0.038538136 0.010555343 0.09302509 0.04685378 -0.16097522
-0.09407319 -0.35045385 -0.13208066 -0.340524 0.046668462 -0.3143487 -0.009858351 -0.1477284
0.08098919 -0.0035130864 -0.3516454 -0.09917892 -0.02736954 0.05503695 -0.0134360185 -0.09955734
0.091139905 0.0008844544 -0.06977405 0.009869827 0.06749796 0.0026396646 -0.057309803 0.019558722
-0.031872876 0.06460851 -0.31702417 -0.022963699 -0.06758855 0.006010112 -0.3990388 -0.05910853
-0.04022602 -0.4194738 -0.40840822 -0.40890244 -0.33227545 -0.14475109 -0.108516686 -0.042840272
0.0064388327 -0.003148555 0.034471493 0.0011810341 -0.32714757 -0.14015016 -0.013740598 -0.038114194
-0.025229305 0.16992778 0.0680225 0.003919743 0.035632893 -0.24403644 -0.39630088 0.104431465
00000000: 7725 173e 091d 55be d6cb aa3a 2ada 1d3d
00000010: 51f0 2c3c f083 be3d c0e9 3f3d b0d6 24be
00000020: 72a9 c0bd b06e b3be 2740 07be 2959 aebe
00000030: 6e27 3f3d 50f2 a0be ec84 21bc 1d46 17be
00000040: a9dd a53d cf3b 66bb de0a b4be 511e cbbd
00000050: 1636 e0bc 6d6e 613d bf22 5cbc b8e4 cbbd
00000060: 8fa7 ba3d bbda 673a b2e5 8ebd 0eb5 213c
00000070: 5f3c 8a3d 39fe 2c3b afbd 6abd 9d39 a03c
00000080: 228d 02bd 7751 843d fe50 a2be 5e1e bcbc
00000090: de6b 8abd 79f0 c43b d04e ccbe c91b 72bd
000000a0: 0ac4 24bd 45c5 d6be e21a d1be a95b d1be
000000b0: 0220 aabe a139 14be ff3d debd 4879 2fbd
000000c0: d8fc d23b fd57 4ebb fb31 0d3d eecc 9a3a
000000d0: e37f a7be 8683 0fbe 3f20 61bc a11d 1cbd
000000e0: b0ad cebc 8c01 2e3e 614f 8b3d 3071 803b
000000f0: ccf3 113d b0e4 79be f3e7 cabe 2ae0 d53d
