Models/Reward_shaping_vm/ICM_reward_scale_095_0/22000.pth (torch, 78437 bytes, 11 tensors)

actor.0.weight f4 [64, 62]
0	0x3c9f3700	0.019435406
1	0x3d965ece	0.07342301
2	0xbdc4b3bb	-0.09604593
3	0x3dd20338	0.1025452
4	0xbe157c3d	-0.14598174
5	0xbe84471e	-0.25835508
6	0xbcedc197	-0.029022975
7	0x3bcadd4a	0.0061909305
8	0xbd19ad8d	-0.037519027
9	0x3d0d4591	0.03449017
10	0x3e892c98	0.26791835
11	0x3ee6d286	0.45082492
12	0x3e8dbbe5	0.27682415
13	0xbe8cb3dc	-0.27480972
14	0x3de31ea9	0.11089832
15	0x3e494373	0.19654636
16	0x3cb15260	0.021645725
17	0xbdee4512	-0.11634268
18	0xbd72dc94	-0.05929239
19	0xbd0121d8	-0.031526417
20	0xbd57effa	-0.052719094
21	0xbb903360	-0.0044006556
22	0x3c07b380	0.008282542
23	0x3d4c42f8	0.049868554
24	0x3db8117a	0.089877084
25	0xbaa73300	-0.0012756288
26	0x3c5092f0	0.012730345
27	0x3d5e5acc	0.05428581
28	0x3ca67278	0.020318255
29	0x3d16fe7f	0.0368638
30	0xbc5c2b5d	-0.013438073
31	0xbd13551c	-0.03596984
32	0x3cec39e8	0.028836206
33	0xbde305c4	-0.11085084
34	0x3cc72ac0	0.024312377
35	0xbd9542ac	-0.07288107
36	0xbe5dcab5	-0.21659358
37	0xbcbc4c74	-0.022985674
38	0x3d1f6e9c	0.038923845
39	0x3daced26	0.0844367
40	0x3d02fb04	0.03197767
41	0xbe77559f	-0.24153756
42	0xbe0006f8	-0.12502658
43	0x3d9b1db1	0.075740226
44	0xbe0b6a47	-0.1361476
45	0xbd96c95c	-0.07362625
46	0x3de8cc1d	0.113670565
47	0x3db7884a	0.08961542
48	0xbe59f08e	-0.2128317
49	0xbe371f50	-0.17883039
50	0x3e574f5c	0.21026367
51	0xbd0c313b	-0.034226637
52	0x3dcec8ac	0.10096869
53	0xbd31fab9	-0.043452
54	0x3d5f2ad3	0.0544842
55	0x3d9214f4	0.07132903
56	0xbe214bee	-0.15751621
57	0x3dc9003c	0.09814498
58	0xbda092d6	-0.07840507
59	0x3c8fa4cd	0.017534638
60	0xbd99fb65	-0.07518653
61	0x3dc9fb6e	0.098624095
62	0xbd94ec06	-0.072715804
63	0x3de2eec0	0.11080694
64	0x3dff72b0	0.12473047
65	0xbd77953c	-0.060445055
66	0xbdd38137	-0.1032738
67	0xbab7576e	-0.0013987848
68	0xbdcc911c	-0.09988615
69	0xbe35dbc9	-0.17759623
70	0x3da0c21d	0.07849524
71	0x3daca11c	0.08429167
72	0x3e93e9f4	0.2888943
73	0x3f07b758	0.53014135
74	0x3e70f757	0.23531853
75	0x3df3a8e0	0.11897445
76	0x3d9bdf0e	0.07610904
77	0xbca267cf	-0.01982489
78	0x3c0c97a0	0.008581072
79	0x3d599450	0.053119957
80	0xbcc9801c	-0.02459722
81	0xbbc64f70	-0.00605195
82	0xbd09acd6	-0.033612095
83	0x3daab08e	0.083344564
84	0xbd7cc5b0	-0.061711967
85	0xbdfe77f4	-0.12425223
86	0xbde5d5c7	-0.112224154
87	0x3b966be0	0.0045904964
88	0xbdfa44e9	-0.12220175
89	0x3df4acb2	0.119470015
90	0x3de1787a	0.11009307
91	0x3db17fc0	0.086669445
92	0xbd644b4f	-0.055735882
93	0xbc6e06a6	-0.014527952
94	0xbddf7b98	-0.109122455
95	0x3c50cc20	0.01274398
96	0xbc85fb1c	-0.01635509
97	0xbd157e02	-0.036497124
98	0x3d30ec8d	0.043194342
99	0x3d38f4de	0.0451554
100	0x3ca3992b	0.019970497
101	0x3c1fc7c5	0.009752219
102	0xbe913680	-0.28361893
103	0x3dfd0380	0.12354183
104	0xbd97bf98	-0.074095905
105	0x3db0f20e	0.08639918
106	0x3cf39f50	0.029739052
107	0x3cb1a130	0.021683306
108	0xbe289aa0	-0.16465235
109	0xbe21a210	-0.15784478
110	0xbccd6c20	-0.025075972
111	0xbd929623	-0.071575426
112	0xbdb904b0	-0.09034097
113	0xbc57e057	-0.013176045
114	0x3de43574	0.11143008
115	0xbe1def5e	-0.15423343
116	0x3e7f97be	0.24960229
117	0xbc1e907b	-0.0096780015
118	0x3d59a8a8	0.05313936
119	0x3e00345c	0.12519974
120	0x3e207af3	0.15671901
121	0x3d22d46e	0.03975337
122	0xbe80b6da	-0.25139505
123	0x3d158e04	0.03651239
124	0xbdc264aa	-0.094918564
125	0xbd3eb93a	-0.046563365
126	0xbd32e180	-0.043672085
127	0x3c6577a0	0.014005572
128	0xbd975efb	-0.07391163
129	0xbe498d0b	-0.1968271
130	0x3ea5f51c	0.32413566
131	0x3ecc8670	0.39946318
132	0xbdc31ace	-0.09526597
133	0xbdbfc76f	-0.09364211
134	0xbcbd1705	-0.023082266
135	0xbe595eed	-0.21227618
136	0xbd2e2950	-0.042519867
137	0xbe46b422	-0.19404653
138	0x3e89d61c	0.26921165
139	0x3ed2bd83	0.4116021
140	0x3d5fc2d4	0.054629162
141	0x3c9b4a10	0.018956214
142	0x3dc9f5d2	0.0986134
143	0xbd3002ee	-0.042971544
144	0x3b754580	0.0037425458
145	0xbcf06168	-0.029343322
146	0x3dfa4c80	0.122216225
147	0x3dd8e676	0.10590832
148	0xbd85035e	-0.06494783
149	0x3db186ba	0.08668275
150	0x3df780ca	0.120851114
151	0xbd8ca9ba	-0.0686831
152	0xbc8453d7	-0.01615326
153	0x3ddb930f	0.107214086
154	0x3cb31ff2	0.021865819
155	0x3e229380	0.1587658
156	0xbd4a1da0	-0.04934466
157	0xba9f1c80	-0.0012139231
158	0x3deafdac	0.11474165
159	0x3d919a28	0.07109481
160	0xbe98a5ea	-0.29814082
161	0xbde02f09	-0.10946471
162	0xbcac92dd	-0.021066124
163	0x3e66af61	0.22527839
164	0xbe399545	-0.18123348
165	0xbd09c884	-0.033638492
166	0xbe428b84	-0.18998533
167	0x3d1ff1f7	0.039049115
168	0xbe35cf56	-0.17754874
169	0xbe52ea7e	-0.20597264
170	0x3df51ca7	0.119683556
171	0xbd015479	-0.0315747
172	0xbe6d14a0	-0.23152399
173	0xbe86a122	-0.2629481
174	0x3d693fef	0.056945737
175	0x3dadc075	0.08483974
176	0x3d2f8780	0.042853832
177	0x3d9a517a	0.07535072
178	0xbdc35966	-0.09538536
179	0x3e09d1cd	0.13458939
180	0x3d52017e	0.051270954
181	0x3cd2e420	0.025743544
182	0xbd90fb85	-0.070792235
183	0x3b9d3d3d	0.00479856
184	0xbdda7e7f	-0.106686585
185	0xbd35dce6	-0.04440012
186	0x3cae1d78	0.021254286
187	0xbac69600	-0.0015150905
188	0xbde5413a	-0.111940816
189	0x3dd67bf0	0.10472858
190	0x3d45d484	0.048298374
191	0xbe349588	-0.17635167
192	0x3ec5a5c4	0.38603032
193	0x3eb6f0a3	0.35730466
194	0xbdfa3c2e	-0.122185096
195	0xb670c300	-3.5876292e-06
196	0xbd95a63f	-0.073070996
197	0xbdb372e6	-0.087621495
198	0xbcfe189a	-0.03101759
199	0xbea93532	-0.33048397
200	0x3ea754ef	0.32681987
201	0x3ea38bdd	0.31942645
202	0x3ce08790	0.027408391
203	0xbcf79dcc	-0.03022661
204	0x3dec8f7e	0.115508065
205	0xbd27e35a	-0.040988304
206	0x3d10b360	0.035327315
207	0xbc9f9b44	-0.019483216
208	0xbdb4ad08	-0.088220656
209	0xbdf61a76	-0.12016766
210	0xbdee69f5	-0.116413034
211	0x3c90b9d0	0.017666727
212	0x3b0d47c0	0.002155766
213	0xbdad3b30	-0.08458555
214	0x3d10947c	0.035297856
215	0x3d0219d9	0.03176293
216	0xbdb6890e	-0.0891286
217	0x3dbbae04	0.0916405
218	0xbc81cfbc	-0.015846126
219	0xbd059880	-0.03261614
220	0x3c79fbe0	0.015257806
221	0xbdb81253	-0.0898787
222	0xbe0ccd4f	-0.13750194
223	0xbe0ff256	-0.14057288
224	0xbd583831	-0.052787963
225	0x3d617bc9	0.05504969
226	0xbe0b36c2	-0.13595107
227	0xbe8b6676	-0.2722661
228	0xbdeda4ae	-0.11603676
229	0x3de5cb2f	0.11220395
230	0xbec44e0e	-0.383408
231	0xbe3787eb	-0.17922942
232	0x3e287c58	0.16453683
233	0x3e269207	0.16266643
234	0xbdca6db2	-0.09884204
235	0xbe8e4a87	-0.27791235
236	0x3d39896e	0.04529708
237	0xbd8559f4	-0.06511298
238	0x3ad67400	0.0016361475
239	0xbced388e	-0.028957631
240	0xbd72cd24	-0.05927767
241	0x3e06fc51	0.13182189
242	0xbc7acd6f	-0.015307768
243	0xbd9b1394	-0.075720936
244	0xbcea763c	-0.028620832
245	0xbe1f5281	-0.15558816
246	0xbd0bb278	-0.034105748
247	0x3df1f5f0	0.11814487
248	0x3d4124ec	0.047154352
249	0xbdefedc1	-0.1171527
250	0xbcad00d0	-0.021118551
251	0x3d47a8f4	0.04874511
252	0x3bb2ee12	0.005460509
253	0xbdff24c9	-0.12458188
254	0xbe17332f	-0.14765619
255	0xbe95784b	-0.2919334

actor.0.bias f4 [64]
0	0xbd16888b	-0.03675131
1	0x3dd9096a	0.10597499
2	0xbd3682db	-0.044558387
3	0x3cef9b82	0.029248957
4	0xbcb2f810	-0.021846801
5	0x3d8ef2a8	0.06979877
6	0x3ce81ba8	0.0283335
7	0x3d23e01d	0.040008653
8	0xbbe4684a	-0.00697044
9	0x3c29ee26	0.01037172
10	0x3cd0dcfd	0.025496
11	0xbca763dc	-0.020433359
12	0xbad00862	-0.0015871639
13	0xbe190202	-0.14942172
14	0x3db64b6b	0.089011036
15	0x3da5b02b	0.08090242
16	0x3dfec19d	0.124392726
17	0x3e0311ef	0.1279981
18	0x3d29d186	0.041459583
19	0xbcd1ff9d	-0.025634581
20	0x3d01533a	0.03157351
21	0xbd02dd8b	-0.03194956
22	0xbc4b75d6	-0.012418231
23	0xbd9b5e3a	-0.07586332
24	0xbde076ad	-0.109601356
25	0xbd5f0612	-0.05444915
26	0x3d3bcd46	0.04585006
27	0x3e6b5a09	0.22983564
28	0xbbb939e7	-0.0056526545
29	0x3de8f26b	0.113743626
30	0xbcc1939f	-0.023629962
31	0x3dcf7129	0.101290055
32	0x3e38eaf3	0.18058376
33	0x3e051028	0.12994444
34	0x3e0fccc7	0.1404296
35	0xbdb41903	-0.08793833
36	0x3c90999d	0.017651374
37	0x3da15b65	0.0787876
38	0x3e04fec3	0.12987809
39	0x3e058c95	0.13041909
40	0x3c45e61b	0.012078787
41	0x3e2dd640	0.16976261
42	0xbd561e6b	-0.052275103
43	0x3e3de2ed	0.18543597
44	0x3ded68ba	0.11592241
45	0x3d8b7804	0.068100005
46	0x3e046073	0.12927417
47	0x3cd70609	0.026247995
48	0x3e28e6b6	0.16494259
49	0x3c890df5	0.016730288
50	0x3e0eaf2f	0.13934015
51	0x3dad02fe	0.08447836
52	0x3d8e4ccb	0.06948241
53	0x3cc8f69e	0.024531659
54	0x3d3b9cda	0.045803882
55	0x3d7b89ff	0.0614109
56	0x3e0e9635	0.13924487
57	0xbc02f6a6	-0.007993376
58	0x3d939ed3	0.07208028
59	0x3e04f10a	0.12982574
60	0x3caa99e4	0.020825334
61	0x3cb69c13	0.022291219
62	0xbe4191c4	-0.18903261
63	0x3dc56f32	0.096403494

actor.2.weight f4 [64, 64]
0	0xbdb0228a	-0.08600338
1	0xbd83b41a	-0.06430836
2	0xbdb7bd7d	-0.08971689
3	0x3d9da622	0.07697703
4	0x3d26f210	0.040758193
5	0x3dc07244	0.093967944
6	0x3cb84a68	0.022496417
7	0xbbc8c120	-0.006126538
8	0x3d6fc984	0.05854179
9	0xbdb03f10	-0.08605778
10	0x3d941dec	0.0723227
11	0xbdf51d06	-0.119684264
12	0x3dbaaa30	0.09114492
13	0x3d136a64	0.035990134
14	0xbd0ec6d8	-0.0348576
15	0xbe08e19b	-0.13367312
16	0x3d800e4b	0.06252726
17	0xbdca6718	-0.09882945
18	0x3d9b7ba2	0.075919405
19	0xbd5a034b	-0.053225797
20	0x3dc9bd2f	0.09850537
21	0xbdd1ac68	-0.10237962
22	0xbdebd227	-0.11514693
23	0x3d0016e7	0.03127184
24	0xbdd1aea6	-0.1023839
25	0x3de999ba	0.11406274
26	0xbd181989	-0.037133727
27	0xbd0c0640	-0.034185648
28	0x3c5a1c50	0.013312414
29	0xbcf32c60	-0.029684246
30	0xbcf043d8	-0.029329225
31	0xbcb31b10	-0.02186349
32	0xbdcc8f64	-0.09988287
33	0xbdf31c38	-0.11870617
34	0xba6d35b3	-0.00090488343
35	0x3d9a8ebb	0.07546755
36	0xbdd90d06	-0.10598187
37	0xbcf6fd30	-0.030150026
38	0xbd905c60	-0.07048869
39	0xbb9f9413	-0.0048699467
40	0xbd929eb0	-0.071591735
41	0xbdded6b2	-0.10880794
42	0xbdb0a796	-0.086257145
43	0xbba91d80	-0.0051609874
44	0x3d59c44c	0.05316572
45	0xbd90c52a	-0.07068856
46	0x389bf5fb	7.4367934e-05
47	0xbcc857be	-0.024455901
48	0x3cc54d10	0.024084598
49	0xbcde2de0	-0.027121484
50	0xbdab2fb6	-0.083587095
51	0x3d5d756c	0.05406706
52	0x3c906da8	0.017630413
53	0xbe0865fa	-0.13320151
54	0xbd2d70d7	-0.04234394
55	0x3dd2ccf4	0.10292998
56	0x3d242df1	0.040082876
57	0xbd471dde	-0.048612468
58	0x3ca19adb	0.019727161
59	0xbe047c2c	-0.12937993
60	0x3db476da	0.08811732
61	0x3d8c50a7	0.06851321
62	0xbd8cddf0	-0.06878269
63	0x3b2f1c3e	0.0026719715
64	0xbd38ca64	-0.04511489
65	0xbea13921	-0.31488898
66	0x3e97c72c	0.29644144
67	0x3eb13e43	0.34617814
68	0xbdf9c059	-0.121948905
69	0x3c12680c	0.0089359395
70	0xbe29800e	-0.16552755
71	0x3caa0a2f	0.020756809
72	0x3e85a297	0.2610061
73	0xbc866a09	-0.016407983
74	0x3d8173c7	0.06320911
75	0xbe1487a3	-0.14504866
76	0xbe7c8ad4	-0.24662334
77	0xbec1a731	-0.3782287
78	0xbe88944d	-0.26675645
79	0x3e800f50	0.25011683
80	0xbe253725	-0.16134317
81	0x3d3a55f6	0.045492135
82	0x3e7da178	0.24768627
83	0x3e8e3e8d	0.27782097
84	0x3e3c1dcb	0.1837074
85	0x3ca1a36e	0.01973125
86	0x3c40db9a	0.011771107
87	0x3e0e54e3	0.13899569
88	0xba96b597	-0.001149821
89	0x3e3d1305	0.18464287
90	0x3e44dd9f	0.19225167
91	0x3d6d4d71	0.057935182
92	0x3d848220	0.06470132
93	0xbd475b4d	-0.048671056
94	0x3e6e30a6	0.23260745
95	0x3d802f7e	0.062590584
96	0xbe6788dd	-0.22610803
97	0x3e2eeed8	0.17083299
98	0x3e0aacee	0.1354253
99	0x3bd059af	0.0063583474
100	0x3d93b93c	0.07213065
101	0x3d7e845d	0.06213795
102	0xbf07c89c	-0.5304048
103	0xbdeb2e3e	-0.11483429
104	0x3e9b4be4	0.30331337
105	0x3df2fb41	0.11864329
106	0x3e425646	0.18978223
107	0xbdc68eec	-0.09695229
108	0xbe822c8a	-0.25424606
109	0xbe2ceb81	-0.16886713
110	0x3ed84767	0.42241976
111	0xbd752685	-0.05985119
112	0xbdd4bf7c	-0.10388085
113	0x3d9f5b2d	0.07781062
114	0x3e0a53bc	0.13508505
115	0x3e10d535	0.14143832
116	0xbe955124	-0.29163468
117	0xbb5729b2	-0.0032831249
118	0xbe003211	-0.12519099
119	0x3d662090	0.056183398
120	0x3e57ebe2	0.21086076
121	0x3e5533fe	0.20820615
122	0x3de31779	0.110884614
123	0xbddebb57	-0.10875576
124	0xbe384520	-0.17995119
125	0x3dbf6faf	0.09347474
126	0xbde9db2d	-0.114187576
127	0xbe3e8f65	-0.18609388
128	0xbe027cfb	-0.12742989
129	0x3dc910e0	0.09817672
130	0x3d819470	0.0632714
131	0x3db5ba17	0.088733844
132	0x3d627ff8	0.05529782
133	0x3dc898fc	0.097948045
134	0xbe288add	-0.16459222
135	0x3c43e3e6	0.011956191
136	0xbe1bb7cc	-0.15206832
137	0x3d9be648	0.07612282
138	0x3dfd5f26	0.12371664
139	0x3c3056ec	0.010762911
140	0xbddc74bf	-0.10764455
141	0x3dad9c7a	0.08477111
142	0xbdcf30be	-0.10116719
143	0xbd20fbb3	-0.03930254
144	0x3d86a3b4	0.06574193
145	0x3ce0ce59	0.027442144
146	0x3d2deeb9	0.04246399
147	0xbddb136e	-0.10697065
148	0x3dab4a60	0.08363795
149	0xbda8ebe0	-0.082481146
150	0xbdffe5ec	-0.12495026
151	0xbd6c10dc	-0.057633266
152	0xbd39c12e	-0.045350246
153	0xbc915bd1	-0.017743977
154	0xbd72d703	-0.059287082
155	0x3c95e66f	0.018298356
156	0xbe09e640	-0.1346674
157	0x3da4c589	0.08045489
158	0xbdb6453d	-0.08899925
159	0x3dcb97f1	0.0994109
160	0x3d911b58	0.070852935
161	0x3d92c9aa	0.071673706
162	0xbc8c7489	-0.017145412
163	0x3dd5f600	0.104473114
164	0x3dc4fb7f	0.096182816
165	0xbe165769	-0.14681782
166	0xbd980043	-0.07421925
167	0xbdd92244	-0.10602239
168	0xbe105ea1	-0.14098598
169	0x3d3cba3b	0.04607604
170	0x3d68cb31	0.056834403
171	0xbdd091d8	-0.101840675
172	0xbdea78d2	-0.11448826
173	0x3d7153e6	0.058917902
174	0xbda7b012	-0.081878796
175	0xbda1da8e	-0.07903014
176	0xbe0076ce	-0.1254532
177	0xbe08a58a	-0.13344398
178	0xbd956c9c	-0.07296106
179	0xbd58110c	-0.052750632
180	0xbd33635c	-0.04379593
181	0xbe022b3b	-0.12711804
182	0xbdb0ccaf	-0.0863279
183	0x3d1784ea	0.03699199
184	0xbcba9dcf	-0.022780327
185	0xbdd1cd7c	-0.10244271
186	0x3b0a8b8e	0.002114031
187	0xbe2517df	-0.16122387
188	0xbded5f15	-0.11590401
189	0xbdf763a9	-0.120795555
190	0xbd66057a	-0.056157567
191	0xbda71c62	-0.081597105
192	0xbdd497fa	-0.1038055
193	0xbd7ce731	-0.06174392
194	0x3ce834a2	0.02834541
195	0x3d85516b	0.0650967
196	0xbd172e92	-0.036909647
197	0x3e0d6f49	0.13811983
198	0x3be8a74f	0.007100023
199	0x3e0b4b2a	0.13602892
200	0x3dfe16b1	0.12406672
201	0x3d7adcde	0.06124579
202	0x3dcc7081	0.09982396
203	0xbe2d8d9e	-0.16948554
204	0xbe8099cf	-0.25117347
205	0xbd5e39c0	-0.054254293
206	0x3d2d2016	0.042266928
207	0x3b1d30a6	0.0023985296
208	0xbdef2b90	-0.11678231
209	0x3dedaf76	0.11605732
210	0x3e7c0d81	0.24614526
211	0xbde5fba4	-0.11229637
212	0x3d91978c	0.071089834
213	0x3e978ab2	0.29598004
214	0xbdd7deba	-0.105405286
215	0x3d1de80c	0.038551375
216	0x3df57276	0.11984722
217	0x3e44d0d7	0.19220291
218	0x3df204b1	0.11817301
219	0xbd6f7649	-0.058462415
220	0xbdcc86b6	-0.099866316
221	0xbe6faaf0	-0.23405051
222	0xbd8da985	-0.06917099
223	0xbdaf8e7f	-0.08572101
224	0x3e371f62	0.17883065
225	0xbe395b49	-0.18101229
226	0x3e41084a	0.18850818
227	0xbdb25ce7	-0.08709126
228	0x3e42fff3	0.1904295
229	0x3d4d9bf8	0.05019757
230	0x3e1d9d92	0.1539214
231	0x3d33ebe1	0.043926124
232	0x3db07cd2	0.086175576
233	0xbdc2dd05	-0.095148124
234	0xbe0c2cc0	-0.13688946
235	0xbd076ee7	-0.03306475
236	0xbd179766	-0.03700962
237	0xbb8f5e39	-0.004375246
238	0x3e052528	0.13002455
239	0x3e6cfbf2	0.23142985
240	0xbe074e76	-0.13213524
241	0xbe77bafc	-0.24192423
242	0xbda5ca06	-0.080951735
243	0x3de9917d	0.11404703
244	0x3df89df7	0.121395044
245	0x3d1af311	0.037829462
246	0xbb7c09f3	-0.0038458079
247	0xbb88d43a	-0.00417569
248	0x3e0f07a9	0.13967766
249	0x3e43a6be	0.19106576
250	0xbcaa4932	-0.020786855
251	0xbd95fffd	-0.073242165
252	0x3e661c04	0.22471625
253	0x3d3202ab	0.043459576
254	0xbe0142f7	-0.12623201
255	0xbd8ad713	-0.067793034

actor.2.bias f4 [64]
0	0xbe0d0f2a	-0.13775316
1	0x3c0d4efe	0.00862479
2	0xbd8dc5f9	-0.06922526
3	0x3da9ae42	0.0828519
4	0x3dcc4f85	0.09976105
5	0x3e2658d6	0.16244826
6	0x3de27733	0.11057892
7	0xbc461cbd	-0.012091813
8	0x3e0f604c	0.14001578
9	0x3d1d9879	0.038475487
10	0x3e16a09e	0.14709708
11	0x3e68618f	0.22693466
12	0x3d9363fe	0.07196806
13	0x3d412229	0.04715172
14	0xbd35c365	-0.044375796
15	0x3e5ee806	0.21768197
16	0x3db8d3da	0.090247825
17	0x3b305585	0.0026906442
18	0x3bb4f55b	0.0055224127
19	0x3d55e410	0.05221945
20	0xbdaed389	-0.08536441
21	0x3d7719d0	0.06032735
22	0x3db16255	0.086613335
23	0x3ccc2fc1	0.024925115
24	0xbbf65d7e	-0.0075184694
25	0x3e3550d9	0.17706622
26	0xbe169147	-0.14703856
27	0x3d079a34	0.033106044
28	0x3c93a56a	0.018023212
29	0xbdd4f1b1	-0.103976615
30	0x3bb17bf4	0.0054163877
31	0x3cb888a3	0.022526091
32	0xbd99ba7c	-0.07506272
33	0x3e044613	0.12917356
34	0x3d5a3943	0.053277265
35	0xbe02f6b4	-0.12789422
36	0x3e4b3613	0.19844846
37	0x3e01549f	0.12629937
38	0x3e66a2b2	0.22523001
39	0x39cef123	0.00039471043
40	0x3cd00484	0.025392778
41	0x3d9a493c	0.075334996
42	0x3d98071a	0.074232295
43	0x3dba3fd1	0.09094203
44	0x3dbcb21e	0.09213661
45	0x3e1ff385	0.15620239
46	0xbc8aabae	-0.016927566
47	0x3db9854f	0.0905863
48	0xbd0c5a44	-0.03426577
49	0x3d801d0a	0.06255539
50	0xbddfca78	-0.1092729
51	0xbd91e4ac	-0.07123694
52	0x3db2bed8	0.08727807
53	0x3d6c4542	0.057683237
54	0x3c91e14e	0.017807629
55	0x3e16813b	0.14697735
56	0x3d904e0f	0.070461385
57	0x3e25aafa	0.16178504
58	0xbd2e3816	-0.042533956
59	0x3e24c643	0.16091256
60	0x3d8b5154	0.068026215
61	0x3d1d532d	0.0384094
62	0xbd9c77da	-0.07640047
63	0xbdc522e8	-0.096257985

actor.4.weight f4 [36, 64]
0	0x3df31393	0.11868968
1	0x3f0c9c02	0.5492555
2	0xbdd41fc6	-0.10357623
3	0x3e19742a	0.1498572
4	0x3dc12072	0.094300166
5	0xbe0bc036	-0.13647541
6	0xbeb13a66	-0.34614867
7	0xbe402811	-0.18765284
8	0x3dc2a62a	0.095043495
9	0xbe108443	-0.14112954
10	0x3e74319b	0.23847048
11	0xbe861659	-0.26188925
12	0xbef9434f	-0.48684165
13	0xbda0855a	-0.07837935
14	0xbe362edd	-0.17791314
15	0x3e225437	0.15852438
16	0xbdcc3c38	-0.09972423
17	0xbe34a2c9	-0.17640223
18	0xbf207fbf	-0.62694925
19	0x3df76ee5	0.12081698
20	0x3dcb449a	0.09925194
21	0xbf095df4	-0.53658986
22	0xbe952ffb	-0.2913817
23	0x3e5ed845	0.21762188
24	0xbe99d7ca	-0.30047446
25	0xbf16f360	-0.5896511
26	0xbdb9e842	-0.09077503
27	0x3ee94876	0.45563096
28	0xbc5f663e	-0.013635216
29	0x3d193dfa	0.03741262
30	0x3e20bf47	0.15697967
31	0xbe0c47c0	-0.13699245
32	0x3d632134	0.055451587
33	0x3e3a2e3f	0.18181704
34	0xbdd44c5c	-0.10366127
35	0x3df2a37c	0.118475884
36	0xbe5a0ab6	-0.21293148
37	0x3dc4017a	0.09570594
38	0xbf03c1de	-0.5146769
39	0x3e87bd30	0.26511526
40	0xbc8d2ec0	-0.017234206
41	0x3e6ba3dc	0.23011726
42	0x3d62ff37	0.055419173
43	0xbea4e762	-0.3220778
44	0x3ed48a8a	0.41511947
45	0xbe0e69e4	-0.13907582
46	0xbeaaee26	-0.33384818
47	0x3eb6debf	0.35716817
48	0x3f0c139f	0.5471744
49	0x3d3e2b14	0.0464278
50	0xbda297bf	-0.079390995
51	0x3eb3dc0c	0.3512882
52	0xbeac0953	-0.33600864
53	0xbe1c9f61	-0.15295173
54	0x3d19159e	0.03737413
55	0x3d4be11d	0.04977523
56	0xbd566798	-0.05234489
57	0x3d6ea988	0.058267146
58	0xbe1a973c	-0.15096754
59	0xbeccb8b9	-0.39984682
60	0xbdcbc0d1	-0.09948886
61	0x3dc0fbab	0.09423002
62	0xbea4c6a7	-0.3218281
63	0x3bb2c411	0.005455502
64	0xbdc0e2c5	-0.09418253
65	0xbeaf9def	-0.3430018
66	0xbcdaeb40	-0.026723504
67	0xbe02fc41	-0.1279154
68	0xbea05e81	-0.313221
69	0xbf0d3aa9	-0.55167633
70	0x3e88bc1e	0.26706022
71	0x3d0a48f1	0.03376097
72	0x3e4e2234	0.20130235
73	0x3c18ef2e	0.009334369
74	0xbdad3ba8	-0.08458644
75	0xbf1415a6	-0.5784553
76	0x3eace54c	0.3376869
77	0x3e92a88e	0.28644222
78	0x3c76fa3c	0.015074309
79	0xbef15580	-0.47135544
80	0xbe49e846	-0.19717512
81	0xbd30079c	-0.042976007
82	0x3dcff065	0.101532735
83	0x3d8a9f5f	0.06768679
84	0xbcbdbaec	-0.02316042
85	0xbe775d75	-0.24156745
86	0x3de6d7bd	0.112716176
87	0xbe9635dd	-0.2933797
88	0x3e8882e0	0.2666235
89	0xbeaea477	-0.34109852
90	0x3dca2faf	0.09872376
91	0x3d930bf5	0.07180015
92	0x3d811bf6	0.06304161
93	0x3d1f0603	0.038824093
94	0xbe0707cb	-0.13186567
95	0x3ce4685a	0.02788179
96	0x3dd00c88	0.1015864
97	0xbefb01e4	-0.4902488
98	0x3be189ca	0.006882881
99	0x3d9f543b	0.077797376
100	0xbcc6578a	-0.024211664
101	0x3e085c26	0.13316402
102	0xbe05b632	-0.13057783
103	0x3b33f916	0.00274617
104	0x3df460a7	0.119324975
105	0xbe648bcb	-0.22318952
106	0x3da39bfe	0.079887375
107	0xbe32b10a	-0.17450348
108	0xbe3bb235	-0.183297
109	0xbeef0787	-0.4668543
110	0x3eb1b015	0.34704652
111	0x3eac21ce	0.3361954
112	0xbe38031c	-0.17969936
113	0x3c311195	0.010807415
114	0x3e0868c4	0.13321215
115	0xbdd4abeb	-0.10384353
116	0xbe5d5a70	-0.2161653
117	0x3e859975	0.2609364
118	0x3e1ec2a1	0.15503933
119	0x3e9bbfe0	0.30419827
120	0xbecae3fe	-0.3962707
121	0xbeea94c7	-0.45816633
122	0x3dea5909	0.11442763
123	0xbe4bfbc4	-0.1992026
124	0x3e73d0ad	0.23810072
125	0x3d146cdd	0.036236633
126	0x3e7dc47e	0.24781987
127	0x3d3a448d	0.04547553
128	0xbdbefa6b	-0.09325107
129	0x3e490f1c	0.1963467
130	0x3c5e63c0	0.013573587
131	0x3d8e1008	0.069366515
132	0x3e8d4864	0.27594292
133	0xbeba4c93	-0.36386546
134	0xbcd470e1	-0.025932731
135	0x3e9574de	0.29190725
136	0xbebd0810	-0.36920214
137	0x3e68459f	0.22682808
138	0xbdb2aada	-0.087239936
139	0xbe8346bc	-0.25639904
140	0x3e70fe7d	0.2353458
141	0x3d5ace77	0.053419556
142	0xbd48becd	-0.049010087
143	0xbe2b19a3	-0.16708998
144	0xbdd3179a	-0.10307236
145	0x3d2c4b8f	0.042064246
146	0x3e08dc15	0.13365205
147	0xbec8dd86	-0.3923151
148	0x3d83c191	0.06433404
149	0xbebf0acc	-0.37312925
150	0xbe863520	-0.26212406
151	0x3e7e7cd4	0.24852306
152	0xbed60b67	-0.41805574
153	0xbe2b35ee	-0.16719791
154	0xbc85000e	-0.016235378
155	0xbc122d6b	-0.008921961
156	0x3d85df34	0.06536713
157	0xbd0e95dc	-0.034810886
158	0x3eb54788	0.35406137
159	0xbe1d2296	-0.15345225
160	0x3e68d289	0.22736563
161	0x3e9e325e	0.30897802
162	0x3e97d693	0.29655895
163	0x3dfb9bad	0.12285552
164	0xbed7122b	-0.4200605
165	0x3e95d4cd	0.29263917
166	0xbedaa7df	-0.427062
167	0x3c40d5c5	0.011769717
168	0xbd85bd94	-0.065303
169	0xbe5c5976	-0.21518502
170	0xbebfa9f5	-0.37434354
171	0xbecc3b97	-0.39889213
172	0x3e91ac7d	0.2845191
173	0xbecc7300	-0.39931488
174	0xbe2e162d	-0.17000647
175	0xbcd1904e	-0.025581505
176	0x3e7868eb	0.24258773
177	0xbdab7cde	-0.08373426
178	0x3d3ee2e0	0.046603084
179	0xbd64a3dd	-0.055820335
180	0xbe8d7f16	-0.2763602
181	0x3e958829	0.29205444
182	0x3ea959a6	0.3307621
183	0x3e295561	0.16536476
184	0xbe5186c7	-0.2046157
185	0xbee07cf7	-0.4384534
186	0x3e991bd2	0.29904038
187	0xbe9acc55	-0.30234018
188	0xbdf4b5f4	-0.11948767
189	0xbd78c9d8	-0.06073937
190	0xbedd9672	-0.43278843
191	0x3e821cc7	0.2541258
192	0xbd432901	-0.047646526
193	0xbddc716b	-0.1076382
194	0x3dac2897	0.084061794
195	0x3e239c16	0.15977511
196	0x3e2b3618	0.16719854
197	0x3dff2ad7	0.12459343
198	0x3c49dffa	0.012321467
199	0x3e7f7367	0.24946366
200	0xbec7526f	-0.3893008
201	0x3e8411b8	0.25794768
202	0x3d664485	0.05621769
203	0xbd30d780	-0.043174267
204	0xbce5dc1c	-0.028059058
205	0x3e46a1dc	0.19397682
206	0x3da950bd	0.08267353
207	0xbe9cf7ca	-0.30657798
208	0x3cd9da1e	0.026593264
209	0x3d559d17	0.052151766
210	0xbcecc456	-0.028902214
211	0x3e2cef70	0.16888213
212	0xbd0e8600	-0.03479576
213	0x3c522438	0.012826018
214	0xbe859715	-0.2609183
215	0x3e0826a6	0.13295993
216	0x3e0f098d	0.13968487
217	0xbe67037d	-0.22559924
218	0x3dd96c11	0.10616315
219	0xbe95df6d	-0.29272023
220	0xbdd7dd8c	-0.105403036
221	0x3cae7b5b	0.021299055
222	0x3e853bc3	0.26022157
223	0x3e3b107a	0.18268004
224	0x3e82fec7	0.25585005
225	0x3e1fb577	0.15596567
226	0x3e772557	0.24135338
227	0xbd887e0b	-0.06664666
228	0xbe93665c	-0.28789032
229	0x3d4086a8	0.04700342
230	0xbe56a361	-0.20960762
231	0x3e79c261	0.24390556
232	0xbd031c77	-0.032009568
233	0xbe82534f	-0.25454184
234	0xbdba7372	-0.09104051
235	0xbdcbf46a	-0.09958728
236	0xbcb7c44f	-0.022432474
237	0xbe228162	-0.15869668
238	0xbe35a94b	-0.17740361
239	0xbdac3163	-0.08407857
240	0xbd88782d	-0.06663547
241	0xbd39f54d	-0.045399953
242	0x3d1e9b49	0.03872231
243	0x3dfc9eb1	0.123349555
244	0xbe15c3c7	-0.14625464
245	0x3e4238f5	0.1896704
246	0xbd120956	-0.035653435
247	0xbec7e2c1	-0.39040187
248	0xbc854d78	-0.016272292
249	0xbeace539	-0.33768633
250	0xba2b87c9	-0.0006543366
251	0xbd7d9f08	-0.061919242
252	0xbaf770fc	-0.0018878276
253	0xbd54a5b1	-0.05191583
254	0x3e07d277	0.1326388
255	0x3e2cfcad	0.16893263

actor.4.bias f4 [36]
0	0xbc283010	-0.010265365
1	0xbdd65d51	-0.104670174
2	0x3c968249	0.018372672
3	0xbe13782e	-0.14401314
4	0x3e275069	0.16339268
5	0x3db75a18	0.08952731
6	0x3d3fe840	0.04685235
7	0x3bfb3b9b	0.0076670176
8	0x3deaeb5f	0.11470675
9	0xbd29fe67	-0.041502383
10	0x3e1b78bc	0.15182775
11	0xbcd119d7	-0.025525017
12	0x3ca3dab8	0.020001754
13	0xbc7dc9ef	-0.015490039
14	0xbd73f273	-0.05955739
15	0x3c09a390	0.008400813
16	0xbe3d73d4	-0.18501216
17	0xbe5c72aa	-0.21528116
18	0xbe79f12c	-0.24408406
19	0xbdee018c	-0.11621389
20	0xbe424ae6	-0.18973884
21	0x3dc3dc1c	0.09563467
22	0x3d9b47fc	0.07582089
23	0xbd8e9e9f	-0.06963848
24	0x3defd496	0.117104694
25	0xbc7a0fee	-0.015262587
26	0xbbbd33c2	-0.0057739923
27	0x3cf7841e	0.030214366
28	0xbd065c96	-0.03280314
29	0x3d585861	0.05281866
30	0x3db99843	0.09062245
31	0x3d17783d	0.036979903
32	0xbd8fdb8c	-0.07024297
33	0xbe3257e8	-0.17416346
34	0x3e011314	0.12604934
35	0x3e39771d	0.18111844

critic.0.weight f4 [64, 62]
0	0x3cf82760	0.030292213
1	0xbdc72535	-0.097238936
2	0xbc3d02a8	-0.011536278
3	0xbdfcb1c0	-0.123385906
4	0x3dab8344	0.08374646
5	0xbe03e597	-0.1288055
6	0xbd8574a1	-0.06516386
7	0xbd6af5e0	-0.05736339
8	0x3d657dc2	0.056028135
9	0x3d8444b5	0.06458417
10	0xbd1e5fce	-0.038665585
11	0xbc90b2ec	-0.017663442
12	0xbdea35fe	-0.114360794
13	0x3e181b4f	0.14854167
14	0x3d32f9a3	0.043695103
15	0xbd6fcd35	-0.05854531
16	0xbdeedd17	-0.11663263
17	0xbdf86014	-0.121277004
18	0xbda16920	-0.07881379
19	0xbddef32a	-0.108862236
20	0x3d8a13ac	0.06742033
21	0xbddae483	-0.106881164
22	0x3b0eddc0	0.0021799654
23	0xbd73fbc6	-0.05956628
24	0x3da4b072	0.08041467
25	0xbbb60e00	-0.005555868
26	0xbd7af924	-0.061272755
27	0xbdcb70e0	-0.099336386
28	0xbd9d0d68	-0.07668573
29	0x3d8c4b76	0.068503305
30	0xbbd2e577	-0.0064360457
31	0xbcdc0f68	-0.026862815
32	0xbdfcafa8	-0.12338191
33	0xbd1acaee	-0.037791185
34	0x3dff6a9c	0.12471506
35	0xbcd8f46c	-0.026483737
36	0xbc150cdb	-0.009097303
37	0xbda14adf	-0.07875609
38	0x3c01a757	0.007913432
39	0x3ccb16ad	0.024791086
40	0xbde9afe9	-0.11410505
41	0xbc265627	-0.010152376
42	0xbcf04fc6	-0.029334914
43	0x3dc72982	0.09724714
44	0x3d37ddb9	0.044889186
45	0xbe09bbbb	-0.1345052
46	0x3dda8198	0.10669249
47	0x3ca7064a	0.020388741
48	0x3bc9f0d1	0.0061627408
49	0x3dcef5f7	0.10105508
50	0xbe013844	-0.1261912
51	0xbdaa44f3	-0.08313932
52	0x3d072b08	0.033000022
53	0xbc98e9f7	-0.01866625
54	0x3b78c9e5	0.0037962135
55	0xbd501c6a	-0.050808348
56	0xbdcf167b	-0.1011171
57	0x3df623d6	0.12018554
58	0xbe1c8ac3	-0.15287308
59	0xbd773b4b	-0.06035928
60	0xbd009344	-0.031390443
61	0xbe14448f	-0.14479278
62	0xbab6e080	-0.0013952404
63	0xbcb10f24	-0.021613665
64	0x3bb7e8c0	0.0056124628
65	0xbdac5f4c	-0.08416614
66	0x3d983bc0	0.074332714
67	0x3e864732	0.26226193
68	0x3d78cfd2	0.060745068
69	0x3d8d4539	0.06897969
70	0xbe96ef3d	-0.294794
71	0xbe8a6fc7	-0.27038404
72	0x3d503fb0	0.050841987
73	0xbb4ccb7a	-0.0031249211
74	0x3c8696a5	0.016429255
75	0x3d323615	0.043508608
76	0x3d633c2f	0.055477317
77	0x3c4613a6	0.0120896455
78	0xbd9a073c	-0.07520911
79	0x3d8bf6b2	0.06834163
80	0xbc1bd720	-0.009511739
81	0x3d2e8240	0.042604685
82	0x3d9dce10	0.07705319
83	0x3c889160	0.016670883
84	0x3d2928b4	0.041298583
85	0xbc0e0528	-0.0086682215
86	0xbd411aa4	-0.047144547
87	0xbcdc2938	-0.026875123
88	0xbc707860	-0.014677137
89	0x3d6d7a9c	0.057978258
90	0xbbc29f32	-0.0059393877
91	0xbe299875	-0.16562064
92	0x3e0f4e1f	0.13994645
93	0x3e520065	0.20507963
94	0xbdb4a0aa	-0.08819707
95	0x3dbc86be	0.092053875
96	0x3d5752ec	0.052569315
97	0xbd996d2e	-0.074915275
98	0xbea5564a	-0.32292396
99	0xbcfe2755	-0.031024614
100	0x3ddbc182	0.10730268
101	0xbe004f37	-0.12530218
102	0xbd768fca	-0.06019572
103	0xbc346246	-0.011009758
104	0xbe27a9f7	-0.1637343
105	0xbd7e2a97	-0.062052336
106	0xbdabf492	-0.083962575
107	0xbcf6a75e	-0.030109104
108	0x3d1b4322	0.03790582
109	0x3adb2176	0.0016718346
110	0xbdd69f1a	-0.10479565
111	0x3e0939d4	0.13400966
112	0xbc64af86	-0.013957864
113	0xbe48bd95	-0.1960357
114	0x3ca2d708	0.019877926
115	0xbdde4e35	-0.108547606
116	0xbde86ec3	-0.11349251
117	0x3e12e43b	0.14344876
118	0x3e34832a	0.1762816
119	0x3d2618a4	0.040550843
120	0x3d7e62ad	0.062105823
121	0x3ccef549	0.025263445
122	0xbbf81522	-0.0075708786
123	0x3ca74147	0.020416869
124	0xbdd8e829	-0.10591156
125	0xbdd37690	-0.103253484
126	0xbcb55220	-0.022133887
127	0xbdf8a6ab	-0.121411644
128	0xbd5e0570	-0.054204404
129	0xbe5b6776	-0.21426186
130	0x3d5bc160	0.053651214
131	0xbe04b067	-0.12957917
132	0xbe3f2211	-0.18665339
133	0xbdf79cb0	-0.12090433
134	0xbd17ea0c	-0.03708844
135	0xbe8ecfa7	-0.278928
136	0x3e1ed45f	0.155107
137	0x3e358469	0.17726292
138	0xbe1f9354	-0.15583545
139	0xbd714991	-0.05890805
140	0x3dd922b4	0.10602322
141	0x3d0f82dc	0.035036907
142	0x3c0852b0	0.0083204955
143	0x3de6e010	0.11273205
144	0xbca7a4d4	-0.020464338
145	0xbda5d16f	-0.08096587
146	0xbd02f3ae	-0.031970672
147	0x3d2f0508	0.042729408
148	0xbcaff554	-0.021479286
149	0x3ce7b7f8	0.028285965
150	0x3cca83d8	0.024721071
151	0xbdec1a7e	-0.115284905
152	0x3e54c6eb	0.20779006
153	0xbce95be5	-0.028486202
154	0xbc79cab8	-0.015246086
155	0x3e77f259	0.24213542
156	0xbdcd514a	-0.1002527
157	0x3c05b1c0	0.008160055
158	0xbd468bbc	-0.048473105
159	0x3d281fb0	0.041045845
160	0xbd97ea6f	-0.074177615
161	0xbc419a51	-0.011816577
162	0xbe0d25dc	-0.13783973
163	0xbe1e8eb9	-0.15484132
164	0x3c24233d	0.010018167
165	0x3e428ed9	0.18999805
166	0xbd858970	-0.06520355
167	0xbdc1fe67	-0.094723515
168	0xbe00f351	-0.12592818
169	0xbdeb6c8e	-0.114953145
170	0x3df641f4	0.12024298
171	0x3b7b1303	0.0038310892
172	0xbd2bec75	-0.04197355
173	0xbdad3265	-0.084568776
174	0xbd22493e	-0.03962063
175	0x3c27c6aa	0.010240236
176	0x3d8755e2	0.06608178
177	0xbd735e90	-0.059416354
178	0x3c5fa420	0.01364997
179	0xbd14dbc3	-0.036342394
180	0x3e76e39b	0.24110262
181	0xbdbbac77	-0.091637544
182	0xbe106bdf	-0.1410365
183	0xbd8455cc	-0.06461677
184	0xbdc8d179	-0.09805579
185	0xbe11cc95	-0.14238198
186	0x3d95d80a	0.07316597
187	0x3d995094	0.07486072
188	0x3da14b84	0.078757316
189	0x3b0a5ac0	0.002111122
190	0x3dba8052	0.091065064
191	0x3d8a0339	0.06738896
192	0xbe598b11	-0.21244456
193	0xbe156d61	-0.14592506
194	0x3d5c6802	0.053810127
195	0xbb5e6a72	-0.0033937958
196	0xbe7b894e	-0.24564096
197	0xbe8aa905	-0.27082077
198	0xbdc1884a	-0.09449823
199	0xbc4d4e68	-0.012530901
200	0x3dc1e028	0.094665825
201	0x3db846b0	0.089978576
202	0x3d363048	0.04447964
203	0x3d6c8e80	0.057753086
204	0xbd854bbe	-0.06508587
205	0xbcab27ac	-0.02089294
206	0xbdee2162	-0.11627461
207	0xbdcd474f	-0.10023367
208	0x3db46c04	0.08809665
209	0xbd0953fc	-0.03352736
210	0xbdbf4c60	-0.09340739
211	0xbdde5e60	-0.10857844
212	0x3cda4000	0.026641846
213	0x3dd41a44	0.10356572
214	0x3c016369	0.007897236
215	0x3dffe952	0.12495674
216	0x39f98ca3	0.00047597763
217	0xbd305828	-0.043052822
218	0x3cb5e660	0.022204578
219	0x3d2729a8	0.04081121
220	0xbd558310	-0.052126944
221	0x3da02e2a	0.07821305
222	0xbe4b0d44	-0.19829279
223	0xbb344d06	-0.002751173
224	0xbdc8fd7e	-0.09813975
225	0xbe5cef91	-0.21575762
226	0xbd583ce3	-0.05279244
227	0xbe03ccc7	-0.12871085
228	0xbd6a5ae3	-0.057215583
229	0xbdb2413d	-0.087038495
230	0xbdeb38a0	-0.1148541
231	0xbdbfd079	-0.09365935
232	0x3d438a9a	0.047739603
233	0xbdbc9c40	-0.0920949
234	0xbddec5e2	-0.10877587
235	0xbd69ff7b	-0.05712841
236	0x3dd87511	0.10569204
237	0xbd76f29b	-0.06028996
238	0xbcb1e638	-0.021716222
239	0xbd98056a	-0.07422908
240	0xbdf44ee8	-0.11929113
241	0xbcbb624e	-0.022874024
242	0xbd917409	-0.0710221
243	0x3d5ff414	0.05467613
244	0xbbf5ef46	-0.0075053303
245	0xbcbfdedf	-0.023421703
246	0xbdbf9ced	-0.09356103
247	0xbda03f75	-0.078246035
248	0x3b634780	0.0034680068
249	0xbd8fc7c0	-0.07020521
250	0x3c1790a0	0.00925079
251	0x3da0a14c	0.07843265
252	0xbe2e7308	-0.17036068
253	0xbe140f49	-0.14458956
254	0xbdf639cf	-0.12022745
255	0xbe6c438d	-0.23072644

critic.0.bias f4 [64]
0	0xbe199d73	-0.15001468
1	0xbd5bf210	-0.053697646
2	0x3cc2e597	0.023791118
3	0x3e23f956	0.16013083
4	0x3d907ffc	0.07055661
5	0xbcfbe799	-0.030750083
6	0x3c8201a9	0.015869932
7	0xbd1521b2	-0.036409087
8	0xbd29a490	-0.041416705
9	0x3de4dc47	0.11174827
10	0xbcc097bd	-0.023509854
11	0xbdd6d4a8	-0.1048978
12	0x3e15c32c	0.14625233
13	0xbe371a0b	-0.17881028
14	0x3dc2d193	0.09512629
15	0x3d180724	0.037116185
16	0x3d28cbdc	0.04121004
17	0x3e17627f	0.14783667
18	0xbde44dd5	-0.11147658
19	0x3d90ac0f	0.070640676
20	0xbd653b5f	-0.055964824
21	0x3e1a0479	0.15040769
22	0x3c3253fa	0.010884279
23	0xbe2051a8	-0.1565615
24	0x3dbbfd3f	0.09179162
25	0xbda1037f	-0.07861995
26	0xbbeca4b8	-0.0072217844
27	0xbdf53149	-0.11972291
28	0xbcf63db8	-0.030058727
29	0xbddebe59	-0.1087615
30	0xbe0d40f1	-0.13794304
31	0xbde1864b	-0.110119425
32	0xbd97570c	-0.0738965
33	0xbd9fa365	-0.07794837
34	0xbe37e600	-0.17958832
35	0x3e331872	0.17489794
36	0xbe38ecde	-0.18059108
37	0xbc8b8b6a	-0.017034251
38	0xbe03d0d0	-0.12872624
39	0xbd99f24b	-0.07516917
40	0x3dcf7af3	0.101308726
41	0xbe3ad6f2	-0.18246058
42	0xbc952b48	-0.018209115
43	0xbe1b7b78	-0.15183818
44	0xbe070739	-0.13186349
45	0xbc2b0d3c	-0.010440167
46	0xbd506500	-0.05087757
47	0xbb82f35c	-0.003996296
48	0x3cb8f8fa	0.022579659
49	0xbdfacfd2	-0.1224667
50	0xbd79cb6c	-0.060985014
51	0x3da90acd	0.08254013
52	0xbc2c65f8	-0.010522358
53	0xbe21342a	-0.15742555
54	0xbe28c7f5	-0.16482528
55	0xbd0bd1b0	-0.03413552
56	0xbd8fa756	-0.07014339
57	0xbe01528d	-0.12629147
58	0xbda1bb4e	-0.07897054
59	0xbe0e90bf	-0.13922404
60	0xbd444ceb	-0.047924917
61	0xbc6c007e	-0.014404414
62	0xbdbf98ec	-0.093553394
63	0x3e183aac	0.14866132

critic.2.weight f4 [64, 64]
0	0xbcaac1d7	-0.020844383
1	0x3df2582c	0.11833224
2	0x3d5d7739	0.054068778
3	0xbdcedc31	-0.10100592
4	0x3d4d7118	0.050156683
5	0x3da8c951	0.08241523
6	0x3d32af7d	0.04362439
7	0x3e0c2412	0.13685635
8	0x3e3d71fb	0.18500511
9	0x3c4e12f1	0.012577758
10	0x3caac32f	0.020845024
11	0xbdcc4504	-0.09974101
12	0xbaed76e7	-0.0018117101
13	0x3d2410b7	0.040055003
14	0xbe5c7994	-0.21530753
15	0x3ca3f92a	0.020016272
16	0xbe6a0b01	-0.2285576
17	0xbea48a0b	-0.32136568
18	0x3ddd2e6c	0.1079987
19	0x3df5642a	0.119819954
20	0x3e05ead3	0.1307786
21	0xbbb99f8b	-0.005664771
22	0x3e472bd8	0.19450319
23	0xbb868368	-0.0041050203
24	0x3d303e90	0.043028414
25	0xbdcf446c	-0.10120472
26	0x3e4ab363	0.19794993
27	0x3d9fabb6	0.07796423
28	0x3de684fd	0.11255834
29	0xbc185a51	-0.009298877
30	0xbd9c5eed	-0.07635293
31	0x3db49ae0	0.088186026
32	0x3e5db959	0.21652736
33	0xbd9f43a5	-0.07776574
34	0x3da04d74	0.07827273
35	0xbe88b516	-0.26700658
36	0xbe07b666	-0.13253173
37	0x3d965db9	0.07342095
38	0x3cc0d6bf	0.023539899
39	0x3dd6ae4b	0.104824625
40	0x3e13a3de	0.14417979
41	0x3d5aed79	0.053449128
42	0x3d9d1b5c	0.07671234
43	0x3dfbcdbb	0.12295099
44	0x3a3a9b3b	0.0007118468
45	0xbcdd8da8	-0.027045086
46	0xbdfb7eac	-0.1228002
47	0xbddf5829	-0.10905487
48	0x3dc19c9b	0.09453698
49	0xbe1150d4	-0.1419099
50	0xbc8bdd6e	-0.01707336
51	0x3e27cb7d	0.16386218
52	0xbe4bb04b	-0.19891469
53	0x3cc19e7c	0.023635142
54	0x3e0bdaa3	0.13657622
55	0xbca182fa	-0.019715775
56	0xbd0adeef	-0.033904012
57	0x3db1e259	0.086857505
58	0x3d3a9ea4	0.045561448
59	0x3d876496	0.06610982
60	0x3da10624	0.07862499
61	0x3d743411	0.059619967
62	0x3e14294b	0.14468877
63	0x3d94d728	0.072676
64	0xbd4e5f3f	-0.050383803
65	0x3e294548	0.16530335
66	0x3cb69750	0.022288948
67	0x3e0f61a9	0.14002098
68	0xbdf919c9	-0.12163121
69	0x3dad1ac3	0.0845237
70	0x3e57a480	0.21058846
71	0x3e5a8c23	0.2134252
72	0x3e6d9f98	0.23205411
73	0x3cbf389e	0.023342427
74	0x3d87e0ed	0.06634698
75	0x3e049977	0.12949167
76	0x3b88123d	0.004152565
77	0x3ccb6e9b	0.024833014
78	0xbe2811d0	-0.16413045
79	0x3c42e79b	0.011896039
80	0xbe2bf445	-0.167924
81	0xbe487966	-0.1957756
82	0x3e4c61dd	0.19959207
83	0x3e13e3fd	0.1444244
84	0x3cce2248	0.025162831
85	0x3c1c2d3e	0.009532271
86	0x3e61b244	0.22040659
87	0xbd97711f	-0.07394623
88	0x3d398d66	0.045300864
89	0xbd90f4f3	-0.0707797
90	0x3e2ece50	0.1707089
91	0xbca476a9	-0.020076113
92	0x3d95a5e1	0.073070295
93	0x3d3bc062	0.045837767
94	0xbd524527	-0.05133548
95	0x3d75ee76	0.060041867
96	0x3e6717dc	0.22567695
97	0x3e184247	0.14869033
98	0x3dec9b8e	0.11553107
99	0xbda86f44	-0.08224347
100	0xbced4294	-0.028962411
101	0x3d8af2a9	0.06784565
102	0x3dd22e01	0.10262681
103	0x3d4a3700	0.04936886
104	0x3e4a5f57	0.19762932
105	0x3d933b37	0.07189029
106	0x3bfbae50	0.007680692
107	0xbbce1a28	-0.006289739
108	0x3d47cd6d	0.048779894
109	0x3cadee16	0.021231692
110	0xbdf7569e	-0.12077068
111	0x3e332f2f	0.17498468
112	0x3cf2593f	0.029583571
113	0xbd88c2d9	-0.06677789
114	0x3e03a2be	0.1285505
115	0x3d2483bd	0.040164698
116	0x3af16377	0.0018416484
117	0x3e0c77f5	0.13717635
118	0x3ca1da1d	0.019757325
119	0x3e351220	0.17682695
120	0xbd9ae459	-0.07563085
121	0x3e425ff5	0.18981917
122	0x3e063811	0.13107325
123	0xbc0219e3	-0.007940742
124	0x3d867608	0.065654814
125	0x3dc97479	0.098366685
126	0x3e32f456	0.1747602
127	0x3dba4721	0.09095598
128	0xbd8173c2	-0.06320907
129	0xbc5b519d	-0.013386157
130	0xbdac48ae	-0.084123
131	0xbbdd6d26	-0.0067573963
132	0x3d7ea5ee	0.06216996
133	0x3de81a29	0.11333115
134	0x3d30d935	0.043175895
135	0xbe38515e	-0.17999789
136	0xbe069bfd	-0.13145442
137	0x3d164d06	0.03669455
138	0x3e135193	0.14386587
139	0xbd0d94c6	-0.03456571
140	0x3c2916c2	0.010320367
141	0xbdbaecfc	-0.091272324
142	0x3cc03336	0.02346192
143	0xbde0cc80	-0.10976505
144	0x3e0153c2	0.12629607
145	0xbe0e5ded	-0.13903017
146	0xbdcd229f	-0.10016369
147	0xbdbfb14f	-0.09359991
148	0x3c45c0ee	0.012069924
149	0x3dd820ef	0.105531566
150	0x3d841b05	0.06450466
151	0xbe13a78a	-0.1441938
152	0xbd75839e	-0.059939973
153	0x3dc05901	0.09391976
154	0xbe3d80e8	-0.18506205
155	0xbc9a6c32	-0.01885042
156	0xbd01bdf2	-0.031675287
157	0xbd3657bc	-0.044517264
158	0x3cd21f2e	0.025649633
159	0xbd6fa42a	-0.05850617
160	0xbd60ba83	-0.05486537
161	0x3dba2f97	0.09091108
162	0xbd87dbdf	-0.06633734
163	0xbda00943	-0.078142665
164	0xbd83f651	-0.064434655
165	0xbbfb8dea	-0.0076768296
166	0x3d145673	0.036215257
167	0xbd708e6b	-0.05872957
168	0xbd6e1382	-0.058124073
169	0xbd4a5b8a	-0.049403705
170	0xbe46639c	-0.19373935
171	0xbce4b4db	-0.02791827
172	0xbd6c50ed	-0.057694364
173	0x3de85060	0.11343455
174	0xbd27f611	-0.04100615
175	0x3d1d9d6d	0.03848021
176	0xbe69db11	-0.22837473
177	0xbe1137c4	-0.14181429
178	0xbd12f126	-0.03587451
179	0xbe1e9203	-0.15485387
180	0xbd81c381	-0.063361175
181	0xbd44be5f	-0.048033115
182	0xbbd90b4d	-0.0066236616
183	0xbe2f4057	-0.17114387
184	0x3d908911	0.07057393
185	0xbdb6d08c	-0.08926496
186	0x3d869d7e	0.06573008
187	0x3d1c0ee8	0.038100153
188	0xbe1dc6a9	-0.15407814
189	0xbd8d8892	-0.06910814
190	0x3d7101b9	0.058839533
191	0xbe172e4d	-0.14763756
192	0xbd477ff1	-0.048706
193	0xbcce7b3d	-0.025205249
194	0xbcbeeeaf	-0.023307173
195	0xbe1d18ba	-0.15341464
196	0xbc05c1a8	-0.008163847
197	0xbc351883	-0.011053207
198	0x3d9fbb37	0.0779938
199	0xbe0464e5	-0.12929113
200	0xbe62ab99	-0.22135772
201	0x3c41a9d4	0.011820275
202	0xbdbd378a	-0.09239109
203	0xbd3ef993	-0.04662473
204	0xbe0c52c0	-0.13703442
205	0xbd7b77a5	-0.0613934
206	0x3d12def8	0.03585717
207	0xbe0ac67f	-0.13552283
208	0xbc9d4002	-0.01919556
209	0xbc89a3bc	-0.016801707
210	0xbd42e12a	-0.047578014
211	0xbcdfc0ff	-0.027313707
212	0xbd6c5450	-0.057697594
213	0x3cf88c65	0.030340383
214	0xbd9a8836	-0.075455114
215	0xbdf1b0a9	-0.118012734
216	0xbd224b87	-0.03962281
217	0x3d853608	0.06504446
218	0xbdfb7d5b	-0.12279769
219	0x3d6a2eae	0.057173423
220	0xbd8d285e	-0.06892465
221	0x3d078e7d	0.03309487
222	0x3c0e2e9f	0.0086781075
223	0xbe194b35	-0.14970095
224	0x3d9cd228	0.076572716
225	0xbde1570d	-0.11002932
226	0xbd50b45f	-0.050953265
227	0x3d9d2739	0.07673497
228	0x3dad3574	0.08457461
229	0x3cabc212	0.020966563
230	0xbe024667	-0.12722169
231	0xbe19d464	-0.15022427
232	0xbdb5f542	-0.0888467
233	0x3d2da45c	0.042393073
234	0x3d6b697e	0.057473652
235	0xbe0142aa	-0.12623087
236	0x3c650346	0.013977831
237	0x3dad320c	0.08456811
238	0x3d29a25f	0.041414615
239	0xbd26064a	-0.04053334
240	0xbe2c9662	-0.16854241
241	0xbd4d12e2	-0.050066836
242	0xbd480726	-0.048834942
243	0xbcfd83e0	-0.030946672
244	0x3db86ca0	0.090050936
245	0xbd94b529	-0.07261116
246	0x3ad7d53b	0.0016466746
247	0x3d9d69c0	0.07686186
248	0xbccb9fdb	-0.024856498
249	0x3dbe382d	0.092880584
250	0x3ce84594	0.02835349
251	0xba0b1f50	-0.0005307095
252	0xbdde5a8c	-0.10857114
253	0x3c993093	0.01869992
254	0x3d42b5ff	0.047536846
255	0x3ca6a586	0.0203426

critic.2.bias f4 [64]
0	0x3d0fcbc0	0.03510642
1	0xbd515d64	-0.051114455
2	0xbe0d9df3	-0.13829784
3	0xbc7a2cc7	-0.015269465
4	0xbde1fcb1	-0.11034525
5	0xbdaf4d88	-0.0855971
6	0x3d5afc74	0.053463414
7	0x3d41d878	0.04732558
8	0x3ce96e4a	0.028494973
9	0xbcbff10f	-0.023430375
10	0xbd6de247	-0.058077123
11	0xbda86bdc	-0.082236975
12	0x3c32dc33	0.010916757
13	0x3d64bb9e	0.05584299
14	0x3d82669a	0.06367226
15	0xbd2902e8	-0.041262537
16	0x3dd0b28b	0.10190304
17	0x3d508f17	0.05091771
18	0xbd7357d4	-0.05940993
19	0xbd13c48b	-0.03607611
20	0x3d3f0b87	0.046641853
21	0xbc08b3fb	-0.008343692
22	0x3da299ae	0.07939468
23	0xbd40f8da	-0.047112323
24	0xbdf16e01	-0.1178856
25	0x3bb06fc6	0.005384418
26	0xbca642bd	-0.020295495
27	0xbd229648	-0.0396941
28	0xbda15dc0	-0.078792095
29	0xbdfc03da	-0.12305422
30	0xbc608586	-0.0137037095
31	0x3dcf67f3	0.101272486
32	0xbdda5d03	-0.10662272
33	0x3d0bd0ca	0.034134664
34	0x3c922f8c	0.017844938
35	0xbd27500e	-0.04084783
36	0x3c57a384	0.013161544
37	0xbdb6455f	-0.0889995
38	0xbdd96400	-0.106147766
39	0x3e2915dd	0.16512246
40	0x3d04066c	0.032232687
41	0xbdff66ae	-0.124707565
42	0xbdc8c21f	-0.09802651
43	0xbda0d19d	-0.078524806
44	0xbbd740a6	-0.006568986
45	0x3d7025e0	0.05862987
46	0x3d45ef98	0.048324198
47	0x3bb49bca	0.0055117356
48	0xbb8f840a	-0.004379754
49	0x3e0c14e7	0.13679849
50	0xbdc760aa	-0.09735234
51	0x3db01469	0.08597643
52	0x3b7d9339	0.0038692488
53	0xbc3181be	-0.010834156
54	0xbcb248d7	-0.021763248
55	0xbe025841	-0.12728979
56	0x3deb055e	0.11475633
57	0x3d06ac8a	0.03287939
58	0x3c6e6053	0.014549333
59	0xbc47f3d1	-0.012204126
60	0xbd2a3e6c	-0.041563436
61	0xbd201474	-0.039082006
62	0x3b97c58d	0.004631704
63	0x3e0824b7	0.13295256

critic.4.weight f4 [1, 64]
0	0xbd161a18	-0.03664598
1	0xbde86161	-0.113466986
2	0x3d416d5b	0.04722343
3	0x3c13ce78	0.009021394
4	0xbe0225a4	-0.12709671
5	0xbdd1a822	-0.10237147
6	0xbd6dc51b	-0.058049303
7	0xbd96761d	-0.07346747
8	0x3d1887ef	0.03723901
9	0xbde298bc	-0.11064288
10	0xbdfbfcf7	-0.123041086
11	0x3daca72c	0.08430323
12	0xbd271df2	-0.040800042
13	0x3bf91dcf	0.0076024304
14	0xbd4d544a	-0.050129212
15	0xbc932468	-0.017961696
16	0x3e93a171	0.28834108
17	0x3c9d0cfa	0.019171227
18	0x3be4295b	0.006962938
19	0xbd2c71f6	-0.04210087
20	0xbda1c99c	-0.07899782
21	0x3bf62356	0.0075115366
22	0x3d065437	0.032795157
23	0xbb4450ff	-0.0029955504
24	0x3c196eae	0.009364767
25	0xbbb03e7b	-0.005378542
26	0x3b987abb	0.0046533025
27	0xbe2a92be	-0.1665754
28	0x3d9f83d7	0.07788818
29	0xbdd40e35	-0.10354272
30	0x3d047580	0.03233862
31	0x3d70ee92	0.05882127
32	0xbe6b20a0	-0.22961664
33	0xbd11e3b2	-0.035617538
34	0x3ae480f5	0.0017433452
35	0xbd9f0f9e	-0.077666506
36	0x3b1edd90	0.0024240948
37	0xbc2ca127	-0.010536469
38	0xbc5807b5	-0.013185431
39	0x3da6e4a9	0.08149082
40	0x3c5e0c2d	0.013552708
41	0x3da8c397	0.08240431
42	0x3da5636e	0.08075605
43	0xbb4d0759	-0.0031284897
44	0xbc68577b	-0.014181013
45	0xbdc1da56	-0.094654724
46	0x3c3015b9	0.010747367
47	0x3c29f0b1	0.010372327
48	0x3b1d6756	0.0024017892
49	0x3db2425a	0.08704062
50	0xbd31eb32	-0.04343719
51	0x3d090429	0.033451233
52	0xbd21365e	-0.03935849
53	0xbe12b3d5	-0.14326413
54	0x3d210bfd	0.039318074
55	0x3cf74802	0.030185703
56	0x3be196ec	0.0068844464
57	0xbdaf54bc	-0.08561084
58	0x3b2fb4fa	0.0026810751
59	0xb9fad211	-0.00047840227
60	0xbdd09ca9	-0.101861306
61	0xbda6cda2	-0.0814469
62	0x3db09a59	0.086231895
63	0x3d4c522e	0.04988306
