Models/Reward_shaping_vm/RS_disprop_scale_mag_vm_11_0/2000.pth (torch, 78423 bytes, 11 tensors)

actor.0.weight f4 [64, 62]
0	0xbdb690dd	-0.08914349
1	0xbb5fd6b6	-0.0034155077
2	0x3dfca332	0.123358145
3	0xbdac7ebf	-0.084226124
4	0xbd8ed355	-0.06973902
5	0xbd069fe8	-0.032867342
6	0x3dc57147	0.096407466
7	0xbcf707a6	-0.030155014
8	0x3c80491b	0.01565986
9	0x3de907a0	0.113784075
10	0x3a8bddaf	0.0010670925
11	0x3d6da837	0.05802175
12	0xbdea532d	-0.11441646
13	0xbd50e835	-0.0510027
14	0x3e1ef0a3	0.15521483
15	0x3dcf4669	0.101208515
16	0xbdcec66a	-0.10096438
17	0x3d873fa4	0.06603935
18	0x3d9de675	0.07709972
19	0x3d8a0161	0.06738544
20	0x3dc0f0eb	0.094209515
21	0x3d681026	0.056656025
22	0x3daf02b1	0.08545435
23	0x3caaac23	0.020834034
24	0x3db09689	0.08622462
25	0xbde5238a	-0.11188419
26	0xbc8e8f1b	-0.017402222
27	0xbc6f7706	-0.01461578
28	0x3a79ec86	0.0009533841
29	0x3db87dbf	0.09008359
30	0x3e030865	0.12796171
31	0xbc9d8e39	-0.019232856
32	0xbd854560	-0.06507373
33	0xbd285c86	-0.041103862
34	0x3dc8236e	0.09772383
35	0xbddc6e2c	-0.10763201
36	0x3e089c3d	0.1334085
37	0xbd43700b	-0.047714274
38	0xbcec2966	-0.028828334
39	0xbc8c3047	-0.017112864
40	0xbdd6c466	-0.10486679
41	0x3cc9e20b	0.024643918
42	0xbbbe74b8	-0.005812254
43	0xbddfe137	-0.10931628
44	0xbd2d9ae6	-0.04238405
45	0x3cac5583	0.021036869
46	0x3d868c0c	0.065696806
47	0xbd992fb4	-0.07479802
48	0x3cd51f49	0.026015894
49	0xbd9aac76	-0.075524256
50	0x3d11395f	0.035455104
51	0x3ca92e20	0.020651877
52	0xbc2f7412	-0.010708826
53	0xbc95283c	-0.018207662
54	0x3c2216da	0.009893144
55	0x3db3090f	0.08741962
56	0x3a8aa4de	0.0010577699
57	0x3be2074a	0.0068978416
58	0x3daf1256	0.08548419
59	0x3babeb72	0.005246573
60	0x3e1b36bd	0.151576
61	0xbdb3bc71	-0.08776177
62	0xbdd91d9d	-0.106013514
63	0xbd6c3644	-0.05766894
64	0x3d8c2266	0.068424985
65	0x3d9cf767	0.07664376
66	0xbd7e72f7	-0.062121358
67	0x3d5ec9d1	0.054391686
68	0xbd64a891	-0.05582482
69	0xbbf2d540	-0.0074106753
70	0x3dd2c0b7	0.10290664
71	0xbdaa0d3f	-0.08303308
72	0x3e058b5d	0.13041444
73	0x3e4333c5	0.19062717
74	0x3da6ce22	0.081447855
75	0xbd8d2fa6	-0.06893854
76	0xbd943754	-0.072371155
77	0xbcdbfee1	-0.026854934
78	0x3dc99a0e	0.09843837
79	0x3de85759	0.11344785
80	0xbd4c32fb	-0.049853306
81	0xbdff76c5	-0.12473825
82	0xbd24ca91	-0.040232245
83	0xbd8f8a02	-0.07008745
84	0x3ddd8466	0.108162686
85	0x3df58967	0.11989098
86	0x3d864783	0.065566085
87	0xbc318917	-0.010835907
88	0xbdfac2dd	-0.122441985
89	0x3c157a78	0.009123437
90	0xbd69e6d6	-0.057104908
91	0x399d276e	0.0002997475
92	0xbda0360a	-0.07822807
93	0xbd2608e5	-0.040535826
94	0x3d92f1b1	0.07175005
95	0x3e006b6d	0.1254098
96	0x3dd5d673	0.104412936
97	0xbd8d784f	-0.06907713
98	0x3ccf5e33	0.025313472
99	0x3c8edf30	0.017440408
100	0x3dba799e	0.09105228
101	0x3e3a6dfe	0.18206021
102	0xbd250010	-0.040283263
103	0xbdcd9a31	-0.10039175
104	0xbc81acb4	-0.015829422
105	0xbd1ab7e3	-0.037773024
106	0xbcfd1bb2	-0.030896995
107	0xbe1aa3ba	-0.15101519
108	0xbd37f296	-0.044909082
109	0xbdc0adad	-0.09408126
110	0xbd51c91a	-0.051217176
111	0x3d2fcf9b	0.042922597
112	0xbdc3361e	-0.095318064
113	0x3df536f9	0.11973376
114	0xbd79604c	-0.06088285
115	0x3ddaeb0d	0.10689364
116	0x3dfa2469	0.12213976
117	0x3e2ef651	0.1708615
118	0xbcef0ec9	-0.029181855
119	0xbb88366d	-0.0041568787
120	0xbcb7fc21	-0.022459092
121	0x3d39ba74	0.04534383
122	0x3ab112a2	0.0013509581
123	0xbcc8abf4	-0.024496056
124	0xbb8485cc	-0.00404427
125	0xbc12953c	-0.008946713
126	0x3d874ea0	0.066067934
127	0xbd968d8c	-0.07351217
128	0x3d9fd942	0.078051105
129	0x3dcdd80b	0.100509726
130	0x3df9da4b	0.12199839
131	0x3e4562a2	0.19275907
132	0xbe11799a	-0.14206544
133	0xbbf02727	-0.007328886
134	0xbc9dd389	-0.019265907
135	0xbe0b5c81	-0.13609506
136	0xbcad2b31	-0.02113876
137	0xbc059489	-0.008153089
138	0xbd98f2a3	-0.07468154
139	0xbd769a9b	-0.060206037
140	0xbbea474d	-0.007149613
141	0x3daa0d78	0.0830335
142	0x3e002449	0.12513842
143	0x3c9209e2	0.017826978
144	0xbdb24185	-0.08703903
145	0xbd244748	-0.04010704
146	0x3cca4cb7	0.024694784
147	0x3cf52afc	0.029927723
148	0x3ca1dcc6	0.019758593
149	0xbd4a3140	-0.049363375
150	0x3ce8232b	0.028337082
151	0x3de19b79	0.11015982
152	0xbd886b28	-0.066610634
153	0xbcb5ed0c	-0.02220776
154	0xbdf44ccb	-0.119287096
155	0xbd9073d0	-0.070533395
156	0x3deb1353	0.11478295
157	0x3d6a2413	0.05716331
158	0xbbf78140	-0.0075532496
159	0xbb8be8b4	-0.0042696837
160	0x3e34ae9c	0.17644733
161	0x3ddbe1ac	0.10736403
162	0xbc2aa625	-0.0104155885
163	0x3e0eedc2	0.13957885
164	0x3d48f3fc	0.049060807
165	0x3d41b1bd	0.047288645
166	0xbde7054a	-0.11280306
167	0x3c0f2943	0.008737865
168	0xbe0865df	-0.1332011
169	0x3d12cc3e	0.03583931
170	0xbd8299d5	-0.063769974
171	0x3d75f2bc	0.060045943
172	0xbde061b3	-0.10956135
173	0xbcb047c3	-0.021518594
174	0xbd418341	-0.047244314
175	0x3cac4383	0.021028286
176	0x3dee859d	0.116465785
177	0x3aaf155c	0.0013357806
178	0xbe2953f7	-0.16535936
179	0x3cfe3dcc	0.031035326
180	0x3dd360b7	0.10321181
181	0x3dfcc664	0.123425275
182	0xbc95753d	-0.01824438
183	0x3e360e96	0.17779002
184	0x3d495ee9	0.04916278
185	0xbd0ebf59	-0.034850452
186	0x3b6696ed	0.0035185174
187	0xbd14020b	-0.03613476
188	0x3bd1ea73	0.0064061224
189	0xbc456096	-0.012046954
190	0xbe2992dd	-0.1655993
191	0xbde9d442	-0.11417438
192	0x3d80efca	0.06295736
193	0x3d355b73	0.044276666
194	0xba8bb689	-0.0010659258
195	0x3cf762f1	0.030198546
196	0x3daae3c6	0.083442256
197	0xbd82fb35	-0.0639557
198	0xbd42aae0	-0.04752624
199	0xbe28ba41	-0.164773
200	0x3d4ce2bb	0.050020915
201	0x3d51326b	0.051073473
202	0x3da0ab2c	0.078451484
203	0x3d0d7aa4	0.034540787
204	0xbd4ba489	-0.04971746
205	0x3da163df	0.07880377
206	0xbd17bb11	-0.037043635
207	0xbc902cae	-0.01759943
208	0xbda42008	-0.08013922
209	0x3d997107	0.074922614
210	0xbccba2ba	-0.024857868
211	0x3d93cdf7	0.07217019
212	0xbde9bd46	-0.11413054
213	0x3deb4bec	0.1148909
214	0x3e1d6cce	0.15373537
215	0xbe1e3fe2	-0.15454057
216	0x3de62423	0.11237361
217	0x3d953dc8	0.072871745
218	0x3ca8ab99	0.020589637
219	0x3d9308ba	0.07179399
220	0xbd2ac104	-0.04168798
221	0x3dac80ef	0.0842303
222	0xbdb8684f	-0.0900427
223	0xbddbbafb	-0.10729023
224	0x3e0e4a1c	0.13895458
225	0xbdbe8f2c	-0.093046516
226	0xbe13e857	-0.144441
227	0xbc87c455	-0.01657311
228	0x3bc5d2d8	0.0060370974
229	0x3da1e534	0.07905045
230	0xbc903d5c	-0.017607383
231	0x3dde7b65	0.108633794
232	0x3dadbf47	0.08483749
233	0x3d9ec020	0.07751489
234	0xbc53e168	-0.012932159
235	0x3e18725e	0.14887378
236	0xbb223806	-0.002475263
237	0x3c92efe8	0.017936662
238	0xbd8dc935	-0.06923143
239	0x3c0bd9e5	0.008535837
240	0x3df85730	0.12126005
241	0x3e136ad2	0.14396217
242	0xbd41169f	-0.047140714
243	0xbb6333c5	-0.0034668308
244	0xbc06e762	-0.008233877
245	0xbd01a5b9	-0.031652186
246	0x3cac797d	0.021054024
247	0x3ccbafc3	0.024864083
248	0xbd12a003	-0.03579713
249	0xbc139565	-0.009007786
250	0xbdde2ee5	-0.10848788
251	0x3c9e6818	0.019336745
252	0xbb31cf08	-0.0027131457
253	0x3dc87a6e	0.097889766
254	0x3e4cc7e7	0.19998132
255	0xbcafec5c	-0.02147501

actor.0.bias f4 [64]
0	0x3de9c15c	0.114138335
1	0xbcddaa19	-0.027058648
2	0x3d0f48d0	0.03498155
3	0x3b82857d	0.003983198
4	0x3e2c0afe	0.16801068
5	0x3dc2bf73	0.09509172
6	0x3dc09f50	0.094053864
7	0x3d631ac9	0.055445466
8	0x3e23a3fc	0.15980524
9	0x3ca71b64	0.020398803
10	0x3d4b8120	0.04968369
11	0x3e02a726	0.12759075
12	0x3d9252dc	0.071447104
13	0xbe13d4fa	-0.14436713
14	0xbd5d9c8e	-0.05410438
15	0x3ceb6698	0.028735444
16	0x3e0ad465	0.13557585
17	0xbddf51d6	-0.10904281
18	0x3d5482ae	0.05188244
19	0xbd1d090a	-0.0383387
20	0x3e1ee0b3	0.15515403
21	0xbca4b845	-0.020107398
22	0xb9c3d134	-0.00037349167
23	0x3d99eaa0	0.07515454
24	0x3d903f1e	0.07043289
25	0x3e15b739	0.14620675
26	0x3d9940e7	0.07483082
27	0x3d4b9ac7	0.049708154
28	0x3dcfc78a	0.10145481
29	0x3d8528e8	0.06501943
30	0x3e166c8a	0.14689842
31	0xbc53738a	-0.012905965
32	0xbcb851ea	-0.022499997
33	0x3e1e9094	0.1548484
34	0x3d2d56ea	0.042319216
35	0xbd4b47b9	-0.049628947
36	0x3e01e2a5	0.12684114
37	0xbc0e459c	-0.008683588
38	0xbd9140e7	-0.07092457
39	0x3e28a1da	0.16467991
40	0x3c644afb	0.013933892
41	0xbcb1b46a	-0.021692473
42	0x3e023887	0.12716876
43	0xbd9afc4a	-0.075676516
44	0xbd8c2b93	-0.068442486
45	0x3dc4e232	0.09613456
46	0x3e11d010	0.14239526
47	0xbd085258	-0.033281654
48	0x3da37562	0.07981373
49	0xbdd50155	-0.10400645
50	0x3d3d38cb	0.04619674
51	0x3cb9e510	0.022692233
52	0xbc536bd3	-0.012904125
53	0xbb374420	-0.002796419
54	0x3d5c8efa	0.05384729
55	0xbe0cc802	-0.13748172
56	0x3cf2b475	0.029627064
57	0x3d823bdf	0.06359076
58	0x3d56e84d	0.052467633
59	0x3daf507c	0.08560273
60	0x3d844982	0.06459333
61	0x3dc96ee1	0.098356016
62	0xbdf76d97	-0.120814495
63	0xbda1b6e8	-0.07896215

actor.2.weight f4 [64, 64]
0	0xbdb327e4	-0.08747843
1	0x3e16bec2	0.14721206
2	0xbe35639b	-0.17713778
3	0x3ca7f348	0.020501748
4	0x3c99b3e8	0.018762544
5	0xbdee7a1d	-0.11644385
6	0xbdc4be1f	-0.09606575
7	0x3de88fd1	0.11355556
8	0xbd63df77	-0.055633035
9	0x3e0c1c54	0.13682681
10	0x3de429ca	0.11140783
11	0x3d19534c	0.037432954
12	0xbb924fab	-0.0044650636
13	0x3e126352	0.142957
14	0x3dbc95aa	0.09208234
15	0x3db7bcd5	0.08971564
16	0x3d7e4b56	0.062083565
17	0x3d418b9d	0.047252286
18	0xbdc32daa	-0.09530194
19	0xbda4db0f	-0.080495946
20	0xbcd83973	-0.026394581
21	0x3d6c434e	0.057681374
22	0xbd1cd9ec	-0.038293764
23	0x3d13f035	0.03611775
24	0x3d8ced67	0.068812184
25	0x3ddbfaf2	0.107412234
26	0x3c822521	0.015886845
27	0xbd34ea7f	-0.044168945
28	0x3dd552d9	0.104161926
29	0xbd48e80a	-0.049049415
30	0xbdaf0498	-0.08545798
31	0x3dfa0d7e	0.12209605
32	0x3d04406e	0.032288007
33	0xbd84b882	-0.064805046
34	0x3d13c58b	0.036077064
35	0x3e08d099	0.13360824
36	0x3d67a8a4	0.056557313
37	0xbda99555	-0.08280436
38	0xbd8941ae	-0.067019805
39	0x3e0e6d5b	0.13908903
40	0x3d1829b0	0.03714913
41	0xbdca5197	-0.09878843
42	0x3d7637ca	0.0601118
43	0x3e2a2a6d	0.16617747
44	0xbca45fc7	-0.020065201
45	0x3c98fe29	0.01867588
46	0x3dd27bed	0.10277543
47	0xbd951415	-0.07279221
48	0x3d6e25fe	0.0581417
49	0x3d199938	0.037499636
50	0x3d2bba85	0.041925926
51	0x3dd9e4ab	0.10639318
52	0xbc9b9a79	-0.018994557
53	0x3d93d859	0.072189994
54	0xbd108bd0	-0.035289586
55	0x3ddedc16	0.10881822
56	0xbd404ca7	-0.0469481
57	0x3ac3ee4a	0.0014948335
58	0x3d6e2504	0.05814077
59	0xbd752263	-0.059847247
60	0x3cf4b323	0.029870575
61	0x3e1056b9	0.14095582
62	0x3df4b264	0.11948088
63	0x3d18ff78	0.03735301
64	0x3ddb8f27	0.107206635
65	0x3c4a307d	0.012340662
66	0xbd8ec904	-0.069719344
67	0x3dbc8799	0.09205551
68	0xbda84334	-0.08215943
69	0x3dbae75c	0.091261595
70	0x3cb47d05	0.02203227
71	0x3d4bdff7	0.049774136
72	0xbbf7daeb	-0.007563939
73	0xbde227b1	-0.11042727
74	0x3e041afd	0.1290092
75	0x3dd88dac	0.10573897
76	0x3d2dc920	0.042428136
77	0x3e28ea92	0.16495731
78	0xbd7cda19	-0.06173143
79	0x3e3e0359	0.18555965
80	0xbcff93db	-0.031198433
81	0xbd9e2662	-0.07722165
82	0xbe2b2931	-0.16714932
83	0xbdc8b50e	-0.098001584
84	0x3df060a7	0.11737185
85	0xbcfa8f32	-0.030585859
86	0xbe2970af	-0.16546892
87	0x3d1956d4	0.03743632
88	0x3c5e74e6	0.013577675
89	0xbd45438b	-0.048160117
90	0x3db27c07	0.087150626
91	0xbc7be991	-0.015375511
92	0x3cf47e21	0.0298453
93	0x3db2023b	0.08691832
94	0xbe21268e	-0.15737364
95	0x3e3de7ac	0.18545407
96	0x3daa0fab	0.0830377
97	0x3d8fe1f6	0.070255205
98	0xbdbb1032	-0.091339484
99	0xbdae7240	-0.08517885
100	0x3dbfbf1d	0.09362624
101	0x3d1672b3	0.03673048
102	0x3ded11c0	0.11575651
103	0x3dc06585	0.09394363
104	0x3d2f7d6b	0.042844217
105	0x3d7cc692	0.06171281
106	0x3ddd68d7	0.10811012
107	0xbdb2d95a	-0.08732863
108	0x3cb89e11	0.02253631
109	0x3d3198cd	0.043358613
110	0x3da1f731	0.07908476
111	0xbd127928	-0.035760075
112	0xbde703e7	-0.11280041
113	0xbcea97ea	-0.028636891
114	0x3dc73f09	0.0972882
115	0x3b83e5ed	0.004025212
116	0x3da730ee	0.081636295
117	0xbd45244a	-0.04813031
118	0x3d808285	0.062748946
119	0xbe009a5b	-0.12558882
120	0x3af519fb	0.0018699759
121	0xbd963ee8	-0.07336217
122	0x3dc3c7dd	0.09559605
123	0xbcddd014	-0.027076758
124	0x3e346791	0.17617632
125	0xbd5b7c07	-0.05358508
126	0x3c890a28	0.016728476
127	0xbdb38f37	-0.087675504
128	0x3e2fb1c0	0.1715765
129	0xbc784ec0	-0.015155494
130	0x3d84dde0	0.06487632
131	0x3d98b7b2	0.07456912
132	0x3e28638d	0.16444226
133	0xbdbd7e41	-0.09252597
134	0x3d8e209c	0.069398135
135	0xbdb6fa02	-0.08934404
136	0x3dfd5978	0.123705804
137	0x3cb17f58	0.021667168
138	0x3d36da82	0.04464198
139	0x3c8a128b	0.016854545
140	0xbd59b51a	-0.053151228
141	0xbdf06db5	-0.11739675
142	0x3d95b0e4	0.0730913
143	0x3de3ffbd	0.111327626
144	0x3cf1594b	0.029461524
145	0x3e089c59	0.13340892
146	0x3cc785f2	0.024355862
147	0x3db3e2f5	0.08783523
148	0x3d91838f	0.07105171
149	0x3dadba1a	0.08482762
150	0x3de19c65	0.11016158
151	0x3dc47684	0.095929176
152	0x3dbea4d1	0.0930878
153	0xbbe5158a	-0.006991093
154	0x3d3ae946	0.045632623
155	0x3e2c5218	0.16828191
156	0x3e20b60f	0.1569445
157	0x3d870216	0.06592195
158	0x3c9e2cdf	0.019308506
159	0x3da38bfa	0.07985683
160	0xba71b7e2	-0.0009220821
161	0x3b1ccd90	0.0023926236
162	0xbd43ea51	-0.047830883
163	0x3e0f3c28	0.13987792
164	0x3e115503	0.14192586
165	0x3d935809	0.07194526
166	0xbddfd675	-0.10929576
167	0x3dde9664	0.108685285
168	0xbdaa6272	-0.08319558
169	0xbe00c7cb	-0.12576215
170	0x3d9554e9	0.07291586
171	0x3e280cd6	0.16411147
172	0xbda3f84c	-0.08006343
173	0x3d8ef506	0.06980328
174	0x3e424b84	0.1897412
175	0x3e01ffab	0.12695186
176	0xbe08e127	-0.13367139
177	0xbdcfbfdb	-0.101440154
178	0x3e0b60e3	0.13611178
179	0x3dd9c2e6	0.10632877
180	0xbcb68a7b	-0.02228283
181	0x3c6b5672	0.014363872
182	0x3d6cb6e4	0.057791606
183	0xbd62d0c6	-0.055374883
184	0xbd57a27c	-0.05264519
185	0xbb80eab8	-0.0039342307
186	0x3d1407fe	0.036140434
187	0x3aed48a4	0.0018103314
188	0x3cf9c1f6	0.030487996
189	0x3dc9a68a	0.09846218
190	0xbc3be084	-0.011467103
191	0x3e21d768	0.15804827
192	0x3db5b119	0.08871669
193	0xbdde0229	-0.10840256
194	0x3e793108	0.2433511
195	0x3bbe378c	0.0058049615
196	0x3e13cbc7	0.14433204
197	0x3d99c785	0.075087585
198	0xbd40eb5c	-0.047099456
199	0xbd3515c5	-0.044210214
200	0x3e0ba2d7	0.13636337
201	0xbcdadb84	-0.026716001
202	0x3e02a45d	0.12758012
203	0x3c8b176c	0.016978942
204	0xbd29fe16	-0.04150208
205	0xbcc81f37	-0.024428947
206	0xbcee61a9	-0.029099302
207	0xbd219ce8	-0.039456278
208	0xbcdd4f1b	-0.02701526
209	0x3e4ef310	0.20209908
210	0x3e0114a3	0.12605529
211	0x3e106877	0.1410235
212	0x3e2546ac	0.1614024
213	0x3d5fff9d	0.05468713
214	0x3de8a5f5	0.11359779
215	0x3d47007c	0.048584446
216	0x3e0312c4	0.12800127
217	0x3c03e919	0.00805118
218	0x3ddd4317	0.10803812
219	0x3daa7970	0.083239436
220	0x3d911a61	0.070851095
221	0x3b80c2e2	0.003929482
222	0xbd16bb78	-0.036799878
223	0x3d179302	0.037005432
224	0x3dcad0ee	0.099031314
225	0x3e3e3a92	0.1857703
226	0xbe150dd3	-0.14556055
227	0xbe26888a	-0.16263023
228	0xbd5bf41f	-0.05369961
229	0x3cbe5e88	0.023238435
230	0x3dc25353	0.09488549
231	0x3d866d55	0.06563822
232	0x3e0d92ee	0.1382558
233	0xbda5dbc4	-0.080985576
234	0x3e413706	0.18868646
235	0x3e47b1e8	0.1950146
236	0xbdf694f6	-0.12040131
237	0x3dd9ce9e	0.10635112
238	0x3df033e7	0.117286496
239	0xbd3df5c9	-0.046376977
240	0x3da16a30	0.07881582
241	0x3dcc8f2b	0.099882446
242	0x3cf09735	0.029368976
243	0x3d472b19	0.048625086
244	0x3ded27a3	0.11579826
245	0x3e05da07	0.13071452
246	0xbd4202e9	-0.047366057
247	0x3cc8b2c1	0.024499299
248	0x3b969873	0.00459581
249	0xbd5753e9	-0.052570257
250	0xbc5348ef	-0.012895807
251	0xbd40538f	-0.046954688
252	0x3d91847d	0.07105348
253	0x3e42ae13	0.19011717
254	0x3d19a5b4	0.037511542
255	0xbbcb4551	-0.0062033315

actor.2.bias f4 [64]
0	0x3dd748da	0.10511942
1	0x3cfe9f30	0.031081766
2	0x3d5eec55	0.054424603
3	0x3dbe1650	0.092815995
4	0x3da3abbf	0.07991742
5	0x3dfa3cd2	0.12218632
6	0x3ded6e50	0.11593306
7	0x3dfb79f5	0.12279121
8	0xbd059bf0	-0.032619417
9	0x3e075124	0.13214546
10	0x3d6fe69f	0.058569547
11	0xbd9ff5cb	-0.07810553
12	0x3db10672	0.086438075
13	0xbdb0aefa	-0.08627124
14	0x3dfc308e	0.123139486
15	0xbdf853ab	-0.121253334
16	0x3ddf994c	0.10917911
17	0xbbc1c31c	-0.0059131514
18	0xbd0abe8d	-0.03387313
19	0x3dadd4dc	0.08487865
20	0x3d0ea681	0.03482676
21	0xbdafcca9	-0.08583958
22	0xbc788c84	-0.01517022
23	0xbc976dc1	-0.018484952
24	0x3d4ebad8	0.050471157
25	0xbdbeadce	-0.09310494
26	0x3d8e052a	0.06934579
27	0xbde8b9e9	-0.113635845
28	0x3e116418	0.14198339
29	0xbd682871	-0.056679193
30	0x3df28024	0.11840847
31	0x3da98e5c	0.08279106
32	0xbdedf44c	-0.116188616
33	0x3ddcef8e	0.10787879
34	0xbcba3991	-0.022732528
35	0xbdb3fe6f	-0.08788764
36	0x3dc67e7e	0.09692095
37	0xbddc2877	-0.107499056
38	0xbd17d2b1	-0.037066165
39	0x3ca213f8	0.019784912
40	0xbcfda9b7	-0.030964715
41	0x3db41d1f	0.08794617
42	0x3e1fcc82	0.15605357
43	0xbc488feb	-0.012241344
44	0x3d196d69	0.037457857
45	0x3da22be4	0.07918528
46	0x3bb6d9df	0.0055801715
47	0x3d2a6906	0.041604064
48	0xbdcf7516	-0.10129754
49	0x3dd42d11	0.10360158
50	0x3dc44cc8	0.09584957
51	0x3d90649b	0.07050439
52	0xbbe54ead	-0.0069979043
53	0x3c39a125	0.011329924
54	0xbe01d27f	-0.12677954
55	0xbd8c6ba5	-0.06856469
56	0x3d9a21c6	0.07525973
57	0x3c33333c	0.010937508
58	0x3d132a44	0.03592898
59	0x3dae40da	0.08508463
60	0xbdcd06e8	-0.10011083
61	0x3c3e72c8	0.011624046
62	0x3d95ddb8	0.0731768
63	0x3d27e26b	0.040987413

actor.4.weight f4 [36, 64]
0	0x3d4d51b0	0.05012673
1	0xbcba85bc	-0.022768848
2	0x3e060ad5	0.1309007
3	0x3d7bd3c5	0.061481256
4	0x3e0e81de	0.13916728
5	0xbe6daa15	-0.23209412
6	0x3e09b521	0.13448001
7	0xbb663d9d	-0.003513194
8	0xbcf4601c	-0.029830985
9	0x3ab20b50	0.0013583694
10	0x3dfc692c	0.123247474
11	0xbdbd515b	-0.09244033
12	0xbcd76634	-0.026293851
13	0x3dd0f7b7	0.10203498
14	0xbe127c16	-0.14305148
15	0x3d6952a8	0.056963593
16	0xbc368001	-0.011138917
17	0xbd07150b	-0.032979053
18	0xbdf992be	-0.12186192
19	0xbd11c1ee	-0.035585336
20	0x3d8dcc11	0.06923688
21	0xbd2460d8	-0.04013142
22	0x3dbb7646	0.09153418
23	0x3da2561a	0.07926579
24	0xbe2aa72d	-0.16665335
25	0x3d6b9a4d	0.0575202
26	0x3d276fa8	0.040877968
27	0x3d06d0f0	0.032914102
28	0x3da1fe2d	0.07909808
29	0x3c8e740b	0.017389318
30	0xbdc3a965	-0.09553794
31	0xbdd590fe	-0.10428046
32	0x3d467f74	0.048461393
33	0x3d380b08	0.044932395
34	0x3d0d37dd	0.034477104
35	0xbcbc364e	-0.022975113
36	0xbe1011b4	-0.14069253
37	0xbd87da4e	-0.06633435
38	0x3cbf9351	0.023385676
39	0x3e3390f4	0.17535764
40	0x3c104a08	0.008806713
41	0x3d995d6e	0.074885234
42	0xbd807b85	-0.062735595
43	0x3d051622	0.03249181
44	0xbcc90314	-0.0245376
45	0xbdb5e0c9	-0.08880765
46	0x3db50539	0.08838887
47	0x3b95d08f	0.0045719813
48	0xbdba0426	-0.090828225
49	0xbd356f8f	-0.044295844
50	0xbe1429cd	-0.1446907
51	0xbc367a64	-0.011137579
52	0xbd6e915e	-0.0582441
53	0xbe4997f5	-0.19686873
54	0xbe25161c	-0.16121715
55	0x3c61f729	0.013791838
56	0xbda9292b	-0.08259805
57	0xbde90f83	-0.11379912
58	0xbe55d342	-0.2088137
59	0xbdaf0ff6	-0.08547966
60	0x3db4b545	0.08823637
61	0x3e2763a4	0.16346604
62	0x3daedf08	0.085386336
63	0x3c8a268f	0.01686409
64	0x3db30eae	0.08743034
65	0xbe03bee5	-0.12865789
66	0x3c7d0700	0.015443563
67	0xbd9c5899	-0.07634086
68	0xbccbcc13	-0.024877584
69	0xbd877c90	-0.06615555
70	0xbd8bbbf8	-0.068229616
71	0x3db17095	0.086640514
72	0x3d81bee3	0.06335237
73	0x3e2c0b68	0.16801226
74	0x3d754456	0.059879623
75	0x3e135e53	0.1439145
76	0x3dfff80e	0.124984846
77	0x3ddc5cd7	0.10759895
78	0xbdef60a1	-0.116883524
79	0xbd847544	-0.06467679
80	0x3e0341bb	0.12818043
81	0xbdb2925f	-0.08719324
82	0xbdb9c7db	-0.090713225
83	0x3e011f9d	0.12609716
84	0x3dafa4ff	0.085763924
85	0xbd782259	-0.06057963
86	0x3dedc840	0.1161046
87	0x3cc614bb	0.024179807
88	0x3d2e1901	0.042504314
89	0x3e021fb7	0.12707411
90	0xbe099177	-0.13434397
91	0xbde05865	-0.1095436
92	0x3e0bd188	0.13654149
93	0x3d5a82af	0.053347286
94	0x3e27b1b2	0.16376379
95	0x3dab56ad	0.083661415
96	0xbd2309b8	-0.03980419
97	0x3d78ae0c	0.06071286
98	0xbd11d3f8	-0.03560254
99	0x3d463ec7	0.048399713
100	0xbda757c1	-0.081710346
101	0xbd974059	-0.0738532
102	0xbdcb61a1	-0.099307306
103	0xba131988	-0.00056114094
104	0xbd9a1183	-0.07522871
105	0x3d6490dc	0.05580221
106	0xbe2749c2	-0.1633673
107	0xbdf4e664	-0.11958006
108	0x3df7cc8d	0.12099562
109	0xbd2a7bb5	-0.041621882
110	0xbd84fc6d	-0.06493459
111	0x3da4f448	0.080544055
112	0x3d84b08d	0.06478987
113	0x3e19e45b	0.15028517
114	0x3e295b0e	0.16538641
115	0xbd6dce17	-0.05805787
116	0x3ded61de	0.11590932
117	0x3cc79477	0.024362786
118	0xbdc15837	-0.09440654
119	0x3dc40fea	0.09573348
120	0x3da6fafb	0.081533395
121	0x3dfba98c	0.12288198
122	0xbb8c2966	-0.004277396
123	0xbe309e32	-0.17247847
124	0x3d8ee3e1	0.06977058
125	0x3ced1fd2	0.028945837
126	0xbe147a53	-0.14499788
127	0x3d17271c	0.036902532
128	0x3da06563	0.07831838
129	0x3d7398d4	0.05947192
130	0x3e2e379f	0.17013405
131	0x3e123089	0.14276327
132	0x3d57bae7	0.05266848
133	0x3cac3f9b	0.021026423
134	0xbc0aabfe	-0.008463858
135	0x3e0022d4	0.12513286
136	0xbd8d14db	-0.068887435
137	0xbcdf6ea8	-0.027274445
138	0x3c302db3	0.010753083
139	0x3e27eed5	0.16399701
140	0x3d344fca	0.044021405
141	0x3d6f613e	0.058442347
142	0x3e4094b8	0.18806732
143	0xbd8aeb3f	-0.06783151
144	0x3e23b434	0.15986711
145	0xbe19ed23	-0.15031867
146	0xbda9c5dd	-0.082896926
147	0x3e29fda1	0.16600658
148	0x3d447f07	0.047972705
149	0xbbf4fbf2	-0.0074763233
150	0x3c0917ea	0.008367518
151	0x3e3b84a7	0.18312322
152	0xbd9e464e	-0.07728253
153	0xbcef649e	-0.029222783
154	0xbd29980c	-0.04140477
155	0xbc81f89d	-0.015865618
156	0xb95b0180	-0.00020886026
157	0xbd8ba5cc	-0.068187326
158	0x3e400f91	0.18755938
159	0xbd9d26b4	-0.07673398
160	0xbded357a	-0.115824655
161	0x3dd5d979	0.1044187
162	0xbcd920b0	-0.026504844
163	0xbdecc470	-0.11560905
164	0xbd98f3ed	-0.074684
165	0x3d98772d	0.07444606
166	0xbc6fe91c	-0.01464298
167	0x3daaf912	0.08348288
168	0xbd7102d2	-0.05884058
169	0xbd937dab	-0.07201704
170	0x3ca6be71	0.020354481
171	0xbdbf3ba6	-0.09337549
172	0x3e04c274	0.12964803
173	0xbca39257	-0.019967241
174	0x3e202c28	0.15641844
175	0x3ce38472	0.027773116
176	0x3c556f12	0.0130269695
177	0x3bbf08ef	0.0058299224
178	0xbe1548c2	-0.14578536
179	0xbd30f346	-0.043200754
180	0xbda638d3	-0.08116307
181	0xbd9a5c6f	-0.075371616
182	0x3d931240	0.07181215
183	0x3c9f9e26	0.01948459
184	0x3e0b1a89	0.13584341
185	0xbd8c1732	-0.06840362
186	0x3db9da2f	0.09074818
187	0x3cf9c029	0.030487137
188	0x3d9820cf	0.07428133
189	0xbdec83fc	-0.115486115
190	0x3d85fc84	0.06542304
191	0x3d83d5ef	0.06437289
192	0x3cc9b6fe	0.02462339
193	0x3de19e2d	0.11016498
194	0x3bf9361a	0.0076053264
195	0x3e0a43cd	0.13502426
196	0x3d3e15ef	0.046407636
197	0x3db5d22d	0.088779785
198	0x3da34fcf	0.07974207
199	0x3daf7cbd	0.08568714
200	0xbd867f6c	-0.065672725
201	0x3e1bd6f2	0.15218714
202	0x3d87b938	0.066271245
203	0x3d80d89d	0.06291316
204	0xbd899f16	-0.06719796
205	0x3d0e7b50	0.03478557
206	0x3c86def9	0.016463744
207	0xbdefafa0	-0.1170342
208	0x3dbe70dd	0.09298871
209	0x3e027eab	0.12743632
210	0x3b7e4801	0.0038800242
211	0x3dd8e228	0.10590011
212	0x3dbac4a4	0.091195375
213	0x3dbd0fb4	0.09231511
214	0x3dbacce6	0.091211125
215	0x3e31a829	0.17349304
216	0x3d9e1968	0.077196896
217	0xbda0fbae	-0.07860504
218	0xbdbe34ad	-0.09287391
219	0xbd838fe6	-0.06423931
220	0x3e07ed92	0.1327422
221	0xbd8110a0	-0.06301999
222	0xbd0fb54f	-0.03508502
223	0x3bb96953	0.0056583076
224	0x3df4f714	0.11961189
225	0x3e26c210	0.16284966
226	0xbd04f370	-0.032458723
227	0x3daa4b58	0.08315152
228	0xbd8c30a2	-0.068452135
229	0x3d9a2770	0.07527053
230	0xbd85696e	-0.0651425
231	0x3d0ae20f	0.033906993
232	0xbcae229d	-0.02125674
233	0xbc0101bf	-0.007873951
234	0xbe0eed8b	-0.13957803
235	0xbbb16488	-0.0054135956
236	0x3c4cb64a	0.012494633
237	0x3de09df8	0.1096763
238	0x3b6470f8	0.0034857374
239	0x3e305cce	0.17222902
240	0xbdb8722b	-0.09006151
241	0xbd7d2c08	-0.06180957
242	0xbd733051	-0.05937225
243	0x3cc7220b	0.024308225
244	0x3ccc1573	0.024912572
245	0x3cf2b3b9	0.029626714
246	0x3c5047d3	0.012712437
247	0xbd832fa0	-0.06405568
248	0x3d6d18ca	0.05788497
249	0x3dc36ffb	0.09542843
250	0x3c90297f	0.017597912
251	0xbdd2b6c7	-0.10288768
252	0x3ddbe038	0.10736126
253	0x3dfe6de8	0.12423307
254	0xbd81e28d	-0.06342039
255	0x3bc59ffe	0.0060310354

actor.4.bias f4 [36]
0	0xbd2c3268	-0.04204026
1	0x3d285a95	0.04110201
2	0xbd696984	-0.056985393
3	0xbb3817ce	-0.002809036
4	0x3d3e9bb6	0.046535216
5	0x3d8b7e20	0.06811166
6	0x3d072724	0.03299631
7	0x3def2ae3	0.11678102
8	0x3c43a0f4	0.01194023
9	0xbc87bd70	-0.016569823
10	0x3e0d8d3d	0.1382341
11	0xbc7d5d35	-0.015464117
12	0xbd713876	-0.058891736
13	0x3d06d6e5	0.032919783
14	0x3d8e964d	0.06962261
15	0xbe011e70	-0.12609267
16	0xbde88305	-0.11353115
17	0xbdb671ca	-0.08908422
18	0x3b0d19be	0.0021530236
19	0xbd8f5e95	-0.07000462
20	0xbd456076	-0.048187695
21	0x3d1ec793	0.038764548
22	0xbc9f6302	-0.01945639
23	0x3b391605	0.0028241884
24	0xbbbb874a	-0.005722915
25	0x3be035aa	0.0068423348
26	0x3ba931c5	0.0051634037
27	0x3d5081ae	0.050904922
28	0x3e075355	0.13215382
29	0xbd825837	-0.06364482
30	0xbd808239	-0.06274838
31	0x3d8228a1	0.063554056
32	0xbde8d7c3	-0.11369278
33	0x3c03e081	0.008049131
34	0xbcec879a	-0.028873254
35	0x3d2f5434	0.04280491

critic.0.weight f4 [64, 62]
0	0xbddfe883	-0.1093302
1	0x3c77980c	0.015111934
2	0xbcc75f62	-0.024337474
3	0xbcbad7ee	-0.022808041
4	0x3d25f59d	0.04051744
5	0xbd337d7e	-0.04382085
6	0xbbd2b36d	-0.0064300806
7	0x3e0ce506	0.1375924
8	0xbc286de0	-0.0102801025
9	0x3dcd34fc	0.100198716
10	0x3dbd9e6b	0.092587315
11	0xbdaba8f0	-0.08381832
12	0xbd42cfd8	-0.047561496
13	0xbd001cab	-0.03127734
14	0x3e1442cf	0.1447861
15	0xbe05a2e3	-0.13050418
16	0x3d546a74	0.051859334
17	0xbbeeeb22	-0.0072912136
18	0x3d70f9b5	0.05883189
19	0x3cef00d1	0.029175194
20	0x3c1a7079	0.00942623
21	0x3df47f58	0.119383514
22	0x3d8aaf50	0.067717195
23	0xbda77e5a	-0.081783965
24	0x3de083fe	0.109626755
25	0xbd827a41	-0.06370974
26	0xbdd87dc2	-0.105708614
27	0xbddb615e	-0.10711931
28	0xbd04aa06	-0.03238871
29	0x3e1301eb	0.143562
30	0xbe27071f	-0.1631131
31	0x3db41194	0.08792415
32	0x3ddc9100	0.10769844
33	0x3dd5d046	0.10440116
34	0x3ca0fb82	0.019651178
35	0x3d80a5e5	0.06281642
36	0x3de04a2b	0.109516464
37	0x3dfa1259	0.12210531
38	0x3d1b1f88	0.037871867
39	0x3d01a5c6	0.031652234
40	0x3e02df4e	0.12780496
41	0xbcbe2d06	-0.023214828
42	0xbcc5ca69	-0.024144368
43	0x3d82bc2e	0.06383549
44	0x3dc4f420	0.09616876
45	0xbdd0e3e5	-0.101997174
46	0x3de12091	0.1099254
47	0xbd0c2476	-0.03421446
48	0x3ca1b103	0.019737726
49	0x3bd27141	0.0064221923
50	0xbd86bdbe	-0.06579159
51	0x3df65796	0.120284244
52	0x3dee4bab	0.11635526
53	0xbd145400	-0.03621292
54	0xbd1a4b7d	-0.037669647
55	0xbde70ba1	-0.11281515
56	0x3c3c52f0	0.011494383
57	0x3c6d5231	0.014484928
58	0xbd9f0a0f	-0.077655904
59	0x3d1c3d25	0.03814425
60	0xbb4a430c	-0.0030862717
61	0x3dcb568b	0.09928616
62	0xbcd78cdb	-0.026312282
63	0x3d8e2f2e	0.069425926
64	0x3d22f2a7	0.039782193
65	0xbd9e2fb8	-0.077239454
66	0xbdd3db70	-0.10344589
67	0x3d4ab305	0.049487133
68	0x3d929913	0.07158103
69	0x3d7ff779	0.062491868
70	0x3d91e5cb	0.07123908
71	0xbc064262	-0.008194538
72	0xbd1b83b2	-0.03796739
73	0x3b29cef9	0.0025910719
74	0x3cedcab5	0.029027322
75	0xbdf78773	-0.12086382
76	0xbde9c997	-0.11415403
77	0xbcb4d362	-0.022073451
78	0x3d24ceff	0.04023647
79	0xbd9fc219	-0.07800693
80	0xbdada8ce	-0.084794626
81	0xbd4c4ffc	-0.049880967
82	0xbcb8ae1d	-0.022543961
83	0x3b7ba9e4	0.0038400823
84	0x3ce5efe4	0.02806849
85	0xbde07d1f	-0.10961365
86	0x3ba707cc	0.005097365
87	0xbbc87fdd	-0.006118758
88	0x3d578444	0.052616373
89	0x3df384b4	0.118905455
90	0x3c4f8c44	0.012667719
91	0x3db20fd1	0.08694423
92	0xbdc93a45	-0.09825567
93	0x3d9763cc	0.073920816
94	0x3ca65bae	0.020307388
95	0x3dabc524	0.08387211
96	0xbc364ae5	-0.011126255
97	0x3d673c50	0.056454003
98	0xbdf5ea48	-0.12007576
99	0x3d9e113f	0.07718133
100	0xbd330750	-0.043708146
101	0x3da18d7f	0.07888316
102	0xbdff9ac6	-0.124806926
103	0x3d3a20ec	0.045441553
104	0x3c346076	0.011009326
105	0xbdb51c13	-0.08843245
106	0xbd26a38b	-0.04068331
107	0xbd8b7a6a	-0.06810458
108	0xbceaa66e	-0.028643813
109	0x3c271b51	0.010199384
110	0xbd467110	-0.04844767
111	0x3e1fe72a	0.15615526
112	0x3ce3beb2	0.027800892
113	0xbd6f032d	-0.058352638
114	0x3abbe713	0.0014335833
115	0xbdbd3b28	-0.09239799
116	0xbe0ce380	-0.1375866
117	0xbc9d4f4b	-0.019202849
118	0xbddbf94f	-0.10740911
119	0xbd2aa444	-0.041660562
120	0xbd3c64b5	-0.04599448
121	0xbda64c07	-0.0811997
122	0xbd67fdad	-0.05663841
123	0xbdc96aa6	-0.09834795
124	0xbe00178f	-0.12508987
125	0xbd1b3763	-0.037894618
126	0xbda363e9	-0.07978041
127	0x3de8d7f6	0.11369316
128	0x3d074aad	0.0330302
129	0x3e708241	0.23487188
130	0x3e22ba16	0.15891299
131	0x3dee6e5a	0.11642142
132	0x3d474c30	0.048656642
133	0x3db4948a	0.08817394
134	0x3da7d2dc	0.08194515
135	0x3d1ccd80	0.038281918
136	0x3da54d15	0.08071343
137	0xbd8accd2	-0.067773476
138	0xbe09d037	-0.13458334
139	0x3e2352ff	0.15949629
140	0xbd579620	-0.052633405
141	0x3d9f5a25	0.077808656
142	0x3dd098ce	0.10185395
143	0xbdf9de31	-0.12200583
144	0xbdd8a247	-0.10577827
145	0x3de6d0a4	0.11270264
146	0xbddf208b	-0.10894879
147	0x3d998003	0.074951194
148	0x3dbf175e	0.09330629
149	0x3d6df3f9	0.058094
150	0xbbaa718f	-0.0052015255
151	0xbce1837e	-0.02752852
152	0x3de43fb4	0.11144963
153	0xbe303014	-0.1720584
154	0xbc92eec4	-0.017936118
155	0xbd2628c0	-0.040566206
156	0xbd85519a	-0.06509705
157	0x3d0769f4	0.03306003
158	0x3dca76df	0.09885954
159	0x3d1854a4	0.037190095
160	0x3e011c94	0.12608558
161	0x3c96a1bb	0.018387666
162	0x3db93012	0.09042372
163	0xbdea1a72	-0.11430825
164	0xbdda0d7d	-0.10647104
165	0x3d2d504a	0.042312898
166	0x3dd24212	0.10266508
167	0xbdebba02	-0.115100875
168	0xbdbff69c	-0.09373209
169	0x3dd5abe9	0.1043318
170	0x3dd1561b	0.102215014
171	0xbd052350	-0.03250438
172	0xbc52cb92	-0.012865918
173	0xbdf637c0	-0.12022352
174	0x3dc19735	0.094526686
175	0x3d12ab68	0.035807997
176	0x3c8743eb	0.016511878
177	0x3db7db77	0.089774065
178	0x3ddc4834	0.10755959
179	0x3cf5ea9e	0.0300191
180	0xbcf9f2a4	-0.030511208
181	0x3d2c4104	0.04205419
182	0xbc343779	-0.010999554
183	0xbd9bb0d5	-0.076020874
184	0x3d1fe0d1	0.03903276
185	0xbd83eb91	-0.06441415
186	0x3d82617f	0.06366252
187	0x3c973319	0.018456982
188	0xbd175284	-0.036943927
189	0x3d5ecbee	0.0543937
190	0xbca075ad	-0.019587362
191	0xbd7c22a9	-0.061556492
192	0xbd03140a	-0.032001533
193	0xbdf14b3b	-0.11781927
194	0x3c908e33	0.01764593
195	0xbdd5fdd4	-0.104488045
196	0x3cbe25dc	0.023211412
197	0xbe076954	-0.13223773
198	0xbd7e45da	-0.062078334
199	0xbc024247	-0.007950372
200	0xbdd50cb6	-0.10402815
201	0x3d1161cf	0.03549367
202	0xbd43b02b	-0.04777543
203	0x3c7d1f66	0.0154493805
204	0x3d4704ed	0.048588682
205	0xbc18dbb9	-0.00932973
206	0x3d92416c	0.071413845
207	0xbd58dc6c	-0.052944586
208	0x3de7d7b7	0.11320441
209	0xbdfd7ac3	-0.123769306
210	0xbd3f56fb	-0.04671381
211	0x3ce582ac	0.02801641
212	0xbd8e0e2d	-0.069362976
213	0x3c973e97	0.018462462
214	0xbd858ea6	-0.06521349
215	0xbd5a3158	-0.053269714
216	0xbda1f0e1	-0.07907272
217	0xbe07c6f7	-0.13259493
218	0x3c017cf0	0.007903323
219	0x3c8bbe28	0.017058447
220	0x3d9249e4	0.07143
221	0x3d3cdce2	0.046109088
222	0xbe497941	-0.19675161
223	0xbd37141c	-0.044696912
224	0x3cee8c33	0.029119587
225	0xbd7a6250	-0.061128914
226	0x3e120b25	0.14262064
227	0x3cfb29ec	0.030659638
228	0xbd6125a6	-0.054967545
229	0xbbe46a2d	-0.006970665
230	0xbd080bf9	-0.033214543
231	0x3d0af0e0	0.033921123
232	0x3c0e905f	0.008701413
233	0xbd48abe1	-0.04899204
234	0x3dee0e1b	0.11623784
235	0x3bacc315	0.005272279
236	0xbcd61c9a	-0.026136685
237	0x3da04b4f	0.07826864
238	0xbd6d48e4	-0.057930842
239	0xbd3a4865	-0.045479197
240	0x3ccfb84a	0.02535643
241	0xbde7d567	-0.1132
242	0x3d133bdd	0.035945762
243	0x3d90d385	0.07071594
244	0x3d25431d	0.040347207
245	0x3d3beff4	0.045883134
246	0x3dae475d	0.08509705
247	0x3de113eb	0.10990127
248	0xbceb3ba6	-0.028714966
249	0x3ca5ce7d	0.020240063
250	0xbd29648b	-0.04135565
251	0xbd8aa999	-0.067706294
252	0xbd040d9f	-0.032239553
253	0x3e5d6b99	0.21623076
254	0x3c5b9fae	0.01340477
255	0x3e678b33	0.22611694

critic.0.bias f4 [64]
0	0x3d3542f7	0.044253316
1	0x3ca3fd52	0.020018253
2	0xbd934b87	-0.0719214
3	0x3e035370	0.12824798
4	0xbd321172	-0.04347367
5	0xbd062664	-0.032751456
6	0x3dd3276a	0.10310252
7	0xbccf8b33	-0.02533493
8	0xbd91c272	-0.071171656
9	0x3db9c005	0.09069828
10	0x3c8b44e0	0.017000616
11	0x3c1344ba	0.008988554
12	0x3c91e768	0.017810538
13	0x3c996e06	0.018729221
14	0x3c648688	0.01394809
15	0xbe0ae73a	-0.13564768
16	0x3d2c4381	0.042056564
17	0x3da84be1	0.08217598
18	0x3da72cbc	0.08162829
19	0xbd4ea87b	-0.050453644
20	0xbdb2446e	-0.08704458
21	0x3d0547b2	0.032539077
22	0x3a80b298	0.000981885
23	0xbdcc8583	-0.09986403
24	0xbcede9cb	-0.029042145
25	0x3e2ed94f	0.17075084
26	0xbd1b0c30	-0.03785342
27	0x3d1830c0	0.037155867
28	0x3dbc6493	0.091988705
29	0x3dcacbdd	0.09902165
30	0xbd695bd2	-0.056972332
31	0x3dccfa99	0.10008735
32	0x3ddd6fbc	0.10812327
33	0x3d23b53e	0.039967768
34	0x3db075ff	0.08616256
35	0xbcb2ec0e	-0.021841075
36	0x3d99f0fc	0.07516667
37	0xbda19002	-0.078887954
38	0xbd285b6b	-0.041102808
39	0x3e05b52e	0.13057396
40	0x3d1e9460	0.03871572
41	0x3d81392f	0.06309735
42	0x3df7201c	0.12066671
43	0x3dad620a	0.08465965
44	0x3dc35ec0	0.095395565
45	0xbd02308b	-0.031784575
46	0xbcc66858	-0.024219677
47	0xbc667d3a	-0.014067942
48	0x3cf2f8bb	0.02965962
49	0xbdac4224	-0.08411053
50	0xbdde89d5	-0.10866133
51	0x3e3051a3	0.17218642
52	0xbda7a278	-0.08185285
53	0x3c4d4f42	0.012531104
54	0x3bbcdcc1	0.0057636206
55	0x3e0a8973	0.13528995
56	0xbd5d7f12	-0.05407626
57	0xbd9c7ea0	-0.07641339
58	0x3e1e4def	0.15459417
59	0x3e12a20b	0.14319627
60	0xbd5e1a47	-0.05422428
61	0xbcc8d105	-0.02451373
62	0x3d9c0ae9	0.076192684
63	0x3cab91c3	0.020943528

critic.2.weight f4 [64, 64]
0	0xbd8e7afc	-0.06957051
1	0x3daaee17	0.08346193
2	0xbddb5a69	-0.10710604
3	0xbdc2d4a4	-0.09513214
4	0xbd4fc4f4	-0.05072494
5	0xbdd35e03	-0.10320666
6	0x3dc3035c	0.09522125
7	0xbd60881d	-0.054817308
8	0x3d3b8d97	0.045789327
9	0xbd600069	-0.05468789
10	0x3b994ab3	0.0046780943
11	0xbdb4be6c	-0.088253826
12	0xbe3b50bf	-0.18292521
13	0xbe168d49	-0.14702334
14	0x3b3ac8e0	0.0028501078
15	0xbd4709bd	-0.04859327
16	0xbd5dca35	-0.054147918
17	0x3d0fd8ee	0.03511899
18	0x3e0ed9f9	0.13950337
19	0xbd73c395	-0.059512693
20	0xbc6fb8f6	-0.0146315005
21	0x3c174cc4	0.009234611
22	0xbdd5d287	-0.104405455
23	0xbdeca03a	-0.11553998
24	0x3d6f5b80	0.05843687
25	0x3e513a3d	0.20432372
26	0xbe370c0f	-0.17875694
27	0xbcc5d4c0	-0.024149299
28	0xbdd686e6	-0.104749486
29	0x3ca75e93	0.020430839
30	0xbdc08b74	-0.094015986
31	0xbd89d1c8	-0.06729466
32	0x3c4ef789	0.012632259
33	0xbd79c5ed	-0.060979772
34	0xbdab06f3	-0.08350935
35	0xbc94fe79	-0.018187748
36	0x3dc3ad32	0.09554519
37	0xbdbb27c3	-0.09138443
38	0xbdb64ea8	-0.08901721
39	0x3e22d718	0.15902364
40	0xbc614714	-0.0137498565
41	0x3db3bb76	0.0877599
42	0x3d5bd1e7	0.053666975
43	0xbd21382c	-0.03936021
44	0x3d94922c	0.072544426
45	0x3dbba6d1	0.09162677
46	0xbd90de58	-0.07073659
47	0xbd23df53	-0.0400079
48	0xbd4b42ea	-0.04962436
49	0x3df6fcac	0.12059912
50	0x3d880119	0.06640834
51	0xbdff6e5e	-0.12472223
52	0xbdcf57b0	-0.10124147
53	0xbc935c16	-0.017988246
54	0x3ca9694d	0.020680094
55	0x3d588cea	0.05286876
56	0x3db043fa	0.086067155
57	0x3cf0a301	0.029374601
58	0xbcac32b3	-0.021020269
59	0x3d81cf8b	0.06338414
60	0xbdba8ad3	-0.0910851
61	0x3d9109cc	0.07081947
62	0xbbde4962	-0.0067836503
63	0xbc9b16d7	-0.01893179
64	0xbd97f641	-0.07420016
65	0x3d9f7475	0.07785884
66	0xbca6fe60	-0.020384967
67	0x3dc3276b	0.09529003
68	0xb9d57b3d	-0.00040718346
69	0xbd199415	-0.037494738
70	0xbdf1900d	-0.11795054
71	0xbd619642	-0.055074938
72	0x3c8d9b17	0.017285867
73	0xbd819aee	-0.063283786
74	0x3d5f94d2	0.054585285
75	0x3d0cb173	0.034348916
76	0xbde842fb	-0.113409005
77	0xbc92f1fc	-0.017937653
78	0x3ce94788	0.028476492
79	0x3d274192	0.040834017
80	0xbdf9e15c	-0.12201187
81	0xbdef9d8a	-0.1169997
82	0xbdb336a0	-0.08750653
83	0xbdc8eada	-0.098104194
84	0xbdc7c570	-0.09754455
85	0xbcdb00e1	-0.026733818
86	0x3d824f90	0.063628316
87	0xbd90154c	-0.07035312
88	0xbdd0ea2a	-0.10200913
89	0x3dc5121e	0.09622596
90	0xbc15a38f	-0.009133234
91	0xbd392c9c	-0.04520856
92	0x3d7370aa	0.059433617
93	0xbc9dc8b5	-0.019260744
94	0xbd861d3c	-0.06548545
95	0xbde3cf94	-0.11123577
96	0x3d0434ee	0.03227704
97	0xbda3875d	-0.07984803
98	0x3dac22ee	0.084051
99	0xbe0bd26c	-0.13654488
100	0xbdbbed30	-0.09176099
101	0x3dbf3684	0.0933657
102	0xbdf79362	-0.12088658
103	0xbcec1564	-0.028818794
104	0xbdbf18ef	-0.093309276
105	0xbd73fa47	-0.059564855
106	0xbd51627a	-0.051119305
107	0x3daad16a	0.08340724
108	0x3c9dc29c	0.019257836
109	0xbdf93216	-0.12167756
110	0xbd890f84	-0.066924125
111	0xbd2bbc28	-0.041927487
112	0xbc15028e	-0.009094847
113	0x3cbde089	0.023178356
114	0x3c16944a	0.009190628
115	0xbe00dbf9	-0.12583913
116	0x3d717ee1	0.05895889
117	0x3ccff5c6	0.025385749
118	0x3db3cfbc	0.087798566
119	0xbdff493f	-0.124651425
120	0xbd8c1020	-0.06839013
121	0xbc3a2320	-0.0113609135
122	0xbd11cc6b	-0.03559534
123	0xbde8b5dd	-0.11362813
124	0xbdb6799e	-0.089099154
125	0xbdefe594	-0.117137104
126	0x3c88fd70	0.01672241
127	0xbdbf9728	-0.09355003
128	0xbb664a6a	-0.003513957
129	0xbc31a896	-0.010843417
130	0xbdde6dcf	-0.10860788
131	0xbc859d18	-0.01631026
132	0xbd70d16e	-0.058793478
133	0x3d959ab8	0.07304901
134	0xbcd8b03c	-0.026451223
135	0xbe03251c	-0.12807125
136	0x3db0fa16	0.0864145
137	0xbd8bb820	-0.068222284
138	0xbdbad4a7	-0.091225915
139	0xbbde3b9b	-0.006782008
140	0xbd7615a4	-0.06007923
141	0x3cb58fc2	0.022163276
142	0x3cb4d2f5	0.022073248
143	0x3d728ffa	0.059219338
144	0x3c2b0641	0.010438503
145	0x3dc80268	0.09766084
146	0x3d788f7f	0.060683724
147	0xbb151b64	-0.0022751922
148	0x3c35b35a	0.011090124
149	0xbda0f8b4	-0.07859936
150	0xbd4ace0b	-0.049512904
151	0x3d35231b	0.044222932
152	0xbd48e98e	-0.04905086
153	0xbd2011aa	-0.039079346
154	0x3cd73605	0.026270876
155	0x3d4495ce	0.047994427
156	0xbc111614	-0.0088553615
157	0x3dc6a33f	0.096991055
158	0x3dc7847f	0.097420685
159	0xbdc5d11d	-0.09659026
160	0xbde1352b	-0.10996469
161	0xbe0a095d	-0.13480134
162	0x3db2a4e1	0.087228544
163	0x3d81fedd	0.063474394
164	0xbde22826	-0.11042814
165	0xbccf8eef	-0.02533671
166	0xbd2a2e7c	-0.041548237
167	0x3d444e24	0.047926083
168	0xbd3af985	-0.045648117
169	0xbdafe19c	-0.085879534
170	0x3de2d058	0.11074895
171	0x3cdefcc2	0.027220134
172	0x3cb299ad	0.021801794
173	0x3d6422a9	0.055697117
174	0x3dd0a598	0.101878345
175	0xbdc359e3	-0.09538629
176	0xbbc31204	-0.0059530754
177	0xbcbdbb00	-0.023160458
178	0x3de6bcbf	0.11266469
179	0x3d23aec0	0.039961576
180	0xbd6ca51f	-0.05777466
181	0xbd3533f7	-0.04423901
182	0x3db8f769	0.09031565
183	0xbdec053e	-0.11524437
184	0x3d56e1e2	0.052461512
185	0x3d461a5a	0.048364975
186	0xbd92712b	-0.07150491
187	0xbdce122a	-0.10062058
188	0x3db6e2a7	0.08929949
189	0xbd94c5aa	-0.07264264
190	0x3d366b37	0.04453584
191	0xbdf00136	-0.11718981
192	0x3d6af913	0.057366442
193	0xbbf6d69e	-0.0075329086
194	0xbc66396e	-0.014051778
195	0x3c77f9e9	0.015135267
196	0x3dd01de0	0.10161948
197	0xbc80386c	-0.015651904
198	0xbdbda441	-0.092598446
199	0x3bec49b3	0.007210934
200	0x3d774b25	0.060374398
201	0x3d7afcac	0.061276123
202	0xbdcac026	-0.09899931
203	0x3d1428c5	0.036171693
204	0x3e1c4ee1	0.15264465
205	0xbd9eef8f	-0.07760536
206	0xbdbcf36f	-0.09226119
207	0x3db90a9c	0.09035227
208	0xbd992f0d	-0.07479677
209	0x3cbcb395	0.02303485
210	0x3de8ce83	0.11367514
211	0xbe03a880	-0.12857246
212	0xbc955dbd	-0.018233174
213	0x3d0bd825	0.03414168
214	0xbd3508ca	-0.044197835
215	0x3d268213	0.040651392
216	0x3d0029c4	0.03128983
217	0xbde1b0e3	-0.110200666
218	0xbde51471	-0.111855395
219	0xbdcbb418	-0.099464595
220	0x3dabb695	0.08384434
221	0xbb9ad1d3	-0.00472472
222	0x3e0bfde5	0.13671072
223	0xba2f1810	-0.0006679306
224	0x3dad3e3d	0.08459137
225	0xbcfd0c1a	-0.03088956
226	0xbb591587	-0.0033124404
227	0x3def1b70	0.11675155
228	0xbc35a0dd	-0.011085716
229	0xbd6e3314	-0.05815418
230	0xbe0664a8	-0.13124335
231	0xbd90a84e	-0.070633516
232	0x3e36b001	0.17840578
233	0x3d8050ea	0.06265433
234	0x3da23035	0.07919351
235	0x3d097c43	0.03356577
236	0x3ba16212	0.004925021
237	0x3ac56a66	0.0015061616
238	0xbdacdca3	-0.084405206
239	0x3e058f7e	0.13043019
240	0xbdaa2309	-0.08307464
241	0xbe050f01	-0.12994005
242	0x3d7245bd	0.05914854
243	0xbcaf057a	-0.021364916
244	0xbca7de23	-0.020491665
245	0xbd95e0ae	-0.07318245
246	0xbdad35af	-0.08457505
247	0xbd032a9a	-0.03202305
248	0x3d71623a	0.058931567
249	0xbcf05d6a	-0.029341418
250	0xbc459484	-0.012059335
251	0x3e37083d	0.17874236
252	0x3e06d046	0.13165388
253	0x3dabcbe4	0.083884984
254	0xbd011079	-0.03150985
255	0x3d33af36	0.043868266

critic.2.bias f4 [64]
0	0x3e0b0517	0.1357616
1	0xbcd4a447	-0.02595724
2	0xb9bfcd8f	-0.00036583512
3	0xbdb87a6f	-0.09007727
4	0x3d6e6c81	0.058208946
5	0x3da9318f	0.08261406
6	0x3de4b617	0.111675434
7	0x3dbed568	0.09318048
8	0x3db331a7	0.08749705
9	0x3c276f08	0.010219343
10	0x3cbe0479	0.023195492
11	0xbe0222ab	-0.12708537
12	0xbd367c2f	-0.044552024
13	0xbd574e41	-0.052564863
14	0x3d1bd8a0	0.038048387
15	0x3e1c1e57	0.15245949
16	0xbdccdc52	-0.1000296
17	0x3de40ba6	0.11135034
18	0xbd4b62ae	-0.049654655
19	0xbc8da66a	-0.017291266
20	0x3bcba7b5	0.0062150606
21	0xbdd4bca6	-0.10387544
22	0xbdf716a6	-0.12064867
23	0x3d480374	0.04883142
24	0xbe028c88	-0.12748921
25	0xbd3b478b	-0.045722526
26	0x3d2e2b3d	0.042521704
27	0x3d89c840	0.06727648
28	0xbc2eb6dc	-0.010663714
29	0xbd419e2d	-0.04726999
30	0x3c002a7c	0.007822629
31	0x3e103705	0.14083488
32	0xbcea236d	-0.028581345
33	0xbde56d6f	-0.112025134
34	0x3d9d4240	0.07678652
35	0xbdbc5a9c	-0.0919697
36	0xbdb9d57c	-0.09073922
37	0xbd9aa035	-0.07550088
38	0x3b9378c3	0.00450048
39	0x3ddec0a3	0.10876586
40	0x3da91299	0.082555
41	0x3d887fcb	0.066649996
42	0x3e090899	0.13382186
43	0xbdaf81d9	-0.08569688
44	0xbd983f24	-0.07433918
45	0x3d0ac650	0.03388053
46	0xbcc38227	-0.023865772
47	0xbd233741	-0.039847616
48	0xbd527384	-0.051379696
49	0xbd816de7	-0.0631979
50	0xbcece044	-0.028915532
51	0xbd8fad41	-0.070154674
52	0xbc928eda	-0.017890383
53	0x3bb79eb0	0.005603634
54	0xbd9ccb6b	-0.076559864
55	0xbe080116	-0.13281664
56	0xbdc7fdfa	-0.09765239
57	0xbd9a0001	-0.07519532
58	0x3e0ace33	0.13555221
59	0x3d8ad9cf	0.06779825
60	0x3dd57506	0.10422711
61	0x3d8acfce	0.06777917
62	0x3dbd4d6c	0.09243283
63	0xbd16a915	-0.036782343

critic.4.weight f4 [1, 64]
0	0x3ddfb9a8	0.10924083
1	0xbdc4ca3b	-0.09608885
2	0x3c8b4ed6	0.017005365
3	0xbd3398f4	-0.04384704
4	0x3d60e6c4	0.054907575
5	0xbe0bf027	-0.1366583
6	0xbdc1b017	-0.094574146
7	0xbdbef6f9	-0.0932445
8	0x3cf6690c	0.030079387
9	0xbd3b4cfd	-0.04572772
10	0xbd9c77f5	-0.076400675
11	0x3c444e23	0.01198152
12	0x3d1d7ead	0.038450886
13	0x3db1efb0	0.08688295
14	0xbd8bf2fa	-0.068334535
15	0x3db467fe	0.088088974
16	0xbd3ede70	-0.04659885
17	0xbd85aaf5	-0.06526748
18	0xbc9a607c	-0.018844835
19	0x3dd5f0ca	0.104463175
20	0xbd3e01c9	-0.04638842
21	0xbdbca11f	-0.09210419
22	0xbdcb2f20	-0.09921098
23	0x3deb0f73	0.11477556
24	0xbbb25cec	-0.005443206
25	0xbdb25eb8	-0.087094724
26	0x3e1beecc	0.15227813
27	0xbe0cefc9	-0.13763346
28	0xbda78c87	-0.081811
29	0xbd9fc3b7	-0.078010015
30	0xbe076ffc	-0.13226312
31	0x3dd72d77	0.105067186
32	0x3e0cdbc9	0.13755716
33	0x3cb7841b	0.02240186
34	0x3e15de76	0.14635643
35	0xbd3bbea4	-0.045836106
36	0x3dbf6291	0.09344972
37	0x3d89534d	0.067053415
38	0x3cbf32c9	0.023339646
39	0x3cbd6a18	0.023121879
40	0x3cad9ee8	0.021193936
41	0xbc517e7b	-0.012786503
42	0x3dc59e7f	0.09649371
43	0x3d926ce3	0.07149675
44	0x3d87527d	0.0660753
45	0x3db29dff	0.087215416
46	0xbe2daf1a	-0.16961327
47	0x3e378823	0.17923026
48	0x3e149ec6	0.14513692
49	0xbb39c5fd	-0.002834677
50	0xbda17c1d	-0.07885001
51	0x3e0ca97c	0.13736528
52	0x3d644a4c	0.055734918
53	0x3e0e6f35	0.1390961
54	0x3d9877cd	0.07444725
55	0xbdb7ee47	-0.08980995
56	0x3d809158	0.06277722
57	0x3c22baf5	0.009932269
58	0x3db5f674	0.08884898
59	0xbe2f61fa	-0.17127219
60	0x3d77d474	0.060505345
61	0xbd5d3196	-0.054002367
62	0xbd191c06	-0.03738024
63	0x3da17d31	0.078852065
