Models/Reward_shaping_vm/RS_norm_mag_vm_1_0/19000.pth (torch, 78437 bytes, 11 tensors)

actor.0.weight f4 [64, 62]
0	0x3d86049d	0.06543849
1	0xbd659a06	-0.05605509
2	0xbcc9b0ca	-0.024620432
3	0x3d742986	0.059609912
4	0xbe9e157f	-0.30875775
5	0x3dd2846e	0.10279165
6	0x3debefb7	0.11520331
7	0x3dc87f39	0.09789891
8	0x3d6bb288	0.057543308
9	0x3ddf357e	0.10898875
10	0x3e075bc6	0.13218603
11	0x3d9cc2e0	0.07654357
12	0x3d9b46a9	0.07581837
13	0xbc305782	-0.010763051
14	0xbd8cd452	-0.068764344
15	0xbcc8c12e	-0.024506178
16	0x3c96cc2a	0.0184079
17	0xba04ff36	-0.000507343
18	0x3de35e14	0.11101928
19	0x3d21e0f7	0.039521184
20	0xbd41b912	-0.047295637
21	0xbd9d168d	-0.07670317
22	0xbcae6283	-0.021287208
23	0xbd606155	-0.054780323
24	0xbd26b1e6	-0.040697
25	0x3bc742df	0.0060809697
26	0x3d9b0cf4	0.0757083
27	0x3d8d5f32	0.06902923
28	0x3c21270f	0.009835972
29	0x3cee580b	0.029094717
30	0x3d7bcdce	0.061475568
31	0x3e9fd1f4	0.3121487
32	0x3dabadd8	0.083827674
33	0xbdecfbc7	-0.1157146
34	0xbdf74d3c	-0.12075278
35	0xbd7ae7d2	-0.061256237
36	0x3e0084a3	0.12550597
37	0xbcd9052e	-0.026491728
38	0xbd774eff	-0.06037807
39	0x3cd6ca12	0.026219402
40	0x3e20c675	0.15700705
41	0x3e2629e4	0.16226918
42	0x3e4dcfbf	0.2009878
43	0x3dab303b	0.083588086
44	0xbe85e2bd	-0.2614955
45	0xbdda28f6	-0.10652344
46	0x3cd4df34	0.025985338
47	0x3d6d418b	0.057923835
48	0xbe6eca15	-0.23319276
49	0xbe11dff4	-0.14245588
50	0xbe14b307	-0.14521419
51	0xbd7fac54	-0.062420204
52	0x3d8d2317	0.068914585
53	0xbd084fce	-0.033279233
54	0x3dcdf7a2	0.10056998
55	0x3dc41787	0.095748
56	0xbd247c9a	-0.04015789
57	0xbdad9c1f	-0.08477043
58	0x3defa99a	0.11702271
59	0x3e32c2f0	0.17457175
60	0xbda5885c	-0.08082649
61	0x3db19ec8	0.08672863
62	0x3d9de7a8	0.077102005
63	0x3de6ad95	0.11263577
64	0xbd91cca9	-0.07119114
65	0xbcab40eb	-0.020904979
66	0x3b82c80b	0.003991132
67	0x3e1555b6	0.14583477
68	0xbdd0b035	-0.10189859
69	0xbd4532ea	-0.04814426
70	0x3e23bac6	0.15989217
71	0x3d4b6c53	0.049663853
72	0x3cc6b8a3	0.024257964
73	0xbd907db7	-0.07055228
74	0x3e3811d3	0.1797555
75	0xbdc25617	-0.094890766
76	0xbc894b32	-0.016759489
77	0xbdc04abb	-0.09389254
78	0xbdf0e0d7	-0.11761635
79	0x3d82eb7a	0.0639257
80	0xbdb6e135	-0.089296736
81	0xbdc43eb5	-0.09582273
82	0x3bfd14dc	0.007723434
83	0xbcb14a01	-0.021641733
84	0x3d98c2c2	0.07459022
85	0xbd96a18a	-0.0735503
86	0xbde7388b	-0.112900816
87	0x3dbd4a39	0.092426725
88	0xbc9a452a	-0.018831808
89	0x3d924b03	0.071432136
90	0x3dc1146b	0.094277225
91	0xbdb85d42	-0.090021625
92	0x3dd191bc	0.10232875
93	0xbd436335	-0.047702033
94	0xbdae2652	-0.08503403
95	0xbd76d122	-0.06025804
96	0x3d315f7b	0.043303948
97	0x3cba5b3f	0.022748588
98	0xbd928de0	-0.07155967
99	0xbd9dec22	-0.077110544
100	0x3cba993c	0.022778146
101	0xbd0258a8	-0.03182283
102	0x3e43d070	0.19122481
103	0x3e99cb8c	0.30038106
104	0xbdc6ac67	-0.09700852
105	0xbe0d2886	-0.1378499
106	0x3d1f6693	0.03891618
107	0xbe039f07	-0.12853633
108	0x3e51cabc	0.20487493
109	0x3d1cf67f	0.038321014
110	0xbe3126ff	-0.17300032
111	0xbde16df7	-0.11007302
112	0x3db79b38	0.089651525
113	0xbdc9f084	-0.09860328
114	0x3c821409	0.015878694
115	0x3dc00795	0.09376446
116	0x3dc4f57c	0.09617135
117	0xbce3f2f3	-0.027825808
118	0xbe574c2e	-0.21025154
119	0xbdbb4be1	-0.09145332
120	0xbdd689bb	-0.10475489
121	0x3d76eb81	0.060283188
122	0x3e163e33	0.14672165
123	0xbd2bd9aa	-0.041955628
124	0x3d8a99af	0.06767594
125	0xbd8ff5cf	-0.07029306
126	0xbdf48bed	-0.11940751
127	0xbcdd1f83	-0.026992565
128	0xbd32e114	-0.043671682
129	0x3e6b3b01	0.22971727
130	0x3cc5b2a5	0.024133036
131	0x3d922901	0.07136727
132	0x3e21d274	0.15802938
133	0x3dd68544	0.10474637
134	0x3e156bf2	0.14591959
135	0x3e782b65	0.24235304
136	0x3dab69a8	0.08369762
137	0xbeb15849	-0.3463767
138	0xbe6f3eba	-0.23363772
139	0xbf133b5b	-0.57512444
140	0xbd6e5ce8	-0.05819407
141	0xbc724c11	-0.014788643
142	0xbd9f6d34	-0.07784501
143	0x3d3e5078	0.04646346
144	0x3d20fe45	0.03930499
145	0xbceb9474	-0.028757311
146	0x3d47ee62	0.048811324
147	0x3d281e47	0.0410445
148	0x3d9ecc84	0.07753852
149	0x3daf2901	0.08552743
150	0xbd302a24	-0.04300894
151	0x3dfe1ee6	0.12408237
152	0xbb0c0494	-0.0021365033
153	0x3deaa461	0.11457134
154	0xbd9a2937	-0.07527392
155	0xbd9342fe	-0.07190512
156	0xbd97f2fb	-0.07419392
157	0xbd5e7f8e	-0.054320864
158	0x3db8eba7	0.09029322
159	0xbd29fd32	-0.04150123
160	0xbe6fdbf9	-0.23423757
161	0xbdbe8f84	-0.09304717
162	0x3e5760e6	0.21033058
163	0x3dcd397e	0.100207314
164	0xbd9c1bdd	-0.07622502
165	0x3d289bff	0.041164394
166	0x3dde05d7	0.108409576
167	0xbc4f1509	-0.0126392925
168	0xbe0a8cb1	-0.13530232
169	0xbde398e3	-0.11113145
170	0xbe429481	-0.19001962
171	0x3db3320d	0.08749781
172	0xbe71478d	-0.2356245
173	0xbd9eaec8	-0.07748181
174	0x3e0e4565	0.1389366
175	0x3dae99d1	0.08525432
176	0x3db165dd	0.08662007
177	0xbcc07d37	-0.023497207
178	0x3d89ab17	0.06722086
179	0x3e51ef16	0.2050136
180	0x3d80ebab	0.0629495
181	0xbc283879	-0.01026737
182	0xbc8b2393	-0.016984737
183	0x3e19642a	0.14979616
184	0xbdfc4bc2	-0.12319137
185	0x3da77742	0.081770435
186	0xbde0dbd2	-0.109794274
187	0xbdcabd94	-0.098994404
188	0xbb8d4f7a	-0.004312453
189	0xbd8ca358	-0.06867093
190	0x3d563065	0.052292246
191	0xbde1049f	-0.109872095
192	0xbd42a560	-0.047520995
193	0x3db3750c	0.08762559
194	0x3db14871	0.08656395
195	0xbd50049a	-0.05078564
196	0x3ea3bba7	0.31979105
197	0x3f01dbac	0.5072582
198	0x3d0e4fc8	0.034744054
199	0x3d457c7b	0.048214417
200	0x3e2960fd	0.16540904
201	0x3ed7d44f	0.42154166
202	0x3dde0ea7	0.108426385
203	0xbd49c934	-0.049264148
204	0x3d9cab71	0.07649887
205	0x3b77ca47	0.0037809776
206	0xbc220e4e	-0.009891106
207	0xbb84c91b	-0.004052294
208	0x3cb0dc15	0.021589318
209	0x3d75377a	0.05986736
210	0x3ca6db59	0.020368265
211	0x3d1eaff1	0.03874201
212	0xbde9f687	-0.114239745
213	0x3dbd7d67	0.09252434
214	0x3e3c3667	0.18380128
215	0x3d789fa7	0.06069913
216	0x3dfa83e9	0.12232191
217	0x3de79ea6	0.11309557
218	0xbd40d5da	-0.047078945
219	0x3de5555d	0.111979224
220	0xbdc61ac3	-0.09673073
221	0x3debf6ff	0.1152172
222	0xbdedb39b	-0.11606523
223	0xbdf371a3	-0.11886909
224	0x3de5bffe	0.1121826
225	0xbd41e039	-0.047332976
226	0x3d1f514d	0.038895894
227	0xbdaef890	-0.08543503
228	0x3e8be7ae	0.27325195
229	0x3e25ccd9	0.16191424
230	0x3d43b187	0.047776725
231	0xbcafdf16	-0.02146868
232	0x3dd1fabe	0.102529034
233	0x3d1cc4cf	0.03827363
234	0xbde68731	-0.112562545
235	0xbcfdb0f4	-0.030968167
236	0xbdb0ee11	-0.086391576
237	0x3d87a404	0.066230804
238	0x3da302c6	0.07959513
239	0xbe2fe75b	-0.17178099
240	0xbd978554	-0.07398477
241	0x3e493c80	0.19651985
242	0x3e1b44fc	0.15163034
243	0xbb710dde	-0.0036781947
244	0xbd7f4481	-0.06232119
245	0x3d361801	0.044456486
246	0xbdd8cbb1	-0.10585726
247	0xbe7460c7	-0.23865043
248	0xbdad24b0	-0.08454263
249	0x3dd63278	0.10458845
250	0x3de546c0	0.11195135
251	0xbd30b12c	-0.043137714
252	0xbcdbd955	-0.02683703
253	0xbd6a5989	-0.057214294
254	0x3db9df20	0.09075761
255	0xbd202648	-0.039099008

actor.0.bias f4 [64]
0	0xbb2753c6	-0.002553211
1	0xbc1edcf9	-0.009696239
2	0x3dc2c8f9	0.09510989
3	0xbddb795f	-0.10716509
4	0xbd4aac90	-0.049480975
5	0x3c714d27	0.014727867
6	0xbd000f0d	-0.031264354
7	0x3d500cec	0.050793573
8	0x3a8574df	0.0010181925
9	0x392af494	0.00016303576
10	0x3a087835	0.00052059005
11	0x3e0107b6	0.12600598
12	0x3c7747c8	0.015092798
13	0x3c69bd31	0.014266298
14	0x3dc021bc	0.09381434
15	0xbd86b8ef	-0.06578242
16	0x3d4c6afb	0.049906712
17	0x3d38b7f6	0.045097314
18	0x3d2a9123	0.04164232
19	0xbc4c3efb	-0.012466188
20	0x3dbb090f	0.09132587
21	0xbc71d9d1	-0.014761404
22	0x3c876e50	0.016532093
23	0xbd8a8f6f	-0.06765639
24	0x3d11ab57	0.035563793
25	0xbc60679b	-0.0136965765
26	0xbdf9b09a	-0.12191887
27	0x3d84de9d	0.064877726
28	0x3e0a1ca1	0.13487484
29	0xbc83fe0f	-0.016112356
30	0x3d749de7	0.0597209
31	0xbe071fb4	-0.13195688
32	0x3d749e06	0.059721015
33	0xbd832214	-0.06402984
34	0x3d940f0a	0.07229431
35	0xba64b8f0	-0.00087250676
36	0x3da2f4da	0.07956858
37	0x3d206eb7	0.039168086
38	0x3c4bfb92	0.012450116
39	0x3c7c6a20	0.015406162
40	0x3dd30f03	0.10305598
41	0xbd7bb395	-0.06145056
42	0xbd9a4e48	-0.07534462
43	0x3c72f8fe	0.014829872
44	0xbcb510d8	-0.022102758
45	0x3e456100	0.19275284
46	0xbdd38f9f	-0.10330128
47	0x3cdd883c	0.0270425
48	0xbd1d1de9	-0.038358603
49	0xbd0ea481	-0.034824852
50	0xbe03f132	-0.12884977
51	0xbd4af30f	-0.049548205
52	0xbd9a8899	-0.07545585
53	0x3e0de3b4	0.13856393
54	0x3a8d1136	0.0010762576
55	0xbb2c973c	-0.002633526
56	0x3d7ac2c0	0.061220884
57	0xbd2b454c	-0.041814134
58	0x3d588372	0.05285973
59	0x3da2c7c6	0.0794826
60	0x3d94ea99	0.072713085
61	0xbc41f516	-0.011838218
62	0x3d8504da	0.06495066
63	0x3d281aa0	0.041041017

actor.2.weight f4 [64, 64]
0	0xbd02bb2c	-0.031916782
1	0x3d66d752	0.05635769
2	0xbdbe7e82	-0.09301473
3	0xbe3d9608	-0.18514264
4	0xbce5ae1e	-0.028037127
5	0x3e08025a	0.13282147
6	0x3e52752c	0.2055251
7	0xbd84739b	-0.064673625
8	0x3e66d8f1	0.22543694
9	0x3d1a0abb	0.03760789
10	0x3d755719	0.059897516
11	0x3dc28055	0.09497134
12	0x3dafa91f	0.08577179
13	0xbe082b02	-0.13297656
14	0x3da9970f	0.08280765
15	0xbca8420d	-0.020539308
16	0x3e0c9a30	0.13730693
17	0x3e3e8b04	0.18607718
18	0xbe3386bf	-0.1753187
19	0x3dd275cf	0.102763765
20	0x3d7a88ed	0.06116574
21	0x3d128272	0.035768934
22	0xba1e9568	-0.0006049485
23	0x3c8ff702	0.017573837
24	0x3e20aa50	0.15689969
25	0xbe08e6b4	-0.13369256
26	0x3e0fa42c	0.1402747
27	0x3d9c87f8	0.076431215
28	0x3dc03577	0.093851976
29	0x3d9b179b	0.07572862
30	0x3e16e5b7	0.14736067
31	0x3db1ab1d	0.086752154
32	0xbd5c52ff	-0.05379009
33	0xbc83f254	-0.016106762
34	0xbdfbfb3b	-0.12303778
35	0xbd854304	-0.06506923
36	0xbb191320	-0.0023357347
37	0x3c16eb35	0.009211351
38	0x3d5c005d	0.053711284
39	0xbcba8de3	-0.022772735
40	0x3c0cce9c	0.008594181
41	0xbddb5f81	-0.10711575
42	0xbd0e878f	-0.034797247
43	0x3da7b6f6	0.08189194
44	0x3d067bc7	0.032832887
45	0x3d9f0c8d	0.07766066
46	0xbd8e476e	-0.06947218
47	0xbe06f228	-0.13178313
48	0xbd1bcff7	-0.038040128
49	0x3e423b46	0.18967924
50	0xbd52eb4f	-0.05149394
51	0x3e6263ad	0.22108336
52	0xbb965348	-0.0045875646
53	0x3e071357	0.13190971
54	0x3deb8a3d	0.11500976
55	0x3de8828d	0.113530256
56	0x3e3660a8	0.17810309
57	0xbd804e84	-0.06264976
58	0x3d4007c2	0.0468824
59	0xbdec4b2b	-0.11537775
60	0xbc55ebcb	-0.013056706
61	0x3d35d91b	0.0443965
62	0x3c46bc01	0.012129785
63	0xbe82ed25	-0.25571552
64	0x3e24628f	0.16053222
65	0xbdf00fe5	-0.11721782
66	0xbe23ddb5	-0.16002543
67	0x3e8ac303	0.27101907
68	0x3d956f5d	0.072966315
69	0x3e4c77d0	0.1996758
70	0x3cb0c6d6	0.021579187
71	0x3db376d3	0.08762898
72	0xbe064fb2	-0.13116339
73	0xbcb1b17f	-0.021691082
74	0x3d9b2b62	0.07576634
75	0xbd5661fa	-0.05233953
76	0xb9fcacbc	-0.00048193883
77	0x3e0eb62c	0.1393668
78	0x3dccfd40	0.10009241
79	0x3d986028	0.07440215
80	0xbe7cd22e	-0.24689552
81	0xbe51a726	-0.20473918
82	0x3e852144	0.26001942
83	0xbbde8868	-0.0067911632
84	0x3e25148f	0.16121124
85	0x3d44b27f	0.04802179
86	0x3e15a6ab	0.1461436
87	0x3e71dfc5	0.23620518
88	0xbe8cb167	-0.27479097
89	0x3dc578f0	0.096422076
90	0x3d20148a	0.039082088
91	0x3de64c85	0.11245064
92	0x3e3292c3	0.17438798
93	0xbd239c64	-0.039944068
94	0x3e7aea53	0.2450345
95	0x3cdf353d	0.027247066
96	0xbdb69916	-0.089159176
97	0x3e79c02d	0.24389715
98	0x3e3a3c56	0.18187079
99	0x3de271cf	0.110568635
100	0xbde2e969	-0.11079676
101	0xbd9990b3	-0.07498302
102	0xbda3d0a1	-0.07998777
103	0x3eb86b8f	0.3601956
104	0x3e7bf2c4	0.24604326
105	0x3eb2e2a6	0.34938544
106	0x3ce299ed	0.027661288
107	0xbd29c6c5	-0.041449327
108	0x3e076837	0.13223349
109	0xbda834e8	-0.08213216
110	0x3e2073bc	0.15669149
111	0x3e50c03f	0.20385836
112	0x3da031c9	0.07821996
113	0x3d91ba4c	0.071156114
114	0xbdbddb2b	-0.092703186
115	0x3d8aa6cf	0.067700975
116	0x3deb316a	0.11484034
117	0x3db80efe	0.089872345
118	0x3dc4899d	0.0959656
119	0x3e2652d9	0.16242541
120	0xbe08447b	-0.13307373
121	0xbc0c8510	-0.008576646
122	0x3cff4416	0.031160396
123	0xbd7e0d34	-0.06202431
124	0x3e6c4da6	0.23076496
125	0xbc6f847b	-0.014618988
126	0xbd86e541	-0.065866955
127	0x3dc63d21	0.09679628
128	0xbdaf3894	-0.08555713
129	0xbe0bc3a0	-0.13648844
130	0xbcf611e0	-0.03003782
131	0x3d78a849	0.060707364
132	0x3e1173f5	0.1420439
133	0x3e13cc11	0.14433314
134	0xbe33cbb6	-0.17558178
135	0xbde9c7f1	-0.11415089
136	0x3d9eb2a6	0.07748918
137	0xbe210971	-0.15726258
138	0xbdb5f3d5	-0.08884398
139	0x3e02f164	0.12787396
140	0x3d9b753c	0.0759072
141	0x3e0394dd	0.12849756
142	0xbe065ddd	-0.13121744
143	0x3cec56b5	0.028849939
144	0x3dcc75e1	0.09983421
145	0xbded742f	-0.11594426
146	0xbdf2613a	-0.11834951
147	0x3c5ca130	0.0134661645
148	0x3c1b5df6	0.009482851
149	0xbde98792	-0.11402811
150	0x3d9d7865	0.07688979
151	0x3c17f573	0.009274828
152	0x3d36fc4d	0.044674207
153	0x3d8ae42c	0.067818016
154	0xbd1c9ea4	-0.03823723
155	0x3e6aa3ad	0.22914
156	0xbe5f774f	-0.21822856
157	0x3d2c454e	0.04205828
158	0xbb400f41	-0.0029305967
159	0xbdd04c7c	-0.10170838
160	0x3e3e5951	0.18588759
161	0xbe5e692c	-0.21719807
162	0xbdc59c8a	-0.09648998
163	0x3e5e39e2	0.21701768
164	0xbdb600ec	-0.088868946
165	0xbcedb279	-0.029015766
166	0x3d9a1599	0.07523651
167	0x3da44630	0.080212
168	0x3d967e0f	0.073482625
169	0xbdc6a306	-0.09699063
170	0x3b25b61b	0.0025285545
171	0xbe0e16fd	-0.13875957
172	0xbdec2f73	-0.11532488
173	0x3d30b807	0.043144252
174	0xbc12ea9e	-0.00896707
175	0xbe106aa2	-0.14103177
176	0xbe266111	-0.16247965
177	0xbd87aea5	-0.06625108
178	0xbcdb61ea	-0.026780088
179	0xbe3e84b5	-0.18605311
180	0x3d5b14a7	0.053486492
181	0xbe810927	-0.25202295
182	0x3d4b31c9	0.049608026
183	0x3d38afe0	0.045089602
184	0x3e222a5e	0.15836474
185	0x3c6e4cf6	0.014544716
186	0xbdac4517	-0.08411615
187	0xbe790d64	-0.24321514
188	0xbd655d1a	-0.05599699
189	0xbd9c7f4d	-0.07641468
190	0xbd0f780b	-0.03502659
191	0x3c7d5712	0.015462654
192	0xbddfeacf	-0.10933458
193	0x3ce6fa19	0.028195428
194	0xbdf977ce	-0.12181054
195	0xbd936b9c	-0.07198259
196	0x3d24e976	0.04026171
197	0x3d14bff7	0.036315884
198	0xbd3a5df8	-0.04549977
199	0xbe10b843	-0.1413279
200	0x3d17f522	0.03709901
201	0x3d9c25e1	0.07624412
202	0xbd76ce00	-0.06025505
203	0x3dadb75a	0.08482237
204	0xbdb0e0cb	-0.08636626
205	0x3d796605	0.06088831
206	0x3ceec986	0.029148828
207	0xbdcc6486	-0.09980111
208	0x3d3bb722	0.045828946
209	0xbd981147	-0.074251704
210	0xbd2c4003	-0.042053234
211	0xbcb7ee2a	-0.022452433
212	0xbdefcf81	-0.117095
213	0x3cc20fec	0.023689233
214	0x3d7d398e	0.061822467
215	0xbd082293	-0.033236098
216	0x3d6ad168	0.05732861
217	0xbe0a856d	-0.1352746
218	0x3c4736f0	0.012159094
219	0xbdb5a6ff	-0.088697426
220	0xbcb4b30d	-0.022058034
221	0xbd86b08d	-0.06576643
222	0xbda3ec01	-0.080039985
223	0xbd688d6c	-0.056775495
224	0xbe0f6b24	-0.14005715
225	0xbd8a407a	-0.06750579
226	0xbda8b1fc	-0.08237073
227	0x3dd19e13	0.102352284
228	0xbda875e6	-0.08225612
229	0xbcec555f	-0.028849302
230	0xbd7d8a4a	-0.06189946
231	0xbde0395a	-0.10948439
232	0x3c2b2c99	0.010447645
233	0xbdf08e3d	-0.1174588
234	0x3cb40aac	0.021977745
235	0xbd9c2416	-0.0762407
236	0x3d622e2c	0.055219814
237	0x3d641f50	0.055693924
238	0x3daf829c	0.08569834
239	0x3df0d446	0.11759238
240	0xbcdb1408	-0.02674295
241	0xbdfdc19a	-0.12390442
242	0xbd6933b2	-0.056934066
243	0xbe0adc25	-0.13560541
244	0x3caa07a8	0.020755604
245	0xbe08bc32	-0.13353041
246	0xbd3bcd56	-0.04585012
247	0x3dac2c1c	0.08406851
248	0xbcdb37b7	-0.026759965
249	0x3bab9f47	0.005237493
250	0x3db7e88d	0.089799024
251	0xbdaf9f00	-0.08575249
252	0xbe0a7fc4	-0.13525301
253	0x3d87d360	0.066321135
254	0x3d71efb7	0.0590665
255	0xbd125046	-0.035721086

actor.2.bias f4 [64]
0	0x3d371f56	0.04470762
1	0x3e17bfe0	0.14819288
2	0xbb8ac65c	-0.004235072
3	0xbd9a5252	-0.075352326
4	0xbdeee222	-0.11664225
5	0xbd82eedb	-0.06393214
6	0x3d18948d	0.037251044
7	0x3e1f07ce	0.15530321
8	0x3d67a9fd	0.056558598
9	0x3ca0e098	0.019638345
10	0x3c54dd39	0.012992197
11	0x3df1373f	0.117781155
12	0xbd8dc564	-0.06922415
13	0x3dbb9d3b	0.09160849
14	0x3e1538d1	0.14572455
15	0xbd07321c	-0.033006772
16	0xbdcbca10	-0.0995065
17	0x3d5dfc33	0.054195594
18	0xbc9d146d	-0.019174779
19	0xbd0f2dcf	-0.034955796
20	0x3e12e9df	0.14347027
21	0x3de9bcfc	0.11412999
22	0xbb7a9a07	-0.003823878
23	0x3c5da5f3	0.013528335
24	0xbd9b07f2	-0.07569875
25	0x3e22a01a	0.15881386
26	0xbce5451b	-0.027987054
27	0x3dd392e0	0.103307486
28	0xbd733a7c	-0.059381947
29	0x3d60878a	0.05481676
30	0x3ccfaa4b	0.025349757
31	0xbd0bf6ac	-0.03417079
32	0xbe005f5f	-0.12536381
33	0xbdffa8b2	-0.12483348
34	0x3d0554ce	0.03255158
35	0x3b473593	0.0030396923
36	0xbd32dfef	-0.04367059
37	0xbe18e6f9	-0.14931859
38	0x3e219e1d	0.15782972
39	0xbcc35b5d	-0.023847276
40	0xbd8959c9	-0.06706578
41	0x3dc7b780	0.09751797
42	0xbd199ef4	-0.037505105
43	0x3dd092e3	0.101842664
44	0xbe1435d0	-0.14473653
45	0xbd634320	-0.055483937
46	0xbe180553	-0.14845781
47	0xbde08c8a	-0.10964306
48	0x3cdfef3e	0.02733576
49	0x3cd45c65	0.025922963
50	0x3d55def1	0.052214567
51	0x3d222043	0.03958155
52	0x3cb6ee67	0.022330476
53	0x3d8de322	0.06928088
54	0x3db70e24	0.08938244
55	0xbd14e5b7	-0.036351886
56	0xbdcd7979	-0.10032935
57	0xbd21035c	-0.039309844
58	0x3b96a036	0.0045967354
59	0xbdc781e0	-0.097415686
60	0xbdb3d449	-0.087807246
61	0x3e268dd7	0.16265045
62	0xbc8800ed	-0.016602004
63	0xbd14b84f	-0.036308583

actor.4.weight f4 [36, 64]
0	0xbef9fcb4	-0.4882561
1	0x3e2f993e	0.17148301
2	0xbe4aeb0e	-0.19816229
3	0x3dbd812f	0.092531554
4	0x3d0e5e3c	0.034757838
5	0xbd9cb3b9	-0.07651467
6	0xbe79a1f8	-0.24378192
7	0x3e480bc4	0.19535738
8	0xbd088451	-0.03332931
9	0x3cb08ece	0.02155247
10	0x3e7fe8f4	0.24991208
11	0x3daca775	0.084303774
12	0x3d534d90	0.05158764
13	0xbeb44c83	-0.35214624
14	0xbeb325fb	-0.34989914
15	0xbec05784	-0.3756677
16	0xbd58cc15	-0.052929003
17	0x3d941204	0.07229999
18	0xbe15e3a8	-0.14637625
19	0xbe204df7	-0.15654741
20	0xbe097f4c	-0.13427466
21	0xbe46f529	-0.19429459
22	0xbd191a2a	-0.037378468
23	0xbec1abbc	-0.37826335
24	0x3dbcd4d5	0.09220282
25	0xbe43963f	-0.19100283
26	0x3d7774c8	0.060414106
27	0x3dfd3669	0.123638935
28	0xbe6865f8	-0.22695148
29	0x3e874eb0	0.2642722
30	0x3cbcbb81	0.023038628
31	0x3e4d7952	0.20065811
32	0x3e1adaaa	0.15122476
33	0xbc8369ac	-0.0160416
34	0x3afbac43	0.0019201118
35	0xbe723d70	-0.23656249
36	0x3ef59f90	0.479733
37	0xbca59f15	-0.020217458
38	0xbe9892e9	-0.29799584
39	0xbbf915c9	-0.007601474
40	0xbd652c76	-0.055950604
41	0x3d6c3df8	0.057676286
42	0x3e7329d6	0.23746428
43	0x3a8dd6db	0.0010821478
44	0xbd93d3ab	-0.07218107
45	0xbe05c46c	-0.1306321
46	0x3d4ce3f2	0.050022073
47	0xbe10c25d	-0.14136644
48	0x3ea8f87d	0.33002082
49	0xbac56439	-0.0015059776
50	0xbd5335b6	-0.051564895
51	0x3d30a8fc	0.043129906
52	0x3e04f1a0	0.12982798
53	0xbe77eb99	-0.24210967
54	0xbf10aa83	-0.5651018
55	0x3cdad080	0.026710749
56	0x3c6ada73	0.014334309
57	0xbea845ea	-0.3286584
58	0x3bfaee82	0.007657827
59	0xbca9c85e	-0.020725425
60	0xbdc7deb3	-0.097592734
61	0xbec99769	-0.3937333
62	0xbe6a878a	-0.22903267
63	0x3db7f221	0.08981729
64	0xbddc21e3	-0.10748651
65	0x3e490850	0.19632077
66	0x3df1507c	0.11782929
67	0xb98fedb3	-0.00027452185
68	0xbbd31ca0	-0.0064426214
69	0x3e5e34d6	0.21699843
70	0xbe23673c	-0.1595735
71	0x3e8287cc	0.2549423
72	0xbe9b2c74	-0.30307353
73	0x3cb92451	0.022600325
74	0x3dad81de	0.08472036
75	0xbe63ff79	-0.22265424
76	0xbdb655da	-0.08903094
77	0xbe7f9d60	-0.24962378
78	0xbea3fdcc	-0.3202957
79	0x3d13c57a	0.036077
80	0xbd9661bd	-0.07342861
81	0x3db63d47	0.088984065
82	0xbdf2f69b	-0.118634425
83	0xbdeae52a	-0.11469491
84	0xbe1d84b7	-0.15382658
85	0xbe0c95a0	-0.13728952
86	0xbe4d8133	-0.20068817
87	0xbdea20ab	-0.11432012
88	0x3f0dc078	0.5537181
89	0xbe878e80	-0.26475906
90	0xbe97fc90	-0.29684877
91	0x3d0c3657	0.03423151
92	0xbd1496d6	-0.03627666
93	0xbe60f945	-0.21970089
94	0x3dadfd50	0.08495581
95	0x3e3033b5	0.17207225
96	0x3db07bf4	0.08617392
97	0xbdbc3fc4	-0.0919185
98	0xbdb58c23	-0.088646196
99	0xbde60415	-0.11231247
100	0xbe1557ba	-0.14584246
101	0x3d6427d1	0.055702034
102	0x3ecce058	0.4001491
103	0xbe2a0b41	-0.16605856
104	0x3d803a05	0.06261066
105	0xbe3f81fb	-0.18701927
106	0xbdfe681e	-0.124222025
107	0x3e840d0c	0.25791204
108	0x3d73343a	0.05937598
109	0x3e6c4b07	0.23075496
110	0xbd1a9ab3	-0.03774519
111	0x3c8d6459	0.017259764
112	0x3a9d06ba	0.0011980154
113	0xbdfa50a8	-0.12222415
114	0xbcc9a5bd	-0.024615163
115	0xbdb8e58f	-0.0902816
116	0x3ecb1eae	0.39671844
117	0xbdde20c8	-0.10846096
118	0xbdd572ab	-0.10422262
119	0x3d872fb9	0.06600899
120	0x3d286ccc	0.04111938
121	0xbdd9c789	-0.106337614
122	0x3ea515ec	0.32243288
123	0xbdcc1546	-0.09964995
124	0x3dba509b	0.090974055
125	0x3e3516ea	0.17684522
126	0x3e1cefba	0.15325823
127	0x3ea8bd73	0.32957038
128	0xbe6321bd	-0.22180839
129	0x3e569089	0.20953573
130	0xbc75b41e	-0.014996557
131	0xbcea3fb3	-0.028594827
132	0x3bf1d820	0.0073805004
133	0xbd9e41d7	-0.07727402
134	0x3d8775fd	0.06614301
135	0x3ea31315	0.31850496
136	0xbe8a340c	-0.26992834
137	0x3cefe5d8	0.029284403
138	0xbd2ca5c4	-0.042150274
139	0x3d60422e	0.054750614
140	0x3db396e1	0.08769012
141	0x3e295445	0.16536053
142	0xbea50e86	-0.32237643
143	0xbea0f1a0	-0.31434345
144	0x3e0d328a	0.1378881
145	0x3e8a9793	0.27068767
146	0x3ca98df8	0.020697579
147	0x3d68c0eb	0.056824606
148	0xbecd2426	-0.40066642
149	0xbe5c05bd	-0.21486564
150	0xbd4b093b	-0.04956935
151	0xbd9dc68a	-0.07703884
152	0x3e2ec514	0.17067367
153	0xbe8fd34c	-0.28090894
154	0x3d8d3c0e	0.0689622
155	0x3d2f1a1a	0.0427495
156	0xbe1d60d9	-0.15368976
157	0x3dab01c7	0.083499484
158	0xbc071e3e	-0.008246956
159	0x3e867ba3	0.26266202
160	0x3dca935b	0.09891387
161	0x3d846b34	0.0646576
162	0xbd3c7a9a	-0.04601536
163	0x3d82d9ba	0.06389184
164	0xbd09218c	-0.03347926
165	0xbd7b3106	-0.06132605
166	0xbd9d4773	-0.076796435
167	0x3d63894b	0.055550855
168	0xbd42e311	-0.04757983
169	0xbec4fd36	-0.38474435
170	0x3e8c5de8	0.27415395
171	0x3de40d19	0.11135311
172	0x3d31b39e	0.043384187
173	0x3e5b2c14	0.21403533
174	0x3d82f4ac	0.06394324
175	0x3de07f1e	0.10961746
176	0x3ebe7831	0.37201074
177	0xbd77e646	-0.06052234
178	0x3d8eed03	0.069788
179	0xbd363005	-0.04447939
180	0x3e612c70	0.21989608
181	0xbeba150b	-0.3634418
182	0xbdd64f4b	-0.10464343
183	0xbc3cbb7a	-0.011519307
184	0x3d603133	0.05473442
185	0xbe56e39c	-0.20985264
186	0xbc9bf548	-0.019037858
187	0x3e0b9ad0	0.13633275
188	0x3d474ebe	0.04865908
189	0xbea8dcc9	-0.32980946
190	0xbe61c670	-0.22048354
191	0x3e8a6e93	0.27037486
192	0xbd8c8c1c	-0.06862661
193	0x3e6b2653	0.22963838
194	0x3e5d7ec2	0.21630386
195	0xbda65a74	-0.08122721
196	0xbd095200	-0.033525467
197	0x3de25af1	0.11052502
198	0x3e185c27	0.14878903
199	0x3e831484	0.2560159
200	0x3dad1444	0.08451131
201	0x3e4841fa	0.19556418
202	0x3d948c62	0.072533384
203	0x3e1c7263	0.1527801
204	0xbcf91e64	-0.03041
205	0xbca65b3b	-0.020307174
206	0x3c080867	0.0083027845
207	0x3d98fa78	0.07469648
208	0x3e3cb0c5	0.18426807
209	0x3e5da1b5	0.21643718
210	0xbbf85f32	-0.0075797075
211	0x3dd7672c	0.10517725
212	0xbd15389b	-0.036430936
213	0x3c7553a8	0.0149735585
214	0x3dbf6df7	0.09347146
215	0xbdef5707	-0.11686521
216	0x3d950d1b	0.0727789
217	0x3c07d001	0.008289338
218	0x3c4384f6	0.011933556
219	0x3e13b97a	0.14426222
220	0x3d9027f9	0.07038874
221	0x3e74cdc6	0.23906621
222	0xbd8f7bdd	-0.07006047
223	0x3df15884	0.11784461
224	0x3c3e8f47	0.01163084
225	0xbd0cac5c	-0.034344062
226	0x3dadeaad	0.084920265
227	0xbdfcab36	-0.123373434
228	0x3c0f6134	0.008751202
229	0x3c38b7e6	0.011274314
230	0x3e4d9ed9	0.20080127
231	0x3ce07b5e	0.027402576
232	0x3d14a986	0.036294483
233	0x3dcde5b3	0.10053577
234	0x3e72465f	0.23659657
235	0x3e79d61a	0.2439808
236	0x3d78d817	0.060752954
237	0x3d50c2bd	0.050966967
238	0xbdee1e65	-0.11626891
239	0xbd2744a7	-0.040836956
240	0x3e889655	0.26677194
241	0xbd9a34d9	-0.07529611
242	0xbd494644	-0.049139276
243	0x3dd13566	0.10215263
244	0x3d764327	0.060122635
245	0xbd94a085	-0.07257179
246	0xbdf90290	-0.12158692
247	0x3d162bd7	0.036662903
248	0xbd515931	-0.05111045
249	0x3d357f67	0.044310953
250	0x3d07886e	0.033089094
251	0xbbe72e52	-0.0070550824
252	0xbda6d855	-0.08146731
253	0x3d56dcd4	0.05245669
254	0x3e018d69	0.126516
255	0x3e187d36	0.14891514

actor.4.bias f4 [36]
0	0xbe0406ee	-0.12893268
1	0x3dcb1041	0.099152096
2	0x3e32d0cf	0.17462467
3	0x3e213b0c	0.15745181
4	0xbc33d210	-0.010975376
5	0xbd9a01eb	-0.07519897
6	0xbe3647fd	-0.17800899
7	0xbce32559	-0.02772777
8	0x3d5c7280	0.053820133
9	0x3ccb5020	0.02481848
10	0x3e0fa204	0.14026648
11	0x3ca50d31	0.020147892
12	0x3d97c53f	0.074106686
13	0xbdd07323	-0.101782106
14	0x3cdf0c6f	0.027227608
15	0x3ddb4dcf	0.107082
16	0xbe31fc93	-0.17381506
17	0xbe8d1700	-0.2755661
18	0xbd4be2b1	-0.049776737
19	0xbc649b5a	-0.013953054
20	0xbe665f9c	-0.2249741
21	0xbdac9baf	-0.08428132
22	0x3d4f7f0a	0.050658263
23	0x3e114fcd	0.14190598
24	0x3ceadcd9	0.028669761
25	0xbdcaf529	-0.09910042
26	0xbd1e7ba1	-0.03869212
27	0x3e005d41	0.12535574
28	0x3d751db1	0.05984277
29	0x3e5b60ff	0.2142372
30	0x3bf4c186	0.007469359
31	0xbd4d9a56	-0.050196014
32	0xbbbd19c8	-0.0057708956
33	0xbd8fe2b8	-0.07025665
34	0xbd51b286	-0.051195644
35	0xbd054588	-0.032537013

critic.0.weight f4 [64, 62]
0	0x3de2218c	0.11041555
1	0x3d8a4702	0.06751825
2	0xbdeeb88e	-0.11656295
3	0x3de5b958	0.11216992
4	0xbe5dec54	-0.21672183
5	0xbd39bc9e	-0.045345895
6	0xbcb7fe37	-0.022460086
7	0xb99d1fa4	-0.00029968948
8	0xbc349dc6	-0.011023944
9	0xbe1758a5	-0.14779909
10	0x3e17061b	0.14748423
11	0xbcd0d9df	-0.025494514
12	0xbd637879	-0.055534814
13	0x3ced32c8	0.028954878
14	0x3da5e277	0.08099835
15	0x3e5aa33e	0.21351334
16	0x3ca77366	0.020440768
17	0xbcae86de	-0.021304544
18	0x3d2744b6	0.040837012
19	0xbd675831	-0.05648059
20	0x3e007b99	0.12547149
21	0xbd1ff496	-0.039051615
22	0x3d3ab998	0.045587152
23	0x3dd615e7	0.10453396
24	0xbd0af97f	-0.033929344
25	0x3dcb558c	0.09928426
26	0x3d92f15d	0.07174943
27	0xbb191f9b	-0.0023364786
28	0xbe10e393	-0.14149313
29	0xbcbde7fa	-0.023181904
30	0x3cbbc258	0.022919819
31	0xbd372718	-0.044715017
32	0xbd25f73e	-0.04051899
33	0xbdf3cac0	-0.11903906
34	0xbddf7af8	-0.10912126
35	0xba0b6d21	-0.00053186907
36	0xbe60beca	-0.2194778
37	0xbe45f77b	-0.19332688
38	0xbd7f24b1	-0.06229085
39	0xbd9aba2a	-0.07555039
40	0x3dccb0a2	0.099946275
41	0xbdade671	-0.08491219
42	0xbe4015f0	-0.18758368
43	0x3def0bfa	0.11672206
44	0xbe47f3e1	-0.19526626
45	0xbdaae8f7	-0.08345216
46	0x3cb9b5e6	0.022669744
47	0xbe0500cb	-0.12988584
48	0x3cd64540	0.026156068
49	0xbd47311f	-0.04863083
50	0x3ce749ed	0.028233493
51	0x3c469e5b	0.012122716
52	0xbc58cf80	-0.013233066
53	0xbd7d816c	-0.061891004
54	0xbdb531f5	-0.08847419
55	0x3da63540	0.081156254
56	0xbe3ce0b5	-0.18445094
57	0x3dedbbe7	0.11608105
58	0x3ca3871f	0.019961892
59	0xbd3db170	-0.046311796
60	0x3d834e9d	0.06411479
61	0xbbb44266	-0.0055010794
62	0x3da07159	0.07834119
63	0xbd753983	-0.0598693
64	0x3cb4b56a	0.022059161
65	0x3b83b3de	0.0040192446
66	0x3cdfce1c	0.02731996
67	0xbe8d63b5	-0.27615133
68	0xbdf97bd1	-0.12181819
69	0xbe348e55	-0.1763242
70	0x3e0bbf74	0.13647252
71	0xbe1d8cdf	-0.1538577
72	0xbe1fcbdf	-0.15605114
73	0xbe72c248	-0.23706925
74	0xbe4027e0	-0.18765211
75	0xbc63cd72	-0.013903962
76	0x3d5f2b21	0.05448449
77	0x3d98057b	0.0742292
78	0xbdffa0c0	-0.124818325
79	0xbce999c9	-0.028515713
80	0xbdb4ca17	-0.08827608
81	0x3db3e2ef	0.087835185
82	0xbdf19411	-0.117958196
83	0x3cf29eb6	0.029616695
84	0x3cedb2c7	0.029015912
85	0x3d8ec360	0.069708586
86	0x3cd83d9c	0.026396565
87	0x3c8b9257	0.017037554
88	0x3dfce65a	0.123486236
89	0xbca88aed	-0.020574057
90	0x3d6cc92e	0.057809047
91	0x3e18102d	0.1484992
92	0xbd8d373c	-0.06895301
93	0xbcbfde09	-0.023421304
94	0x3d8260f9	0.06366152
95	0xbd5cbaac	-0.05388896
96	0x3c97e517	0.018541856
97	0xbdc7820f	-0.097416036
98	0x3e4b7d5e	0.19872043
99	0x3c009113	0.007847088
100	0xbdc8920c	-0.09793481
101	0xbe0f5d35	-0.140004
102	0x3dff9232	0.124790564
103	0xbdd6eaa2	-0.104939714
104	0xbd6f888a	-0.058479823
105	0xbd1b3db1	-0.03790063
106	0x3db7036f	0.08936202
107	0x3d322c19	0.043499086
108	0x3cd2c529	0.025728779
109	0xbd7db458	-0.061939567
110	0x3de74b34	0.11293641
111	0xbdde0d8f	-0.1084243
112	0xbc81142e	-0.015756693
113	0x3cbd5026	0.023109507
114	0xbd9a55ec	-0.075359195
115	0x3db94e01	0.09048081
116	0x3e0e4779	0.13894452
117	0xbe832374	-0.25612986
118	0xbd8eff76	-0.06982319
119	0x3cab91b9	0.02094351
120	0x3dbb3dfa	0.091426805
121	0x3e544252	0.20728424
122	0x3dbf97ce	0.09355126
123	0x3d586847	0.05283382
124	0x3df84d26	0.1212409
125	0xbd8ab836	-0.06773417
126	0x3d9c0d41	0.076197155
127	0xbd9546b8	-0.07288879
128	0x3c9d948b	0.01923587
129	0xbe98cfc6	-0.2984602
130	0x3d357ce3	0.044308554
131	0x3d2bb510	0.04192072
132	0x3e30fab7	0.1728314
133	0xbe15240f	-0.14564537
134	0xbe25638d	-0.16151257
135	0xbdbff247	-0.093723826
136	0x3d9c0a67	0.076191716
137	0xbdcffe18	-0.101558864
138	0xbe18e41a	-0.14930764
139	0xbe1de807	-0.15420543
140	0x3daa0d3b	0.08303305
141	0xbdaba83c	-0.083816975
142	0xbd4fc2cb	-0.05072288
143	0xbc9cf234	-0.01915846
144	0x3df32953	0.11873116
145	0x3dc7ccd7	0.09755867
146	0x3dc4f3f2	0.096168414
147	0xbdb017d0	-0.08598292
148	0x3d337190	0.043809474
149	0xbc0f086c	-0.008730035
150	0x3d814500	0.06311989
151	0x3dac0d82	0.08401014
152	0xbe439863	-0.191011
153	0xbe17594d	-0.1478016
154	0xbd9d6799	-0.07685775
155	0xbe431c10	-0.19053674
156	0x3dbb93f8	0.09159082
157	0xbdbc4808	-0.09193426
158	0xbd97265c	-0.07380363
159	0x3a14b386	0.0005672503
160	0xbd2233bd	-0.039600123
161	0xbb8326eb	-0.004002442
162	0x3bec48f6	0.007210846
163	0x3c34041b	0.010987307
164	0x3e0749c9	0.1321174
165	0x3da91187	0.08255296
166	0x3d2f40e8	0.04278651
167	0x3adecf29	0.0016998994
168	0xbc867a32	-0.01641569
169	0xbc617d31	-0.013762758
170	0xbe06a5d0	-0.1314919
171	0x3d2a8d3d	0.0416386
172	0x3d940cc0	0.07228994
173	0x3b931a10	0.004489191
174	0xbe0674f6	-0.13130555
175	0x3db098b6	0.08622877
176	0xb9aa0784	-0.00032430526
177	0xbd180aab	-0.03711955
178	0xbd1ba342	-0.03799749
179	0xbe491698	-0.19637525
180	0xbcbebfb4	-0.02328477
181	0x3c7c5cd6	0.015402993
182	0xbe658b9e	-0.22416541
183	0x3e439751	0.19100691
184	0x3da1441e	0.078743204
185	0x3d0c721d	0.034288514
186	0xbd974cfb	-0.0738773
187	0xbd520af3	-0.051279973
188	0x3d22acb1	0.039715473
189	0xbdf408e4	-0.11915758
190	0x3c5b95cc	0.013402414
191	0xbdca203e	-0.09869431
192	0x3dadf204	0.084934264
193	0x3d7f912e	0.062394314
194	0xbce8ff88	-0.02844216
195	0xbbdbf8c4	-0.006713005
196	0x3c220263	0.009888264
197	0x3d12d7ed	0.035850454
198	0xbdf49a5f	-0.119435064
199	0xbe12145b	-0.14265577
200	0xbd94d939	-0.072679944
201	0xbe35a00b	-0.17736833
202	0xbd984fe3	-0.07437112
203	0x3ce3320e	0.027733829
204	0x3dc8f021	0.09811426
205	0x3dd3ece6	0.10347919
206	0x3dc3edea	0.09566863
207	0x3dde30bc	0.10849139
208	0x3de84622	0.11341502
209	0xbd9c723a	-0.076389745
210	0xbd1eda30	-0.0387823
211	0x3d6cbe51	0.057798687
212	0xbd4c5715	-0.049887735
213	0xbcb17d1f	-0.021666108
214	0x3d91da25	0.07121686
215	0x3bdb516c	0.006693056
216	0xbd6317f5	-0.05544277
217	0xb9bfcc62	-0.00036582636
218	0x3dfe7688	0.12424952
219	0xbd60324b	-0.054735463
220	0xbc8811a8	-0.016609982
221	0xbde76678	-0.11298841
222	0xbd23d4d0	-0.039997876
223	0x3b32dbc5	0.0027291637
224	0x3d1f492c	0.03888814
225	0xbe08b206	-0.1334916
226	0xbe077f92	-0.13232258
227	0x3dc7ceac	0.097562164
228	0xbde1514a	-0.11001833
229	0xbd3c81ee	-0.046022348
230	0x3defcda2	0.11709143
231	0x3dd54f0c	0.104154676
232	0xbd37ce34	-0.044874385
233	0xbe1d3a0c	-0.15354174
234	0x3dae3311	0.08505834
235	0xbdae083d	-0.08497665
236	0x3ca19d2e	0.01972827
237	0xbdf3c75a	-0.11903258
238	0x3dd2ef2f	0.10299527
239	0xbe1758b8	-0.14779937
240	0xbde6d5e8	-0.11271268
241	0xbc9e025c	-0.019288234
242	0xbdc572d4	-0.09641042
243	0x3dc2bada	0.09508295
244	0xbccd01a8	-0.025025204
245	0x3d6df878	0.058098286
246	0x3cba960f	0.022776632
247	0x3de179a4	0.11009529
248	0xbde557b2	-0.11198367
249	0xbd5d11bb	-0.053971987
250	0x3d68a6b1	0.056799594
251	0xbd45c2be	-0.048281424
252	0x3bb59bc6	0.0055422513
253	0xbeaefd81	-0.34177783
254	0xbca75553	-0.020426428
255	0xbbd101ed	-0.0063784034

critic.0.bias f4 [64]
0	0xbd24f769	-0.04027501
1	0x3e0b4402	0.13600162
2	0x3dad378d	0.08457861
3	0xbc7d9996	-0.015478512
4	0xbc8f3fd1	-0.017486485
5	0x3cb03cc2	0.021513347
6	0x3d546c0e	0.05186086
7	0xbcbd6b09	-0.023122327
8	0xbe006f57	-0.12542473
9	0xbdf0bb6b	-0.11754497
10	0xbd7cb515	-0.06169613
11	0xbe19be7f	-0.15014075
12	0xbe0768ef	-0.13223623
13	0x3d08d9e9	0.03341094
14	0xbd6579fa	-0.05602453
15	0xbc58874e	-0.013215853
16	0xbdcab0ec	-0.098970264
17	0xbde047f7	-0.10951226
18	0x3e0f885f	0.14016865
19	0xbe5bf69d	-0.21480794
20	0xbdca8adc	-0.098897666
21	0xbd1c7f4b	-0.038207334
22	0xbc232002	-0.009956362
23	0xbe179e4e	-0.14806482
24	0x3cd01607	0.025401128
25	0xbcb0d85f	-0.021587549
26	0x3d9c647c	0.076363534
27	0xbe2e4194	-0.17017204
28	0xbdc84c58	-0.097801864
29	0x3d0b0bf0	0.03394693
30	0xbe0baa94	-0.13639289
31	0xbe342ff6	-0.1759642
32	0xbd047af4	-0.03234382
33	0x3d23e5d2	0.040014096
34	0xbd364e64	-0.044508353
35	0xbdc0aba7	-0.0940774
36	0xbc9fe597	-0.019518657
37	0x3da72d31	0.081629165
38	0xbc3001fc	-0.010742661
39	0xbd92e3cf	-0.07172357
40	0xbcd43195	-0.025902549
41	0xbd8cdc86	-0.06877999
42	0xbe354882	-0.17703441
43	0x3d94c87e	0.07264803
44	0xbe40a1e6	-0.1881176
45	0xbd89bdd0	-0.06725657
46	0x3d615acc	0.05501823
47	0xbc129e1c	-0.008948829
48	0xbda71527	-0.08158331
49	0x3d4feaa8	0.050760895
50	0xbdc5bb18	-0.09654826
51	0xbd54bda0	-0.051938653
52	0xba3beb9a	-0.0007168591
53	0x3e351342	0.17683128
54	0xbe134d55	-0.14384969
55	0xbdd9ce7c	-0.10635087
56	0xbd7ee92c	-0.06223409
57	0xbe100ad2	-0.14066628
58	0xbbc9a192	-0.006153294
59	0xbe07acd7	-0.13249527
60	0xbdb5cae7	-0.08876591
61	0xbb53427a	-0.0032235668
62	0x3d500baf	0.050792392
63	0xbd869572	-0.06571473

critic.2.weight f4 [64, 64]
0	0x3dc08762	0.09400822
1	0xbd2a9059	-0.041641567
2	0xbd2f76cd	-0.042837907
3	0xbdb77b2d	-0.08959041
4	0x3cb08e08	0.0215521
5	0xbad14e23	-0.0015968721
6	0x3d093796	0.033500277
7	0x3e382df6	0.17986283
8	0xbd8f7972	-0.07005586
9	0xbd868cbb	-0.06569811
10	0x3e4c85de	0.19972941
11	0x3e2e4894	0.17019874
12	0x3da4b5bf	0.08042478
13	0xbe15cd9f	-0.1462922
14	0xbd1a09b3	-0.037606906
15	0x3e234017	0.15942417
16	0x3db4581f	0.0880587
17	0x3d071259	0.032976482
18	0xbdb0ce4a	-0.086330965
19	0x3d926859	0.07148809
20	0xbd92249b	-0.07135888
21	0x3d1fd0a8	0.03901735
22	0x3dcf5000	0.10122681
23	0x3da0ae0b	0.07845696
24	0xbd83ada9	-0.064296074
25	0xbd114413	-0.03546531
26	0xbd9c5d2d	-0.07634959
27	0x3d3f86cc	0.04675941
28	0xbd833367	-0.064062886
29	0xbe0a05e1	-0.13478805
30	0x3da9ccb8	0.08291
31	0x3d09c9ce	0.03363972
32	0xbd54d57c	-0.051961407
33	0xbd357ee3	-0.04431046
34	0x3d39de1e	0.045377843
35	0xbd24225a	-0.040071823
36	0xbd937667	-0.07200318
37	0xbe114678	-0.14187038
38	0x3d9c6933	0.07637253
39	0x3d59a037	0.05313131
40	0x3d6ba533	0.057530593
41	0xbd1a371e	-0.03765022
42	0xbd7006f6	-0.05860039
43	0xbd647000	-0.055770874
44	0x3ce528b2	0.027973507
45	0xbd5517ae	-0.052024536
46	0x3deed1da	0.1166112
47	0xbc2f5abc	-0.010702785
48	0x3de5482c	0.11195406
49	0x3d96feb1	0.07372797
50	0x3d0f8725	0.035040993
51	0xbde17991	-0.11009515
52	0xbdb504e4	-0.088388234
53	0xbc473623	-0.012158903
54	0xbd7a8607	-0.061162975
55	0xbda1dad5	-0.07903067
56	0x3d159f7f	0.03652906
57	0x3d884500	0.06653786
58	0x3e1677ac	0.14694089
59	0xbd6f088d	-0.058357764
60	0x3d490a3f	0.049082037
61	0x3da16a43	0.07881596
62	0xbdda31d0	-0.10654032
63	0x3d7c7413	0.061634135
64	0x3c628bf5	0.013827314
65	0xbbe50ae2	-0.0069898227
66	0xbc76c881	-0.015062452
67	0xbd163c99	-0.036678884
68	0xbd32582d	-0.043541122
69	0xbcfcff74	-0.030883528
70	0x3e07a488	0.13246357
71	0xbcc29d16	-0.023756545
72	0xbc336f83	-0.010951879
73	0x3ceb5da5	0.028731177
74	0x3df93b2f	0.121694915
75	0xbb54920a	-0.003243568
76	0xbe28c557	-0.16481529
77	0xbdf88809	-0.12135322
78	0x3ceb4fba	0.02872454
79	0xbcc2930b	-0.023751756
80	0x3e0be069	0.13659824
81	0x3bf364b4	0.007427776
82	0x3da12aaa	0.07869466
83	0x3cbe274c	0.023212098
84	0x3dd94ebf	0.10610723
85	0xbcf27b8c	-0.029599927
86	0xbe601a88	-0.21885121
87	0x3d0d0804	0.034431472
88	0x3e234084	0.1594258
89	0xbdcb8bbc	-0.099387616
90	0xbb1c4752	-0.002384622
91	0xbe2981fb	-0.1655349
92	0xbcc6fcaa	-0.024290401
93	0xbe064f20	-0.13116121
94	0xbdceb3d5	-0.10092894
95	0xbd9e722f	-0.077366225
96	0xbdf25d77	-0.11834233
97	0xbe4d2027	-0.20031796
98	0x3cc1e0f8	0.023666844
99	0xbe444df9	-0.19170369
100	0xbd345836	-0.044029437
101	0x3e2f3b8b	0.17112558
102	0xbe122b57	-0.14274345
103	0xbd064a3e	-0.032785647
104	0x3d55b6f7	0.052176442
105	0xbe372484	-0.17885023
106	0xbdffa06f	-0.12481772
107	0x3dd0e1d4	0.10199323
108	0xbd29d4bf	-0.041462656
109	0xbc1ba76e	-0.009500368
110	0x3b5950a0	0.0033159629
111	0xbe204b26	-0.15653667
112	0x3e103d12	0.14085796
113	0x3e22b9e3	0.15891223
114	0x3c366c23	0.01113418
115	0xbda05773	-0.078291796
116	0xbc898323	-0.016786164
117	0x3e0d5ca1	0.13804866
118	0xbd6db30f	-0.05803209
119	0x3d1401ab	0.036134403
120	0xbe05f8d7	-0.13083206
121	0xbdc25407	-0.09488683
122	0x3c701e98	0.014655732
123	0xbd9e38fc	-0.07725713
124	0x3d8f5eb6	0.070004866
125	0x3e004aee	0.12528583
126	0x3de5a71a	0.11213513
127	0xbd6dd15d	-0.058060993
128	0x3dabd336	0.08389895
129	0xbde85d69	-0.113459416
130	0xbd460740	-0.048346758
131	0xbe02f304	-0.12788016
132	0xbe002eca	-0.12517849
133	0x3c3a0092	0.011352675
134	0x3d21c383	0.039493095
135	0xbbd96af3	-0.006635064
136	0x3ca5635d	0.020188982
137	0x3cb1b7b5	0.021694044
138	0xbd2de65b	-0.042456012
139	0xbc850b24	-0.016240664
140	0xbe2d2c42	-0.16911414
141	0x3b151cbd	0.0022752725
142	0xbdbdd255	-0.09268633
143	0xbdbbb830	-0.0916599
144	0x3da57f23	0.0808089
145	0xbd159b1a	-0.03652487
146	0x3dc56757	0.09638851
147	0x3cf35fc5	0.029708752
148	0xbe2c672a	-0.16836229
149	0x3d6e8548	0.058232576
150	0xbd778daa	-0.060437836
151	0xbc3bf733	-0.011472511
152	0xbd3920cb	-0.04519729
153	0xbe2d61f0	-0.16931891
154	0xbdb0b130	-0.08627546
155	0xbd6e4b44	-0.058177248
156	0xbdb933f0	-0.090431094
157	0xbd0e7558	-0.034779876
158	0xbc3557bd	-0.011068282
159	0x3c80981e	0.015697535
160	0x3d49047a	0.049076535
161	0xbe0c0118	-0.13672292
162	0xbd0b75e4	-0.034047976
163	0x3d4e69da	0.050393917
164	0xbce4cd54	-0.02792994
165	0xbda90094	-0.082520634
166	0x3c576bdd	0.013148275
167	0xbe356e75	-0.17717917
168	0xbdaa03ec	-0.08301529
169	0xbe0558b0	-0.13022113
170	0xbe11eaea	-0.14249769
171	0x3cdc12bb	0.0268644
172	0xbdf96741	-0.12177897
173	0x3d19bb73	0.03753228
174	0x3cfbf897	0.030758185
175	0xbe019404	-0.1265412
176	0x3d7fe569	0.062474642
177	0xbdc410a2	-0.09573485
178	0x3d2e0473	0.04248471
179	0xbd6739d3	-0.05645163
180	0x3d0b4e8d	0.03401046
181	0xbe258b86	-0.16166505
182	0xbdb7bc39	-0.089714475
183	0x3d935679	0.07194228
184	0xbd8234c2	-0.06357719
185	0xbd99f542	-0.07517482
186	0xbdc608ac	-0.09669623
187	0x3d04503e	0.032303087
188	0x3df89700	0.12138176
189	0xbd889952	-0.066698685
190	0xbd00ea02	-0.031473167
191	0x3d96e9e5	0.073688306
192	0xbd982a62	-0.07429959
193	0x3d314f09	0.043288264
194	0xbcf840e9	-0.03030439
195	0xbd3719e0	-0.04470241
196	0xbdbce1c8	-0.09222752
197	0xbd715118	-0.058915228
198	0x3d9a7240	0.07541323
199	0x3d99d417	0.07511156
200	0xbcf72d87	-0.030173076
201	0xbcc3be08	-0.023894325
202	0xbdcefb34	-0.10106507
203	0xbdcbc714	-0.099500805
204	0xbcc66afa	-0.024220932
205	0x3dbfbb92	0.09361948
206	0xbd345fd1	-0.04403669
207	0x3d5dbc9d	0.054134954
208	0xbddc76e7	-0.10764866
209	0x3cb076a7	0.021540953
210	0x3dc8596c	0.09782681
211	0xbddb9afc	-0.1072292
212	0x3dd1826e	0.102299556
213	0xbdcca59b	-0.09992524
214	0xbd01ab2a	-0.031657375
215	0x3dad8766	0.08473091
216	0xbd2c49e4	-0.042062655
217	0xbdb65db5	-0.08904592
218	0x3daf5d12	0.08562674
219	0xbc756070	-0.014976606
220	0xbd3059ac	-0.043054268
221	0xbd8ce4c6	-0.068795726
222	0x3c98eb1e	0.0186668
223	0xbd17661c	-0.036962613
224	0x3d1a30eb	0.037644308
225	0xbddd5f24	-0.10809162
226	0xbdb8c966	-0.09022789
227	0x3d9c75f1	0.07639683
228	0x3dc7ab65	0.09749488
229	0x3d837cfc	0.06420323
230	0xbdb1f6ca	-0.086896494
231	0x3dad77ac	0.08470091
232	0xbe0c229c	-0.13685077
233	0xbdee5b8c	-0.11638555
234	0x3c1c463f	0.009538232
235	0x3d467787	0.048453834
236	0xbd026010	-0.031829894
237	0xbad79b4b	-0.0016449479
238	0x3d439e0e	0.047758155
239	0x3d65dbf1	0.056117956
240	0xbda18184	-0.07886031
241	0xbcd6d3ef	-0.026224105
242	0x3c491e49	0.012275287
243	0xbe08877e	-0.13332936
244	0xbe174775	-0.14773352
245	0x3c64344c	0.013928484
246	0xbd6d7a08	-0.057977706
247	0xbdccfe38	-0.10009426
248	0x3dd18d74	0.10232058
249	0x3d9b5a6a	0.075856045
250	0xbd091650	-0.033468544
251	0xbcb99448	-0.022653714
252	0xbe005bb1	-0.12534977
253	0xbddbe013	-0.10736098
254	0xbd728aa0	-0.059214234
255	0xbdbc3ddc	-0.09191486

critic.2.bias f4 [64]
0	0xbd736d01	-0.059430126
1	0x3e0e4475	0.13893302
2	0xbb26f633	-0.0025476336
3	0xbdd8537e	-0.105628
4	0xbe042207	-0.12903605
5	0xbd3d8ec2	-0.046278723
6	0x3da07ef1	0.07836712
7	0xbdb6e5fe	-0.08930586
8	0x3dde2663	0.108471654
9	0xbe1833c3	-0.14863496
10	0xbc7d3e28	-0.015456714
11	0xbc9a3a34	-0.018826582
12	0xbc2d01dd	-0.010559526
13	0xbd8bcc00	-0.06826019
14	0x3c13eed2	0.009029107
15	0xbdf232da	-0.118261054
16	0xbdb177a0	-0.08665395
17	0x3d85aa19	0.06526584
18	0xbda711e2	-0.08157708
19	0xbe09a941	-0.13443471
20	0xbdca9bb7	-0.098929815
21	0xbde1a43f	-0.110176556
22	0x3d70a91b	0.05875502
23	0x3dfe7f40	0.12426615
24	0xbe16bf7b	-0.14721482
25	0xbdb7ad02	-0.089685455
26	0xbc809aee	-0.015698876
27	0xbde7497e	-0.112933144
28	0x3c9d98c4	0.019237883
29	0xbcbdf177	-0.023186428
30	0xbd12710b	-0.035752337
31	0x3df98b91	0.12184823
32	0xbbd2d473	-0.0064340173
33	0xbe1c2033	-0.15246658
34	0x3e2e03c1	0.1699362
35	0xbdb6f231	-0.08932913
36	0x3cce067a	0.025149573
37	0xbd6cba7c	-0.057795033
38	0xbd91ea53	-0.07124772
39	0x3e1a7452	0.15083435
40	0x3da98878	0.082779825
41	0xbd8046f3	-0.062635325
42	0xbdd0cade	-0.10194944
43	0xbd0336ff	-0.03203487
44	0x3df636eb	0.120221935
45	0x3cbd4c9e	0.023107823
46	0x3da79994	0.081835896
47	0xbd742a84	-0.05961086
48	0xbd76adfe	-0.060224526
49	0x3cd16ee4	0.025565572
50	0x3cef2e35	0.029196838
51	0xbd3e7cb5	-0.04650565
52	0xbd8373d0	-0.06418574
53	0x3d6aef54	0.057357147
54	0x3e06a501	0.13148881
55	0xbdd939b2	-0.10606708
56	0x3d30328e	0.043016963
57	0xbd0d0919	-0.034432504
58	0x3e1e2df9	0.15447225
59	0xbd7f069a	-0.062262155
60	0x3dbb2653	0.09138169
61	0xbda2a088	-0.07940775
62	0xbdb4f90f	-0.08836567
63	0xbdb6df59	-0.08929319

critic.4.weight f4 [1, 64]
0	0x3c8d8c93	0.017278945
1	0x3dc6bc8d	0.09703932
2	0x386c271c	5.6303208e-05
3	0xbdddfa26	-0.10838728
4	0x3d0ef9eb	0.03490631
5	0x3bb3c222	0.005485789
6	0xbdc1fdb2	-0.09472217
7	0x3d20f6a0	0.0392977
8	0x3dea31cd	0.1143528
9	0x3cc0192c	0.023449503
10	0xbb9810e8	-0.0046406873
11	0xbc77dbb0	-0.015128061
12	0x3a3c7d14	0.0007190269
13	0x3b1e61b6	0.0024167127
14	0xbc03267b	-0.00800478
15	0x3b7f4e7d	0.0038956695
16	0xba08d4e8	-0.0005219714
17	0xbd8bfc60	-0.06835246
18	0xbda075db	-0.07834979
19	0x3d89c06d	0.067261554
20	0x3de4e2d4	0.111760765
21	0xbd32f0f8	-0.043686837
22	0x3d83f1f3	0.064426325
23	0x3db3ff2a	0.08788903
24	0x3db706ce	0.08936845
25	0xbcbf1e59	-0.0233299
26	0xbd48e12d	-0.04904287
27	0xbc330979	-0.010927551
28	0x3b8e566d	0.004343799
29	0x3c0847d2	0.008317905
30	0x3bda8cdd	0.0066696242
31	0xbe140d7a	-0.14458266
32	0xbdd1b0bc	-0.102387875
33	0xbd0ef00d	-0.0348969
34	0x3e1e5488	0.15461934
35	0xbe69b27e	-0.22821996
36	0x3cf40fed	0.02979275
37	0xbe037946	-0.12839231
38	0xb982389a	-0.00024837704
39	0x3dfdf9b5	0.124011435
40	0x3d67a64c	0.056555077
41	0xbd69fa4d	-0.05712347
42	0x3d1b5c65	0.03792991
43	0x3da4a2b2	0.08038844
44	0x3d88f1a1	0.06686712
45	0x3b7898a6	0.0037932782
46	0xbde41097	-0.11135977
47	0xbc5f703a	-0.013637597
48	0x3bdcc751	0.0067376276
49	0x3c011862	0.0078793485
50	0xbd3458e5	-0.04403009
51	0x3ae7dad9	0.0017689123
52	0x3b80cc88	0.003930632
53	0x3c560aa8	0.013064064
54	0x3d897335	0.06711427
55	0xbc3a1087	-0.0113564795
56	0xbd8be16b	-0.068301044
57	0xbd5d36af	-0.05400723
58	0x3df21d77	0.11822026
59	0xbd71bb73	-0.059016656
60	0x3e1270cd	0.14300843
61	0x3dc82e03	0.09774401
62	0xbc26a37d	-0.010170815
63	0x3ab8d3d9	0.0014101221
