Models/Reward_shaping_vm/RS_norm_mag_vm_7_0/26000.pth (torch, 78437 bytes, 11 tensors)

actor.0.weight f4 [64, 62]
0	0x3c1154e0	0.008870333
1	0xbd9cae2a	-0.07650407
2	0x3d25a437	0.04043981
3	0x3d2339ee	0.039850168
4	0xbb1b5c46	-0.0023706122
5	0x3e931ac5	0.2873136
6	0xbdabe172	-0.0839261
7	0xbc80b666	-0.015711974
8	0xbcacfd62	-0.021116916
9	0x3d167b19	0.03673849
10	0x3a7a2776	0.00095426233
11	0xbd83ab26	-0.06429128
12	0xbe4d45a3	-0.20046096
13	0x3d5859d9	0.05282006
14	0xb9d055ef	-0.00039736877
15	0xbd88f1b8	-0.06686729
16	0x3d6547ce	0.05597668
17	0xbdde185e	-0.108444914
18	0x3df472dc	0.1193597
19	0xbdcc06c9	-0.09962232
20	0x3dc72b89	0.097251005
21	0xbcb4aae8	-0.02205415
22	0x3d85ca67	0.06532746
23	0x3d4ab769	0.04949132
24	0x3bae33d7	0.0053162384
25	0x3cc1fe21	0.023680748
26	0x3dc584ef	0.09644496
27	0x3d05c83c	0.03266166
28	0x3dd46716	0.103712246
29	0x3d011c5d	0.03152119
30	0xbc3837e2	-0.011243792
31	0x3deebf6d	0.11657605
32	0x3d03c3ee	0.032169275
33	0x3c8fb96e	0.017544474
34	0x3d7d936e	0.061908178
35	0x3deee18b	0.11664113
36	0x3e926516	0.28592747
37	0x3e952c73	0.29135475
38	0xbe0b654b	-0.13612859
39	0x3dd38cb5	0.10329572
40	0x3d1eaf38	0.03874132
41	0x3e44fa1b	0.19236033
42	0xbbb47914	-0.0055075977
43	0x3dce0b36	0.10060732
44	0x3d51f62d	0.051260162
45	0xbce3a8b0	-0.027790397
46	0xbe4943dd	-0.19654794
47	0xbd1f0868	-0.038826376
48	0x3d37c56d	0.044866014
49	0xbe0f32a3	-0.1398416
50	0xbd7e1829	-0.06203476
51	0x3e46324f	0.19355129
52	0x3e006384	0.12537962
53	0xbb3e819c	-0.0029068952
54	0xbe177235	-0.1478966
55	0xbd3f3efb	-0.046690922
56	0xbdb92e07	-0.09041982
57	0xb9800219	-0.00024415625
58	0x3e77844d	0.24171562
59	0x3dcc5d7c	0.09978768
60	0xbd9efad5	-0.07762686
61	0x3dd8cfca	0.105865076
62	0x3d0d9033	0.034561347
63	0xbdcbde9b	-0.09954568
64	0xbd305da0	-0.043058038
65	0x3ba2f06e	0.004972509
66	0xbd8243ee	-0.06360613
67	0xbe23bfb1	-0.15991093
68	0xbdf216d7	-0.118207626
69	0xbe1b0ef2	-0.1514242
70	0xbd2eb877	-0.042656388
71	0xbdd6baf8	-0.1048488
72	0xbd0f38ad	-0.03496616
73	0xbe9c62b4	-0.30544055
74	0xbd394cb2	-0.045239158
75	0x3de9ea10	0.11421597
76	0xbe1cb478	-0.15303218
77	0xbd96c077	-0.073609285
78	0x3d2f5d5a	0.042813636
79	0xbcfdb3bc	-0.030969493
80	0x3dde8878	0.10865873
81	0xbdd42388	-0.103583395
82	0xbd0f17de	-0.03493487
83	0xbcb3d942	-0.021954183
84	0xbd560b8d	-0.05225711
85	0xbd00bf90	-0.03143269
86	0x3da1320c	0.07870874
87	0x3d8eb698	0.06968421
88	0x3be7656e	0.007061652
89	0x3de297b6	0.11064093
90	0xbe83eddb	-0.25767407
91	0xbdea7cdb	-0.114495955
92	0x3d8a48b2	0.06752147
93	0xbd8b59f9	-0.0680427
94	0xbded05d3	-0.115733765
95	0xbdb40742	-0.08790447
96	0xbd9e56a7	-0.077313714
97	0x3dc8d968	0.09807092
98	0x3e74530f	0.2385981
99	0x3eae0084	0.33984768
100	0xbe3c6771	-0.18398835
101	0xbb533c2b	-0.0032231908
102	0xbdaa9047	-0.083283
103	0x3c5e9a9b	0.0135866655
104	0xbdc7265e	-0.09724115
105	0xbe03772b	-0.12838428
106	0x3e60cacf	0.21952365
107	0x3e17d053	0.14825563
108	0x3ba2b7c6	0.004965755
109	0x3e43f6f1	0.1913717
110	0xbd0c28d6	-0.03421863
111	0x3da5d09e	0.08096431
112	0xbc9785e2	-0.018496457
113	0xbd22bab5	-0.03972884
114	0x3cda67d6	0.026660841
115	0xbe5da89a	-0.21646348
116	0xbdc16435	-0.09442941
117	0x3b3e75d6	0.0029061935
118	0x3ca5853f	0.020205138
119	0x3cb87c3c	0.022520177
120	0x3e395f4c	0.18102759
121	0xbe153c3a	-0.14573756
122	0x3e8b81b0	0.2724738
123	0xbdf376c0	-0.11887884
124	0x3cd20b50	0.02564016
125	0xbd1489f3	-0.03626437
126	0xbde19d59	-0.1101634
127	0xbda95c72	-0.08269586
128	0xbdde00de	-0.10840009
129	0xbd68f6e8	-0.056876093
130	0xbdd02375	-0.10163013
131	0xbb90ec2c	-0.004422685
132	0xbd986e6f	-0.074429385
133	0x3ee2878b	0.44244036
134	0x3e0890b2	0.13336447
135	0x3e92807d	0.28613654
136	0x3d65d72c	0.056113407
137	0x3e4d35cb	0.20040052
138	0x3e82cd45	0.25547233
139	0x3e2f7e27	0.17137967
140	0xbcaa8b80	-0.020818472
141	0x3d340c5c	0.0439571
142	0x3c85d800	0.016338348
143	0xbd2bedfd	-0.04197501
144	0xbdf176e8	-0.11790258
145	0xbdb66114	-0.08905235
146	0x3be15d9e	0.006877615
147	0xbbdf3d4b	-0.0068127266
148	0x3dd6c73a	0.10487218
149	0x3b8e6cd9	0.0043464717
150	0xbd05f0ec	-0.032700464
151	0xbdfe2375	-0.12409107
152	0xbddda234	-0.108219534
153	0x3d0bea03	0.034158718
154	0x3e07c3a6	0.13258228
155	0xbd15bc42	-0.03655649
156	0xbde87973	-0.113512896
157	0x3d38b05a	0.045090057
158	0x3dd3d7a2	0.10343863
159	0xbdac2544	-0.08405545
160	0x3e41da46	0.18930921
161	0x3e60582a	0.21908632
162	0xbdd62ddf	-0.10457968
163	0xbddc56bf	-0.10758733
164	0x3d41c6a7	0.04730859
165	0xbd4f3d6f	-0.050595697
166	0x3d086d91	0.033307616
167	0xbc8d5bc6	-0.017255675
168	0xbe580963	-0.21097331
169	0xbdc7971c	-0.09745619
170	0x3dfe6ea5	0.124234475
171	0xbe393c40	-0.1808939
172	0x3cc168a7	0.023609472
173	0xbd496bfa	-0.04917524
174	0xbd1f55d1	-0.0389002
175	0xbc352f70	-0.011058673
176	0xbdb829a3	-0.089923166
177	0x3d4a6f11	0.049422327
178	0x3dc3234a	0.09528215
179	0xbda9f9cf	-0.082996
180	0x3df0f71b	0.11765882
181	0x3d1ed403	0.03877641
182	0xbd3e4df4	-0.04646106
183	0x3dcba818	0.09944171
184	0x3de6f34e	0.112768754
185	0xbe040cf8	-0.12895572
186	0xbdaaa491	-0.0833217
187	0x3d978d9e	0.07400058
188	0x3d9c2250	0.07623732
189	0x3d321dbe	0.043485396
190	0x3df7b6f5	0.12095443
191	0x3e7f9cdc	0.24962181
192	0xbd120ac2	-0.03565479
193	0xbe49d7a2	-0.19711164
194	0xbe85829f	-0.26076218
195	0xbe2876f4	-0.16451627
196	0xbe05acce	-0.13054201
197	0xbe07754d	-0.1322834
198	0xbe96f175	-0.29481092
199	0xbea31d43	-0.31858262
200	0x3ded472e	0.11585842
201	0x3ef82af9	0.48470286
202	0xbcbb1a29	-0.022839623
203	0xbdcee32e	-0.10101925
204	0xbdd835f3	-0.10557165
205	0xbcc79606	-0.024363529
206	0xbafbccb1	-0.0019210783
207	0x3c681184	0.014164332
208	0x3c8289a3	0.01593477
209	0x3dc3e996	0.09566037
210	0xbcbcbf3b	-0.023040405
211	0x3d14734f	0.03624278
212	0xbd8a3b63	-0.06749608
213	0x3dffd0d0	0.12491
214	0x3e9f9784	0.31170285
215	0x3d077e11	0.03307921
216	0x3e33e3a2	0.17567304
217	0x3d7588e2	0.059944995
218	0x3cb26c7c	0.021780245
219	0xbd199004	-0.03749086
220	0x3c82d217	0.01596932
221	0x3c14c366	0.00907979
222	0x3e80775f	0.25091073
223	0x3eb788a9	0.3584645
224	0x3d8d267e	0.068921074
225	0x3dc9634c	0.098333925
226	0xbdff6d31	-0.124719985
227	0x3d9157f9	0.070968576
228	0xbdeb980d	-0.11503611
229	0xbde6d284	-0.112706214
230	0xbe0b3abf	-0.13596629
231	0x3d96ad45	0.07357267
232	0x3e32bba3	0.1745439
233	0x3e0da665	0.13833006
234	0xbae7eb63	-0.0017694052
235	0xbd9e68cf	-0.077348344
236	0x3d54e19b	0.051972967
237	0xbba337fa	-0.004981038
238	0x3dd70426	0.10498838
239	0x3d2e5d7c	0.042569622
240	0xbdf3de8b	-0.11907681
241	0xbd1a8059	-0.037720058
242	0xbda8c0fb	-0.08239933
243	0xbdc87515	-0.097879566
244	0x3e545548	0.20735657
245	0x3db5b705	0.08872799
246	0xbd3d0a1f	-0.04615223
247	0xbcad8a5e	-0.021184143
248	0xbcedb551	-0.029017122
249	0x3debaef5	0.1150798
250	0x3cfaef34	0.030631639
251	0xbc0386d8	-0.008027755
252	0xbe40e2b7	-0.18836485
253	0x3ea60499	0.32425383
254	0xbe7ba822	-0.24575856
255	0x3d1e8e72	0.038710065

actor.0.bias f4 [64]
0	0xbc8291d8	-0.015938684
1	0xbc26c04d	-0.010177684
2	0xbdbb3c25	-0.09142331
3	0x3e38e745	0.18056972
4	0x3d841d5b	0.064509116
5	0x3d737641	0.059438948
6	0x3de1d88c	0.11027631
7	0x3e1648d7	0.14676224
8	0x3e577fff	0.2104492
9	0xba03fbc9	-0.00050347723
10	0x3e431e9e	0.19054648
11	0x3a444109	0.00074864976
12	0x3e2e0b75	0.16996558
13	0xbd647f8f	-0.05578571
14	0xbc90aaba	-0.017659534
15	0xbda2394a	-0.07921083
16	0x3e804d50	0.25058985
17	0xbce51da6	-0.027968239
18	0x3d7a3651	0.061086956
19	0xbd819715	-0.06327645
20	0x3d8505a0	0.064952135
21	0xbddbafa8	-0.10726863
22	0x3c6b6171	0.014366494
23	0x3ddcd8bb	0.107835256
24	0x3d905dec	0.07049164
25	0x3e1e19e0	0.15439558
26	0xbd2c4ba6	-0.04206433
27	0x3e786551	0.24257399
28	0xbd5d624d	-0.054048825
29	0xbb95ec8a	-0.004575317
30	0xbde06caf	-0.1095823
31	0xbc834478	-0.01602386
32	0x3d6b299d	0.057412732
33	0xbcdc6a0a	-0.026906032
34	0x3cfb55c2	0.030680541
35	0x3d3e4ec9	0.046461854
36	0xbdd41874	-0.103562266
37	0x3b7b62c0	0.003835842
38	0x3c3495ae	0.011022015
39	0x3e18e098	0.14929426
40	0x3dfa4d50	0.122217774
41	0xbbf04eee	-0.007333628
42	0xbe0d4008	-0.13793957
43	0x3db60849	0.08888299
44	0xbda64e6a	-0.08120425
45	0x3c1ebf08	0.0096891
46	0x3e168707	0.14699946
47	0x3dcd9216	0.10037629
48	0xbdb768d4	-0.08955541
49	0xbe13520c	-0.14386767
50	0xbdc18c40	-0.09450579
51	0xbda1b4b6	-0.07895796
52	0x3d9e2329	0.0772155
53	0x3d92cc4a	0.07167871
54	0x3cf26dc4	0.029593356
55	0x3e06a348	0.13148224
56	0x3e4ca7c3	0.19985871
57	0xbcbe13f6	-0.023202877
58	0x3b099488	0.0020993073
59	0xbde7d93a	-0.113207296
60	0x3df96198	0.12176818
61	0xbd145d6e	-0.036221914
62	0x3e21b551	0.15791823
63	0xbdb3db0b	-0.087820135

actor.2.weight f4 [64, 64]
0	0x3d8253dd	0.06363652
1	0x3ea1a257	0.31569168
2	0xbe41bfdc	-0.18920845
3	0x3e8e5e2a	0.27806216
4	0xbd4665ed	-0.048437048
5	0x3e10cf7c	0.14141649
6	0x3da83bb2	0.08214511
7	0xbda0b2ba	-0.078465894
8	0xbdc0e9ca	-0.09419592
9	0x3e172396	0.14759669
10	0x3e7423ac	0.23841733
11	0xbe1dd0b6	-0.15411648
12	0xbb2b463c	-0.0026134392
13	0x3e0d173e	0.13778397
14	0xbce2997d	-0.02766108
15	0x3e564c38	0.20927513
16	0xbe0b805b	-0.13623182
17	0x3c8eee3a	0.01744758
18	0x3cf487ca	0.029849906
19	0x3e18ca0e	0.14920828
20	0xbc626e49	-0.013820239
21	0xbe00edba	-0.12590685
22	0x3db84a74	0.08998576
23	0x3e771938	0.24130714
24	0x3ef4c317	0.47805092
25	0x3e9a087b	0.30084595
26	0x3dcd2d2b	0.10018381
27	0x3e0f28ee	0.13980457
28	0x3cf31607	0.02967359
29	0xbeb6914d	-0.3565773
30	0xbe03b817	-0.12863193
31	0xbc14b961	-0.009077401
32	0x3dbbb4b7	0.09165328
33	0xbbbd3f03	-0.005775334
34	0x3dcffd9d	0.10155795
35	0x3cd7b39c	0.026330762
36	0xbd3e82cf	-0.046511468
37	0xbe3a0143	-0.18164544
38	0x3e09c8b8	0.13455474
39	0xba87e344	-0.0010367413
40	0x3cf392c9	0.029733079
41	0xbbb2d0e1	-0.005457029
42	0x3d0249d6	0.031808697
43	0x3e0e5148	0.13898194
44	0x3cac3d4b	0.02102532
45	0x3e5fde4d	0.21862145
46	0x3c4d73a1	0.012539775
47	0xbe0b3a25	-0.13596399
48	0x3e386ce7	0.18010293
49	0xbbe1981a	-0.006884587
50	0xbd03b155	-0.03215154
51	0xbd9a1184	-0.07522872
52	0x3dfb20f0	0.12262142
53	0x3e438023	0.19091849
54	0x3e231f5a	0.15929928
55	0x3d2fd337	0.04292604
56	0x3d64d8dd	0.05587088
57	0x3d2b47a6	0.041816376
58	0xbd95bc96	-0.073113605
59	0xbd909456	-0.07059543
60	0x3d941ab8	0.07231659
61	0x3e9d6038	0.30737472
62	0x3e93264b	0.28740153
63	0x3e00c2fb	0.12574379
64	0x3e3784cd	0.17921753
65	0xbd17c0e7	-0.0370492
66	0xbd0787d1	-0.03308851
67	0x3d03b977	0.032159295
68	0xbd663318	-0.05620107
69	0xbcb56a8d	-0.022145534
70	0xbcbaf466	-0.022821616
71	0xbe984e26	-0.29747123
72	0x3dd0d745	0.101973094
73	0xbe0adf60	-0.13561773
74	0xbe2f8b19	-0.17142905
75	0xbd39b1fc	-0.045335755
76	0x3de938e2	0.11387803
77	0x3de5c47d	0.11219118
78	0x3d216d53	0.0394109
79	0x3e560544	0.20900446
80	0x3edde074	0.43335307
81	0x3e5697ea	0.20956388
82	0x3d9d2ae9	0.076742
83	0x3dbc0fe3	0.09182718
84	0xbd239b3e	-0.039942972
85	0x3ddd8c40	0.10817766
86	0x3ea16558	0.31522632
87	0x3e9c68a9	0.305486
88	0x3e33be3b	0.17553036
89	0x3e837e50	0.25682306
90	0x3e2f4eac	0.17119855
91	0xbe1f61b4	-0.15564615
92	0x3dc3a157	0.095522575
93	0xbda53e2f	-0.08068501
94	0xbdb44f70	-0.08804214
95	0x3d4248e0	0.04743278
96	0xbda386a6	-0.079846665
97	0x3a5f8bba	0.0008527596
98	0x3e1b635a	0.15174618
99	0x3e352a2a	0.17691866
100	0x3d989eee	0.074521884
101	0xbe31dcb6	-0.17369351
102	0x3d8f20c2	0.0698867
103	0x3e44a3db	0.19203131
104	0x3d98e6e1	0.07465912
105	0x3e07687f	0.13223456
106	0xbd4e0078	-0.050293416
107	0x3d80c599	0.06287689
108	0x3e07e5e2	0.13271287
109	0xbdadc22b	-0.084843
110	0xbe166490	-0.14686799
111	0x3e1a7bff	0.15086363
112	0x3cee7fe2	0.029113714
113	0x3e82fe73	0.25584754
114	0x3d9f5981	0.077807434
115	0xbd1c9512	-0.038228102
116	0x3dff3ea4	0.124631196
117	0x3e623547	0.22090636
118	0xbda2fff7	-0.07958978
119	0xbd868df4	-0.06570044
120	0xbe07ffee	-0.13281223
121	0x3e079377	0.13239847
122	0x3d1cc88c	0.038277194
123	0xbd81bc46	-0.063347384
124	0x3d8993ec	0.06717667
125	0x3d76d9bb	0.060266238
126	0x3ca2e76d	0.019885743
127	0xbc8f4863	-0.017490571
128	0x3cbe8ccc	0.023260497
129	0xbe1700e9	-0.14746441
130	0xbcfd96f2	-0.030955765
131	0xbd8fcd4a	-0.07021578
132	0xbc5ca683	-0.013467434
133	0x3dfb254b	0.122629724
134	0x3d12f2c7	0.03587606
135	0x3c1f4695	0.009721418
136	0xbdcf90ff	-0.10135078
137	0xbd8a8395	-0.067633785
138	0xbbd8ad92	-0.006612488
139	0x3b07a6e2	0.0020698835
140	0xbc2ef29c	-0.01067796
141	0xbdf46448	-0.1193319
142	0xbd6ac10c	-0.05731301
143	0x3d16b01d	0.03678905
144	0xbdbbbb8b	-0.0916663
145	0xbd5831e6	-0.05278196
146	0xbe0216f6	-0.12704071
147	0x3c9b8cdc	0.018988065
148	0x3cadcf4e	0.021217015
149	0xbdfd4c4f	-0.1236807
150	0xbbcff1e6	-0.006345975
151	0xbe5fc065	-0.21850736
152	0xbe0fcf78	-0.14043987
153	0xbda15ad6	-0.07878654
154	0x3cd7cd8b	0.026343128
155	0xbc1645d3	-0.009171921
156	0xbd9d6c6e	-0.07686697
157	0xbd69f823	-0.057121407
158	0x3e15387d	0.1457233
159	0xbe3ff008	-0.18743908
160	0xbddfc02f	-0.10925328
161	0xbe04cb4c	-0.12968177
162	0x3d85fbf6	0.06542198
163	0x3c8a1d52	0.016859684
164	0x3dca381e	0.09873985
165	0xbd986b3f	-0.074423306
166	0xbccbc7b5	-0.024875501
167	0x3d426d5f	0.047467586
168	0xbdbdd5de	-0.092693076
169	0xbb318086	-0.0027084663
170	0x3d96718f	0.07345878
171	0x3dbbe09f	0.091737024
172	0xbd9dcfd1	-0.077056535
173	0x3a9b5421	0.0011850634
174	0x3c2b899b	0.010469819
175	0x3d0137b4	0.031547263
176	0xbc894035	-0.01675425
177	0x3db03508	0.08603865
178	0x3de617e9	0.11235029
179	0xbda60396	-0.08106153
180	0xbd140421	-0.03613675
181	0x3b04435d	0.0020181753
182	0xbd9c4d23	-0.076319
183	0x3db88fd3	0.09011807
184	0xbc93e9cd	-0.01805582
185	0xbdffdff5	-0.12493888
186	0x3d13e6ca	0.03610877
187	0xbc0e5576	-0.008687368
188	0x3d60e512	0.05490596
189	0xbe8262e1	-0.25466064
190	0xbc3091aa	-0.0107769165
191	0x3d5e34d6	0.054249607
192	0x3e320a71	0.17386796
193	0x3dc6b87e	0.09703158
194	0xbd03597b	-0.032067757
195	0x3e2eb7e4	0.17062336
196	0x3da02f07	0.0782147
197	0x3e0338a9	0.12814583
198	0xbda7363d	-0.08164642
199	0xbe6d8dcd	-0.23198624
200	0xbe624845	-0.22097881
201	0x3e34957d	0.1763515
202	0x3e073d76	0.13207039
203	0xbda0d280	-0.0785265
204	0x3ce4ca36	0.027928453
205	0xbd535fc8	-0.051605016
206	0xbe20e9ca	-0.15714183
207	0x3e86f4b0	0.26358557
208	0xbd3c1fe0	-0.045928836
209	0x3be3a58c	0.006947225
210	0x3d18a3b6	0.037265502
211	0xbdb911a3	-0.09036567
212	0xbc3ddb16	-0.011587879
213	0xbdae32f4	-0.08505812
214	0x3e38412a	0.17993608
215	0x3ea09be5	0.31368938
216	0x3e478dd5	0.19487698
217	0x3e29b869	0.16574253
218	0x3e182680	0.14858437
219	0x3cfa0da5	0.030524084
220	0x3df12654	0.11774889
221	0xbe499423	-0.19685416
222	0xbc1c65a6	-0.009545719
223	0x3dcf0d53	0.10109963
224	0x3c2db060	0.010601133
225	0xbdc655a5	-0.09684304
226	0xbd3f3d07	-0.04668906
227	0x3dc73216	0.0972635
228	0x3e467dcc	0.19383925
229	0xbde4b709	-0.11167724
230	0xbce380d5	-0.027771393
231	0x3dc3832e	0.09546505
232	0x3e40a8d2	0.188144
233	0x3eb25ec6	0.3483793
234	0x3d4ef2b1	0.050524417
235	0x3ded957e	0.11600779
236	0x3e810ea4	0.25206482
237	0xbe0f6eac	-0.14007062
238	0x3d70b76c	0.058768675
239	0xbda4009f	-0.08007931
240	0x3e436b8b	0.19083993
241	0xbd9bf754	-0.076155335
242	0x3e0443c3	0.12916474
243	0x3d39574e	0.045249276
244	0x3e1755c3	0.14778809
245	0x3e62dd44	0.22154719
246	0xbd82dbc6	-0.06389575
247	0xbe44c789	-0.19216742
248	0xbcd36208	-0.02580358
249	0x3d57d559	0.0526937
250	0xbd2e7c21	-0.042598847
251	0x3d5fa0d3	0.054596733
252	0x3de52dfa	0.1119041
253	0x3e2c2e7a	0.16814604
254	0x3e730210	0.23731256
255	0x3c93e6df	0.018054424

actor.2.bias f4 [64]
0	0xb88e6af0	-6.791006e-05
1	0x3c0ca3ca	0.008583972
2	0xbe27d257	-0.16388832
3	0x3e136c68	0.14396822
4	0x3c1e3f9e	0.009658722
5	0xbcc2f014	-0.023796119
6	0x3c4b7d23	0.012419972
7	0x3d0ec096	0.034851633
8	0xbbae852a	-0.005325933
9	0xbd20d2ea	-0.039263643
10	0xbdb7a9e0	-0.08967948
11	0x3d79f5f0	0.06102556
12	0x3e127f10	0.14306283
13	0x3e559be3	0.20860247
14	0xbde16600	-0.11005783
15	0x3cc8ee01	0.024527552
16	0x3de6b3e8	0.11264783
17	0xbdfeccc2	-0.12441398
18	0xbe28c214	-0.16480285
19	0x3d1a316d	0.037644792
20	0x3cbb7568	0.022883132
21	0x3e10c5b2	0.14137915
22	0x3ccab8de	0.024746355
23	0x3d45369c	0.048147783
24	0x3e319c49	0.17344774
25	0x3d6d670b	0.057959598
26	0x3d46dbc2	0.04854942
27	0xbdad8d82	-0.08474256
28	0x3da6b81c	0.08140585
29	0xbcf98e85	-0.030463466
30	0x3e1c0766	0.15237197
31	0x3db69c4e	0.089165315
32	0x3da451d8	0.08023423
33	0x3cd48313	0.025941407
34	0xbe17fc36	-0.14842305
35	0xbbdc2777	-0.0067185718
36	0x3cc698bb	0.02424275
37	0xbc4eb7b9	-0.012617045
38	0x3e05a121	0.13049747
39	0x3d15e301	0.03659344
40	0x3de7f18e	0.1132537
41	0xbd9769a7	-0.073931985
42	0x3d25492a	0.040352978
43	0x3ddae77b	0.10688683
44	0xbd3282f7	-0.04358193
45	0x3d941dbf	0.07232236
46	0x3d46051a	0.04834471
47	0xbdd1ef08	-0.1025067
48	0xbd818e32	-0.0632595
49	0xbd5f356b	-0.054494303
50	0xbd826a14	-0.06367889
51	0x3dc9f470	0.09861076
52	0x3e1e0563	0.15431742
53	0x3e77f0bc	0.24212927
54	0x3dc3a32c	0.09552607
55	0x3c41e027	0.011833227
56	0xbdb22cda	-0.08699961
57	0x3cd93cfa	0.026518334
58	0x3b656b47	0.003500657
59	0xbdbd14fa	-0.092325166
60	0x3d40da55	0.047083218
61	0x3d0db861	0.034599666
62	0x3d24a887	0.040199783
63	0x3e2d122b	0.16901462

actor.4.weight f4 [36, 64]
0	0xbcf06caa	-0.02934869
1	0x3ea795b5	0.32731405
2	0xbe89d075	-0.26916853
3	0x3d8553d6	0.06510131
4	0xbf06224b	-0.52396077
5	0x3d03fa36	0.03222104
6	0xbe54ef63	-0.20794444
7	0x3de09878	0.10966581
8	0xbd9387f0	-0.072036624
9	0xbc03a733	-0.008035469
10	0x3df5a5be	0.119945034
11	0x3ed0f27c	0.4081
12	0x3e523d58	0.20531213
13	0xbf16316f	-0.5866918
14	0xbcfe70f8	-0.031059727
15	0xbcda3a66	-0.026639175
16	0xbe84ee84	-0.25963223
17	0x3d9f6b5c	0.07784149
18	0x3d25b39a	0.040454485
19	0xbe50ac18	-0.20378149
20	0xbe8e2115	-0.27759615
21	0x3e1a6378	0.15077007
22	0x3dc49902	0.095994964
23	0x3e62ecbb	0.22160618
24	0x3e03647d	0.12831302
25	0x3d91e0a8	0.07122928
26	0xbd004593	-0.03131635
27	0xbd2ce45c	-0.042209968
28	0x3e0f3fb2	0.13989142
29	0xbd2dfdab	-0.042478245
30	0x3ef484fd	0.47757712
31	0xbe79d96f	-0.2439935
32	0x3e88ec7e	0.2674293
33	0x3eddece8	0.43344808
34	0x3d1862e8	0.0372037
35	0x3d3dcc11	0.04633719
36	0x3d096a38	0.033548564
37	0x3e871fd4	0.2639147
38	0xbe3753a2	-0.17902997
39	0xbd6cef9b	-0.057845693
40	0xbec503bd	-0.38479415
41	0xbc049fcf	-0.008094742
42	0xbea54998	-0.3228271
43	0x3ea8b621	0.32951453
44	0xbc23cb7d	-0.009997246
45	0xbc822e18	-0.01589112
46	0xbede47a8	-0.43414044
47	0x3d6d62de	0.057955615
48	0xbd66a958	-0.056313843
49	0x3d03038b	0.0319858
50	0x3de68a1a	0.112568095
51	0xbedfdc1f	-0.43722627
52	0x3e1d31a0	0.15350962
53	0xbf05d54d	-0.52278596
54	0xbebd51e6	-0.36976546
55	0x3eb0119a	0.3438843
56	0xbd98ba14	-0.074573666
57	0xbe0096e0	-0.12557554
58	0x3ea612e0	0.32436275
59	0xbda02903	-0.07820322
60	0xbe71cf20	-0.23614168
61	0x3c4af027	0.012386358
62	0x3c369427	0.011143721
63	0x3ea7cf96	0.32775563
64	0xbe1a9f34	-0.15099794
65	0xbe3d55c1	-0.18489744
66	0xbe661fa8	-0.22473013
67	0x3c7c5e7f	0.015403389
68	0xbed1f214	-0.41005003
69	0x3ede79cf	0.43452308
70	0xbdae36eb	-0.085065685
71	0x3ebafe27	0.36522028
72	0xbedc5aa2	-0.43037897
73	0xbd994950	-0.074846864
74	0xbcf73358	-0.03017585
75	0xbedf4949	-0.436106
76	0x3e56c76d	0.20974512
77	0xbee8c7a6	-0.4546482
78	0xbb7ec54a	-0.0038874918
79	0x3ec98ebf	0.3936672
80	0xbf071a5f	-0.52774614
81	0xbd553e04	-0.052061096
82	0xbd9312e2	-0.07181336
83	0xbe484c7c	-0.19560426
84	0xbeb0d701	-0.34539035
85	0x3eb9ecc3	0.36313447
86	0x3cf31e61	0.029677572
87	0xbed3c282	-0.41359335
88	0x3eb8f8d9	0.36127356
89	0xbd26f485	-0.040760536
90	0xbd9b97c9	-0.0759731
91	0x3da4cddc	0.08047077
92	0xbd5f0c72	-0.05445523
93	0x3e8e90ce	0.27844852
94	0xbe6fec88	-0.23430073
95	0xbe68a52e	-0.22719261
96	0x3e93dba2	0.28878504
97	0xbe81b387	-0.2533228
98	0x3d72df79	0.05929515
99	0x3e9efda7	0.31052896
100	0xbe5e81d8	-0.21729219
101	0xbd1cc75c	-0.03827606
102	0x3dc38b5f	0.09548067
103	0x3ccc5257	0.024941606
104	0x3ea8caf1	0.32967332
105	0x3de0b109	0.10971267
106	0x3ea27b3a	0.3173464
107	0x3dceaa5a	0.10091086
108	0xbde8cdd4	-0.113673836
109	0xbe43dc46	-0.19126996
110	0xbef83177	-0.4847524
111	0xbc8f97d1	-0.017528446
112	0xbdc4bd65	-0.09606437
113	0xbd65e700	-0.056128502
114	0xbe524eb1	-0.20537831
115	0x3e48d3c2	0.19612029
116	0x3d9a58d2	0.075364724
117	0xbef14d80	-0.4712944
118	0xbe44e025	-0.1922613
119	0xbe929d5c	-0.2863568
120	0xbbcb62ac	-0.006206831
121	0x3d935da1	0.07195593
122	0x3d03764c	0.03209524
123	0xbdca74be	-0.09885548
124	0xbe8bbc7b	-0.27292237
125	0x3e1cccbb	0.15312473
126	0x3dc86733	0.09785309
127	0xbe35de38	-0.17760551
128	0x3e803e4b	0.25047526
129	0x3e037e56	0.12841162
130	0xbe360c9e	-0.1777825
131	0x3e6acaae	0.22928879
132	0xbe0ca5b5	-0.13735087
133	0xbebbfca4	-0.36716187
134	0xbd947168	-0.07248193
135	0x3ed687c0	0.41900444
136	0xbe512ca8	-0.20427191
137	0xbd82c348	-0.06384903
138	0x3e29b22c	0.16571873
139	0x3e430a34	0.19046861
140	0x3e6422c9	0.22278894
141	0xbf2005c8	-0.6250882
142	0x3d9a82ef	0.07544505
143	0x3ebd838d	0.37014428
144	0x3c5ed502	0.01360059
145	0xbd9a4dc2	-0.075343624
146	0x3cd46548	0.0259272
147	0x3c643c8c	0.013930451
148	0xbe90b37b	-0.28261933
149	0xbe272606	-0.16323099
150	0x3c0dde60	0.008658975
151	0x3baee726	0.0053376136
152	0x3e85715b	0.26063046
153	0xbde90537	-0.11377948
154	0x3d773828	0.06035629
155	0x3d153bbf	0.03643393
156	0x3e7d6170	0.247442
157	0xbebf65e2	-0.37382418
158	0xbe2045c3	-0.15651612
159	0xbdb685f8	-0.08912271
160	0x3d2bd591	0.04195172
161	0x3e712546	0.23549375
162	0xbc409988	-0.011755355
163	0xbea4b8a0	-0.32172108
164	0xbe8a000e	-0.26953167
165	0xbdeb8449	-0.11499841
166	0x3e37cec5	0.1794997
167	0x3ea151b0	0.31507635
168	0xbef58537	-0.47953197
169	0xbd01e0b6	-0.03170844
170	0x3d6cfc1c	0.057857618
171	0x3e2cb788	0.16866887
172	0xbd388957	-0.045052852
173	0x3e28999b	0.16464846
174	0xbee684d4	-0.45023215
175	0x3dfc2460	0.123116255
176	0xbd6ff8dd	-0.058586944
177	0x3d2c16e3	0.042014014
178	0xbe947634	-0.28996432
179	0xbefbb6d3	-0.4916292
180	0xbe42a437	-0.19007955
181	0xbf10fc77	-0.5663523
182	0x3e2663de	0.16249034
183	0x3dd7a8ee	0.10530268
184	0x3d7cfa1a	0.061761953
185	0x3dc848a9	0.09779484
186	0x3ec23f0f	0.37938735
187	0xbd115c0b	-0.03548817
188	0x3e804a02	0.25056463
189	0x3e83d40d	0.2574772
190	0xbdb7a084	-0.08966163
191	0x3e43b3a7	0.191115
192	0x3e3dcb93	0.18534689
193	0x3e10c1d7	0.14136444
194	0x3cd9f96b	0.02660819
195	0x3e79f47a	0.24409667
196	0x3db642c5	0.08899454
197	0xbd7d0916	-0.061776243
198	0x3e3fda27	0.18735562
199	0x3c238336	0.009980014
200	0xbde069aa	-0.10957654
201	0x3dd0175f	0.10160708
202	0x3e4640d1	0.19360663
203	0x3e33e55a	0.1756796
204	0x3e22a633	0.15883712
205	0xbe4d8775	-0.20071204
206	0xbd02a743	-0.031897794
207	0xbc971fd6	-0.018447798
208	0x3e0fc459	0.14039744
209	0x3d9c86e0	0.07642913
210	0xbe073517	-0.13203846
211	0x3e574ba3	0.21024947
212	0xbc4b196a	-0.012396196
213	0xbea68a7c	-0.3252753
214	0xbbda22ee	-0.006656996
215	0x3e391bf7	0.18077074
216	0xbe912aba	-0.2835291
217	0xbbb08056	-0.0053863926
218	0xbd114e69	-0.03547517
219	0xbdae3fa4	-0.08508232
220	0x3e342820	0.17593431
221	0xbdef4798	-0.11683577
222	0x3c2bd500	0.010487795
223	0x3e246af9	0.16056432
224	0x3d852be6	0.065025136
225	0x3e13ce3a	0.14434138
226	0x3df11cae	0.11773048
227	0xbe6e0345	-0.23243435
228	0xbe4bf89a	-0.19919053
229	0xbe7d6c7b	-0.24748413
230	0xbdc87175	-0.09787265
231	0x3e07ba77	0.13254724
232	0xbe462250	-0.19349027
233	0x3c3dae09	0.011577138
234	0xbd781b29	-0.060572777
235	0x3d7e5c78	0.062099904
236	0x3d00e128	0.031464726
237	0x3e3d891e	0.18509337
238	0xbe1022aa	-0.14075723
239	0x3d08aec9	0.033369813
240	0x3d2b291b	0.041787248
241	0xbca8e139	-0.020615207
242	0x3e0490ed	0.1294591
243	0xbdf1c914	-0.11805931
244	0xbdab77e1	-0.083724745
245	0x3d6c44b6	0.057682715
246	0xbd3be9c9	-0.04587725
247	0x3e855932	0.26044613
248	0x3ca65ff9	0.020309435
249	0x3e63d69f	0.2224984
250	0x3cf15442	0.029459123
251	0xbdbe20cd	-0.092836
252	0xbe2713ae	-0.16316101
253	0x3e128315	0.14307816
254	0xbdcde1fe	-0.1005287
255	0x3e211955	0.1573232

actor.4.bias f4 [36]
0	0x3e3144ad	0.17311354
1	0x3b1286d0	0.0022358187
2	0xbd59e777	-0.053199258
3	0xbda17b4c	-0.07884845
4	0x3df58eb1	0.11990107
5	0x3b98db3b	0.004664806
6	0x3d62bc05	0.05535509
7	0x3dee34bd	0.11631153
8	0xbccaf952	-0.024777088
9	0xbd82914e	-0.06375371
10	0x3d612530	0.054967105
11	0xbdbe77de	-0.093002066
12	0xbd1abbfc	-0.037776932
13	0xbdba99d7	-0.09111374
14	0x3dd58d34	0.10427323
15	0x3d1f02ec	0.038821146
16	0xbe276dec	-0.16350526
17	0xbe911e96	-0.28343648
18	0xbe788478	-0.24269283
19	0xbe15cd49	-0.14629091
20	0xbe3999b3	-0.18125038
21	0xbd0b4018	-0.03399667
22	0xbdd9dd60	-0.10637927
23	0xbd28d45c	-0.041218147
24	0x3dcb5485	0.0992823
25	0x3df1138e	0.11771308
26	0xbcfa1855	-0.03052918
27	0xbc3aef1d	-0.011409548
28	0x3cbdb206	0.023156177
29	0xbd1f5d0c	-0.038907096
30	0xbd2db42c	-0.042408153
31	0xbd879e3e	-0.06621979
32	0xbd150532	-0.036381908
33	0xbda4d13a	-0.08047719
34	0x3d4f71af	0.050645526
35	0x3e1030d4	0.14081126

critic.0.weight f4 [64, 62]
0	0xbc04e808	-0.008111961
1	0x3d563272	0.052294202
2	0xbd669ead	-0.05630367
3	0x3ce40573	0.02783463
4	0xbe8e905b	-0.2784451
5	0xbe923142	-0.28553206
6	0x3e1814d3	0.14851694
7	0x3e1434cc	0.14473265
8	0xbe7b89f4	-0.24564344
9	0xbe500569	-0.20314564
10	0x3e2212d1	0.1582749
11	0xbdf24944	-0.118303806
12	0x3db6adfd	0.089199044
13	0x3d39f6ca	0.045401372
14	0x3d88d09c	0.06680414
15	0x3e51511a	0.20441094
16	0xbdc990f6	-0.09842102
17	0x3d64ad9d	0.055829633
18	0xbdb4a853	-0.08821168
19	0x3dfeaa7d	0.12434862
20	0xbccf4296	-0.025300305
21	0x3da662cf	0.08124315
22	0x3d4acf14	0.04951389
23	0xbd70305d	-0.058639873
24	0x3d131b61	0.035914782
25	0xbbc62727	-0.006047148
26	0xbdb9cd65	-0.09072379
27	0x3d0d3549	0.034474645
28	0x3e7f040e	0.2490389
29	0x3e0b0366	0.13575515
30	0x3e3c64c5	0.18397816
31	0x3de7bb54	0.11315027
32	0xbc9bcd0e	-0.019018676
33	0x3cfaf96d	0.030636514
34	0xbd98b046	-0.074554965
35	0xbd659bc9	-0.05605677
36	0x3dea6f9c	0.11447069
37	0x3e2adaea	0.16685072
38	0x3d8317c3	0.064010166
39	0x3d267d8d	0.04064708
40	0xbd6dfd9f	-0.0581032
41	0x3d721175	0.05909868
42	0x3e65c81e	0.2243962
43	0xbd10e3db	-0.03537355
44	0x3ca1aa7e	0.019734617
45	0x3d3b81aa	0.045777954
46	0xbc9292aa	-0.0178922
47	0x3e19583b	0.14975064
48	0xbd34bb50	-0.044123948
49	0xbe970ead	-0.29503384
50	0xbe345177	-0.17609201
51	0xbd4859cd	-0.048913766
52	0x3dc751bf	0.09732389
53	0xbdf29461	-0.11844707
54	0xbb8773ca	-0.004133676
55	0xbcb285da	-0.021792341
56	0x3e0bf831	0.13668896
57	0xbcbe4823	-0.023227757
58	0xbddb04a2	-0.10694243
59	0xbc6061c1	-0.013695181
60	0xbcc4629b	-0.0239728
61	0x3debced1	0.115140565
62	0x3d762b6e	0.06010001
63	0xbcbd8c9f	-0.023138342
64	0xbc60104e	-0.013675762
65	0x3c096172	0.008385049
66	0xbdfd4b4e	-0.12367879
67	0xbe655b2a	-0.22398058
68	0xbce8e2cd	-0.02842846
69	0x3de5a8cf	0.11213838
70	0x3d56b06f	0.052414354
71	0x3d1e4fb6	0.038650237
72	0xbe1d35e7	-0.15352593
73	0x3d6cb995	0.057794172
74	0x3d0d14cd	0.034443665
75	0xbd44d517	-0.04805478
76	0x3de2e342	0.11078502
77	0xbdb538a5	-0.08848695
78	0x3d98d214	0.07461944
79	0xbdcad815	-0.099044956
80	0x3d40fccf	0.047116097
81	0xbd431cc0	-0.04763484
82	0xbda649e9	-0.08119566
83	0x3d13c0c4	0.036072508
84	0xbc70d919	-0.014700198
85	0x3cd29914	0.025707759
86	0x3db11b83	0.086478256
87	0xbdaa182f	-0.08305394
88	0xbd4d3e08	-0.050107986
89	0xbd834ac6	-0.06410746
90	0x3dd90f0c	0.10598573
91	0xbe3f1fdd	-0.18664499
92	0x3d91e2cb	0.071233355
93	0xbdd953d5	-0.10611693
94	0xbd582dab	-0.052777927
95	0xbdb23f93	-0.08703532
96	0x3ddce1a9	0.10785229
97	0x3d6c6383	0.05771209
98	0xbd4d81c1	-0.05017257
99	0xbdeb5dca	-0.11492498
100	0xbd557985	-0.052117843
101	0xbd82112c	-0.063509315
102	0xbdbe1d36	-0.09282915
103	0xbdb5d256	-0.08878009
104	0xbdd21616	-0.10258119
105	0xbcbe8983	-0.02325893
106	0xbdbefc23	-0.09325435
107	0xb9b01e37	-0.00033591848
108	0xbdd253e6	-0.102699086
109	0x3bcbacbb	0.0062156594
110	0xbd3806e5	-0.04492845
111	0xbd4e356e	-0.050343923
112	0x3c836d82	0.016043428
113	0x3dfde1e3	0.123966
114	0x3d27e6dc	0.04099165
115	0xbd1391e4	-0.036027804
116	0xbde8d757	-0.11369198
117	0x3b885b02	0.0041612396
118	0x3d227b59	0.039668415
119	0xbdb2cb8d	-0.087302305
120	0xbe137106	-0.14398584
121	0x3d53a573	0.051671457
122	0x39edb703	0.00045340517
123	0xbe064529	-0.1311232
124	0xbd78f754	-0.060782745
125	0x3c8e7bcd	0.017393017
126	0x3d129f71	0.035796586
127	0xbda67db6	-0.08129446
128	0xbd5a3b03	-0.053278934
129	0x3e921e06	0.2853853
130	0xbe00ce0d	-0.12578602
131	0x3e7ac5b5	0.24489482
132	0xbe8c1791	-0.2736173
133	0xbe4d5b1b	-0.20054285
134	0x3d535594	0.051595286
135	0x3dfdded6	0.12396018
136	0x3b02ef1c	0.0019978946
137	0xbe1b3965	-0.15158613
138	0x3c2167fa	0.00985145
139	0x3d04a108	0.032380134
140	0xbd058be5	-0.032604117
141	0x3ce52c68	0.027975276
142	0x3d936d76	0.071986124
143	0xbdfa7477	-0.12229245
144	0x3d573db4	0.05254908
145	0xbd8340ab	-0.06408819
146	0x39f144bb	0.0004601831
147	0xbcf53ecc	-0.02993717
148	0xbd3b345f	-0.04570424
149	0xbdb63691	-0.088971265
150	0x3d32a728	0.043616444
151	0x3d552972	0.05204148
152	0x3d95b194	0.07309261
153	0xbdba153d	-0.09086082
154	0xbdeef8cf	-0.1166855
155	0xbcab4608	-0.020907417
156	0xbda5224f	-0.080631845
157	0x3de8bf6f	0.11364638
158	0x3dce7e12	0.1008264
159	0x3d331044	0.043716684
160	0xbd7a6f57	-0.06114134
161	0x3da062e8	0.07831365
162	0xbe47c01e	-0.1950688
163	0x3dc0d499	0.0941555
164	0xbd650d1a	-0.055920698
165	0xbce2e483	-0.027696854
166	0xbd3b24fa	-0.04568956
167	0xbe102edd	-0.14080377
168	0xbc931f8a	-0.017959375
169	0x3da0cf49	0.078520365
170	0xbd87b49a	-0.06626244
171	0x3db87f9a	0.09008713
172	0xbdaa1c0b	-0.0830613
173	0xbd93cde3	-0.07217004
174	0xbddd4eae	-0.108060226
175	0x3dd6c3f5	0.104865946
176	0xbdd80def	-0.105495326
177	0xbc8aede8	-0.016959146
178	0xbe5ce5d9	-0.21572055
179	0xbcb475e4	-0.02202887
180	0xbe02bf7a	-0.12768355
181	0x3c919cd2	0.017774973
182	0x3d9ac330	0.0755676
183	0xbd45386a	-0.048149504
184	0xbbe4b822	-0.006979958
185	0xbd0c3cd8	-0.034237713
186	0xbd3fab1e	-0.04679405
187	0xbcd8debd	-0.026473397
188	0xbdc212b2	-0.09476222
189	0x3d04f545	0.03246047
190	0x3d3e9bc6	0.046535276
191	0xbe6a91b9	-0.22907151
192	0xbe1c0039	-0.1523446
193	0xbe152c41	-0.14567663
194	0xbe35344e	-0.17695734
195	0xbe0e1332	-0.1387451
196	0x3dc2f32b	0.09519037
197	0xbd1fd674	-0.039022878
198	0xbdb9ca88	-0.09071833
199	0xbe041a91	-0.1290076
200	0x3cde64d3	0.027147686
201	0xbd8bd293	-0.06827273
202	0xbdd101ea	-0.10205443
203	0x3d992a9d	0.07478831
204	0xbd84bd9b	-0.06481477
205	0xbdcccf4d	-0.10000477
206	0xbcd4644f	-0.025926737
207	0xbdc229eb	-0.094806515
208	0xbc00df75	-0.007865776
209	0x3cbbdb02	0.02293158
210	0x3d64cd13	0.055859637
211	0xbd4f2a9e	-0.050577752
212	0x3d8fbf3d	0.07018898
213	0x3de779c8	0.11302525
214	0xbe4b1c5f	-0.19835041
215	0x3e0da08a	0.13830772
216	0xbdc90036	-0.09814493
217	0xbe494fe8	-0.19659388
218	0xbd204848	-0.039131433
219	0xbdf58d16	-0.11989801
220	0x3b7bfbef	0.0038449725
221	0xbd3ca656	-0.046057068
222	0x3dc0d9c6	0.09416537
223	0xbdcaa917	-0.098955326
224	0xbca77519	-0.020441579
225	0x3dad7e68	0.08471376
226	0x3ddf2049	0.1089483
227	0xbd38d4cd	-0.045124818
228	0xbe170c67	-0.14750825
229	0xbd73ef5a	-0.059554435
230	0xbd743c14	-0.059627607
231	0x3e09172e	0.13387749
232	0xbe68ed60	-0.22746801
233	0x3e07329e	0.13202903
234	0x3cde4c07	0.027135862
235	0xbd3b950b	-0.045796435
236	0xbdff4bcb	-0.12465628
237	0xbe486235	-0.19568713
238	0xbd9ef9f6	-0.0776252
239	0x3cdba4d1	0.026811989
240	0xbc6507b7	-0.01397889
241	0x3d80ed86	0.06295304
242	0xbe5abcff	-0.21361159
243	0xbdc0e3e5	-0.094184674
244	0x3dfbdd11	0.122980244
245	0x3d5d3eee	0.054015093
246	0xbdc89e08	-0.09795767
247	0xbe08f10d	-0.13373204
248	0xbc842f16	-0.016135734
249	0x3dc28180	0.094973564
250	0xbd900166	-0.07031517
251	0xbd77cb73	-0.06049676
252	0x3e1515fc	0.14559168
253	0x3dc23195	0.09482113
254	0x3dadb599	0.08481903
255	0x3e2d4f0a	0.16924682

critic.0.bias f4 [64]
0	0x3d20b9fb	0.039239865
1	0xbe331173	-0.17487125
2	0xbe2fc200	-0.17163849
3	0x3d40e2d4	0.04709132
4	0xbd1607e9	-0.036628637
5	0xbdb8303d	-0.08993576
6	0xbdef3ecb	-0.11681899
7	0xbe1a233d	-0.15052505
8	0xbc68db43	-0.014212432
9	0xbe2d07ec	-0.16897553
10	0x3dae0aef	0.08498179
11	0x3dc7cc15	0.097557224
12	0x3d3b9af8	0.045802087
13	0xbd5af12a	-0.05345265
14	0x3e056710	0.13027596
15	0xbdab37f2	-0.0836028
16	0x3ddfc16e	0.10925566
17	0xbe06dc73	-0.13170032
18	0xbdadd491	-0.084878094
19	0xbb2ffe59	-0.0026854484
20	0xbd99a2a3	-0.075017236
21	0xbdc0c3ee	-0.094123706
22	0xbdabd1a2	-0.08389594
23	0xbd9ce7f5	-0.0766143
24	0xbd212163	-0.03933848
25	0x3de1b63c	0.110210866
26	0x3d6119d2	0.054956265
27	0x3d693fd2	0.05694563
28	0xbd590ed4	-0.052992657
29	0x3dd81cb3	0.10552349
30	0xbe1f55db	-0.15560095
31	0xbdcb7e02	-0.099361435
32	0xbcb7aeb9	-0.022422181
33	0xbd946122	-0.07245089
34	0x3d06593e	0.03279995
35	0xbc7901bd	-0.015198168
36	0x3c4695d7	0.012120686
37	0x3c2b4cff	0.010455369
38	0xbdfceaab	-0.12349447
39	0xbc7cda40	-0.015432894
40	0x3e24e68a	0.16103569
41	0xbdc02f97	-0.09384077
42	0xbcdc5400	-0.026895523
43	0x3de10c54	0.109886795
44	0xbe076e66	-0.13225707
45	0xbe1997e9	-0.14999355
46	0x3e27c0d3	0.1638215
47	0x3dfa8455	0.122322716
48	0xbe3a4ad9	-0.18192615
49	0xbe20b2fd	-0.15693279
50	0x3d557cda	0.05212102
51	0x3db3c688	0.08778101
52	0xbdc7f1ad	-0.09762893
53	0xbdc9dfec	-0.09857163
54	0x3de2a141	0.11065913
55	0x3dcebbc5	0.10094408
56	0x3d4b9d2b	0.049710434
57	0x3ddfc37a	0.10925956
58	0xbdae1cf1	-0.08501614
59	0xbda231ed	-0.07919679
60	0xbdd2d117	-0.10293787
61	0xbd7e8d2c	-0.06214635
62	0xbcb3f6f4	-0.021968342
63	0x3c123c20	0.008925468

critic.2.weight f4 [64, 64]
0	0xbd67e6b9	-0.05661652
1	0x3d927348	0.071508944
2	0xbe23c70b	-0.15993898
3	0xbdb6789b	-0.089097224
4	0xbce1f8be	-0.02758443
5	0xbdebff2d	-0.1152328
6	0xbcf33f9b	-0.029693415
7	0x3dbff4f6	0.093728945
8	0xbd978ba6	-0.07399683
9	0xbd6f723c	-0.05845855
10	0x3d8c029d	0.06836436
11	0x3d853e9a	0.06506081
12	0xbd13be30	-0.03607005
13	0x3c39d45d	0.011342135
14	0x3d8b1363	0.06790807
15	0xbd6420af	-0.055695232
16	0x3d114cac	0.03547351
17	0x3bcd949f	0.0062738205
18	0x3d5e32f0	0.054247797
19	0x3dadac46	0.08480124
20	0xbe6736b9	-0.22579469
21	0xbd8db92f	-0.069200866
22	0xbd6cf4fb	-0.05785082
23	0xbda9af2c	-0.082853645
24	0x3e064574	0.13112432
25	0xbda49778	-0.08036703
26	0xbd8de7e1	-0.06928993
27	0xbc8fa1f0	-0.017533273
28	0x3d6994a4	0.05702652
29	0xbc822be6	-0.015890073
30	0xbd881996	-0.06645505
31	0xbdae6a88	-0.08516413
32	0xbe04731e	-0.12934539
33	0x3d72e8e6	0.05930414
34	0xbdb02416	-0.08600633
35	0xbd8d3189	-0.06894214
36	0x3bcfeabb	0.0063451207
37	0xbdb10f76	-0.08645527
38	0x3de739ca	0.11290319
39	0x3d0f8f09	0.03504852
40	0xbda88652	-0.082287446
41	0xbdcb983a	-0.09941144
42	0xbe055847	-0.13021956
43	0xbe091697	-0.13387524
44	0xbd6b85d3	-0.05750067
45	0xbe1e393d	-0.15451522
46	0xbe134bc0	-0.14384365
47	0xbde83aa7	-0.11339312
48	0xbdafa845	-0.08577017
49	0x3df526ed	0.11970315
50	0x3d5898e3	0.05288018
51	0x3d9901bf	0.07471036
52	0xbcdc130a	-0.026864547
53	0x3d4b7695	0.049673636
54	0xbde00fd6	-0.109405205
55	0x3dddf60d	0.10837946
56	0xbcb469db	-0.022023132
57	0xbdf8cc56	-0.12148349
58	0x3dbded74	0.09273806
59	0xbe036386	-0.12830934
60	0xbdb16914	-0.0866262
61	0xbda2b321	-0.079443224
62	0xbddc7165	-0.10763816
63	0x3c00b360	0.007855266
64	0xbdec5572	-0.11539735
65	0xbda6c7ab	-0.081435524
66	0xbc9f3597	-0.019434733
67	0x3d110d0d	0.035412837
68	0xbdf40c3c	-0.11916396
69	0xbdf908b2	-0.121598616
70	0xbde8a234	-0.11359063
71	0x3c3a4e8c	0.011371266
72	0x3dd3c70c	0.103406996
73	0xbd82224b	-0.06354197
74	0xbe29811a	-0.16553155
75	0xbcad2e72	-0.02114031
76	0xbcc87a02	-0.02447224
77	0x3d4f7b99	0.05065498
78	0x3c5dcf81	0.013538242
79	0x3d04ae8f	0.032393035
80	0xbd77aa4f	-0.060465153
81	0xbddd8f21	-0.10818315
82	0xbddd5e38	-0.108089864
83	0x3dd26063	0.102722906
84	0x3c9b92e3	0.01899094
85	0xbdcc4f0f	-0.09976017
86	0xbd47b872	-0.048759885
87	0x3cca9554	0.024729408
88	0x3b656eef	0.0035008749
89	0xbd186d79	-0.037213776
90	0x3c9ed2a8	0.019387558
91	0x3d108be9	0.03528968
92	0xbd6b847e	-0.0574994
93	0x3d094b63	0.03351916
94	0x3d7a14b7	0.06105491
95	0xbce71440	-0.028207898
96	0x3dc4edf2	0.09615697
97	0xbc4c1471	-0.0124560455
98	0xba2dc8b5	-0.0006629334
99	0x3ddeec9a	0.10884972
100	0x3c67792b	0.01412801
101	0xbe42b4ee	-0.19014332
102	0xbde3ad1b	-0.111170016
103	0x3dad034a	0.08447893
104	0xbc40c652	-0.011766033
105	0x3cb61563	0.022226995
106	0xbdc900cc	-0.09814605
107	0x3c12d5de	0.008962123
108	0x3ce8c513	0.028414285
109	0xbc845c4d	-0.016157294
110	0xbd33a07b	-0.043854218
111	0xbe0059d7	-0.12534271
112	0xbd351952	-0.0442136
113	0x3cc8e9cb	0.024525544
114	0x3d89ed3f	0.06734704
115	0xbe095049	-0.13409533
116	0x3da31917	0.0796377
117	0x3d827c96	0.06371419
118	0x3c845d27	0.0161577
119	0xbd09abd2	-0.033611126
120	0x3d883f84	0.0665274
121	0xbd9a0736	-0.075209066
122	0xbd4a8dae	-0.049451523
123	0xbdc50cec	-0.09621605
124	0x3d0da4b1	0.03458089
125	0xbded4304	-0.11585048
126	0xbd5c9611	-0.053854052
127	0xbcdc1dfc	-0.026869766
128	0x3c1bdc9e	0.009513048
129	0x3d3beee8	0.045882136
130	0xbe000826	-0.12503108
131	0x3a63870c	0.00086794863
132	0xbdf26b86	-0.11836915
133	0x3ded33ad	0.11582122
134	0xbd8dd2f6	-0.06925003
135	0xbd6681fe	-0.056276314
136	0xbdcef550	-0.101053834
137	0x3cd85d0d	0.026411558
138	0x3ce64e9e	0.02811366
139	0x3ab5420c	0.0013828888
140	0x3dbad706	0.09123044
141	0x3c62a39c	0.013832953
142	0xbdef4607	-0.116832785
143	0x3d876887	0.06611734
144	0xbdba2774	-0.09089556
145	0xbdbe72e0	-0.092992544
146	0xbd40def6	-0.047087632
147	0xbca128f7	-0.019672854
148	0xbe3757c6	-0.17904577
149	0xbd821ce2	-0.06353165
150	0xbe0c9781	-0.13729669
151	0x3de686e7	0.11256199
152	0xbd7fb993	-0.062432837
153	0x3da3d9ca	0.08000524
154	0x3d2d400b	0.042297404
155	0xbce60030	-0.028076261
156	0x3c13cb55	0.009020646
157	0xbd98ce24	-0.07461193
158	0xbd8a46f4	-0.067518145
159	0xbe5c5d13	-0.2151988
160	0x3d1a6321	0.037692193
161	0xbe0cc9a1	-0.1374879
162	0xbe097abb	-0.13425724
163	0x3c9b1811	0.018932374
164	0xbdd3f90d	-0.10350237
165	0x3c821a95	0.015881816
166	0x3db5dde8	0.08880216
167	0xbc449dcd	-0.012000513
168	0xbcaa730a	-0.020806808
169	0x3d41f82c	0.047355816
170	0xbde3b117	-0.111177616
171	0xbe3b0fbf	-0.18267725
172	0xbd0b0750	-0.03394252
173	0xbe1d8841	-0.15384008
174	0xbbe95231	-0.0071203937
175	0x3d8e85e9	0.06959135
176	0xbe1969d5	-0.14981778
177	0x3dca452a	0.09876473
178	0x3d3c8602	0.046026237
179	0xbe0638af	-0.1310756
180	0xbcf47872	-0.029842589
181	0x3d2b436e	0.041812353
182	0xbe1d6e35	-0.15374072
183	0xbda26503	-0.07929423
184	0xbdf2f079	-0.11862273
185	0xbdc51262	-0.09622647
186	0x3e02d45b	0.1277632
187	0xbd4ce038	-0.05001852
188	0xbc7e04bd	-0.015504059
189	0x3be55056	0.006998102
190	0x3df56bc2	0.11983444
191	0x3d641f85	0.055694122
192	0x3e100676	0.14064965
193	0xbce35537	-0.027750595
194	0x3d253e6a	0.040342726
195	0xbaade32c	-0.0013266555
196	0x3e06dafd	0.13169475
197	0x3ce7110f	0.028206376
198	0xbda1ef31	-0.0790695
199	0xbdc2813d	-0.094973065
200	0xbd83d0e5	-0.06436328
201	0xbd2a74bd	-0.041615237
202	0xbd9d3afb	-0.07677265
203	0x3e02acaa	0.12761179
204	0xbe2f5118	-0.17120779
205	0x3e1fa9cf	0.1559212
206	0xbe4b8e5f	-0.19878529
207	0xbed1214c	-0.40845716
208	0xbe067522	-0.1313062
209	0x3d9de6cf	0.07710039
210	0xbcb17798	-0.021663472
211	0x3e23bbe3	0.15989642
212	0x3e50d25b	0.20392744
213	0xbc923873	-0.017849183
214	0x3e7e5253	0.24836092
215	0xbdc38477	-0.0954675
216	0x3dcf7c43	0.10131123
217	0x3e0a35cb	0.13497083
218	0xbd634d8e	-0.055493884
219	0x3dbafa43	0.09129765
220	0xbcf700c5	-0.030151734
221	0xbe936146	-0.2878515
222	0xbe096e08	-0.1342088
223	0xbcd95ad0	-0.02653256
224	0x3aa8263f	0.0012828781
225	0xbdb5c868	-0.08876115
226	0xbe2dfda6	-0.1699129
227	0x3d67a344	0.056552187
228	0x3de6bbee	0.112663135
229	0x3cbfc025	0.023407051
230	0x3da6d06e	0.081452236
231	0x3e0d91f7	0.13825212
232	0x3e152324	0.14564186
233	0x3d81cf8d	0.06338415
234	0x3d58c682	0.052923687
235	0x3ea64f8e	0.3248257
236	0xbc0a590a	-0.00844408
237	0x3c6d6bc4	0.014491025
238	0xbe1e1da2	-0.15440992
239	0xbe9e4376	-0.30910844
240	0xbd810b73	-0.06301012
241	0x3ba93131	0.005163335
242	0xbdef3fc4	-0.11682084
243	0x3df42b4f	0.11922323
244	0xbd801f1a	-0.06255932
245	0x3cf6f893	0.030147826
246	0x3deef1a6	0.116671845
247	0xbe33c112	-0.17554119
248	0xbd33ba61	-0.043878917
249	0xbe6487db	-0.2231745
250	0x3d4aaf96	0.049483858
251	0x3dc0d8fc	0.094163865
252	0x3e040e32	0.1289604
253	0xbe22860a	-0.15871444
254	0xbcf1d29c	-0.029519372
255	0xbdabe3ce	-0.0839306

critic.2.bias f4 [64]
0	0x3c53bce5	0.012923454
1	0xbd21c03b	-0.039489966
2	0x3d46f097	0.048569288
3	0x3ddafa2c	0.10692248
4	0x3d918cfc	0.07106969
5	0x3c9141c9	0.017731564
6	0xbdc04932	-0.09388961
7	0x3d5e623d	0.054292906
8	0xbc7a8a8a	-0.015291819
9	0xbca56c4c	-0.020193242
10	0xbe069d9d	-0.13146062
11	0xbe06861b	-0.13137095
12	0x394b8a0a	0.00019411012
13	0x3de17b13	0.11009803
14	0xbb9d2d45	-0.0047966563
15	0x3c2de562	0.010613771
16	0x3cc1c1f2	0.02365205
17	0xbe0a7729	-0.13522018
18	0xbdbec910	-0.093156934
19	0x3d84da80	0.06486988
20	0xbdab592f	-0.0836662
21	0x3d84f936	0.06492846
22	0xbe0a7c8b	-0.13524072
23	0xbd7f604f	-0.062347706
24	0xbd2547b6	-0.040351592
25	0x3d5b7ca3	0.05358566
26	0x3c7203f9	0.014771455
27	0x3cdfaa02	0.027302746
28	0xbde46f69	-0.11154062
29	0x3dde0059	0.1083991
30	0x3da1adf8	0.0789451
31	0xbe1810e7	-0.14850198
32	0xbe0778dc	-0.13229698
33	0x3d489188	0.048966914
34	0xbdc7549d	-0.097329356
35	0x3c6e9c5f	0.014563649
36	0x3c5183cf	0.012787773
37	0x3deba6f3	0.115064524
38	0xbe003969	-0.125219
39	0xbd80076d	-0.06251416
40	0x3e11d5ef	0.14241765
41	0x3cf42df6	0.029807072
42	0x3c84069c	0.016116433
43	0xbcd6f67e	-0.026240584
44	0xbd474b59	-0.04865584
45	0x3dcca25b	0.09991904
46	0xbe2abefa	-0.16674414
47	0xbd1aac73	-0.037762117
48	0xbd874dd9	-0.06606645
49	0x3d2bac0f	0.041912135
50	0x3da8eef6	0.08248703
51	0xbd423570	-0.047414243
52	0x3c8a2579	0.016863571
53	0xbda7c82d	-0.081924774
54	0x3da330c0	0.07968283
55	0xbdac06cd	-0.08399735
56	0xbe226ec5	-0.15862568
57	0xbcfe67a6	-0.031055283
58	0xbcc7ce64	-0.024390407
59	0xbd9b8879	-0.075943895
60	0x3d9da9ba	0.076983884
61	0x3d97e911	0.07417501
62	0x3cec8836	0.028873544
63	0xbdd403fd	-0.10352323

critic.4.weight f4 [1, 64]
0	0x3c2c3255	0.010510047
1	0x3ca379bf	0.019955514
2	0xbacaa1f3	-0.0015459642
3	0xbdf3d894	-0.119065434
4	0x3cc3bd12	0.023893867
5	0xbc021af2	-0.007940995
6	0xbde7f598	-0.1132614
7	0xbddc3eb6	-0.10754149
8	0x3ca6f248	0.0203792
9	0xb927d398	-0.00016005186
10	0xbb573ad7	-0.0032841468
11	0x3d344d73	0.044019174
12	0xbc13607d	-0.008995173
13	0x3d1d886a	0.038460173
14	0xbc6b5319	-0.014363074
15	0xbce50eab	-0.027961096
16	0x3da4b01f	0.08041405
17	0x3d89bbea	0.06725295
18	0xbb4f5a7a	-0.0031639622
19	0x3dcdd2da	0.10049982
20	0x3cdfb8e6	0.027309846
21	0xbdd9fa89	-0.10643489
22	0xbad69c2c	-0.0016373447
23	0xbcdec856	-0.027195137
24	0x3c7f6256	0.01558741
25	0xbd878f52	-0.06619133
26	0x3c1815ab	0.00928251
27	0x3be8635d	0.007091923
28	0x3ce56640	0.028002858
29	0x3ca69596	0.020335
30	0xbe304b9d	-0.17216344
31	0x3c16cfa3	0.009204778
32	0x3c242191	0.0100177685
33	0xbe2cbf6d	-0.16869898
34	0xbdd35382	-0.10318662
35	0x3c7244fc	0.014786955
36	0xbad8c7d1	-0.0016539042
37	0x3d4e858f	0.05042034
38	0xbca65236	-0.020302873
39	0xbe6d6f1c	-0.23186916
40	0x3d8def6a	0.0693043
41	0xbd08e093	-0.033417296
42	0x39a9c20f	0.00032378777
43	0x3d891d1d	0.06695006
44	0xbbf60622	-0.0075080553
45	0xbdbacb8c	-0.09120855
46	0x3b4efc8a	0.003158363
47	0xbc5dc143	-0.013534847
48	0xbc76cc85	-0.01506341
49	0x3b77a1f0	0.0037785731
50	0xbe1bae85	-0.15203293
51	0x3c6abb98	0.014326952
52	0xbd0a3db1	-0.03375024
53	0xbd30a5da	-0.04312692
54	0x3c05b565	0.008160924
55	0x3b33002e	0.002731334
56	0x397a7732	0.00023886262
57	0xbd409750	-0.047019303
58	0x3dc11066	0.09426956
59	0xbcc3cf51	-0.023902567
60	0x3d477fad	0.048705745
61	0x3dc26043	0.09491017
62	0xbdebe96d	-0.11519132
63	0x3d8d4fa3	0.06899955
