Models/Reward_shaping_vm/Even_Sparser_ICM_F_7_0/10000.pth (torch, 78437 bytes, 11 tensors)

actor.0.weight f4 [64, 62]
0	0x3d3e5168	0.046464354
1	0xbdf7d7cb	-0.12101706
2	0x3d5daedd	0.05412184
3	0x3c4be3e8	0.012444474
4	0x3d3c4a6d	0.045969415
5	0xbda3102c	-0.07962069
6	0x3e25d857	0.16195808
7	0xbd8b5480	-0.068032265
8	0xbdb178de	-0.08665632
9	0xbd882a3f	-0.06648683
10	0xbe299557	-0.16560875
11	0xbd93d135	-0.072176374
12	0x3cc5fac9	0.024167435
13	0xbc89e450	-0.0168325
14	0xbbd0e171	-0.006374531
15	0xbe5ef6ad	-0.21773787
16	0xbd3d0fe8	-0.046157748
17	0x3d0d80dd	0.03454672
18	0xbdd8a84e	-0.105789766
19	0x3dd48a79	0.10377974
20	0x3d0f3ecb	0.034971993
21	0x3deafb36	0.11473696
22	0xbcb1f5b5	-0.021723608
23	0xbdecb534	-0.11557999
24	0xbd7fc1f2	-0.06244082
25	0x3cc6ccc2	0.024267558
26	0x3d8d7c39	0.06908459
27	0xbc76378f	-0.015027895
28	0xbdd1e783	-0.102492355
29	0x3d8385a6	0.06421976
30	0x3d37c655	0.04486688
31	0x3e2aac24	0.16667229
32	0x3d71e9ed	0.05906098
33	0xbd901893	-0.07035937
34	0x3c40cafa	0.011767143
35	0x3daa5d50	0.08318579
36	0x3df2adbd	0.11849544
37	0x3c61514f	0.013752296
38	0x3d392789	0.04520372
39	0x3c9607e5	0.018314311
40	0x3d081537	0.033223357
41	0xbd5a6248	-0.053316385
42	0xbdbd4c6a	-0.092430905
43	0xbd9d369a	-0.0767643
44	0x3dd15b4e	0.10222493
45	0x3e88ba19	0.2670448
46	0xbc52f8ca	-0.012876699
47	0x3e174f05	0.14776237
48	0xbda6910b	-0.081331335
49	0x3cf43804	0.029811867
50	0xbe131c1e	-0.14366195
51	0xbd0d7f35	-0.034545142
52	0xbdfe68df	-0.12422346
53	0x3dd706a7	0.10499316
54	0xbddd0ddc	-0.10793659
55	0xbdb12e9d	-0.08651469
56	0x3dfd1064	0.12356642
57	0xbdcfcf78	-0.101469934
58	0xbe2b205d	-0.16711564
59	0xbe48056c	-0.19533318
60	0xbba8026a	-0.005127241
61	0x3dd60249	0.104496546
62	0x3de2d7f3	0.11076345
63	0x3acc8c2f	0.0015605743
64	0x3cdb9c31	0.026807876
65	0xbd18d32f	-0.037310775
66	0xbda163fa	-0.07880397
67	0xbe4ff513	-0.20308332
68	0xbd68d628	-0.05684486
69	0x3d2dba5f	0.042414065
70	0x3e223147	0.1583911
71	0x3e0ec4b3	0.13942222
72	0xbbf1d203	-0.0073797717
73	0x3e229dbf	0.15880488
74	0xbc8f002a	-0.017456133
75	0x3e0258a5	0.12729128
76	0xbe126dd1	-0.14299704
77	0x3dacecec	0.08443627
78	0x3dc54b09	0.096334524
79	0x3dc787bc	0.09742686
80	0xbda0cf4a	-0.07852037
81	0x3c483faa	0.01222221
82	0x3db16f65	0.08663825
83	0x3dd92aaf	0.106038444
84	0x3e001fd8	0.12512147
85	0xbdbe450c	-0.092905134
86	0x3b16ff07	0.0023040192
87	0xbdddc7a9	-0.10829098
88	0x3d0a062a	0.033697285
89	0xbdedd6d0	-0.11613238
90	0xbba943be	-0.005165546
91	0xbce26705	-0.027637014
92	0x3d36d200	0.044633865
93	0x3d9975b3	0.074931525
94	0x3d047119	0.03233442
95	0x3df5d29a	0.1200306
96	0xbcc26204	-0.023728378
97	0xbdf511b2	-0.11966266
98	0x3b1e7574	0.0024178894
99	0xbd99e974	-0.07515231
100	0x3cbde9e4	0.023182817
101	0x3e0bfcea	0.13670698
102	0x3cc6a348	0.02424778
103	0x3dc39d08	0.09551436
104	0xbd8a5803	-0.06755068
105	0x3d20ecd2	0.03928835
106	0xbe2eb202	-0.17060092
107	0xbdc0d66f	-0.094159
108	0xbc04701a	-0.008083368
109	0xbd259339	-0.040423606
110	0xbd7f1eb0	-0.062285125
111	0xbdacc0c3	-0.08435204
112	0x3c5b55f6	0.013387194
113	0xbe31ddbd	-0.17369743
114	0x3dc6ada7	0.0970109
115	0xbd984ebe	-0.07436894
116	0x3ca9dfe5	0.020736644
117	0x3d9b8683	0.075940154
118	0xbdd57e9a	-0.10424538
119	0x3d486476	0.048923932
120	0xbb0ae473	-0.0021193295
121	0x3d507156	0.050889336
122	0x3e137eb0	0.14403796
123	0xbe764022	-0.24047902
124	0x3db426b5	0.08796445
125	0xbdd13f29	-0.10217125
126	0xbcf55936	-0.029949766
127	0xbde8a33f	-0.11359262
128	0xbe01ac66	-0.12663421
129	0xbdd7e8f3	-0.105424784
130	0xbcf5f870	-0.03002569
131	0x3e18e1a1	0.1492982
132	0x3dbb6654	0.09150377
133	0xbdbe670a	-0.09296997
134	0x3b7eb861	0.0038867223
135	0x3e063627	0.13106595
136	0x3df95960	0.1217525
137	0x3e7ee715	0.24892838
138	0xbccabdfb	-0.024748793
139	0xbcd5da54	-0.026105084
140	0xbd0256d6	-0.031821094
141	0x3dadeaba	0.08492036
142	0x3d794be5	0.060863394
143	0x3d35f850	0.044426262
144	0x3b2943ae	0.0025827694
145	0xbdb0ce9b	-0.08633157
146	0x3d9f65e3	0.07783105
147	0x3dd78136	0.10522692
148	0x3d92eb51	0.07173789
149	0xbdd5c785	-0.10438446
150	0xbe0050bf	-0.12530802
151	0xbd09b25c	-0.033617362
152	0x3e09b8c9	0.13449396
153	0xbe177503	-0.1479073
154	0xbd04c5d0	-0.03241521
155	0xbd8ba328	-0.06818229
156	0xbd196bf6	-0.037456475
157	0xbdae3eb9	-0.08508057
158	0x3d66acee	0.056317262
159	0xbca80b73	-0.020513272
160	0x3c9c5be4	0.019086786
161	0x3d34e2e5	0.044161696
162	0x3d992b99	0.07479019
163	0x3d6fe92d	0.058571983
164	0xbd81f8a5	-0.06346253
165	0xbc449291	-0.011997835
166	0xbb3f9638	-0.0029233824
167	0xbd980bd5	-0.07424132
168	0xbe0a45dc	-0.13503212
169	0xbe62f783	-0.2216473
170	0xbb0fa1b2	-0.0021916446
171	0x3dac5bd6	0.08415954
172	0xbd31e657	-0.04343256
173	0xbd37f635	-0.044912536
174	0xbd6ab6a9	-0.057303105
175	0xbd7c8bbd	-0.061656702
176	0x3afdd8f2	0.0019367023
177	0xbcc5f0af	-0.024162618
178	0xbdc3671c	-0.09541151
179	0x3dd783bd	0.10523174
180	0xbdfc19a9	-0.12309582
181	0x3d6e2f92	0.058150835
182	0x3e125d4f	0.14293407
183	0xbdffe917	-0.1249563
184	0x3d23cda8	0.03999105
185	0xbe04aaec	-0.12955827
186	0x3d46cdf3	0.048536252
187	0xbdfb134b	-0.12259539
188	0x3cc87897	0.024471564
189	0xbde4ca40	-0.111713886
190	0x3d8310d9	0.06399698
191	0x3cf46a5b	0.02983587
192	0xbdb2d0f4	-0.08731261
193	0x3e238f29	0.1597258
194	0xbd32b939	-0.043633673
195	0x3ac802d4	0.0015259632
196	0x3e0109d3	0.12601404
197	0xbda39cc6	-0.079888865
198	0x3e9628a7	0.2932789
199	0x3e7dd04c	0.2478649
200	0xbdd4d953	-0.10393014
201	0x3e081367	0.13288651
202	0xbc9e2a3e	-0.019307252
203	0x3ce81637	0.028330905
204	0x3de261f7	0.110538416
205	0xbc68967c	-0.0141960345
206	0x3dc28ebe	0.09499882
207	0x3da1183a	0.07865949
208	0xbdd7bf3a	-0.105345204
209	0x3bddb8ed	0.0067664296
210	0x3bce7bbd	0.006301372
211	0xbdadd10b	-0.084871374
212	0x3c9e7ddf	0.01934713
213	0x3de0872f	0.10963284
214	0x3dfc6f48	0.12325913
215	0xbd39b5e8	-0.045339495
216	0xbdfa9bf8	-0.1223678
217	0xbdd7e5cd	-0.10541878
218	0xbdc4e682	-0.096142784
219	0xbded7244	-0.1159406
220	0x3d26be8d	0.040709067
221	0x3d28c638	0.04120466
222	0x3da53d9c	0.08068392
223	0xbe194fb9	-0.14971818
224	0xbc98f304	-0.018670566
225	0xbdc4719a	-0.0959198
226	0x3e1568e8	0.145908
227	0xbde3b87b	-0.11119171
228	0xbc13cd01	-0.009021045
229	0x3be06903	0.006848456
230	0x3d289f0f	0.041167315
231	0x3d3aaefd	0.045577038
232	0x3e0a5056	0.13507208
233	0x3e197088	0.14984334
234	0x3d3ed0b6	0.04658576
235	0xbe043795	-0.12911828
236	0x3d446b7a	0.04795406
237	0xbdd139bf	-0.10216092
238	0x3dde7ad1	0.10863269
239	0xbd9f8048	-0.077881396
240	0xbe392a8e	-0.1808264
241	0x3dbf3d9c	0.09337923
242	0xbe232e32	-0.15935591
243	0xbd87a558	-0.06623334
244	0x3d9a44e2	0.075326696
245	0xbcfe82fc	-0.031068318
246	0x3cabe389	0.02098252
247	0x3d2ec1c1	0.042665247
248	0x3df45744	0.11930707
249	0xbc81e11c	-0.01585441
250	0xbdb85c53	-0.090019844
251	0xbd07df29	-0.033171806
252	0xbd9bc1b0	-0.07605302
253	0x3dff2766	0.124586865
254	0xbc33dc32	-0.010977792
255	0x3d2cb675	0.042166192

actor.0.bias f4 [64]
0	0xbdd2b487	-0.10288339
1	0x3c6eb62a	0.0145697985
2	0xbd0f2da7	-0.034955647
3	0x3d9cc261	0.07654262
4	0x3e213176	0.15741524
5	0xbcd9df4a	-0.02659573
6	0xbcb36d3b	-0.021902671
7	0x3def93ba	0.116980985
8	0xbdc89c65	-0.09795455
9	0x3e3a49a5	0.18192156
10	0xbd816b45	-0.06319288
11	0x3e0d1044	0.13775736
12	0xbe075311	-0.13215281
13	0xbd286668	-0.041113287
14	0xbcb5776d	-0.022151673
15	0xbe1a64ea	-0.15077558
16	0x3bc2fedc	0.0059507918
17	0xbd8433d6	-0.064551994
18	0xbd49b586	-0.04924538
19	0xbcaa1256	-0.020760696
20	0xbc75f12c	-0.015011113
21	0x3da74ccc	0.08168945
22	0xbd4cf978	-0.0500426
23	0x3c18e12f	0.009331032
24	0x3d8bc6d9	0.068250366
25	0x3e071828	0.13192809
26	0xbdeaeb84	-0.11470702
27	0xbd4a35da	-0.049367763
28	0xbb8c8b3c	-0.004289059
29	0x3d7568b7	0.059914317
30	0xbd51c9be	-0.051217787
31	0x3d9df389	0.07712466
32	0xbc16ac3e	-0.009196339
33	0xbd6da194	-0.05801542
34	0x3d2804e4	0.04102029
35	0xbd83e67c	-0.06440446
36	0xbd02f901	-0.03197575
37	0x3e104375	0.14088233
38	0xbdd20474	-0.102547556
39	0xbe3ba3b7	-0.18324171
40	0xbd91852c	-0.07105479
41	0x3dbcc200	0.0921669
42	0xbcfe3f35	-0.031035999
43	0x3cac4a64	0.021031566
44	0x3d872c51	0.066002496
45	0xbd252824	-0.040321484
46	0x3d7d7553	0.061879467
47	0xbd272858	-0.04080996
48	0xbda7337d	-0.081641175
49	0x3da533ac	0.08066496
50	0x3d4d7491	0.050159995
51	0x3daf0072	0.08545007
52	0x3debd91d	0.115160204
53	0x3e21c0f4	0.15796262
54	0x3db492a8	0.08817035
55	0xbbab6c21	-0.005231396
56	0x3cbc2de7	0.022971107
57	0x3b15e917	0.0022874528
58	0x3de0753e	0.10959862
59	0x3d1d0771	0.038337175
60	0xbd5cb37e	-0.053882115
61	0xbd5bd8e7	-0.05367365
62	0xbd9e465d	-0.077282645
63	0xbdac9860	-0.08427501

actor.2.weight f4 [64, 64]
0	0xbd7d1ea3	-0.061796796
1	0x3cb71981	0.022351028
2	0xbdcf2dd8	-0.10116166
3	0x3d8863f8	0.066596925
4	0xbe385863	-0.18002467
5	0xbdc5fffe	-0.09667967
6	0xbb321203	-0.002717138
7	0x3cc67937	0.024227722
8	0xbd4b9380	-0.049701214
9	0xbc44c59e	-0.012010006
10	0x3c82568f	0.015910415
11	0x3dcc7243	0.09982731
12	0xbd7a25eb	-0.061071318
13	0xbe21e710	-0.158108
14	0xbdad4738	-0.084608495
15	0xbd8aef6d	-0.06783948
16	0x3dbf146d	0.09330068
17	0x3dd59eee	0.10430704
18	0x398b5f48	0.00026583136
19	0xbe36fbc0	-0.17869473
20	0xbd1bf005	-0.038070697
21	0x3c2731f2	0.010204779
22	0x3c537913	0.012907284
23	0xbd9ae2fc	-0.07562825
24	0xbe1ddf11	-0.15417124
25	0x3de294a1	0.11063505
26	0x3d4208ed	0.047371794
27	0xbd94a35d	-0.072577216
28	0xbcc34913	-0.023838555
29	0x3e1d2244	0.15345103
30	0x3d71efdc	0.05906664
31	0xbda69707	-0.08134275
32	0xbd44cd99	-0.048047636
33	0x3dee111a	0.116243556
34	0x3d8e4a60	0.0694778
35	0x3e1db36e	0.15400478
36	0x3e196b87	0.14982425
37	0x3d809db7	0.06280082
38	0xbcac4467	-0.02102871
39	0x3e024e4a	0.12725177
40	0xbc148d56	-0.0090669
41	0xbdb58aa5	-0.08864335
42	0x3da67328	0.08127433
43	0xbd580645	-0.052740354
44	0xbe322475	-0.1739672
45	0xbda6b6a9	-0.081403084
46	0xbe15932d	-0.14606924
47	0x3da30f42	0.079618946
48	0x3d8833b8	0.066504896
49	0xbd00d4bc	-0.03145288
50	0x3d78a108	0.060700446
51	0x3d823264	0.063572675
52	0x3d90f1ae	0.07077347
53	0xbd806cf6	-0.06270783
54	0x3dbc7bb9	0.09203286
55	0xbda6fb03	-0.081533454
56	0x3d8a2653	0.06745591
57	0x3d05bd65	0.032651324
58	0xbd22f250	-0.03978187
59	0xbd6bab5a	-0.05753646
60	0x3d52db55	0.051478703
61	0xbd91f286	-0.07126336
62	0x3e48cefb	0.19610207
63	0x3ce2690c	0.02763798
64	0xbdd69fda	-0.10479708
65	0xbc8e5b4b	-0.017377516
66	0x3e104070	0.14087081
67	0x3e534502	0.20631793
68	0xbd9f005e	-0.07763742
69	0xbd54fff8	-0.052001923
70	0xbce0cc41	-0.027441146
71	0x3d362ba1	0.0444752
72	0x3e2c575b	0.16830198
73	0x3d6d2afd	0.057902325
74	0xbd1dcab5	-0.038523395
75	0x3db6779c	0.089095324
76	0x3dcd7f7a	0.1003408
77	0x3e1cb68e	0.15304014
78	0xbcff66b4	-0.031176902
79	0xbd8bfdf6	-0.068355486
80	0x3d42f3ce	0.04759579
81	0x3d4dc839	0.050239775
82	0x3d962d85	0.07332901
83	0x3d386274	0.045015767
84	0xbd67f164	-0.056626692
85	0xbd954a36	-0.07289545
86	0xbd67db93	-0.056605887
87	0x3db26dd8	0.08712357
88	0x3e03f098	0.12884748
89	0xbd98c08e	-0.07458602
90	0xbcc77552	-0.024347935
91	0x3deec3c5	0.11658434
92	0x3dd74084	0.10510352
93	0x3db291e2	0.08719231
94	0x3cd5a264	0.02607841
95	0x3d56fb14	0.05248554
96	0x3cd52632	0.02601919
97	0x3ddc1026	0.107452676
98	0x3dc9f8c3	0.09861901
99	0x3e332629	0.17495026
100	0xbdb90f4f	-0.09036123
101	0xbce6460d	-0.028109575
102	0x3d9880ee	0.074464664
103	0xbd1a67cc	-0.037696645
104	0x3e6a79e9	0.22898068
105	0x3db5e1cb	0.08880957
106	0x3d099b90	0.03359562
107	0x3ccd1182	0.025032762
108	0xbd6aefae	-0.057357483
109	0x3db4b40c	0.08823404
110	0xbda95a63	-0.08269193
111	0xbc815ccc	-0.01579132
112	0xbdcfd44b	-0.101479135
113	0x3e260cc3	0.16215806
114	0x3e10a4f2	0.14125422
115	0xbd8c73c1	-0.06858016
116	0x3d0df978	0.03466174
117	0xbce2258b	-0.027605793
118	0xbd12201b	-0.03567515
119	0x3de008fd	0.109392144
120	0xbcb06e5a	-0.021536995
121	0x3de87118	0.11349696
122	0x3dcd3b86	0.10021119
123	0x3db515b4	0.0884203
124	0xbce9d432	-0.028543565
125	0x3dee672e	0.11640774
126	0xbd968f1d	-0.073515154
127	0x3e1694c3	0.14705186
128	0xbdbdf048	-0.09274346
129	0x3df19dad	0.117976524
130	0xbd1cecdb	-0.03831182
131	0xbcf34ea6	-0.029700588
132	0x3d4f0467	0.050541308
133	0x3d8cb336	0.06870119
134	0x3dec0b5d	0.11525605
135	0xbdd97c81	-0.1061945
136	0x3d0c0d25	0.034192223
137	0xbcd1c646	-0.02560724
138	0xbc0ebc53	-0.008711892
139	0xbcb44455	-0.02200524
140	0x3cefadec	0.029257737
141	0x3d638334	0.055545047
142	0x3da9ad77	0.08285039
143	0xbce09241	-0.02741349
144	0x3d677ac0	0.056513548
145	0xbc8757cf	-0.016521363
146	0x3c94c48e	0.01816013
147	0xbde2c9f3	-0.11073675
148	0x3d798484	0.060917392
149	0xbdd60860	-0.10450816
150	0xbd8fadb5	-0.07015554
151	0x3d205e0a	0.039152183
152	0xbd7d2c6d	-0.061809946
153	0x3d26b673	0.04070134
154	0xbd4c85cf	-0.049932297
155	0xbdd171e5	-0.10226802
156	0x3d68b0d9	0.05680928
157	0xbc8fdb8b	-0.017560741
158	0xbd676a6e	-0.056497984
159	0xbd896afc	-0.06709859
160	0x3cc3231a	0.023820449
161	0xbe5d1df7	-0.21593462
162	0x3dd97b27	0.106191926
163	0xbdb66377	-0.0890569
164	0xbd599330	-0.053118885
165	0x3d4aee03	0.049543392
166	0xbd69aa8e	-0.05704742
167	0x3d3c5533	0.04597969
168	0xbc1950d6	-0.009357652
169	0x3da5666a	0.080761746
170	0xbe0fba3c	-0.14035887
171	0xbd941395	-0.072302975
172	0x3d5f9e37	0.054594245
173	0xbce747e4	-0.028232522
174	0x3ca4e201	0.020127298
175	0x3c8d55fe	0.017252918
176	0xbdef1449	-0.11673791
177	0x3df11ec8	0.11773449
178	0x3d958fdc	0.073028296
179	0x3d0f62ae	0.035006218
180	0x3c59e901	0.013300181
181	0x3a92a14a	0.0011186984
182	0xbdbfa489	-0.093575545
183	0x3d79a4a2	0.06094802
184	0x3dd79a97	0.105275325
185	0x3d63206c	0.05545084
186	0xbd85e66a	-0.065380886
187	0x3d72aa2c	0.05924432
188	0xbd79792a	-0.060906567
189	0x3db6e37e	0.089301094
190	0x3e16d16f	0.1472833
191	0x3c95a8ad	0.018268907
192	0xbb60f8b0	-0.0034327917
193	0x3dea86d8	0.11451501
194	0x3d77a526	0.060460232
195	0xbc62d9dd	-0.013845888
196	0x3e2a49e1	0.16629745
197	0x3e06f724	0.13180214
198	0xbde85b9e	-0.113455996
199	0xbe22e2d8	-0.15906847
200	0x3caf94c5	0.021433244
201	0x3da4f3fa	0.08054347
202	0xbdca020f	-0.09863674
203	0xbe114d13	-0.14189558
204	0xbdd1db5c	-0.102469176
205	0xbc941461	-0.018076124
206	0xbdd36884	-0.10322669
207	0x3d1f72c3	0.038927805
208	0x3d60962b	0.05483071
209	0xbde2cc18	-0.11074084
210	0xbd752c72	-0.05985684
211	0x3b9f935a	0.0048698606
212	0x3d725ddb	0.05917154
213	0x3d9aa6c4	0.07551339
214	0x3dac5983	0.084155105
215	0xbd2e1b17	-0.042506304
216	0x3dfba6f0	0.122877
217	0xbdb334c3	-0.08750298
218	0xbd8d98bc	-0.069138974
219	0x3d858690	0.065198064
220	0xbd496420	-0.049167752
221	0x3c909874	0.01765082
222	0x3da8c3f1	0.08240498
223	0x3d9fc143	0.078005336
224	0xbd9d05b6	-0.07667105
225	0xbd6e8312	-0.058230467
226	0xbd2091f7	-0.039201703
227	0xbe2477e8	-0.16061366
228	0x3d0a4e84	0.033766285
229	0x3d916d02	0.0710087
230	0x3e27e552	0.16396073
231	0x3d841308	0.064489424
232	0xbd83c132	-0.064333335
233	0x3dd221ab	0.10260328
234	0x3dd6b7cf	0.104842775
235	0xbdc454be	-0.09586476
236	0xbd2ae9fc	-0.04172705
237	0x3dfd9c05	0.12383274
238	0xbc92a29e	-0.017899808
239	0xbd29553e	-0.04134106
240	0xbe2a4740	-0.16628742
241	0xbd027dc1	-0.03185821
242	0x3dfe55b9	0.12418694
243	0x3d4d746c	0.050159857
244	0x3db708e7	0.08937245
245	0x3d94aacf	0.07259142
246	0x3d71b974	0.059014753
247	0x3cc0f4f9	0.023554312
248	0x3e3972d8	0.18110216
249	0xbe1b1485	-0.15144546
250	0xbdbe0c67	-0.09279709
251	0xbdd9a9b8	-0.106280744
252	0xbe373c11	-0.17894007
253	0xbd917f92	-0.0710441
254	0x3bc44bee	0.005990497
255	0x3ddce8e1	0.107866056

actor.2.bias f4 [64]
0	0x3db4392f	0.087999694
1	0x3cf3a181	0.029740097
2	0x3d6f84db	0.05847631
3	0xbc0e3e15	-0.008681794
4	0xbde76f95	-0.113005795
5	0xbd873b78	-0.0660314
6	0xbcb38027	-0.021911694
7	0xbcbc5c37	-0.02299319
8	0xbd53299c	-0.051553354
9	0xbd356628	-0.044286877
10	0x3ca09da6	0.019606423
11	0xbd803da6	-0.062617585
12	0x3d966538	0.07343525
13	0x3d12a563	0.035802256
14	0xbd4fc620	-0.050726056
15	0xbd876b96	-0.06612317
16	0xbda74b86	-0.08168702
17	0xbcc2be52	-0.023772392
18	0x3e2b8046	0.16748151
19	0xbe0a89a1	-0.13529064
20	0x3d554922	0.052071698
21	0x3d97ad53	0.07406106
22	0x3db0ede1	0.08639122
23	0x3d91841a	0.071052745
24	0x3dbf484f	0.09339964
25	0x3d991d6a	0.074763134
26	0x3d94bd9e	0.07262729
27	0xbd9f26d8	-0.07771081
28	0xbc804cca	-0.015661616
29	0x3d5b0878	0.053474873
30	0x3d121cfc	0.035672173
31	0x3d2984b8	0.041386336
32	0x3d155f81	0.036468033
33	0x3d43ca65	0.04780044
34	0x3d7056a7	0.058676388
35	0xbdf6c407	-0.12049108
36	0xbd6689df	-0.056283828
37	0x3e06efc5	0.13177402
38	0xbd905a49	-0.070484705
39	0xbdee37be	-0.11631726
40	0x3d40eacd	0.047098923
41	0x3dece3e6	0.11566906
42	0xbd83a078	-0.06427091
43	0xbd6c3654	-0.057669
44	0x3da66a5d	0.08125756
45	0x3de913ef	0.11380755
46	0xbd3c0448	-0.04590252
47	0xbdb8774e	-0.090071306
48	0x3e19495c	0.1496939
49	0xbe068464	-0.1313644
50	0x3e0754b3	0.13215904
51	0xbcc2a79c	-0.023761563
52	0xbc08370c	-0.008313905
53	0x3bc6a1ac	0.0060617533
54	0x3dc63650	0.09678328
55	0xbd43f583	-0.04784156
56	0x3dc6d40b	0.09708413
57	0x3c4339af	0.011915608
58	0x3d7e5c34	0.06209965
59	0xbe0ce793	-0.13760214
60	0x3dc97f1d	0.09838698
61	0x3dc1d79c	0.09464952
62	0x3e157d48	0.14598572
63	0x3db0f431	0.08640326

actor.4.weight f4 [36, 64]
0	0xbdc81da0	-0.097712755
1	0xbcef46ba	-0.02920853
2	0x3d3598c4	0.04433514
3	0xbb2bff2c	-0.0026244624
4	0x3bb36c84	0.0054755826
5	0x3c8373c7	0.016046418
6	0x3bf6d1ae	0.00753232
7	0x3c896541	0.016771914
8	0xbde6873f	-0.11256265
9	0x3e07f4a4	0.13276917
10	0x3d6a3b5e	0.057185523
11	0xbdc077a6	-0.09397821
12	0xbcd6753c	-0.026178949
13	0xbe0b5431	-0.13606335
14	0x39e84984	0.00044305262
15	0xbd309bc4	-0.0431173
16	0x3ca17e73	0.019713616
17	0xbc868bcb	-0.01642408
18	0xbe0c2ef6	-0.13689789
19	0x3d32a07d	0.043610085
20	0xbca51a59	-0.020154165
21	0xbd641626	-0.055685185
22	0x3bd0e0fa	0.0063744755
23	0xbddc7185	-0.1076384
24	0xbe1c97df	-0.15292309
25	0x3dc26b14	0.0949308
26	0x3d81c173	0.06335726
27	0xbcad8274	-0.021180369
28	0xbcd4e707	-0.025989069
29	0xbc15fdb4	-0.009154726
30	0x3d877011	0.06613172
31	0x3d95504d	0.07290707
32	0xbe12e75d	-0.1434607
33	0xbdcf32d2	-0.10117115
34	0x3dc150bf	0.09439229
35	0x3d9e5ffb	0.077331506
36	0x3cb7ab07	0.02242042
37	0x3d3dbacc	0.04632072
38	0x3c95db97	0.018293185
39	0x3cbe8b10	0.02325967
40	0xbe2b2951	-0.1671498
41	0xbe16f072	-0.1474016
42	0x3dc81d63	0.0977123
43	0x3da98919	0.082781024
44	0xbd6665c3	-0.05624939
45	0xbdc8b4b9	-0.09800095
46	0x3cb4dd6d	0.02207824
47	0xbdbc2633	-0.091869734
48	0xbdff03fd	-0.124519326
49	0xbd1dc2e0	-0.038515925
50	0x3ba4e34a	0.005031978
51	0x35f39a84	1.8149881e-06
52	0xbda49426	-0.080360696
53	0x3d757fce	0.059936337
54	0xbda40ff5	-0.08010856
55	0xbbec901f	-0.007219329
56	0xbd845066	-0.06460647
57	0xbdc7ff11	-0.09765447
58	0xbe019744	-0.1265536
59	0xbd6fcbf5	-0.058544118
60	0x3d9dfde7	0.07714444
61	0xbce28f46	-0.027656209
62	0xbd791ab4	-0.06081648
63	0x3dfaa2b1	0.12238062
64	0x3d17bf96	0.037047945
65	0x3d97fb1a	0.07420941
66	0xbda00420	-0.07813287
67	0x3da1d935	0.07902757
68	0xbc3ffe5f	-0.011718362
69	0xbdebd874	-0.115158945
70	0xbda9897f	-0.082781784
71	0x3d3af78d	0.04564624
72	0xbd51cc01	-0.051219944
73	0xbe22e9b4	-0.15909463
74	0xbd86dbb1	-0.065848716
75	0xbdc3127b	-0.09525009
76	0xbde984ff	-0.1140232
77	0xbdec60db	-0.11541911
78	0x3dce1c47	0.10063987
79	0x3c9c7cfe	0.01910257
80	0xbd441136	-0.047867976
81	0xbd1ec9d0	-0.038766682
82	0xbd6f2602	-0.058385856
83	0x3dd8ccda	0.10585947
84	0xbe17f2a2	-0.14838651
85	0x3d4546af	0.048163112
86	0xbd9c1eb2	-0.07623042
87	0xbda28325	-0.0793517
88	0x3ce04c14	0.027380027
89	0xbdb336d7	-0.08750694
90	0x3e1216f1	0.14266564
91	0x3b302394	0.0026876675
92	0xbdcba9be	-0.09944485
93	0xbe2fdf71	-0.1717508
94	0xbc811ac1	-0.015759828
95	0xbcd12bd7	-0.0255336
96	0xbdecc7b4	-0.11561528
97	0xbbc73174	-0.0060788933
98	0xbd6effdc	-0.058349475
99	0xbca8bc12	-0.020597491
100	0x3d34e0c0	0.04415965
101	0xbd9bd43d	-0.076088406
102	0xbb9fa1eb	-0.004871597
103	0x3cc74c50	0.02432838
104	0xbdfbd854	-0.12297121
105	0xbdef583f	-0.116867535
106	0xbd6e1286	-0.058123134
107	0xbddee881	-0.1088419
108	0xbd08b0ce	-0.03337174
109	0x3d89d2ed	0.06729684
110	0xbd286b19	-0.04111776
111	0x3d3921c4	0.045198217
112	0xbd8dc124	-0.06921604
113	0xbd6c997a	-0.057763554
114	0xbd0c7196	-0.03428801
115	0x3d40969e	0.04701864
116	0xbd4ae719	-0.0495368
117	0xbdcb0376	-0.099127695
118	0xbe1e9e74	-0.15490133
119	0xbce52b35	-0.027974704
120	0xbc539a1f	-0.012915163
121	0xbdf768b8	-0.120805204
122	0xbe793fdb	-0.24340765
123	0xbdbddbd8	-0.092704475
124	0x3d36271f	0.044470903
125	0xbd235841	-0.039879087
126	0xbc85f05a	-0.01634996
127	0xbdf4fe59	-0.119625755
128	0xbe2c9f49	-0.16857637
129	0xbe5293a6	-0.20564136
130	0x3c878bee	0.016546216
131	0xbe50ea02	-0.20401767
132	0xbd42bf14	-0.047545508
133	0x3d80b3ef	0.062843196
134	0xbdf26bcd	-0.118369676
135	0xbda11c7a	-0.078667596
136	0xbc636af6	-0.013880482
137	0xbd904b48	-0.07045609
138	0x3bb53a3b	0.0055306233
139	0x3ce10fac	0.027473293
140	0xbd6c220a	-0.05764965
141	0xbdfe8bfe	-0.12429045
142	0xbe288fdd	-0.1646113
143	0xbc3adeae	-0.01140563
144	0x3cc3c67d	0.023898358
145	0xbc9dd881	-0.019268276
146	0xbd219137	-0.03944513
147	0xbcb8c900	-0.022556782
148	0xbd331ddd	-0.04372965
149	0xbe4d7105	-0.20062645
150	0xbdd88184	-0.10571578
151	0x3bfc1580	0.0076929927
152	0xbdf7600c	-0.12078866
153	0xbe250121	-0.16113712
154	0xbdadc763	-0.084852956
155	0xbc84fcba	-0.01623379
156	0x3cc6e9bd	0.024281377
157	0xbda9bbce	-0.08287774
158	0xbb897c6e	-0.0041957414
159	0x3d158124	0.03650011
160	0xbe1d87f5	-0.15383895
161	0x3c287d3a	0.010283763
162	0xbd9c1ed6	-0.07623069
163	0xbca75cc4	-0.020429976
164	0xbd529de8	-0.051420122
165	0xbe302dd8	-0.17204988
166	0xbdc4b9b8	-0.096057355
167	0xbd8f2722	-0.06989886
168	0xbcd3e9a3	-0.025868243
169	0xbc0b89dd	-0.008516756
170	0xbe3b4889	-0.18289389
171	0xbcaae9a8	-0.02086337
172	0x3876a26c	5.8802238e-05
173	0x3bd4d06b	0.006494572
174	0x3e9e3692	0.3090101
175	0xbd8bf681	-0.06834126
176	0xbe5bb27a	-0.21454802
177	0x3c90dc42	0.017683152
178	0x3e064d5a	0.13115445
179	0xbe0b858a	-0.1362516
180	0xbbba99df	-0.0056946124
181	0xbe01f67b	-0.12691681
182	0xbe020f3c	-0.12701124
183	0x3d9f9234	0.07791558
184	0xbd9125a9	-0.07087261
185	0xbce39f72	-0.02778599
186	0x3e0e3e70	0.13891006
187	0xbd9c43d0	-0.07630122
188	0xbd553fa9	-0.052062664
189	0xbe46f9d7	-0.19431244
190	0xbcf7676c	-0.030200683
191	0xbe23dc89	-0.16002096
192	0xbc6ead2b	-0.014567654
193	0x3df7b4be	0.12095021
194	0x3df984bd	0.12183521
195	0x3e0c1c0d	0.13682576
196	0xb9af23b2	-0.00033405196
197	0xbd88f299	-0.06686897
198	0x3e5e3d86	0.21703157
199	0x3e2fe689	0.17177786
200	0x3a93c788	0.0011274675
201	0x3e52b9c8	0.20578682
202	0x3cddd3d6	0.02707855
203	0x3dcde082	0.10052587
204	0x3d8ee42a	0.069771126
205	0x3dd2e1cb	0.10296973
206	0xbc535e81	-0.012900949
207	0x3e19590c	0.14975375
208	0xbd6bc551	-0.057561222
209	0x3db7e845	0.08979849
210	0x3e4fc7f4	0.2029112
211	0x3d8eb94a	0.06968935
212	0x3dafe065	0.08587722
213	0x3d851a31	0.06499136
214	0x3e56da9e	0.20981833
215	0x3e58c071	0.2116716
216	0x3e48a601	0.19594575
217	0x3e478bd4	0.19486934
218	0x3e93fe4c	0.2890495
219	0xbe2bfbb6	-0.16795239
220	0x3e19e8cb	0.1503021
221	0x3e3091c1	0.172431
222	0x3d5e2cff	0.05424213
223	0xbd9e9b51	-0.07744468
224	0x3d5a24c0	0.053257704
225	0xbd09dc25	-0.03365721
226	0x3e46b124	0.19403511
227	0xbda3bbba	-0.079947904
228	0x3d753be0	0.059871554
229	0x3e599bf9	0.21250905
230	0x3e30aa2e	0.17252418
231	0x3dc5e6d8	0.096631706
232	0x3e5c5291	0.21515872
233	0x3de66cb3	0.112512015
234	0xbdafe8b6	-0.08589308
235	0x3e338403	0.17530827
236	0x3e4e072c	0.20119923
237	0x3e33043c	0.17482084
238	0x3c971213	0.018441236
239	0x3d9c275a	0.07624693
240	0x3e36ea28	0.17862761
241	0xbced53f3	-0.028970694
242	0x3e3c4cc9	0.18388666
243	0x3d8fe7c2	0.07026626
244	0xbd85be81	-0.06530476
245	0x3e70b161	0.23505165
246	0x3e12d8b2	0.14340475
247	0x3ab497e6	0.001377818
248	0x3d4678b2	0.048454948
249	0xbd57d6da	-0.052695133
250	0x3d993c61	0.074822195
251	0xbd851d33	-0.0649971
252	0x3d7ecccd	0.062207032
253	0xbca20208	-0.01977636
254	0x3dfebadb	0.124379836
255	0x3d8003b5	0.06250707

actor.4.bias f4 [36]
0	0xbdb68c42	-0.08913471
1	0xbd4f4ff7	-0.05061337
2	0xbd8bfabd	-0.06834934
3	0x3ded16b3	0.11576595
4	0xbcc61843	-0.02418149
5	0x3dbbb67d	0.09165666
6	0xbe02abb9	-0.1276082
7	0x3dd2e6c5	0.10297922
8	0xbdfbe52a	-0.12299569
9	0x3e1f6ab0	0.15568042
10	0x3bc0dd13	0.005885729
11	0xbd663d16	-0.0562106
12	0x3d49b429	0.04924408
13	0xbdde1014	-0.108429104
14	0x3d78266e	0.060583524
15	0x3b97d990	0.00463409
16	0xbda0169a	-0.07816811
17	0x3ca0340f	0.019556073
18	0xbdfc92b5	-0.1233267
19	0xbdafbf35	-0.08581392
20	0x3a7e1872	0.00096929737
21	0xbc9826a1	-0.018573107
22	0xbd3dfd18	-0.046383947
23	0x3cf0b626	0.02938373
24	0x3d7cc1cb	0.061708253
25	0x3d8cb800	0.06871033
26	0x3cc8169a	0.02442484
27	0x3d80a93a	0.062822774
28	0x3d6fa546	0.058507226
29	0x3a065faa	0.00051259494
30	0x3d3056ca	0.04305152
31	0x3dcd6525	0.100290574
32	0xbd9965df	-0.074901335
33	0xbe043004	-0.12908942
34	0x3d5b0d07	0.05347922
35	0xbcf91438	-0.030405149

critic.0.weight f4 [64, 62]
0	0xbddf967d	-0.10917375
1	0x3dbc44f8	0.09192842
2	0x3d6bb68e	0.057547145
3	0x3df808cd	0.121110536
4	0x3c94fe3b	0.018187633
5	0xbe34004d	-0.1757824
6	0xbd033640	-0.03203416
7	0x3e415569	0.18880238
8	0x3ddf177b	0.108931504
9	0xbb092b88	-0.0020930488
10	0x3ce6ca5a	0.02817266
11	0x3dfc1fa0	0.123107195
12	0xbc803281	-0.015649082
13	0xbe4c3a0e	-0.19944021
14	0xbd3162c4	-0.04330708
15	0xbc816e72	-0.015799735
16	0xbde2fe07	-0.11083608
17	0xbd167cce	-0.036740117
18	0x3b336e2b	0.0027378898
19	0xbdb2756a	-0.08713801
20	0x3bedfbfe	0.007262706
21	0xbd6f59d0	-0.05843526
22	0x3ca3ab2f	0.019979088
23	0xbdb1647f	-0.08661746
24	0xbdfe6d92	-0.12423243
25	0x3df5bb7f	0.11998653
26	0x3d483ab2	0.0488841
27	0x3dab3da8	0.08361369
28	0xbeac6c05	-0.33676162
29	0xbe17671f	-0.14785431
30	0xbc876096	-0.016525548
31	0x3d81578c	0.06315526
32	0xbdc22f10	-0.09481633
33	0xbdca9812	-0.09892286
34	0xbd071cfa	-0.03298662
35	0x3d71dea0	0.059050202
36	0xbda50593	-0.08057704
37	0xbe0a02d3	-0.1347764
38	0xbb9be347	-0.004757318
39	0x3e02b769	0.12765278
40	0xbdd051b5	-0.101718344
41	0x3d80e3a6	0.062934205
42	0x3c665671	0.014058695
43	0xbdfc82d6	-0.123296425
44	0x3cb60b59	0.022222208
45	0x3d755231	0.059892837
46	0xbc554d00	-0.0130188465
47	0x3e06f9bb	0.13181202
48	0xbdd76975	-0.10518161
49	0x3d8603d3	0.06543698
50	0xbdd3c4ba	-0.10340257
51	0x3cfaaf8d	0.030601287
52	0x3dc012a3	0.09378555
53	0x3d88cd81	0.06679822
54	0x3e143108	0.14471829
55	0x3e36984d	0.17831536
56	0xbd591004	-0.05299379
57	0x3b0ba2fb	0.002130686
58	0xbd443907	-0.047905948
59	0xbc2e7ecd	-0.010650349
60	0x3dd457ec	0.10368332
61	0x3da2e68a	0.07954128
62	0xbd8d1939	-0.068895765
63	0xbdcad568	-0.09903985
64	0xbde4ab14	-0.11165443
65	0xbd1b8476	-0.03796812
66	0xbe317401	-0.17329408
67	0xbe2c2e89	-0.16814627
68	0x3ddabe43	0.10680821
69	0xbe02f967	-0.12790452
70	0xbe672ef4	-0.22576505
71	0xbe51c828	-0.2048651
72	0xbd82e7b2	-0.063918486
73	0x3d33f95a	0.043938972
74	0xbe55602b	-0.20837466
75	0xbd90555d	-0.07047532
76	0xbc9d3de8	-0.019194558
77	0x3d2248b5	0.03962012
78	0x3da665ec	0.08124909
79	0xbdc6db20	-0.097097635
80	0xbdc5610e	-0.09637652
81	0x3d9ab7e9	0.07554609
82	0xbd4d02c9	-0.050051484
83	0x3dc24713	0.094862126
84	0xbda3c22b	-0.07996019
85	0x3dfbf640	0.12302828
86	0xbcaddfbc	-0.021224849
87	0xbd4a587a	-0.049400784
88	0xbdb41496	-0.08792989
89	0x3ddc2d5d	0.1075084
90	0xbd529dee	-0.051420145
91	0xbe124037	-0.14282309
92	0x3e623caa	0.22093454
93	0x3e595cce	0.21226808
94	0x3dc0a21e	0.094059214
95	0x3d980230	0.07422292
96	0x3d1cdb7d	0.038295258
97	0x3cb24525	0.021761486
98	0xbc6f89b9	-0.014620238
99	0x3dd56aaf	0.10420739
100	0xbe2dcac1	-0.16971876
101	0x3c999dd6	0.01875202
102	0xbe7b0fc8	-0.24517739
103	0x3c4fb8cb	0.012678335
104	0x3e0804f5	0.13283141
105	0xbdc2da1d	-0.09514258
106	0xbe0d5b34	-0.13804322
107	0xbd97b30c	-0.07407197
108	0xbc894d4c	-0.01676049
109	0xbccbfed6	-0.024901789
110	0xbe132a50	-0.1437161
111	0xbd05e882	-0.03269244
112	0xbd806f6e	-0.062712535
113	0xbbcf48e0	-0.006325826
114	0xbd149dd7	-0.03628334
115	0xbcac1dde	-0.021010336
116	0xbc801b70	-0.015638083
117	0x3dff5456	0.12467258
118	0x3cd0ea9e	0.0255025
119	0x3da76ba5	0.081748284
120	0xbd60c81c	-0.05487834
121	0xbd9ee051	-0.07757629
122	0x3db8afe0	0.090179205
123	0x3cabe10a	0.02098133
124	0xbcdd7924	-0.027035303
125	0x3d6f1517	0.058369722
126	0xbb227ea3	-0.002479472
127	0x3d563fc4	0.052306905
128	0xbd064ada	-0.032786228
129	0xbde8c894	-0.11366382
130	0x3e09ba5f	0.13450001
131	0x3d284f85	0.04109146
132	0xbe1eaa37	-0.1549462
133	0xbde8078d	-0.11329565
134	0x3d1dbb72	0.03850884
135	0xbc9d49e8	-0.01920028
136	0xbe7c38c6	-0.24631032
137	0xbe11d6b3	-0.14242058
138	0x3d2199ab	0.03945319
139	0x3cec4386	0.028840791
140	0xbd82bc5c	-0.06383583
141	0x3de42a6a	0.11140902
142	0x3d65788b	0.05602316
143	0x3e009dcb	0.12560193
144	0x3daeda97	0.085377865
145	0x3de06796	0.109572574
146	0xbd888128	-0.066652596
147	0xbd93bf64	-0.07214239
148	0x3d78bea0	0.06072867
149	0x3de8c714	0.11366096
150	0xbcc2df7d	-0.023788208
151	0x3d888685	0.066662826
152	0xbe5e9ad4	-0.2173875
153	0xbe1329b9	-0.14371385
154	0x3bbd1cf9	0.005771276
155	0x3d8d0633	0.06885948
156	0xbd5ec0f2	-0.054383226
157	0x3da5edc1	0.081019886
158	0x3c1a8eb3	0.009433436
159	0x3db9a815	0.09065262
160	0xbd817e27	-0.0632289
161	0xbe007625	-0.12545069
162	0xbe07e823	-0.13272147
163	0xbdf8028f	-0.12109863
164	0x3db86cbd	0.09005115
165	0x3d8eecd6	0.069787666
166	0xbe3363fc	-0.1751861
167	0x3b7e02a5	0.00387589
168	0xbde3ae08	-0.11117178
169	0x3db718bd	0.08940265
170	0x3c48d1b6	0.01225703
171	0xbda282d4	-0.0793511
172	0xbd923944	-0.07139829
173	0xbd3bd898	-0.045860857
174	0x3e477ae8	0.19480479
175	0xbb56f100	-0.0032797456
176	0x3cc49373	0.02399609
177	0xbdcaa429	-0.09894592
178	0x3d7d42b7	0.061831202
179	0xbcde53fe	-0.02713966
180	0x3e1e1582	0.15437892
181	0xbd100b37	-0.035166945
182	0xbdd2eedf	-0.10299467
183	0x3da8f4f4	0.08249846
184	0xbc081f77	-0.008308283
185	0xbd4094d4	-0.047016934
186	0x3d82d189	0.06387622
187	0x3cf30b85	0.029668579
188	0xbd7d2ac8	-0.061808378
189	0x3d8ceaca	0.0688072
190	0x3c569b40	0.013098538
191	0x3e608bca	0.21928325
192	0x3d9f404f	0.07775938
193	0xbc7044a6	-0.014664805
194	0x3dc5eaa5	0.096638955
195	0xbd10bd5b	-0.035336833
196	0xbdbbd763	-0.09171941
197	0xbd8dfbf7	-0.06932824
198	0xbc882c8f	-0.01662281
199	0x3e4997fa	0.1968688
200	0xbd56fc1f	-0.052486535
201	0xbd5e9058	-0.054336876
202	0x3e01ab88	0.1266309
203	0x3df936e3	0.12168672
204	0xbde4402d	-0.11145053
205	0x3dc0233c	0.093817204
206	0xbde89bf2	-0.11357869
207	0x3c8fac38	0.017538175
208	0x3ce4f09f	0.027946768
209	0xbd830d36	-0.06399004
210	0x3d90a00d	0.07061777
211	0xbc770c69	-0.015078642
212	0xbd56bafd	-0.05242442
213	0xbd1d4cee	-0.038403444
214	0x3dc306b5	0.09522764
215	0xbe2c5ba2	-0.1683183
216	0x3cbdee40	0.023184896
217	0xbdf27836	-0.11839335
218	0x3dfb6dae	0.12276779
219	0x3cad64e5	0.021166274
220	0xbd6cfc80	-0.05785799
221	0xbd29594d	-0.04134493
222	0x3d7c57bd	0.06160711
223	0x3e3f5e9b	0.18688433
224	0xbdeb3f33	-0.11486664
225	0xbdbcd747	-0.092207484
226	0xbd7b01d8	-0.061281055
227	0xbdcba862	-0.09944226
228	0xbde02c2c	-0.10945925
229	0x3d56e027	0.052459862
230	0x3c91fa56	0.017819565
231	0xbd1d10f8	-0.03834626
232	0x3d53ef5f	0.051741954
233	0xbba40c28	-0.005006332
234	0x3e2d13de	0.1690211
235	0x3daa67bb	0.08320566
236	0xbde14610	-0.109996915
237	0xbd4ed183	-0.050492775
238	0xbd09dd93	-0.033658575
239	0xbd90c8d2	-0.070695534
240	0xbe145b30	-0.1448791
241	0xbdf75c12	-0.12078108
242	0x3cc03ec9	0.023467438
243	0x3cd18afb	0.025578966
244	0x3d8c3b76	0.06847279
245	0xbce4a10a	-0.02790882
246	0xbcdd95be	-0.027048942
247	0x3b162976	0.0022912896
248	0xbd5e60d6	-0.05429157
249	0x3dabb81c	0.083847255
250	0xbd80c4ec	-0.0628756
251	0xbdd14eb6	-0.10220091
252	0x3c921766	0.017833423
253	0x3e322f11	0.17400767
254	0x3cf177d9	0.029476093
255	0xbd9b3887	-0.07579141

critic.0.bias f4 [64]
0	0x3d5eb64e	0.054373078
1	0x3d9d0e2b	0.07668718
2	0xbd90c22f	-0.070682876
3	0x3d11601f	0.03549206
4	0xbda18e70	-0.07888496
5	0x3cc73b9e	0.02432042
6	0x3e179798	0.14803922
7	0xbdd8a508	-0.10578352
8	0x3d752ad1	0.059855286
9	0xbd8c9337	-0.068640165
10	0x3d917daf	0.0710405
11	0x3db51587	0.08841997
12	0xbcb83bcc	-0.02248945
13	0x3d6a690e	0.057229094
14	0xbe11e83d	-0.14248748
15	0xbd02986e	-0.03188365
16	0x3aa2a226	0.0012407943
17	0x3dd130f8	0.10214418
18	0x3c1e2932	0.009653376
19	0x3e1f984e	0.15585443
20	0x3dbdd2df	0.09268736
21	0xbe0a6d6a	-0.135183
22	0xbaf3ab6f	-0.001859052
23	0xbd31bdc4	-0.043393865
24	0xbdafbb0c	-0.08580598
25	0xbb24db2b	-0.0025155048
26	0xbdc6f4aa	-0.09714635
27	0xbba96943	-0.005170019
28	0xb9e9bf67	-0.0004458383
29	0x3b3b2e54	0.002856155
30	0x3deec2e8	0.11658269
31	0xbd1ca50a	-0.03824333
32	0x3e14e499	0.14540328
33	0xbbf84c15	-0.007577429
34	0xbdf26b1c	-0.11836836
35	0x3dd7e5ad	0.10541854
36	0xbb1279e5	-0.0022350487
37	0x3aa5a649	0.0012638058
38	0x3e92e907	0.2869341
39	0x3d2e00e8	0.042481333
40	0xbe0c5a2f	-0.13706277
41	0x3dc7387a	0.09727569
42	0x3cbd7a9c	0.023129754
43	0x3cc224dc	0.023699217
44	0x3de21ce2	0.11040665
45	0x3ce64d8c	0.02811315
46	0x3d718d25	0.058972497
47	0xbcd731bb	-0.02626883
48	0xbd4af03d	-0.049545515
49	0xbdbc5887	-0.09196573
50	0xbcd2940d	-0.025705362
51	0xbda352ba	-0.07974763
52	0xbcb792c3	-0.022408849
53	0xbd5ce625	-0.05393042
54	0x3e531a46	0.20615491
55	0x3defa1b2	0.11700763
56	0xbe075b2e	-0.13218376
57	0xbcc72172	-0.02430794
58	0xbcb3d3aa	-0.021951515
59	0x3c6bbbf3	0.014388072
60	0x3d81974b	0.06327685
61	0x3de5ea89	0.11226375
62	0x3d7ab335	0.06120606
63	0xbc645eda	-0.01393863

critic.2.weight f4 [64, 64]
0	0xbd769d16	-0.060208403
1	0x3db1cbbc	0.086814374
2	0xbd92d393	-0.07169261
3	0x3ce360e0	0.027756155
4	0xbdae6b39	-0.08516545
5	0xbbe41295	-0.006960223
6	0xbccb1c0c	-0.024793647
7	0x3dbf2f29	0.09335167
8	0x3daddf17	0.08489817
9	0x3dced90c	0.10099992
10	0xbd631df7	-0.0554485
11	0x3d2c7c9b	0.04211102
12	0x3d143763	0.036185633
13	0x3ddf309e	0.10897945
14	0x3cfe9d95	0.031081
15	0xbd364d64	-0.0445074
16	0x3d7b1776	0.06130167
17	0xbdd318b6	-0.103074476
18	0xbdbba142	-0.09161617
19	0xbe12ef7f	-0.14349173
20	0xbd17fb3a	-0.037104823
21	0x3d54e600	0.051977158
22	0x3d93a832	0.07209815
23	0xbd5aad6d	-0.053388048
24	0xbdec00b5	-0.11523572
25	0xbd9f0944	-0.07765439
26	0xbd91230a	-0.07086761
27	0xbdc6d910	-0.0970937
28	0x3de5cc40	0.11220598
29	0x3c9b1ea1	0.018935503
30	0x3da5fe0c	0.08105096
31	0x3d164650	0.03668815
32	0x3da3abdd	0.07991765
33	0x3d236070	0.03988689
34	0xbdcef4f0	-0.10105312
35	0x3d92927f	0.07156848
36	0xbd27cf4e	-0.040969186
37	0x3e1a0043	0.15039162
38	0x3cc07c00	0.023496628
39	0xbe01ced8	-0.12676561
40	0x3d16cae0	0.03681457
41	0x3c279aee	0.010229809
42	0x3da714fc	0.08158299
43	0x3ddcd0b3	0.10781994
44	0xbd5fc618	-0.054632276
45	0xbc824da7	-0.015906168
46	0x3dc19aac	0.094533294
47	0xbbb38b61	-0.0054792617
48	0xbd208bfa	-0.039195992
49	0xbce7ca1a	-0.028294612
50	0xbdc18d46	-0.09450774
51	0xbdb8404f	-0.08996641
52	0xbe07197a	-0.13193312
53	0x3d9b36d7	0.07578819
54	0x3d482db1	0.0488717
55	0xbd87a34b	-0.066229425
56	0xbb89560b	-0.0041911653
57	0xbde9a704	-0.11408809
58	0xbc6026e4	-0.013681147
59	0x3d3171c4	0.043321386
60	0x3d9ce680	0.07661152
61	0xbdce7185	-0.10080246
62	0xbd44679c	-0.047950372
63	0x3d8cbfa0	0.06872487
64	0xbe40d32f	-0.1883056
65	0x3dfeb013	0.12435927
66	0xbb2cc01f	-0.002635963
67	0xbd9a6dee	-0.07540499
68	0xbd4a18d5	-0.049340088
69	0x3cbd4e7e	0.023108717
70	0x3da30c69	0.079613514
71	0x3da24d5e	0.07924913
72	0xbde1747c	-0.11008546
73	0x3b9d5921	0.0048018848
74	0xbe2df07b	-0.16986267
75	0xbd50f7e0	-0.051017642
76	0x3d6ddf07	0.058074024
77	0xbd6022c9	-0.054720674
78	0xbd5b0e4c	-0.05348043
79	0xbe0a2acb	-0.13492887
80	0xbbd5ea38	-0.006528165
81	0x3d978615	0.07398621
82	0xbda4cac9	-0.08046491
83	0x3df890f9	0.12137026
84	0xbdce53c7	-0.10074573
85	0xbd3af1b0	-0.045640647
86	0xbcdfaa8f	-0.027303008
87	0xbd32a8f6	-0.043618165
88	0xbe28baab	-0.16477458
89	0x3ddcf0ab	0.10788091
90	0x3cfa68c1	0.030567529
91	0xbca9c714	-0.02072481
92	0x3db99b5e	0.09062837
93	0x3e22de53	0.15905122
94	0x3dde711c	0.10861418
95	0xbde0ea98	-0.10982245
96	0xbd69a56d	-0.057042528
97	0x3d0736bf	0.033011194
98	0xbd83cc9f	-0.06435513
99	0x3e1513a2	0.1455827
100	0xbd141748	-0.036155015
101	0x3e0154d8	0.12630022
102	0x3e989123	0.2979823
103	0xbd17b45f	-0.03703725
104	0x3e354ee5	0.17705877
105	0x3dc9ae59	0.09847707
106	0x3a6ba232	0.00089887076
107	0x3b845f03	0.0040396466
108	0xbd51b057	-0.05119356
109	0x3da54b25	0.08070973
110	0xbdcbb2df	-0.09946226
111	0x3e095139	0.1340989
112	0xbcb90319	-0.022584485
113	0xbe62ca9d	-0.22147603
114	0xbda8145b	-0.082070075
115	0xbd9e8daa	-0.07741864
116	0xbccffa5c	-0.025387935
117	0xbe203631	-0.15645672
118	0x3e82c849	0.2554343
119	0xbe6d4ed4	-0.23174602
120	0xbdae3920	-0.085069895
121	0x3d4b6d91	0.049665038
122	0x3dbe16ad	0.09281669
123	0xbd2cdd8b	-0.042203467
124	0x3cc3bd81	0.023894073
125	0xbca13a6c	-0.019681178
126	0x3d020475	0.03174253
127	0x3c00ea91	0.007868425
128	0x3d621783	0.055198204
129	0xbd2741b4	-0.040834144
130	0xbcd46bd5	-0.025930325
131	0xbd7460e3	-0.05966271
132	0xbe62037b	-0.2207164
133	0x3a7e4c90	0.000970074
134	0x3e4ff345	0.20307644
135	0xbd3ce9d2	-0.046121426
136	0xbba82fb3	-0.0051326393
137	0xbd3e2679	-0.04642341
138	0x3ccd6b47	0.025075568
139	0xbe4f3b78	-0.2023753
140	0xbd49ef05	-0.049300212
141	0x3e0b88ea	0.13626447
142	0xbb4737b6	-0.0030398197
143	0x3cfb225f	0.030656038
144	0xbd9d36db	-0.076764785
145	0x3d5e2c86	0.05424168
146	0xbe0a3703	-0.13497548
147	0xbe014e18	-0.12627447
148	0xbdb5d162	-0.08877827
149	0x3c6352f1	0.013874755
150	0xbd7095cc	-0.058736607
151	0x3d80cecd	0.06289444
152	0xbe006e90	-0.12542176
153	0x3d3a6168	0.04550305
154	0xbe0da671	-0.13833024
155	0xbdd5c04e	-0.1043707
156	0xbcaa1eab	-0.020766577
157	0x3e040b06	0.1289483
158	0xbe0830e4	-0.132999
159	0xbb01a840	-0.0019784123
160	0x3d421ee3	0.047392737
161	0xbddf938f	-0.109168164
162	0xbe221477	-0.15828119
163	0xbd9c6732	-0.076368704
164	0x3d80dd93	0.06292262
165	0xbda83417	-0.0821306
166	0xbcdf3e38	-0.027251348
167	0xbe3d1e57	-0.18468605
168	0x3dda83c6	0.10669665
169	0xbe7037a6	-0.23458728
170	0xbe02a135	-0.12756808
171	0x3ccbbf6d	0.024871552
172	0xbe5feabc	-0.21866888
173	0xbdaf8ebb	-0.085721456
174	0x3dbe1782	0.092818275
175	0xbd84e52a	-0.06489022
176	0xbdb19046	-0.08670096
177	0x3d025e05	0.031827945
178	0xbe04d960	-0.12973547
179	0xbe1d2f14	-0.1534999
180	0xbd7554dd	-0.059895385
181	0xbdcba5a3	-0.09943702
182	0xbd8f5505	-0.06998638
183	0x3c9dcded	0.019263232
184	0xbe1ac144	-0.15112787
185	0xbc2ed9e1	-0.010672064
186	0xbd0e1d92	-0.03469617
187	0x3e02ade5	0.12761648
188	0xbe8acabf	-0.27107808
189	0xbe27c63a	-0.16384211
190	0x3d4c37f3	0.049858045
191	0x3cc64d31	0.02420673
192	0xbdf54d37	-0.11977618
193	0xbdb91959	-0.09038038
194	0x3dd43e4b	0.10363444
195	0x3dde2124	0.10846165
196	0xbd639b17	-0.055567827
197	0x3ca8e1df	0.020615516
198	0x3d64cd1b	0.055859666
199	0xbd81bfa3	-0.0633538
200	0x3c9f7a11	0.019467385
201	0xbdb0cd36	-0.08632891
202	0xbcaafb8c	-0.0208719
203	0xbcaaa540	-0.02083075
204	0x3d25f228	0.04051414
205	0x3cba2c35	0.022726158
206	0xbc847279	-0.016167866
207	0xbde36047	-0.11102348
208	0xbb911aa3	-0.004428224
209	0xbd7513a1	-0.059833173
210	0x3cd05995	0.025433341
211	0xbe0b1c80	-0.1358509
212	0xbe28e37b	-0.16493027
213	0x3dcb1dc3	0.09917786
214	0x3d892552	0.066965714
215	0x3d63740b	0.05553059
216	0x3d84c460	0.06482768
217	0x3d001914	0.031273916
218	0xbb4732ca	-0.0030395263
219	0x3d99b617	0.07505434
220	0x3d88ef10	0.066862226
221	0x3d13290e	0.035927825
222	0xbd876d8b	-0.066126905
223	0x3cbace89	0.022803562
224	0xbb4614be	-0.0030224766
225	0x3cc5f01b	0.024162343
226	0xbb2bd0e2	-0.0026217033
227	0x3cf9ab3c	0.030477159
228	0xbd60ab34	-0.054850772
229	0x3d1ceb78	0.038310498
230	0xbd9921f9	-0.07477183
231	0xbd57d2f9	-0.052691434
232	0xbda61786	-0.081099555
233	0x3d88f4d5	0.06687323
234	0xbe15b5cc	-0.14620131
235	0x3d095bf0	0.033534944
236	0x3beefeba	0.0072935494
237	0xbcb1dde8	-0.021712258
238	0xbb4797df	-0.0030455512
239	0xbbb50159	-0.0055238423
240	0x3cca4f97	0.024696155
241	0xbdab555b	-0.0836589
242	0x3d33c172	0.043885656
243	0x3d3d2284	0.046175495
244	0xbdfb6b83	-0.122763656
245	0xbdf164d0	-0.117868066
246	0xbd9ef7ba	-0.07762094
247	0xbbd61f01	-0.0065344577
248	0xbc37fb6a	-0.011229375
249	0xbce05678	-0.027384982
250	0xbdfd520b	-0.12369164
251	0x3da5348d	0.08066664
252	0x3db2dd7e	0.087336525
253	0x3ccb8cce	0.024847414
254	0xbd85f8c8	-0.06541592
255	0x3d6c7104	0.057724968

critic.2.bias f4 [64]
0	0x3cc07fed	0.0234985
1	0x3d9dee56	0.077114746
2	0xbc5f6ea3	-0.013637218
3	0xbda6d23c	-0.08145568
4	0xbdcd3b82	-0.10021116
5	0x3d22219e	0.03958284
6	0x3dc27642	0.09495212
7	0x3d153a3e	0.036432497
8	0x3d81d6f5	0.06339828
9	0x3da08c86	0.07839303
10	0xbd9565a6	-0.072947785
11	0x3db2a14a	0.0872217
12	0x3ddef79c	0.108870715
13	0xbde7545a	-0.11295386
14	0x3d9d2161	0.07672382
15	0xbdb01fac	-0.08599791
16	0xbd006339	-0.031344626
17	0x3d3ef4d6	0.046620212
18	0x3d8923ce	0.06696282
19	0x3dab1bee	0.083549365
20	0xbcb344dc	-0.02188342
21	0x3d35912f	0.04432791
22	0xbe1788cb	-0.14798276
23	0x3d87b344	0.06625989
24	0xbdcb42f8	-0.09924883
25	0xbd431360	-0.0476259
26	0x3cc6b724	0.02425725
27	0xbdd85ace	-0.105641946
28	0x3b33ad34	0.002741647
29	0x3d248fad	0.040176082
30	0xbd0c9b72	-0.03432793
31	0x3d8040a6	0.06262331
32	0x3d951875	0.072800554
33	0x3d94d908	0.07267958
34	0xbda2a676	-0.07941906
35	0x3d8a5b30	0.06755674
36	0xbe14943b	-0.1450967
37	0xbd3b1e00	-0.045682907
38	0xbd7793cd	-0.06044369
39	0x3cd4b795	0.025966445
40	0x3ccf9bc3	0.025342828
41	0x3d99a4e4	0.075021535
42	0x3dbf19e8	0.09331113
43	0x3da05e77	0.07830518
44	0xbdb90f85	-0.09036163
45	0xbdaa35e3	-0.08311059
46	0x3db1b39d	0.08676837
47	0x3c6f6b8a	0.014613042
48	0xbd71e2d3	-0.059054207
49	0x3d8a4388	0.06751162
50	0x3e0e5c05	0.1390229
51	0xbd7bd761	-0.0614847
52	0xbd8038c5	-0.06260828
53	0x3c2c0a72	0.010500537
54	0xbe0f0fb7	-0.13970838
55	0xbd898ef8	-0.06716722
56	0x3d19e553	0.037572216
57	0xbd7d16ec	-0.061789438
58	0x3c62d707	0.013845212
59	0xbe000e34	-0.12505418
60	0xbdc31bf0	-0.09526813
61	0xbc95ab78	-0.01827024
62	0xbd6c3e08	-0.057676345
63	0x3db365ba	0.08759637

critic.4.weight f4 [1, 64]
0	0xbc769d78	-0.015052192
1	0x3b453f15	0.0030097414
2	0xbdae386f	-0.085068576
3	0xbd775e67	-0.060392763
4	0x3d9b607f	0.075867645
5	0xbbe89d01	-0.0070987944
6	0xbc7ff7e1	-0.015623064
7	0xbb686245	-0.0035458964
8	0x3c9919b7	0.01868902
9	0xbca23711	-0.019801648
10	0x3c28ca8f	0.0103022
11	0xbcb71b70	-0.02235195
12	0x3de94fbd	0.11392162
13	0xbda567de	-0.08076452
14	0x3e42d47f	0.19026373
15	0xbce1272c	-0.027484499
16	0x3d4ac405	0.049503345
17	0xbd8fd8f5	-0.07023803
18	0xbc42d34a	-0.011891196
19	0x3cf5ba4f	0.029996065
20	0xbc95ef66	-0.01830263
21	0x3d853c43	0.06505635
22	0xbb259484	-0.0025265524
23	0x3cfcbfb6	0.030853134
24	0x3a6aa0ad	0.0008950334
25	0xbd4f85c6	-0.050664686
26	0xbc053a87	-0.00813163
27	0x3d6afbcf	0.05736905
28	0xbd2a3b60	-0.04156053
29	0xbc6dcb2a	-0.01451377
30	0x3e2e7765	0.17037733
31	0xbcd39fd4	-0.025833048
32	0xbce5f2ab	-0.028069815
33	0x3d5217e2	0.051292308
34	0x3cad9c83	0.021192795
35	0x3bfd7155	0.0077344575
36	0x3b82cf8b	0.003992026
37	0xbd1019a9	-0.03518072
38	0xbb8c3739	-0.004279044
39	0xbd435fc9	-0.04769877
40	0x3a58df72	0.0008273042
41	0xbbeeea60	-0.0072911233
42	0x3ddd7905	0.10814098
43	0x3d0a5717	0.03377446
44	0xbd5585bc	-0.052129492
45	0x3c3291a4	0.010898981
46	0x3dcf121e	0.101108775
47	0x3a9dc8c1	0.0012037979
48	0x3be7039c	0.007049991
49	0xbce82708	-0.028338924
50	0xbd20056a	-0.039067663
51	0xbb8d3c34	-0.0043101553
52	0x3d02bd71	0.031918947
53	0x3ba52413	0.005039701
54	0x3c306f8d	0.010768783
55	0xbcbc53b3	-0.02298913
56	0x3dbe430d	0.09290133
57	0x3dc256b8	0.094891965
58	0x3dd93fbe	0.10607861
59	0xba28e7c9	-0.000644323
60	0xbd2e5e3a	-0.04257033
61	0xbc22badc	-0.009932246
62	0xbce23f65	-0.02761812
63	0x3cfbae3a	0.030722726
