Models/Reward_shaping_vm/RS_small_pos_vm_2_0/48000.pth (torch, 78437 bytes, 11 tensors)

actor.0.weight f4 [64, 62]
000000 71 a7 ee 3c bb 95 f7 bc d6 a6 0e 3d ff 8f d4 bb
       0.029132577 -0.030222764 0.034827076 -0.0064868922
000010 1d 82 f7 bc 1b 22 99 3e c6 25 4b be b6 f7 9e be
       -0.03021341 0.29908833 -0.19838628 -0.31048363
000020 05 ff 0d 3e 59 d7 54 be 7f 96 77 bd 12 75 14 be
       0.13866813 -0.20785274 -0.06044626 -0.14497784
000030 ab fc d0 3d 0c e0 8a 3e 2e 0b e3 bd 7f 30 5e be
       0.102044426 0.2712406 -0.11086117 -0.21698187
000040 8b 24 5c 3d 62 70 99 bd dc fa 47 bd a7 23 fa 3d
       0.053745788 -0.074921384 -0.048823223 0.122138314
000050 27 c2 fe bd 86 52 0d bc 86 e6 24 bc 1e 7d b8 3d
       -0.12439375 -0.008625632 -0.010064727 0.09008239
000060 5d d1 45 bc d8 f9 08 3d eb c4 c7 bb db a3 91 bd
       -0.012073842 0.033441395 -0.0060964725 -0.07111331
000070 92 0e ba be ce c3 f6 bd f2 0e e1 bd ef 1a 90 be
       -0.3633924 -0.120490655 -0.10989179 -0.2814555
000080 80 da f4 3c 6b 2e ab 3d c9 01 cd 3b 6f 73 6e bd
       0.029889345 0.08358463 0.0062563163 -0.058215555
000090 c7 7a c2 3d a1 b0 0e be 1a 23 83 3d 99 69 37 be
       0.09496074 -0.13934566 0.064031795 -0.17911376
0000a0 4a 43 32 bd c8 36 31 bd 58 9c 96 bc b2 03 a6 3d
       -0.043521203 -0.043265134 -0.018385097 0.081061736
0000b0 d6 80 80 3c db 2f 13 bd 7a 83 04 3d f2 40 4f 3d
       0.015686434 -0.03593431 0.03235195 0.050599046
0000c0 d5 25 f5 bd 4e 3b bd bd 58 04 42 3e b5 fa 03 3e
       -0.119701065 -0.09239827 0.1894697 0.12888606
0000d0 78 c9 ba 3d 7b 7a 18 3d 25 a8 e2 bd 04 79 6c b9
       0.09120458 0.03722618 -0.11067227 -0.00022551796
0000e0 3e a9 9f 3c 69 4e 97 3d fa 8b 16 bd be 56 a6 3d
       0.01948988 0.073880024 -0.036754586 0.081220135
0000f0 62 6e 3c 3e 50 d9 22 3d 4e 2c 18 3d 77 eb f9 3d
       0.18401483 0.039758027 0.037151627 0.122031145
000100 67 07 e7 3d 95 cb 02 bb aa 3a 37 be f4 00 60 bd
       0.11280709 -0.001995777 -0.17893472 -0.05468841
000110 77 f0 8e be 8c 8a 12 bf 14 42 ae bb ee 9c c7 3e
       -0.27917835 -0.57242656 -0.0053179357 0.38986915
000120 16 e6 f8 bd 6f e8 bf 3e 95 ee e1 be 46 bd c0 3c
       -0.121532604 0.3748202 -0.44127336 0.023527753
000130 59 dd 38 be a3 2b 04 bf 8e 79 df bc e3 68 a4 bd
       -0.18053187 -0.51629084 -0.027279641 -0.08027818
000140 36 1f dd 3d e3 69 7f bc c0 7d 01 be eb fa fb 3c
       0.10796969 -0.01558921 -0.12645626 0.030759295
000150 75 e7 61 3d 5e de 68 bd 57 31 43 bc 75 e2 60 3d
       0.055152375 -0.05685269 -0.011913619 0.054903466
000160 69 d5 a1 bd bc 7d 89 bd b8 ad 9a be 07 cf 2e bc
       -0.07902033 -0.06713435 -0.30210662 -0.010669476
000170 cf d9 3d 3d 4b a3 c9 3d e0 9d 9b 3d 77 3e 8b 3d
       0.046350297 0.09845599 0.07598472 0.067990236
000180 3a 72 c8 bd d3 1d a2 bd 80 3f 1c be f8 e7 14 bd
       -0.09787412 -0.07915845 -0.15258598 -0.036354035
000190 51 a5 97 3d fd 85 d9 3c c6 6d 44 be 8a b9 a5 3d
       0.074045785 0.026553148 -0.191825 0.080920294
0001a0 79 4a 07 3d 1e 64 ba 3d d4 7d cb 3d 58 46 2a 3e
       0.033030007 0.09101127 0.09936109 0.16628397
0001b0 2c 46 4a bd 06 9d 16 3e e3 43 13 3e af ea 92 bd
       -0.049383327 0.14708337 0.14381365 -0.071736686
0001c0 d3 09 44 bc 8f f0 77 3d 34 cd a1 bd ea 32 80 be
       -0.011965233 0.06053215 -0.079004675 -0.25038844
0001d0 23 2e 26 bc 5e d3 8b 3e c6 b8 1a 3d fc 0a 8d 3d
       -0.010142836 0.27309698 0.03777387 0.06886861
0001e0 8f bc 6d 3e ce d3 32 bd c7 74 26 3e f5 aa 8c 3e
       0.2321646 -0.043659024 0.16255485 0.2747418
0001f0 3b 85 ab 3d f5 73 ba bd 69 7c 39 bd 7c 07 b1 3d
       0.08375021 -0.09104148 -0.045284662 0.08644006
000200 78 14 36 3e 77 1f 35 3e 13 54 5a be 8f 2c e3 3d
       0.17781246 0.17687784 -0.21321134 0.11092483
000210 c8 04 54 be 0d 9a ad 3e d0 88 57 3e da d0 24 3f
       -0.20704949 0.33906594 0.21048284 0.6438118
000220 e8 0b 21 3f 62 d7 85 3d 33 d5 21 bd 5b 41 22 be
       0.6290879 0.06535222 -0.039509963 -0.15845244
000230 9c 8d f7 bd ec 9e 9c bc 0b e2 a9 3d 54 90 6f 3d
       -0.12087557 -0.019118749 0.082950674 0.05848725
000240 c1 e6 b1 ba 74 5b b7 3d 74 4e ed bd 6e 77 b4 3d
       -0.0013572798 0.0895299 -0.11587229 0.08811842
000250 b7 17 01 3e c6 27 9e bd 57 28 df 3c ce c4 a7 bc
       0.12606703 -0.0772243 0.027240915 -0.020479586
000260 39 13 f8 bd 43 0b a2 3d 58 3d 0f be 42 8a 39 be
       -0.121130414 0.07912304 -0.13988245 -0.18119147
000270 29 86 bd bd f3 9b 35 3b 5f 20 f1 3d e5 3e 3a 3d
       -0.09254105 0.0027711361 0.117737524 0.045470137
000280 63 ba 27 3e c4 b0 94 3e e1 3c 02 3d 8e 34 00 bd
       0.16379695 0.2904111 0.03179634 -0.03130012
000290 06 fe 12 be 06 ae 0f 3f b8 83 66 3a e7 55 27 3d
       -0.14354715 0.56124914 0.00087934313 0.040853407
0002a0 c8 9f 4b be 0a bf 88 be ae 8a 5f be 29 42 8e bd
       -0.1988517 -0.2670825 -0.21830246 -0.06946213
0002b0 17 57 e3 bc a5 7e 04 be 2c 45 14 be c2 e2 5d bd
       -0.027751489 -0.12938936 -0.14479512 -0.05417133
0002c0 6a 36 e2 bd 93 f7 ac 3b 92 c6 10 bd 2a 36 2b 3e
       -0.11045535 0.0052785366 -0.03534562 0.1671988
0002d0 73 46 42 be 33 9c e5 bc 60 fc 24 3e a2 49 50 bd
       -0.18972187 -0.028028583 0.16111898 -0.05085147
0002e0 0d b4 0c be 9d 7d 3d be 95 f8 37 bd 67 2a 3f 3d
       -0.13740559 -0.18504949 -0.0449148 0.046671297
0002f0 93 65 e8 3d 0c ce 67 3d 10 39 cb 3d b1 9b ba 3d
       0.11347499 0.056592986 0.09922993 0.09111727
000300 c5 3e bd 3d 71 a6 7f bd 49 ba bd bd e0 1b 33 be
       0.09240488 -0.06241459 -0.09264047 -0.17491102
000310 33 5a 5f be 93 cb e6 be f8 01 87 be 4f 21 f7 bd
       -0.21811752 -0.4507719 -0.2636869 -0.120669
000320 4f b6 4e be ed 1c a8 be 51 1c 58 bd 2c b0 de bd
       -0.20186733 -0.3283457 -0.05276138 -0.10873446
000330 4c a2 6e bc dc ff a1 3d c1 b1 42 3d 57 a2 27 bd
       -0.014565062 0.079101294 0.0475328 -0.040926304
000340 7b 28 81 bc 5c 36 62 bd d5 f5 d1 bd 0e fb 0d bd
       -0.015766373 -0.055227622 -0.10251967 -0.034663253
000350 e6 99 0f 3c b5 e6 83 bd 06 79 28 be 65 ce e1 3d
       0.00876472 -0.06440488 -0.16452417 0.11025695
000360 da c5 45 3e 05 1b 56 3d 3e 6f 0e 3d 38 62 f0 3d
       0.19313756 0.05227186 0.034774058 0.11737484
000370 2f 3e e3 3b e6 43 b2 bd 99 90 1e 3f 8e 5b 00 3f
       0.006934903 -0.08704357 0.6193939 0.501397
000380 62 9b 21 be 9c 4d 87 3d 26 c8 b3 3d 31 cb 52 3f
       -0.1578193 0.066066 0.0877841 0.82341295
000390 61 7f b5 3d c6 71 83 bd 2e ee 6e be ba c1 18 be
       0.08862186 -0.06418185 -0.23333046 -0.14917651
0003a0 8c 24 0a 3e 0e 01 8b be a0 bb 54 be 33 87 0a bd
       0.13490504 -0.27149242 -0.20774698 -0.033820342
0003b0 8d 37 24 bd 53 a3 47 be 7c ef 80 bd dc 9d 0f be
       -0.04009204 -0.19495897 -0.06295678 -0.14025062
0003c0 d0 c5 6f bd 18 40 2b 3d e9 08 36 be 1b 62 f7 bd
       -0.058538258 0.04180917 -0.17776836 -0.12079259
0003d0 3e ca 88 3e e7 48 7b 3e 2e 50 2e 3d 25 89 41 be
       0.267168 0.24539529 0.042556934 -0.18899973
0003e0 ab 6a 46 bd a4 5a a3 bd 1d 4c b1 bd 28 4f 03 bc
       -0.04844157 -0.07976273 -0.086570956 -0.008014478
0003f0 f2 7d 95 be 76 17 9a be 0b 3b d1 bd 18 ee 20 3d
       -0.2919765 -0.30096024 -0.1021634 0.039289564

actor.0.bias f4 [64]
000000 56 4e b5 bd 35 76 15 3a e9 29 e6 bc 0f 99 99 3d
       -0.08852832 0.0005701513 -0.028096156 0.07499897
000010 9f b4 03 3e 4c a9 1c 3e af ca a5 bb 70 cc 24 bd
       0.1286187 0.15298957 -0.005059562 -0.04023403
000020 b8 96 6a bd fa d2 f2 3d 3f ac 82 3d ca bb 3e bd
       -0.057272643 0.11856647 0.063805096 -0.04656581
000030 07 12 52 3d fc 02 75 3c 0a d0 14 bd 77 ae 25 bd
       0.051286723 0.014954325 -0.036331214 -0.040449586
000040 26 59 9f 3d a8 f5 ac 3d 52 ca 52 bd 0c 31 51 3d
       0.077806756 0.08445293 -0.05146248 0.051072165
000050 81 9e 98 3b 6a 73 33 3e 3a 46 0c 3d 90 66 c2 bd
       0.004657567 0.17524496 0.03424666 -0.094922185
000060 ca 2f a5 3c 93 20 2f 3d 95 51 2d 3d cd 0c 1e 3e
       0.02016439 0.042755675 0.04231413 0.1543457
000070 57 13 62 bd 4d 7b 91 3d a9 04 0f bd f6 dc 3d 3e
       -0.055194225 0.07103596 -0.034916554 0.18541321
000080 a0 b0 00 3d 06 64 d6 3d 75 1e cb bc 68 64 51 bd
       0.031418443 0.10468297 -0.024794796 -0.051121145
000090 f1 1a 34 bc bd af 81 3d fa ab e4 bc f5 c7 9a bc
       -0.010992751 0.063323475 -0.027914036 -0.018894175
0000a0 5b 5f b9 3d 0e c7 4f 3c 76 a5 5a bd 7d 6a df bd
       0.09051391 0.012681736 -0.053380452 -0.10908983
0000b0 ad 74 5d 3e fd 49 16 3e fa e4 f5 bb d4 52 14 be
       0.2162654 0.14676662 -0.007504103 -0.14484721
0000c0 9a 0c ac 3d 12 e4 5a 3d 4d e6 f7 ba d2 98 c7 bd
       0.08400841 0.05344016 -0.001891324 -0.09745945
0000d0 81 bd 36 be f2 d9 28 3b 00 0a 27 3d 2f ad bb 3d
       -0.17845728 0.002576467 0.04078102 0.091638915
0000e0 43 a2 14 3e 9d 1a 45 3e e5 11 83 3d 2b dd 0d 3e
       0.14515023 0.19248433 0.063998975 0.138539
0000f0 e6 35 59 3d 4e f2 03 3e 6f 39 f0 bd d8 9b f3 3d
       0.053029917 0.128854 -0.117297046 0.11894959

actor.2.weight f4 [64, 64]
000000 af 3a b5 be 30 50 c8 be eb 0b ac 3d 38 9a ab be
       -0.35396335 -0.39123678 0.08400711 -0.33516097
000010 ac 75 52 3e 19 17 da be 25 01 66 be e6 5a 1e be
       0.20552701 -0.42595747 -0.22461374 -0.15464363
000020 36 c2 07 3e 8c a0 0e bd 7a 6f a3 be 74 8d 8e 3e
       0.1325768 -0.03482108 -0.31920987 0.27842295
000030 2c 8f cf be c6 10 b5 3d 22 5c 84 3e 59 42 46 3d
       -0.4053892 0.0884109 0.25851542 0.048403118
000040 1b 28 14 3d fa 19 49 be 13 76 3a 3e 0a 4e 3a 3e
       0.03617106 -0.19638816 0.18209104 0.18193832
000050 75 e8 c7 be c8 17 e2 bd 99 f9 18 be 8f 8c ed 3d
       -0.39044538 -0.11039692 -0.14938964 0.11599075
000060 65 3d 63 bd 64 25 93 3e 96 07 28 bc 59 ef cc be
       -0.055478472 0.28739464 -0.010255715 -0.40026358
000070 2e d7 b4 bd 2b f8 46 3e b8 72 80 be 6a 08 45 be
       -0.08830105 0.19430606 -0.25087523 -0.19241491
000080 0a 22 4f 3e 8d dc 31 3e b2 d4 51 be f7 d5 4b be
       0.20227829 0.1736929 -0.20491293 -0.1990584
000090 9e 44 0f 3e 8d 81 e8 3d cc c3 0c 3e 4b 3f 38 3e
       0.13991019 0.11352835 0.13746566 0.17992894
0000a0 b7 a0 98 bb 67 86 f9 3c 58 ba 07 bd a6 4f f5 bd
       -0.0046578306 0.030459596 -0.033136696 -0.11978082
0000b0 8e c3 a9 3d 11 35 06 3e 34 48 11 3e 39 a6 8f 3e
       0.08289252 0.1310618 0.141877 0.28056505
0000c0 18 a9 66 3e 2a b1 56 be c7 44 0c 3d e5 e2 a0 3e
       0.22525442 -0.2096602 0.03424528 0.31423107
0000d0 13 70 8b 3c 2a c0 96 be b1 1d 6e be 04 52 c5 3e
       0.017021215 -0.29443485 -0.23253514 0.38539135
0000e0 c5 3d 42 be da a9 01 3f 48 8e ea 3d 15 89 a6 3d
       -0.18968876 0.506498 0.11452919 0.08131615
0000f0 32 97 50 3d 16 92 03 be b7 5a 85 3e d4 22 bd bd
       0.05092544 -0.12848696 0.26045772 -0.092351586
000100 92 7b 61 bd 7f 68 c0 3e 9a c3 9c 3d c4 d5 e0 be
       -0.055049486 0.37579724 0.076544955 -0.4391309
000110 a5 e2 86 3e c9 f1 87 be 7c cd e1 bd ce 29 c2 3d
       0.2634479 -0.26551655 -0.11025521 0.0948063
000120 3e b3 bb 3d 08 0b 38 3e 34 83 7f 3d a8 5d 8f 3e
       0.09165047 0.17972958 0.062380984 0.28001142
000130 a1 cc a9 be 83 98 77 3e fc 6e dd bb 8c 45 11 3d
       -0.33163932 0.24179272 -0.006757615 0.035466716
000140 a1 a2 c5 3d 49 e4 89 be 6b 05 25 3e 56 50 95 3e
       0.096501596 -0.2693198 0.16115348 0.29162854
000150 1e 58 f0 be bc 13 5e be 3b fe a1 be 13 af 8e 3e
       -0.46942228 -0.21687216 -0.31639275 0.27867946
000160 17 4d d0 bd 5b f9 53 3e 99 5c 7f 3c 60 66 6b bd
       -0.10170954 0.2070059 0.015586042 -0.05747068
000170 0e ef 43 bd 86 e9 52 3e 1f c3 16 be e8 5d 36 bd
       -0.047835402 0.20596895 -0.1472287 -0.04452315
000180 21 56 6f 3e 48 2a 44 3e 1f 26 e2 bd ec 72 47 bd
       0.233727 0.19156754 -0.11042427 -0.048693582
000190 d1 07 45 3e 25 99 2b 3e aa 9e 4c 3d 92 19 81 3e
       0.19241263 0.16757639 0.049956 0.2521482
0001a0 a6 39 19 3e c3 27 0c be e9 de 60 3e ca 85 7a bd
       0.14963397 -0.13687043 0.21960033 -0.061162747
0001b0 d9 6b c9 3d 0f e6 bf 3e bc c3 85 3e 29 69 98 3d
       0.098350234 0.37480208 0.26125896 0.07441933
0001c0 92 f9 6a 3e a6 86 41 be d9 01 e5 3c 7e bf a9 3e
       0.22946766 -0.1889902 0.027954983 0.3315391
0001d0 a6 a3 a0 3d e4 a5 3a be 6c d9 10 be af a6 85 3e
       0.078437135 -0.18227345 -0.1414544 0.26103732
0001e0 ac 84 61 3c 95 84 e8 3e 6b 8a 7d bd 6f de b2 3e
       0.013764542 0.45413652 -0.061899584 0.34935328
0001f0 b0 9c 79 bc af a9 62 3e b0 a0 05 3e 2d 44 2e 3e
       -0.015235111 0.22135042 0.13049579 0.17018194
000200 eb 8b 13 3e 32 91 dd bc 0f bb c8 ba 45 b4 9d 3e
       0.14408843 -0.027046774 -0.0015314537 0.30801597
000210 78 18 90 bd 63 e0 d0 bd 04 9a 91 3b 70 43 7b bc
       -0.07035917 -0.10199048 0.004443409 -0.015335903
000220 26 9b 40 bd 5d ef 18 bd 7f 9c 00 be e1 6f 17 be
       -0.04702296 -0.03733765 -0.12559699 -0.14788772
000230 20 d0 89 3e c6 dd a4 3e df e2 3f bd 0a 8b 22 3e
       0.269166 0.3220045 -0.04684722 0.15873352
000240 02 50 7f 3e 6a 44 47 3e 45 d1 a0 3e 74 28 97 be
       0.24932864 0.19459692 0.3140966 -0.2952305
000250 11 13 a6 3d e0 1e 83 3e 08 df 20 3e 0a 3a 53 ba
       0.081091054 0.25609493 0.1571008 -0.000805766
000260 e5 5e 72 be f3 48 58 be cf be 91 be 17 c5 62 3e
       -0.23669012 -0.21121578 -0.28465888 0.22145496
000270 2b b6 76 be 03 43 29 be 9f 99 9c 3d 1d 5d ec 3d
       -0.24092929 -0.16529469 0.076464884 0.115411974
000280 71 aa f2 3e 82 e5 f5 bd 30 67 2e 3e f3 a5 c7 3c
       0.4739566 -0.12006666 0.1703155 0.024371123
000290 6f 2b 06 3e 9b a6 1d be c4 98 31 be 7b c2 6f bd
       0.13102506 -0.15395586 -0.17343432 -0.05853508
0002a0 64 a2 80 3e 4a 7d 8c bd 3d 08 9a be 06 f2 12 bd
       0.25123894 -0.068598345 -0.3008441 -0.035875343
0002b0 db f6 45 3e 63 8b 32 be 41 a2 b5 be 88 b2 17 be
       0.19332449 -0.17435984 -0.35475352 -0.14814198
0002c0 2a 7b eb bd 71 bb 65 3e 77 ce 27 3e 0f c3 95 3b
       -0.11498101 0.22434784 0.16387354 0.004570372
0002d0 cf 42 36 bc 00 69 75 3c 33 6f e6 3c fe 42 34 3e
       -0.011124327 0.014978647 0.028129196 0.1760368
0002e0 c8 d1 1f 3e 27 4b 14 3b 67 8c 9f bd b9 99 86 3e
       0.15607369 0.0022627802 -0.077904515 0.26289156
0002f0 e8 b3 28 be 10 05 41 3d e9 82 ae 3e 7f e3 a3 3e
       -0.16474879 0.04712397 0.34084252 0.32009503
000300 b4 d8 73 bd d0 44 34 bc 0a 03 c9 bd 00 69 2b 3b
       -0.059532836 -0.011002734 -0.09815033 0.0026155114
000310 02 2d e9 bd 64 62 cd bd 34 ec 88 3d 14 1f 0e bd
       -0.11385538 -0.10028532 0.06685677 -0.034697607
000320 10 6e 57 bd 80 87 b1 bc f4 d1 f7 bd 96 4f ea 3d
       -0.0525952 -0.021671057 -0.12100592 0.11440961
000330 80 d2 7c bb 10 c5 93 bc 1c e5 5a bd 32 2d 82 3d
       -0.0038577616 -0.018038303 -0.053441152 0.063562766
000340 02 bc ca bd 00 f9 44 3d ba a9 b7 bd ac 20 49 bd
       -0.09899141 0.048089027 -0.0896792 -0.049103424
000350 08 38 a0 bd ea 4d a0 bd 60 4b 89 bc d4 db b8 bd
       -0.07823187 -0.07827361 -0.016759574 -0.09026304
000360 64 c3 ab bd 2a be f8 bd e8 7f 07 3d 6a f6 c3 bd
       -0.08386877 -0.12145646 0.033080965 -0.09568484
000370 30 c1 6f bc 30 04 f7 bc cc 94 cf bd 9e 51 ab bd
       -0.014633462 -0.030153364 -0.101358026 -0.083651766
000380 40 61 34 bc 70 30 bb 3d 0c ea 07 bd 5a 44 df 3d
       -0.011009514 0.09140098 -0.03318219 0.10901709
000390 60 0d 3d 3d 5c 2a c0 bd 40 4b 1b 3d 42 86 f4 bd
       0.046155334 -0.093830794 0.03791356 -0.1193967
0003a0 e8 59 92 bd ea ff f6 3d 42 8e f9 3d f0 75 91 bd
       -0.071460545 0.120605305 0.12185337 -0.07102573
0003b0 10 9e 77 3c 7e ff fb bd 8e 55 8b bd f8 ff ae 3c
       0.015113369 -0.12304591 -0.06803428 0.02136229
0003c0 58 4c ec bd 34 c3 30 bd c8 77 71 bd c6 ea bf bd
       -0.11537999 -0.04315491 -0.058952123 -0.09370951
0003d0 82 52 88 3d 96 2b a7 bd 70 8b e0 3d 70 49 bf 3c
       0.06656362 -0.0816261 0.109640956 0.023350447
0003e0 9c 20 2a 3d 0c 22 b8 bd e0 65 d9 3b 3e 72 eb 3d
       0.041535005 -0.08990869 0.006634459 0.11496399
0003f0 54 fa 84 bd ac b9 48 bd 74 82 45 bd c8 ad d6 bc
       -0.06493059 -0.049005195 -0.048220113 -0.026205912

actor.2.bias f4 [64]
000000 fc 8a b0 3d 95 58 06 3e ce c0 1c 3e 42 e3 81 bd
       0.08620259 0.13119729 0.15307924 -0.06342174
000010 56 7d 57 3d f7 6c ef 3c 04 5d a0 3c 81 98 70 bd
       0.052609764 0.029226763 0.019575603 -0.05873919
000020 cf 53 ad bd 52 64 76 bc bc 57 29 bc a7 f3 20 3e
       -0.08463251 -0.015038567 -0.010335859 0.15717946
000030 a1 ee a6 3d 17 2c e5 bc ce 9f 62 3d 6b 71 30 3d
       0.081509836 -0.027975125 0.055328183 0.043076914
000040 eb d0 62 bd 4e 1a c8 bb 2c 7d aa 3d ae df 3f 3d
       -0.05537502 -0.0061066514 0.08324656 0.046844177
000050 69 49 14 bc dd cb 3f 3d ff 3f a5 3b 77 8c 43 3d
       -0.0090507055 0.04682528 0.0050430293 0.04774138
000060 ae c5 b9 3d 86 d1 01 3e 8f 17 6d bd 95 cf ff 3c
       0.090709075 0.12677583 -0.057883795 0.031226913
000070 59 3a b3 3d 0d e2 1f 3d ad 56 a0 3c d5 ea 6f 3e
       0.08751363 0.03903394 0.01957258 0.23429425
000080 14 a8 6f 3d 19 b6 8b 3d 7e 9e 32 bd f0 85 4f 38
       0.0585099 0.06821842 -0.04360818 4.9477385e-05
000090 1f cd d8 bd 11 0f 8f 3d 45 cc 49 3e a2 25 02 3e
       -0.10585999 0.069852956 0.19706829 0.12709668
0000a0 80 1b ef 3b 81 11 c4 3d 0a ab 9d bb fd e1 b1 3c
       0.0072969794 0.09573651 -0.004811649 0.021714205
0000b0 7f 52 37 bd 68 ba 16 be 5a 68 bd 3d 87 63 15 bd
       -0.04475641 -0.14719546 0.09248419 -0.03647187
0000c0 65 21 c8 bd d6 34 23 be 66 dd 20 be a9 a0 5a 3c
       -0.097719945 -0.15938124 -0.15709457 0.013343968
0000d0 b7 e7 93 3c ae 55 b3 3d 95 a1 2f bc 09 4d 09 be
       0.018054826 0.087565765 -0.0107196765 -0.13408293
0000e0 7b 1c 1c bd 82 c9 e5 39 6a 34 9a bc 82 c3 8e bd
       -0.0381131 0.0004382842 -0.018823821 -0.06970884
0000f0 02 80 d1 3d 94 48 d6 3d 16 45 d4 3d 8f ca e0 3d
       0.10229494 0.10463062 0.103647396 0.10976135

actor.4.weight f4 [36, 64]
000000 ba 8c eb 3e e0 da 9e 3e ce fe 49 bf c0 27 1b 3b
       0.46005803 0.31026363 -0.78904426 0.0023674816
000010 11 be ef be 7d 0f 0e bf 12 fc 2b bf 36 62 63 bd
       -0.46824697 -0.55492383 -0.67181504 -0.055513583
000020 5d 67 a7 bd 70 8b 90 bc 19 d6 c8 3e 69 d8 2b bf
       -0.08174012 -0.017644614 0.39225844 -0.6712709
000030 78 1d d1 be dd 95 ef be 15 74 90 3e 70 a7 f4 be
       -0.40842795 -0.46794024 0.28213564 -0.47783995
000040 53 04 39 be c5 61 01 3f 3f d8 ae 3d a0 a8 26 bf
       -0.18068056 0.5053981 0.085373394 -0.6510105
000050 64 88 a1 be 93 93 28 bf 9f fd 27 bf 3d 04 03 be
       -0.3154937 -0.6585018 -0.6562137 -0.12794586
000060 7a 43 e2 be 88 7b 43 3e d6 14 94 bc 5f 7d 42 be
       -0.44192106 0.19090092 -0.018076342 -0.18993138
000070 fb 6c a7 be 01 9d de 3e 8c c1 3c bf 8d 1c 6b 3d
       -0.32700333 0.4347916 -0.7373283 0.057400275
000080 9a a5 44 bf 92 99 14 3e 4d 10 a4 3d f9 78 36 be
       -0.7681519 0.14511707 0.080109216 -0.17819585
000090 70 22 ed bc 22 cc 00 3f 03 75 08 3f 47 a4 e9 bd
       -0.028947085 0.5031148 0.53303546 -0.114082865
0000a0 ac 49 0d 3f 91 4e 77 be e3 37 99 3e 7d 0a 90 3e
       0.5519054 -0.24151064 0.2992545 0.28133002
0000b0 10 52 8c 3e ad 1a 94 be 25 af cb bd 13 c5 ac 3d
       0.2740636 -0.28926602 -0.099455155 0.084360264
0000c0 25 bf bf 3d 68 41 9b bc 78 47 ba be ec 98 f5 be
       0.0936263 -0.018952087 -0.3638265 -0.47968233
0000d0 43 09 80 bc 6d 2d 8d bd ba 29 9b 3e d1 0a 90 be
       -0.015629416 -0.0689343 0.30305272 -0.28133252
0000e0 c6 82 81 bc 51 1f 56 3d 16 ab 81 be 53 4e 78 3d
       -0.015809428 0.05227596 -0.2532584 0.06062157
0000f0 47 39 01 bf 44 c8 73 bf 98 be 23 3f ff 3f cb be
       -0.50478023 -0.95227456 0.639627 -0.39697263
000100 7d 2f 94 3e 06 6e b0 3e 1f 22 58 bf 2c 0a bd bd
       0.2894248 0.3445894 -0.84427065 -0.09230456
000110 1e 83 5f 3e 61 8d d3 3e b0 2f 5c 3e 98 83 83 bb
       0.21827361 0.413188 0.21502566 -0.00401349
000120 8d 37 8b bd 1d 4a e4 be f3 ac 22 be 47 a5 5a bf
       -0.06797705 -0.44587794 -0.15886287 -0.85408443
000130 9f 4a b8 3e 28 a3 06 bf 9d 66 60 bf 48 53 43 bf
       0.3599443 -0.52592707 -0.87656575 -0.7629895
000140 a9 96 0e 3e 52 e7 c2 3e a8 90 ad bb df 17 d3 be
       0.1392466 0.38067108 -0.0052967854 -0.4122915
000150 f0 72 0d bf 91 7c da be 01 bb 7c 3d 6a d7 04 bd
       -0.55253506 -0.42673162 0.06170178 -0.032431997
000160 87 b9 38 bf 92 17 a8 3d dc a6 54 be 72 8b c3 3d
       -0.7215809 0.08207621 -0.20766777 0.095480815
000170 4a 61 45 bf 08 fd 41 be 12 28 56 bf a3 1a aa be
       -0.77101576 -0.1894418 -0.8365489 -0.33223447
000180 60 1b e6 be da cd 5f 3e 8f 78 39 3c a9 83 f8 3e
       -0.4494276 0.2185587 0.011320247 0.4853795
000190 7d a5 ec bc af cd e6 3d 46 bc c7 bb 9b 06 37 3d
       -0.028887505 0.112697 -0.006095442 0.044684034
0001a0 a5 2d e3 be d1 f4 fe 3e 5a 82 15 3f f3 99 ac be
       -0.44370762 0.49796155 0.58402026 -0.33711204
0001b0 59 e9 f9 3e 83 1e 88 be dd a2 ce bd 32 a6 ac 3e
       0.48810843 -0.2658578 -0.100896575 0.33720547
0001c0 35 c5 ad 3d 3b 5f 90 bd 76 d6 51 3e 71 9c 38 3e
       0.0848488 -0.07049414 0.20491967 0.18028428
0001d0 08 2b 05 3e 32 d2 eb 3a cc 7f a0 3e 1e 68 00 bf
       0.13004696 0.001799172 0.313475 -0.5015887
0001e0 3f 6a 8c 3d c4 04 c0 bd f7 1d 28 3c 9d 00 1a bc
       0.06856202 -0.09375909 0.01026105 -0.00939956
0001f0 c2 f2 47 bf 22 9a 13 be 96 de 20 bf 42 50 b0 3e
       -0.78104794 -0.14414266 -0.6283964 0.34436232
000200 0e cf 06 3f 1a 19 b9 3e d1 ff 42 3c 90 75 ae bc
       0.5265969 0.36151963 0.011901812 -0.021296293
000210 a0 e3 93 be ef 1a a8 be 44 2c 24 bf fc 56 81 3e
       -0.28884602 -0.3283305 -0.64130044 0.25261676
000220 19 e3 02 3d 3f ce 83 bd 43 a0 24 be 54 44 fc be
       0.03195486 -0.06435823 -0.1607676 -0.4927088
000230 e8 22 45 3e 3c 2c b2 be db 89 18 bf 8f db e0 be
       0.19251597 -0.34799373 -0.5958535 -0.4391751
000240 4d 55 ce bc 19 2b dc be e0 c0 4c bc f0 1e 5b bf
       -0.025187159 -0.4300163 -0.012497157 -0.8559408
000250 9e 4b 6b 3e b0 78 b3 be 66 97 b8 bd 83 b7 46 3d
       0.22978064 -0.35053015 -0.09013252 0.048514854
000260 a8 8b 22 bf 70 dc a1 3e e7 53 7e 3e 33 51 c2 3e
       -0.6349435 0.31613493 0.24836694 0.37952575
000270 99 be 64 be 52 fa ce 3e 4c 43 c5 be 65 61 a8 3e
       -0.22338332 0.40425354 -0.38527906 0.32886806
000280 f6 de d6 be be 04 75 3e ce 2a b5 3a d5 d9 99 bd
       -0.4196698 0.2392759 0.0013821961 -0.07512251
000290 3d f5 b8 3d 96 44 81 3d 50 f9 a4 3e 0a 91 cb 3d
       0.090311505 0.0631191 0.3222146 0.099397734
0002a0 bb 7a 3b 3e a6 35 07 3e b2 6b 5f 3e f0 74 cd 3e
       0.18308537 0.13204059 0.21818426 0.4012828
0002b0 30 39 b6 be 96 e7 84 be 50 48 33 3f b3 8d 4f 3e
       -0.35590506 -0.25957936 0.70032215 0.20268898
0002c0 63 e6 0b 3c 5a d9 26 be 1a 14 2d bd b2 b5 87 3e
       0.008538815 -0.1629385 -0.0422555 0.2650581
0002d0 9f 52 33 3e 4b 5e 1d 3b 62 b8 f9 be 18 46 d7 3e
       0.17511986 0.0024012502 -0.48773485 0.42045665
0002e0 6f b3 33 be 6c e9 bc bc 26 1b d9 3e c3 ad fe bc
       -0.17548917 -0.023060523 0.42403525 -0.031088715
0002f0 05 f4 8b be ed 0a 31 bf da 4d c4 3c 5a 15 5e 3d
       -0.2733461 -0.69157296 0.023962904 0.05421958
000300 e9 46 80 be 2f 35 12 bb e8 fb 0e bf f8 ea a3 3d
       -0.250541 -0.0022309532 -0.5585313 0.08003801
000310 cd a0 9e 3d 5a bc 8f be 0b ba 1a bf ed c6 45 bb
       0.07745514 -0.28073388 -0.6044013 -0.0030178383
000320 8f 4b 82 3b a3 5c 9d be db 05 3f 3e d7 28 c0 be
       0.0039762924 -0.3073474 0.18654577 -0.37531158
000330 5b e4 d7 3d dd 3c 16 bd 14 a8 c7 3c 0d 85 2b bf
       0.10541602 -0.036679137 0.024372138 -0.66999894
000340 cc ac c6 3b 07 c4 11 bd 32 64 e8 3d ab da 82 be
       0.0060630795 -0.035587337 0.11347236 -0.25557455
000350 3d 9c 12 3e 1c bf bc be f0 53 88 3d 89 c0 02 bc
       0.14317413 -0.36864555 0.06656635 -0.007980474
000360 0a 97 f0 bd b9 e6 0d 3e 4e 78 8f 3e 9d 2a 9f 3e
       -0.117475584 0.13857545 0.28021473 0.310872
000370 0b 1f c1 be 34 7c 9f 3e f7 3a 03 bf 00 35 1c bf
       -0.37718996 0.31149447 -0.5126185 -0.6101837
000380 7a 90 69 bf bb 4d 8b bc f8 ad 6d bd 91 bd af 3d
       -0.9123608 -0.017004838 -0.058027238 0.08581079
000390 8a 1b 53 bd 9a 03 3a be 46 58 dc 3e fc a8 31 be
       -0.051539935 -0.18165436 0.43036097 -0.17349619
0003a0 d2 75 6e 3e 05 80 bb 3d c7 6c 92 3e 82 84 21 3e
       0.23287132 0.09155277 0.28598616 0.15773204
0003b0 fc 7b 7f be 6d ba 2b 3e 32 17 a6 be dc fa ff bd
       -0.2494964 0.16770335 -0.32439572 -0.124990195
0003c0 d7 8c 80 bc 40 c8 dc bd d9 1f f7 bd a1 aa a0 3d
       -0.015692158 -0.10780382 -0.12066621 0.07845045
0003d0 3d fb b4 3d 6b 76 fa 3c 81 a9 1c 3e 4d cc c2 3d
       0.088369824 0.030574044 0.15299036 0.095116235
0003e0 52 7e ee bc a4 3a d7 3c 7d 26 af 3d 13 df d0 bd
       -0.029112969 0.02627308 0.08552263 -0.10198798
0003f0 be 0b 55 bf 14 6e 10 bf 4a b9 0e 3d a0 dd c9 3d
       -0.8322104 -0.56417966 0.034844674 0.09856725

actor.4.bias f4 [36]
000000 91 45 95 bd 2c d0 79 bd 0b 74 5e bd 69 14 e2 be
       -0.07288659 -0.060989544 -0.054309886 -0.44156197
000010 33 06 e3 3d c8 32 17 3d f1 25 ba 3d d8 dc c0 bd
       0.11085167 0.036913663 0.09089268 -0.094171226
000020 06 27 99 3d 6d 36 b6 bb 8b 14 ed 3c 63 cd f3 bc
       0.07478146 -0.0055606873 0.02894046 -0.029761022
000030 15 d3 3f 3e 9b dd 12 3d 37 4b 17 3e 62 c0 eb 3d
       0.18732865 0.03585587 0.14774786 0.115113035
000040 a3 27 b3 be d8 62 d6 be dd 06 ef be 51 99 df be
       -0.34991178 -0.41872287 -0.46684924 -0.4367166
000050 66 27 9c be 19 36 5b bc 09 b0 1b 3e 2b 2b 55 3d
       -0.3049881 -0.013379597 0.15203871 0.05204312
000060 86 73 2d 3e 6b 14 66 3d 24 3b f1 3d b5 56 95 bd
       0.169386 0.056171816 0.11778858 -0.07291929
000070 6a 17 18 bd 7d b4 7d 3e 92 d0 a5 bd 87 b8 25 3d
       -0.037131704 0.24775882 -0.08096422 0.040459182
000080 ab d3 12 3d 2f 61 05 bd df 2a 4e 3d d0 6b e5 3d
       0.035846394 -0.032563385 0.050333854 0.11202204

critic.0.weight f4 [64, 62]
000000 3c f3 8a 3d 3a 9f f0 bd 75 f8 5a 3c af 2d 74 3d
       0.067846745 -0.1174912 0.013364901 0.05961388
000010 ac a0 d0 be 54 17 cc be 03 e5 bd bd 44 9a 33 3e
       -0.40747583 -0.39861548 -0.09272196 0.17539316
000020 44 51 42 be 3c 73 b3 3d 65 23 95 3d b8 26 e7 3d
       -0.18976313 0.087622136 0.072821416 0.11286682
000030 5d f4 bc 3d 05 8b 3f 3d 3e 31 2a 3e d7 16 53 3d
       0.09226296 0.04676344 0.16620347 0.051535454
000040 8e ad 80 3d fc f5 d1 3d f6 bd 83 3c a1 da 88 3d
       0.06283103 0.10251996 0.016081791 0.06682325
000050 8d 41 c8 3d 85 a0 4f 3d 89 13 f0 bd c9 f0 a4 3d
       0.09778128 0.050690193 -0.11722476 0.080537386
000060 23 3f e5 3d d8 d3 ec bd 7c fc 51 3c 5d a1 14 3d
       0.11193683 -0.115638435 0.012816545 0.0362867
000070 8e 7b 4e 3e 0d 55 b9 3e 58 42 98 3e c9 38 1b 3f
       0.2016432 0.361977 0.29738116 0.6063352
000080 db 65 fe 3d 4b 8d 9a 3d 14 46 ea bd 31 1c 7a bc
       0.12421771 0.07546481 -0.114391476 -0.01526551
000090 4b 5a 41 3d 6e b2 d6 bd 7c a5 24 bb 0e b1 ed 3d
       0.04720525 -0.104832515 -0.002512305 0.11606036
0000a0 9b 38 e0 be 19 e5 b8 be 50 14 b7 3d a1 b9 31 be
       -0.43793187 -0.36112288 0.08939421 -0.17355968
0000b0 b3 54 93 be 9b 59 5c be 62 e9 c9 3d 81 97 02 be
       -0.28775558 -0.21518557 0.09858967 -0.12753107
0000c0 5b 9d 0c be 6d 5f 8b bd c6 2c d3 bc e1 23 06 bd
       -0.13731901 -0.068053104 -0.025778186 -0.03274906
0000d0 c0 62 4b 3b 0b 11 7b be 87 dd 94 3d de b1 03 3e
       0.0031034201 -0.2451822 0.072688155 0.1286082
0000e0 25 34 b6 3e 8c 9f c2 3c 45 37 7a bc 4f c6 29 ba
       0.35586658 0.023757719 -0.015271966 -0.00064763887
0000f0 3a ea eb bd b8 ba 6a 3c 27 8c 2b 3d 76 a6 57 bd
       -0.115192845 0.014326744 0.041881707 -0.052648984
000100 e6 52 80 bc 30 1f 11 bd cf 54 0f 3e 30 3e 7e be
       -0.015664529 -0.035430133 0.13997196 -0.2482841
000110 85 b5 5f be 40 86 11 be 29 bf 20 be bf d4 1e 3b
       -0.21846588 -0.14211369 -0.15697922 0.0024235693
000120 1c b9 8e 3d a0 f1 06 be 91 f1 c8 3c 07 0e dc bd
       0.069689006 -0.1317811 0.02452925 -0.10744863
000130 f4 05 8c bd 95 aa 3b be 54 4b 40 bd 45 94 36 3d
       -0.06837073 -0.1832679 -0.04694684 0.044574995
000140 6c 17 ee ba 22 f5 b0 bc 6b ac 9c bc d1 ec 2f 3d
       -0.0018164939 -0.021601263 -0.019125184 0.042950455
000150 59 91 f7 3c d5 59 77 bd 22 cd 18 bd 99 ff 53 bd
       0.030220674 -0.060388405 -0.037305005 -0.05175743
000160 4e 17 1e 3d 2d 92 fc bd 86 4e ae bd 62 16 aa 3d
       0.038596444 -0.12332568 -0.08511071 0.083050504
000170 3b 59 cb bd c5 3a a6 3a 0a 23 65 bd e2 e2 b7 bd
       -0.09929129 0.001268231 -0.05594162 -0.08978821
000180 5e 1b ba 3d 0a da d4 3c e5 ee fc bd 29 77 c3 3d
       0.09087251 0.025982875 -0.12350253 0.09544212
000190 65 11 13 3d c0 6b db bd f8 6e 8a 3c 35 e7 5d 3d
       0.03590526 -0.10713911 0.016898617 0.054175574
0001a0 f8 87 b5 3c 7c 91 10 be 69 bf 15 3e b0 cf c8 3c
       0.022159562 -0.14117998 0.14623798 0.024513096
0001b0 48 12 aa 3d b7 ae f8 bc 78 0b a1 bd 0d d6 68 bd
       0.08304268 -0.030356748 -0.078635156 -0.05684476
0001c0 89 14 63 bd 59 44 59 bd d5 ab b1 bd c1 d4 67 bc
       -0.055439506 -0.053043697 -0.086753525 -0.014149846
0001d0 72 91 90 bd ec f1 27 bc f4 f5 f6 bd 1d 45 15 3d
       -0.070589915 -0.01025055 -0.120586306 0.036442865
0001e0 d8 07 f1 bd d0 6b 6b 3c 8f 28 89 bd 44 8a 08 bd
       -0.11769074 0.014368966 -0.06697189 -0.033334985
0001f0 23 82 12 bd 7e e4 22 3c 08 08 fa 3d fa 52 5a bd
       -0.03576864 0.009942172 0.12208563 -0.05330179
000200 54 19 be bd e5 b5 f1 3b c1 9c d0 bd 10 ba 13 be
       -0.09282175 0.00737642 -0.101861484 -0.14426446
000210 ef 63 39 bd 77 c6 1f 3d 65 10 cd bb 34 38 18 be
       -0.04526132 0.03900763 -0.006258058 -0.1486519
000220 3f 15 55 be 4c 14 52 be fe 65 bb bd 44 b2 26 bd
       -0.20808886 -0.20515555 -0.09150313 -0.04069735
000230 23 d1 ad 3d 96 72 5e bd 64 73 d3 3b 7a ca cd 3d
       0.08487155 -0.054308496 0.0064529646 0.10048385
000240 0e 5f 32 bd 62 64 eb 3c 91 4d b4 3d b8 b9 da bb
       -0.043547682 0.02873439 0.08803857 -0.0066749714
000250 be 61 fd bd 47 48 5f bd d2 a7 8c 3d cd 3a 1d bd
       -0.123721585 -0.05451229 0.06867947 -0.038386155
000260 f8 e1 65 bd 9e 2f 68 3d 2b 0b 81 bd 4e 74 02 bd
       -0.056123704 0.056686036 -0.06300958 -0.031849198
000270 2a e9 2b 3d 9c 98 e3 3a 0a 3f 8e bd 7c 17 0b 3d
       0.04197041 0.0017364207 -0.069456175 0.033957943
000280 c8 92 b8 3d bf 39 68 3c 47 7a 37 be 31 3c 80 bd
       0.09012371 0.014173924 -0.17917739 -0.062614806
000290 66 72 77 be 18 af 81 bd 62 07 0f be 4b 97 ba bd
       -0.24164733 -0.063322246 -0.1396766 -0.09110888
0002a0 5d 0b 13 be 01 e5 5f 3d b6 fb 64 3d e7 23 62 be
       -0.14359803 0.054661755 0.055904113 -0.22084008
0002b0 cb 97 65 bc f7 b1 a2 bd 91 96 ad bd 64 18 34 3c
       -0.014013241 -0.079441 -0.08475984 0.010992143
0002c0 1f 72 97 3c c0 2c 56 be 61 71 50 be 2d 6f a7 bc
       0.018487034 -0.20915508 -0.2035575 -0.020438755
0002d0 83 75 0e be d5 36 8b bd 7e 6b 91 3e 0c 0d d6 3d
       -0.13912015 -0.06797568 0.28402323 0.10451707
0002e0 07 43 38 bc 17 2f 33 bd fc 6a 61 3d d0 4f 94 3d
       -0.011246449 -0.04374608 0.05503367 0.072417855
0002f0 f5 bc 01 be 29 c9 6e bd 4c 94 aa bc e6 8f 1f bb
       -0.12669738 -0.05829731 -0.020822667 -0.0024347245
000300 97 98 3b bd 8f 06 0e bd 5a 05 77 3d 85 7a fa 3b
       -0.045799818 -0.034674224 0.060307838 0.007644
000310 a7 23 ea bc e5 ed 90 bd 25 a0 dd bd 67 6a 0a bd
       -0.028581453 -0.07076625 -0.10821561 -0.03379288
000320 c0 9e bd bb 37 f2 3c bd 44 ab 8d 3d 45 b1 6f 3d
       -0.0057867467 -0.04612943 0.06917432 0.058518667
000330 4e ae 37 3c 3f 83 92 bd 89 41 e8 3d be 7a 76 3d
       0.011210991 -0.071539395 0.11340625 0.06017565
000340 7b a8 8a bd 84 8d cd bd 71 30 f0 3c 98 98 02 3c
       -0.06770416 -0.100367576 0.029319974 0.0079709515
000350 14 a4 b4 bc 50 1d cf 3d e1 6a 52 3d ea 4f 78 bd
       -0.022050895 0.10113013 0.05137146 -0.060623087
000360 64 09 88 3b 1b a3 ba bc da e3 fc 3d 13 c0 d6 3d
       0.00415151 -0.022782853 0.12348147 0.10485854
000370 49 be d1 3c 06 e1 a5 3d 89 2a 89 bd 75 5f 1e bc
       0.02560343 0.080995604 -0.06697566 -0.009666313
000380 e3 85 0a 3e 05 fe 18 bd 57 aa d2 3d 0a 57 d5 bd
       0.13527636 -0.037351627 0.10286396 -0.10416992
000390 14 c1 95 be bf c5 76 be df a9 75 3d 74 34 ae bc
       -0.2924887 -0.24098872 0.059976455 -0.021265246
0003a0 3a 94 0c bd 9e 2b bf bd 5e 91 73 be 91 74 90 bd
       -0.034321047 -0.09334491 -0.23785922 -0.07053483
0003b0 f7 20 15 bd 8b a3 75 be 19 fc c2 bc 62 93 42 be
       -0.03640839 -0.23988168 -0.02380185 -0.19001535
0003c0 56 fb bd be e2 88 5f be db b5 1b bd 90 fb 0f 3d
       -0.37105817 -0.2182956 -0.038015228 0.035152018
0003d0 ca 79 df bd b9 ef a6 3d 72 00 09 be 10 18 67 3c
       -0.10911901 0.08151192 -0.13379076 0.014104858
0003e0 bb 1e 19 bd 88 6e 90 3c 46 46 77 bd 26 a9 d1 bd
       -0.037382822 0.01763083 -0.060369752 -0.10237341
0003f0 5d b6 5d be 2e 46 16 3d 8e 72 3e 3e f6 34 55 3e
       -0.21651597 0.036688022 0.18598387 0.20820984

critic.0.bias f4 [64]
000000 76 9c 72 39 de 68 18 be 2c 19 db bc 55 af 2b 3e
       0.00023137205 -0.14883754 -0.026745401 0.16766103
000010 77 d6 35 bd 3c af c1 bd 33 e6 83 bd 7f a2 89 bd
       -0.044393983 -0.094572514 -0.064403914 -0.06720447
000020 9a 70 a1 bd 51 e3 1d be 7f 8c 25 bd e2 6a 37 3e
       -0.07882805 -0.15418746 -0.04041719 0.17911866
000030 ec 63 39 be 69 93 49 bd 84 9f 80 3b 8d c4 0d 3d
       -0.18104523 -0.049212847 0.0039252657 0.034611274
000040 c2 96 c8 3c 81 4d dc 3d 63 00 0c 3e 77 e9 38 be
       0.02448595 0.1075697 0.13672023 -0.1805781
000050 22 f7 0d 3d 04 a6 0d bd cd 49 f8 3d cd 68 2b be
       0.034659512 -0.034582153 0.121234514 -0.16739197
000060 d8 0f 06 3e f2 be 1a 3a 27 76 f3 bd 49 c1 d2 bd
       0.13091981 0.0005903087 -0.1188777 -0.102907725
000070 4f b4 b5 bd bc bf 9f bd e0 32 01 be cb c5 06 bd
       -0.08872282 -0.07800242 -0.12617064 -0.032903474
000080 cf d4 2d 3d a6 db 3c bd ab 47 38 3d f1 45 a6 3d
       0.04243928 -0.04610791 0.044990223 0.08118809
000090 40 e3 46 be be c1 ad bd 51 ed bd bd 46 6d 9a 3b
       -0.19422626 -0.08484219 -0.0927378 0.0047127334
0000a0 8d 98 bd bd 64 26 c3 3a b5 7a 1c be a1 96 98 3d
       -0.092576124 0.0014888761 -0.15281184 0.07450605
0000b0 1b 2b 0a be e2 aa 01 bd 9b 9f 27 bd a0 a5 f0 bd
       -0.13493006 -0.031657107 -0.040923696 -0.117503405
0000c0 58 34 2e be 4d 49 a6 3c ca 67 b5 bd 14 42 d4 bd
       -0.17012155 0.020298624 -0.08857687 -0.10364166
0000d0 9b 4c d4 bd 01 d5 62 3d a2 2b 66 be 12 b7 27 be
       -0.10366174 0.055378918 -0.22477582 -0.1637843
0000e0 43 b4 2e be 66 c3 e0 3d f9 e6 09 be ba 2d 55 bd
       -0.17060952 0.10974769 -0.13467015 -0.05204556
0000f0 13 53 df bd 54 63 5e bd b1 1a f5 bd 40 6a 4a 3d
       -0.10904517 -0.054293945 -0.119679816 0.049417734

critic.2.weight f4 [64, 64]
000000 bc b3 1b bd 9b b6 8a bd 4d 43 93 3e cb 30 6c be
       -0.038013205 -0.067731105 0.28762284 -0.23065488
000010 9e f7 cb bd 8b 3d 9b 3d 67 66 59 3e 8e 93 82 3d
       -0.099593386 0.07580098 0.2123047 0.063758
000020 93 d7 9f be 54 df c8 3d 8b a6 72 3b 79 22 e2 3d
       -0.31219158 0.098082215 0.0037025537 0.110417314
000030 66 c9 f8 bd c0 55 55 3c 6f ed c9 3d 33 4c 02 be
       -0.12147789 0.013020933 0.0985974 -0.1272438
000040 05 33 09 3e 64 64 58 bc 2c d8 13 3e c3 80 c2 3b
       0.13398369 -0.013207529 0.14437932 0.0059357597
000050 9a c4 c7 3c f3 7d 55 bd 85 7f 77 3e 10 58 68 bd
       0.02438574 -0.052122068 0.24169739 -0.056724608
000060 12 01 43 3d ca cc 7b 3e 7a f6 2f bd 15 0c e7 3d
       0.047608443 0.2458984 -0.042959668 0.11281601
000070 0f 91 91 be d9 fa 9e be c1 41 23 bd 69 18 4c 3e
       -0.28430983 -0.31050757 -0.03985763 0.19931187
000080 ca 3c fb bd 9b b6 0c bd fe 71 9b 3d c5 b9 a7 3e
       -0.12267454 -0.034353834 0.07590102 0.32758918
000090 b4 de 44 3d ca 5d 06 3e ff f5 8e be 65 c2 6c be
       0.04806395 0.13121715 -0.27922055 -0.2312103
0000a0 34 ab 62 bd 72 77 e4 bd a3 04 e5 ba c7 2a 0e bd
       -0.055339053 -0.11155595 -0.0017472695 -0.034708764
0000b0 59 db 92 3a 36 1e 26 3e 2d fa 10 3f 37 b6 91 3d
       0.0011204287 0.16222462 0.5663174 0.07114833
0000c0 33 d7 80 3d 74 10 86 3e 1a 40 12 be 93 cb 2f 3c
       0.06291046 0.26184428 -0.14282265 0.010729688
0000d0 e0 74 90 bd f3 9c ab be 2a 78 13 bc dc 89 97 3d
       -0.07053542 -0.3351818 -0.009000817 0.073993415
0000e0 4a c9 88 3d 81 2e 06 3e b0 0e 67 3e 4b 06 b3 bd
       0.06679018 0.13103677 0.22564197 -0.08741435
0000f0 27 6a c4 bd 49 71 a9 bd f6 f5 3e 3d cd fa 1b bd
       -0.095905595 -0.082735606 0.046621285 -0.03808098
000100 0e e0 08 be 37 e0 b8 bd 3e 54 07 3d 56 1c 19 bd
       -0.1336672 -0.090271406 0.033039324 -0.03738054
000110 a3 45 92 bc e3 7e 31 bd 98 92 33 be 1d 09 54 3c
       -0.017855471 -0.0433339 -0.1753639 0.012941626
000120 19 a2 17 bd 24 48 2b be f3 84 96 bd 96 b4 91 bd
       -0.037019823 -0.16726738 -0.07349577 -0.07114522
000130 48 90 9b bc 72 38 0f bd 1e 96 46 3d 10 c2 08 3c
       -0.018989697 -0.03496594 0.048483007 0.008347049
000140 9e 71 8a 3d 3e 6c 75 3c ff 74 2d be 0b 89 83 3d
       0.06759952 0.01497942 -0.16939162 0.06422623
000150 17 e9 6c 3b 8d 49 30 3c 02 c5 23 3d 95 06 8c bd
       0.0036149675 0.010759723 0.039982803 -0.06837193
000160 f5 8c b1 bb 5c bd ea bd 12 08 30 3c d6 85 26 3d
       -0.0054184147 -0.11461899 0.010744112 0.04065498
000170 87 b9 46 be 89 fb 1d bd 55 9c a2 3c e8 17 90 3b
       -0.1940671 -0.03856996 0.019849936 0.004397381
000180 45 07 81 bd ef f3 c9 bd ca 69 2f be f8 7a 85 3d
       -0.06300215 -0.0986098 -0.17130199 0.06517595
000190 6f cd 54 3d 6d 41 fe bd eb e8 9f bc 19 6d 32 bd
       0.05195373 -0.12414823 -0.019520244 -0.043561075
0001a0 26 00 af bd 8c b3 03 3d fa 65 96 3d d2 26 1e 3a
       -0.0854495 0.03215365 0.07343669 0.00060330064
0001b0 0d ce a1 bd 83 28 22 3d 87 60 c2 bd 2a 2c 74 3c
       -0.07900629 0.039589416 -0.094910674 0.014903108
0001c0 32 db d2 ba 0f 48 59 3d d0 7b 9d bd 31 d0 22 bd
       -0.0016087054 0.053047236 -0.07689631 -0.039749328
0001d0 32 25 d0 bb 77 06 50 be f7 56 83 3d 70 4b 90 3d
       -0.0063520903 -0.20314966 0.064130716 0.070456386
0001e0 4c 4f 83 3d e6 6e 15 bd 70 32 8e 3d f5 ab 6a be
       0.06411609 -0.036482714 0.06943214 -0.22917159
0001f0 52 12 30 3d dc bd 15 be ad fc 21 be 23 ca 82 bd
       0.04298622 -0.14623207 -0.15819044 -0.06386211
000200 d6 a8 62 be 49 cb 01 be 27 c5 39 be e5 27 b4 3e
       -0.22134718 -0.12675203 -0.18141614 0.35186687
000210 84 e1 49 bc ac 37 45 bd 31 d9 4b be 43 cb e3 bd
       -0.0123218335 -0.048148796 -0.1990707 -0.111227535
000220 74 71 ce bd 24 cf 7c be b7 20 a2 be 07 52 b6 3c
       -0.10080233 -0.24688393 -0.31665584 0.02225591
000230 e2 2f 95 be a6 3a 10 3e c5 b8 0b 3d a0 3d 48 bd
       -0.29138094 0.14084873 0.034111757 -0.048886895
000240 b0 84 09 be a6 59 1f 3b ae c3 60 3e b6 e4 de bd
       -0.13429523 0.002431491 0.21949646 -0.10883467
000250 09 28 f0 bd 82 a8 b6 3d 28 05 96 bc 6b ba c6 3d
       -0.11726386 0.08918859 -0.018313006 0.09703525
000260 88 69 94 3e 4a 96 df be a2 8d 86 bd 46 f9 2a bd
       0.28986764 -0.4366935 -0.06569983 -0.041741632
000270 43 48 14 3c d9 c7 0f 3d 20 ff 39 be 19 b9 0e 3d
       0.009050432 0.0351027 -0.18163729 0.03484449
000280 f6 a7 80 bc d3 1c 12 be 9a c5 a1 3d 36 c8 78 3c
       -0.01570509 -0.14268808 0.07899018 0.015184453
000290 4e 3a a6 bd 17 7a 69 be 9f db b2 bd 11 b2 5e be
       -0.081165895 -0.2280048 -0.08733296 -0.21747614
0002a0 2f 3a 7e 3d b5 0a 9c be e3 99 e1 bd 57 e5 17 3e
       0.062067207 -0.3047692 -0.1101568 0.1483358
0002b0 fd af aa 3c 2d a8 86 be cc 31 34 3d 42 32 1c bd
       0.02083587 -0.26300183 0.043992803 -0.038133867
0002c0 9b 95 df 3d 8b 0f 01 bf 42 d4 75 3e b4 a8 bf bd
       0.10917207 -0.5041434 0.24006751 -0.093583494
0002d0 49 51 be bd f9 f5 5e be 48 7e 47 3d e7 f3 ed bd
       -0.09292848 -0.21773519 0.048704416 -0.11618786
0002e0 d6 28 18 3e 18 79 56 3e ac a0 f4 3c b4 c4 b0 3d
       0.14859328 0.20944631 0.02986177 0.08631268
0002f0 57 71 4a 3d 0b 0c 68 bd 53 bb 8c be 67 8f 11 3e
       0.049424496 -0.05665211 -0.27486667 0.1421486
000300 71 04 82 bd 87 d8 be 3d cc aa 08 be 9d e0 93 3e
       -0.063485034 0.09318643 -0.13346404 0.28882304
000310 33 57 21 3e 67 e4 a6 3d c3 44 3a be 42 19 69 3d
       0.1575592 0.08149033 -0.18190293 0.056908853
000320 ea 4a b8 be 67 2a 24 3d 4b 64 6c be 07 19 c3 3c
       -0.35994655 0.0400795 -0.23085134 0.023815645
000330 b0 bd 96 bd db f3 37 3c 16 4d a4 3b fd 2e c5 bc
       -0.07360399 0.011227573 0.005014072 -0.024070257
000340 88 8b 0c bd 68 56 52 3e 84 e6 39 3e 29 11 28 be
       -0.034312755 0.20540774 0.18154341 -0.16412796
000350 26 8a d2 3c 99 46 30 be 45 3f 18 3e 73 4c 3b 3c
       0.02570064 -0.17214431 0.14867885 0.011431801
000360 fe 16 66 be 89 9e fa be dc 0a f8 bc c3 2b 6c 3d
       -0.22469708 -0.48949078 -0.030278616 0.057658922
000370 91 51 a2 bc b9 aa 6e bd 9a 57 3d 3d 51 3a cf 3b
       -0.019814285 -0.058268283 0.04622612 0.0063240905
000380 d3 38 aa bd 9e 6b b7 3d 8c 43 99 3c 65 a5 0c 3e
       -0.083116196 0.08956073 0.018708967 0.13734968
000390 7a 7f b7 3b 3c 7f fb bd c2 fe e7 bd b1 e9 02 be
       0.005599913 -0.122801274 -0.11327888 -0.12784459
0003a0 16 69 9f 3d 66 e8 81 bd 50 fb dd 3b ad f0 62 3e
       0.077837154 -0.063431546 0.0067743436 0.22162123
0003b0 68 89 92 3d 35 7f dd be 6d a2 6f be 2d 72 0b 3d
       0.071551144 -0.43261114 -0.23401804 0.034044433
0003c0 e4 00 90 3d b5 86 cf bd 77 66 de 3d c3 39 5f bd
       0.0703142 -0.10133115 0.10859387 -0.054498445
0003d0 79 b9 d9 3d fa c5 60 bc 3d 6f 7e bc 15 b1 93 3d
       0.10631079 -0.013719076 -0.015529451 0.0721151
0003e0 70 d5 6c 3d 9d 00 ab 3d 76 0b 3c be 87 b4 a8 bd
       0.057820737 0.08349726 -0.18363747 -0.08237558
0003f0 77 a6 d0 bd e4 2d 22 bd 0b 88 50 3e e8 e3 40 bc
       -0.10188001 -0.039594546 0.20364396 -0.011773087

critic.2.bias f4 [64]
000000 35 45 ad bd b9 99 1b be 9e 1e 25 3e a1 46 09 3e
       -0.08460466 -0.1519536 0.16124961 0.13405849
000010 59 32 9c bd 7d 55 31 3c a8 9e a5 bd 73 99 35 3d
       -0.076267906 0.010823605 -0.08086902 0.044335794
000020 32 32 09 bd ad a1 be bd 60 bf 87 bd dd ab cf 3c
       -0.033495136 -0.09308181 -0.06628299 0.025350505
000030 9d 20 8c bd 21 d6 a6 3d a0 44 0e 3e ef be 14 be
       -0.06842158 0.081463106 0.13893366 -0.1452596
000040 0c 3b 6c bd 68 7a aa bd 8a 85 f2 bd 21 55 83 bd
       -0.0576735 -0.083241284 -0.11841877 -0.064127214
000050 45 3d f9 bc 72 4f 25 be a8 6c 35 3d 28 75 33 bd
       -0.030424723 -0.16143587 0.044293076 -0.0438129
000060 cc 74 bb bb a1 72 ea bd b6 e4 4b 3c 3f ea 15 be
       -0.0057207104 -0.11447645 0.012444666 -0.14640139
000070 83 a5 d9 3c 52 62 19 3b 36 0a 71 3e 44 34 be 3d
       0.02656818 0.002340455 0.23539051 0.092873126
000080 da 3a 18 3e 26 e1 db 3d 6d 99 7a 3d 85 82 b0 3d
       0.148662 0.10736303 0.061181474 0.086186446
000090 7e 0b a1 bd 43 07 26 3d 51 2b 97 bd 4f 05 9b bb
       -0.0786352 0.04053427 -0.07381309 -0.0047308574
0000a0 ae be 09 be 35 9f 99 3d 35 bd 91 3d 3f 80 0b 3c
       -0.13451645 0.075010695 0.071161665 0.008514463
0000b0 2f b4 db bd ae 64 59 bb b1 ed aa b9 11 da 0d be
       -0.10727727 -0.0033171582 -0.0003260202 -0.13852717
0000c0 0f 70 0f be 7d 2f dc bd a4 44 06 bd 69 6d 1f 3e
       -0.1400759 -0.10751245 -0.032780305 0.1556908
0000d0 08 74 5a bd ac aa d3 3c 55 7e 90 3c 9e c7 0a 3d
       -0.053333312 0.025838219 0.017638365 0.033881776
0000e0 02 18 0a be fa 11 c5 bb f2 28 ef bd fc 0d 33 be
       -0.13485721 -0.006014106 -0.116777316 -0.17485803
0000f0 55 a1 88 bc 68 73 c6 bd 4a d5 5b bd f2 bf 80 3d
       -0.016678492 -0.09689981 -0.053670205 0.06286611

critic.4.weight f4 [1, 64]
000000 77 6d bd bd e5 67 8b 3c 57 18 1d 3e 66 70 9d 3d
       -0.092493944 0.017017314 0.15341316 0.07687454
000010 e2 c0 9c 3d ba e9 8b 3b e3 a0 b5 b9 3d 53 87 bb
       0.07653977 0.0042698057 -0.0003464288 -0.004129796
000020 74 10 1b 3c 05 c7 64 bc 3a 83 10 3b 07 b5 a3 bd
       0.009464372 -0.013963466 0.0022050873 -0.079935126
000030 b0 ba 9a 3b 51 a4 20 be 1a af 2f be 77 5d 93 bd
       0.004721962 -0.15687682 -0.1715664 -0.071955614
000040 07 4e 4c bd 22 10 3e bd 1d df 6c bd 17 17 0d be
       -0.0498791 -0.046402104 -0.057829965 -0.1377834
000050 57 43 b8 3d 9f 26 34 bc 77 49 c7 bd 94 77 80 3c
       0.08997219 -0.010995536 -0.09730809 0.01568202
000060 3a 32 c2 bd 86 4d f4 3d 88 aa ae bd 72 4d 10 3b
       -0.09482236 0.11928849 -0.0852862 0.0022018817
000070 1b 17 51 3d f5 08 2a be 79 29 0e 3e cb 55 00 3d
       0.051047426 -0.1660498 0.13883008 0.03133182
000080 e5 59 49 be 3a 27 9d 3d 7d 67 96 be ea 1f 1b bc
       -0.19663198 0.076734975 -0.2937583 -0.009468058
000090 c0 76 fa bd d2 1f a0 bc 72 bd 41 be 72 f5 e4 3b
       -0.12229681 -0.019546423 -0.18919924 0.006987267
0000a0 6d 72 4c 3c 93 16 05 be f0 93 f9 bd 3b bc a1 3a
       0.012478453 -0.12996893 -0.1218642 0.0012339422
0000b0 d8 8b a2 bc 3d 0b 27 bb 26 b6 74 ba b4 00 a5 3d
       -0.019842073 -0.0025488876 -0.00093350036 0.08056775
0000c0 34 e0 b1 3c 2d b8 b7 3d d7 58 ff bb 06 06 3d ba
       0.021713354 0.089706756 -0.007792573 -0.00072106754
0000d0 78 41 5a 3d 1f f5 18 3d a6 39 a3 3d 7f 25 94 3c
       0.053285092 0.03734314 0.0796998 0.018084286
0000e0 1c 07 bc bd 5b 11 66 bd 5f d0 46 bc 8e 4d e4 3b
       -0.091810435 -0.056168895 -0.0121346405 0.006967253
0000f0 78 f3 ab bc 71 c3 6a b9 65 9b ee 39 ef fc 0a 3c
       -0.020990118 -0.00022388787 0.00045510675 0.008483156
