Models/Reward_shaping_vm/RS_disprop_vm_meander_10_0/32000.pth (torch, 78437 bytes, 11 tensors)

actor.0.weight f4 [64, 62]
0.008094509 0.00048745502 -0.16994944 -0.14629908 -0.2067 -0.028958127 0.009194333 0.05195838
-0.032724686 -0.09585899 -0.021139093 -0.17048739 -0.09797532 0.0063950378 0.01066388 0.059538957
-0.052195918 0.02035401 0.029208153 0.0007929693 0.022931278 -0.100628816 -0.10955132 -0.09960788
-0.11158473 -0.11828149 -0.09621046 -0.14261903 -0.11332447 0.07791736 0.05896157 0.03236665
0.11164108 0.18395555 0.05594937 -0.019223085 0.20121704 0.07840767 0.12295595 0.00124797
0.2791143 0.3497401 -0.24211 -0.0080801 -0.07159844 -0.10527119 0.018078126 -0.0016276813
-0.045398068 0.06101327 -0.07532833 0.15258867 -0.14668563 0.04621565 -0.084927246 0.021872725
-0.11324641 -0.13064957 0.08198215 0.18105716 -0.18222952 -0.16819318 0.26787403 0.081568904
-0.07416191 0.10890133 0.1340447 0.47370422 -0.08153242 0.5864219 0.19550142 0.09635166
0.1527253 0.35659686 -0.11857385 -0.2990355 -0.16569671 -0.2685717 0.044716273 0.036019783
-0.080758214 -0.009664337 0.08804566 0.041769896 0.10936492 -0.036770646 -0.069577836 -0.022770125
-0.12113894 -0.07087722 -0.23347601 0.29612377 0.03999657 -0.22350742 -0.18714087 0.11785972
-0.042931303 0.11964784 -0.05574498 0.012532604 0.10706584 0.045917932 0.028502055 -0.030874977
0.024272654 0.12138739 -0.10400795 -0.10434706 0.05895101 0.08049602 -0.026121816 -0.01073929
0.12004729 0.014270076 0.12616631 0.041722506 0.07687336 -0.024626296 -0.10266093 0.05053966
0.09629653 0.07646249 -0.109362416 -0.05574626 0.26852345 -0.035414513 -0.16356896 -0.13875818
-0.13775086 0.3584225 0.06321899 0.41036174 0.12646206 -0.02806906 -0.21675795 -0.12284927
0.31677243 -0.17903592 -0.09541497 -0.28786436 -0.006046914 0.20817044 0.114299595 -0.14939186
0.028660411 0.03157481 0.11220035 -0.0564972 0.044493057 -0.08220228 -0.11863774 0.017850779
-0.22466967 0.1276408 -0.16843064 -0.29352534 -0.018428601 0.124663085 0.09711478 0.035184387
-0.06413775 -0.062260736 0.009392595 -0.043298144 -0.43198976 -0.27348974 -0.06160353 -0.078567855
-0.15208915 -0.26026276 0.068965085 0.111329444 0.112999335 -0.0073322244 0.08467357 -0.0060383566
0.08754173 -0.050469473 0.1389298 0.10876636 -0.09611072 -0.045341704 0.12182888 0.13742508
-0.010473746 -0.029406087 0.025658246 -0.0763864 0.0344589 0.07883094 0.009024083 -0.18786217
-0.1658359 -0.46254885 0.29752442 0.25414073 0.3260511 0.61551416 0.19679846 0.32346433
0.05580248 0.4893433 0.103853896 0.0972299 -0.017042944 -0.03788097 0.20200379 -0.10975949
-0.08154025 0.046839908 0.122933246 -0.04493116 -0.121507116 -0.015690556 0.35996413 -0.013331985
-0.003964359 0.10307236 -0.03603313 -0.02780385 0.058635257 -0.03437856 -0.2055555 -0.28671977
-0.08717038 -0.034462683 0.14584534 0.07990335 0.054297145 0.0139891375 0.067397 0.020414853
0.0069008395 0.117621556 0.12925637 -0.053751703 0.03032034 -0.025091628 -0.037526786 0.04920219
-0.1662966 0.01587616 0.12363118 0.08925801 0.018584704 0.058589924 0.07659553 -0.0592864
-0.05020759 0.1835542 -0.15579511 -0.061533503 0.27496395 0.6096844 -0.025543995 0.6172837
00000000: d59e 043c 1b91 ff39 3a07 2ebe 6dcf 15be
00000010: 2aa9 53be 9839 edbc d4a3 163c 4fd2 543d
00000020: 520a 06bd b851 c4bd e42b adbc 3f94 2ebe
00000030: 49a7 c8bd 778d d13b 8eb7 2e3c 1fdf 733d
00000040: 63cb 55bd 74bd a63c f045 ef3c 45df 4f3a
00000050: 60da bb3c 7b16 cebd 715c e0bd 37ff cbbd
00000060: 8986 e4bd 913d f2bd fd09 c5bd b90a 12be
00000070: a916 e8bd 2393 9f3d b081 713d e492 043d
00000080: 14a4 e43d d85e 3c3e 2b2b 653d bb79 9dbc
00000090: d70b 4e3e 3394 a03d 54d0 fb3d ed92 a33a
000000a0: 12e8 8e3e 2211 b33e afeb 77be 6562 04bc
000000b0: 34a2 92bd 6c98 d7bd 9418 943c ec57 d5ba
000000c0: 53f3 39bd 0de9 793d bd45 9abd 3440 1c3e
000000d0: c234 16be 9f4c 3d3d 56ee adbd 6e2e b33c
000000e0: bced e7bd 00c9 05be 42e6 a73d 0c67 393e
000000f0: 609a 3abe d53a 2cbe c926 893e 990d a73d
00000100: 33e2 97bd a907 df3d 0443 093e 5c89 f23e
00000110: 78fa a6bd bf1f 163f 8631 483e 0554 c53d
00000120: 0564 1c3e dd93 b63e d9d6 f2bd 2e1b 99be
00000130: 66ac 29be 3b82 89be 6928 373d 7b89 133d
00000140: 9064 a5bd 2b57 1ebc 4851 b43d e916 2b3d
00000150: b7fa df3d d19c 16bd d37e 8ebd 6a88 babc
00000160: b117 f8bd 1328 91bd 5614 6fbe 899d 973e
00000170: 72d3 233d 21df 64be dba1 3fbe 7060 f13d
00000180: bcd8 2fbd ed09 f53d d954 64bd 8d55 4d3c
00000190: 5645 db3d 7114 3c3d 247d e93c 85ed fcbc
000001a0: 72d7 c63c f499 f83d 1f02 d5bd e9b3 d5bd
000001b0: 9d76 713d 19db a43d 6bfd d5bc d9f3 2fbc
000001c0: 5bdb f53d 09cd 693c be31 013e 38e5 2a3d
000001d0: c86f 9d3d 16bd c9bc e53f d2bd ad02 4f3d
000001e0: 1d37 c53d 5e98 9c3d 67f9 dfbd 3156 64bd
000001f0: e87b 893e cf0e 11bd 9f7e 27be a016 0ebe
00000200: 900e 0dbe 2783 b73e f578 813d ef1a d23e
00000210: 457f 013e 16f1 e5bc ccf5 5dbe 6698 fbbd
00000220: ff2f a23e 3155 37be ec68 c3bd f562 93be
00000230: 3125 c6bb a22a 553e e815 ea3d 2efa 18be
00000240: 3dc9 ea3c 9754 013d 4cc9 e53d 9c69 67bd
00000250: 5a3e 363d ab59 a8bd 58f8 f2bd cc3b 923c
00000260: ce0f 66be 45b4 023e 1579 2cbe f448 96be
00000270: 94f7 96bc 5c4f ff3d 1de4 c63d 811d 103d
00000280: a75a 83bd 1d05 7fbd 66e3 193c 6559 31bd
00000290: c32d ddbe d906 8cbe fc53 7cbd 2fe8 a0bd
000002a0: 42bd 1bbe 2941 85be 913d 8d3d b100 e43d
000002b0: 326c e73d 2843 f0bb 5669 ad3d 68dd c5bb
000002c0: 1449 b33d 14b9 4ebd 9d43 0e3e e6c0 de3d
000002d0: b2d5 c4bd 39b8 39bd 6b81 f93d 29b9 0c3e
000002e0: 139a 2bbc 09e5 f0bc 3e31 d23c 7970 9cbd
000002f0: c724 0d3d 1e72 a13d bfd9 133c f15e 40be
00000300: e3d0 29be 34d3 ecbe 1f55 983e bc1e 823e
00000310: 2bf0 a63e 5692 1d3f 8985 493e 1e9d a53e
00000320: 2491 643d 348b fa3e 5ab1 d43d 7820 c73d
00000330: a59d 8bbc 1329 1bbd 15da 4e3e 95c9 e0bd
00000340: 93fe a6bd 34db 3f3d 6dc4 fb3d bc09 38bd
00000350: b9d8 f8bd 7b89 80bc 384d b83e 666e 5abc
00000360: 74e7 81bb 9a17 d33d 7a97 13bd e6c4 e3bc
00000370: 862b 703d 88d0 0cbd 247d 52be efcc 92be
00000380: 6286 b2bd be28 0dbd 7b58 153e 5ea4 a33d
00000390: af66 5e3d b232 653c 7007 8a3d 0d3d a73c
000003a0: 7020 e23b 92e3 f03d c85b 043e bf2a 5cbd
000003b0: 5d62 f83c f58c cdbc b0b5 19bd 3c88 493d
000003c0: a849 2abe b80e 823c 5832 fd3d e7cc b63d
000003d0: f33e 983c fdfb 6f3d 1ede 9c3d 4cd6 72bd
000003e0: 79a6 4dbd a2f5 3b3e c188 1fbe 8e0a 7cbd
000003f0: 13c8 8c3e 4714 1c3f a441 d1bc 4e06 1e3f

actor.0.bias f4 [64]
-0.07045109 -0.1291703 0.10749041 0.022635778 -0.06080493 0.018074505 -0.06570859 -0.051148996
-0.060664278 0.037750725 0.11887397 -0.021586025 0.06830178 0.03704583 -0.022030069 0.023395335
0.05976592 0.0014061833 -0.05676689 0.09199853 0.035400335 0.0902434 0.0319937 -0.012517603
-0.06273464 -0.034922503 0.06707759 0.07538945 -0.03338873 0.21840234 0.3033802 0.12381533
0.098682344 0.08952077 -0.11970318 0.076772526 0.08253387 -0.019849328 -0.04809648 0.1116445
0.13882457 0.006298887 0.025917105 0.19240253 0.17035466 -0.026887754 0.040098965 -0.009700246
0.0674263 -0.09766918 -0.033299822 0.10530141 -0.05290661 0.044050295 0.045363866 -0.107063375
-0.12621482 0.019799164 -0.004881257 0.13639675 0.00403983 0.07313507 0.06372413 0.016813874
00000000: a948 90bd 3845 04be ef23 dc3d ab6e b93c
00000010: 970e 79bd fc10 943c 3a92 86bd 9c81 51bd
00000020: 1b7b 78bd 81a0 1a3d 3274 f33d 2dd5 b0bc
00000030: cee1 8b3d 5ebd 173d 6778 b4bc 93a7 bf3c
00000040: 1ccd 743d af4f b83a 6684 68bd ba69 bc3d
00000050: f1ff 103d 88d1 b83d d30b 033d a216 4dbc
00000060: 057b 80bd e60a 0fbd fa5f 893d c965 9a3d
00000070: 9fc2 08bd dda4 5f3e a654 9b3e e492 fd3d
00000080: f819 ca3d aa56 b73d f126 f5bd ea3a 9d3d
00000090: 8507 a93d 0f9b a2bc d100 45bd dfa5 e43d
000000a0: 0728 0e3e e566 ce3b 1c50 d43c 2b05 453e
000000b0: 7471 2e3e b543 dcbc d03e 243d c8ed 1ebc
000000c0: cd16 8a3d c706 c8bd 6565 08bd 44a8 d73d
000000d0: 9ab4 58bd 156e 343d 76cf 393d 0b44 dbbd
000000e0: 753e 01be db31 a23c f4f2 9fbb 97ab 0b3e
000000f0: 8d60 843b d7c7 953d cc81 823d 40bd 893c

actor.2.weight f4 [64, 64]
-0.43306902 -0.061406188 -0.023414532 -0.047208633 -0.13386188 0.0039245337 0.08453505 0.08236444
0.08310202 0.10555338 -0.010752791 -0.08770056 0.095730506 -0.25582612 -0.10086415 -0.041795075
0.060774315 0.1948786 0.19180112 0.08078778 -0.20347993 0.14196445 0.2315439 0.15033187
-0.09160693 -0.13815169 0.16936138 -0.17568894 0.0015715848 -0.07624995 -0.30897015 0.12318604
0.11493828 0.08267538 -0.06578262 0.11410323 0.26380676 -0.048601836 -0.0976462 0.018820904
-0.20452176 0.11694122 -0.09202147 0.08475139 0.07606576 -0.018994931 0.10443257 0.040869065
-0.020801647 -0.10519584 0.16500363 -0.015215323 0.3028982 0.12484997 -0.15738425 -0.08241189
0.009738776 0.077447064 0.068287075 -0.14180128 0.047050077 0.092217065 0.06996541 -0.026481446
0.23386459 -0.08454743 0.024384018 -0.03280287 0.03467359 -0.08009643 0.01816516 -0.017585145
0.08800241 -0.076083675 -0.21382287 0.24175788 0.15753494 -0.32733375 0.29398057 0.11604702
-0.13315183 0.021346573 0.02371914 0.11401217 0.020365596 0.17066261 -0.006311264 -0.010624101
0.092105225 -0.1993646 -0.044973254 0.21062176 -0.16572262 -0.020223973 -0.22764963 -0.103531905
-0.06665526 -0.03363379 -0.260889 0.16739194 -0.22313222 -0.23546162 0.06241634 -0.10525486
-0.16264746 0.00022801751 0.16504046 0.21579395 0.23855229 0.1663294 0.25033224 0.17726983
-0.0771473 0.16144808 0.122783065 0.15330662 0.08001172 0.16618982 0.084626645 0.11852694
-0.07629067 -0.1173154 -0.13017707 -0.098883316 -0.011273162 0.21654138 0.22040042 0.16723083
-0.18345697 0.28436947 0.24970707 -0.20022911 0.3142498 0.18446481 -0.061348632 0.06984176
-0.062591225 0.08264793 0.17567982 0.022384556 0.024484579 0.012005936 0.13029505 0.080761276
-0.04040459 -0.14951873 -0.12555468 -0.26472148 0.2765746 0.16631782 0.17068969 0.19193083
0.15687168 0.3371071 0.040128637 0.09617886 0.11963075 0.049801894 0.14172141 0.3579689
0.09563822 0.27175167 0.20844674 -0.11144884 -0.20079306 0.004096223 -0.08784436 0.01951758
-0.43469834 -0.0029790227 0.23517069 -0.057857987 0.13671282 -0.16790305 -0.37191686 -0.07054043
0.119520634 0.10068085 0.137533 -0.051200394 0.11505873 -0.24455296 -0.17581183 0.16581854
0.11472386 0.009108278 0.0065436075 -0.30041212 0.032992404 0.036372453 -0.060387794 0.01618044
0.083784856 0.04542953 0.0170619 0.018249318 -0.010087843 0.08688635 0.12979268 -0.1640058
-0.12393983 0.22635618 -0.078133985 0.14456113 0.23560819 -0.24776338 0.00028380833 0.24209087
-0.16857477 -0.04993718 -0.172719 0.1762137 -0.21833308 -0.08892589 0.12316979 0.06863689
-0.17887515 -0.009334918 -0.103088476 -0.014285627 -0.13205384 0.3406108 0.062750936 -0.090730004
-0.04965205 -0.04585517 -0.25556672 0.15491825 -0.22985135 0.0744914 -0.09827116 0.017621879
0.15583153 0.22559598 -0.097691074 0.24290451 0.25169274 0.35600036 0.07194073 -0.025926985
-0.00065414974 0.038671963 -0.021286987 0.2091118 0.094988324 -0.050266515 0.22045492 0.005624158
0.004050401 0.083159246 0.21982902 0.17299582 0.035004515 0.28970757 0.19984058 0.07461914
00000000: 39bb ddbe 0e85 7bbd d5cf bfbc d75d 41bd
00000010: 1713 09be 6099 803b b620 ad3d b0ae a83d
00000020: 6431 aa3d 5f2c d83d 792c 30bc 5a9c b3bd
00000030: 5b0e c43d a4fb 82be dd91 cebd 5031 2bbd
00000040: 7dee 783d 418e 473e 8367 443e 1074 a53d
00000050: 0b5d 50be 215f 113e d819 6d3e 99f0 193e
00000060: 6a9c bbbd a377 0dbe 126d 2d3e cde7 33be
00000070: a3fd cd3a ef28 9cbd 5631 9ebe f648 fc3d
00000080: c364 eb3d b651 a93d 0ab9 86bd f4ae e93d
00000090: ae11 873e b812 47bd bbfa c7bd 4c2e 9a3c
000000a0: 276e 51be e17e ef3d c175 bcbd 2392 ad3d
000000b0: 5dc8 9b3d 429b 9bbc bee0 d53d 5266 273d
000000c0: 3768 aabc eb70 d7bd b6f6 283e b149 79bc
000000d0: 7915 9b3e 57b1 ff3d 5629 21be 91c7 a8bd
000000e0: 638f 1f3c 919c 9e3d 18da 8b3d 5b34 11be
000000f0: 95b7 403d 4ddc bc3d 064a 8f3d 9eef d8bc
00000100: 337a 6f3e 3427 adbd fec0 c73c 4d5c 06bd
00000110: e505 0e3d 9909 a4bd 1acf 943c b90e 90bc
00000120: 9c3a b43d c2d1 9bbd 62f4 5abe 618f 773e
00000130: d750 213e 4a98 a7be 9f84 963e 0faa ed3d
00000140: f458 08be 02df ae3c a44e c23c 367f e93d
00000150: c0d5 a63c 2ec2 2e3e b8ce cebb b610 2ebc
00000160: aaa1 bc3d 3c26 4cbe e035 38bd 3bad 573e
00000170: 31b3 29be bfac a5bc fc1c 69be 8908 d4bd
00000180: 8e82 88bd 96c3 09bd 3e93 85be cb68 2b3e
00000190: c67c 64be da1c 71be 47a8 7f3d dc8f d7bd
000001a0: 0e8d 26be fc17 6f39 5e00 293e 17f9 5c3e
000001b0: 0d47 743e 4152 2a3e 8c2b 803e 3986 353e
000001c0: 67ff 9dbd a552 253e b075 fb3d 69fc 1c3e
000001d0: 2fdd a33d aa2d 2a3e bc50 ad3d 41be f23d
000001e0: 483e 9cbd 0e43 f0bd 234d 05be 5683 cabd
000001f0: 12b3 38bc 06bd 5d3e a6b0 613e 8f3e 2b3e
00000200: 25dc 3bbe e098 913e 36b3 7f3e dc08 4dbe
00000210: 5ae5 a03e 58e4 3c3e b448 7bbd 3209 8f3d
00000220: d42f 80bd 5143 a93d 69e5 333e d15f b73c
00000230: e293 c83c 8cb4 443c 116c 053e 2b66 a53d
00000240: 497f 25bd 701b 19be 6891 00be 9389 87be
00000250: 309b 8d3e 384f 2a3e 47c9 2e3e 8489 443e
00000260: f8a2 203e 4d99 ac3e ed5d 243d 6cf9 c43d
00000270: f700 f53d 12fd 4b3d 6b1f 113e b347 b73e
00000280: f9dd c33d 0923 8b3e 1073 553e 4a3f e4bd
00000290: b29c 4dbe 9c39 863b bee7 b3bd 55e3 9f3c
000002a0: c890 debe b53b 43bb 96d0 703e 7ffc 6cbd
000002b0: 72fe 0b3e c7ee 2bbe e36b bebe 8077 90bd
000002c0: 3cc7 f43d c331 ce3d 73d5 0c3e 81b7 51bd
000002d0: e9a3 eb3d 176c 7abe 0408 34be 56cc 293e
000002e0: 58f4 ea3d e33a 153c c26b d63b 9ecf 99be
000002f0: 0b23 073d 48fb 143d 3159 77bd d88c 843c
00000300: 6597 ab3d 5114 3a3d 66c5 8b3c 987f 953c
00000310: 7b47 25bc 78f1 b13d 5fe8 043e 23f1 27be
00000320: 2ad4 fdbd eac9 673e b604 a0bd d507 143e
00000330: 4643 713e afb5 7dbe 1ccc 9439 abe6 773e
00000340: dd9e 2cbe ee8a 4cbd 40dd 30be 5d71 343e
00000350: b592 5fbe c71e b6bd 7140 fc3d 7f91 8c3d
00000360: 0c2b 37be 7cf1 18bc 0d20 d3bd 430e 6abc
00000370: 1f39 07be 8a64 ae3e 9083 803d a7d0 b9bd
00000380: f35f 4bbd a1d2 3bbd a4d9 82be e4a2 1e3e
00000390: 275e 6bbe f28e 983d 6442 c9bd c25b 903c
000003a0: 4d92 1f3e a202 673e 4212 c8bd f6bb 783e
000003b0: dfdd 803e ae45 b63e a955 933d d464 d4bc
000003c0: 3f7b 2bba 7e66 1e3d 0c62 aebc 6721 563e
000003d0: 3d89 c23d 43e4 4dbd efbe 613e db4a b83b
000003e0: 3ab9 843b 654f aa3d dc1a 613e d125 313e
000003f0: e560 0f3d 8d54 943e 02a3 4c3e ebd1 983d

actor.2.bias f4 [64]
-0.038329396 -0.02477365 -0.052352544 0.06463424 0.030238615 0.10406675 0.15699503 0.09331488
-0.11660493 -0.10162016 0.02617538 0.13013884 0.0221481 -0.0724752 0.031467848 -0.04623662
0.030209841 0.08772327 0.020052906 -0.021878744 0.099080674 -0.08479296 0.065957315 0.05621767
0.069177136 0.051656216 -0.10516337 0.11188256 0.08578275 0.004365793 -0.050385356 -0.048266936
0.13516775 -0.020969244 0.021285424 0.03751175 0.06797532 0.20277911 -0.1277729 -0.07559373
-0.10614791 0.01741561 -0.060655244 -0.05190685 -0.087407395 -0.08755157 -0.06672295 0.07498638
0.082476005 -0.015842251 -0.009274226 0.13810782 0.049383603 0.015287661 -0.13700157 -0.14219278
0.058878697 -0.096852526 0.20951742 0.13507438 0.040791195 0.0047557964 -0.06088237 0.058002423
00000000: 49ff 1cbd 1cf2 cabc 9f6f 56bd f55e 843d
00000010: f9b6 f73c f320 d53d 4ec3 203e df1b bf3d
00000020: 91ce eebd 3b1e d0bd c06d d63c 1e43 053e
00000030: ef6f b53c e16d 94bd 6ee4 003d 9c62 3dbd
00000040: a17a f73c 42a8 b33d fe45 a43c 0d3b b3bc
00000050: cfea ca3d eea7 adbd a114 873d 8044 663d
00000060: beac 8d3d 7895 533d e55f d7bd af22 e53d
00000070: deae af3d ed0e 8f3b e060 4ebd 8db3 45bd
00000080: 6a69 0a3e b1c7 abbc c55e ae3c eca5 193d
00000090: a536 8b3d 54a5 4f3e e6d6 02be e3d0 9abd
000000a0: 1364 d9bd 2eab 8e3c a271 78bd 479c 54bd
000000b0: a602 b3bd 3d4e b3bd 0ba6 88bd 7692 993d
000000c0: 2ee9 a83d 9cc7 81bc ecf2 17bc 236c 0d3e
000000d0: 7646 4a3d 1979 7a3c 244a 0cbe fc9a 11be
000000e0: ca2a 713d 9e5a c6bd bc8b 563e f050 0a3e
000000f0: ab14 273d 83d6 9b3b cb5f 79bd f393 6d3d

actor.4.weight f4 [36, 64]
-0.30304262 -0.46999884 0.1656812 -0.7341477 -0.19456959 -0.034622714 -0.65047616 0.070529394
0.24121074 -0.13840029 0.3640013 0.19566779 0.005917358 0.061399896 0.20489927 -0.00076441036
-0.046323888 0.35491168 0.39072615 -0.093007565 -0.28430504 -0.08578759 -0.18365024 -0.18483733
0.12701397 -0.29948217 -0.04724337 0.12479405 0.379597 0.054064617 -0.08378714 -0.24665329
-0.38073146 0.0502493 0.22193204 -0.19555938 -0.07651334 -0.653102 -0.037298318 -0.09820408
0.06436695 -0.07965217 -0.0028593945 -0.2901939 0.07462091 -0.017704826 0.13447012 -0.07090282
0.052587163 0.17470045 0.28751418 -0.19231535 -0.09022405 -0.052809585 0.104343265 -0.0021685674
0.036662772 0.30894095 -0.18799771 -0.55344605 -0.65600145 0.016869118 -0.052572764 0.32313353
-0.34173158 0.11707283 -0.39843276 -0.3077872 0.31844327 -0.080638394 -0.60022146 -0.41321707
0.022595529 -0.3094867 0.0052084946 -0.37621647 -0.11342511 -0.056490622 0.023263497 -0.05679506
0.01811201 0.09035532 0.25507417 0.18416357 -0.08309778 -0.72337985 0.31115827 0.30086657
0.093963645 0.123074934 0.08066301 0.215896 0.23123467 0.25138468 -0.0001616329 -0.24338919
-0.25215474 -0.08018801 0.2139515 0.2680751 0.055333022 -0.44498783 0.057117622 0.10565964
-0.090747476 -0.078939386 0.15440148 0.3025991 -0.16714193 -0.060112268 0.31209636 0.1663088
-0.05682909 0.2758872 -0.13310896 -0.039817397 0.036464535 0.09219167 -0.053647455 -0.058566134
-0.08204411 0.43640947 -0.26260713 -0.45170754 -0.40827456 0.0101443 -0.051039785 0.11696631
0.23188494 -0.42483747 -0.13003208 -0.44797486 0.36171943 0.16237812 -0.39578426 -0.3139172
-0.1963796 0.3702596 -0.078059666 0.21717905 0.018440763 -0.12471367 -0.4172067 0.048631992
0.08897531 0.1079369 0.19555408 -0.17561044 0.05703312 -0.48532504 0.013222632 -0.3522561
0.30364174 0.21756652 -0.024666265 0.2587056 0.15927684 -0.25737527 0.05482006 0.31190804
0.23406903 -0.0941387 -0.039673418 -0.0029854581 -0.10353977 -0.61250716 -0.06336836 -0.10467057
-0.04720802 0.101286955 -0.24824342 0.44109115 0.052591976 0.096906304 -0.40319005 -0.059207983
-0.13289593 0.14545564 0.33965698 0.09369334 0.027041173 -0.027462035 -0.11515207 0.0341745
-0.04082856 -0.054830752 -0.24482803 -0.5685927 -0.25099915 0.033138655 -0.115133144 0.22829506
0.29260826 -0.21284142 -0.16012724 -0.25380868 -0.018141994 0.054419424 -0.27748725 -0.45518586
0.03665504 0.17128487 -0.039751384 -0.19418707 0.12419413 -0.055744402 -0.39782342 0.00080273964
0.06377699 0.04826626 0.014543552 -0.07711157 -0.05347541 -0.31815994 -0.21969168 -0.35642114
0.046633128 -0.0022297855 0.032508627 -0.14354151 -0.070445776 -0.011577716 0.054244086 -0.09044753
0.17235382 -0.082083166 0.059294403 0.013990937 -0.11421977 -0.28406668 0.021469248 -0.0019582426
-0.077688396 0.02365505 -0.09534028 0.1037957 0.008724514 -0.066661395 -0.3749033 0.035558965
0.011607614 0.040568393 0.053052146 -0.21527524 -0.027940495 -0.11230468 0.11633223 -0.038125344
-0.087615095 -0.2645748 -0.16290031 -0.5452776 -0.29374486 -0.0548667 -0.07923931 0.10070453
00000000: 6728 9bbe b0a3 f0be 55a8 293e 1bf1 3bbf
00000010: 403d 47be 8cd0 0dbd 9b85 26bf b771 903d
00000020: f3ff 763e ceb8 0dbe 615e ba3e 235d 483e
00000030: 66e6 c13b 757e 7b3d 1dd1 513e b662 48ba
00000040: 1ebe 3dbd fcb6 b53e 420d c83e c07a bebd
00000050: 6e90 91be 67b1 afbd cf0e 3cbe ff45 3dbe
00000060: f30f 023e ba55 99be 4482 41bd 0694 ff3d
00000070: 8a5a c23e dc72 5d3d 9898 abbd ae92 7cbe
00000080: 3cef c2be 36d2 4d3d 2742 633e b840 48be
00000090: 07b3 9cbd b131 27bf 1fc6 18bd 381f c9bd
000000a0: d2d2 833d ad20 a3bd ae64 3bbb 4b94 94be
000000b0: d9d2 983d b609 91bc 89b2 093e 7f35 91bd
000000c0: a365 573d ade4 323e 0f35 933e 51ee 44be
000000d0: 63c7 b8bd dd4e 58bd ecb1 d53d 861e 0ebb
000000e0: b42b 163d 822d 9e3e 7982 40be a4ae 0dbf
000000f0: b6ef 27bf 1b31 8a3c 8a56 57bd c271 a53e
00000100: 71f7 aebe e1c3 ef3d 61ff cbbe 4996 9dbe
00000110: ff0a a33e be25 a5bd 1da8 19bf 3091 d3be
00000120: 421a b93c 0a75 9ebe 05ac aa3b 729f c0be
00000130: 6d4b e8bd b662 67bd 1793 be3c f0a1 68bd
00000140: a35f 943c 360c b93d 1599 823e 6095 3c3e
00000150: 2b2f aabd 6c2f 39bf 2350 9f3e 2f0b 9a3e
00000160: 0370 c03d b60e fc3d a632 a53d d713 5d3e
00000170: c8c8 6c3e 7eb5 803e 007c 29b9 043b 79be
00000180: 6d1a 81be 9d39 a4bd 1a16 5b3e 2441 893e
00000190: e1a4 623d 72d5 e3be 2bf4 693d 1564 d83d
000001a0: d0d9 b9bd f9aa a1bd 6c1b 1e3e 45ee 9a3e
000001b0: 4127 2bbe 4838 76bd 18cb 9f3e db4c 2a3e
000001c0: 9fc5 68bd 1641 8d3e b74d 08be 9117 23bd
000001d0: d65b 153d fcce bc3d 6fbd 5bbd 0be3 6fbd
000001e0: be06 a8bd 1071 df3e 7174 86be 3646 e7be
000001f0: 5d09 d1be 4734 263c 180f 51bd 088c ef3d
00000200: 3f73 6d3e 4c84 d9be 2127 05be f65c e5be
00000210: 4a33 b93e 7346 263e 3ca4 cabe c1b9 a0be
00000220: bc17 49be ab92 bd3e bfdd 9fbd 2f64 5e3e
00000230: 1511 973c e169 ffbd 1e9c d5be 5732 473d
00000240: b038 b63d 050e dd3d 543f 483e 39d3 33be
00000250: 909b 693d 867c f8be bda3 583c e95a b4be
00000260: ee76 9b3e c2c9 5e3e e810 cabc 0f75 843e
00000270: 7819 233e b1c6 83be 008b 603d 69b2 9f3e
00000280: cbaf 6f3e cacb c0bd 9880 22bd ada7 43bb
00000290: a90c d4bd 45cd 1cbf 45c7 81bd 865d d6bd
000002a0: 325d 41bd 896f cf3d 8633 7ebe b3d6 e13e
000002b0: af6a 573d d076 c63d ed6e cebe 1284 72bd
000002c0: df15 08be 53f2 143e 85e7 ad3e 4be2 bf3d
000002d0: 7385 dd3c 10f8 e0bc d9d4 ebbd 8ffa 0b3d
000002e0: d93b 27bd 3696 60bd 33b4 7abe 4b8f 11bf
000002f0: f682 80be 66bc 073d edca ebbd 2ec6 693e
00000300: c0d0 953e 1af3 59be 65f8 23be 36f3 81be
00000310: 859e 94bc e7e6 5e3d cf12 8ebe 1f0e e9be
00000320: 9823 163d 4d65 2f3e 59d2 22bd fad8 46be
00000330: 7e59 fe3d 3e54 64bd 83af cbbe f26e 523a
00000340: 839d 823d d8b2 453d 1448 6e3c acec 9dbd
00000350: 0809 5bbd dce5 a2be dbf6 60be d57c b6be
00000360: 6102 3f3d 9821 12bb c427 053d 8cfc 12be
00000370: e045 90bd 76b0 3dbc 0c2f 5e3d 8e3c b9bd
00000380: 857d 303e 381b a8bd b0de 723d 3e3a 653c
00000390: 0eec e9bd 3071 91be 47e0 af3c dc55 00bb
000003a0: 181b 9fbd 3cc8 c13c c441 c3bd d792 d43d
000003b0: 44f1 0e3c c585 88bd 53f3 bfbe 47a6 113d
000003c0: dd2d 3e3c 0b2b 263d 354d 593d 1d71 5cbe
000003d0: 77e3 e4bc ffff e5bd 983f ee3d 5229 1cbd
000003e0: 8b6f b3bd 5976 87be 57cf 26be 5097 0bbf
000003f0: ba65 96be e8bb 60bd 3848 a2bd 2d3e ce3d

actor.4.bias f4 [36]
-0.18320036 -0.026846053 -0.097531356 -0.031216921 0.03816488 0.024118336 0.11157423 0.09147614
0.012940967 -0.10806827 0.1164694 -0.027917406 0.090434946 0.07059221 0.02071439 0.024298623
-0.2904447 0.056691665 -0.2260807 -0.08895298 -0.27909586 0.20928784 0.037835144 -0.074958086
0.06048808 -0.09156663 -0.108298115 0.14763375 -0.058591556 -0.03886483 -0.039090175 0.13611521
0.054993775 0.16058822 0.05274001 0.12501307
00000000: e098 3bbe 41ec dbbc 85be c7bd a1ba ffbc
00000010: c752 1c3d d193 c53c 0881 e43d d857 bb3d
00000020: 5a06 543c e652 ddbd 8287 ee3d 0bb3 e4bc
00000030: f535 b93d a692 903d 39b1 a93c e80d c73c
00000040: 2bb5 94be 8535 683d b381 67be fb2c b6bd
00000050: a7e5 8ebe 8d4f 563e 06f9 1a3d a083 99bd
00000060: 59c2 773d 4987 bbbd 67cb ddbd 4d2d 173e
00000070: b3fd 6fbd ba30 1fbd 051d 20bd c961 0b3e
00000080: 2741 613d 3d71 243e e905 583d 6d03 003e

critic.0.weight f4 [64, 62]
-0.0863399 0.029803928 -0.04971676 -0.0021761323 -0.02882299 -0.0075446093 0.06538024 0.005076794
-0.09654049 0.1354353 -0.19617508 0.16295171 0.13358988 0.106611826 0.13368699 0.015957901
0.0923814 0.13666217 -0.09754503 0.138794 -0.13178194 -0.08517108 -0.0021153344 0.0072634425
-0.06934267 0.14388782 -0.08365009 -0.0059250044 0.038861416 0.023627628 0.050600428 0.060019843
-0.20071307 -0.13754915 0.06119763 -0.08793955 -0.13270564 -0.08707214 -0.014762995 0.05517647
-0.023598336 -0.04707814 -0.20434736 0.03900365 -0.15842116 -0.105982155 0.11381642 -0.17803036
-0.12055512 0.086780414 -0.14076276 -0.13418007 -0.023324803 0.07427222 0.055253703 0.004126457
0.026276486 -0.025155729 0.019193009 0.02700978 0.06860918 -0.07435541 -0.27972782 -0.060393006
0.11650679 -0.23772109 0.19336198 -0.11065454 -0.18058382 -0.2811056 0.0016278174 -0.06345974
-0.098394394 -0.28225595 -0.22096029 0.023753854 -0.0357585 -0.12144272 -0.043313272 -0.059674084
0.12297932 0.06958545 0.06458308 0.0029310875 -0.058013685 0.03460132 -0.024766628 0.06332424
-0.025713965 0.006390426 -0.084953114 0.07537524 -0.086445846 0.04239652 0.07085001 0.09522952
0.004732153 0.06385215 0.13497451 0.06849007 -0.20785247 -0.02415782 -0.10832092 0.0018242064
-0.29203913 -0.22998169 0.034774166 -0.06789225 -0.09038147 -0.029773608 0.030787382 0.067670055
-0.1966014 -0.08389527 -0.16302785 0.030843597 -0.21698813 -0.19338258 -0.118211046 0.095787525
0.044755 -0.0152605595 0.11921311 0.17416698 -0.12468748 0.111198 -0.055068474 -0.009222188
-0.017554201 0.14991316 0.07930346 -0.00968831 -0.0978713 0.052035898 0.07267892 -0.06605482
-0.08406278 0.0573972 -0.025363758 0.09888698 -0.099205896 -0.0772997 0.023240231 0.019812586
-0.08240203 0.032897837 0.07249445 0.06329711 -0.1177935 0.07761664 -0.033393934 0.029883238
0.11357299 0.5945528 -0.043281022 0.52986443 -0.14383078 -0.024630677 0.050496075 0.046604574
-0.034500573 -0.018384002 -0.16093646 0.08452398 0.01435278 -0.09431939 0.06428087 -0.013886391
-0.090791 -0.064159885 -0.0009493937 -0.14196247 -0.12729388 -0.085424684 -0.16900924 -0.0016142664
0.046323735 -0.08072324 0.014584692 0.14073676 0.20426627 -0.051183112 -0.11626626 -0.04563149
-0.00075390056 0.003309305 -0.020975756 0.088765144 -0.15946342 -0.05212417 0.02783384 0.008560708
0.13473837 0.14105558 0.18465127 -0.09562831 0.12059966 0.15146166 0.17797047 0.17213628
0.15408091 0.28261676 -0.0035064165 0.09206274 0.1110379 0.046354678 -0.06406627 0.040502902
0.104050875 0.086383425 -0.07697826 0.085524224 0.0014518871 -0.119319156 0.17546163 0.44924948
0.2550805 0.551155 0.058893804 -0.004866558 -0.0062361504 0.082652815 0.001570374 0.06831529
-0.13548283 0.044367168 -0.13148655 0.13381553 0.010208991 0.004246509 -0.0015428144 0.057372797
-0.050312273 0.097133465 0.061631195 0.083172396 -0.15279955 0.084507994 -0.00083583954 0.0856547
0.08585527 -0.050751433 0.17705338 -0.08222615 0.13850309 0.016626662 0.093906485 0.02872726
-0.028870143 -0.08164765 -0.08609864 -0.024903389 -0.12969379 0.10439642 0.301814 0.14227666
00000000: f9d2 b0bd 5e27 f43c cda3 4bbd 719d 0ebb
00000010: 311e ecbc c538 f7bb 13e6 853d 3c5b a63b
00000020: 05b7 c5bd 8daf 0a3e 1fe2 48be d0dc 263e
00000030: c9cb 083e 4d57 da3d 3ee5 083e 25ba 823c
00000040: 7632 bd3d 2bf1 0b3e b0c5 c7bd 0420 0e3e
00000050: d8f1 06be 2d6e aebd 6ca1 0abb 2c02 ee3b
00000060: 8803 8ebd 5457 133e bd50 abbd 8a26 c2bb
00000070: 262d 1f3d ba8e c13c 6542 4f3d 5ed7 753d
00000080: ba87 4dbe afd9 0cbe 5eaa 7a3d a719 b4bd
00000090: fde3 07be e152 b2bd 7de0 71bc b900 623d
000000a0: 4c51 c1bc 02d5 40bd 6f40 51be 4bc2 1f3d
000000b0: 2839 22be 2c0d d9bd 9518 e93d 974d 36be
000000c0: 9ae5 f6bd eeb9 b13d 1d24 10be 8066 09be
000000d0: a813 bfbc 091c 983d b551 623d 3b37 873b
000000e0: c941 d73c 6313 cebc a83a 9d3c 9d43 dd3c
000000f0: f882 8c3d a647 98bd 7c38 8fbe a85e 77bd
00000100: 1d9b ee3d 286d 73be af00 463e d99e e2bd
00000110: f7ea 38be 13ed 8fbe 7d5c d53a 2ef7 81bd
00000120: 0083 c9bd da83 90be 6a43 62be 7197 c23c
00000130: 8177 12bd f6b6 f8bd 4269 31bd d06c 74bd
00000140: 95dc fb3d d182 8e3d 2244 843d 7d17 403b
00000150: c29f 6dbd 1dba 0d3d 62e3 cabc 24b0 813d
00000160: 18a6 d2bc c766 d13b e6fb adbd 555e 9a3d
00000170: 850a b1bd f9a7 2d3d cf19 913d b207 c33d
00000180: 2d10 9b3b ebc4 823d c236 0a3e 8644 8c3d
00000190: 47d7 54be 9fe6 c5bc 5cd7 ddbd 361a ef3a
000001a0: 2786 95be 5280 6bbe 5b6f 0e3d 180b 8bbd
000001b0: ec19 b9bd c8e7 f3bc d235 fc3c 9996 8a3d
000001c0: e151 49be 49d1 abbd c6f0 26be b6ab fc3c
000001d0: 2332 5ebe 1506 46be a218 f2bd 402c c43d
000001e0: 0551 373d 6d07 7abc 0126 f43d d458 323e
000001f0: 265c ffbd c7bb e33d 7b8f 61bd a918 17bc
00000200: d4cd 8fbc d682 193e da69 a23d b8bb 1ebc
00000210: c070 c8bd 9823 553d b0d8 943d c047 87bd
00000220: 1b29 acbd 5419 6b3d a8c7 cfbc 4285 ca3d
00000230: 762c cbbd 4e4f 9ebd 4c62 be3c 014e a23c
00000240: 65c2 a8bd e2bf 063d f877 943d eaa1 813d
00000250: b83d f1bd 79f5 9e3d 14c8 08bd b1cd f43c
00000260: f598 e83d 9d34 183f 7147 31bd 32a5 073f
00000270: 6048 13be 46c6 c9bc f9d4 4e3d 70e4 3e3d
00000280: 7950 0dbd 0c9a 96bc 87cc 24be e91a ad3d
00000290: ec27 6b3c 862a c1bd b0a5 833d bf83 63bc
000002a0: a2f0 b9bd 4266 83bd bce0 78ba 9c5e 11be
000002b0: 5459 02be 23f3 aebd c210 2dbe cb95 d3ba
000002c0: f5bd 3d3d 3a52 a5bd a2f4 6e3c 4c1d 103e
000002d0: 2d2b 513e 62a5 51bd 011d eebd 16e8 3abd
000002e0: 69a1 45ba ede0 583b 59d5 abbc 80ca b53d
000002f0: 614a 23be 2780 55bd cb03 e43c 3642 0c3c
00000300: dbf8 093e e070 103e 3915 3d3e c7d8 c3bd
00000310: f4fc f63d c418 1b3e e43d 363e 7e44 303e
00000320: 63c7 1d3e 25b3 903e e8cb 65bb 648b bc3d
00000330: d767 e33d 67de 3d3d 2d35 83bd 5fe6 253d
00000340: a018 d53d cbe9 b03d c7a6 9dbd 5327 af3d
00000350: 3f4d be3a 9a5d f4bd 37ac 333e 0704 e63e
00000360: e999 823e 7e18 0d3f a13a 713d a677 9fbb
00000370: 9f58 ccbb e145 a93d 02d5 cd3a e3e8 8b3d
00000380: 03bc 0abe 59ba 353d 69a4 06be f006 093e
00000390: 9d43 273c 4d26 8b3b 4338 caba bdff 6a3d
000003a0: 3e14 4ebd e9ed c63d fe70 7c3d 4a56 aa3d
000003b0: 7c77 1cbe 8712 ad3d 3e1c 5bba bb6b af3d
000003c0: e3d4 af3d bce0 4fbd 7b4d 353e 2f66 a8bd
000003d0: c1d3 0d3e a334 883c 0b52 c03d 6e55 eb3c
000003e0: 1481 ecbc e236 a7bd 7c54 b0bd 3102 ccbc
000003f0: 73ce 04be cacd d53d 5d87 9a3e f9b0 113e

critic.0.bias f4 [64]
-0.12196166 0.36464015 -0.11317969 0.038711656 -0.020248823 -0.0814447 0.11997548 -0.12630634
0.053460933 -0.011026781 0.08651018 -0.04955041 -0.05324535 0.056965772 0.10294525 -0.01115459
0.07507225 -0.022576757 0.009705365 -0.048478436 -0.07422362 -0.031975716 -0.09917647 0.14280301
-0.0044719125 -0.108494356 -0.060189985 0.064505495 0.04342415 -0.06027969 -0.10907671 -0.029938458
-0.103659876 -0.027638147 -0.16507268 -0.13931379 -0.10959535 -0.1587324 -0.04758187 0.040511113
-0.14608939 0.15684189 0.22227708 0.18785371 0.15544775 0.26049682 -0.16097379 0.06511797
0.01962661 0.009652019 0.09069852 -0.12861407 0.14339966 0.26985273 -0.027794193 0.08775269
-0.06987396 -0.07549004 0.3402341 -0.008438263 0.06776173 -0.08398492 -0.1277606 -0.0546368
00000000: 09c7 f9bd 1db2 ba3e c1ca e7bd 1d90 1e3d
00000010: dce0 a5bc 7bcc a6bd b4b5 f53d 7356 01be
00000020: daf9 5a3d aca9 34bc 402c b13d 5ff5 4abd
00000030: cc17 5abd f154 693d f6d4 d23d bec1 36bc
00000040: 7bbf 993d e4f2 b8bc 4003 1f3c 5391 46bd
00000050: 8e02 98bd f8f8 02bd 081d cbbd f43a 123e
00000060: 1f89 92bb 4a32 debd c689 76bd 751b 843d
00000070: 86dd 313d d6e7 76bd 9c63 dfbd 7f41 f5bc
00000080: a14b d4bd 6569 e2bc d008 29be 46a8 0ebe
00000090: 8773 e0bd bf8a 22be 35e5 42bd fbee 253d
000000a0: 7598 15be 299b 203e 9a9c 633e b95c 403e
000000b0: b22d 1f3e d75f 853e 50d6 24be 925c 853d
000000c0: fcc7 a03c 8023 1e3c 25c0 b93d 68b3 03be
000000d0: 5cd7 123e 232a 8a3e a6b0 e3bc afb7 b33d
000000e0: 141a 8fbd 869a 9abd 2a33 ae3e a440 0abc
000000f0: a9c6 8a3d 4900 acbd add3 02be d6ca 5fbd

critic.2.weight f4 [64, 64]
0.035581715 -0.32211736 0.18195094 0.19381475 0.045211084 -0.08772403 -0.066956684 -0.17813408
-0.097050264 -0.0040942277 0.005623008 0.054947924 -0.13795921 -0.051498216 -0.031439107 -0.13382375
-0.092355154 0.06949535 -0.11009553 -0.17551193 -0.023804288 0.024936121 -0.31242242 0.011911312
0.056280255 0.24733837 -0.07586956 0.1494401 -0.1407471 0.06889072 -0.06594721 0.09539512
0.23726138 0.059766624 -0.006866772 -0.042139992 -0.1061974 0.03655961 -0.027489603 0.16972834
-0.04065001 0.052599598 -0.034191057 -0.14776218 -0.08235012 -0.031153584 -0.08824604 0.0048236563
-0.25854433 0.051910527 -0.21932244 -0.09957005 -0.105361655 -0.084337786 0.15257569 -0.059925485
-0.08413661 -0.07408781 0.162564 0.1080274 -0.22228853 0.123870105 -0.05673766 0.10154349
-0.017661296 -0.0032996216 -0.047523916 -0.055831883 -0.16792162 -0.00572881 -0.095140606 0.005024622
-0.16825667 -0.09493657 0.07501323 0.0021988454 -0.01739709 0.048939403 0.03530107 -0.006189917
0.026526675 0.053729773 0.06814744 0.03506401 -0.027905159 0.07039654 -0.06963866 0.08819062
-0.13123646 0.0072672875 0.023279533 0.0030132304 -0.027420199 0.019065304 0.043080833 -0.041648988
-0.15133257 0.07888173 0.05258443 0.12538394 0.06713276 0.06386899 -0.10937462 0.058395118
0.0230423 -0.1294656 0.10947445 0.17840727 0.07916905 0.11239623 0.018030176 -0.06549237
-0.018958667 -0.03160741 -0.05783931 -0.013593829 -0.028660078 -0.08009461 -0.085782304 -0.02671418
0.096003585 0.08540973 0.16513267 -0.12061773 0.04203277 0.009914636 0.052992783 0.025198441
0.03852078 -0.07832242 -0.043262787 0.039318047 0.041749112 -0.1201755 -0.10162975 -0.16506365
0.04591982 0.05570166 -0.040844828 0.104587086 -0.18092427 -0.09479159 -0.077993624 -0.11780805
-0.013380629 -0.14873011 -0.19302309 -0.17372397 -0.015962824 0.061743066 -0.11013605 -0.029627796
-0.07877098 0.11491674 -0.11643176 0.18836236 -0.11575885 -0.10832163 -0.045359936 -0.03709514
0.34852222 0.016938675 -0.060806107 -0.12290591 0.060225658 -0.14678982 0.064662986 0.13998872
-0.11030169 0.06778893 0.052727707 -0.29567024 0.029026253 -0.0005332567 -0.048862975 0.1494492
-0.17583817 -0.04553833 -0.14159118 -0.11712758 0.00030252122 -0.10675959 0.10641065 -0.13661326
0.058065657 -0.2047725 -0.08544475 0.054738123 -0.14814955 0.18126881 -0.03926002 0.027145296
-0.13683222 -0.07933077 -0.027557543 -0.11251703 -0.05102217 0.040498894 -0.051569 -0.07204649
0.06152764 -0.07130963 -0.009842133 0.017315032 -0.10079959 -0.15649198 -0.014293401 0.09011047
-0.050969582 0.070659466 -0.11519183 -0.07737856 -0.06995988 0.105639435 -0.14117807 -0.029963922
-0.13786843 -0.07097696 0.052499257 -0.049907435 -0.11170596 -0.030107563 -0.12177755 0.10086662
0.0005126817 -0.09084095 -0.029307576 -0.06648946 -0.09820516 -0.04154169 0.012892851 0.06469067
0.07603477 -0.01677689 -0.09707024 -0.024117492 0.03011164 -0.031129032 -0.13905092 0.03830275
0.012231955 0.052230246 -0.0329101 0.05417728 0.038734443 0.052327678 -0.07669465 0.048796315
0.025242526 -0.025262496 -0.11784423 -0.14314528 0.040674772 0.106188 -0.029143808 0.051068746
00000000: 22be 113d 91ec a4be 5951 3a3e 6077 463e
00000010: 422f 393d a8a8 b3bd 9620 89bd c868 36be
00000020: 4ac2 c6bd df28 86bb 3641 b83b 1311 613d
00000030: 2e45 0dbe cbef 52bd 4bc6 00bd 1809 09be
00000040: b324 bdbd 9453 8e3d c479 e1bd 66b9 33be
00000050: 3601 c3bc d646 cc3c d5f5 9fbe aa27 433c
00000060: 2086 663d 4546 7d3e 8061 9bbd d306 193e
00000070: 0220 10be 9416 8d3d 550f 87bd 845e c33d
00000080: a6f4 723e d9cd 743d a902 e1bb fc9a 2cbd
00000090: 067e d9bd 88bf 153d e031 e1bc 44cd 2d3e
000000a0: a080 26bd ad72 573d ec0b 0cbd f84e 17be
000000b0: 2ea7 a8bd cd35 ffbc 57ba b4bd c30f 9e3b
000000c0: ec5f 84be 22a0 543d 1096 60be 62eb cbbd
000000d0: dac7 d7bd 4ab9 acbd cd3c 1c3e 6d74 75bd
000000e0: d14f acbd 5abb 97bd 2d77 263e 783d dd3d
000000f0: 9b9f 63be 9caf fd3d c065 68bd 09f6 cf3d
00000100: 6cae 90bc 773e 58bb 70a8 42bd f9af 64bd
00000110: a5f3 2bbe beb8 bbbb 14d9 c2bd 96a5 a43b
00000120: 7a4b 2cbe 1b6e c2bd 89a0 993d 811a 103b
00000130: 5884 8ebc af74 483d db97 103d cad4 cabb
00000140: 784e d93c c013 5c3d e390 8b3d 489f 0f3d
00000150: 5c99 e4bc 102c 903d b79e 8ebd 499d b43d
00000160: da62 06be 6d22 ee3b b8b4 be3c 9e79 453b
00000170: 53a0 e0bc d72e 9c3c 8775 303d 2198 2abd
00000180: edf6 1abe bf8c a13d c562 573d a664 003e
00000190: e77c 893d bfcd 823d cdff dfbd b82f 6f3d
000001a0: 35c3 bc3c a192 04be 2434 e03d 65b0 363e
000001b0: 6223 a23d ff2f e63d 05b4 933c dd20 86bd
000001c0: 354f 9bbc c676 01bd eae8 6cbd a7b8 5ebc
000001d0: 8ac8 eabc a508 a4bd a2ae afbd b2d7 dabc
000001e0: 879d c43d 4ceb ae3d 8a18 293e 6e06 f7bd
000001f0: 8e2a 2c3d ff70 223c f60e 593d f66c ce3c
00000200: f7c7 1d3d 8167 a0bd 5234 31bd f60b 213d
00000210: 1e01 2b3d 931e f6bd 4223 d0bd 7206 29be
00000220: 6c16 3c3d 6d27 643d e84c 27bd c131 d63d
00000230: 3644 39be 1822 c2bd 1fbb 9fbd 5945 f1bd
00000240: 6d3a 5bbc b54c 18be d8a7 45be b2e4 31be
00000250: 78c4 82bc 4ce6 7c3d 028f e1bd feb5 f2bc
00000260: ae52 a1bd 7859 eb3d c673 eebd 10e2 403e
00000270: fa12 edbd bbd7 ddbd 57cb 39bd 13f1 17bd
00000280: 8171 b23e fac2 8a3c d30f 79bd 18b6 fbbd
00000290: 2eaf 763d 1250 16be 076e 843d 3459 0f3e
000002a0: dae5 e1bd ecd4 8a3d 02f9 573d 1762 97be
000002b0: 77c8 ed3c 40ca 0bba 8b24 48bd 3609 193e
000002c0: ec0e 34be 6686 3abd 47fd 10be 96e0 efbd
000002d0: b69b 9e39 c6a4 dabd d4ed d93d 59e4 0bbe
000002e0: 41d6 6d3d e2af 51be a8fd aebd 1535 603d
000002f0: 84b4 17be 889e 393e 1dcf 20bd d05f de3c
00000300: bf1d 0cbe 2c78 a2bd 5bc0 e1bc 546f e6bd
00000310: 9ffc 50bd 2be2 253d 043a 53bd 1c8d 93bd
00000320: 6804 7c3d c90a 92bd e640 21bc 41d8 8d3c
00000330: 0470 cebd 6f3f 20be de2e 6abc d78b b83d
00000340: 7bc5 50bd e9b5 903d b2e9 ebbd a778 9ebd
00000350: 2047 8fbd 7d59 d83d fc90 10be e676 f5bc
00000360: 622d 0dbe 5e5c 91bd 7609 573d bd6b 4cbd
00000370: 18c6 e4bd 23a4 f6bc 8266 f9bd 2993 ce3d
00000380: 7d65 063a d20a babd 7116 f0bc a02b 88bd
00000390: c91f c9bd 9e27 2abd 893c 533c 8b7c 843d
000003a0: 1eb8 9b3d b06f 89bc c3cc c6bd 0c92 c5bc
000003b0: b0ac f63c 5002 ffbc 5d63 0ebe 58e3 1c3d
000003c0: 8a68 483c 62ef 553d becc 06bd ffe8 5d3d
000003d0: 02a8 1e3d 8c55 563d 1612 9dbd a5de 473d
000003e0: 6ac9 ce3c 4bf3 cebc 5158 f1bd ad94 12be
000003f0: 979a 263d 1879 d93d ffbe eebc 762d 513d

critic.2.bias f4 [64]
-0.07978275 -0.04300854 -0.03144975 -0.13000686 -0.087461896 0.04232321 0.020796644 -0.13766529
-0.06256112 -0.09227159 0.01669797 -0.062898405 -0.0105398 -0.1284065 -0.07560753 -0.05011218
-0.12083586 -0.028949583 0.017226545 0.036050834 0.03214988 -0.032965593 -0.020051952 -0.13320778
0.067312695 -0.08859649 0.141109 -0.1079038 -0.0039720507 -0.04117531 -0.107707776 -0.032878723
-0.0024949687 0.057689615 0.07733468 0.058612205 0.0019215976 -0.119156554 -0.014525694 0.011981209
0.13615587 -0.0011926261 -0.010464059 0.02818607 0.088425174 0.030871686 -0.0670423 -0.1258981
0.12598163 0.039295744 0.061335526 -0.0627145 0.09249008 0.021568907 0.061768193 -0.035999868
0.12316395 0.17166875 -0.13020056 -0.060303334 0.06379053 -0.042534623 0.0023757059 0.058749944
00000000: 2365 a3bd b929 30bd 74d1 00bd 8520 05be
00000010: 391f b3bd 1a5b 2d3d b95d aa3c 21f8 0cbe
00000020: 0b20 80bd e3f8 bcbd 2eca 883c e1d0 80bd
00000030: 20af 2cbc fe7c 03be 1fd8 9abd 6e42 4dbd
00000040: cb78 f7bd ad27 edbc af1e 8d3c 0aaa 133d
00000050: 98af 033d ee06 07bd fe43 a4bc 9f67 08be
00000060: 3ddb 893d 1472 b5bd e17e 103e abfc dcbd
00000070: fa27 82bb 71a7 28bd e595 dcbd d7ab 06bd
00000080: a182 23bb f24b 6c3d a561 9e3d 5a13 703d
00000090: 1ede fb3a 5a08 f4bd 2dfd 6dbc d54c 443c
000000a0: 726c 0b3e e451 9cba 7271 2bbc 79e6 e63c
000000b0: 4218 b53d 9ee6 fc3c 794d 89bd 6eeb 00be
000000c0: 5401 013e 93f4 203d f63a 7b3d 7670 80bd
000000d0: 706b bd3d 47b1 b03c a500 7d3d 9974 13bd
000000e0: 623d fc3d efc9 2f3e 4c53 05be a100 77bd
000000f0: 9ca4 823d c938 2ebd bbb1 1b3b c8a3 703d

critic.4.weight f4 [1, 64]
-0.3389963 0.003083943 -0.18676233 -0.002474721 -0.1344481 -0.018855236 -0.12969701 -0.07721781
0.00041410953 0.008190742 0.0045534465 -0.054177485 -0.0070959493 -0.22045511 -0.013086586 -0.2129583
0.054495323 -0.18316273 -0.2669782 -0.29841575 0.101228036 -0.045307815 -0.1836915 0.004223505
0.060769506 0.008876666 0.090383306 -0.012891259 -0.06958146 0.025622172 -0.024451483 0.0030975982
-0.01932021 0.0062482324 0.019260675 0.001583751 -0.062439997 -0.0056162765 0.022143971 -0.104232736
0.07237911 0.0060731485 -0.02312392 -0.14115505 0.013043133 -0.23269187 0.14577763 -0.22929345
0.14676423 -0.19708541 0.009182287 -0.0023593423 0.011804503 0.088329494 -0.16251166 -0.07495676
0.07193233 0.19428402 -0.13663545 -0.021632552 -0.001495109 0.08778347 -0.30322865 -0.17524098
00000000: ec90 adbe fa1b 4a3b a03e 3fbe ee2e 22bb
00000010: c3ac 09be 4c76 9abc 4bcf 04be 5f24 9ebd
00000020: d71c d939 7632 063c 1435 953b 36e9 5dbd
00000030: 2385 e8bb fcbe 61be 1f69 56bc be11 5abe
00000040: 7d36 5f3d 038f 3bbe 5eb1 88be f3c9 98be
00000050: a550 cf3d b094 39bd a019 3cbe 5465 8a3b
00000060: 72e9 783d 706f 113c e21a b93d dc35 53bc
00000070: b980 8ebd 97e5 d13c 7a4e c8bc 1301 4b3b
00000080: 6b45 9ebc f9bd cc3b 90c8 9d3c de95 cf3a
00000090: 15c1 7fbd be08 b8bb 4667 b53c f977 d5bd
000000a0: 803b 943d 4301 c73b 606e bdbc f38a 10be
000000b0: ddb2 553c c746 6ebe bb46 153e e7cb 6abe
000000c0: 5d49 163e c2d0 49be 4e71 163c 329f 1abb
000000d0: ad67 413c 18e6 b43d 7569 26be ee82 99bd
000000e0: 4251 933d 64f2 463e 2aea 0bbe c036 b1bc
000000f0: 89f7 c3ba d2c7 b33d c940 9bbe 5f72 33be
