Models/Reward_shaping_vm/RS_disprop_vm_meander_10_0/45000.pth (torch, 78437 bytes, 11 tensors)

actor.0.weight f4 [64, 62]
000000 e4 45 6a 3e e7 11 85 3e 5c 3d 6e be 85 cb ae bd
       0.22878224 0.2599022 -0.23265594 -0.08534912
000010 9b 50 cb bd 9a d8 29 3c d4 a3 16 3c e4 08 94 3c
       -0.09927484 0.010366583 0.009194333 0.018070646
000020 1f af d3 bd ce 3b e1 bd 6f d3 3b be c8 d2 47 be
       -0.10336136 -0.10997735 -0.18342374 -0.19514
000030 b3 ca f1 bd e6 48 9e bc 6b e4 d6 bd 71 10 17 bc
       -0.1180624 -0.01932187 -0.10492786 -0.0092202285
000040 63 cb 55 bd 74 bd a6 3c f0 45 ef 3c 45 df 4f 3a
       -0.052195918 0.02035401 0.029208153 0.0007929693
000050 60 da bb 3c 7b 16 ce bd 71 5c e0 bd 37 ff cb bd
       0.022931278 -0.100628816 -0.10955132 -0.09960788
000060 89 86 e4 bd 91 3d f2 bd fd 09 c5 bd b9 0a 12 be
       -0.11158473 -0.11828149 -0.09621046 -0.14261903
000070 a9 16 e8 bd 23 93 9f 3d b0 81 71 3d e4 92 04 3d
       -0.11332447 0.07791736 0.05896157 0.03236665
000080 34 20 f5 3d 2e ad 58 3e 2b 2b 65 3d d6 3a 92 3b
       0.11969033 0.21159813 0.05594937 0.00446258
000090 8b bc 9c 3e cd 20 74 3d 5a f8 0a 3e f9 0e 45 bd
       0.30612597 0.059601594 0.13571301 -0.048109982
0000a0 fe 7b 94 3e eb 14 1b 3f d3 96 82 be b3 dd 14 3e
       0.2900085 0.60578793 -0.25505695 0.14537697
0000b0 fa 9b c9 bd f6 87 df bd ed 6c 51 3d a6 1f 89 3d
       -0.09844203 -0.10914604 0.05112927 0.066954896
0000c0 cc 15 ef bd 99 0e 2e 3c 17 b7 26 bd 67 cc 24 3e
       -0.11674079 0.010623598 -0.04070195 0.16093598
0000d0 bf c4 1f be 08 3e 8a 3d be 5a bb bc 1e 71 78 3b
       -0.15602396 0.06750113 -0.022870418 0.003790922
0000e0 ff 66 1f be 1a 31 d1 bd 14 c2 12 3e 6d a2 32 3e
       -0.15566634 -0.102144435 0.14331847 0.17444773
0000f0 32 56 34 be 88 34 1b be c1 94 6a 3e 9e e7 bf 3c
       -0.17611006 -0.15156758 0.22908308 0.023425873
000100 d1 64 49 be 85 33 26 3e 46 62 17 3e 9d 84 06 3f
       -0.19667365 0.1623059 0.14783582 0.525461
000110 78 fa a6 bd 71 57 26 3f 2f 43 9e 3e 8c 71 f5 3d
       -0.08153242 0.64977175 0.30910632 0.11984548
000120 b6 c7 4c 3e eb ee bd 3e 3e ed b2 bc 86 19 6a be
       0.19998059 0.37096342 -0.021841642 -0.22861299
000130 70 96 89 be 74 6c a9 be 69 28 37 3d 7b 89 13 3d
       -0.26872587 -0.33090556 0.044716273 0.036019783
000140 90 64 a5 bd 2b 57 1e bc 48 51 b4 3d e9 16 2b 3d
       -0.080758214 -0.009664337 0.08804566 0.041769896
000150 b7 fa df 3d d1 9c 16 bd d3 7e 8e bd 6a 88 ba bc
       0.10936492 -0.036770646 -0.069577836 -0.022770125
000160 b1 17 f8 bd 13 28 91 bd 7d 17 65 be 76 2f c7 3e
       -0.12113894 -0.07087722 -0.22372241 0.38903397
000170 36 c3 6b 3d 73 8b 8b be 3a e7 43 be e9 ba d1 3d
       0.057559215 -0.2725483 -0.19131175 0.102407284
000180 bc d8 2f bd c0 08 d8 3d 97 34 14 bd 79 b3 aa 3c
       -0.042931303 0.10548544 -0.036182966 0.020837532
000190 b0 d1 a3 3d e6 41 52 3c 7b 9b 67 3c d8 74 c9 bd
       0.07998979 0.012833094 0.0141361905 -0.09836739
0001a0 81 21 11 bd b4 2b 05 3e f9 cb de bd ce b4 c1 bd
       -0.035432342 0.13004953 -0.108787484 -0.09458314
0001b0 db 69 88 3b 8b 42 96 3d b0 9b 19 bd c6 90 9a bd
       0.0041630096 0.07336911 -0.03750199 -0.075471446
0001c0 6f ea 46 3d c6 ce 44 bc 79 2c f3 3d 2d 1e 0a 3d
       0.048563417 -0.012012189 0.11873717 0.033720184
0001d0 98 26 e2 3d c9 6e bc bd 9f 13 31 be 85 85 4f 3d
       0.110425174 -0.09200818 -0.17292641 0.050664444
0001e0 11 13 b4 3d 40 72 94 3d c1 aa f3 bd 22 80 35 bd
       0.08792699 0.07248354 -0.11897803 -0.04431165
0001f0 27 b4 91 3e e7 a7 7e bd 59 4e 79 be 90 1f c0 bd
       0.28457758 -0.062171843 -0.24346294 -0.0938102
000200 0c 10 34 be 2c 04 d9 3e f5 78 81 3d 52 18 00 3f
       -0.17584246 0.42385995 0.06321899 0.5003711
000210 00 d3 5f 3e 4e c2 21 be 30 16 c6 bd e3 4b 80 be
       0.21857834 -0.15796778 -0.09672201 -0.25057897
000220 af 69 ed 3e 31 8a 0c be 50 48 1e be de e5 c3 be
       0.46369693 -0.13724591 -0.15457273 -0.38261312
000230 31 25 c6 bb a2 2a 55 3e e8 15 ea 3d 2e fa 18 be
       -0.006046914 0.20817044 0.114299595 -0.14939186
000240 3d c9 ea 3c 97 54 01 3d 4c c9 e5 3d 9c 69 67 bd
       0.028660411 0.03157481 0.11220035 -0.0564972
000250 5a 3e 36 3d ab 59 a8 bd 58 f8 f2 bd cc 3b 92 3c
       0.044493057 -0.08220228 -0.11863774 0.017850779
000260 2a 52 63 be a8 29 f9 3d 9e fe 4b be c6 e9 b1 be
       -0.22199312 0.121661484 -0.19921347 -0.34748667
000270 de 69 46 3c e7 41 3a 3d 1d e4 c6 3d 39 bf ab 3c
       0.012110202 0.045473006 0.09711478 0.020965206
000280 dd 05 06 be 24 60 9e bd 90 72 b2 39 8c 28 d9 bd
       -0.13088174 -0.07733181 0.0003403616 -0.10603437
000290 4b cd 0b bf 8a 7a 8c be d5 84 7e bd f0 4f 8c bd
       -0.5461013 -0.2743724 -0.062138397 -0.06851184
0002a0 8a f3 72 be 78 18 ac be ba 67 34 3d 19 ed 91 3d
       -0.23725715 -0.33612418 0.044044234 0.07125301
0002b0 70 b8 c5 3d 8e 64 b4 bd 47 58 85 3d d2 47 fd bc
       0.09654319 -0.08808242 0.06510978 -0.030918036
0002c0 8d 0d c2 3d 5b 8a b9 bd cb d4 15 3e 69 a5 b3 3d
       0.09475241 -0.09059592 0.14631955 0.08771784
0002d0 ee 09 13 be e1 ef 6e bd e9 08 c8 3d 67 39 de 3d
       -0.14359257 -0.058334235 0.097673245 0.108507924
0002e0 b6 cc 09 bd 07 3d 28 bd bf 91 14 3d a8 b0 88 bd
       -0.033642493 -0.041073825 0.036271807 -0.066743195
0002f0 86 41 30 3c 5c 8d ee 3c de 7e 0b be 15 6d 89 be
       0.0107578095 0.02912014 -0.13622615 -0.26841035
000300 e3 d0 29 be 6c 71 08 bf dd 3d d4 3e 33 36 aa 3e
       -0.1658359 -0.5329807 0.41453448 0.33244476
000310 61 3c 8e 3e 15 cd 36 3f ac 2b 10 3e ed c0 80 3e
       0.2778044 0.7140668 0.1407916 0.2514719
000320 d4 de 13 3e 8f 05 12 3f 5a b1 d4 3d 78 20 c7 3d
       0.14440471 0.5703973 0.103853896 0.0972299
000330 a5 9d 8b bc 13 29 1b bd 15 da 4e 3e 95 c9 e0 bd
       -0.017042944 -0.03788097 0.20200379 -0.10975949
000340 93 fe a6 bd 34 db 3f 3d 6d c4 fb 3d bc 09 38 bd
       -0.08154025 0.046839908 0.122933246 -0.04493116
000350 b9 d8 f8 bd 7b 89 80 bc e9 1e cb 3e 64 28 f0 bd
       -0.121507116 -0.015690556 0.3967202 -0.11726454
000360 4d 03 cf bd 14 0c 6c 3d a8 ba 01 be fd 11 f4 bd
       -0.101080514 0.057628706 -0.1266886 -0.119174935
000370 86 2b 70 3d 79 9c fb bc c1 ca 37 be 73 f0 96 be
       0.058635257 -0.03071426 -0.17948438 -0.29480323
000380 b0 16 36 bd a9 c2 fb bd 93 49 8d 3e a3 4b 9f 3e
       -0.04445523 -0.12292988 0.27595195 0.31112394
000390 4f e6 c4 3d 02 c8 04 3e 5b 9d 47 3e 6b b2 ce bc
       0.096142404 0.12966922 0.1949362 -0.02523156
0003a0 ff f0 4b 3d 8d c2 da 3d 05 b0 11 3a a2 ac 85 bd
       0.04979038 0.10681639 0.000555754 -0.06527068
0003b0 11 fa 2e 3e 4d 47 e2 bc 2a 0d 67 bd f6 e6 33 bd
       0.1708758 -0.02762189 -0.05640904 -0.043921433
0003c0 90 22 0f be f7 27 fe bc fe b8 37 3e d5 ea 64 3d
       -0.13978028 -0.031024916 0.17941663 0.055888016
0003d0 c4 c7 1f 3b 5e 54 49 3d 3d 53 c7 3d d2 ee ed bd
       0.0024380544 0.049152724 0.09732673 -0.11617817
0003e0 ae 49 35 3b 1e 75 92 3e 59 8f 42 be 31 53 18 bc
       0.0027662325 0.28604978 -0.18999995 -0.009297178
0003f0 08 00 a0 3e dd 16 2e 3f a4 41 d1 bc 89 a2 37 3f
       0.31250024 0.68003637 -0.025543995 0.71732384

actor.0.bias f4 [64]
000000 f2 08 5d bd eb de 07 be 20 ab a9 3d 0f f5 79 3b
       -0.05396361 -0.1326863 0.08284593 0.003814045
000010 8c 92 79 bc f7 46 28 3d 3a 92 86 bd 88 a6 8b bd
       -0.015232693 0.041083302 -0.06570859 -0.06818873
000020 1b 7b 78 bd 4c 7d b7 3b 21 53 0a 3e 4a 64 32 bc
       -0.060664278 0.0055996533 0.13508274 -0.010888169
000030 17 73 97 3d 55 85 bf 3d cf c6 bd bb a8 65 58 39
       0.073949985 0.09351603 -0.005791522 0.00020637235
000040 51 0b c6 3d 21 c9 a6 3c 5f 46 a1 bd d5 f4 99 3d
       0.09670127 0.020359578 -0.0787475 0.07517401
000050 76 ee 0a 3d 84 d9 a9 3d f3 40 4d bc fd 73 41 bd
       0.03391882 0.08293441 -0.012527692 -0.047229756
000060 b3 b2 b6 bd 67 ed 91 bc 15 b2 80 3d ce c0 4a 3d
       -0.08920803 -0.017813398 0.062839665 0.04950028
000070 de 3a 46 bd 10 57 52 3e d0 63 c2 3e 91 a1 f9 3d
       -0.048395984 0.20541024 0.37966776 0.121890195
000080 00 a8 b0 3d 77 aa b0 3d 10 cb ea bd 1d b3 87 3d
       0.086257935 0.086262636 -0.11464512 0.0662596
000090 3e e2 01 3e 94 8d b5 bc d1 00 45 bd 13 24 96 3d
       0.12683961 -0.022162236 -0.04809648 0.07331099
0000a0 54 d8 18 3e 6f 93 58 bc 3d cd 1d 3d ee cd 1b 3e
       0.14926273 -0.013218745 0.03852581 0.15215275
0000b0 0e e9 0b 3e 9d e6 3b bd bc 86 23 3b a7 9d 1a bc
       0.13663122 -0.045874227 0.0024952134 -0.009437001
0000c0 24 cf 76 3d c7 06 c8 bd ca e5 12 bd 43 9a 9c 3d
       0.06025614 -0.09766918 -0.035863675 0.076466106
0000d0 c0 d7 5d bd c8 7e 48 3d c8 9e 03 3d 3c 9c 03 be
       -0.054160833 0.048949033 0.032133847 -0.12852567
0000e0 bf 0b 1b be 0a 08 83 3d 0a ba 5d bb d5 31 b6 3d
       -0.151412 0.06398018 -0.0033832812 0.088962235
0000f0 1a 64 9c bc c3 52 3d 3d 6e 26 e4 3c 84 6f de bb
       -0.0190907 0.046221506 0.027850356 -0.006788196

actor.2.weight f4 [64, 64]
000000 6d 92 dc be 13 e6 c6 bd 0e 92 41 bd 34 0e b5 bd
       -0.43080464 -0.09711852 -0.04725843 -0.088406
000010 79 66 3c be 97 ba c0 bd b6 20 ad 3d ec cb 84 3d
       -0.18398465 -0.09410589 0.08453505 0.064842075
000020 64 31 aa 3d 9d 71 5f 3d 36 35 79 bd bd a5 f6 bd
       0.08310202 0.05455171 -0.06084176 -0.12043331
000030 83 99 e9 3b 32 1d 8f be 46 57 16 be 09 bf c3 bd
       0.0071288957 -0.27951962 -0.1468173 -0.095579214
000040 96 9a 27 bc b9 6c 18 3e 93 6f 2c 3e 29 81 a9 3c
       -0.010229727 0.14885224 0.16839437 0.020691471
000050 fa a8 6e be 3a 66 ac 3d 91 1e 1f 3e 82 94 d5 3d
       -0.23306647 0.08417936 0.15539004 0.10428716
000060 38 62 e2 bd fb 5d 53 be ac a3 ee 3d 79 72 66 be
       -0.1105389 -0.2064132 0.11652312 -0.22504605
000070 2f 42 8f bd 5a 29 13 be 07 ab cf be 06 8d e1 3d
       -0.069950454 -0.14371243 -0.4056017 0.11013226
000080 18 dd 93 3d 21 16 b8 3c 13 fa 2c be ec 13 8a 3d
       0.07219905 0.02247149 -0.1689227 0.06742081
000090 ab d8 28 3e 56 3e 06 be bb fa c7 bd 3a 39 a9 3c
       0.16488902 -0.13109717 -0.0976462 0.02065717
0000a0 83 89 85 be aa 3c d2 3d d9 81 14 be 18 e1 fc 3c
       -0.26081476 0.10265477 -0.14502658 0.030869052
0000b0 b8 ce 4d 3b bf 93 a5 bd a3 94 04 3d f4 a2 1b bd
       0.0031403732 -0.08084821 0.032368314 -0.0379972
0000c0 4f 1d 31 bd eb 70 d7 bd f4 a9 f1 3d 5f c8 37 bd
       -0.04324084 -0.10519584 0.11799994 -0.044868823
0000d0 df a2 82 3e 37 eb a0 3d 4a de 6b be 12 6c fe bd
       0.25514886 0.07857364 -0.23034015 -0.124229565
0000e0 c7 f6 f3 bc 68 66 2c 3c ac 59 3d bc f8 31 26 be
       -0.029780759 0.010522462 -0.011557024 -0.16229999
0000f0 01 6d 87 bc 9a d2 d6 ba 54 b8 e8 3b 40 7d 99 bd
       -0.01653147 -0.0016389668 0.0071020517 -0.07494593
000100 fe 7d 50 3e 3d 4e c0 bd df 36 65 3d e2 0a 26 bd
       0.20360562 -0.09389923 0.055960532 -0.040537722
000110 e3 7d d7 3d d6 9b 99 bd 1a cf 94 3c 28 93 62 3c
       0.10522058 -0.075004265 0.01816516 0.01382903
000120 9c 3a b4 3d bf e5 d0 bd 98 9d 65 be 15 dc 96 3e
       0.08800241 -0.102000706 -0.22423398 0.29464784
000130 77 3b 5b 3e 6a a6 c2 be 74 31 a9 3e ad e7 a7 3d
       0.21409403 -0.3801759 0.33045542 0.081984855
000140 dd 56 4b be c2 8e 3a 3d 50 4b a1 3c b4 b1 13 3e
       -0.19857354 0.0455463 0.019689232 0.14423257
000150 85 bd e7 3c cb 70 2a 3e 7d f0 4f bb 16 5f 8f 3b
       0.028288612 0.1664459 -0.0031729036 0.004375349
000160 81 f3 b6 3d e3 95 70 be 0e d5 58 bd c0 c5 56 3e
       0.089331634 -0.23494677 -0.05293756 0.20973873
000170 b5 c4 43 be 6b 2f 1b bd d4 4f 78 be cf bc bf bd
       -0.19118007 -0.03788702 -0.24249202 -0.09362184
000180 fe 44 bb bd 25 81 60 bd 5f 92 b1 be 7a 0b 44 3e
       -0.091440186 -0.05481066 -0.34681985 0.19145003
000190 d9 74 ac be aa d7 95 be 47 a8 7f 3d 7c ae 33 be
       -0.33682898 -0.292661 0.06241634 -0.1754703
0001a0 0b 7b 16 be 04 84 26 bd 5e 0e 27 3e 3b b5 4c 3e
       -0.14695375 -0.040653244 0.16314074 0.19991009
0001b0 28 92 5a 3e 35 60 43 3e 7b e2 a0 3e 64 25 40 3e
       0.21344817 0.19079669 0.3142279 0.18764263
0001c0 05 4e 99 bd a5 52 25 3e a8 d0 f9 3d 24 87 4b 3e
       -0.07485584 0.16144808 0.12198001 0.19875771
0001d0 03 1c ba 3d 28 9b 49 3e ee 10 37 3d 58 cb b4 3d
       0.09087374 0.19688094 0.04469388 0.08827847
0001e0 56 59 b9 bd 83 47 1b be 28 0a f8 bd 34 91 a1 bd
       -0.090502426 -0.15163998 -0.12111312 -0.078890234
0001f0 98 43 25 bd 44 e0 33 3e 97 3e 62 3e 6a 52 15 3e
       -0.040347666 0.1756602 0.22094189 0.1458222
000200 98 e3 14 be 9a 60 99 3e 9f c8 99 3e 4c f3 92 be
       -0.14539945 0.29956514 0.30035874 -0.28701246
000210 e6 28 be 3e 96 73 7c 3e b4 48 7b bd f4 d1 c8 3d
       0.37140578 0.24653468 -0.061348632 0.098056704
000220 d4 2f 80 bd 07 3e f3 3d 2d f9 4a 3e 60 ed 84 3d
       -0.062591225 0.11877065 0.19821616 0.06490588
000230 ae 8d 9b 3d 42 76 15 be 5b b7 47 3e d5 ca dc 3d
       0.07595383 -0.14595893 0.19503538 0.10780875
000240 1f bd 4f bd 72 86 f0 bd 57 78 25 be f3 b4 82 be
       -0.05071747 -0.117443934 -0.16159187 -0.25528678
000250 a2 ab 8f 3e 9f b7 4a 3e a2 e5 78 3e f9 06 6c 3e
       0.28060633 0.19796608 0.24306348 0.23049535
000260 d8 10 03 3e 9a fe c9 3e 0e e4 76 3d c4 64 f5 3d
       0.12799394 0.39452058 0.060276084 0.1198211
000270 e6 61 10 3e 79 da b6 3d 5b 32 28 3e 7a af cb 3e
       0.14099845 0.08928389 0.16425459 0.39782315
000280 38 bf de 3d 04 ec a5 3e 74 6a 76 3e fd 15 6f bd
       0.10876316 0.32406628 0.24064046 -0.05837058
000290 ef c3 06 be 10 35 7b 3c be e7 b3 bd 7b 10 b5 bc
       -0.1316068 0.015332475 -0.08784436 -0.022102585
0002a0 51 57 f2 be 20 72 8d bc 51 64 94 3e a5 b9 b2 bc
       -0.47332242 -0.017266333 0.28982785 -0.021817038
0002b0 b4 9b 44 3e 34 ad e4 bd ec 44 ab be de ba 6b 3c
       0.19200021 -0.111658484 -0.3345102 0.014387814
0002c0 f7 a0 0e 3e c3 31 ce 3d 05 ed 29 3e 96 47 c8 bc
       0.1392859 0.10068085 0.16594322 -0.024448197
0002d0 c0 70 46 3e b4 8e 5d be 8c 27 12 be 7e cd 27 3e
       0.19378948 -0.21636468 -0.14272898 0.16386983
0002e0 3f 28 0d 3e d2 3d 99 3d 4e 88 4e 3d a3 29 ac be
       0.13784884 0.074824944 0.05042296 -0.33625516
0002f0 83 02 8e 3d 04 9a b5 3d bb 49 b0 bc ab 48 ba 3c
       0.06934073 0.08867267 -0.021519532 0.022739729
000300 f6 f5 5d bd 1f 5e f7 3c 6f 8a 12 bd 88 0d fd bd
       -0.054189645 0.030196248 -0.03577655 -0.123560965
000310 7f 5c 77 bd cc 40 9a 3a 5f e8 04 3e d7 ab db bd
       -0.060390946 0.0011768579 0.12979268 -0.10726135
000320 2a d4 fd bd 4e 48 85 3e 4e d7 85 bd f0 fe ac 3d
       -0.12393983 0.26031727 -0.06535207 0.08447063
000330 32 ba 68 3e 27 0b c0 be 1f 61 20 bd 56 a1 8f 3e
       0.22727278 -0.3750851 -0.039155122 0.28052777
000340 ad 57 24 be bf be 11 bd 15 de 30 be 06 5f 73 3e
       -0.1604907 -0.0355823 -0.17272218 0.23766717
000350 c7 09 55 be 11 46 4e bd c4 c0 2c 3e 93 35 c3 3d
       -0.20804511 -0.05035979 0.16870409 0.09531703
000360 35 4f 06 be 02 82 aa 3b ba 82 cd bd b8 9f 48 bc
       -0.13116153 0.0052034864 -0.100347 -0.012245111
000370 c4 28 f9 bd 4e bd c3 3e 16 b8 75 3d b8 93 87 bd
       -0.121659786 0.38230366 0.05999001 -0.06619972
000380 4f 17 dd bc 54 13 04 bd 07 34 6b be 6d 22 e4 3d
       -0.026988653 -0.032244995 -0.22969066 0.11139379
000390 cb ac a1 be 32 06 a7 3d 64 42 c9 bd 15 8c aa bc
       -0.31577143 0.081554785 -0.09827116 -0.02081875
0003a0 87 8b 54 3e 4a e6 72 3e 2a 31 ae bd cc 70 86 3e
       0.2075635 0.23720661 -0.08505471 0.26257932
0003b0 39 7c 95 3e 54 e3 bb 3e f2 ab e4 3d d8 e8 a5 bd
       0.29196337 0.36696875 0.111656085 -0.08101052
0003c0 1b 28 81 3c 7e 66 1e 3d d3 b2 0a bd b2 e1 3c 3e
       0.015766194 0.038671963 -0.033861946 0.18445471
0003d0 8a 48 d4 3d ab 8a f0 bc 27 b2 6c 3e 49 44 e6 bb
       0.10365398 -0.029362997 0.23114835 -0.007027183
0003e0 0c 68 9a bc 78 69 0d 3e 3f 8a 86 3e 24 1d 26 3e
       -0.018848442 0.13809764 0.26277348 0.16222054
0003f0 ac 31 84 3d 43 d2 9d 3e e3 7e 6f 3e 86 50 9c 3d
       0.06454787 0.3082448 0.23388247 0.07632546

actor.2.bias f4 [64]
000000 f3 53 da bd 3c 65 33 bd bf 17 a4 ba 53 1b 16 3d
       -0.10660543 -0.043797716 -0.0012519284 0.036647152
000010 fe a7 6f 3d 46 17 90 3d b2 f7 c9 3d 44 65 5f 3d
       0.05850982 0.07035689 0.09861697 0.054539934
000020 f4 1b 1c be c9 7b e6 bd 23 a9 af 3c 34 71 d4 3d
       -0.15245038 -0.11254079 0.021442955 0.10373154
000030 27 78 48 3c e1 6d 94 bd e4 5b 81 3d ca de 4a bd
       0.012235678 -0.0724752 0.06316355 -0.049528874
000040 a1 7a f7 3c 55 13 23 3e e0 b8 29 bc 12 76 1e bd
       0.030209841 0.15925343 -0.010359019 -0.03868682
000050 e2 9a 9c 3b 21 ec 95 bd d7 2e 05 3d 08 61 63 3d
       0.0047792057 -0.07320429 0.032515373 0.055512458
000060 95 51 c2 3d 4f 54 26 3d e5 5f d7 bd ed cf d2 3d
       0.09488217 0.040607747 -0.10516337 0.10293565
000070 bc fb 8c 3d f0 e6 33 3d d5 fa 64 3c 03 a5 4f bd
       0.06883952 0.04392141 0.013975819 -0.050694477
000080 88 84 07 3e b1 c7 ab bc 49 21 57 bb 75 be 1d 3d
       0.1323415 -0.020969244 -0.0032826236 0.038511712
000090 a5 36 8b 3d 67 a6 3d 3e e6 d6 02 be e3 d0 9a bd
       0.06797532 0.18520509 -0.1277729 -0.07559373
0000a0 07 9e f1 bd 69 93 8e 3c d8 e8 8e bd 72 cf 31 bc
       -0.117977194 0.017404275 -0.06978005 -0.0108526815
0000b0 a6 02 b3 bd e2 4e c3 bd c6 83 7d bd ca e9 14 3e
       -0.087407395 -0.0953653 -0.061893247 0.14542308
0000c0 a8 19 80 3d fd 44 2c bd d7 e1 89 bc e7 f4 08 3e
       0.062548935 -0.04205798 -0.016831322 0.13374673
0000d0 29 d4 2a 3d cf c0 78 3c 24 4a 0c be 85 4c 12 be
       0.041706238 0.015182688 -0.13700157 -0.14287002
0000e0 ca 2a 71 3d 00 47 f6 bd ce 4e 73 3e bb 7c 1d 3e
       0.058878697 -0.12025261 0.2376053 0.15379612
0000f0 6e 32 e4 3c 0f 97 3d bc d8 54 5d 3c 18 8b cd 3d
       0.027856078 -0.01157166 0.013508998 0.10036296

actor.4.weight f4 [36, 64]
000000 8f c9 c3 be 8d 51 20 bf a8 b6 5b 3d 39 64 6a bf
       -0.38239715 -0.62624437 0.05364099 -0.9155918
000010 ac 36 35 be 2c c5 05 bd 59 57 44 bf 1c 7c b6 3a
       -0.17696637 -0.03265874 -0.7669578 0.0013922486
000020 e2 5f 80 3e c1 77 19 be 1c cf cd 3e 9f f8 ed 3d
       0.25073153 -0.14987089 0.40197074 0.11619686
000030 0f 21 a4 bd 75 7e 7b 3d f9 16 15 3e a0 c9 47 ba
       -0.08014118 0.061399896 0.14559545 -0.0007621292
000040 1e be 3d bd 67 62 c9 3e 76 7c f0 3e af e1 bc bd
       -0.046323888 0.39332888 0.46969956 -0.09222733
000050 ec 7b 88 be ca 8d 63 be 06 4d 25 be 65 4b aa be
       -0.26657045 -0.22222057 -0.16142663 -0.33260646
000060 51 a0 fc 3d 17 f7 db be 44 82 41 bd b4 18 12 3e
       0.123352654 -0.42961952 -0.04724337 0.14267236
000070 6a 51 d0 3e 54 6e d1 bc 3a 6e 6e be 26 16 9b be
       0.40687114 -0.025565304 -0.23284236 -0.30290335
000080 c5 44 f3 be 36 d2 4d 3d 44 53 9c 3e 64 6e 4f be
       -0.47513404 0.0502493 0.30532277 -0.20256954
000090 07 b3 9c bd 54 40 57 bf 1f c6 18 bd 38 1f c9 bd
       -0.07651334 -0.8408253 -0.037298318 -0.09820408
0000a0 2e e6 d8 3d ad 20 a3 bd d0 14 db bd ef 71 83 be
       0.10590778 -0.07965217 -0.10697329 -0.25672862
0000b0 d9 d2 98 3d b6 09 91 bc 4d e1 bc 3d e3 ba 7b bd
       0.07462091 -0.017704826 0.0922266 -0.061457526
0000c0 b7 65 57 3d 4b 30 6e 3e ee 39 a9 3e 3e 40 6a be
       0.052587237 0.2326061 0.3305201 -0.22876069
0000d0 3a 3e a7 bd d6 a2 57 bd ec b1 d5 3d 54 1f 0e bb
       -0.08166166 -0.052645527 0.104343265 -0.0021686153
0000e0 b4 2b 16 3d 5e 8f cc 3e 8a a5 6a be 7c 64 40 bf
       0.036662772 0.3995313 -0.2291471 -0.75153327
0000f0 20 1d 4a bf a6 d8 02 3d 6a cd 67 bd 2c f3 c5 3e
       -0.7895069 0.031944893 -0.056592382 0.38662088
000100 21 7a bc be a9 62 7e 3d 64 3c 16 bf 3a 88 0b bf
       -0.36811927 0.06210581 -0.586859 -0.5450474
000110 7d b3 bd 3e 83 cf a6 bd 53 06 3f bf 7c 4f e1 be
       0.37051 -0.081450485 -0.74619025 -0.44005954
000120 82 c4 51 bd d1 f6 af be 58 22 0e bc b3 f1 04 bf
       -0.051212795 -0.34367993 -0.00867518 -0.51931304
000130 af 77 5b be b6 62 67 bd 1d a2 4c bd 6b 8f 63 bd
       -0.21432374 -0.056490622 -0.04995929 -0.055556696
000140 a3 5f 94 3c a7 cd 2d 3e 69 fb a0 3e b5 6e 7d 3e
       0.01811201 0.16972981 0.3144181 0.24749263
000150 30 fb ba bd 7a 08 78 bf 63 44 a4 3e 3f 21 83 3e
       -0.091299415 -0.96887934 0.32083425 0.25611302
000160 25 43 c4 3d 50 be fa 3d a6 32 a5 3d f7 2a 6e 3e
       0.09583119 0.122433305 0.08066301 0.23258577
000170 2c cc 7f 3e 73 c5 7f 3e 5b db 72 bd 2b a9 83 be
       0.24980229 0.24977665 -0.059291225 -0.25715002
000180 c4 59 85 be 9d 39 a4 bd cf f0 94 3e 4c 4b 8e 3e
       -0.26045048 -0.08018801 0.29089972 0.27791822
000190 e1 a4 62 3d 1a 4e 28 bf 2b f4 69 3d 15 64 d8 3d
       0.055333022 -0.65744174 0.057117622 0.10565964
0001a0 f9 7e 10 be f9 aa a1 bd b1 a2 c9 3d 61 e8 c3 3e
       -0.14110936 -0.078939386 0.09845484 0.3826323
0001b0 41 27 2b be 48 38 76 bd e1 7d 97 3e 7e e3 67 3e
       -0.16714193 -0.060112268 0.29588225 0.22645375
0001c0 98 c5 68 bd 25 e3 96 3e 04 21 12 be 08 f6 6f 3c
       -0.056829065 0.29470173 -0.14270407 0.014646061
0001d0 34 76 df 3c dc ce bc 3d 6f bd 5b bd 10 e3 6f bd
       0.027278043 0.09219143 -0.053647455 -0.058566153
0001e0 be 06 a8 bd 5e ce fa 3e c6 a5 79 be 68 06 36 bf
       -0.08204411 0.4898557 -0.24379644 -0.71103525
0001f0 dd da 1e bf 8e 84 c3 3d b8 9c 8b 3d c5 b0 1c 3e
       -0.6205271 0.09546767 0.06817001 0.15301807
000200 e1 b1 63 3e 7c e4 f5 be 0c 02 3b be b7 b0 0b bf
       0.22235824 -0.48025882 -0.182625 -0.5456652
000210 3e 0e b7 3e 14 a9 26 3e 35 50 f7 be 2d eb c4 be
       0.35753053 0.16275436 -0.4830338 -0.38460675
000220 8a b9 6c be 54 a2 b5 3e 66 7b f5 bd bd e4 4b 3e
       -0.23117653 0.3547541 -0.11986427 0.19911475
000230 f9 ba 41 3d e1 69 ff bd b0 bc 06 bf 57 32 47 3d
       0.04729745 -0.12471367 -0.52631664 0.048631992
000240 b0 38 b6 3d 08 b9 15 3e 96 33 55 3e fa 2a 32 be
       0.08897531 0.14621365 0.2082046 -0.17399207
000250 b6 08 ad 3d 83 9c 21 bf 8e 16 da bb b7 07 eb be
       0.08448927 -0.6312944 -0.0066555208 -0.45904323
000260 69 f7 a1 3e 2c af 65 3e e8 10 ca bc e2 c2 8c 3e
       0.3163407 0.22430104 -0.024666265 0.27492434
000270 46 48 33 3e 80 97 aa be f3 7c 44 bc fb 45 9e 3e
       0.17508039 -0.3331871 -0.011992681 0.30912766
000280 90 e5 57 3e ca cb c0 bd de 0a 9b bd e5 0d 14 bd
       0.21083665 -0.0941387 -0.07570432 -0.036146063
000290 a9 0c d4 bd f4 ac 38 bf 45 c7 81 bd 86 5d d6 bd
       -0.10353977 -0.72138906 -0.06336836 -0.10467057
0002a0 4f 25 3a bd 89 6f cf 3d db f7 a7 be 53 ea eb 3e
       -0.045445736 0.101286955 -0.32806286 0.46077213
0002b0 af 6a 57 3d d0 76 c6 3d d3 e1 f4 be 32 7b cc bd
       0.052591976 0.096906304 -0.4782854 -0.09984435
0002c0 df 15 08 be 9c 90 f0 3d 1a 5a c0 3e 38 5b e4 3d
       -0.13289593 0.11746332 0.37568742 0.11150211
0002d0 e6 d9 da 3c 59 6c e1 bc d9 d4 eb bd 28 fc 0b 3d
       0.02671523 -0.027517485 -0.11515207 0.03417602
0002e0 d9 3b 27 bd 0e d0 c0 bd de 46 69 be c5 5f 31 bf
       -0.04082856 -0.09414683 -0.2278094 -0.6928676
0002f0 f0 3b ae be e1 38 97 3b 68 f8 41 be d8 24 77 3e
       -0.34030104 0.004614935 -0.18942416 0.24135149
000300 69 61 80 3e a0 a2 33 be 82 0d 57 be 9a 4d 66 be
       0.25074318 -0.17542505 -0.21001247 -0.2249054
000310 55 76 08 3d 03 16 43 3d 4c 01 69 be 34 63 d6 be
       0.033315975 0.047628414 -0.22754401 -0.4187256
000320 78 fb 8a 3d 29 67 01 3e cc 87 10 3d be af 84 be
       0.06786245 0.12637009 0.035285756 -0.2591533
000330 99 44 80 3d 3e 54 64 bd 86 00 c6 be f2 6e 52 3a
       0.06263084 -0.055744402 -0.38672274 0.00080273964
000340 83 9d 82 3d 0b 96 61 3d f1 88 1a 3c a1 35 98 bd
       0.06377699 0.055074733 0.009432063 -0.07432104
000350 59 34 a1 3c 91 07 af be b4 44 d0 bd c3 6a c6 be
       0.019678282 -0.3418546 -0.10169354 -0.38753328
000360 a3 e6 e9 3c 12 cc ad bd c4 27 05 3d 91 a8 2d be
       0.028552359 -0.08486189 0.032508627 -0.16958834
000370 ed 5c d3 bd 84 eb 39 3d d2 8d b7 3d c0 51 1f be
       -0.103204586 0.04539062 0.08962597 -0.15558529
000380 a8 c2 6b 3e 38 1b a8 bd 02 ef 5d 3d 76 aa 83 3d
       0.23023474 -0.082083166 0.054183014 0.06428997
000390 0e ec e9 bd ca d8 99 be 47 e0 af 3c dc 55 00 bb
       -0.11421977 -0.3004821 0.021469248 -0.0019582426
0003a0 89 83 6e bc 3c c8 c1 3c 8f 15 0d be 63 42 c1 3d
       -0.014557728 0.02365505 -0.13777755 0.094364904
0003b0 44 f1 0e 3c 9f 85 88 bd 22 c2 c7 be a2 22 d1 3c
       0.008724514 -0.06666111 -0.390153 0.02552921
0003c0 5d 2e 3e 3c 4f 73 e0 3c 78 0a 44 3d d4 88 fc bd
       0.011607734 0.027398733 0.047861546 -0.123307854
0003d0 3a 4d 98 bc ff ff e5 bd 98 3f ee 3d 5c 29 1c bd
       -0.018591512 -0.11230468 0.11633223 -0.03812538
0003e0 8b 6f b3 bd b1 31 92 be 92 31 70 bd 7a 33 14 bf
       -0.087615095 -0.28553537 -0.058641024 -0.57891047
0003f0 62 ba 45 be 8a ff 3d 3d aa 30 0e be 3c 05 8a 3d
       -0.1930938 0.04638628 -0.13885751 0.0673928

actor.4.bias f4 [36]
000000 43 31 a6 be fa f8 83 bd 1b d2 d6 bd 7d 68 1a b9
       -0.3245946 -0.06443973 -0.10489293 -0.0001472551
000010 f0 c4 79 3d e0 b5 ec 3b d7 e9 08 3e e2 5e fb 3d
       0.06097883 0.0072238296 0.13370453 0.12273957
000020 e8 fc 5b 3d 53 57 7d 3d e1 ba cb 3d 67 86 10 bd
       0.053707987 0.061850857 0.09947754 -0.035284426
000030 fd 8c a6 3d 7a 56 b1 3d 51 ab b3 3d d2 39 4b 3d
       0.0813236 0.08659072 0.087729104 0.04961569
000040 25 92 ef be 45 b2 42 3d 94 d1 3b be fb 09 12 be
       -0.46791187 0.047533292 -0.18341666 -0.1426162
000050 92 63 d6 bd 29 eb 2e 3e db 6d 51 bb 78 f1 79 bc
       -0.1046821 0.17081894 -0.0031956348 -0.015255325
000060 21 03 70 3d 4f 31 d1 bd c6 d4 97 bd d4 16 ef 3d
       0.058596734 -0.10214483 -0.0741363 0.11674276
000070 6c 34 81 bd 8a 4b 94 3c 40 ba c8 bd 08 5d 0a 3e
       -0.06308827 0.018102426 -0.09801149 0.13512051
000080 dc 93 86 3d 77 17 38 3e a7 c6 94 3d 71 53 f1 3d
       0.06571171 0.17977701 0.072644524 0.11783493

critic.0.weight f4 [64, 62]
000000 d7 39 fa bc f3 8d 6f 3c be 35 85 3c 79 7c 11 3d
       -0.030545158 0.014621246 0.016260978 0.035519097
000010 ff 55 5e bd 6c bc a8 bd 13 e6 85 3d 61 24 95 bd
       -0.05428123 -0.082390636 0.06538024 -0.07282329
000020 79 32 20 be 19 d9 d5 3d a6 63 32 be 98 e3 09 3e
       -0.15644254 0.10441799 -0.17420825 0.13465726
000030 2f 15 d8 3d 8a 3e 7c 3d a5 aa 0d 3e 71 ff 4a bd
       0.105509154 0.06158308 0.13834627 -0.049560014
000040 76 32 bd 3d 2b f1 0b 3e b0 c5 c7 bd 04 20 0e 3e
       0.0923814 0.13666217 -0.09754503 0.138794
000050 d8 f1 06 be 2d 6e ae bd 6c a1 0a bb 2c 02 ee 3b
       -0.13178194 -0.08517108 -0.0021153344 0.0072634425
000060 88 03 8e bd 54 57 13 3e bd 50 ab bd 8a 26 c2 bb
       -0.06934267 0.14388782 -0.08365009 -0.0059250044
000070 00 77 e7 3d 06 9d fa 3d b9 79 e1 3c 48 f0 22 3e
       0.11301994 0.12236981 0.027523862 0.15911973
000080 3d 18 e3 bd 3e 23 da bd 5e aa 7a 3d a3 53 bb bc
       -0.110886075 -0.10651253 0.06119763 -0.02286703
000090 cf 38 13 bd 73 54 8b 3c 85 33 04 3c 96 bb 36 3c
       -0.03594285 0.017008042 0.008068924 0.011153122
0000a0 bf 62 3b bd 9f 86 48 bd 01 3e 3b be f5 0a 09 3e
       -0.04574847 -0.04895651 -0.18285371 0.13383086
0000b0 67 9d 0f be 37 6c a7 bd 3c 16 4d 3e a3 f4 dc bd
       -0.14024888 -0.08174937 0.20028013 -0.10788848
0000c0 5c cf 5a bc a7 00 a6 3d f5 9f 46 be 91 d5 07 be
       -0.013355102 0.08105593 -0.19396956 -0.13265063
0000d0 c9 b8 cf bc 20 f1 cf 3d cc a9 02 3d 17 75 bf 3c
       -0.025356667 0.10153413 0.031900212 0.023371262
0000e0 fd f6 b7 3d 0b b7 32 3c b2 aa 4d 3d 62 41 48 3d
       0.08982656 0.010907899 0.050211616 0.04889048
0000f0 f8 01 dd 3d bb f9 1b bd f3 c3 aa be a8 5e 77 bd
       0.10791391 -0.03807996 -0.33352622 -0.060393006
000100 e9 b6 27 3e 0f bd 6e be 3b 01 4d 3e 3e cd 02 be
       0.16378368 -0.23314308 0.2002 -0.12773606
000110 f7 ea 38 be 17 d2 95 be 40 8e 0c 3e 28 7f 4a bd
       -0.18058382 -0.29261848 0.13726139 -0.049437672
000120 68 9f 81 bd 24 39 88 be 41 fa 81 be c1 5f a4 bc
       -0.063292325 -0.26606095 -0.2538624 -0.02006519
000130 81 77 12 bd a1 34 29 be 42 69 31 bd d0 6c 74 bd
       -0.0357585 -0.16523983 -0.043313272 -0.059674084
000140 95 dc fb 3d d1 82 8e 3d 22 44 84 3d 7d 17 40 3b
       0.12297932 0.06958545 0.06458308 0.0029310875
000150 c2 9f 6d bd 1d ba 0d 3d 62 e3 ca bc 24 b0 81 3d
       -0.058013685 0.03460132 -0.024766628 0.06332424
000160 18 a6 d2 bc c7 66 d1 3b e6 fb ad bd 55 5e 9a 3d
       -0.025713965 0.006390426 -0.084953114 0.07537524
000170 85 0a b1 bd f9 a7 2d 3d 78 14 82 3d 93 af 5e 3d
       -0.086445846 0.04239652 0.0635156 0.05436666
000180 2d 10 9b 3b c7 2a 60 3d 08 cf e1 3d c1 80 38 3b
       0.004732153 0.054728296 0.11025816 0.0028152915
000190 e0 dc 70 be ab 5b 05 bd e0 40 f0 bd ec 55 d3 bb
       -0.23521757 -0.032558125 -0.11731124 -0.0064494517
0001a0 91 48 ad be 13 b7 ad be 45 14 85 3d 9a 12 d8 bd
       -0.33844426 -0.33928737 0.06498007 -0.10550423
0001b0 b8 13 d1 bd 23 d7 8c bd a8 a4 7f 3c fb c9 99 3d
       -0.10208839 -0.068769716 0.015603222 0.07509228
0001c0 f7 d8 42 be 9c ce dc bd ce e3 39 be 16 3e 91 3c
       -0.19028078 -0.10781595 -0.18153307 0.0177298
0001d0 0a b5 5b be a2 76 54 be 58 e8 f5 bd cd 44 a6 3d
       -0.2145578 -0.2074838 -0.12007207 0.081185915
0001e0 08 f2 05 3d c6 55 0f bd c5 48 e6 3d a2 eb 22 3e
       0.032701522 -0.03499391 0.112443484 0.159102
0001f0 6d e4 05 be ad e2 d6 3d 9e f3 19 be 00 d7 0f 3d
       -0.13075419 0.10492454 -0.15034339 0.03511715
000200 06 e8 d0 bc 5f 9b 04 3e da 69 a2 3d 15 d7 ee bc
       -0.025501262 0.12949894 0.07930346 -0.029155293
000210 18 b1 04 be f9 79 84 3c 42 a0 a8 3d 1d 44 b4 bd
       -0.12958181 0.016171442 0.08233692 -0.08802054
000220 f9 19 cc bd 47 2f c7 3c 21 93 36 3d ad f8 21 3d
       -0.099658914 0.024314536 0.044573907 0.039543796
000230 76 2c cb bd 4e 4f 9e bd 4c 62 be 3c 01 4e a2 3c
       -0.099205896 -0.0772997 0.023240231 0.019812586
000240 65 c2 a8 bd e2 bf 06 3d f8 77 94 3d ea a1 81 3d
       -0.08240203 0.032897837 0.07249445 0.06329711
000250 b8 3d f1 bd 79 f5 9e 3d 14 c8 08 bd b1 cd f4 3c
       -0.1177935 0.07761664 -0.033393934 0.029883238
000260 16 d7 b2 3d c5 ab 1a 3f c8 94 fd bd 13 83 0a 3f
       0.08732431 0.6041835 -0.123818934 0.54106253
000270 60 48 13 be 46 c6 c9 bc f9 d4 4e 3d 59 db 32 3d
       -0.14383078 -0.024630677 0.050496075 0.043666217
000280 24 ec 0d bd 1e d3 97 bc 8e 25 1b be 5c d8 07 3e
       -0.03464903 -0.018533286 -0.15151045 0.13266128
000290 ec 27 6b 3c 86 2a c1 bd 4e 52 7b 3d bf 15 b0 bc
       0.01435278 -0.09431939 0.06135779 -0.021494744
0002a0 35 52 43 bd 27 93 9e bc 3d 8b 1b 3a ab 4a f2 bd
       -0.04768582 -0.019357277 0.0005933529 -0.11830648
0002b0 54 59 02 be 23 f3 ae bd 7a cc 26 be 7f c4 a5 bb
       -0.12729388 -0.085424684 -0.16288939 -0.0050588246
0002c0 99 c6 dd 3c 0f 7f a1 bd 8b 7d b9 3c 92 ae 08 3e
       0.027072238 -0.07885563 0.022642871 0.13347843
0002d0 78 fa 64 3e a9 a8 51 bd 0a 1f ee bd 6d e5 3a bd
       0.22361171 -0.051186237 -0.11627014 -0.045628954
0002e0 7c 10 44 ba 62 61 59 3b 47 d0 1d bd cf ad 96 3d
       -0.0007479263 0.0033169617 -0.038528707 0.0735737
0002f0 8a 2d ef bd fd 09 a2 bd 52 a1 19 3d 23 1e 82 3d
       -0.11678608 -0.07912061 0.037507363 0.063534044
000300 db f8 09 3e 83 19 4e 3e 02 33 5d 3e f5 e4 40 bd
       0.13473837 0.2012692 0.21601489 -0.04709335
000310 a5 4d 3b 3e 05 db 5e 3e cc 2a 4c 3e 78 01 62 3e
       0.18291338 0.21763237 0.199382 0.22070873
000320 45 0b 24 3e 64 b7 a0 3e e8 cb 65 bb 64 8b bc 3d
       0.16019924 0.31389916 -0.0035064165 0.09206274
000330 d7 67 e3 3d 67 de 3d 3d 2d 35 83 bd 5f e6 25 3d
       0.1110379 0.046354678 -0.06406627 0.040502902
000340 a0 18 d5 3d cb e9 b0 3d c7 a6 9d bd 53 27 af 3d
       0.104050875 0.086383425 -0.07697826 0.085524224
000350 3f 4d be 3a 9a 5d f4 bd 4e 6c 5c 3e 0c 6d f3 3e
       0.0014518871 -0.119319156 0.2152569 0.47544134
000360 71 a6 61 3e 9f d0 17 3f 7a 6f b2 3c 90 b9 a9 bc
       0.22036149 0.59302706 0.021781672 -0.020718366
000370 9f 58 cc bb cb 4b ab 3d 56 ce d0 bb c7 cd dc 3d
       -0.0062361504 0.08364066 -0.0063722534 0.107814364
000380 f4 76 12 be 8f 3e e2 3c ac 73 15 be cd be 00 3e
       -0.1430319 0.02761772 -0.14594907 0.12572785
000390 7b 7a 79 3c aa 88 c2 3c 79 c4 55 bd 33 1f 89 3d
       0.0152269555 0.023746807 -0.052189324 0.06695404
0003a0 b9 cd 50 bd 94 4e c7 3d 12 83 2f 3d cc 21 af 3c
       -0.050977442 0.097317845 0.042849608 0.02137842
0003b0 6f 6c 4b be 76 d8 ca 3d 14 f0 a5 bc c0 bf bf 3d
       -0.19865583 0.09904568 -0.02025608 0.09362745
0003c0 c6 44 08 3e 52 bb 8b bd 95 9c 3d 3e 45 c9 81 bd
       0.13307485 -0.06822838 0.18516763 -0.06337217
0003d0 7d 62 1e 3e 23 0b a9 3c f4 c1 de 3d f3 42 44 3d
       0.15467258 0.020635193 0.108768374 0.04791541
0003e0 84 46 8a bd 07 3a 09 be 31 6b 6b bd e9 07 8e bd
       -0.06751731 -0.13401042 -0.057475273 -0.069351025
0003f0 3d 38 bc bd 56 d9 cd 3d 5d 87 9a 3e 11 3a 13 3e
       -0.09190414 0.10051219 0.301814 0.1437762

critic.0.bias f4 [64]
000000 f5 74 b7 bd 5f ea bc 3e c6 cc e7 bd c2 bf 48 3d
       -0.08957855 0.3689756 -0.11318354 0.049011
000010 db c5 3c bd 2a 19 29 bc 71 63 f7 3d eb 52 13 be
       -0.046087127 -0.010320941 0.12079514 -0.143871
000020 39 c3 03 3e 2e 07 7b bb 38 89 d4 3c 69 d3 8a bd
       0.1286744 -0.003830384 0.025944337 -0.067786045
000030 85 24 4f bd 79 d4 d5 3b 6c 1b f3 3d 3c 1e 30 bd
       -0.050571937 0.006525573 0.11870465 -0.042997584
000040 5a bf 67 3d e1 9e 85 bb 9c f3 ea bc 8b 3c 87 bd
       0.05657897 -0.0040777777 -0.028680615 -0.066033445
000050 92 e2 5e bd ea c6 f3 bc 56 28 e7 bd 0c c1 18 3e
       -0.054415293 -0.029757936 -0.1128699 0.14917392
000060 10 b8 39 bd 9c 17 eb bd 52 2a 77 bd fd 8e 83 3d
       -0.04534155 -0.114791125 -0.060343094 0.06423757
000070 de e9 0b 3d 2e 9a b0 bd 10 d1 e8 bd b6 d0 83 bd
       0.03415858 -0.086231574 -0.113680005 -0.06436293
000080 b9 8a f3 bd 8f f7 3c bd d0 08 29 be 46 a8 0e be
       -0.118916936 -0.046134528 -0.16507268 -0.13931379
000090 10 5d e1 bd 0d 8b 22 be 6d c6 85 bd 4b 2b 9e 3c
       -0.110040784 -0.15873356 -0.06531987 0.019307753
0000a0 75 98 15 be bc 73 2b 3e fb 56 6c 3e 1e ce 51 3e
       -0.14608939 0.16743368 0.23080055 0.20488784
0000b0 be bf 33 3e aa 1e 99 3e 21 31 57 be af 6c 89 3d
       0.17553613 0.29906207 -0.21014835 0.06710183
0000c0 e6 4d b7 3c 58 c5 9a bc 2a b0 65 3d cc 81 09 be
       0.022376012 -0.018892929 0.056076206 -0.1342842
0000d0 32 a1 cb 3d 7c 2b 88 3e 8a 93 8a bd df 43 92 3d
       0.09942855 0.26595676 -0.06766422 0.07141852
0000e0 14 1a 8f bd 11 10 9b bd 19 d8 c2 3e 71 1f 84 bc
       -0.06987396 -0.07571424 0.38055494 -0.016128274
0000f0 29 f7 7b 3d 9d f0 ef bd ad d3 02 be 1c 2d 8e bd
       0.061515007 -0.11715815 -0.1277606 -0.06942198

critic.2.weight f4 [64, 64]
000000 30 26 b7 3d 0e fe 91 be 81 3d 30 3e c9 d4 4a 3e
       0.089428306 -0.2851414 0.17210962 0.19807734
000010 c2 1d 49 3d a7 c9 bd bd ae b9 83 bd 22 5d 3a be
       0.049100645 -0.09266978 -0.064319 -0.1819959
000020 9f 46 dd bd db 01 8d bb 16 93 19 3c 59 20 81 3d
       -0.108044855 -0.0043031997 0.009373447 0.06304998
000030 28 44 1d be 0d d2 52 bd 73 db 07 3d 14 24 2b be
       -0.15358031 -0.05146985 0.033168267 -0.16712981
000040 04 ff f3 bd 94 53 8e 3d 02 e3 db bd f6 70 30 be
       -0.11913875 0.06949535 -0.10736658 -0.17230591
000050 14 4f 19 bd 8f 17 01 3d af c7 b3 be eb 2a a2 3c
       -0.03742893 0.031516608 -0.35113284 0.019795856
000060 db ac 42 3d 36 f7 83 3e 98 57 9b bd eb f0 16 3e
       0.04752813 0.25774544 -0.075850666 0.1474034
000070 02 20 10 be af 19 8d 3d a6 b5 87 bd d3 b5 ce 3d
       -0.1407471 0.068896644 -0.066264436 0.10093274
000080 03 28 6c 3e dc 3b 78 3d a9 02 e1 bb fc 9a 2c bd
       0.23062138 0.06060396 -0.006866772 -0.042139992
000090 9c 9b da bd 88 bf 15 3d e0 31 e1 bc 21 06 27 3e
       -0.106742114 0.03655961 -0.027489603 0.16310932
0000a0 a0 80 26 bd 46 67 57 3d 07 0c 0c bd 51 d9 1e be
       -0.04065001 0.052588724 -0.034191158 -0.15512587
0000b0 2e a7 a8 bd cd 35 ff bc 05 ea c1 bd cd 3b 8f 3b
       -0.08235012 -0.031153584 -0.09468464 0.0043711425
0000c0 d2 ec 8d be 19 ec 58 3d fc ec 63 be 62 eb cb bd
       -0.27719742 0.052959535 -0.22258371 -0.09957005
0000d0 ef 31 d4 bd 67 54 d5 bd 6c 05 10 3e b2 72 cd bd
       -0.103610866 -0.10416489 0.14064568 -0.10031642
0000e0 d1 4f ac bd 5a bb 97 bd 2d 77 26 3e 33 2d df 3d
       -0.08413661 -0.07408781 0.162564 0.10897293
0000f0 48 ab 81 be b8 c5 0f 3e c0 65 68 bd 13 84 b0 3d
       -0.2532599 0.14040267 -0.05673766 0.08618941
000100 df 68 98 bc 3b b3 be bc 70 a8 42 bd 85 77 6d bd
       -0.018604694 -0.023278823 -0.047523916 -0.05797531
000110 f2 5b 2c be 04 bc c0 bb d2 5f ce bd 4f 33 5b 3b
       -0.1683195 -0.005881788 -0.1007687 0.003344733
000120 01 8e 44 be ff 77 c5 bd ba f9 8a 3d 6e 22 07 3b
       -0.19194795 -0.09642028 0.06785913 0.0020619887
000130 5b b2 a0 bc 01 22 38 3d 86 75 a2 3c c6 29 26 bc
       -0.019616297 0.044954304 0.01983143 -0.0101417955
000140 a2 41 b9 3c 46 3a 56 3d e1 96 64 3d 43 e2 ff 3c
       0.022614304 0.052301668 0.05580795 0.03123582
000150 cc a1 e6 bc a3 2b 90 3d 38 9d 91 bd ac 90 9e 3d
       -0.028153323 0.07039573 -0.07110065 0.07742438
000160 1f 62 06 be 6c 4d d9 3b b8 b4 be 3c ed c6 d7 ba
       -0.13123368 0.006631544 0.023279533 -0.0016462483
000170 c2 2c f1 bc cf 2e 9c 3c 7a 75 30 3d e1 94 2a bd
       -0.029440288 0.019065289 0.043080784 -0.04164589
000180 c8 ae 1e be ea 69 a1 3d c5 62 57 3d a6 64 00 3e
       -0.15496361 0.0788153 0.05258443 0.12538394
000190 51 7b 89 3d bf cd 82 3d cd ff df bd 4a 93 67 3d
       0.06712974 0.06386899 -0.10937462 0.05653695
0001a0 35 c3 bc 3c 37 5d 27 be 23 31 c1 3d e0 cb 27 3e
       0.0230423 -0.16344152 0.094332 0.16386366
0001b0 41 cd 24 3d c5 99 8d 3d 62 92 91 3c 89 81 8b bd
       0.040234808 0.06914095 0.017769996 -0.06811816
0001c0 ac bb bf bc 78 94 ff bc 99 39 7e bd a7 b8 5e bc
       -0.023404919 -0.031198725 -0.06206665 -0.013593829
0001d0 f9 79 12 bd 62 e7 c1 bd d6 9e af bd 6b 14 20 bd
       -0.035760853 -0.09467961 -0.085752174 -0.039081972
0001e0 87 9d c4 3d 66 39 9b 3d 55 ab f1 3d 39 41 f8 bd
       0.096003585 0.07579307 0.11800257 -0.12121815
0001f0 54 ed 10 3d 4f 2f 12 3c f6 0e 59 3d ab 72 cb 3c
       0.035382584 0.008922412 0.052992783 0.024834951
000200 e7 fe b6 3d 94 00 63 bd f4 60 63 bd f8 83 06 3d
       0.089353375 -0.055420473 -0.055512384 0.0328407
000210 6a 2e 16 3d 55 21 01 be 24 74 e0 bd 44 0e 33 be
       0.036665358 -0.12610371 -0.10959652 -0.1748591
000220 80 7a 2c 3d bf 9d 34 3d 54 f1 44 bd 69 93 d3 3d
       0.042109013 0.04409575 -0.04808171 0.10330851
000230 32 aa 59 be c6 08 c2 bd f2 ab 7c bc 0f 8c 1f be
       -0.2125633 -0.0947433 -0.015421854 -0.15580772
000240 9a 32 61 bd b5 4c 18 be b8 71 5e be a7 e7 3b be
       -0.054979898 -0.14873011 -0.21723068 -0.18350087
000250 03 15 1d bd 79 9e 8b 3d 69 69 1b be db e1 e9 bc
       -0.038350116 0.06817336 -0.1517693 -0.02855008
000260 e6 74 c2 bd d3 82 ef 3d c6 73 ee bd 94 b2 31 3e
       -0.09494953 0.116948746 -0.11643176 0.17353278
000270 fa 12 ed bd bb d7 dd bd f7 75 3c bd be 20 0b bd
       -0.11575885 -0.10832163 -0.046010938 -0.033966772
000280 55 45 aa 3e 3c a5 2d 3c d3 0f 79 bd 18 b6 fb bd
       0.3325602 0.010598477 -0.060806107 -0.12290591
000290 b4 7b 76 3d 12 50 16 be 07 6e 84 3d 31 2b 00 3e
       0.060176566 -0.14678982 0.064662986 0.12516476
0002a0 da e5 e1 bd f3 d6 8a 3d 6e 22 58 3d 1d 58 a7 be
       -0.11030169 0.067792796 0.05276721 -0.32684413
0002b0 77 c8 ed 3c 40 ca 0b ba a8 17 96 bd c7 a4 0c 3e
       0.029026253 -0.0005332567 -0.07328731 0.13734733
0002c0 69 1b 54 be 7b a3 3a bd 73 6b 12 be 96 e0 ef bd
       -0.20713581 -0.045566063 -0.14298801 -0.11712758
0002d0 e0 07 f4 bb fa 0c 11 be 01 a3 b5 3d c5 6f 41 be
       -0.007447228 -0.14165106 0.08868981 -0.18890293
0002e0 41 d6 6d 3d ef af 51 be a8 fd ae bd 05 5d 50 3d
       0.058065657 -0.2047727 -0.08544475 0.05086996
0002f0 d2 91 43 be 15 30 45 3e 1d cf 20 bd 3b 22 34 ba
       -0.19098595 0.19256623 -0.03926002 -0.0006871556
000300 bf 1d 0c be 2c 78 a2 bd 5b c0 e1 bc 54 6f e6 bd
       -0.13683222 -0.07933077 -0.027557543 -0.11251703
000310 9f fc 50 bd 2b e2 25 3d 04 3a 53 bd 1c 8d 93 bd
       -0.05102217 0.040498894 -0.051569 -0.07204649
000320 68 04 7c 3d c9 0a 92 bd e6 40 21 bc 41 d8 8d 3c
       0.06152764 -0.07130963 -0.009842133 0.017315032
000330 04 70 ce bd 6f 3f 20 be de 2e 6a bc d7 8b b8 3d
       -0.10079959 -0.15649198 -0.014293401 0.09011047
000340 7b c5 50 bd e9 b5 90 3d b2 e9 eb bd a7 78 9e bd
       -0.050969582 0.070659466 -0.11519183 -0.07737856
000350 20 47 8f bd 7d 59 d8 3d fc 90 10 be e6 76 f5 bc
       -0.06995988 0.105639435 -0.14117807 -0.029963922
000360 62 2d 0d be 5e 5c 91 bd 76 09 57 3d bd 6b 4c bd
       -0.13786843 -0.07097696 0.052499257 -0.049907435
000370 18 c6 e4 bd 23 a4 f6 bc 82 66 f9 bd 29 93 ce 3d
       -0.11170596 -0.030107563 -0.12177755 0.10086662
000380 7d 65 06 3a d2 0a ba bd 71 16 f0 bc a0 2b 88 bd
       0.0005126817 -0.09084095 -0.029307576 -0.06648946
000390 c9 1f c9 bd 9e 27 2a bd 89 3c 53 3c 8b 7c 84 3d
       -0.09820516 -0.04154169 0.012892851 0.06469067
0003a0 1e b8 9b 3d b0 6f 89 bc c3 cc c6 bd 0c 92 c5 bc
       0.07603477 -0.01677689 -0.09707024 -0.024117492
0003b0 b0 ac f6 3c 50 02 ff bc 5d 63 0e be 58 e3 1c 3d
       0.03011164 -0.031129032 -0.13905092 0.03830275
0003c0 8a 68 48 3c 62 ef 55 3d be cc 06 bd ff e8 5d 3d
       0.012231955 0.052230246 -0.0329101 0.05417728
0003d0 02 a8 1e 3d 8c 55 56 3d 16 12 9d bd a5 de 47 3d
       0.038734443 0.052327678 -0.07669465 0.048796315
0003e0 6a c9 ce 3c 4b f3 ce bc 51 58 f1 bd ad 94 12 be
       0.025242526 -0.025262496 -0.11784423 -0.14314528
0003f0 97 9a 26 3d 18 79 d9 3d ff be ee bc 76 2d 51 3d
       0.040674772 0.106188 -0.029143808 0.051068746

critic.2.bias f4 [64]
000000 b8 3e b7 bd 97 af 77 bd 48 fc 52 bd 85 20 05 be
       -0.089475095 -0.06047019 -0.051510125 -0.13000686
000010 39 1f b3 bd 97 b2 6a bb 59 d9 7a 3c 21 f8 0c be
       -0.087461896 -0.0035812014 0.015310609 -0.13766529
000020 18 9f 8e bd 3d 55 09 be cc d9 0b 3c 5f 9d a3 bd
       -0.069639385 -0.13411422 0.008535814 -0.079890005
000030 14 a8 27 bd 15 5c 15 be 1f d8 9a bd 3b c4 9d bb
       -0.040931776 -0.14585908 -0.07560753 -0.0048146523
000040 cb 78 f7 bd 0f c0 03 bd 63 c1 42 bb 7f e5 bd 3c
       -0.12083586 -0.032165583 -0.0029717318 0.023180721
000050 31 1b 3f 3d e0 08 07 bd 4c bb e9 bc b7 d5 09 be
       0.04665679 -0.03296745 -0.028531693 -0.13460432
000060 2b 94 27 3d 14 72 b5 bd 44 87 34 3e ab fc dc bd
       0.04091279 -0.08859649 0.17629725 -0.1079038
000070 8d 41 dd bb c2 0a 7f bd 38 f3 07 be 46 5b 70 bd
       -0.006752199 -0.06226612 -0.13276374 -0.058680795
000080 e6 1a 83 bc e8 d4 64 3e 79 92 4d 3d 34 b3 6f 3d
       -0.016004037 0.22346842 0.050188515 0.05852051
000090 3d ce 07 3c 66 81 fa bd d4 f5 32 3d ab 60 43 bc
       0.008288917 -0.12231712 0.04369147 -0.011924903
0000a0 05 e6 13 3e 6e eb 06 bd aa c2 93 3b 3e 40 1c 3d
       0.14443214 -0.032939367 0.0045092897 0.038147204
0000b0 8f 02 29 3d cb b5 d7 3c 96 de 94 bd 0a ab fd bd
       0.041262206 0.026331803 -0.072690174 -0.12386139
0000c0 b6 73 37 3e 5b 34 91 3d 56 01 22 3d 76 70 80 bd
       0.17915234 0.07090064 0.039552055 -0.0627145
0000d0 d6 9d 35 3d 17 85 53 3d ea 70 87 3d 99 74 13 bd
       0.044339977 0.051640596 0.066133335 -0.035999868
0000e0 47 05 05 3e 43 47 25 3e 38 b7 10 be a1 00 77 bd
       0.12990294 0.16140465 -0.14132392 -0.060303334
0000f0 af aa 82 3d c9 38 2e bd ea a8 7b bb 8b df 4a 3d
       0.063802116 -0.042534623 -0.0038400241 0.049529593

critic.4.weight f4 [1, 64]
000000 77 a1 b2 be c5 6b 94 b8 45 12 3a be ee 2e 22 bb
       -0.34888813 -7.0772636e-05 -0.18171032 -0.002474721
000010 c3 ac 09 be 7f 14 39 3c 95 de e2 bd 5f 24 9e bd
       -0.1344481 0.011296391 -0.110776104 -0.07721781
000020 9d b4 fe b9 67 18 83 bb f4 0f 9b ba 0e f4 50 bd
       -0.00048581223 -0.0040007117 -0.0011830316 -0.051014
000030 d1 6a 13 3c 88 3e 5c be 1f 69 56 bc 2a 3c 34 be
       0.008997635 -0.21508229 -0.013086586 -0.17601076
000040 7d 36 5f 3d 69 dc 4b be 3e d3 69 be e5 68 9e be
       0.054495323 -0.19908299 -0.22834489 -0.30939403
000050 2c e0 ed 3d 42 94 39 bd c5 88 48 be 16 28 5e 3a
       0.11615023 -0.045307405 -0.19583423 0.0008474601
000060 fe 01 0e 3d 70 6f 11 3c 23 cb c6 3d dc 35 53 bc
       0.03466987 0.008876666 0.09706714 -0.012891259
000070 9d 6f 8e bd b5 59 70 3a c5 35 2f bb 04 02 62 3b
       -0.06954882 0.0009168641 -0.002673493 0.0034486065
000080 3c 80 9f 3c 08 fe 51 3d f4 fe 42 3c 95 10 ca 3a
       0.019470327 0.051267654 0.011901606 0.0015416319
000090 5a a7 16 bd 15 52 b6 bb a2 b0 ac 3c 18 e0 85 bd
       -0.036780693 -0.005563984 0.021080319 -0.06536883
0000a0 09 18 97 3d 43 f3 ae bb 4e 59 1e bd ce 1e de bd
       0.07377631 -0.0053390577 -0.038659386 -0.10845719
0000b0 63 0d 15 3c 33 41 76 be 85 4a 09 3e 8f 60 70 be
       0.00909743 -0.24048309 0.13407333 -0.23474334
0000c0 62 73 05 3e f2 8a 3b be 4b 26 ec 3b 32 9f 1a bb
       0.13032296 -0.18314722 0.0072067133 -0.0023593423
0000d0 0f ed dc 3a 27 71 d4 3d 44 08 06 be ee 82 99 bd
       0.0016855317 0.103731446 -0.1308909 -0.07495676
0000e0 fc 99 57 3d 96 a8 24 3e b0 d2 10 be c0 36 b1 bc
       0.052637085 0.16079935 -0.14142871 -0.021632552
0000f0 7a e3 d7 ba d2 c7 b3 3d d8 22 a1 be 49 d7 35 be
       -0.0016470992 0.08778347 -0.31471896 -0.17757906
