Models/Reward_shaping_vm/RS_norm_vm_meander_15_0/3000.pth (torch, 78423 bytes, 11 tensors)

actor.0.weight f4 [64, 62]
-0.12595212 -0.09838183 0.11509069 -0.08850021 0.064825 0.0072502587 -0.020336604 0.028459221
0.13036153 -0.036924716 0.034562632 -0.042959336 -0.044277105 -0.021177696 0.120075956 -0.11321865
-0.017105399 -0.14125006 0.120433174 -0.08999143 0.12645783 -0.11297881 0.030884834 -0.027127087
0.072389305 -0.16226617 0.031254224 -0.19990034 0.012135693 -0.04817994 0.13183403 0.047454376
0.14528763 0.11913042 0.11603651 -0.005198723 -0.14175637 0.101669036 -0.061015416 -0.08997853
0.057635263 0.055209313 -0.01849073 -0.07663158 0.14558198 0.0969418 -0.05545066 0.093151145
0.07645195 -0.047469284 0.10133517 0.03408901 -0.122160524 -0.06336678 -0.094960205 0.038385622
-0.040221993 0.1470128 0.14191525 0.052240107 0.074456766 0.13132341 0.098007515 0.16324058
-0.010306824 0.009762861 -0.07838872 -0.015187882 0.020065155 0.10101753 -0.035184752 0.0035325417
0.04686348 0.12676755 -0.021351784 0.10035122 0.14640476 0.04057778 0.21061894 0.19658567
-0.026791299 0.2092006 -0.012437303 0.011033659 -0.11361136 0.14055966 -0.11289354 0.12762319
-0.008967818 0.15269239 0.19650272 0.11177718 0.058495045 0.0067022312 0.08610668 0.18118806
0.053160913 0.16623978 -0.012773036 0.033361796 0.06697319 -0.09835892 -0.06631751 0.14258796
-0.07711647 -0.01124426 -0.111112565 0.036944333 0.09662978 -0.1506843 -0.09789901 -0.03849965
0.09032115 0.10862748 0.09065654 0.050437164 0.10039216 -0.042258844 -0.03451859 0.049451496
-0.08282364 -0.017932925 -0.0944625 0.014386398 -0.058090966 0.113329016 0.067022905 -0.1022284
-0.04017916 0.1636898 -0.059031725 0.13334355 0.039113794 0.019378962 -0.043892153 -0.042230204
0.14107518 -0.038677637 0.012726973 0.10991192 -0.06594519 0.0062651597 -0.019740578 0.020422729
-0.017886095 0.14757171 -0.108053796 -0.0020401287 0.09546222 0.044783197 0.11708149 0.06514327
-0.03313862 -0.08140545 -0.07963192 0.10190834 0.069345266 0.0053133066 -0.08369781 0.055689316
0.11190375 0.1705859 0.0681241 -0.0014222302 -0.020471275 -0.068115294 0.071062356 -0.05433146
-0.07635061 -0.10812343 -0.014123313 -0.047243852 0.040992633 0.087618455 -0.14823663 -0.117000096
0.005772934 0.057514776 0.005975582 -0.021033289 0.0005350931 -0.053082146 -0.036304675 -0.09660962
0.029596057 -0.01201908 0.08544972 -0.10888843 0.106662065 -0.006185381 -0.046880443 0.16453184
-0.038220257 0.023407176 0.048581716 0.054582756 0.031513188 0.014014321 -0.10352859 0.10665819
0.05837769 0.027510298 -0.111413665 -0.14971527 0.010780647 0.14802302 -0.02949251 -0.010532972
-0.09275946 -0.10063753 0.09408073 -0.0625138 -0.037044726 -0.057779368 0.03675691 0.04271489
0.04074349 0.22181778 0.03860252 -0.06624229 -0.046897877 0.10408052 -0.027647596 0.10234214
-0.14631356 -0.08540729 -0.029831666 0.09432128 -0.05443 -0.091144204 -0.08261478 0.015926417
0.08618719 -0.094536826 0.05797043 -0.017038828 0.086327806 0.07958088 0.037505016 -0.07426009
0.081753425 -0.08594055 -0.06747485 0.03878601 -0.004943675 -0.076952554 -0.0003868557 0.08103097
0.047338996 0.011420949 0.089341186 -0.037330933 -0.058814216 0.14567938 -0.22780441 -0.06790008
00000000: 98f9 00be 6a7c c9bd abb4 eb3d 993f b5bd
00000010: f8c2 843d 9493 ed3b f398 a6bc 5023 e93c
00000020: 7e7d 053e 5f3e 17bd 8c91 0d3d 21f6 2fbd
00000030: e95b 35bd d97c adbc 62ea f53d 2edf e7bd
00000040: 9f20 8cbc dba3 10be aba5 f63d 6d4d b8bd
00000050: 297e 013e 6f61 e7bd 3102 fd3c a039 debc
00000060: d840 943d 1a29 26be 6e04 003d adb2 4cbe
00000070: c9d4 463c 5458 45bd 80ff 063e 855f 423d
00000080: 48c6 143e a6fa f33d 8da4 ed3d 0d5a aabb
00000090: 9528 11be db37 d03d 4deb 79bd aa46 b8bd
000000a0: f412 6c3d 2923 623d df79 97bc 05f1 9cbd
000000b0: 7113 153e 6c89 c63d 3b20 63bd 07c6 be3d
000000c0: d792 9c3d 276f 42bd d088 cf3d eba0 0b3d
000000d0: 4c2f fabd 71c6 81bd 7f7a c2bd 3e3a 1d3d
000000e0: d1bf 24bd 868a 163e 3b52 113e b9f9 553d
000000f0: ca7c 983d a579 063e 2ab8 c83d 8a28 273e
00000100: f4dd 28bc 68f4 1f3c 448a a0bd 98d6 78bc
00000110: ae5f a43c 47e2 ce3d e31d 10bd 3782 673b
00000120: ecf3 3f3d 5acf 013e f0e9 aebc f184 cd3d
00000130: 21eb 153e e334 263d 7eac 573e c14d 493e
00000140: 6d79 dbbc af38 563e d4c5 4bbc 85c6 343c
00000150: 13ad e8bd dfee 0f3e ba34 e7bd a7af 023e
00000160: c1ed 12bc 655b 1c3e 0238 493e 6feb e43d
00000170: 8098 6f3d 649e db3b b358 b03d 5d89 393e
00000180: 42bf 593d c33a 2a3e ff45 51bc 61a6 083d
00000190: 3d29 893d 6770 c9bd 7ad1 87bd 9402 123e
000001a0: 3def 9dbd d839 38bc fc8e e3bd f152 173d
000001b0: d6e5 c53d fc4c 1abe 477f c8bd cfb1 1dbd
000001c0: 4cfa b83d 1678 de3d 23aa b93d 3397 4e3d
000001d0: 689a cd3d 9c17 2dbd 5d63 0dbd a78d 4a3d
000001e0: 719f a9bd 12e8 92bc 8e75 c1bd edb4 6b3c
000001f0: cbf0 6dbd 0b19 e83d 4e43 893d 205d d1bd
00000200: e792 24bd 4d9e 273e 40cb 71bd 368b 083e
00000210: c935 203d a1c0 9e3c 42c8 33bd 94f9 2cbd
00000220: 0376 103e 716c 1ebd cb84 503c 8019 e13d
00000230: 460e 87bd f84b cd3b feb6 a1bc 914d a73c
00000240: dc85 92bc 0a1d 173e 4f4b ddbd aeb3 05bb
00000250: b281 c33d 966e 373d 6cc8 ef3d d669 853d
00000260: 5dbc 07bd e7b7 a6bd 0f16 a3bd 52b5 d03d
00000270: e404 8e3d 3f1b ae3b c269 abbd 7b1a 643d
00000280: cb2d e53d 12ae 2e3e a684 8b3d 206a baba
00000290: 60b3 a7bc 0880 8bbd 2489 913d aa8a 5ebd
000002a0: b55d 9cbd d16f ddbd 7865 67bc c582 41bd
000002b0: e4e7 273d 4e71 b33d 58cb 17be bf9d efbd
000002c0: e12a bd3b 9d94 6b3d d1ce c33b 014e acbc
000002d0: 7d45 0c3a aa6c 59bd 36b4 14bd 44db c5bd
000002e0: 6e73 f23c adeb 44bc 4300 af3d e600 dfbd
000002f0: a471 da3d bdae cabb b505 40bd 097b 283e
00000300: d88c 1cbd 68c0 bf3c 9ffd 463d 2b92 5f3d
00000310: f913 013d 539c 653c cc06 d4bd 9c6f da3d
00000320: 721d 6f3d 475d e13c d92c e4bd f64e 19be
00000330: 50a1 303c 5993 173e 479a f1bc 7d92 2cbc
00000340: acf8 bdbd 0d1b cebd 66ad c03d 3c07 80bd
00000350: 36bc 17bd 0faa 6cbd 6a8e 163d cff5 2e3d
00000360: a5e2 263d 3324 633e ad1d 1e3d 0aaa 87bd
00000370: fd17 40bd 2b28 d53d 367d e2bc c298 d13d
00000380: 39d3 15be 04ea aebd 8a61 f4bc 842b c13d
00000390: fef1 5ebd d0a9 babd f031 a9bd 1e78 823c
000003a0: e982 b03d 869c c1bd 6772 6d3d 0395 8bbc
000003b0: a2cc b03d 4dfb a23d dc9e 193d ad15 98bd
000003c0: 576e a73d 9901 b0bd 4130 8abd 14de 1e3d
000003d0: 8dfe a1bb 4d99 9dbd e5d2 cab9 91f3 a53d
000003e0: 89e6 413d ef1e 3b3c 83f8 b63d 52e8 18bd
000003f0: 2de7 70bd fa2c 153e 8f45 69be 320f 8bbd

actor.0.bias f4 [64]
0.020279272 -0.0830391 0.00986265 -0.009184288 -0.060456987 0.042430483 0.07487132 -0.075432494
0.08928453 0.0043170527 -0.028276855 -0.09110309 0.0023150856 -0.06479485 -0.055541877 0.060463417
0.19587593 -0.07321694 0.01936708 -0.1307822 -0.0012376423 0.14171956 -0.0067527676 0.03384273
-0.013096594 0.042972818 -0.016237257 0.12358129 -0.07063493 0.15167889 -0.0277021 0.14066535
0.08042371 -0.08869661 -0.11286757 -0.0124526275 0.03018949 0.06634807 0.13646977 -0.017299602
-0.0397617 -0.024614047 -0.08910141 0.08936719 0.1583112 -0.08751868 0.07953644 0.11343412
0.024582384 0.10734809 0.0805315 0.14745772 -0.13905925 -0.018517312 -0.008226866 -0.0123828035
-0.0005452914 0.15243328 -0.09651867 0.09888059 0.08106301 -0.08633483 0.047810107 0.10724958
00000000: b720 a63c 6710 aabd f496 213c b279 16bc
00000010: bfa1 77bd 96cb 2d3d 2256 993d 5a7c 9abd
00000020: cfda b63d 1076 8d3b dda4 e7bc 4294 babd
00000030: b1b8 173b 2ab3 84bd e17f 63bd 7da8 773d
00000040: b393 483e c3f2 95bd b6a7 9e3c c5eb 05be
00000050: 6238 a2ba ef1e 113e 5246 ddbb ad9e 0a3d
00000060: 1993 56bc 4404 303d ff03 85bc 3018 fd3d
00000070: 0ca9 90bd b651 1b3e 84ef e2bc 940a 103e
00000080: 30b5 a43d 91a6 b5bd 1d27 e7bd 1b06 4cbc
00000090: f34f f73c 7fe1 873d bbbe 0b3e e5b7 8dbc
000000a0: 2add 22bd 66a3 c9bc cd7a b6bd 2506 b73d
000000b0: 551c 223e fe3c b3bd 00e4 a23d 2650 e83d
000000c0: ff60 c93c 51d9 db3d b3ed a43d 28ff 163e
000000d0: 8c65 0ebe 9eb1 97bc fac9 06bc 3ee1 4abc
000000e0: e3f1 0eba 7817 1c3e 95ab c5bd e881 ca3d
000000f0: 5d04 a63d 51d0 b0bd 88d4 433d aba5 db3d

actor.2.weight f4 [64, 64]
0.12996368 0.18005213 -0.08406191 -0.05007752 0.15772687 0.00065060833 0.013753934 -0.07112181
0.056996178 0.036619257 0.06787755 0.049389068 0.010240166 -0.028795445 -0.1171405 0.10937661
0.03978035 -0.0533851 0.07838799 -0.0712448 -0.07874331 0.10978593 0.059798397 0.030733133
0.0060720877 -0.062193613 0.027735222 0.12267135 -0.048785854 -0.07308137 0.07278593 -0.021371355
0.11184007 -0.018200187 -0.084419556 0.044062167 0.16192406 0.079214096 0.057895932 0.01569987
0.057042643 0.13097014 -0.0883688 0.056894917 0.16165753 0.10580414 -0.0152207 0.07301689
-0.017490711 0.05609994 0.07569434 0.018526513 -0.036567684 0.012330257 0.037934497 -0.061573237
0.10259698 0.04308198 0.12899771 -0.042525247 0.069950126 -0.06659447 -0.004923864 0.15494622
0.10002407 0.083457164 0.04009153 0.054232646 -0.13927221 0.059030436 0.07370685 0.0088810865
0.012496194 -0.1077794 -0.07368278 0.0005284263 0.15587167 0.020146426 -0.012047036 -0.01240292
0.06922846 -0.030878322 0.0034581614 -0.022310922 -0.07717733 0.104206525 0.14367941 0.1247892
0.034635868 0.003685581 -0.04963671 0.092238 0.043174293 -0.05488062 -0.08618861 -0.040684167
0.01949733 0.035945322 0.060533874 0.006179437 0.09442819 -0.056505132 -0.075737245 0.10003905
-0.07113192 0.08753532 0.150579 -0.09499274 0.12669377 0.072254494 0.13788001 0.07083021
0.027646964 -0.07702339 0.15220267 0.051228732 0.05540375 -0.090794444 -0.048734426 -0.03978293
0.15528119 -0.032836426 0.09921987 -0.017086225 -0.14962651 0.1297987 -0.09557448 -0.050890096
0.099199764 -0.04389667 -0.0340756 0.15134941 -0.12705714 -0.0005919848 -0.015048362 -0.013629132
0.06491039 -0.1122335 0.00877853 -0.11581883 0.109128594 0.019143507 0.12820216 -0.078341074
-0.15842403 -0.02191809 0.16004962 -0.026953962 0.054104693 0.07424416 -0.054848008 -0.07678361
0.11485316 0.0005515747 -0.016678238 0.12069228 0.0053414176 -0.004288272 -0.027977439 0.106959745
-0.024654742 0.025340706 0.17336681 0.052204218 0.114614405 -0.09692971 0.13403086 0.09248186
0.06656511 -0.029763054 0.021144988 -0.11129139 0.12757638 -0.057951473 -0.012426265 -0.078301676
-0.0020280802 0.04146554 0.10530471 0.116479024 0.15326467 -0.061824854 0.06204444 -0.037093565
0.14766999 -0.004860628 -0.07690617 0.12046757 -0.08438375 -0.029479932 0.03448316 0.12062801
0.020761687 -0.10257777 -0.06768648 0.01067993 -0.07594975 0.13254851 0.0665923 0.13293974
0.11385487 -0.06239296 0.034245115 -0.118613966 -0.12522326 0.0662745 0.07429981 -0.0539856
0.12541012 -0.0298118 -0.06674768 0.100663915 -0.08358858 -0.0483884 0.014499796 0.1063399
0.08437852 0.0021265338 -0.03235903 0.083038 0.123528734 0.07467019 -0.0837724 0.16779128
0.17132147 0.08447681 0.077013195 -0.008707376 0.018696973 0.106887415 0.015718792 0.08304762
-0.037281074 0.08622458 0.12150763 0.19791794 -0.10110345 -0.017395467 0.07266908 0.047951777
-0.012410672 -0.048636727 0.11452446 0.027915046 -0.109220736 -0.10359541 0.09338364 0.097675726
0.10303809 -0.062168855 -0.0037053558 -0.02256014 0.15933926 0.15411422 0.045797285 -0.046476245
00000000: 3315 053e 965f 383e a728 acbd 161e 4dbd
00000010: 2783 213e 968d 2a3a 2e58 613c 50a8 91bd
00000020: d374 693d 13fe 153d 6303 8b3d 314c 4a3d
00000030: 5fc6 273c 6de4 ebbc 5ce7 efbd d800 e03d
00000040: b8f0 223d 56aa 5abd e289 a03d cbe8 91bd
00000050: 2c44 a1bd 72d7 e03d 2aef 743d 0dc4 fb3c
00000060: 5df8 c63b bbbe 7ebd fa34 e33c 1e3b fb3d
00000070: add3 47bd afab 95bd ca10 953d fb12 afbc
00000080: 680c e53d 8f18 95bc 29e4 acbd 887a 343d
00000090: 6ccf 253e 003b a23d 4924 6d3d 049d 803c
000000a0: 8ca5 693d 091d 063e b4fa b4bd a50a 693d
000000b0: 8d89 253e d7af d83d 3e60 79bc e189 953d
000000c0: ae48 8fbc 0dc9 653d a205 9b3d eac4 973c
000000d0: ffc7 15bd d904 4a3c 3461 1b3d 3834 7cbd
000000e0: 5e1e d23d bb76 303d fa17 043e f42e 2ebd
000000f0: 0342 8f3d ae62 88bd 5d58 a1bb 39aa 1e3e
00000100: 6bd9 cc3d 97eb aa3d 0437 243d 0d23 5e3d
00000110: 609d 0ebe e6c9 713d 9ef3 963d fa81 113c
00000120: d6bc 4c3c 72bb dcbd ffe6 96bd 1786 0a3a
00000130: d39c 1f3e 1e0a a53c ee60 45bc 9e35 4bbc
00000140: a7c7 8d3d 89f4 fcbc 52a2 623b 65c5 b6bc
00000150: 260f 9ebd 3b6a d53d b220 133e 7b91 ff3d
00000160: 57de 0d3d ca89 713b dd4f 4bbd 47e7 bc3d
00000170: 87d7 303d 80ca 60bd a783 b0bd 71a4 26bd
00000180: ddb8 9f3c 673b 133d 5ef2 773d e07c ca3b
00000190: 9163 c13d ed71 67bd 211c 9bbd 46e1 cc3d
000001a0: 9dad 91bd b845 b33d 6231 1a3e 8e8b c2bd
000001b0: 03bc 013e 2afa 933d 6b30 0d3e 6e0f 913d
000001c0: e37b e23c 70be 9dbd 04db 1b3e 38d5 513d
000001d0: 0bef 623d 70f2 b9bd c09d 47bd 6df3 22bd
000001e0: 0802 1f3e 7d7f 06bd ca33 cb3d 69f8 8bbc
000001f0: b137 19be f3e9 043e 8ebc c3bd 2272 50bd
00000200: 3f29 cb3d ffcc 33bd db92 0bbd 57fb 1a3e
00000210: 441b 02be 6d2f 1bba 688d 76bc b94c 5fbc
00000220: bdef 843d adda e5bd d3d3 0f3c 6c32 edbd
00000230: d07e df3d d8d2 9c3c 6d47 033e 4971 a0bd
00000240: e939 22be 918d b3bc 0ce4 233e 8ece dcbc
00000250: e29c 5d3d 520d 983d 4ea8 60bd ba40 9dbd
00000260: 2238 eb3d 8d97 103a cda0 88bc 842d f73d
00000270: 0f07 af3b a284 8cbb f130 e5bc b60d db3d
00000280: bef8 c9bc 5097 cf3c 1287 313e 17d4 553d
00000290: f5ba ea3d 1583 c6bd 633f 093e 2167 bd3d
000002a0: 4a53 883d a6d1 f3bc 4138 ad3c beec e3bd
000002b0: 62a3 023e 865e 6dbd 8897 4bbc a15c a0bd
000002c0: 8ae9 04bb c5d7 293d ffa9 d73d 8e8c ee3d
000002d0: 6af1 1c3e 0f3c 7dbd 5022 7e3d 6cef 17bd
000002e0: cd36 173e e745 9fbb fb80 9dbd b4b7 f63d
000002f0: 63d1 acbd e67f f1bc 373e 0d3d d10b f73d
00000300: 6a14 aa3c 4b14 d2bd 369f 8abd e0fa 2e3c
00000310: 8b8b 9bbd ccba 073e 8b61 883d 5b21 083e
00000320: be2c e93d c38f 7fbd 9b44 0c3d e1eb f2bd
00000330: 873a 00be edba 873d 802a 983d 0120 5dbd
00000340: 836b 003e e037 f4bc 02b3 88bd e228 ce3d
00000350: 7d30 abbd ea32 46bd 8d90 6d3c bcc8 d93d
00000360: a5ce ac3d 515d 0b3b e78a 04bd d40f aa3d
00000370: a2fc fc3d afec 983d dd90 abbd 7ad1 2b3e
00000380: e56e 2f3e 2e02 ad3d 18b9 9d3d 62a9 0ebc
00000390: 652a 993c cae7 da3d b2c4 803c df14 aa3d
000003a0: 0ab4 18bd 8396 b03d fed8 f83d 00ab 4a3e
000003b0: 530f cfbd f080 8ebc 87d3 943d 1569 443d
000003c0: 2256 4bbc 4e37 47bd cd8b ea3d 18ae e43c
000003d0: 1faf dfbd d529 d4bd ec3f bf3d 360a c83d
000003e0: a205 d33d c5a4 7ebd 8ed5 72bb 0bd0 b8bc
000003f0: d529 233e 1ed0 1d3e ef95 3b3d e05d 3ebd

actor.2.bias f4 [64]
0.13656767 0.15370364 0.077290565 0.075698875 -0.14489205 0.079020016 0.104464464 0.04735589
-0.09556678 -0.11280659 -0.018306129 -0.06413365 0.0011752225 0.10299248 0.04276679 0.055763144
-0.13460217 0.13066995 -0.039473694 0.13427423 0.13086101 -0.12969765 0.07272215 0.08054059
-0.079534784 0.025836958 0.0962241 -0.11842806 0.047442142 -0.027981602 0.11377292 -0.021426639
0.044582374 0.038485717 -0.076505184 -0.09099689 0.002785706 -0.0061181355 0.09127151 -0.047087345
0.13228704 0.043816134 0.071142815 -0.096824266 -0.14005165 0.14180115 -0.06294948 0.11761729
0.032536734 -0.038941167 0.12214974 0.08960987 -0.048013292 0.04935092 0.07721281 -0.0019977984
0.09398005 -0.060777705 -0.002990347 -0.07900127 -0.10465069 -0.07640122 -0.015955707 0.06025731
00000000: 65d8 0b3e 7d64 1d3e 844a 9e3d 0308 9b3d
00000010: 955e 14be 3fd5 a13d 77f1 d53d 40f8 413d
00000020: 84b8 c3bd 2407 e7bd bcf6 95bc 8158 83bd
00000030: ec09 9a3a b9ed d23d 3b2c 2f3d e567 643d
00000040: 27d5 09be 58ce 053e 2baf 21bd 2f7f 093e
00000050: 6e00 063e 76cf 04be 5aef 943d 77f2 a43d
00000060: 22e3 a2bd 07a8 d33c 2411 c53d 698a f2bd
00000070: b152 423d ac39 e5bc c701 e93d eb86 afbc
00000080: 029c 363d 33a3 1d3d c0ae 9cbd 945c babd
00000090: 6490 363b a47a c8bb 8fec ba3d a9de 40bd
000000a0: 4176 073e 8c78 333d 53b3 913d cd4b c6bd
000000b0: b369 0fbe 5234 113e a8eb 80bd 55e1 f03d
000000c0: 3d45 053d c680 1fbd a529 fa3d 6185 b73d
000000d0: 96a9 44bd 3124 4a3d c021 9e3d 7fed 02bb
000000e0: 9d78 c03d 0bf2 78bd b3f9 43bb 6bcb a1bd
000000f0: 1a53 d6bd 3e78 9cbd 8bb5 82bc 5ed0 763d

actor.4.weight f4 [36, 64]
0.05770227 0.095009 0.17193766 0.12351173 0.03464616 0.010680311 0.18313211 0.09142386
-0.022239218 -0.04412419 -0.011692211 -0.13296403 -0.06419538 0.041015662 -0.014220033 0.1071371
-0.032887064 -0.04924067 0.10874298 -0.01072316 0.13584115 0.09523662 -0.068028405 -0.18624538
-0.02287075 -0.08576544 0.078411296 0.049292665 0.070179686 -0.05405336 -0.035295594 0.07190966
0.074386306 -0.08483006 -0.021330297 -0.11008623 0.123381026 0.1923138 -0.14015582 0.0006042192
0.18151751 -0.010026991 0.07890442 0.0075343256 0.007834931 -0.11545185 -0.06916414 -0.041396983
-0.06526871 0.058723874 0.11339297 -0.045076907 -0.10775634 0.16146216 0.019027097 -0.1487457
0.005092973 -0.0005775406 -0.06816525 0.13103236 0.09718408 0.12135332 -0.016615292 -0.011025449
-0.053593323 0.05873386 -0.018658813 0.09247609 -0.012621249 -0.026912283 0.036511287 0.049300443
-0.02177121 0.028006975 -0.019806636 0.04579875 0.07087801 0.08200634 0.08051825 0.14162992
0.077982806 0.1362678 0.03221264 0.153225 0.045743275 -0.040664207 0.112501435 0.031002112
0.014639314 0.017664848 0.07601632 0.0007675616 0.14020166 -0.058922883 0.13493742 0.08128878
0.08990884 -0.10985143 -0.094326586 0.07800938 -0.054862376 -0.06473789 0.07875423 0.0730648
0.16163208 0.059070267 0.068169765 0.02352116 0.008663432 0.041653015 0.11161704 0.121326536
0.010170046 -0.023980688 -0.037692323 0.09969196 0.0054355045 0.068755575 -0.024818262 -0.107015565
0.055056967 0.051005125 0.011334756 0.055091064 -0.049434192 0.07593984 -0.054198954 0.06437643
0.1401979 0.007146024 0.07820611 0.10554931 -0.021726351 -0.024052244 0.121912874 0.1932814
-0.15482214 -0.02128428 0.108495116 0.016657233 -0.03475218 -0.0024543463 -0.054167368 0.055890206
0.009880448 -0.09256237 -0.11748696 0.07108292 -0.052790407 -0.094336785 -0.032608185 -0.05503363
0.07623235 0.08849328 -0.06400161 -0.017958824 -0.048949625 -0.019917935 -0.013194329 0.13167
0.0677272 -0.06981172 0.120301366 0.088382095 -0.07220813 0.11272297 0.017904954 0.056892656
-0.05586501 -0.0051411735 -0.077874005 0.07613767 -0.06951812 -0.060320117 -0.075933345 -0.021287285
-0.07120009 -0.07776749 0.109651946 0.12637623 -0.0887508 0.08910294 -0.013710242 0.056284618
0.0800378 -0.11485231 -0.10583107 -0.0056660413 -0.08167352 0.0046614096 0.00700544 -0.025793467
0.14844124 0.07302194 0.14468473 0.06616132 -0.07660329 -0.0021481921 -0.041590594 -0.046239406
-0.061888374 0.1258277 -0.06221546 -0.024312088 0.007725209 0.009156013 -0.023713686 0.113497354
-0.11210246 0.044862147 -0.021835454 0.12707813 0.10219824 0.09316367 0.06185222 0.01065999
-0.004222958 0.05994594 0.15863478 0.11496392 0.054273672 0.0026966135 0.08434649 0.106770486
-0.043636706 0.058783937 0.09452993 0.035290286 -0.008872061 0.06426626 -0.031111155 -0.140938
0.14271104 -0.0606776 -0.049338862 -0.037657216 -0.022909056 0.12312896 -0.013077761 0.099242486
-0.10085843 0.1394455 0.14202908 0.15356396 0.05302735 -0.03847949 -0.05777699 0.12643932
0.15661357 0.12181946 0.0042946623 0.018922258 0.057534993 -0.010167852 0.11205871 -0.008857734
00000000: 3759 6c3d 1494 c23d 6d10 303e b8f3 fc3d
00000010: 22e9 0d3d 79fc 2e3c fc86 3b3e 6f3c bb3d
00000020: 052f b6bc 91bb 34bd b090 3fbc b927 08be
00000030: de78 83bd 0a00 283d 24fb 68bc b26a db3d
00000040: 96b4 06bd 96b0 49bd a4b4 de3d 31b0 2fbc
00000050: f119 0b3e 6b0b c33d 7a52 8bbd 1cb7 3ebe
00000060: 705b bbbc caa5 afbd 1a96 a03d 1be7 493d
00000070: 5eba 8f3d 0e67 5dbd 1d92 10bd 5f45 933d
00000080: d957 983d 62bb adbd e0bc aebc e474 e1bd
00000090: 31af fc3d e9ed 443e 0285 0fbe 7764 1e3a
000000a0: badf 393e 4048 24bc a498 a13d 81e2 f63b
000000b0: 155e 003c 0572 ecbd eea5 8dbd e28f 29bd
000000c0: 9aab 85bd 7288 703d 933a e83d 90a2 38bd
000000d0: 5baf dcbd 5656 253e b7de 9b3c cb50 18be
000000e0: f4e2 a63b 1866 17ba 399a 8bbd 592d 063e
000000f0: 7208 c73d 1788 f83d cb1c 88bc 16a4 34bc
00000100: ac84 5bbd ea92 703d 5eda 98bc 1b64 bd3d
00000110: 5bc9 4ebc 2677 dcbc dc8c 153d 43ef 493d
00000120: 8959 b2bc e26e e53c 8741 a2bc 7897 3b3d
00000130: 7d28 913d f1f2 a73d c1e6 a43d 6f07 113e
00000140: 73b5 9f3d c989 0b3e 67f1 033d 04e7 1c3e
00000150: 4d5d 3b3d 838f 26bd 2767 e63d 24f8 fd3c
00000160: bcd9 6f3c dfb5 903c 72ae 9b3d 3036 493a
00000170: 0691 0f3e 1f59 71bd 092d 0a3e bb7a a63d
00000180: 2022 b83d c9f9 e0bd 4c2e c1bd 62c3 9f3d
00000190: 5fb7 60bd 4d95 84bd e649 a13d ffa2 953d
000001a0: e182 253e aaf3 713d 979c 8b3d 73af c03c
000001b0: 11f1 0d3c 5a9c 2a3d 7a97 e43d 0c7a f83d
000001c0: 44a0 263c 2673 c4bc 4463 1abd 4c2b cc3d
000001d0: 511c b23b b9cf 8c3d ab4f cbbc fa2a dbbd
000001e0: 6a83 613d c0ea 503d 6ab5 393c 2ba7 613d
000001f0: 827b 4abd 5986 9b3d b9ff 5dbd cad7 833d
00000200: 0a90 0f3e 3229 ea3b 862a a03d 3d2a d83d
00000210: 76fb b1bc 3609 c5bc 75ad f93d 8feb 453e
00000220: b289 1ebe 5f5c aebc b032 de3d c074 883c
00000230: 4d58 0ebd 19d9 20bb 9ade 5dbd 21ed 643d
00000240: 9ae1 213c 5791 bdbd 019d f0bd ec93 913d
00000250: c13a 58bd a533 c1bd 2990 05bd f26a 61bd
00000260: b51f 9c3d f73b b53d 4713 83bd 621e 93bc
00000270: 677f 48bd f02a a3bc 072d 58bc 80d4 063e
00000280: 8fb4 8a3d 72f9 8ebd 9060 f63d ac01 b53d
00000290: dbe1 93bd 4ddb e63d 69ad 923c 4608 693d
000002a0: b5d2 64bd 4a77 a8bb 687c 9fbd 11ee 9b3d
000002b0: 845f 8ebd 3a12 77bd f182 9bbd ac62 aebc
000002c0: 5ad1 91bd 9044 9fbd 3391 e03d c568 013e
000002d0: fbc2 b5bd 9a7b b63d eca0 60bc b38a 663d
000002e0: dcea a33d b037 ebbd f6bd d8bd 33aa b9bb
000002f0: 7244 a7bd bdbe 983b e48d e53b d24c d3bc
00000300: fb00 183e 878c 953d 3c28 143e 967f 873d
00000310: 30e2 9cbd afc8 0cbb e65a 2abd 8865 3dbd
00000320: aa7e 7dbd fad8 003e a3d5 7ebd 252a c7bc
00000330: c023 fd3b 1a03 163c 3443 c2bc 4d71 e83d
00000340: f995 e5bd 5fc1 373d 44e0 b2bc c520 023e
00000350: 504d d13d 98cc be3d c158 7d3d 3da7 2e3c
00000360: bd60 8abb e089 753d 2871 223e 3472 eb3d
00000370: 124e 5e3d abb9 303b dabd ac3d 7caa da3d
00000380: 67bc 32bd 6dc7 703d e898 c13d 8c8c 103d
00000390: 1f5c 11bc 079e 833d d2dc febc 0d52 10be
000003a0: d822 123e 1389 78bd 8c17 4abd 743e 1abd
000003b0: c6ab bbbc 092b fc3d 1b44 56bc a53f cb3d
000003c0: dd8e cebd cdca 0e3e 1270 113e df3f 1d3e
000003d0: 3533 593d ab9c 1dbd 91a7 6cbd 4f79 013e
000003e0: 4f5f 203e 7b7c f93d 3dba 8c3b da02 9b3c
000003f0: d0a9 6b3d 1097 26bc 097f e53d 0720 11bc

actor.4.bias f4 [36]
-0.06972592 0.0019121142 0.049999982 0.07175373 -0.08330929 0.00021265063 -0.014357791 0.0181747
-0.088634856 0.02875629 0.13583119 0.026709171 -0.07509875 0.07899477 0.06517065 0.048225783
-0.076829046 -0.101835415 0.06308248 -0.019767888 -0.10637557 -0.028617233 -0.006117213 -0.028795946
0.021777881 -0.07623132 0.039094325 -0.14041117 -0.032687023 0.08664122 -0.10581922 -0.11472631
-0.14078404 -0.14465205 -0.061053507 0.094101556
00000000: 77cc 8ebd e89f fa3a c8cc 4c3d 9ff3 923d
00000010: 109e aabd f8fa 5e39 f13c 6bbc 1ce3 943c
00000020: 3186 b5bd 5092 eb3c 5517 0b3e 31cd da3c
00000030: 60cd 99bd 03c8 a13d 3178 853d 6688 453d
00000040: 8c58 9dbd 168f d0bd 6331 813d 44f0 a1bc
00000050: 6fdb d9bd b06e eabc e772 c8bb 7ae5 ebbc
00000060: 8767 b23c 2b1f 9cbd 5f21 203d f2c7 0fbe
00000070: d4e2 05bd f470 b13d bfb7 d8bd a1f5 eabd
00000080: b129 10be ab1f 14be 3e13 7abd 51b8 c03d

critic.0.weight f4 [64, 62]
0.08799156 -0.14472115 -0.049098194 -0.043822102 0.080012076 0.0196821 -0.022355972 0.08366808
-0.03657854 0.061181266 -0.008078527 0.08292319 -0.09797013 -0.06652804 0.09408045 0.08025579
-0.14632498 -0.13843243 -0.086578965 -0.056675576 0.09372426 0.05289418 0.026849631 -0.05418949
0.0021651213 -0.14136764 0.06455502 0.090810396 -0.0073887478 -0.080501005 -0.0063317902 0.08757821
-0.03761778 0.06307488 -0.085442394 0.10255811 -0.059737187 -0.081071295 -0.14866963 -0.06331095
-0.10937817 0.08118688 0.026079686 0.115380175 0.12237496 0.14375177 0.021397538 0.19225675
-0.11115094 -0.037958227 0.18123068 -0.07625249 0.1259664 -0.03296464 -0.122536846 0.084789574
-0.07086465 -0.038622227 0.14584754 0.08955859 -0.10833579 -0.09859351 0.042185813 -0.047715973
0.076054834 -0.09087866 0.06316943 -0.07763025 -0.09000683 0.09405986 0.05780426 -0.06483189
-0.128603 -0.024293195 0.13626933 0.08045426 -0.10574544 0.11111336 -0.07338386 -0.011709324
-0.060317084 0.033297736 0.03928694 0.005462535 -0.06748061 -0.023789853 0.033719953 -0.0814583
0.08701694 0.08330953 -0.016413493 0.032891165 -0.11052536 -0.15321271 -0.07280497 -0.089185745
-0.034351785 0.07166788 0.03192096 0.08865527 -0.15266287 0.14896062 -0.0009289012 -0.08108006
-0.1581554 -0.13758628 -0.14829686 -0.02454951 0.0275937 0.08437546 -0.09116181 -0.023470717
-0.101882175 0.034754485 -0.0066195764 -0.046937976 -0.09553276 0.05385769 -0.14791189 -0.049331244
0.07661971 -0.058192015 0.009625612 0.037672788 0.10759592 0.13847904 0.0721923 0.118226856
-0.051273044 -0.08520938 -0.12717426 -0.06945955 0.06358034 -0.019320086 -0.10013953 0.06446729
0.016075958 0.008928516 0.0029559345 -0.0322617 -0.11758617 -0.05267682 0.08180877 -0.032024562
0.09472365 -0.19202249 0.09275585 0.092508145 -0.04953838 -0.1432653 -0.071214944 -0.0511336
0.019937957 -0.0121143265 -0.019671036 0.049630076 -0.12082666 -0.13526963 0.11491416 0.09393751
-0.056075174 -0.039020993 -0.021225423 -0.023119802 -0.1214296 -0.06942987 -0.01772281 -0.015432542
0.10458528 0.027659686 0.06829677 -0.07340379 0.017275276 -0.093555994 0.09158465 -0.09110863
-0.010702319 0.061624788 0.080348395 0.06610102 0.07946497 -0.05144804 -0.043567337 -0.03439676
-0.063086316 0.0046935994 0.08340189 0.12136504 0.07615432 0.11271253 -0.09889807 0.06904462
-0.011007812 0.09584955 -0.012024151 0.08821494 -0.037463512 -0.019320128 -0.05600574 -0.026368422
-0.031017933 0.010723384 -0.021304403 0.0087080235 0.10504214 0.042020887 0.013347105 -0.064172804
0.100948244 0.07701761 0.007543184 0.00058894604 -0.0322041 0.063671365 -0.03266527 -0.032645445
-0.0840422 -0.09375943 0.056369968 -0.021495959 0.07683202 0.07301496 -0.07162302 -0.07817735
-0.04761514 0.033130046 -0.10244898 -3.7938516e-06 0.03878529 -0.13133417 0.13805237 0.07535552
0.042172857 -0.08431473 0.054977372 0.021059563 0.07193755 -0.021038685 -0.008555349 -0.110510185
-0.07793319 -0.041751694 -0.0013687836 0.04999645 0.0012445062 0.09112394 -0.058404364 0.09714195
-0.007693341 -0.099725276 -0.0043650907 -0.05844655 -0.061741367 0.05996287 -0.040110562 -0.099924915
00000000: eb34 b43d c831 14be 301b 49bd ce7e 33bd
00000010: 5fdd a33d 5b3c a13c df23 b7bc 2c5a ab3d
00000020: 61d3 15bd 3599 7a3d cc5b 04bc a2d3 a93d
00000030: 90a4 c8bd da3f 88bd 40ad c03d 265d a43d
00000040: 37d6 15be 3bc1 0dbe 5050 b1bd a624 68bd
00000050: 81f2 bf3d 91a7 583d c2f3 db3c ccf5 5dbd
00000060: b5e4 0d3b aec2 10be 6c35 843d cdfa b93d
00000070: 4f1d f2bb b6dd a4bd e87a cfbb 345c b33d
00000080: 1a15 1abd 672d 813d 6cfc aebd fd09 d23d
00000090: fbae 74bd b508 a6bd da3c 18be 2ca9 81bd
000000a0: a901 e0bd 4f45 a63d 11a5 d53c 714c ec3d
000000b0: b99f fa3d aa33 133e e449 af3c f4de 443e
000000c0: 1ba3 e3bd 167a 1bbd 8994 393e 442a 9cbd
000000d0: 56fd 003e ee05 07bd 99f4 fabd 28a6 ad3d
000000e0: 7c21 91bd 5732 1ebd 0f59 153e 7e6a b73d
000000f0: 28df ddbd 65eb c9bd 08cb 2c3d d371 43bd
00000100: a3c2 9b3d 971e babd f95e 813d 9cfc 9ebd
00000110: 8055 b8bd 75a2 c03d 29c4 6c3d 95c6 84bd
00000120: 81b0 03be 8602 c7bc 308a 0b3e 34c5 a43d
00000130: 1191 d8bd 678f e33d 474a 96bd 77d8 3fbc
00000140: 0c0f 77bd 3563 083d 58eb 203d 11ff b23b
00000150: 4633 8abd f0e2 c2bc ef1d 0a3d 9cd3 a6bd
00000160: f035 b23d 309e aa3d 9775 86bc e3b8 063d
00000170: 1f5b e2bd cbe3 1cbe c61a 95bd 04a7 b6bd
00000180: 75b4 0cbd 9cc6 923d 8dbf 023d e590 b53d
00000190: a853 1cbe 2289 183e 8181 73ba 4d0d a6bd
000001a0: 7df3 21be 6be3 0cbe 22db 17be 0e1c c9bc
000001b0: 2f0c e23c 0bcd ac3d 0bb3 babd a945 c0bc
000001c0: 9aa7 d0bd b85a 0e3d 08e9 d8bb 0942 40bd
000001d0: aea6 c3bd e299 5c3d 3776 17be 8f0f 4abd
000001e0: cbea 9c3d c05a 6ebd beb4 1d3c c84e 1a3d
000001f0: 405b dc3d 73cd 0d3e 8ed9 933d ec20 f23d
00000200: af03 52bd 4182 aebd f839 02be cf40 8ebd
00000210: 6936 823d 2845 9ebc f415 cdbd 6d07 843d
00000220: bab1 833c e948 123c 5ab8 413b d824 04bd
00000230: 05d1 f0bd a6c3 57bd 5b8b a73d 302c 03bd
00000240: 79fe c13d 8ba1 44be c7f6 bd3d e974 bd3d
00000250: c2e8 4abd 24b4 12be 24d9 91bd 7771 51bd
00000260: ed54 a33c 2b7b 46bc 2725 a1bc e848 4b3d
00000270: f873 f7bd 1f84 0abe 1d58 eb3d 4f62 c03d
00000280: 15af 65bd 7ad4 1fbd f0e0 adbc bd65 bdbc
00000290: 15b0 f8bd 3f31 8ebd 6d2f 91bc c6d8 7cbc
000002a0: cf30 d63d 9196 e23c 2ddf 8b3d ba54 96bd
000002b0: e184 8d3c 499a bfbd bc90 bb3d 2997 babd
000002c0: c858 2fbc 466a 7c3d b38d a43d f95f 873d
000002d0: 88be a23d 2ebb 52bd aa73 32bd 9ee3 0cbd
000002e0: 6633 81bd c4cc 993b 9cce aa3d 3c8e f83d
000002f0: ccf6 9b3d d4d5 e63d 128b cabd 4467 8d3d
00000300: 1c5a 34bc c54c c43d f200 45bc 09aa b43d
00000310: 5773 19bd 3f45 9ebc 4666 65bd 9702 d8bc
00000320: 5219 febc 22b1 2f3c 9286 aebc 19ac 0e3c
00000330: 5520 d73d 181e 2c3d d1ad 5a3c 086d 83bd
00000340: f4bd ce3d 69bb 9d3d d02c f73b 8063 1a3a
00000350: 72e8 03bd 2266 823d 05cc 05bd 3bb7 05bd
00000360: 511e acbd f204 c0bd 32e4 663d 4b18 b0bc
00000370: 1b5a 9d3d de88 953d 17af 92bd 721b a0bd
00000380: 1808 43bd 5fb3 073d c5d0 d1bd e099 7eb6
00000390: 53dd 1e3d 777c 06be 9a5d 0d3e ff53 9a3d
000003a0: 72bd 2c3d 33ad acbd f42f 613d 1b85 ac3c
000003b0: ff53 933d 5259 acbc bc2b 0cbc 2a53 e2bd
000003c0: 709b 9fbd d303 2bbd c268 b3ba 14c9 4c3d
000003d0: b31e a33a 309f ba3d 6a39 6fbd 5cf2 c63d
000003e0: 6c18 fcbb c43c ccbd 0909 8fbb a665 6fbd
000003f0: 84e4 7cbd a09b 753d f94a 24bd 6fa5 ccbd

critic.0.bias f4 [64]
-0.07352601 -0.10018546 0.09817891 0.106253676 -0.041057188 0.034235705 -0.050283536 0.07161178
-0.045039162 0.024454739 0.006950092 -0.09203612 -0.0056611146 -0.022646591 -0.1583961 -0.15358935
-0.022805452 0.036898315 -0.080787525 0.025678206 0.13527688 -0.024184631 -0.06282668 -0.045325894
-0.057763167 -0.08637429 0.09678783 0.11139461 0.029010292 0.01543112 -0.13296409 0.056951176
-0.02420436 -0.06488178 -0.041222267 0.024100674 0.052896507 0.08757936 0.14046538 -0.0071799145
0.045800522 0.12049546 -0.025503367 0.048374366 0.11034928 -0.10352724 0.09778453 -0.08879887
-0.03892411 -0.056090817 0.05641112 -0.0333746 0.07107833 0.06806264 -0.031249046 -0.025058402
-0.07827199 0.025807176 0.0018309192 -0.041915484 -0.070831664 -0.098311916 -0.0859169 -0.044566415
00000000: ce94 96bd 092e cdbd 0612 c93d 879b d93d
00000010: 952b 28bd bd3a 0c3d 1cf6 4dbd 32a9 923d
00000020: fc7a 38bd 4e55 c83c 99bd e33b 6f7d bcbd
00000030: df80 b9bb 5885 b9bc 9632 22be 8746 1dbe
00000040: 80d2 babc b022 173d ee73 a5bd 1a5b d23c
00000050: 0686 0a3e d91e c6bc 46ab 80bd a5a7 39bd
00000060: 1299 6cbd 01e5 b0bd b338 c63d db22 e43d
00000070: fea6 ed3c cfd2 7c3c bd27 08be a345 693d
00000080: 3948 c6bc bde0 84bd aed8 28bd c76e c53c
00000090: 02aa 583d cf5c b33d 28d6 0f3e 7d45 ebbb
000000a0: 5499 3b3d 53c6 f63d 70ec d0bc 3324 463d
000000b0: cefe e13d 1706 d4bd 4143 c83d 2fdc b5bd
000000c0: e36e 1fbd 7cbf 65bd 590f 673d ceb3 08bd
000000d0: 8491 913d 6d64 8b3d 00fe ffbc 4747 cdbc
000000e0: 114d a0bd 9269 d33c 74fb ef3a 92af 2bbd
000000f0: 3110 91bd c257 c9bd 33f5 afbd 468b 36bd

critic.2.weight f4 [64, 64]
0.054665953 -0.09249188 -0.032974653 0.08209261 0.0020679706 -0.00463855 -0.12592904 -0.097394325
-0.10113568 -0.10068658 -0.07817727 -0.036001306 0.032258082 -0.04249857 0.036512405 0.02330701
-0.021181948 -0.0109926015 -0.08924241 -0.05067563 0.07936036 0.069792815 -0.060283616 -0.10520467
-0.04480653 0.0844013 0.0131569225 -0.047539692 -0.011984977 -0.15580605 -0.028765306 0.020780828
-0.0026864533 -0.075305134 -0.05640272 -0.16544639 0.040015865 0.0025470038 -0.04156696 -0.06898135
-0.009230967 0.13764885 -0.079592094 0.02685382 -0.052039772 -0.036004692 -0.1462354 0.08351793
-8.321922e-05 0.0979134 -0.008800691 0.08990622 -0.09724395 -0.08049687 0.13859314 0.10018431
0.05444334 -0.029807195 -0.096256815 -0.116252035 0.08560963 -0.07200351 0.15798037 0.043072768
0.066438265 0.06792895 0.08993411 -0.08035254 -0.009356677 -0.027017344 -0.005038129 -0.07921373
0.090739414 -0.16840467 0.030683529 0.08227399 0.11556341 0.021136217 0.058056705 -0.0812351
-0.0263053 0.04258931 0.053435683 -0.088037804 0.102055386 -0.0073105916 -0.03473978 0.062972344
0.047864284 0.07749647 -0.004359463 0.074105375 -0.047755126 -0.05701613 0.017494846 0.10371058
-0.027822642 0.023186974 -0.023511933 -0.018246783 -0.084239684 0.06616388 0.026274454 0.08596471
0.14358607 0.1504177 3.6870682e-05 0.0310529 -0.09369839 -0.10268328 0.01751931 -0.089089915
-0.03136545 0.12195744 -0.07528109 -0.034888264 -0.052344467 0.021351136 -0.03268787 0.056863748
0.09952889 -0.015472737 0.039514832 -0.107297495 -0.024397884 -0.044983163 0.088463366 -0.07491831
-0.021477005 0.007615734 0.08601685 0.07063036 -0.018429738 0.018020496 0.078311324 0.07258605
0.1206861 -0.04458174 -0.03979414 0.13591483 0.010204258 0.031307053 0.020384513 0.090511054
0.060508225 0.14486156 0.13755444 0.014813019 -0.034014557 0.07368035 -0.09696782 -0.08421712
-0.102008015 -0.10837795 0.031721637 -0.032863624 0.07552529 0.03810309 0.092353486 0.1279168
0.12360549 0.014127542 0.031004215 -0.07724843 0.07760229 -0.043703195 0.1725899 0.07797062
0.0789374 0.026074613 0.16655481 0.04692048 0.027293125 -0.0334205 0.05468112 0.09054776
-0.013997212 0.045577414 -0.104192965 -0.05129995 0.12350689 0.11817208 -0.052011948 0.058301322
-0.037195593 -0.09179939 -0.11313509 -0.13731255 -0.039653428 0.008101997 -0.07772975 0.0795186
0.1900996 -0.11058773 -0.063244216 -0.0491987 -0.018201016 -0.009340798 0.10750654 -0.12493184
0.046523396 0.09852211 -0.067827046 0.0046346444 -0.014260487 0.028435035 0.04748909 -0.114561304
0.0314662 0.057987902 0.08127669 0.046610683 -0.0680811 0.037829813 0.021711258 -0.09528267
-0.073956974 -0.051345374 0.15535612 0.10166379 -0.04250736 0.09019072 0.072611906 0.0524981
0.0055751503 -0.05399175 -0.03424964 -0.00387809 0.04251741 0.08641333 -0.07422179 -0.022920962
-0.008688216 -0.045623627 -0.032088626 -0.12874514 0.07995264 -0.11519513 0.08933668 -0.09635368
0.014555615 0.0022195717 0.059729785 0.07232686 -0.0074845273 -0.038545124 -0.08852752 0.05958086
0.08477407 0.17333552 -0.05857697 0.14822863 -0.11780211 0.051325046 -0.09171324 -0.041295115
00000000: 68e9 5f3d 626c bdbd 6e10 07bd 2c20 a83d
00000010: ca86 073b fafe 97bb 8bf3 00be ad76 c7bd
00000020: 3920 cfbd c434 cebd 681b a0bd 1b76 13bd
00000030: 0d21 043d fb12 2ebd 088e 153d 58ee be3c
00000040: c485 adbc 501a 34bc bac4 b6bd 4091 4fbd
00000050: af87 a23d 89ef 8e3d f4eb 76bd 8c75 d7bd
00000060: 0d87 37bd 97da ac3d 2290 573c fbb8 42bd
00000070: a35c 44bc 9f8b 1fbe 38a5 ebbc 8e3c aa3c
00000080: 350f 30bb 9439 9abd 8a06 67bd c76a 29be
00000090: ade7 233d a2eb 263b 1e42 2abd 1846 8dbd
000000a0: 7b3d 17bc d2f3 0c3e 2e01 a3bd 8bfc db3c
000000b0: a827 55bd a879 13bd bcbe 15be 730b ab3d
000000c0: fb85 aeb8 d286 c83d c630 10bc c120 b83d
000000d0: d627 c7bd 8bdb a4bd 5ceb 0d3e 6e2d cd3d
000000e0: fbff 5e3d 382e f4bc 4b22 c5bd 8c15 eebd
000000f0: 1a54 af3d 9476 93bd 9bc5 213e 126d 303d
00000100: c910 883d 551e 8b3d 602f b83d df8f a4bd
00000110: bf4c 19bc 7a53 ddbc e416 a5bb cf3a a2bd
00000120: 96d5 b93d 4672 2cbe 065c fb3c 447f a83d
00000130: 82ac ec3d dc25 ad3c decc 6d3d 975e a6bd
00000140: 367e d7bc 2172 2e3d 60df 5a3d 2a4d b4bd
00000150: 6a02 d13d b08d efbb 4d4b 0ebd a5f7 803d
00000160: 570d 443d 78b6 9e3d d4d9 8ebb 8fc4 973d
00000170: e19a 43bd bf89 69bd 5a51 8f3c 3666 d43d
00000180: 4fec e3bc 9cf2 bd3c 199c c0bc 477a 95bc
00000190: db85 acbd ee80 873d 863d d73c 440e b03d
000001a0: 3a08 133e 1907 1a3e 98a5 1a38 a762 fe3c
000001b0: f1e4 bfbd 9d4b d2bd a884 8f3c c674 b6bd
000001c0: 0f79 00bd d3c4 f93d f92c 9abd ffe6 0ebd
000001d0: 2767 56bd 94e8 ae3c b7e3 05bd f6e9 683d
000001e0: cdd5 cb3d 5d81 7dbc 4eda 213d cabe dbbd
000001f0: 12de c7bc 4440 38bd 482c b53d c56e 99bd
00000200: 8bf0 afbc 688d f93b 9a29 b03d a6a6 903d
00000210: f6f9 96bc b89f 933c b061 a03d ffa7 943d
00000220: 462a f73d 589b 36bd 2eff 22bd 422d 0b3e
00000230: c32f 273c d33b 003d 6cfd a63c dc5d b93d
00000240: 79d7 773d 9756 143e 12db 0c3e 4eb2 723c
00000250: d952 0bbd b9e5 963d 1097 c6bd 077a acbd
00000260: 94e9 d0bd 42f5 ddbd 8cee 013d 029c 06bd
00000270: 01ad 9a3d fc11 1c3d d323 bd3d 9ffc 023e
00000280: e024 fd3d 3577 673c 8dfc fd3c 6d34 9ebd
00000290: f3ed 9e3d 1f02 33bd 68bb 303e 0faf 9f3d
000002a0: eea9 a13d 6d9a d53c 588d 2a3e b02f 403d
000002b0: d595 df3c efe3 08bd 4ff9 5f3d 1b71 b93d
000002c0: 9054 65bc 62af 3a3d 1f63 d5bd e51f 52bd
000002d0: 2ef1 fc3d 3404 f23d 7b0a 55bd 5ecd 6e3d
000002e0: 685a 18bd 5201 bcbd 5fb3 e7bd a99b 0cbe
000002f0: a26b 22bd 3dbe 043c c630 9fbd a6da a23d
00000300: 78a9 423e d27b e2bd 2f86 81bd 9384 49bd
00000310: 4c1a 95bc 250a 19bc 642c dc3d 44dc ffbd
00000320: 518f 3e3d f6c5 c93d e8e8 8abd 37de 973b
00000330: d1a4 69bc 97f0 e83c ec83 423d 1e9f eabd
00000340: b4e2 003d b984 6d3d 6574 a63d d8ea 3e3d
00000350: 1b6e 8bbd 6ff3 1a3d cfdb b13c 8f23 c3bd
00000360: c176 97bd 874f 52bd ad15 1f3e 1b35 d03d
00000370: 331c 2ebd eab5 b83d 8db5 943d 3f08 573d
00000380: c0af b63b 7426 5dbd 5a49 0cbd 8e27 7ebb
00000390: bc26 2e3d 79f9 b03d 9801 98bd bec4 bbbc
000003a0: 0559 0ebc d7df 3abd 5d6f 03bd c4d5 03be
000003b0: 36be a33d 6deb ebbd 26f6 b63d 1455 c5bd
000003c0: ad7a 6e3c 3c76 113b 38a7 743d 1b20 943d
000003d0: c440 f5bb 7ee1 1dbd eb4d b5bd 0f0b 743d
000003e0: 079e ad3d de7e 313e 68ee 6fbd 3fc9 173e
000003f0: 3c42 f1bd 363a 523d 27d4 bbbd 1125 29bd

critic.2.bias f4 [64]
-0.09787052 0.09832061 0.10782445 -0.029509729 -0.028976783 -0.06170227 0.08636615 -0.11279363
-0.116550654 0.07213709 -0.08091857 0.053230688 0.09949433 0.10573159 0.045069654 -0.0323726
0.010614225 -0.069326654 -0.1088585 -0.070710674 -0.09809028 -0.048105747 0.08806537 0.07860429
-0.05384258 -0.063869976 -0.13655636 0.066309705 -0.11222052 -0.044075195 0.0019486465 0.100639895
-0.07232963 -0.03647015 -0.085519604 -0.016637076 0.013664893 0.033400096 -0.090073794 -0.0459217
0.014941518 0.027348403 0.022078108 0.07196795 -0.04829409 0.015468771 -0.062496595 -0.08375482
-0.054078687 -0.1110968 -0.13686602 0.0489728 -0.03151745 0.060303923 -0.12870835 0.10811549
-0.011710075 0.08262435 -0.09387923 0.0005849293 -0.09102068 -0.062442586 -0.062159557 0.103654265
00000000: 5770 c8bd 515c c93d 11d3 dc3d 63be f1bc
00000010: b860 edbc 85bb 7cbd bce0 b03d 5900 e7bd
00000020: 1cb2 eebd 9cbc 933d a3b8 a5bd 6c08 5a3d
00000030: afc3 cb3d ce89 d83d f59a 383d 2299 04bd
00000040: 49e7 2d3c 22fb 8dbd 35f1 debd c2d0 90bd
00000050: 8fe3 c8bd 880a 45bd 9e5b b43d 49fb a03d
00000060: 0a8a 5cbd 43ce 82bd 6ed5 0bbe 62cd 873d
00000070: dfd3 e5bd 3188 34bd ba69 ff3a 4a1c ce3d
00000080: 8f21 94bd b961 15bd e724 afbd 7a4a 88bc
00000090: b7e2 5f3c 8ace 083d 9c78 b8bd 6418 3cbd
000000a0: 45cd 743c c209 e03c 26dd b43c ef63 933d
000000b0: 06d0 45bd ba70 7d3c 6efc 7fbd a687 abbd
000000c0: 9d81 5dbd b886 e3bd 9b26 0cbe b497 483d
000000d0: 7118 01bd 3f01 773d 1fcc 03be a76b dd3d
000000e0: 9ddb 3fbc f536 a93d c143 c0bd f155 193a
000000f0: 0d69 babd ccc3 7fbd 059b 7ebd b048 d43d

critic.4.weight f4 [1, 64]
0.07037452 0.06563041 0.10293375 -0.114503175 -0.018444367 -0.093208246 -0.086946994 0.065847576
0.026312523 0.039750118 -0.07969162 -0.0331065 0.111714125 0.010136115 -0.08392759 0.12928109
-0.086246654 -0.020172453 -0.032544315 -0.0155831445 -0.058065478 0.12715603 -0.022178784 0.022453927
0.0056271693 -0.0034700306 0.069307715 -0.084970795 -0.039916154 0.002139179 0.042624738 0.0034227017
-0.0108798435 -0.013048288 -0.12952338 -0.06977796 -0.07767249 -0.05845718 -0.062106006 0.10579557
-0.0975884 -0.0626361 -0.05351472 0.0364684 -0.0009214897 0.019127242 0.123174846 -0.02254721
0.036993735 0.004164247 -0.02582404 -0.002830165 -0.03934096 -0.11636223 0.005521166 0.00725336
-0.11249681 -0.026141824 -0.010364847 0.038972948 -0.010481656 0.059852034 -0.07602271 0.061977148
00000000: 8420 903d 3d69 863d eece d23d a480 eabd
00000010: a418 97bc f7e3 bebd 4411 b2bd 18db 863d
00000020: 5c8d d73c 05d1 223d 5c35 a3bd ae9a 07bd
00000030: 60ca e43d f311 263c 3ae2 abbd 4362 043e
00000040: 16a2 b0bd b340 a5bc 304d 05bd 7250 7fbc
00000050: 11d6 6dbd 3135 023e 48b0 b5bc 4cf1 b73c
00000060: 1e64 b83b 7469 63bb 34f1 8d3d 2b05 aebd
00000070: 1f7f 23bd 7831 0c3b 4797 2e3d 684f 603b
00000080: 5f41 32bc 7dc8 55bc c7a1 04be bfe7 8ebd
00000090: c112 9fbd cc70 6fbd de62 7ebd 59ab d83d
000000a0: 6ddc c7bd 5b47 80bd 4032 5bbd e45f 153d
000000b0: 2190 71ba bcb0 9c3c 1843 fc3d edb4 b8bc
000000c0: be86 173d 3c74 883b f08c d3bc 4a7a 39bb
000000d0: fd23 21bd 524f eebd e6ea b43b 98ad ed3b
000000e0: ba64 e6bd 6127 d6bc 52d1 29bc 19a2 1f3d
000000f0: 40bb 2bbc 6827 753d cbb1 9bbd c0db 7d3d
