Models/Reward_shaping_vm/RS_disprop_vm_meander_12_0/40000.pth (torch, 78437 bytes, 11 tensors)

actor.0.weight f4 [64, 62]
0	0xbc8d2c16	-0.017232936
1	0xbe61f6d9	-0.22066821
2	0xbe7070f6	-0.23480591
3	0xbac35312	-0.0014902076
4	0xbe291672	-0.16512468
5	0xbe81943d	-0.2530841
6	0xba508eae	-0.0007955831
7	0xbeb52fed	-0.35388127
8	0x3ec49276	0.3839299
9	0x3e8ac6d9	0.27104834
10	0x3c0f23e5	0.008736585
11	0x3eb567cc	0.35430753
12	0x3ea6c79a	0.3257416
13	0xbe9c84c1	-0.30570033
14	0xbdf45084	-0.1192942
15	0xbf0310ea	-0.51197684
16	0x3d4d3b6f	0.05010551
17	0x3daace59	0.08340139
18	0xbdc2c454	-0.09510103
19	0xbcc07bde	-0.023496564
20	0x3b915fec	0.0044364836
21	0xbe1458a0	-0.14486933
22	0xbdb245f0	-0.08704746
23	0x3dcbcd4b	0.09951266
24	0xbd5e94ff	-0.054341312
25	0xbe18e51a	-0.14931145
26	0xbd4fc445	-0.050724287
27	0x3cdbac2e	0.0268155
28	0xbe9fa1c8	-0.31178117
29	0x3dbc45f2	0.091930285
30	0xbd7c0beb	-0.061534803
31	0x3e168168	0.14697802
32	0xbd1ada0d	-0.037805606
33	0xbde347bc	-0.110976666
34	0xbd7d35e5	-0.061818976
35	0xbd9fbb34	-0.07799378
36	0xbd3c2e5a	-0.04594264
37	0xbe990aec	-0.29891145
38	0xbdd440ff	-0.103639595
39	0x3ce6c794	0.028171338
40	0x3d7f4352	0.06232006
41	0xbe1a39f9	-0.15061177
42	0xbd389d39	-0.045071814
43	0xbe841e72	-0.25804478
44	0x3ebb9474	0.36636698
45	0x3d41d75f	0.047324535
46	0x3d89c2c8	0.06726605
47	0x3c1673a8	0.009182848
48	0x3d538d2f	0.051648315
49	0x3df23c19	0.11827869
50	0x3daabcff	0.083368294
51	0x3e27ed05	0.1639901
52	0x3ce5ce43	0.028052455
53	0x3c083b7a	0.008314962
54	0x3dde66e2	0.10859467
55	0xbbc8c45b	-0.006126923
56	0xbe281589	-0.16414465
57	0x3e20a952	0.1568959
58	0x3da2d270	0.07950294
59	0xbc6a0b1b	-0.014284874
60	0x3e21cc14	0.15800506
61	0xbd8fe1fb	-0.07025524
62	0xbc4f9f45	-0.01267225
63	0xbcfe4012	-0.03103641
64	0x3d01a141	0.031647924
65	0x3e4ca194	0.19983512
66	0xbb43d330	-0.0029880516
67	0xbe3116b5	-0.17293818
68	0xbd96eb68	-0.07369119
69	0xbec3b678	-0.3822515
70	0x3de04f61	0.1095264
71	0xbed41447	-0.4142172
72	0xbebd603b	-0.3698748
73	0xbf311477	-0.6917185
74	0x3e1c3ee6	0.15258369
75	0xbdd05d94	-0.101740986
76	0xbdbae812	-0.09126295
77	0x3c64f152	0.013973551
78	0x3c994412	0.018709216
79	0x3d8db3c8	0.06919056
80	0x3c805fc2	0.01567066
81	0xbdef3201	-0.11679459
82	0xbd0bdb49	-0.034144673
83	0xbe1e86f9	-0.15481175
84	0xbc355146	-0.01106674
85	0x3d8e5ab0	0.06950891
86	0xbcca4122	-0.02468926
87	0x3dffcc16	0.12490098
88	0xbd32dfdd	-0.043670524
89	0x3dd64b64	0.10463598
90	0xbe7860d2	-0.24255684
91	0x3e22ca43	0.15897469
92	0x3dbf90b5	0.093537726
93	0x3c1575e5	0.0091223465
94	0x3d833579	0.064066835
95	0xbd70c3b4	-0.058780387
96	0xbdaba031	-0.083801635
97	0xbdc59953	-0.09648385
98	0xbe47a55c	-0.19496673
99	0xbcfacfce	-0.030616667
100	0xbc78e929	-0.015192308
101	0xbc98742d	-0.018610084
102	0x3dd914da	0.1059968
103	0x3d1b8011	0.03796393
104	0x3daafd35	0.08349077
105	0x3cb37c9b	0.021910002
106	0x3eb8614c	0.36011732
107	0x3e91dda5	0.28489414
108	0x3da145ee	0.07874666
109	0x3c9bf58c	0.019037984
110	0x3e3ec0db	0.18628256
111	0x3e657c7f	0.22410773
112	0xbd40279c	-0.046912774
113	0xbc977d3f	-0.01849234
114	0x3e3afd4a	0.18260685
115	0xbe26d2d8	-0.16291368
116	0xbd595063	-0.05305518
117	0x3bb0bc1b	0.0053935177
118	0xbc6a8538	-0.014313988
119	0x3dc6485d	0.09681771
120	0x3de625ae	0.112376556
121	0x3c2e5f64	0.01064286
122	0x3e3b5b00	0.18296432
123	0x3e1755b0	0.14778781
124	0xbe90a968	-0.28254247
125	0xbcb4954b	-0.022043845
126	0x3e96a13f	0.29419896
127	0xbd68b4e8	-0.05681315
128	0x3e59c33a	0.2126588
129	0x3ef002ea	0.46877223
130	0x3d8b1b09	0.06792266
131	0x3f2d77dd	0.6776102
132	0xbe2fe945	-0.17178829
133	0x3e5bdd0e	0.21471044
134	0x3dcfda0b	0.1014901
135	0x3e0ee7a7	0.13955556
136	0xbe25f4c7	-0.16206656
137	0xbe3c9ab5	-0.18418391
138	0xbe6e34ed	-0.23262377
139	0xbea7cc5e	-0.32773107
140	0x3d8dd20a	0.069248274
141	0x3e032923	0.12808661
142	0x3d087e73	0.033323716
143	0x3dc9d8d9	0.098558135
144	0x3e17e6df	0.14834164
145	0xbb87eff7	-0.004148479
146	0xbc6f0384	-0.0145882405
147	0x3b731ee0	0.003709726
148	0xbcec9612	-0.028880153
149	0xbe089854	-0.13339359
150	0x3da2be7c	0.07946488
151	0x3df2a765	0.11848334
152	0xbe202614	-0.15639526
153	0x3e3d3c25	0.18479975
154	0x3d379708	0.04482177
155	0xbe3c436c	-0.18385094
156	0xbd77cee5	-0.060500044
157	0xbbe6e5ea	-0.007046451
158	0xbd49ef62	-0.04930056
159	0xbd874780	-0.066054344
160	0x3d20e22b	0.03927819
161	0x3e66df41	0.22546102
162	0x3cfb7e7a	0.030699957
163	0xbd73adfe	-0.059492104
164	0xbe087624	-0.13326317
165	0xbe985fdb	-0.29760632
166	0xbd4e73fb	-0.050403576
167	0x3e064784	0.13113219
168	0xbe4e297e	-0.20133016
169	0xbe64bc0f	-0.22337364
170	0xbb960295	-0.0045779445
171	0x3e26f565	0.16304548
172	0xbd0483ec	-0.032352373
173	0xbd423870	-0.047417104
174	0xbd36829b	-0.04455815
175	0xbdd8a53c	-0.10578391
176	0xbd9b671b	-0.07588025
177	0x3d66cfa3	0.05635036
178	0x3cd15850	0.025554806
179	0xbdd01b88	-0.10161501
180	0xbdc747d6	-0.097304985
181	0x3c814eee	0.015784707
182	0x3dd3cda1	0.10341955
183	0x3c16fbf2	0.009215342
184	0xbd36f51c	-0.04466735
185	0xbdeb1037	-0.11477702
186	0xbd5caa61	-0.053873423
187	0x3e5ed2a8	0.21760046
188	0xbdf6c706	-0.120496795
189	0x3da1c899	0.07899589
190	0x3e2bd50c	0.1678049
191	0xbec2818d	-0.37989464
192	0xbe51a6ad	-0.20473738
193	0xbef216b4	-0.47282946
194	0x3dd92341	0.10602427
195	0xbe7273d4	-0.23676997
196	0xbe83b1cb	-0.25721583
197	0xbec8499f	-0.39118668
198	0x3dcd804d	0.10034237
199	0xbe8a6705	-0.27031723
200	0xbdeb0924	-0.11476353
201	0xbee30d3f	-0.44346043
202	0xbcf68c82	-0.030096296
203	0xbc99a957	-0.018757505
204	0xbd0ac7b2	-0.03388185
205	0x3d6fb1a9	0.05851904
206	0xbd1722c7	-0.0368984
207	0x3d13b0c8	0.036057264
208	0x3de754cd	0.11295471
209	0xbe1ffe1a	-0.15624276
210	0x3d61925b	0.055071216
211	0xbcab19ed	-0.020886386
212	0x3dfdd5b3	0.123942755
213	0x3e2dfc51	0.16990782
214	0xbecc7e6b	-0.399402
215	0x3aabfef3	0.0013122245
216	0x3d6100dd	0.054932464
217	0xbcbf0102	-0.02331591
218	0x3e2716c8	0.16317284
219	0x3d6f10c2	0.05836559
220	0x3d01e1a6	0.031709336
221	0xbc5c7292	-0.01345505
222	0xbdf6f520	-0.12058473
223	0xbd2ea102	-0.042634018
224	0xb948d6d8	-0.00019153522
225	0x3ce88280	0.02838254
226	0x3de5471c	0.11195204
227	0x3da2765a	0.0793273
228	0xbd7236bc	-0.05913423
229	0xbdbfaa3c	-0.093586415
230	0x3ea921ea	0.33033687
231	0xbdf46393	-0.11933055
232	0x3cbe7c21	0.023252549
233	0x3df53ac5	0.119741
234	0x3d3eea40	0.046610117
235	0xbe19a41c	-0.15004009
236	0x3bef6f3a	0.0073069604
237	0x3dc8e42f	0.098091476
238	0x3d46ad6f	0.048505243
239	0x3cc75148	0.02433075
240	0xbe168aa2	-0.14701322
241	0xbd5800d6	-0.052735172
242	0xbe641d52	-0.2227681
243	0x3db12ed9	0.086515136
244	0x3da97609	0.082744665
245	0x3b87c1a8	0.0041429587
246	0x3e784917	0.24246632
247	0xbcb9ccf1	-0.022680731
248	0xbdcf747a	-0.10129638
249	0xbd68146a	-0.056660093
250	0xbe3910fb	-0.18072884
251	0x3d7dd5a5	0.061971325
252	0x3d1624f9	0.036656354
253	0xbd68e61d	-0.056860078
254	0x3db09680	0.086224556
255	0xbeba584f	-0.363955

actor.0.bias f4 [64]
0	0xbd06d97b	-0.03292225
1	0x3dedcdd2	0.11611523
2	0x3ce8a839	0.028400527
3	0x3d7891da	0.06068597
4	0x3ca19f8d	0.0197294
5	0x3decc0f4	0.115602404
6	0xbd0cc0f8	-0.034363717
7	0xbc80d418	-0.015726134
8	0xbd0c5771	-0.034263078
9	0x3d53ea0e	0.051736884
10	0x3e157de6	0.14598808
11	0x3e01f534	0.12691194
12	0x3bb6a685	0.00557405
13	0xbcf47025	-0.02983863
14	0xbd77ecde	-0.06052863
15	0x3d5462ef	0.051852163
16	0xbdf32d70	-0.11873901
17	0x3e1d2647	0.15346633
18	0xbd8ef19f	-0.06979679
19	0xbc2d943f	-0.010594427
20	0x3d141658	0.03615412
21	0x3dbf3430	0.09336126
22	0xbdfcd601	-0.123455055
23	0x3dab1d98	0.08355254
24	0x3d0a0313	0.033694338
25	0xbe0d55b4	-0.13802224
26	0x3e218900	0.15774918
27	0xbe0b88e8	-0.13626444
28	0xbcef1559	-0.029184984
29	0xbdba2a38	-0.09090084
30	0xbdb92ca3	-0.09041717
31	0x3d02a160	0.03189218
32	0x3db706d7	0.089368515
33	0xbc10b604	-0.008832458
34	0x3d81325f	0.06308436
35	0x3dc3e21a	0.0956461
36	0x3e1f1602	0.15535739
37	0x3e32b408	0.17451489
38	0xbc48b626	-0.012250459
39	0x3cb9bbe9	0.02267261
40	0xbe08c3fc	-0.13356012
41	0x3d7d1df1	0.061796132
42	0x3dbcbb43	0.09215405
43	0xbd834121	-0.06408907
44	0x3aaa27c6	0.0012981824
45	0x3def7ac6	0.11693339
46	0x3e297ce6	0.16551551
47	0xbc6f81b3	-0.014618325
48	0x3e177dfe	0.14794156
49	0xbdfc3f03	-0.12316706
50	0xbdbecfdb	-0.09316989
51	0xbd38eeb2	-0.045149513
52	0x3e24b70f	0.16085456
53	0x3df27671	0.11838997
54	0x3d885956	0.066576645
55	0xbc8e8790	-0.017398626
56	0xbd94a274	-0.07257548
57	0x3d793fa0	0.060851693
58	0x3d9516e5	0.072797574
59	0xbd45b951	-0.048272435
60	0xbdb41e0f	-0.08794796
61	0x3db16cd5	0.08663336
62	0xbca3f782	-0.020015482
63	0xbcb81100	-0.022469044

actor.2.weight f4 [64, 64]
0	0x3d486057	0.04892
1	0xbdcc0a09	-0.099628516
2	0x3bc07ab7	0.0058740037
3	0x3d81d430	0.063393
4	0x3c0750a5	0.008258973
5	0xbc651920	-0.013983041
6	0xbe12c3ca	-0.143325
7	0xbdc0827f	-0.0939989
8	0x3dad2238	0.08453792
9	0xbd9d408a	-0.076783255
10	0xbdfbc646	-0.12293677
11	0xbd9674be	-0.073464856
12	0x3ca4bfcb	0.020110985
13	0x3d56e9ba	0.052468993
14	0x3daddcf4	0.08489409
15	0xbc5ab689	-0.013349184
16	0xbd072367	-0.032992747
17	0xbbae3b1a	-0.005317104
18	0xbd4c5fc6	-0.049896024
19	0x3ce515c7	0.027964486
20	0xbda802b1	-0.08203638
21	0x3c9a96ad	0.018870676
22	0xbdabe323	-0.08392932
23	0xbdf0cc16	-0.11757676
24	0x3d560547	0.052251127
25	0x3d7b6050	0.061371148
26	0x3b745589	0.0037282428
27	0x3d5283e9	0.05139533
28	0xbd92c788	-0.07166964
29	0xbcca62fe	-0.024705406
30	0xbdb60476	-0.088875696
31	0x3d4d7a30	0.050165355
32	0xbbaefe5d	-0.005340381
33	0xbdf2be50	-0.118527055
34	0xbb87d24b	-0.004144942
35	0x3a410caa	0.0007364253
36	0x3a8c35af	0.0010697151
37	0xbdbf6bec	-0.09346756
38	0x3cd83faa	0.026397545
39	0xbd80b863	-0.06285169
40	0xbc9d204e	-0.019180443
41	0x3d92024a	0.07129343
42	0x3ca83a03	0.020535475
43	0xbcd7b22d	-0.026330078
44	0xbe0714c6	-0.13191518
45	0xbbc115d8	-0.0058924966
46	0xbd39b0e9	-0.04533473
47	0x3d65a714	0.05606754
48	0x3d28690c	0.041115806
49	0x3d353219	0.04423723
50	0xbe0785eb	-0.1323468
51	0xbcf8a9fe	-0.030354496
52	0xbdbc2b60	-0.091879606
53	0xbdc4a2bc	-0.096013516
54	0xbbb1143a	-0.0054040225
55	0xbd6dcd75	-0.058057267
56	0x3d8e8239	0.06958432
57	0x3b4dee51	0.0031422565
58	0xbd9c8a22	-0.07643534
59	0xbdba5017	-0.09097307
60	0xbc118162	-0.008880945
61	0xbd2ef723	-0.042716157
62	0xbd71ca31	-0.059030715
63	0xbd96cb4d	-0.07362995
64	0x3e07dee7	0.13268624
65	0xbe767ffb	-0.24072258
66	0x3ce1fe58	0.0275871
67	0xbea7d57e	-0.3278007
68	0xbdad8ea8	-0.08474475
69	0x3e6eae92	0.23308781
70	0x3d68d719	0.056845758
71	0x3bf6ab16	0.0075277193
72	0x3dccd41b	0.100013934
73	0x3e37c162	0.17944863
74	0xbca60471	-0.02026579
75	0x3deb6cca	0.11495359
76	0xbd9f1d5f	-0.07769274
77	0xbe43c480	-0.19117928
78	0xbc971099	-0.018440532
79	0xbdc803c0	-0.0976634
80	0xbd25810d	-0.040406276
81	0xbd9ce168	-0.0766018
82	0x3e830df1	0.25596574
83	0xbd961e04	-0.07329944
84	0x3e088d28	0.13335097
85	0x3e61c1dc	0.22046608
86	0x3d018e71	0.031629983
87	0x3d001a7d	0.03127526
88	0x3e9cfa68	0.30659795
89	0x3de0e74f	0.109816186
90	0x3e3a89aa	0.18216577
91	0x3d0bbd49	0.034116063
92	0xbdad7f34	-0.08471528
93	0x3e8e4dd4	0.27793753
94	0x3d9b0834	0.07569924
95	0x3d36cd20	0.044629216
96	0xbdbbd6e9	-0.0917185
97	0x3dc00082	0.09375097
98	0x3e1c1428	0.15242064
99	0x3c9884a0	0.018617928
100	0x3c138bd5	0.0090055065
101	0xbd3fa9e0	-0.046792865
102	0xbdf097b3	-0.11747684
103	0x3e1a6b85	0.15080078
104	0x3e029240	0.12751102
105	0xbdd78238	-0.10522884
106	0xbdb84eed	-0.08999429
107	0xbd9f1e49	-0.07769448
108	0xbe381ed0	-0.17980504
109	0xbe492255	-0.19642003
110	0xbd5fbc93	-0.054623198
111	0xbd2eb5c4	-0.042653814
112	0x3e8dbefd	0.27684775
113	0xbd746456	-0.059666
114	0x3d93262d	0.07185016
115	0x3e02f694	0.12789375
116	0xbd98826b	-0.0744675
117	0x3deb19de	0.11479543
118	0x3e19af6f	0.15008329
119	0x3d6334ab	0.05547015
120	0xbd61458f	-0.054997977
121	0xbea30b18	-0.318444
122	0x3ddda75a	0.108229354
123	0x3e7c64b9	0.24647798
124	0x3e4657ab	0.1936938
125	0xbcb5378e	-0.022121217
126	0xbe0f3bd7	-0.13987671
127	0xbba602aa	-0.0050662355
128	0x3dca8675	0.09888927
129	0x3e2dd99d	0.16977544
130	0x3d834693	0.06409945
131	0xbd623c33	-0.05523319
132	0xbeaca5f4	-0.33720362
133	0x3d288852	0.04114563
134	0x3d03c43b	0.03216956
135	0xbd4ffa30	-0.050775707
136	0xbde1d09e	-0.11026119
137	0x3dced5e0	0.10099387
138	0x3e432840	0.19058323
139	0x3e9d9eab	0.30785117
140	0x3dd90cab	0.10598119
141	0x3e1ff4b7	0.15620695
142	0xbdccce24	-0.10000256
143	0x3c66a385	0.014077072
144	0x3e043fc5	0.12914951
145	0x3d308b9c	0.043101892
146	0xbd5c6c98	-0.0538145
147	0xbde3691d	-0.11104033
148	0x3de388e6	0.11110096
149	0x3c218006	0.009857183
150	0x3c86a421	0.016435685
151	0xbbcef897	-0.0063162553
152	0xbdfc5754	-0.12321344
153	0xbb1d0963	-0.0023961894
154	0x3e827259	0.25477865
155	0xbcceb4e3	-0.025232738
156	0x3dafc18b	0.08581837
157	0xbdaef828	-0.08543426
158	0xbdc44eaf	-0.0958532
159	0xbdc70e7e	-0.09719561
160	0xbe21ca27	-0.15799771
161	0x3ccf24ac	0.025286041
162	0xbdeb7136	-0.11496203
163	0x3ea0f72a	0.3143857
164	0x3ef68fa0	0.48156452
165	0x3e40e822	0.18838552
166	0x3ba31415	0.004976759
167	0xbe406b0d	-0.18790837
168	0xbdc58936	-0.096453115
169	0x3da3e567	0.080027394
170	0xbdb2e7d5	-0.08735625
171	0xbe5c7c19	-0.21531714
172	0xbd9534d8	-0.0728547
173	0x3c69b69d	0.01426473
174	0xbcb8fb8f	-0.02258089
175	0xbe53fa14	-0.20700866
176	0xbe1fd010	-0.15606713
177	0xbe123f83	-0.1428204
178	0xbe6826f6	-0.22671112
179	0x3e3d1cc1	0.18468
180	0xbe882bcf	-0.26595923
181	0xbcaee33d	-0.02134859
182	0xbd8885ac	-0.06666121
183	0x3e915258	0.28383136
184	0xbe077bdc	-0.13230842
185	0xbdf530e2	-0.11972214
186	0x3eacc4a8	0.33743787
187	0xbdbe8fe3	-0.09304788
188	0xbe249b3c	-0.16074842
189	0x3e3a6998	0.18204343
190	0x3e14fdab	0.14549892
191	0xbdefe0e4	-0.11712816
192	0xbd98c15d	-0.07458756
193	0x3dc27dc5	0.09496645
194	0xbe22dda1	-0.15904857
195	0x3d34084d	0.04395323
196	0xbd1458dc	-0.036217555
197	0xbda80890	-0.08204758
198	0xbdbf4c81	-0.09340764
199	0xbc88fee5	-0.016723106
200	0xbdf1dcfb	-0.11809727
201	0xbe0a0957	-0.13480125
202	0xbd2ff0ba	-0.042954184
203	0x3cc986a7	0.02460034
204	0x3dd00d5c	0.10158798
205	0x3d371885	0.044701118
206	0x3d8f4154	0.06994882
207	0x3e5fcb66	0.21854934
208	0xbd222ba1	-0.03959239
209	0x3e7dc7ca	0.24783245
210	0xbdf9c7c5	-0.12196306
211	0xbe29fc7c	-0.16600221
212	0xbd540b3a	-0.05176852
213	0xbd8731e2	-0.06601311
214	0xbeb07b7f	-0.3446922
215	0x3e05d016	0.1306766
216	0xbd7160a1	-0.058930043
217	0x3d19caa8	0.037546784
218	0xbd064176	-0.032777272
219	0x3d27d07c	0.04097031
220	0x3d84fb1e	0.06493209
221	0xbe15e047	-0.14636336
222	0xbe0faebf	-0.14031504
223	0x3daf0fcf	0.08547937
224	0x3acc6269	0.0015593293
225	0x3dbed4ca	0.0931793
226	0xbc2b090c	-0.010439169
227	0x3e40e623	0.1883779
228	0x3e2fa994	0.17154533
229	0xbcd878b1	-0.026424738
230	0x3df4397f	0.11925029
231	0x3d3e3c5e	0.04644429
232	0xbd038845	-0.03211238
233	0x3c828dbf	0.01593673
234	0x3c8b703d	0.017021293
235	0x3c63024c	0.013855528
236	0xbd439793	-0.047751974
237	0x3e8705f5	0.26371732
238	0x3e4dc97e	0.20096394
239	0xbd8964c3	-0.06708672
240	0xbe89aaeb	-0.26888213
241	0xbd030346	-0.031985544
242	0x3e2e9383	0.17048459
243	0xbdccadeb	-0.0999411
244	0xbd59f1ad	-0.053208996
245	0xbda65c4e	-0.081230745
246	0xbdb387cc	-0.087661356
247	0x3d6ed5cc	0.05830936
248	0x3eab4aa5	0.33455387
249	0xbd9e739a	-0.07736893
250	0x3e2d08d3	0.16897897
251	0xbce40932	-0.027836416
252	0xbe55917b	-0.20856278
253	0x3e53c1bf	0.20679377
254	0x3e50af86	0.20379457
255	0xbd5c04db	-0.053715568

actor.2.bias f4 [64]
0	0xbd93a062	-0.07208325
1	0xbd14aed5	-0.036299545
2	0xbd655752	-0.05599148
3	0xbd06b9d0	-0.03289205
4	0xbdb5a661	-0.08869625
5	0xbdf6753a	-0.12034078
6	0x3dd12a56	0.10213153
7	0xbd357395	-0.04429968
8	0x3badd40c	0.005304819
9	0xbd957973	-0.07298555
10	0x3e0b5e84	0.13610274
11	0x3e2f88c1	0.17142011
12	0xbd256360	-0.040377975
13	0x3e11788c	0.14206141
14	0xbd9b846a	-0.07593615
15	0xbace0ea4	-0.0015720916
16	0x3e089811	0.13339259
17	0xbd7558d9	-0.059899185
18	0xbc160953	-0.0091574965
19	0x3dbab0a6	0.09115724
20	0x3e002c54	0.1251691
21	0xbcd43f9c	-0.025909238
22	0xbb289e4e	-0.0025729123
23	0xbe0eda03	-0.13950352
24	0x3dd7e4d4	0.105416924
25	0xbe19374c	-0.149625
26	0x3d8e30fa	0.06942935
27	0xbdcfa569	-0.10138971
28	0x3c3e75ad	0.011624736
29	0x3df21568	0.11820489
30	0x3d9547a3	0.07289054
31	0xbdedb3af	-0.116065376
32	0x3d5ebea1	0.054381017
33	0xbde3b5d4	-0.11118665
34	0x3d2857cf	0.041099366
35	0x3e1e3645	0.1545039
36	0x3ded6781	0.115920074
37	0x3e2a4529	0.16627945
38	0x3d63d53f	0.05562329
39	0x3c894e93	0.0167611
40	0x3dcb9719	0.09940929
41	0xbd8572ed	-0.06516061
42	0x3d00c2ac	0.031435654
43	0xbdf3fe92	-0.1191379
44	0xbe030238	-0.12793815
45	0xbd3b94b5	-0.045796115
46	0x3d138137	0.0360119
47	0x3cbc4c6e	0.022985663
48	0x3ca433f6	0.020044308
49	0x3cdbddef	0.026839225
50	0xbe0e6bb5	-0.13908274
51	0x3b68a780	0.0035500228
52	0x3c658373	0.014008391
53	0xbe097e85	-0.1342717
54	0xbd7635b5	-0.060109813
55	0x3d6c858f	0.05774456
56	0x3d805cca	0.06267698
57	0x3d7e94ec	0.06215374
58	0x3c2e3561	0.010632844
59	0x3d0cceb4	0.034376815
60	0x3ddf7cb8	0.1091246
61	0x3c947202	0.01812077
62	0xbd5ca1a7	-0.0538651
63	0xbd016ea1	-0.031599645

actor.4.weight f4 [36, 64]
0	0x3d87b8a5	0.06627015
1	0x3e9510dd	0.29114428
2	0x3eb45f7f	0.35229108
3	0xbea00163	-0.31251058
4	0xbe3b0bb0	-0.18266177
5	0x3e35008c	0.1767599
6	0x3d076f9f	0.033065435
7	0xbed80abf	-0.421957
8	0x3eb89b13	0.36055812
9	0x3e152f0e	0.14568731
10	0xbe522b67	-0.20524369
11	0xbee4be5d	-0.44676486
12	0x3e9acaa2	0.30232722
13	0x3e8a4c30	0.2701125
14	0x3d403960	0.046929717
15	0xbf53822a	-0.8262049
16	0x3ecf8289	0.40529278
17	0xbeb9ab77	-0.3626363
18	0x3e93a7d4	0.2883898
19	0xbe1735bb	-0.1476659
20	0xbea2e18d	-0.31812707
21	0xbf2adbfc	-0.6674192
22	0x3e0c2c9c	0.13688892
23	0xbe7bf9af	-0.24606965
24	0x3b8fa0ae	0.004383168
25	0x3eab016f	0.3339953
26	0x3e956dac	0.29185236
27	0xbe75f3b9	-0.24018754
28	0x3eb7d311	0.35903218
29	0x3e9f184d	0.31073228
30	0xbef1f21a	-0.4725502
31	0x3d59ee26	0.05320563
32	0x3ca455ab	0.02006038
33	0xbe2d21ce	-0.16907427
34	0x3dff8814	0.12477127
35	0xbec8c9af	-0.39216372
36	0x3ec7f70f	0.39055678
37	0xbedd889d	-0.4326829
38	0x3c02370e	0.007947696
39	0xbe71bfc2	-0.23608306
40	0xbf33a8b8	-0.7017932
41	0x3e11e560	0.14247656
42	0x3df196e3	0.117963575
43	0x3d270a7b	0.04078148
44	0xbce3140d	-0.027719522
45	0xbe64f0e9	-0.22357525
46	0x3d96b20e	0.0735818
47	0x3e9f308d	0.3109173
48	0xbe4e3690	-0.20138001
49	0xbec52cb7	-0.38510677
50	0x3dc79883	0.09745886
51	0x3ed189b6	0.40925378
52	0x3cb181a4	0.021668263
53	0x3dbd56fb	0.09245106
54	0x3ce16da3	0.0275181
55	0xbd8ce95d	-0.06880448
56	0x3dbff8c0	0.09373617
57	0x3ccaba96	0.024747174
58	0x3ebe88b0	0.3721366
59	0xbdb63a6f	-0.08897864
60	0x3e63b642	0.22237495
61	0xbf4a0874	-0.7891915
62	0xbd339e40	-0.04385209
63	0xbefdac14	-0.49545348
64	0x3dce58ea	0.10075553
65	0x3eb57d82	0.35447317
66	0xbe361d99	-0.17784728
67	0xbeb9700f	-0.36218306
68	0x3e4200be	0.18945596
69	0x3e5264b6	0.2054623
70	0xbd41bf66	-0.047301672
71	0xbd869447	-0.065712504
72	0xbf25d579	-0.6477886
73	0xbd36feb9	-0.044676516
74	0x3e1496da	0.1451067
75	0x3e1dee7b	0.15423004
76	0x3d1160d6	0.03549274
77	0x3eb79fa8	0.35863996
78	0x3db5ed72	0.0888318
79	0xbef8eb82	-0.48617178
80	0xbe15a307	-0.14612971
81	0xbe41d835	-0.18930133
82	0xbed60cc8	-0.41806626
83	0x3db26ce0	0.087121725
84	0xbdf48753	-0.119398735
85	0xbee33b82	-0.44381338
86	0xb9a8fc8d	-0.00032231622
87	0x3eaccdf6	0.33750886
88	0x3e9fde6c	0.31224382
89	0x3da7a205	0.081852
90	0x3e87c3f5	0.2651669
91	0xbe210fea	-0.15728727
92	0xbda5ca29	-0.080951996
93	0x3e953cb0	0.29147863
94	0xbced29b4	-0.02895055
95	0xbe013237	-0.12616812
96	0xbe740334	-0.23829347
97	0x3e43ae44	0.19109446
98	0xbda4346c	-0.08017811
99	0x3cdd615d	0.027023965
100	0x3e902686	0.2815439
101	0x3ebde716	0.37090367
102	0xbe43c50a	-0.19118133
103	0x3e2663ce	0.1624901
104	0xbd86abfc	-0.06575772
105	0xbca2aac4	-0.019856818
106	0x3c3bfbfc	0.011473652
107	0xbdbdc11a	-0.09265347
108	0x3e7baa29	0.2457663
109	0xbf1354c7	-0.57551235
110	0x3e79390c	0.24338168
111	0x3df86a7f	0.121296875
112	0xbed6dbfe	-0.41964716
113	0xbf2f311c	-0.6843431
114	0x3e857199	0.2606323
115	0x3e3a8522	0.18214849
116	0xbd055464	-0.032551184
117	0xbb863a19	-0.0040962812
118	0x3e4cb1cc	0.19989699
119	0x3e2814bf	0.16414164
120	0xbeeba9bf	-0.46027943
121	0x3e03dd46	0.12877378
122	0xbef93db1	-0.4867988
123	0xbe2c5abe	-0.1683149
124	0x3ec4546b	0.38345656
125	0xbf377247	-0.7165875
126	0xbc9a227c	-0.018815272
127	0xbf040d6c	-0.5158298
128	0x3d1828ef	0.037148412
129	0x3dfe75a8	0.12424785
130	0x3d151d6f	0.036405023
131	0x3e6b01b3	0.22949867
132	0x3e7d078a	0.24709907
133	0x3dcd6bc4	0.1003032
134	0x3e9b30fe	0.30310816
135	0xbea3264d	-0.3186516
136	0xbecc9d40	-0.39963722
137	0x3e1a7747	0.15084563
138	0xbf09f27b	-0.5388562
139	0xbe7d4a3c	-0.2473535
140	0xbf0ed072	-0.5578681
141	0x3e71d422	0.23616078
142	0x3dccf4b5	0.10007612
143	0xbf222c5c	-0.6334894
144	0x3e9f9175	0.31165662
145	0xbe78d527	-0.24300061
146	0xbeb9d208	-0.36293054
147	0x3e7554ce	0.23958132
148	0xbd1818c6	-0.037133
149	0xbf3f2880	-0.74671173
150	0xbd9a2471	-0.07526482
151	0xbc58cc7e	-0.0132323485
152	0x3e9e9fa0	0.3098116
153	0xbdc48211	-0.09595121
154	0xbdd1786f	-0.10228049
155	0xbb8b3b65	-0.0042490237
156	0x3ea13f38	0.31493545
157	0x3e8886c8	0.2666533
158	0xbe44e1a4	-0.192267
159	0xbdbf27d9	-0.09333772
160	0x3ddaeade	0.106893286
161	0x3e70338f	0.23457168
162	0xbdc96021	-0.09832788
163	0xbe9d23d9	-0.30691412
164	0xbd0da6da	-0.03458295
165	0xbeebeca2	-0.46078974
166	0xbe111e95	-0.14171822
167	0x3e22f354	0.15913135
168	0xbf09861e	-0.5372027
169	0xbdef6824	-0.11689785
170	0x3d53725f	0.051622745
171	0xba1c19fd	-0.00059548
172	0x3eb2cc35	0.34921423
173	0xbeb6bbc0	-0.35690117
174	0xbd37b266	-0.04484787
175	0x3e70bb6b	0.23508994
176	0x3dc92f02	0.09823419
177	0xbecaf556	-0.396403
178	0xbdf40d96	-0.11916654
179	0x3cc8e68b	0.024523994
180	0x3ca107c9	0.019657033
181	0x3d72427b	0.059145432
182	0x3e57f30d	0.2108881
183	0x3eaaec61	0.33383468
184	0x3e1c91c2	0.15289977
185	0x3e574866	0.21023712
186	0xbeefac61	-0.46811202
187	0x3ea3df63	0.32006368
188	0xbe717f4b	-0.23583715
189	0xbf009892	-0.50232804
190	0xbd3588af	-0.044319805
191	0xbe68312b	-0.22675006
192	0xbdaa8e63	-0.08327939
193	0x3e06a422	0.13148549
194	0x3cbaf103	0.022820001
195	0x3c390462	0.011292549
196	0xbe5e8c25	-0.21733148
197	0xbe64ba70	-0.22336745
198	0x3d8a74a9	0.067605324
199	0xbe8a59a4	-0.27021515
200	0xbeeeeae4	-0.46663582
201	0x3e0a0ef2	0.13482264
202	0xbef6cd90	-0.48203707
203	0xbe725322	-0.23664525
204	0xbec686fe	-0.38774866
205	0x3d1ee5ec	0.03879349
206	0x3dd700e9	0.104982205
207	0xbf0d215d	-0.55129033
208	0x3debf430	0.115211844
209	0xbe86a3a1	-0.26296714
210	0xbeaceac8	-0.33772874
211	0x3e5b0e5f	0.21392201
212	0x3d78e4f1	0.06076521
213	0xbede4e27	-0.43419
214	0x3dc55728	0.09635764
215	0xbe8e8242	-0.27833754
216	0xbbaca603	-0.0052688136
217	0x3d8725af	0.065989845
218	0x3bb6cddc	0.0055787396
219	0x3e10f9a7	0.14157735
220	0x3d05f127	0.032700684
221	0x3dad8103	0.08471873
222	0xbe661d71	-0.22472169
223	0xbe3d7473	-0.18501453
224	0xbe435751	-0.19076277
225	0xbe2ed18f	-0.17072128
226	0xbda963c2	-0.082709804
227	0xbe08ed31	-0.13371731
228	0x3dfbf832	0.12303199
229	0xbe4b0a7d	-0.1982822
230	0xbd8c006b	-0.06836017
231	0x3d95075f	0.072767965
232	0xbedfda3f	-0.43721196
233	0xbca6c369	-0.02035685
234	0xbd622a40	-0.055216074
235	0x3e945d85	0.289776
236	0x3c02cf69	0.007984021
237	0xbf1250db	-0.57154626
238	0xbe17f43b	-0.1483926
239	0xbe43dfc3	-0.19128327
240	0xbee542d6	-0.44777554
241	0xbddb04f8	-0.10694307
242	0xbe49e881	-0.197176
243	0x3e0ae350	0.13563275
244	0xbd34c44a	-0.04413251
245	0xbcbe3ba7	-0.023221804
246	0xbd7a356a	-0.061086096
247	0xbd9d237a	-0.07672782
248	0x3d0d4951	0.034493748
249	0xbd81d302	-0.06339075
250	0xbf06d009	-0.52661186
251	0xbe0a2229	-0.13489594
252	0xbdfa4e47	-0.122219615
253	0xbed27771	-0.41106752
254	0xbcc6ad93	-0.024252689
255	0xbe9172e4	-0.28407967

actor.4.bias f4 [36]
0	0xbc837fd3	-0.016052162
1	0xbe47558e	-0.1946623
2	0xbc5901f5	-0.0132450955
3	0xbd00ca83	-0.03144313
4	0xbdb790fa	-0.08963199
5	0xbaf06af6	-0.0018342424
6	0x3e063afb	0.13108437
7	0x3e167d0b	0.14696138
8	0x3db671e8	0.08908445
9	0x3df80f39	0.121122785
10	0x3e3d5c36	0.18492207
11	0xbd7cc1a6	-0.061708115
12	0x3de4f3ce	0.111793146
13	0xbcc83a60	-0.024441898
14	0x3e0458a1	0.12924434
15	0x3d1738be	0.036919348
16	0xbe38185e	-0.17978045
17	0xbd9c120b	-0.07620629
18	0xbe57d8c8	-0.21078789
19	0xbebf20ae	-0.3732962
20	0xbe898396	-0.26858205
21	0x3d802def	0.06258761
22	0xbdaa88df	-0.08326887
23	0x3de2b514	0.11069694
24	0x3e1798fd	0.14804454
25	0x3e052307	0.13001643
26	0x3dbb3c45	0.09142355
27	0xbcaec493	-0.021333968
28	0x3befbea2	0.0073164264
29	0x3d5f02fe	0.054446213
30	0x3e0b6833	0.13613968
31	0xbcf8f7ce	-0.0303916
32	0xbd3c76a4	-0.046011582
33	0x3d1aefed	0.037826467
34	0x3c264509	0.010148295
35	0x3e14d9d9	0.14536227

critic.0.weight f4 [64, 62]
0	0xbde6be5c	-0.11266777
1	0xbd9e77a8	-0.07737666
2	0x3d86d6ae	0.06583916
3	0x3df578ef	0.11985957
4	0x3e4fe807	0.20303355
5	0x3dd4652b	0.10370859
6	0xbb4ca17b	-0.003122418
7	0x3d60386d	0.05474131
8	0xbe000faf	-0.12505983
9	0xbafe0fbb	-0.001938335
10	0xbccccbcb	-0.02499952
11	0xbd1a42f0	-0.037661493
12	0x3d00b004	0.03141786
13	0xbbe2ef85	-0.0069255256
14	0x3d05bfe0	0.03265369
15	0x3d038280	0.032106876
16	0xbdeaa36a	-0.1145695
17	0xbd8e5e90	-0.0695163
18	0xbc626504	-0.013818029
19	0x3d50ade6	0.050947092
20	0xbd313c0d	-0.04327016
21	0xbd418c6e	-0.047253065
22	0x3d372697	0.044714537
23	0xbdcfe7e0	-0.101516485
24	0x3d99e0d6	0.07513587
25	0xbda4f0d1	-0.080537446
26	0xbdd28f99	-0.10281295
27	0xbdca8930	-0.09889448
28	0x3d12bbf5	0.03582378
29	0x3c834a59	0.016026663
30	0xbe129579	-0.14314832
31	0x3e0cb054	0.13739139
32	0xbe5d5797	-0.21615444
33	0xbdecc6e0	-0.1156137
34	0x3d94659a	0.072459415
35	0xbe6326ec	-0.22182816
36	0xbe4715d0	-0.19441915
37	0xbd8ab907	-0.067735724
38	0x3db1680c	0.086624235
39	0x3dafc44c	0.085823625
40	0x3db94b7b	0.090476
41	0x3e4f3a2f	0.20237039
42	0x3ddbf82e	0.10740696
43	0xbd397215	-0.045274813
44	0xbdc94c8e	-0.09829055
45	0x3d70fb62	0.058833487
46	0xbd9d8d77	-0.07692998
47	0x3d8f398a	0.069933966
48	0x3e62b7f5	0.22140487
49	0x3c8912d1	0.016732605
50	0x3dc39b65	0.095511235
51	0x3ca21079	0.019783245
52	0x3df85230	0.12125051
53	0x3c32ac90	0.0109054
54	0xb8dc6508	-0.00010509236
55	0xbcb7efc4	-0.022453196
56	0x3d32f04a	0.04368619
57	0xbd816950	-0.06318915
58	0xbdc28128	-0.09497291
59	0xbdeb39b9	-0.11485619
60	0xbc87bfb2	-0.0165709
61	0xbd1def39	-0.03855822
62	0xbe2081a0	-0.15674448
63	0xbe7a8d42	-0.24467948
64	0x3d7cdbc5	0.061733026
65	0xbd7f5a9d	-0.062342275
66	0x3ddd1a08	0.10795981
67	0xbcbd9c2e	-0.023145761
68	0x3d6f5ba7	0.058437016
69	0xbdf35c83	-0.118828796
70	0xbdbcd2ed	-0.092199184
71	0xbd5cd0e6	-0.05391016
72	0xbdf3b6dd	-0.11900113
73	0xbe3dcd54	-0.18535358
74	0x3e0f95de	0.14022014
75	0x3d3c315e	0.045945518
76	0xbe78b09e	-0.24286124
77	0x3cc09447	0.023508204
78	0x3d5aa8cd	0.053383637
79	0x3ba0b454	0.0049043093
80	0x3d950673	0.07276621
81	0xba9ad71e	-0.0011813377
82	0xbe3af074	-0.18255788
83	0x3d5ff608	0.054677993
84	0x3dde7c8c	0.10863599
85	0x3db8023b	0.089848004
86	0xbd2d8679	-0.04236457
87	0xbd767ae6	-0.0601758
88	0xbcd37774	-0.025813796
89	0xbe057eaf	-0.13036607
90	0x3e2ed4c8	0.17073357
91	0x3f1ee0b1	0.620616
92	0x3c09ea19	0.00841763
93	0x3f235a0a	0.63809264
94	0xbeba0523	-0.36332044
95	0xbdc32322	-0.095281854
96	0xbd8650e9	-0.06558401
97	0x3d92401b	0.071411334
98	0xbdaf6c89	-0.08565623
99	0xbcd23174	-0.025658347
100	0x3dde3a19	0.10850925
101	0x3ca614d0	0.020273596
102	0x3d561a87	0.052271392
103	0xbdd6b116	-0.10482995
104	0x3e088d2d	0.13335104
105	0xbc0b0455	-0.00848492
106	0xbdb2cadf	-0.08730101
107	0xbdf2e053	-0.11859193
108	0xbe92a101	-0.2863846
109	0x3e2a5781	0.16634943
110	0xbd3ff39a	-0.046863176
111	0x3dc135ef	0.09434115
112	0xbdd81b0f	-0.10552036
113	0x3d421202	0.047380455
114	0xbe080e16	-0.13286623
115	0xbdcca945	-0.09993223
116	0x3d167155	0.036729176
117	0x3db93e9f	0.09045147
118	0x3e4c6c32	0.19963148
119	0x3cbb0830	0.022831053
120	0xbda9fceb	-0.083001934
121	0xbdba74f8	-0.09104341
122	0x3d14ac00	0.036296844
123	0xbbcaaabe	-0.006184905
124	0xbde81713	-0.11332526
125	0xbdfc1748	-0.12309128
126	0x3e059527	0.13045178
127	0x3ddd03ac	0.10791716
128	0xbd8e817e	-0.069582924
129	0xbd866d49	-0.06563813
130	0xbd27cfa1	-0.040969495
131	0xbe630195	-0.22168572
132	0x3d94759b	0.07248994
133	0x3d5e0a02	0.054208763
134	0xbe2a626f	-0.16639112
135	0x3d20949f	0.039204236
136	0xbe21530d	-0.15754338
137	0xbdb2cbb0	-0.087302566
138	0x3d4cbd29	0.049985085
139	0xbe809a61	-0.25117782
140	0x3d880e70	0.06643379
141	0xbd0f15af	-0.03493279
142	0x3c619af5	0.013769855
143	0x3d153814	0.036430433
144	0x3cfb74b3	0.030695295
145	0x3cf63652	0.030055199
146	0x3c0c7753	0.008573371
147	0xbd249a8f	-0.04018646
148	0x3e066d49	0.13127626
149	0x3cc9b222	0.024621073
150	0x3cbd5c7d	0.02311539
151	0x3dae40e8	0.08508474
152	0x3ce2dacd	0.027692223
153	0xbdc3ee37	-0.0956692
154	0xbccf43b6	-0.025300842
155	0xbeb048e6	-0.34430617
156	0xbd0fded5	-0.03512462
157	0xbea8b0d3	-0.32947406
158	0x3d718fc6	0.058975004
159	0x3baf2de3	0.0053460463
160	0x3c2d4bf3	0.01057719
161	0xbe711703	-0.23543935
162	0xbda40660	-0.080090284
163	0x3dbfef29	0.09371788
164	0x3e4f748e	0.20259306
165	0x3d7ec65e	0.062200896
166	0xbc78e288	-0.015190728
167	0xbd309ea0	-0.043120027
168	0xbe292ad9	-0.16520251
169	0xbe4b5b20	-0.1985898
170	0x3c53b56d	0.012921673
171	0x3dde3648	0.10850197
172	0xbe5fc00f	-0.21850608
173	0xbdd60487	-0.10450082
174	0x3d59770a	0.05309204
175	0xbb8ea38d	-0.004352993
176	0xbc92dddb	-0.017928055
177	0xbcd5a72e	-0.026080694
178	0xbc885a27	-0.01664455
179	0x3da47bed	0.080314495
180	0x3e00c0ec	0.12573594
181	0xbb9d5284	-0.0048010964
182	0x3dba69c0	0.091022015
183	0xbd52fee2	-0.051512606
184	0xbded25e2	-0.11579491
185	0xbdd250b9	-0.10269303
186	0xbbfd2d51	-0.0077263494
187	0x3de5d0ad	0.11221442
188	0xbdeb920b	-0.11502465
189	0xbda36397	-0.0797798
190	0xbd4ebd47	-0.050473478
191	0x3c904e80	0.017615557
192	0x3c7626b4	0.015023876
193	0x3dba0cad	0.09084449
194	0xbd313626	-0.04326453
195	0xbd444cd5	-0.047924835
196	0xbd2f29e0	-0.042764544
197	0xbdbe6a93	-0.09297671
198	0x3e99e464	0.3005706
199	0x3d98121a	0.074253276
200	0xbe33f446	-0.17573652
201	0xbd946f5b	-0.07247802
202	0x3c8f7122	0.01751
203	0xbced974f	-0.029002814
204	0x3d8888aa	0.066666916
205	0xbd013fdd	-0.031555045
206	0xbd96eeaa	-0.0736974
207	0xbe144085	-0.14477737
208	0xbd0b794f	-0.034051236
209	0xbdb43cde	-0.08800672
210	0x3ccb02d9	0.024781631
211	0xbd517a27	-0.051141884
212	0xbd64ce8d	-0.055861045
213	0xbdcb96cf	-0.09940874
214	0x3dcd3d52	0.100214615
215	0xbd87c444	-0.066292316
216	0x3d8adcfe	0.06780432
217	0xbbaba1a3	-0.0052377745
218	0xbe1853ef	-0.14875768
219	0x3dcf9f75	0.10137836
220	0x3db23453	0.08701386
221	0x3e2f7a45	0.17136486
222	0x3da7aac8	0.08186871
223	0x3e303806	0.17208871
224	0xbdc9eaef	-0.09859263
225	0x3d8c6edc	0.06857082
226	0xbc646b51	-0.013941602
227	0x3d4dfbbc	0.0502889
228	0x3e001a99	0.12510146
229	0x3db4c065	0.08825759
230	0x3d905242	0.070469394
231	0x3d27be50	0.04095298
232	0x3d991455	0.07474581
233	0x3cdb8fbe	0.02680194
234	0xbd6c7eb6	-0.05773803
235	0x3daef6dc	0.085431784
236	0xbd9e0072	-0.07714929
237	0x3d6b9970	0.057519376
238	0xbe130613	-0.14357786
239	0x3cded867	0.027202798
240	0x3cc18462	0.023622695
241	0x3e0c4d8b	0.13701455
242	0xbc43b5b3	-0.011945176
243	0x3daf2616	0.08552186
244	0x3d443684	0.047903553
245	0x3dcc22a0	0.09967542
246	0xbd06762f	-0.032827552
247	0x3dd74850	0.105118394
248	0x3d22eb17	0.03977498
249	0x3c4bc21e	0.012436418
250	0x3cd70bca	0.026250739
251	0x3e5b533b	0.21418469
252	0x3d53346e	0.051563673
253	0x3c5c2aec	0.013437968
254	0xbe169e47	-0.14708816
255	0xbbd6ce9e	-0.0065553924

critic.0.bias f4 [64]
0	0x3e357c8f	0.17723297
1	0xbd370130	-0.044678867
2	0x3d41715a	0.04722724
3	0xbda296db	-0.0793893
4	0xbcb98f2c	-0.022651277
5	0xbd663bc1	-0.05620933
6	0xbd8cd07a	-0.06875701
7	0x3e046e1d	0.1293263
8	0xbd494d6f	-0.049146112
9	0x3e26ef19	0.16302146
10	0x3d9bee2f	0.07613789
11	0xbe1ea7af	-0.15493654
12	0xbc8adc74	-0.016950823
13	0xbdfceb09	-0.12349517
14	0x3e5312d5	0.20612653
15	0xbde6845a	-0.11255713
16	0x3be8b4fb	0.0071016527
17	0xbe0cb8ac	-0.13742322
18	0xbcb777fb	-0.022396078
19	0xbd8e51d0	-0.06949198
20	0xbafa2c14	-0.0019086623
21	0x3e811a4a	0.2521537
22	0xbe00eaac	-0.1258952
23	0xbdeaf8f1	-0.11473263
24	0xbe004990	-0.12528062
25	0xbda193c7	-0.078895144
26	0xbda0025f	-0.07812952
27	0xbdb8e39f	-0.0902779
28	0x3e7497d2	0.2388604
29	0xbe01bec4	-0.12670428
30	0x3eb821a5	0.3596317
31	0xbd474241	-0.04864717
32	0xbd964deb	-0.073390804
33	0xbdf13c07	-0.117790274
34	0xbdb75f93	-0.08953776
35	0x3ea58098	0.32324672
36	0x3d47335d	0.04863297
37	0x3cd7baa5	0.026334116
38	0x3e7cf838	0.24704063
39	0x3dfb811a	0.122804835
40	0xbda2d494	-0.07950702
41	0xbc2032e3	-0.009777757
42	0x3e74fd89	0.23924841
43	0xbe1bdfa8	-0.15222037
44	0xbdcedb64	-0.10100439
45	0xbd645234	-0.055742458
46	0xbca01e0c	-0.019545577
47	0xbe19992a	-0.14999834
48	0xbe0a9176	-0.13532051
49	0x3e14e9f7	0.14542376
50	0xbdc43464	-0.09580305
51	0xbd4829ae	-0.048867874
52	0x3e981288	0.29701638
53	0xbdd3a111	-0.10333455
54	0xbe15e929	-0.14639725
55	0xbd7a11eb	-0.061052244
56	0xbcc206aa	-0.023684818
57	0xbe029be7	-0.12754785
58	0xbd0ca2da	-0.034334995
59	0x3de2e9ae	0.11079727
60	0xbe024c28	-0.12724364
61	0xbe12c269	-0.14331974
62	0xbc4b87a3	-0.012422475
63	0x3dda1411	0.106483586

critic.2.weight f4 [64, 64]
0	0xbd928bac	-0.071555465
1	0xbccb03a2	-0.024782006
2	0xbd7b1b8e	-0.061305575
3	0x3df0e526	0.117624566
4	0x3a83c583	0.001005337
5	0xbdd29546	-0.10282378
6	0xbc1f117d	-0.009708759
7	0xbe439597	-0.19100033
8	0x3ce63e15	0.028105775
9	0x3d3415f0	0.043966234
10	0xbd3e0792	-0.04639394
11	0x3e31bd7a	0.17357436
12	0x3d549937	0.05190393
13	0x3d83641f	0.06415581
14	0x3dca8eb9	0.098905034
15	0xbdbbe43b	-0.09174391
16	0x3d8d4377	0.068976335
17	0xbd89a7b8	-0.06721443
18	0xbe243336	-0.1603516
19	0xbd6cc35a	-0.05780349
20	0xbd3adb0c	-0.045619056
21	0xbd42774a	-0.047477044
22	0xbd4c0175	-0.049806077
23	0x3d718e44	0.058973566
24	0xbe0a95b1	-0.13533665
25	0x3d774b9d	0.060374845
26	0xbd6c5f09	-0.05770782
27	0xbd3b3c69	-0.04571191
28	0xbde99827	-0.11405974
29	0xbc36bec0	-0.011153877
30	0x3d1cbfef	0.03826898
31	0xbdbda6f0	-0.092603564
32	0xbb1482a2	-0.002266087
33	0x3c06cc73	0.008227455
34	0x3c9bd97d	0.019024605
35	0xbb7373b9	-0.0037147834
36	0x3ce00d20	0.027350008
37	0x3d1c83be	0.038211577
38	0xbe8d0de9	-0.27549675
39	0x3d93e2aa	0.07220967
40	0xbe154c24	-0.14579827
41	0x3c2b9207	0.010471827
42	0x3d837e49	0.06420571
43	0xbb1e2aa2	-0.0024134298
44	0x3b9ba20b	0.0047495416
45	0xbde327e9	-0.11091597
46	0x3e23e5d7	0.16005646
47	0xbdb14235	-0.08655206
48	0xbd1c1c83	-0.03811313
49	0xbd271096	-0.040787302
50	0xbdba4761	-0.09095646
51	0xbd81305e	-0.063080534
52	0xbdaa1838	-0.083054006
53	0x39aa20e9	0.00032449447
54	0xbe3644ef	-0.17799734
55	0x3d83046d	0.063973285
56	0x3d788e1d	0.060682405
57	0xbd383b22	-0.04497827
58	0xbdbde5a9	-0.0927232
59	0xbe16010a	-0.14648834
60	0xbcd56b83	-0.026052242
61	0x3c62b5bc	0.013837274
62	0xbce72d9f	-0.028219996
63	0x3af8f794	0.0018994682
64	0xbd429a22	-0.047510274
65	0x3df4f858	0.1196143
66	0xbe391886	-0.18075761
67	0x3d4f62c0	0.050631285
68	0xbe0cfe3d	-0.13768859
69	0xbc254857	-0.010088048
70	0x3bc27f85	0.0059356117
71	0xbe479132	-0.19488981
72	0x3e1a9211	0.15094782
73	0xbd57ca8a	-0.05268339
74	0xbe622f7b	-0.22088425
75	0x3dd58538	0.104258
76	0xbe06e9b2	-0.13175085
77	0x3dfeb6a5	0.124371804
78	0x3e0e0c53	0.13871889
79	0x3d112eca	0.035445012
80	0xbe0312eb	-0.12800185
81	0xbd7d0c78	-0.06177947
82	0x3e186e60	0.14885855
83	0x3c5a24dc	0.013314452
84	0xbe326958	-0.17422998
85	0xbdaebc2b	-0.08531984
86	0xbded4fca	-0.11587484
87	0x3dcf20a5	0.10113648
88	0x3d207f57	0.03918394
89	0x3da4a57d	0.08039377
90	0x3ceaa647	0.02864374
91	0x3d5065d3	0.050878357
92	0xbdaef3f5	-0.08542625
93	0xbcdd4300	-0.027009487
94	0xbe9e1924	-0.30878556
95	0xbe18ccc9	-0.1492187
96	0xbc233312	-0.009960907
97	0xbd40b860	-0.047050834
98	0x3e050853	0.12991457
99	0xbd6f6e91	-0.058455054
100	0xbd8dc8d2	-0.06923069
101	0xbc3e0860	-0.011598676
102	0xbdab5289	-0.08365352
103	0x3c2d5690	0.01057972
104	0xbcb2899f	-0.021794138
105	0xbd803596	-0.06260221
106	0xbd54f373	-0.051989984
107	0xbc338831	-0.0109577635
108	0x3e002355	0.12513478
109	0x3d5b56e8	0.053549677
110	0x3d08f7f3	0.033439588
111	0xbce8f572	-0.02843735
112	0xbdf8a1b3	-0.12140217
113	0xbdcac0b9	-0.0990004
114	0xbd8d9ea1	-0.06915022
115	0xbd9a6378	-0.075385034
116	0xbddcb451	-0.1077658
117	0xbc2743d6	-0.010209044
118	0xbdbc998a	-0.09208973
119	0xbd251ae4	-0.040308848
120	0xbceef908	-0.029171482
121	0xbe18b8ba	-0.14914218
122	0xbdac6dff	-0.084194176
123	0xbdbfb5f8	-0.0936088
124	0xbdb646a6	-0.08900194
125	0x3d0e71ae	0.034776382
126	0x3d81fd14	0.06347099
127	0x3d156948	0.036477357
128	0xbdd4520d	-0.103672124
129	0x3dc37410	0.095436215
130	0x3b7848ca	0.0037885183
131	0xbbb2aa64	-0.005452441
132	0xbd5215a5	-0.051290173
133	0xbd09701b	-0.033554178
134	0x3cb54b66	0.02213068
135	0x3e016b39	0.12638558
136	0xbe06ad74	-0.13152105
137	0xbd7271b3	-0.059190463
138	0xbce2b602	-0.027674679
139	0xbc9b36cf	-0.018947033
140	0x3dc81f33	0.09771576
141	0xbda0ce76	-0.07851879
142	0xbccdaa13	-0.025105512
143	0xbd5e1d63	-0.054227244
144	0x3df810ce	0.1211258
145	0xbd89b3ea	-0.06723769
146	0x3c14040c	0.009034168
147	0xbd27ba3d	-0.040949095
148	0xbcc0d45e	-0.023538765
149	0xbe30021d	-0.17188306
150	0x3e16ca65	0.14725645
151	0xbe1a480c	-0.15066546
152	0x3d94697f	0.07246684
153	0xbe30a1a8	-0.17249167
154	0x3cba1115	0.022713223
155	0x3e0e7c80	0.1391468
156	0x3e030cc1	0.12797834
157	0x3d15ed71	0.036603395
158	0x3b2dbfbe	0.0026511992
159	0xbd146132	-0.036225505
160	0xbcbfd332	-0.023416135
161	0xbdfa9b5f	-0.12236666
162	0xbd4bd663	-0.049765002
163	0x3e25054d	0.16115303
164	0x3d92c5e6	0.071666524
165	0x3d65f4fe	0.056141846
166	0x3cde435a	0.027131725
167	0x3cfb7034	0.030693151
168	0xbdcf831f	-0.10132431
169	0xbd669284	-0.056292072
170	0x3b08f407	0.0020897405
171	0x3b9d0222	0.004791514
172	0xbda3e49e	-0.0800259
173	0xbdb7c185	-0.08972458
174	0xbd9dd3c6	-0.07706408
175	0x3d220f5b	0.039565425
176	0xbce81d6e	-0.028334346
177	0xbd7684ef	-0.06018537
178	0xbd09314f	-0.03349429
179	0xbd89dcea	-0.06731589
180	0x3bbdd087	0.0057926807
181	0xbc9936cb	-0.018702885
182	0x3dc56b8a	0.09639652
183	0x3c432a82	0.01191199
184	0x3c9f8654	0.019473232
185	0x3e068768	0.13137591
186	0xbdc9b896	-0.0984966
187	0xbdd539c8	-0.104114115
188	0x3db56e3f	0.088589184
189	0x3ccd4a32	0.025059793
190	0xbd44300f	-0.047897395
191	0x3d053434	0.032520488
192	0x3de62420	0.11237359
193	0x3e145899	0.14486922
194	0xbdc0d62c	-0.0941585
195	0x3d8bca5c	0.06825706
196	0xbc93281d	-0.017963463
197	0x3d80923c	0.06277892
198	0x3e068935	0.13138278
199	0xbe1b0a38	-0.15140617
200	0x3d309cb5	0.043118197
201	0x3cc6edd8	0.024283335
202	0xbe37323d	-0.17890258
203	0x3d2f7b25	0.04284205
204	0x3dd99874	0.10624781
205	0x3d36de75	0.044645745
206	0x3e02ee1d	0.12786146
207	0xbdf1a3b1	-0.117988
208	0x3de80246	0.113285586
209	0x3ea7654c	0.3269447
210	0x3d52eb3c	0.05149387
211	0xbdd52d05	-0.104089774
212	0xbd984737	-0.07435458
213	0xbd8bedf3	-0.068324946
214	0xbda9cde2	-0.08291222
215	0x3d326da0	0.043561578
216	0x3da1f74b	0.079084955
217	0x3e0fb78c	0.14034861
218	0x3e11becd	0.14232941
219	0xbde08a12	-0.10963835
220	0xbe220c02	-0.15824893
221	0xbdcc8152	-0.099856034
222	0xbe71a482	-0.23597911
223	0xbe5a1379	-0.2129649
224	0x3dab5393	0.0836555
225	0x3dd8cc6e	0.10585867
226	0x3ddb582e	0.10710178
227	0xbe4ff247	-0.20307265
228	0x3e2d5941	0.16928579
229	0xbe5a27b6	-0.21304211
230	0xbe3e9b7e	-0.18614003
231	0x3a9e50fc	0.0012078579
232	0xbd1440b2	-0.03619451
233	0xbe6463d9	-0.22303714
234	0xbc7deef5	-0.015498866
235	0x3be38518	0.0069433562
236	0xbe422f95	-0.18963464
237	0xbd3a4a02	-0.045480736
238	0xbda7a0f9	-0.08185
239	0x3dce6bba	0.10079141
240	0x3d5e2209	0.054231677
241	0xbe1821b1	-0.14856602
242	0x3e1a7f0f	0.15087532
243	0xbc9257e2	-0.017864171
244	0xbe6bdff5	-0.23034652
245	0xbdb10dde	-0.08645223
246	0xbcfa95f3	-0.03058908
247	0x3e6b2bdd	0.22965951
248	0xbe2266dd	-0.15859552
249	0xbda0d6b6	-0.07853453
250	0x3e61043f	0.21974276
251	0xbea0d7ed	-0.31414738
252	0xbd166326	-0.03671565
253	0x3ea70d26	0.3262722
254	0xbe105c23	-0.14097647
255	0x3e61f183	0.22064786

critic.2.bias f4 [64]
0	0x3c3b2b45	0.0114238905
1	0xbcbfc466	-0.02340908
2	0x3d3de578	0.046361417
3	0xbdd59c25	-0.10430173
4	0xbde856fa	-0.113447145
5	0xbe236c95	-0.1595939
6	0x3e0a11ae	0.13483307
7	0xbc78e5ae	-0.015191479
8	0xbd133bd4	-0.03594573
9	0xbe18ca34	-0.14920884
10	0x3e354dfa	0.17705527
11	0xbd2ccf71	-0.04219002
12	0xbd8a7a4f	-0.0676161
13	0xbdf16b07	-0.11787992
14	0xbdaea67f	-0.0852785
15	0x3e28b9a6	0.1647707
16	0xbe33be49	-0.17553057
17	0x3cd0ef4e	0.025504734
18	0xbd8b2204	-0.06793597
19	0xbda0f060	-0.07858348
20	0xbe208314	-0.15675002
21	0x3e0a6f49	0.13519014
22	0xbc62f93f	-0.01385337
23	0x3dfefa5e	0.124500975
24	0xbb2a1f9d	-0.0025958784
25	0xbdd2159d	-0.10258029
26	0x3dda82c7	0.10669475
27	0xbdc40b81	-0.09572507
28	0x3d890eaf	0.06692254
29	0x3e11a4dd	0.14223047
30	0xbe3a5c57	-0.18199287
31	0xbdafc022	-0.08581568
32	0xbc1247e0	-0.008928269
33	0x3c01891c	0.007906225
34	0xbcd1389c	-0.025539689
35	0xbdb0f23e	-0.08639954
36	0xbd89dee6	-0.06731968
37	0x3d07eb9b	0.033183675
38	0xbd5a21ac	-0.05325477
39	0xbc4b77fa	-0.012418741
40	0x3de90080	0.113770485
41	0xbd65b662	-0.056082137
42	0x3c0ce61f	0.008599787
43	0xbd2716fa	-0.040793397
44	0xbc9d8c33	-0.019231891
45	0x3cdd0855	0.026981512
46	0xbd6d5dae	-0.057950668
47	0x3c0092d7	0.007847509
48	0xbe0443d9	-0.12916507
49	0x3d21019e	0.039308183
50	0xbdb2b06d	-0.08725057
51	0xbca4d416	-0.020120662
52	0x3b63f75f	0.0034784896
53	0xbdcb0231	-0.09912527
54	0x3e482d80	0.19548607
55	0x3c7173a6	0.014737045
56	0x3c62b9d9	0.013838255
57	0x3c07bf74	0.008285392
58	0x3d736a43	0.05942751
59	0xbe0c85c1	-0.13722898
60	0xbdcdfacf	-0.100576036
61	0xbd474060	-0.048645377
62	0x3e25c4eb	0.161884
63	0xbdbd28a8	-0.0923627

critic.4.weight f4 [1, 64]
0	0xbb9cb206	-0.0047819642
1	0xbcbbcdbd	-0.022925252
2	0x3af52140	0.0018701926
3	0xbe83f165	-0.25770107
4	0xbddae27e	-0.10687731
5	0xbd9de97a	-0.07710548
6	0x3d383e00	0.044981003
7	0xbe9dbeec	-0.30809724
8	0x3b038d65	0.0020073291
9	0x3da774c7	0.081765704
10	0x3de2b5c1	0.11069823
11	0xbe4f8a35	-0.20267566
12	0xbe210f1a	-0.15728417
13	0xbe6d3603	-0.23165135
14	0xbe35c025	-0.17749079
15	0x3bc401c2	0.005981655
16	0x3d8b9fd5	0.06817595
17	0xbcafeaba	-0.021474231
18	0x3d925881	0.07145787
19	0xbe105c9e	-0.1409783
20	0xbe2cd807	-0.16879283
21	0x3e11a6d5	0.14223798
22	0x3d284a9b	0.041086774
23	0x3d846ff7	0.06466668
24	0xbd7e6156	-0.062104546
25	0x3d902399	0.0703804
26	0x3e3b8670	0.18313003
27	0x3c976761	0.018481912
28	0x3bff06f2	0.0077828104
29	0x3d081d91	0.03323132
30	0xba00ba27	-0.00049105514
31	0xbda54f01	-0.080717094
32	0x3a877cc0	0.0010336861
33	0xbc7633e0	-0.015027016
34	0xbd87ce7c	-0.06631181
35	0xbcadc1a9	-0.021210508
36	0xbd81ef65	-0.06344489
37	0x3c667ee9	0.014068344
38	0xbdb55de2	-0.08855797
39	0x3ace6d77	0.0015749176
40	0x3c16985c	0.009191599
41	0xbe5b0c0e	-0.21391317
42	0xbdc81e80	-0.097714424
43	0xbc530782	-0.012880208
44	0x3c9db552	0.0192515
45	0xbdc9b6da	-0.09849329
46	0x3de00c46	0.10939841
47	0xbdf25808	-0.11833197
48	0xbd832ed8	-0.06405419
49	0xbdf36262	-0.118839994
50	0xbba153d7	-0.0049233246
51	0xbddbd5c3	-0.10734131
52	0xbd507171	-0.050889436
53	0xbd242297	-0.04007205
54	0x3e387d4c	0.18016547
55	0xbdc31353	-0.0952517
56	0x3d1b3b73	0.037898492
57	0x3b294f16	0.0025834492
58	0x3c33b9ee	0.010969622
59	0xbc2105f2	-0.009828078
60	0xbe86e63a	-0.26347524
61	0xbe7e35ed	-0.24825259
62	0x3d4a767e	0.04942941
63	0xbe8aa3fd	-0.27078238
