Models/Reward_shaping_vm/RS_ICM_14_0/18000.pth (torch, 78437 bytes, 11 tensors)

actor.0.weight f4 [64, 62]
000000 f7 c2 94 3d d6 a8 87 bd 91 f2 78 bd 76 69 e7 bc
       0.07263749 -0.06624 -0.060778204 -0.02824853
000010 be a2 94 be ec 27 2c be 72 76 73 bd f2 62 6d be
       -0.29030412 -0.16812104 -0.05943913 -0.23182276
000020 71 42 3b be 74 39 18 bd 86 d5 b8 bc b8 80 88 bd
       -0.18287064 -0.037164167 -0.022562753 -0.06665176
000030 4b 6e 5a be 2c 6a 0e be f4 f6 0e 3e 4e de 9a 3e
       -0.21331136 -0.13907689 0.13961393 0.3024773
000040 55 65 9f bc bd 05 da 3d 6b 82 6a bd f1 31 9a bd
       -0.019457499 0.10645626 -0.057253283 -0.07529057
000050 43 49 89 bd f1 cc c5 3d ac 20 62 3d 3c 72 fe bb
       -0.06703427 0.0965823 0.05520694 -0.0077650826
000060 3e 45 f2 3c 45 f6 22 3c 18 7d 1d 3d c3 f1 b2 3d
       0.029574033 0.009946411 0.038449377 0.08737519
000070 08 fe d6 3c e7 0c dc 3c f7 53 88 bc b2 ce 1d 3e
       0.026244178 0.026861621 -0.0166416 0.15410879
000080 9d 49 d1 bd ef 77 de 3a a7 48 33 3d d0 6d ad 3d
       -0.10219119 0.0016972999 0.04377046 0.08468211
000090 9f 44 74 3c 4b 6f 5f 3e af ba 28 3d 64 35 e2 bd
       0.014908939 0.21819799 0.04119366 -0.1104534
0000a0 45 0e 33 be 0b 5a 42 3e 88 3a b2 3c 6c 09 87 bd
       -0.17485912 0.18979661 0.021756425 -0.06593594
0000b0 9c 49 65 bc ab fb ac 3d bc e3 0b 3d 30 b6 bb 3d
       -0.013994601 0.08446439 0.03415273 0.09165609
0000c0 4e df d4 bd d1 e0 c5 3d 64 f7 73 3d bc d3 06 3e
       -0.103941545 0.09662021 0.059562102 0.13166708
0000d0 a2 b2 ff 3d 17 ae 86 bd 8b f8 c7 bd 9e 02 ed 3a
       0.124852434 -0.06576174 -0.09764203 0.0018082445
0000e0 04 9d 21 3e 41 dc 24 bd 69 6c 10 3e 68 9d 5f 3d
       0.15782553 -0.040249113 0.14103855 0.054593474
0000f0 2d 14 87 3d 38 1b d3 3d 68 6e 56 bd c0 48 74 3d
       0.06595645 0.10307926 -0.052351385 0.059639692
000100 57 8b d6 3d 74 7e 81 bd 79 83 18 3e a8 bf 32 3e
       0.10475796 -0.06322947 0.14893903 0.17455924
000110 8c 4a 89 be 46 7d 45 bd a2 dc bf bc a0 70 b2 3d
       -0.26814687 -0.048215173 -0.023420636 0.08712888
000120 35 71 b9 3b 3e f6 83 3e ab a7 93 3c bd bd 81 3b
       0.0056592473 0.25773805 0.018024286 0.003959386
000130 eb 4f 08 3d 8d 41 f4 be 8e 95 ca 3d 12 54 b7 bc
       0.03327934 -0.4770626 0.098918065 -0.022378955
000140 e9 95 42 bd 24 12 99 ba 8a 86 5f bd b8 6b ce 3d
       -0.047506247 -0.001167838 -0.054571666 0.100791395
000150 54 48 00 3c 5a a2 9e bc c0 ab dd bd b5 6d b6 3d
       0.007829744 -0.019364525 -0.10823774 0.08907644
000160 40 db de 3b a5 f8 54 bc 91 c2 a5 be f4 87 2d bd
       0.006801039 -0.012998735 -0.32375005 -0.042365983
000170 e6 4b 9a 3d bc 34 5a 3e e6 5b 98 bb 66 7b e4 bd
       0.07534008 0.21309179 -0.004649627 -0.11156349
000180 3f 93 07 3d fd 56 b2 bc ee ea 18 bd df f8 49 be
       0.03309941 -0.021769995 -0.03733342 -0.19723843
000190 6f 10 2b 3e ee cc f5 bd eb 47 d3 3c 21 e4 f7 3e
       0.16705488 -0.12001978 0.02579113 0.48416236
0001a0 c3 a4 5b 3d 1d 6d 60 3e 11 35 18 be f4 5b 9a be
       0.053623926 0.21916623 -0.14863993 -0.3014828
0001b0 e1 44 bc 3d d8 be 09 3e ee f0 4c be e7 3c ae bd
       0.09192825 0.13451707 -0.20013782 -0.0850771
0001c0 8b 92 50 bd 33 a3 92 bc fa 8d 6a bc 22 33 f6 3d
       -0.050921004 -0.017900085 -0.014316076 0.120214716
0001d0 88 5c 6f ba c3 d1 69 3d 22 8c a6 3d 00 63 84 bb
       -0.00091309147 0.05708481 0.08132197 -0.004040122
0001e0 a2 0d 13 bd 93 cd 83 3e 80 08 81 bb be 1c 4c 3e
       -0.035901673 0.25742778 -0.003937781 0.1993284
0001f0 67 09 f5 bd f9 c9 b1 bd 6e be 2f 3c 99 12 cd bd
       -0.11964684 -0.08681101 0.010726554 -0.10013313
000200 68 5e 51 3d ff d9 9e 3d 7a f1 b9 bc 99 0f f4 bd
       0.051115423 0.07756423 -0.022698153 -0.119170375
000210 22 d3 53 bd ff 03 fc bd 5b b8 80 3d de 73 6b 3d
       -0.051715024 -0.1230545 0.06285163 0.057483546
000220 50 4d 80 3d 32 aa 13 bd df 1f 6d 3d e4 55 23 bc
       0.06264746 -0.036050983 0.057891723 -0.009969208
000230 55 46 0a bd 53 35 9d bd aa ba 08 3d 58 72 e8 bd
       -0.03375848 -0.076761864 0.03338114 -0.11349934
000240 53 5d d7 3d 21 d6 bf 3d fb 63 fc 3c 85 34 2b bd
       0.10515847 0.09367014 0.030809393 -0.041798133
000250 be 67 91 bd bd f2 00 be 62 0c de 3d 23 35 27 3a
       -0.070998654 -0.12592597 0.108422056 0.00063784624
000260 5b e0 31 3c 3d 6b d6 bd 97 f4 fa 3d 9f 7e e5 bc
       0.010856713 -0.10469673 0.12253683 -0.02801448
000270 ee 84 2c bc 18 5c 08 bd 6c 4f 8c bd 53 e4 54 bd
       -0.01052974 -0.033290952 -0.06851086 -0.05197556
000280 6a 95 2f bd 7c 9f 87 3d 56 23 89 bd 73 ce 84 bd
       -0.0428671 0.06622216 -0.06696193 -0.064846896
000290 85 20 0e 3e 97 eb fc bc 74 89 ff bc 8c 62 ae bd
       0.13879593 -0.030874057 -0.031193472 -0.0851489
0002a0 d8 a7 eb bd 73 ed bf bd 58 20 b2 3d 83 e0 dd 3c
       -0.11506623 -0.09371462 0.08697575 0.027084595
0002b0 e5 26 3e bc 13 39 03 bd eb bd 22 3d 82 92 55 3d
       -0.011605953 -0.032036852 0.0397319 0.052141674
0002c0 11 bc d4 bc 76 30 04 bd 8c 14 9e 3b ab fa 21 bd
       -0.025968583 -0.03227278 0.0048242267 -0.039545696
0002d0 c2 6c 9c bd 37 15 49 bb b1 2f 52 3c 30 f9 e4 bd
       -0.076379314 -0.003068281 0.012828753 -0.11180341
0002e0 14 69 15 be 8e 82 99 bd 50 84 e5 3d 2b 3b 60 3d
       -0.14590865 -0.074956045 0.11206877 0.054743927
0002f0 31 21 b5 3d 87 8d bf bd 98 db 2c be ec 2b 5a be
       0.088442214 -0.09353166 -0.16880643 -0.21305817
000300 9b 33 25 3e 1b 00 22 3e a6 30 43 bd 71 ad ab 3e
       0.16132967 0.15820353 -0.047653817 0.33530763
000310 5f 30 a3 3d 3f 1c 9b 3e 22 02 5d 3e b9 46 62 3d
       0.079682104 0.30294988 0.21582845 0.055243228
000320 fb 02 9b 3c df 92 08 3f b9 45 8f bd d9 05 4e 3d
       0.01892232 0.5334911 -0.069957204 0.050298546
000330 29 1c b9 3c ea 1c e7 bd cc 58 af bc 7f b6 35 3d
       0.022596436 -0.11284812 -0.021404646 0.044363495
000340 a4 25 1e 3d 7f ea bf bd 7e 5e 8a bb 56 f5 f4 3d
       0.038610116 -0.093708985 -0.00422269 0.119608566
000350 e0 be b6 3c 3a 70 da bd 33 1b c2 3e 68 03 58 3e
       0.022307813 -0.10665937 0.37911376 0.2109505
000360 8e 51 13 3e 05 37 8a 3e e7 7e 8a 3d d2 14 dd bd
       0.1438658 0.26995102 0.06762486 -0.10794987
000370 04 32 4e bc 20 ed bc bd ec ad 03 3e b9 44 33 3e
       -0.012585167 -0.092249155 0.12859315 0.17506684
000380 11 11 eb 3d 98 3a 81 3d da 6a 12 be 3a 64 fa bd
       0.114778645 0.06310004 -0.14298573 -0.12226148
000390 ce 47 4f bd 1a d8 ab bd 1f a4 15 be c3 00 48 bd
       -0.050605588 -0.083908275 -0.14613388 -0.04882885
0003a0 d6 ae e1 3d a3 c4 c5 3c db 67 19 be 6f cb 21 bd
       0.110196754 0.024141615 -0.14981024 -0.03950065
0003b0 68 d9 bd 3d 3a 45 3e 3d b9 1d 88 bd 8f 49 eb bd
       0.092699826 0.04645274 -0.06646294 -0.114886396
0003c0 5f ed 98 3d ca f6 38 3d b3 30 3a 3d f9 de 8f 3d
       0.0746715 0.04515723 0.0454566 0.070249505
0003d0 fd 17 0f 3e f6 04 29 3d 81 72 4b 3d b5 36 1e bc
       0.13973995 0.041264497 0.049669746 -0.009656598
0003e0 86 f1 e2 3d e4 e5 e5 bd 07 ab 2e 3d b6 36 4a 3c
       0.11081223 -0.11225489 0.042643573 0.012342146
0003f0 67 0f 25 be 15 81 c1 3d d0 5d 13 3d 18 de 49 be
       -0.16119157 0.094484486 0.03597814 -0.19713628

actor.0.bias f4 [64]
000000 46 35 2b 3e 2a d7 a2 3d ee 79 d7 bd 17 9f 47 bd
       0.16719541 0.079511955 -0.10521303 -0.048735704
000010 04 2b 68 3d 50 81 a7 bd f8 1a ef 3c a7 57 ed bd
       0.056681648 -0.08178961 0.029187664 -0.11588984
000020 98 37 e3 bb 3a 77 04 3e d9 be 3a 3d 32 57 1b 3d
       -0.0069341175 0.12936106 0.045592163 0.037924953
000030 89 b1 60 3d 5a df 37 3e c3 c4 95 bc 8c dd ae bb
       0.05485681 0.17956296 -0.0182823 -0.005336469
000040 37 09 92 3d eb 81 ba bd 24 aa 5e 3e 50 e5 46 bd
       0.07130664 -0.09106811 0.21744591 -0.048558533
000050 e7 2e 7d 3d 1f 11 91 3d e1 e0 10 3e 49 9e c2 3c
       0.061812308 0.07083344 0.14148284 0.023757117
000060 04 d0 2f 3e 02 ba 64 3e 64 49 a0 3d 5c 30 e5 bb
       0.17169195 0.22336581 0.07826498 -0.0069942903
000070 0e 84 db 3d 95 13 84 3d 14 75 70 3c eb 9a f2 3d
       0.10718547 0.064490475 0.014676351 0.118459545
000080 16 e1 01 be a4 61 56 3e fb 44 30 3e 57 44 fa 3d
       -0.1268352 0.20935684 0.17213814 0.12220066
000090 46 a6 8d 3b c6 2d f1 bc 3b a6 81 3a a4 d0 fd 3d
       0.0043228 -0.029440772 0.000989146 0.12393311
0000a0 f3 48 93 3d 08 9e 4c 3c 12 1c b0 3d 27 09 99 3d
       0.07191648 0.012488849 0.08599104 0.07472449
0000b0 a3 8b d4 3d f8 1e 8c bd 0f 80 3b bc 75 5d 1e 3e
       0.10378196 -0.06841844 -0.011444106 0.15465339
0000c0 7e 54 65 3e d8 d3 3d 3d b2 55 f7 bd 64 5d 78 3e
       0.22395512 0.046344608 -0.12076892 0.24254376
0000d0 68 db 33 bc 57 ce 12 bd f9 ef 2c bd 41 f7 02 3e
       -0.0109776035 -0.035841312 -0.042221043 0.12789632
0000e0 c8 fe 8a bb 22 c2 57 3d 2d eb 6e 3a bc e6 c9 3d
       -0.004241798 0.052675374 0.00091140234 0.09858462
0000f0 86 16 33 3e 52 0b a1 bc ff b2 1c 3c 92 b5 94 bd
       0.17489061 -0.019658718 0.00956416 -0.07261194

actor.2.weight f4 [64, 64]
000000 78 e5 79 bd 23 eb 49 be 86 fa 18 be a5 b0 77 bc
       -0.061009854 -0.19718604 -0.14939317 -0.015117799
000010 ba 32 d9 bd 6c 37 23 3e 29 dd 84 3d 85 41 35 bc
       -0.106053784 0.1593911 0.064874955 -0.011062984
000020 1a 0f a7 bd 21 55 ab 3d aa e8 82 bd c9 7c 8a 3c
       -0.08157177 0.083658464 -0.063920334 0.016905205
000030 b1 c3 1b 3d 8b cc 55 bd a4 86 0e bb 27 18 bc bd
       0.038028423 -0.05219702 -0.0021747733 -0.09184294
000040 31 ab 87 3a da ae 9a bc a3 f9 99 bb 8c 70 04 bd
       0.0010350702 -0.018882204 -0.0046989485 -0.032333896
000050 f9 5b 77 bd 77 c5 85 bd 42 8e 3b be f8 80 06 be
       -0.060390446 -0.06531804 -0.18315986 -0.13135135
000060 26 77 9f 3d 37 74 6a 3d 5d 97 65 bd 96 b1 c0 3d
       0.07786398 0.057239737 -0.056052554 0.09408872
000070 a2 77 b2 3d 51 b9 ab 3c ac a1 5e bd 9b da 84 3c
       0.087142244 0.02096239 -0.0543534 0.01621752
000080 25 04 cf 3d 29 54 80 bd 39 c8 db bc d5 fd 56 bd
       0.101082124 -0.06266052 -0.026828872 -0.052488167
000090 09 1d 06 be 5d 78 fb bd 82 75 0b bd 0f cf 2a be
       -0.13097014 -0.12278817 -0.03404761 -0.16680549
0000a0 b4 04 cb bc d2 e0 10 3c 85 d7 79 bd 4e 18 03 be
       -0.024782516 0.008842664 -0.06099655 -0.1280224
0000b0 a9 9c 1c be 9c c7 49 3d 62 90 10 bd 62 01 d8 3d
       -0.15294136 0.049262628 -0.035293944 0.10547139
0000c0 6a a9 40 bd 73 71 65 3d 57 81 df 3d e0 1e 14 bd
       -0.047036566 0.056016397 0.109133415 -0.036162257
0000d0 06 8f 17 be 0f 53 c5 bd 18 51 fd bd 9b 4e 05 be
       -0.14800653 -0.09634983 -0.12368983 -0.13018267
0000e0 27 15 07 be a4 6d 2a be d3 9a 48 be d0 4b 45 bb
       -0.13191663 -0.16643387 -0.19590311 -0.0030105002
0000f0 7e 77 27 be 87 78 88 3d f1 bc 98 3d 59 02 f5 bd
       -0.16354176 0.06663614 0.07457913 -0.119633384
000100 e8 c4 28 3e 56 7d 8b be 1e aa 50 bd 85 f9 9b 3d
       0.16481364 -0.2724406 -0.050943486 0.076159514
000110 11 42 81 3e 5b 65 c4 bd 12 03 26 be 77 63 4c be
       0.25245717 -0.095896445 -0.16212109 -0.19959818
000120 69 4e d3 3d b0 59 50 bd 6a 75 b0 bd e3 fa d0 ba
       0.1031769 -0.050866783 -0.08616145 -0.0015943911
000130 0a 87 94 3d bf 50 d7 3c 07 42 df bd a1 a7 4a 3d
       0.07252319 0.02628362 -0.109012656 0.04947627
000140 05 9f 34 3d 36 15 24 bd cc 07 64 bd 08 1d 82 bd
       0.044096965 -0.04005929 -0.0556715 -0.063531935
000150 01 34 bf bd fd 49 d6 3d 30 45 13 3e d3 d9 55 3d
       -0.09336091 0.10463331 0.14381862 0.052209686
000160 00 61 1e 3d a9 ed 89 3d b0 1a a4 3d 2e 91 50 be
       0.038666725 0.06734783 0.08012903 -0.20367882
000170 c1 47 c9 bd 61 ee 37 bd 5a 69 86 3e ed 9a eb bd
       -0.09828139 -0.04490507 0.26252252 -0.11504159
000180 e2 d0 09 be c7 c1 e6 3d 6d 69 b2 3d aa 66 57 3d
       -0.13458589 0.11267429 0.087115146 0.052588142
000190 e2 f8 88 3d e8 21 1a be f1 c0 31 bc e8 02 3b 3e
       0.06688096 -0.15051997 -0.0108492235 0.18262827
0001a0 7f a8 bd bd d2 1c 0e bd ae d7 36 3e c1 23 f2 3c
       -0.09260654 -0.034695454 0.17855713 0.029558064
0001b0 7a 04 a3 3d b9 46 2a 3c b7 5f 1d 3e 74 82 1f bd
       0.07959838 0.010392838 0.15368544 -0.03894277
0001c0 56 88 19 3e 2b c1 69 bd 36 c1 12 be 5f e6 d9 3d
       0.14993414 -0.057068985 -0.14331517 0.10639643
0001d0 d8 21 93 bd f2 10 93 bd fd 4b b6 bc fe 7d 11 3e
       -0.071841896 -0.071809664 -0.02225303 0.14208218
0001e0 14 e4 ea 3c 9b 2e 51 be cb b6 0a 3e ad 65 80 bc
       0.02867321 -0.20427935 0.13546292 -0.015673483
0001f0 f4 f3 07 3c 9a 22 0d 3e aa 5e 5c bd 31 72 77 3d
       0.008297909 0.1378273 -0.053801216 0.060411636
000200 da 97 af bd e5 e9 25 3d ff 19 0a bd 0e 28 9d be
       -0.08573885 0.040506262 -0.033716198 -0.30694622
000210 dc ef 3d 3e 4e 89 77 3d 7b c4 70 3e 33 3d 81 3b
       0.1854853 0.06043368 0.23512451 0.003944063
000220 fe c1 56 3e 50 91 96 bd 28 91 ef bd 07 5d ed 3d
       0.2097244 -0.07351935 -0.11697608 0.11590009
000230 23 4a 8b 3e 2d 44 29 3e dd 12 47 be 8d ca 26 bc
       0.27205 0.16529913 -0.1944079 -0.010180128
000240 8f 83 a7 bd c4 28 e5 bd 56 1b 5d 3e f4 88 70 3e
       -0.0817939 -0.11189416 0.21592459 0.23489743
000250 a7 a3 df bd 81 68 71 3e d0 d3 30 3d 85 e8 53 be
       -0.10919886 0.23575021 0.04317075 -0.20694168
000260 a0 13 75 3e d6 f1 6e 3e b8 49 bc 3d d9 49 29 bc
       0.23933268 0.2333444 0.09193748 -0.010332548
000270 76 93 bb bd d7 4f 5d 3e 63 75 08 3d 25 52 77 3d
       -0.09158985 0.21612488 0.033315074 0.060381074
000280 6b 80 87 be d7 6e ea 3d df 32 ac 3e 0b 93 cc 3e
       -0.26465163 0.11446922 0.33632562 0.39955935
000290 4f 5e 27 bd 64 25 ee bd af d3 e2 3c ed 09 04 bd
       -0.040861424 -0.116282254 0.02768883 -0.03223603
0002a0 8e 9d da bc 04 59 93 3d 18 61 01 bd 1a 13 78 3e
       -0.026686456 0.07194713 -0.031586736 0.24226037
0002b0 f7 a1 cd bc 6b dc 04 be 90 23 d7 3c 17 98 4b 3e
       -0.025101645 -0.12974708 0.026262075 0.19882236
0002c0 07 d3 83 3e 83 d4 56 3d f4 18 ca 3c 0d 7a b6 3e
       0.2574694 0.05244876 0.024670102 0.35639992
0002d0 0c d8 90 bd 4f fa 1b bc 6f bc 4e bd a2 0d ac 3e
       -0.07072458 -0.009520127 -0.050472673 0.3360415
0002e0 47 be c1 bd ac b0 58 3d 7f ce 0b be 4e a6 8e 3d
       -0.09460121 0.052902862 -0.13652991 0.06965314
0002f0 ea 6a 81 3e 13 12 6f 3e 02 33 f0 3c e6 85 b0 bd
       0.2527688 0.23346739 0.029321197 -0.08619289
000300 da 23 e4 3d 7a af 97 bd e1 f8 4f bd 92 09 7f bd
       0.11139651 -0.074065164 -0.05077446 -0.062264986
000310 f8 46 9a bd 20 dc 95 bd ae 89 ec 3d a6 e9 fc 3d
       -0.075330675 -0.07317376 0.11549698 0.123492524
000320 f5 6e 26 bd 64 e7 93 bd 08 7c 65 3d 88 62 be bc
       -0.04063316 -0.07221869 0.05602649 -0.023240343
000330 e3 b1 92 3d df 0c 84 3d 65 03 75 3d 16 80 49 bd
       0.071628354 0.064477675 0.05981769 -0.049194418
000340 4b 28 b6 bd 37 2c 26 bd 92 79 bd 3b 6e 29 c2 bd
       -0.08894404 -0.04056951 0.0057823146 -0.09480558
000350 ef 73 55 bd 3d ae b4 3d d5 0b 38 3d d1 c2 96 3d
       -0.052112516 0.08822296 0.04493316 0.07361377
000360 e1 01 dd 3d f8 58 76 bd 5f 13 06 bd 19 25 64 3c
       0.10791374 -0.06014344 -0.032733317 0.01392486
000370 05 ab cc bd 5f b6 e6 3d 3c ba 05 be 20 5b 9d 3b
       -0.09993557 0.11265253 -0.13059324 0.0048021227
000380 ad a4 75 bd 63 be 8c 3d cc c9 11 be 9b 4b 57 3d
       -0.0599715 0.06872251 -0.14237136 0.052562337
000390 64 11 b5 bd bd e5 ae bc fe 2d 56 3b 68 1b 18 bd
       -0.088412076 -0.021349782 0.0032681222 -0.03713551
0003a0 29 04 28 bc 64 88 e7 3d 2c 15 ec bd 48 b6 d6 bd
       -0.010254898 0.11305311 -0.11527476 -0.10483986
0003b0 24 83 90 bd 39 c2 52 bc 87 15 2a bb 4c fa df bd
       -0.07056263 -0.012863689 -0.0025952773 -0.10936412
0003c0 f1 61 d8 bd 01 04 96 3d 11 9c 90 bd 0c 5d e3 39
       -0.10565556 0.073249824 -0.07061017 0.0004336614
0003d0 1b c9 fc bd 48 9e 91 3d e4 88 56 3d 37 1a c4 bc
       -0.12343045 0.07110268 0.052376643 -0.023938281
0003e0 37 5d 4b 3d 93 85 06 3e 26 03 5c bc c5 7e 97 bc
       0.049649443 0.13136892 -0.013428485 -0.018493066
0003f0 5d 9c 09 be a7 d6 e9 3d 69 72 c0 bd 34 28 ad bc
       -0.13438554 0.11417895 -0.09396822 -0.021137334

actor.2.bias f4 [64]
000000 99 37 05 be 53 4a db 3c 1c 52 78 3e e5 06 6b bd
       -0.1300949 0.026768839 0.24250072 -0.057379622
000010 2c 36 d0 3d 80 1f b8 3d 7f c9 fa bb 76 66 f1 bd
       0.101665825 0.08990383 -0.0076534147 -0.11787121
000020 30 61 8e 3b 54 6f 8f bd 9a 71 41 bc 26 5d 4e 3d
       0.0043450817 -0.07003656 -0.01180687 0.050381802
000030 6a 36 10 3e a5 7e 82 bb ec 42 17 3d 66 dc 22 bd
       0.14083257 -0.0039823824 0.036929056 -0.03976097
000040 3e 77 25 be e6 7d dd bd 0f 51 03 be 5c 50 d2 3d
       -0.16158769 -0.10815029 -0.1282389 0.102692336
000050 96 ef 1e bc ab af a7 bd 83 7d 27 3e 5c 68 27 3d
       -0.009700676 -0.08187803 0.16356473 0.04087101
000060 9b 20 9e bd b4 42 78 bd 32 09 ff bc fa 3b d6 3c
       -0.07721063 -0.060610488 -0.031132314 0.026151646
000070 67 d3 99 3d 3b 58 5b 3c 3d ec 85 bc 78 55 a4 3d
       0.07511025 0.013387735 -0.016347999 0.08024114
000080 a1 7f a3 bd 8e cf df 3d 41 03 17 be f5 97 44 3e
       -0.07983328 0.1092826 -0.14747335 0.19198592
000090 14 4b 06 3d 44 5a ac 3d 25 a7 93 3c ef 0c aa 3c
       0.032786444 0.08415654 0.018024037 0.02075812
0000a0 a6 74 d9 3d 87 f0 a3 3c f2 b2 2f bd ad e7 00 3d
       0.10617952 0.020012153 -0.042895265 0.031470943
0000b0 42 68 c4 bd f5 70 d1 3d aa 65 c8 bd cb c6 e5 3d
       -0.09590198 0.10226623 -0.09785016 0.112195574
0000c0 33 0a 16 bd 2b bb e7 3c 2b f1 c0 3d 23 c6 2a 3e
       -0.03663082 0.02828749 0.09420999 0.16677146
0000d0 87 3f d2 3d 83 a9 54 3e 63 76 c4 3d de 42 bc bd
       0.10266023 0.20767789 0.09592893 -0.091924414
0000e0 ce 68 91 3d cb c2 5b 3c ce 25 00 be 38 ca 88 3d
       0.07100068 0.0134131415 -0.12514421 0.06679195
0000f0 e5 7b 00 be 43 22 0e 3d 1c 38 99 3b 27 c2 db bd
       -0.12547262 0.034700643 0.004675878 -0.10730391

actor.4.weight f4 [36, 64]
000000 6d 60 68 3d db e3 83 3c b5 8d f0 be 88 65 3b bd
       0.056732584 0.01609986 -0.46983114 -0.045751125
000010 55 85 da be b0 05 1e 3e e6 4d d5 3e 8f 43 d3 bd
       -0.4267985 0.15431857 0.41660994 -0.1031562
000020 70 fc 81 3c 33 2c 2f be e2 0a 9d be cb 20 16 bf
       0.015867442 -0.17106704 -0.30672365 -0.5864379
000030 ef 96 60 be 98 77 16 3f 83 cc 9f 3e 4b a6 a5 3d
       -0.21932577 0.58776236 0.31210718 0.080883585
000040 0d 88 85 3c e4 0c 25 3e 52 29 70 bc 18 2a 8d 3d
       0.016300226 0.16118199 -0.014658289 0.06892794
000050 f1 cb 98 bd b4 85 f7 3c 5f 7c f4 be 00 86 19 be
       -0.07460774 0.030215122 -0.47751138 -0.14992523
000060 1a ae dd bc db f5 3b 3e 7f cf fb 3d fd 44 2b bc
       -0.027060557 0.18355505 0.12295436 -0.01045346
000070 1a 89 84 3e 79 cb a9 be c2 8d b8 bd e9 61 2d 3e
       0.2588585 -0.3316305 -0.09011413 0.16931881
000080 54 e1 77 39 cd 51 0c 3c 02 46 97 bc 13 f7 7f be
       0.00023639697 0.008564425 -0.018466 -0.24996595
000090 c1 78 62 3e c2 0e fa bd d6 52 f1 bc 7e 18 29 be
       0.22116376 -0.12209846 -0.029458445 -0.1651325
0000a0 33 2e 0d 3e 89 c9 fd be 7f fd cd 3c 2a 55 89 be
       0.13787155 -0.49567822 0.02514529 -0.26822788
0000b0 7d f1 07 3e 20 5b ed bd db 35 ba 3d 46 df 0f be
       0.13275714 -0.11589646 0.09092303 -0.14050016
0000c0 38 39 f7 bb 09 15 fa 3e 4a 0e 09 bf 4c 1e 93 be
       -0.007544663 0.48844174 -0.5353743 -0.28734052
0000d0 4d c6 b6 be b9 6c a2 be 87 24 53 be 00 d7 1c 3c
       -0.35698166 -0.31723574 -0.20619403 0.009572744
0000e0 f5 e5 59 bd e9 8c c8 3e 8e 75 cc bd e6 2e 75 be
       -0.05319782 0.39170006 -0.09983359 -0.23943672
0000f0 7e 16 34 3e e6 b5 d9 3e bf 61 cf 3d b1 20 06 3e
       0.17586705 0.4252159 0.101260655 0.13098408
000100 e6 b6 90 bc 93 97 06 be 33 bf bb be c2 81 38 3c
       -0.017665338 -0.13143758 -0.3666931 0.011261405
000110 6a be 87 be f0 28 02 bf 6b 91 29 3d 30 0b 11 3e
       -0.26512462 -0.50843716 0.041398447 0.14164424
000120 0f 83 e6 3a 6e cd 39 be 80 43 f2 3e b9 8b 07 bf
       0.0017586666 -0.18144771 0.47317123 -0.52947575
000130 bb fc 95 be f9 8c 42 be 39 8e 04 be 0d 69 74 bd
       -0.2929438 -0.1899909 -0.12944879 -0.059670497
000140 f3 37 9a 3d 54 4d 00 3e 30 c3 8a bd e4 87 f2 be
       0.07530203 0.12529498 -0.0677551 -0.473693
000150 48 e9 01 3e ff 30 13 3e 6f f2 02 bf 3d 24 ca 3e
       0.12686646 0.1437416 -0.51151174 0.39480773
000160 03 12 c3 bb 56 9e d5 3e 37 54 e1 bd 3b 1d 3f bd
       -0.005953075 0.41722363 -0.11002391 -0.046658736
000170 5c 16 d0 be 54 3a 62 3c 67 56 31 bd d4 fc 5b 3e
       -0.4064206 0.013807852 -0.04329529 0.21483165
000180 94 58 88 bd 8e 95 89 be f6 45 07 bc fa 26 f0 be
       -0.0665752 -0.26871914 -0.008256426 -0.46904737
000190 02 e9 7e be 32 6d 4d 3e e0 a1 8f bd 28 97 75 3e
       -0.24893573 0.20061186 -0.07013297 0.23983443
0001a0 91 53 70 3e 49 33 02 bf 8c 16 00 3e d3 f3 d7 3e
       0.23469378 -0.50859505 0.12508601 0.4217821
0001b0 94 6b 83 3e 83 d8 b7 bc a7 2f 8f 3d 11 b5 83 3e
       0.25668013 -0.022442108 0.06991511 0.2572408
0001c0 23 17 fd bd c7 ad 0e be 93 71 9a 3e 07 b3 0b 3e
       -0.123579286 -0.13933478 0.30164775 0.13642512
0001d0 a5 55 e4 3c a6 41 3b 3d 07 dc 54 bd 56 a5 68 bd
       0.02787287 0.045716904 -0.051967647 -0.0567983
0001e0 cc 4d 1e 3c b7 3b a3 3e 62 dd 02 be c4 3a 94 3e
       0.009662103 0.31881496 -0.12779763 0.28951085
0001f0 37 b0 50 3d cf 25 27 be 7c 88 c7 3c f0 6b 03 3e
       0.0509493 -0.16323017 0.024357073 0.12834144
000200 c3 0a ef bb 49 a2 53 3e d8 1b dd be 42 4f a2 3d
       -0.007294984 0.20667376 -0.43185306 0.079252735
000210 a2 f0 2b 3b 04 c7 b1 3d 9a 8d 07 3e 58 da d5 bd
       0.0026235958 0.08680537 0.1323761 -0.104420364
000220 3e a0 a1 bd 3b 59 91 3e 41 9e fc 3c ee 4e 32 bd
       -0.07891892 0.2838839 0.03083718 -0.043532304
000230 6d cc 9d 3e 56 18 a5 be a7 fc 82 be db 85 d8 3d
       0.30820027 -0.3224513 -0.25583383 0.10572406
000240 8f 89 35 3d af ff 2e 3d 95 b9 96 3d e0 09 62 bd
       0.04432064 0.042724308 0.07359616 -0.0551852
000250 7b 40 3d bc e6 6b 1f 3d d0 4a e3 be 09 5c 10 be
       -0.011551018 0.03892126 -0.44393015 -0.14097609
000260 51 2c 44 3c fb f5 8a 3e 40 9b 80 3d 68 af 3f 3e
       0.0119734565 0.27140793 0.062796116 0.18719256
000270 87 83 80 bc 44 7f 6d be 56 bd 86 3d 82 a2 7b 3e
       -0.015687717 -0.23193079 0.06579082 0.2457371
000280 96 ca 96 bd fe c2 84 3e 98 96 68 bd a7 18 d7 be
       -0.07362859 0.25930017 -0.056784242 -0.42010996
000290 25 5f 90 3e 0b 79 89 3d 9e 8b 0d 3d 63 20 dd 3c
       0.2819759 0.0671254 0.034556977 0.026992982
0002a0 89 5f 76 3e c0 ba 08 3d 2f 01 02 3e f3 60 27 bc
       0.24059881 0.033381224 0.12695764 -0.010215986
0002b0 d1 32 a8 3e 9a b6 0f bf ea fe 40 bd ef e4 70 3e
       0.3285127 -0.56138 -0.047118105 0.23524831
0002c0 32 bb e4 bc 97 dc 5e be 42 20 b4 be 31 af dc be
       -0.027921293 -0.21763836 -0.3518086 -0.4310241
0002d0 70 90 09 be fd 9d 2c 3c 66 25 ad 3d 7d c0 ab 3e
       -0.13434005 0.010535714 0.08454399 0.33545294
0002e0 eb c7 9b 3e fc 8e cc 3d a3 c2 cb 3c 82 16 2c bd
       0.30425963 0.099882096 0.024873083 -0.042013653
0002f0 f6 1e f6 bd 29 5e 81 3e 90 b2 7e 3e f7 bc 1c 3d
       -0.12017624 0.2526715 0.24872804 0.03826615
000300 96 64 2e bd 2c 5d 00 be 71 97 ab be 35 df 15 bd
       -0.042576395 -0.12535542 -0.33513978 -0.03658982
000310 5a dc 87 bc a0 fc ba 3d d5 35 28 3c 66 53 96 bd
       -0.016584564 0.09130216 0.010266741 -0.07340126
000320 de b3 44 bd d7 d9 77 be a4 98 a1 bd a6 98 1a be
       -0.048023097 -0.24204193 -0.07890442 -0.15097293
000330 55 97 ae bc 7c 3d 26 3e 9c 02 60 3d 99 06 48 3e
       -0.021312395 0.16234392 0.05468999 0.19533767
000340 b6 0f ca bd a4 31 29 bd 7c 9e 50 bd 86 54 da 3a
       -0.09866278 -0.041307107 -0.050932392 0.001665727
000350 1d b4 12 3c 8f 08 44 bd 94 94 6c be 53 98 94 bd
       0.008954075 -0.047859725 -0.23103553 -0.07255616
000360 35 43 a1 bd e4 8f df bd 09 22 fd 3c 15 97 38 3e
       -0.07874147 -0.10916117 0.030900018 0.18026383
000370 65 ed ff 3c 72 f0 b2 3d 7c 86 55 bd 83 57 68 3d
       0.031241128 0.087372676 -0.052130207 0.056724083
000380 de 09 41 bd 78 6a d3 3c b6 ed 76 3d 30 f8 9f be
       -0.04712855 0.025807604 0.060285293 -0.3124404
000390 a7 c9 cd 3d 0a db 84 3d 5c 8d 14 3d b0 f7 84 3d
       0.10048228 0.06487091 0.036267623 0.06492555
0003a0 fc 35 11 bd e7 1f 77 3c 9f 87 16 3e 92 f5 e7 bb
       -0.035451874 0.01508329 0.14700173 -0.007078835
0003b0 e2 65 38 3e 45 30 68 be 8c 3b df 3c b9 8c b1 3d
       0.18007615 -0.22674663 0.027250074 0.08669419
0003c0 c2 85 80 bd f9 7a 00 3d 7a 64 9c be b2 2d 67 be
       -0.06275512 0.031367276 -0.30545408 -0.22576025
0003d0 bd ca d4 3b 18 14 df 3b 6e 8d 58 3d 23 a3 9b bd
       0.006493895 0.0068078153 0.052869253 -0.07599475
0003e0 3d b3 10 3e 00 6a e9 3d 80 bf a9 3d f3 62 ba 3d
       0.14130874 0.11397171 0.08288479 0.09100904
0003f0 91 bc 3e 3b 43 c4 b4 3d 2c 5e c3 3c 57 a3 b8 bd
       0.0029104094 0.088264965 0.023848616 -0.090155296

actor.4.bias f4 [36]
000000 c4 61 48 bd da f0 68 3d 15 91 4b bd 8d 6a e0 bd
       -0.04892136 0.05687032 -0.049698908 -0.10957823
000010 3e ee 99 3d ed 65 0c 3e 04 89 57 3d 1a 26 aa ba
       0.07516144 0.13710757 0.052620903 -0.0012981326
000020 04 52 36 bb d5 4b a3 3d da fc 74 3d 61 72 e2 3b
       -0.0027819881 0.07973448 0.05981145 0.0069106077
000030 07 db 18 3e bf 75 06 be 62 b4 0d 3e 94 58 2e 3e
       0.14927302 -0.13130854 0.13838342 0.17025977
000040 4d 48 dc bd 4e 2b 86 be 02 47 8f bd b1 09 c5 bd
       -0.10755978 -0.26204914 -0.069959655 -0.09620989
000050 7c 51 81 bd d8 db 04 3e 0f 77 58 bd 18 24 11 bd
       -0.0631437 0.12974489 -0.052847918 -0.035434812
000060 c3 95 dc 3d 2a e3 1e bd 90 6c 24 3d a6 01 82 bd
       0.10770752 -0.03879086 0.040142596 -0.06347971
000070 69 5e 45 bd b5 95 24 3e 17 e5 ad 3d 17 16 9a 3d
       -0.04818574 0.16072734 0.08490961 0.075237446
000080 83 fd 36 bd 5a 6c 06 bd c9 6b 14 be 8c ac fb 3d
       -0.04467536 -0.032818176 -0.14494242 0.1228877

critic.0.weight f4 [64, 62]
000000 a5 68 d8 3d 01 c9 18 3d 21 4d 6f 3d 22 78 ee bc
       0.10566834 0.037301067 0.058423165 -0.029110018
000010 8f 4b 18 be 4f 86 a3 bd b7 84 d1 bd 46 ae 15 be
       -0.14872573 -0.07984602 -0.102303915 -0.14617261
000020 eb 70 fd 3c c5 8f ae bd c9 8f 84 bd bb 97 92 bc
       0.030937633 -0.085235156 -0.06472737 -0.017894616
000030 3b a3 b0 bc 0a e1 88 3d b6 e0 8f 3d f8 88 6c bd
       -0.02156221 0.06683548 0.07025282 -0.05774781
000040 41 f7 42 3d 68 18 0c bd bf 40 dd bd 1f 33 47 bb
       0.04759908 -0.034202963 -0.10803365 -0.003039546
000050 fa 18 6b bc f5 c9 f5 3b 28 8d b9 bc b6 25 0f bd
       -0.014349217 0.007500882 -0.022650316 -0.034948073
000060 d5 b1 9d 3d e6 ef c5 3d 8d c8 82 3d 86 e4 41 bd
       0.076999344 0.096648976 0.06385908 -0.047337078
000070 5c da 2f 3e 2f 87 ca 3e 39 4a 9e bd 4a c3 a0 3e
       0.17173141 0.39556262 -0.077290006 0.31398994
000080 3e 19 02 3d 83 13 90 3d 14 c8 29 3d 8b da 30 3d
       0.031762354 0.070349716 0.041450575 0.04317717
000090 0a 72 24 3c 57 ac cc bd e9 b6 39 3e e2 73 91 3d
       0.010036955 -0.09993809 0.18136181 0.07102181
0000a0 54 c4 a1 3c 16 0c 69 bc 72 e3 08 3d db 9b 6b be
       0.019746937 -0.014224073 0.033420034 -0.23008673
0000b0 3e 89 21 bd 24 5f d3 3d 5a 5a 8f bd 5b ad 4d 3d
       -0.039437525 0.10320881 -0.06999655 0.050214153
0000c0 1e 41 cc bd 4a 96 02 be d7 6c 3c 3d 93 df 90 3c
       -0.099733576 -0.12752643 0.046002235 0.017684733
0000d0 58 46 a1 bd 96 36 ae bd b8 8c 95 bd f2 2c 92 3d
       -0.07874745 -0.08506505 -0.073022306 0.07137479
0000e0 f4 b2 68 3e 63 db 15 3d 14 e1 a3 3d a9 e4 1d bd
       0.22724515 0.036586177 0.080019146 -0.038548145
0000f0 92 be 8e 3d ee a1 81 3d db 7d 5b 3d ff 3a 4b bc
       0.06969942 0.06329714 0.053586822 -0.0124042025
000100 61 b8 8f bd 8a 9f 84 bd 22 ae 16 be ec 45 74 3e
       -0.07017589 -0.06475742 -0.14714864 0.23854798
000110 5a 96 1e 3b d5 bb 9d 3d ba 66 0d bb 54 70 85 3d
       0.0024198503 0.07701842 -0.0021576122 0.065155655
000120 a3 b7 5e 3d 6f e1 6d 3d e4 c5 73 bb 49 33 8b 3d
       0.05437435 0.05807632 -0.003719681 0.06796891
000130 0f 2d db 3c 50 48 2c 3e 66 0a 7d 3d 32 42 e6 3d
       0.026754884 0.1682446 0.061777495 0.112430945
000140 7a fe d0 3d 56 91 de 38 54 d9 7e 3d 0d f3 6a 3d
       0.102047876 0.00010612856 0.06221898 0.057360698
000150 a7 6a 05 3d c3 cd fb bd cd 91 b5 bd f2 3a 21 bd
       0.032572415 -0.12295105 -0.088657 -0.039362855
000160 d0 b0 35 3d 93 e6 4b bb e1 82 53 3d 07 f2 36 3e
       0.044358075 -0.0031112775 0.051638488 0.17865764
000170 37 c3 4b 3e 53 b7 87 3e 2b da 99 bd 82 3e 2f 3d
       0.19898687 0.26507053 -0.07512315 0.04278422
000180 46 c1 b7 bd b1 3b 3f 3d 0e c3 1b be 61 57 0b be
       -0.08972411 0.046687786 -0.15211126 -0.13607551
000190 ad da 95 bc af ad 42 3e ae 23 22 be ee c9 81 be
       -0.01829275 0.19011568 -0.15833923 -0.25349373
0001a0 80 2e b3 3d b7 03 42 bc f5 56 64 be 7b fc 1d be
       0.087491035 -0.011841706 -0.22298796 -0.15428345
0001b0 0f 65 2e 3d 41 e5 ce 3c 0d 4b c9 bd 40 19 70 bd
       0.042576846 0.025255801 -0.09828768 -0.05861783
0001c0 2f e5 e6 bd 5e 6e ab bc 0e 4e e6 bd e9 4d 83 3d
       -0.11274182 -0.02092665 -0.112453565 0.064113446
0001d0 5a 8b be bd c0 e4 3c 3e 5c b8 27 3e cd 86 89 bd
       -0.09303923 0.18446636 0.16378921 -0.06715164
0001e0 ac 08 d4 bc c1 53 b8 bc 8a 35 ed bd 4f 9f 0e bd
       -0.025883041 -0.022500874 -0.115824774 -0.034819897
0001f0 c5 fd 2e bb 44 f6 e5 bd 3c 55 ff bd c6 e3 3a 3d
       -0.0026701551 -0.11228612 -0.12467429 0.045627378
000200 a6 2f 49 3e 35 bf 03 bd a9 49 8e bd 56 7d 7d be
       0.19647083 -0.03216477 -0.06947643 -0.24754843
000210 30 cd 0d be a4 2f 15 be d4 a7 f1 bd d5 b3 41 be
       -0.13847804 -0.14568955 -0.11799589 -0.18916257
000220 70 49 d6 3d 6b 74 93 bc 9b da 98 3c 81 80 90 bd
       0.10463226 -0.017999848 0.018658927 -0.0705576
000230 e0 94 d0 3d 0a 9d d9 3d df b3 8d 3d 25 b5 e8 bd
       0.10184646 0.10625656 0.06919073 -0.113626756
000240 28 0f 39 3d 5a c6 82 3d 90 c3 5a 3c 61 35 db bd
       0.04518047 0.06385489 0.01335229 -0.107035406
000250 4f ba ff 3c 5d f8 3e bd e3 71 fc 3c bf e8 c7 3d
       0.031216769 -0.046623576 0.030816024 0.0976119
000260 90 23 d4 3d 89 d5 1e 3e 1f 2e 1f 3e 9f 87 69 3e
       0.103583455 0.15511145 0.15544938 0.22805642
000270 b0 b3 9e bd 3a be 01 be 34 ed 7f bd 72 7b 45 3c
       -0.077491164 -0.12670222 -0.062482074 0.012053357
000280 df ec 04 be 47 cc 15 be ff e3 43 3d ad 3a 6c 3d
       -0.12980984 -0.14628707 0.047824856 0.057673145
000290 c5 c8 6c be d2 84 1b be 89 60 07 3d 8f bc 09 bd
       -0.23123462 -0.15187386 0.033051047 -0.03362709
0002a0 b2 ab 4f be c5 b6 5b be cb 23 0d 3d b5 9e 5f 3d
       -0.2028034 -0.2145644 0.034457963 0.054594714
0002b0 c5 bd f0 bd 39 ed 72 3d 81 a3 9f bc 4a 70 ac 3c
       -0.11754946 0.059308264 -0.019487144 0.021049637
0002c0 a0 33 da bd 9c c9 91 3c 6b 01 da 3d d8 19 17 3d
       -0.10654378 0.01779633 0.10644802 0.03688988
0002d0 3b c5 11 3e 62 81 85 bc 1e 70 e3 bc 1e ed 1b 3b
       0.14235394 -0.016297046 -0.027763423 0.0023792456
0002e0 2f 23 84 3c 33 d0 20 3d 7b 69 8b bc 45 58 48 3d
       0.016130058 0.039261054 -0.01701807 0.048912305
0002f0 1f 06 ee 3d 64 55 39 bd 31 dd 97 be f6 fd 90 3e
       0.11622261 -0.04524745 -0.29660943 0.28318757
000300 98 a4 8a 3d 08 9b 8d 3e 84 fa 99 bc 31 7f 28 be
       0.06769675 0.27657342 -0.018796213 -0.1645477
000310 8a 29 41 3e dc 79 83 be 01 83 2a 3c 24 02 4a 3e
       0.18863502 -0.2567891 0.01040721 0.19727379
000320 6b 72 fa ba 42 bc 05 3e 9b 47 90 3c e5 61 51 bd
       -0.0019107586 0.13060096 0.01761227 -0.05111875
000330 ae 82 ea bd 66 5b ee bd a7 af 00 be ac 08 46 3c
       -0.114507064 -0.116385266 -0.12567006 0.0120870285
000340 68 25 bc bd 2a b3 3e 3d d0 78 64 3d c8 76 68 3d
       -0.09186822 0.046557583 0.05577928 0.056753904
000350 62 f9 e4 3c b9 5f c8 bd f4 f1 2c 3d 45 ec df 3c
       0.027950946 -0.09783883 0.042222932 0.027334342
000360 28 7c 29 3e cd 46 94 3e cb d9 88 bd b6 2c ef 3d
       0.16551268 0.28960267 -0.06682166 0.1167845
000370 75 f8 c9 3d 2b 15 4a bd 1c 61 4a bd 29 b5 49 bd
       0.098618425 -0.049336594 -0.049409017 -0.049245033
000380 4a 35 d0 3d 66 e5 90 3d bb 4c 3b be 43 e5 8e 3d
       0.10166414 0.07075004 -0.18290989 0.06977322
000390 4f ac 4b 3d c7 dd 13 3c be e7 0c be 4a 65 f2 bd
       0.049724873 0.009025044 -0.13760278 -0.118357256
0003a0 00 37 db b8 40 ac 8e b9 8e 69 b9 be b7 36 36 be
       -0.00010452978 -0.00027212687 -0.36213344 -0.1779431
0003b0 c0 a8 e9 3d 0c e4 92 bd 6a ea a6 bd ee cb 9b 3c
       0.1140914 -0.07172403 -0.0815018 0.01901814
0003c0 1a 21 99 bd 0a a2 00 3d 02 14 10 3e 94 d9 e6 3d
       -0.07477017 0.031404532 0.14070132 0.112719685
0003d0 dc b1 ba bc 2c 68 96 3c c1 00 59 bd f9 f3 81 3d
       -0.022789888 0.01836022 -0.052979235 0.06345362
0003e0 e0 5d 68 bd d3 51 ca bd d6 b9 f5 bd 6b 62 81 bd
       -0.05673015 -0.09878888 -0.11998336 -0.063176
0003f0 44 3d 37 bb c5 74 d0 bd 94 77 83 3b 74 24 80 bb
       -0.00279601 -0.10178522 0.0040120576 -0.0039105956

critic.0.bias f4 [64]
000000 b3 80 07 be c4 9f b1 3c 48 b2 56 bb 01 36 20 bd
       -0.13232689 0.021682627 -0.0032760072 -0.039114002
000010 8b 1a 07 be 6b 77 19 3c c4 e3 ac 3d 67 64 5c 3e
       -0.13193719 0.00936685 0.0844188 0.21522675
000020 72 32 36 be 60 48 06 bd 7a eb de bd 36 e2 7e bd
       -0.17792681 -0.032783866 -0.10884757 -0.06222745
000030 d4 05 5c 3c ca 42 d5 3d 5d 38 97 bc 48 a7 a6 bd
       0.013429124 0.1041313 -0.018459493 -0.08137375
000040 8d 06 70 3d 19 09 6f 3d 00 eb 33 3c 06 fe f7 3c
       0.058599997 0.058358286 0.010981321 0.030272495
000050 b9 29 8e bd 5d 53 09 3e 6a a5 30 be ca 37 62 bb
       -0.06941552 0.13410707 -0.172506 -0.0034518116
000060 fb 41 1f 3c e4 4d 90 bc 41 78 5d 3d b5 42 16 bd
       0.009720321 -0.017615266 0.05406976 -0.03668471
000070 99 66 06 bd 16 61 2d 3d 3b 10 28 bd e9 4f 85 bc
       -0.03281269 0.042328916 -0.041031104 -0.016273456
000080 84 10 0d be 39 d0 1b bd 56 fa be bd f5 69 1c bd
       -0.13775831 -0.038040373 -0.093250915 -0.038186986
000090 ae a8 b5 3d 5b 17 3c 3e 4b 84 fc bd d5 7f ba bd
       0.08870064 0.18368284 -0.123299204 -0.09106413
0000a0 9b 7e ba bc 27 cc 8c bb 82 7a 94 bd a6 ba 5e bd
       -0.022765448 -0.004296798 -0.07249929 -0.05437722
0000b0 1e f5 60 bd 03 32 9c 3c 61 5b d3 3b af 7f 81 3d
       -0.054921262 0.019066816 0.006450102 0.06323182
0000c0 e1 b1 3d be 89 39 da bd e3 3e 8a bd 43 c7 68 bd
       -0.18524887 -0.10655505 -0.06750276 -0.056830656
0000d0 bc 5e f3 bd f0 4a 0d 3d 82 d2 b9 bd 7c f5 00 3e
       -0.118833035 0.034495294 -0.09073354 0.12593645
0000e0 df dc 26 3e 02 ce 95 bc 01 bc 15 bd 58 b3 45 3d
       0.16295193 -0.018286709 -0.036556248 0.04826674
0000f0 66 b4 33 3d c0 64 0c be f9 fd a2 bd 7d 10 b3 bd
       0.043873213 -0.13710308 -0.07958598 -0.08743379

critic.2.weight f4 [64, 64]
000000 c7 b0 97 bc 64 3c 93 bd 23 78 cc bc a1 a9 dd bd
       -0.018516911 -0.07189253 -0.02495963 -0.1082337
000010 4d 1c 18 bc e9 39 1a be 30 0d 17 3e d2 bf 11 be
       -0.009284091 -0.15061153 0.14751124 -0.1423333
000020 41 a4 bd bd aa b0 61 be e2 3b 14 3d 57 5c a5 3c
       -0.092598446 -0.22040048 0.03618992 0.020185633
000030 9c 24 aa bb 24 2e 09 3e d0 37 9b bd ce 00 ff 3d
       -0.0051923525 0.13396508 -0.07579005 0.12451325
000040 2f f8 a8 bd c2 8b cd 3d 95 51 da bd 1c 1f d3 bd
       -0.08250462 0.10036422 -0.10660092 -0.10308668
000050 ab fe aa 3d d2 1c ae 3d 6a 86 8b 3c 84 70 b3 bd
       0.08349355 0.08501591 0.017031867 -0.08761695
000060 0c 7a 0d be bd b4 a7 3d eb 69 ba 3d e1 90 4e 3d
       -0.13816088 0.0818877 0.091022335 0.050431136
000070 15 a6 26 be 23 03 1e be 88 32 e7 bc 91 c3 b6 3d
       -0.16274293 -0.15430884 -0.028222337 0.0892402
000080 71 14 91 3d df 8b ea bd e7 d7 39 3d c6 e1 73 bc
       0.07083977 -0.114524595 0.045371916 -0.014885372
000090 ca 43 3a bd c5 c9 1e 3e bc 0e 02 be 6c 96 1f 3c
       -0.045474805 0.15506656 -0.12700933 0.009740453
0000a0 35 be 9e bc f0 08 99 3d 12 cc 34 bd 1e 50 8a 3d
       -0.019377807 0.07472408 -0.04413993 0.067535624
0000b0 28 39 e4 bd 38 49 7e 3c 85 9e a4 bd f8 b7 35 3e
       -0.11143714 0.015520386 -0.08038048 0.1774596
0000c0 a3 a2 24 bd 0f d3 92 be af a6 8d 3d f7 d7 84 bd
       -0.040194165 -0.2867665 0.06916558 -0.064865045
0000d0 7e 9e 4c be 2f 67 52 3d 67 f9 3a 3e 79 a9 93 bd
       -0.19982335 0.051367935 0.18259202 -0.07210059
0000e0 67 7c 7a 3d 59 ac 5d bd c0 8d 4e 3c 22 3a 04 be
       0.061153796 -0.05411944 0.012607038 -0.12912801
0000f0 50 80 98 3d ff 99 ed 3d 45 f7 be bd 99 b3 38 3e
       0.07446349 0.11601638 -0.09324507 0.18037261
000100 2c a1 89 3c a2 f9 d1 bd 95 c1 d9 bd b5 45 ec bc
       0.016800486 -0.10252692 -0.10632626 -0.028841833
000110 71 46 66 bd 56 02 a9 bd 60 b5 37 3c c0 7d d0 bd
       -0.056219522 -0.08252399 0.011212677 -0.10180235
000120 15 4e 6a 3c 1c 8c dc bd 36 39 df bd e9 cc 18 3e
       0.014300843 -0.10768911 -0.10899584 0.14921917
000130 12 68 7f bd 38 e1 13 bd f9 a7 7c 3d c5 47 98 3d
       -0.06235511 -0.036103457 0.06168363 0.07435564
000140 f9 01 83 bc 59 67 12 be 4b 5f a9 3c c4 f1 81 3d
       -0.015992152 -0.14297237 0.020675322 0.06344941
000150 62 0f e0 3c d7 98 b4 3d dd 1c eb bc 4f 18 d4 3b
       0.027351085 0.088182144 -0.028700287 0.0064726244
000160 d0 f0 50 be fd b2 ce 3d 8a 64 f2 bd 32 42 08 3d
       -0.20404363 0.10092733 -0.118355826 0.033266254
000170 2c 86 2b 3d 90 4a fa bd da 94 d4 bc 2c 33 24 bd
       0.041876003 -0.12221253 -0.025949884 -0.040087864
000180 e0 48 00 3b 8c b9 06 3e f0 36 f0 3c 68 a5 95 bd
       0.0019574687 0.13156718 0.029323071 -0.07306939
000190 3a 98 28 be ce 09 46 bc 91 ad 62 3d f1 a7 06 be
       -0.1646432 -0.012087299 0.055341307 -0.13150002
0001a0 54 45 ed bc ac 5e d2 3d 0c fd 0c 3d 50 ea 9a 3d
       -0.028963722 0.102719635 0.03442101 0.07564223
0001b0 87 2a f0 bd 06 70 84 bd 8e 27 7b 3b 3e 8a 32 3d
       -0.117268614 -0.06466679 0.0038323137 0.04358887
0001c0 d6 ed 2f be 02 ff 00 bd a3 32 0b 3d d4 18 c7 bc
       -0.17180571 -0.031493194 0.033983838 -0.024303831
0001d0 f8 6c 8e 3d b4 97 cc bd 02 cd 7c 3d 94 f6 cc bd
       0.06954378 -0.099898726 0.06171895 -0.100079685
0001e0 9c c5 85 bd e3 0c c6 3c 98 5a cc bd 02 99 ce bd
       -0.065318316 0.024176067 -0.09978217 -0.10087778
0001f0 13 70 5c 3d f5 3b 81 3d 0f 9b d5 3d fb e3 a0 bd
       0.05381782 0.06310264 0.10429966 -0.07855984
000200 7d 24 ec bc 24 7f 3a bd 48 a3 c8 bd f0 d2 4f be
       -0.028825993 -0.045531407 -0.097967684 -0.2029531
000210 51 64 9a be 44 39 2c be 12 f4 ba 3d e0 2f 3b be
       -0.3015466 -0.1681872 0.09128584 -0.18279982
000220 e3 74 b9 bd c6 8d ae bd 66 8d ad 3d a6 5c fb 3c
       -0.090554975 -0.08523135 0.08474235 0.030683827
000230 d2 2f 39 3c 32 1c 62 3c 69 74 8d 3d b6 55 12 3e
       0.011302905 0.013800668 0.06906969 0.14290509
000240 fd a9 4e bd b0 84 62 b8 33 8c b8 3c d3 b3 0b be
       -0.050455082 -5.4006174e-05 0.02252779 -0.13642816
000250 cf c9 ea 3a cb 06 0a 3d 0c 08 d0 3d dd 9b bd 3d
       0.0017912927 0.033697885 0.10157785 0.09258244
000260 0a 81 d0 bd c6 d8 46 bd 0b 4f 09 be 42 83 dd bd
       -0.10180862 -0.048546575 -0.13409059 -0.10816051
000270 00 c0 50 be b8 49 67 bd 1d 6b 36 bd 53 79 fb bc
       -0.20385742 -0.056466788 -0.044535745 -0.0306975
000280 52 c2 41 3d 06 15 2a 3d f8 85 e4 bd 61 93 70 be
       0.04730446 0.041523956 -0.11158365 -0.2349372
000290 96 df 74 3d 4a 15 7a 3d 2d 14 10 3c 9d ac 71 bc
       0.05978354 0.06105546 0.008793873 -0.014750627
0002a0 4a d7 04 bd 72 5d 4f 3d d7 22 87 3c 28 52 7d 3a
       -0.03243188 0.050626226 0.016496105 0.00096634263
0002b0 88 a7 cf bd 67 7d 81 bd c1 a5 b6 bd 96 1e 9a ba
       -0.10139376 -0.06322747 -0.08918334 -0.0011758383
0002c0 8d cd e0 3d cf 4f 15 be ef ce e2 bd c0 ec 8e bd
       0.10976706 -0.14581226 -0.11074626 -0.0697875
0002d0 36 0f 04 be 87 f8 62 bd e2 56 f2 bd 32 13 28 be
       -0.12896428 -0.055412795 -0.11832978 -0.16413572
0002e0 bd c6 2c bd 21 9f b2 bc ad 3c e8 bd db a6 24 bd
       -0.04218172 -0.021804394 -0.11339698 -0.04019819
0002f0 58 3d 10 be 4d b9 de bd 5c a1 5d 3d b4 bf af bc
       -0.14085901 -0.10875187 0.054108962 -0.021453716
000300 d1 85 48 3e d1 e5 b6 3c d3 87 a4 3d 0b 18 55 3e
       0.19582297 0.022326382 0.08033719 0.20809953
000310 6e f2 c3 3c c2 67 cd 3d f2 82 f0 bd 6b 60 08 be
       0.02391931 0.10029556 -0.11743726 -0.1331803
000320 ed ee 44 3a 95 c1 81 3d a6 e4 c6 bd d2 85 4c bd
       0.00075124094 0.06335751 -0.0971158 -0.04993231
000330 ea 94 e4 3d d8 5b 5d 3d 3d 77 04 3d 1d 20 02 3e
       0.111612156 0.054042667 0.032340277 0.12707563
000340 67 e2 64 bc 5c 82 ed bd 4e ea e7 3d 3a 04 c9 3d
       -0.013969994 -0.1159713 0.11323987 0.09815259
000350 33 ae 32 3c d0 8a 62 3d 98 dd cd bd fc 3e c6 bd
       0.01090579 0.055308163 -0.10052031 -0.09679982
000360 ed e2 c9 3d fd 83 43 3d c1 7e 74 be f0 d0 01 3e
       0.09857736 0.047733296 -0.23876478 0.1267736
000370 a5 f1 bd bd 86 52 3e 3c d2 cd a5 3d 97 ec a7 bd
       -0.09274606 0.011616355 0.08095898 -0.08199423
000380 c5 ee 73 3c 10 95 aa bd 4f 0a cd bd af 3b a5 3e
       0.01488847 -0.08329213 -0.10011732 0.32272097
000390 01 1c db bc 27 fe 08 be af 53 3c be e2 8d da bc
       -0.026746752 -0.13378201 -0.18391298 -0.026678983
0003a0 86 4a 18 bd 46 ec 2f 3e ab 51 9f bc 1e f3 a0 bd
       -0.037180446 0.17179975 -0.019448122 -0.07858871
0003b0 0b 62 a8 3d 08 83 e5 3d 31 bb 38 bd 42 e3 a9 bc
       0.08221825 0.11206633 -0.045100395 -0.020738248
0003c0 27 e6 bb 3d a1 5e 10 3e 14 64 d7 bc 1e 21 22 bd
       0.091747575 0.14098598 -0.026292838 -0.039582364
0003d0 c4 3c f1 3d 05 80 18 3e a5 62 de bd d7 fe 60 3d
       0.11779168 0.14892586 -0.10858659 0.054930534
0003e0 00 27 59 3d b3 15 1d 3e 70 2f 7c 3e 1e 4f a6 bd
       0.05301571 0.15340309 0.24627471 -0.08120559
0003f0 63 f0 d6 bd 15 7e 84 bd fa 97 a6 3c 05 c5 4a 3a
       -0.10495069 -0.06469361 0.02033614 0.00077350467

critic.2.bias f4 [64]
000000 52 8e c9 3d 09 2a 1e 3d b6 ae a4 3d 27 ed 8c 3c
       0.098415986 0.038614307 0.08041136 0.017202927
000010 61 74 ca bc 1b 6d 26 bd 4a 23 be 3c 88 bb 42 3d
       -0.024713697 -0.040631395 0.023210187 0.047542125
000020 29 a2 bb 3d 66 0b 70 3d 46 80 0f 3e d0 e3 d5 bd
       0.09161789 0.05860462 0.14013776 -0.104438424
000030 2d 44 1f bd cd fb 6e bb c5 d8 5c 3d db d4 8b bd
       -0.038883377 -0.0036466003 0.053917665 -0.06827708
000040 44 aa fb 3d 16 13 70 bd 4b 34 e1 bd e1 06 f4 bc
       0.12288335 -0.05861195 -0.10996302 -0.029788436
000050 a8 ed 59 bc 6e 0a bb 3d 92 b8 cb bc d2 c0 b0 bd
       -0.013301291 0.09132849 -0.024868283 -0.086305276
000060 6c fd 29 3e f1 d8 30 3c 01 56 db bd 5e 57 c4 bc
       0.16600579 0.01079391 -0.10709763 -0.023967441
000070 74 78 cf bd 22 94 c1 bc 55 60 b0 bd 57 cc 32 bd
       -0.101303965 -0.023630206 -0.08612124 -0.043651905
000080 92 5c 92 bd 6d 18 09 bd ef 27 f5 bd 8c 30 b2 3c
       -0.07146563 -0.03347056 -0.11970507 0.021751665
000090 ae 26 04 be 28 6d 68 3d 31 6b 2a 3e fb 0f 03 bd
       -0.1290538 0.056744725 0.16642453 -0.031997662
0000a0 85 ea 83 3d 48 7a b0 bc a3 51 b9 3d ae f6 87 3d
       0.064412154 -0.021542683 0.09048774 0.06638847
0000b0 a8 9a 8b 3d 60 2b 86 3d 59 c0 ae 3c 04 9c 93 3d
       0.06816608 0.06551242 0.021331953 0.07207492
0000c0 9e 3d f1 bd 4a 94 2c bd 0a d8 b4 bd a6 4f e0 bd
       -0.11779331 -0.042133607 -0.08830269 -0.10952692
0000d0 8e a8 46 bd ce 83 c9 3c 90 6b 70 3d a5 d9 24 3c
       -0.04850059 0.024598982 0.05869633 0.010061656
0000e0 fd 03 f0 bd 97 51 5a bd d3 29 1d be 44 81 4d bd
       -0.11719511 -0.053300466 -0.15347986 -0.050172105
0000f0 78 92 38 bd 84 da c1 3d c4 11 09 bd b7 31 34 3d
       -0.04506156 0.09465507 -0.03346421 0.043992724

critic.4.weight f4 [1, 64]
000000 c3 fa 4e 3d 23 2f 0e 3c 7c cd 01 3c eb a8 a6 bd
       0.050532114 0.00867823 0.007922526 -0.08137687
000010 50 bf 1d bc e3 45 80 3d 07 ed 25 bb 31 94 b2 ba
       -0.009628132 0.0626333 -0.0025318281 -0.0013624487
000020 6b ad 3e be 85 63 4a 3b 37 15 cf 3d ce 7d 27 3d
       -0.18620841 0.0030882072 0.10111468 0.04089146
000030 df bb 42 bd c2 90 1b bc ee 37 ea 3c 04 0e dd 3c
       -0.04754245 -0.009494962 0.028591122 0.026984222
000040 c7 77 55 3d 72 c0 c5 3c 58 17 fc bb 45 42 ad bd
       0.05211618 0.024139617 -0.0076932125 -0.084599055
000050 2f 16 19 bb 2b ef b3 bd 7a 1d 04 be ad 04 7a 3d
       -0.002335917 -0.08785852 -0.1290187 0.061039615
000060 48 7b 94 3d 6f f9 a3 bd 7f 0d 15 3d 19 38 a2 bd
       0.072500765 -0.0800656 0.036389824 -0.07920856
000070 6d f6 58 bd 6c 6d 00 be e6 84 d5 bc 98 13 0d be
       -0.052969385 -0.12541741 -0.026064347 -0.13777006
000080 d0 6d ff bd 13 bd 9e bd c5 ed fd bb 63 e2 08 bc
       -0.12472117 -0.07750907 -0.0077492916 -0.008354756
000090 6f 9c 3b 3d ee db f6 3d e9 67 9f 3d e6 8e ae bd
       0.045803484 0.12053667 0.07783491 -0.085233495
0000a0 34 ab 89 3d aa 7a c5 bd 22 cd 4d 3d 09 1f 4c bd
       0.067221075 -0.09642537 0.050244458 -0.049834285
0000b0 0e 19 f3 bd 09 ad f4 3b b1 72 84 3b 00 2c be bd
       -0.11870013 0.0074669165 0.0040419926 -0.09285736
0000c0 bd 4d 85 3c 6b 3f 3f 3d b6 84 42 3c 29 7e 3f 3d
       0.01627242 0.04669134 0.011872461 0.046751175
0000d0 5b 8b ff 3c d6 fe 49 3a b8 a8 e3 bd 87 d9 e5 3b
       0.03119438 0.0007705515 -0.11116165 0.0070144567
0000e0 d1 ed 46 3c 05 1e 0d be 11 c4 92 3c 18 71 7e bc
       0.012141661 -0.13780983 0.017915757 -0.015529893
0000f0 4e 92 87 bd 43 65 c2 bd e6 a0 cb bd be df 7b bd
       -0.06619702 -0.094919704 -0.09942798 -0.061492674
