Models/Reward_shaping_vm/RS_ICM_15_0/best_model/RS_ICM_15_0/best_model.pth (torch, 79147 bytes, 11 tensors)

actor.0.weight f4 [64, 62]
0.09057544 0.09712062 0.060543146 -0.017144123 -0.37564775 -0.08355941 0.1666105 0.1877293
0.023290267 -0.111409366 -0.26000533 -0.54593414 -0.071676746 -0.17977275 0.1110687 0.09886736
-0.11048877 0.047041975 -0.05098564 -0.091330044 0.005197771 -0.10268569 0.10785196 -0.014467276
-0.118152395 0.117820635 -0.11702917 -0.0040962747 -0.0042353785 -0.11994778 0.013072178 0.12973477
0.09513126 -0.052830826 -0.01963457 0.056105975 -0.18509398 -0.41335803 0.016277999 -0.058713052
0.1203001 -0.52893436 -0.17412573 -0.015264415 -0.11000317 0.015788384 -0.0009924594 -0.047681753
-0.20720501 -0.05457867 0.033728495 0.13788782 0.10058663 -0.14970697 0.121679716 0.09273844
0.20335883 -0.09567076 0.11805301 -0.0633527 0.20328213 0.18564147 -0.12094772 -0.054553714
-0.048177868 -0.030327711 -0.25372803 -0.39419118 -0.2677105 -0.037107155 -0.16246563 0.057921026
-0.12631933 -0.32670215 -0.14037818 -0.32140937 -0.027688118 0.35349888 -0.053973366 0.027480967
-0.038187113 0.06513406 -0.06760357 -0.05185547 0.084398635 -0.10989253 -0.09134536 0.04308005
-0.009746008 -0.017685575 0.26971266 0.012020479 0.07343191 -0.031727877 0.08396576 -0.04558788
0.0012395997 0.10717005 0.23490658 0.19602282 -0.052170075 0.1147599 0.036075104 0.41265398
-0.29004967 0.015641289 -0.25916728 -0.28309667 -0.03817065 0.022446662 -0.31068584 -0.20436966
0.11717959 0.039898984 0.01699268 -0.03265028 -0.009760747 0.14163871 0.11809268 -0.08719354
0.12723239 0.117069185 -0.10053448 -0.13904755 0.118634164 0.04694994 0.06433978 0.09590241
-0.25020924 -0.16525781 -0.22233279 -0.2321587 0.23674639 0.033580698 -0.42837113 -0.30956963
-0.3247977 -0.24462426 -0.09377366 -0.62249094 -0.09986296 -0.0013157519 -0.10903578 -0.08611545
-0.04284534 -0.110375896 -0.0851164 -0.11602914 -0.12381931 -0.0309101 -0.09885727 -0.12168621
-0.29757252 0.08997911 -0.2757471 -0.2650997 -0.05763282 0.11395264 0.09290108 -0.061370376
0.14883222 0.10212208 0.06294896 0.054816462 0.10572019 0.3803441 -0.1664049 -0.0731559
0.19097233 0.27158764 0.058169957 0.020661 0.21134669 0.23224275 0.014784857 0.10276316
0.0076315515 -0.16904312 0.018714117 0.1574798 -0.07469759 0.00992402 0.052976605 0.1360806
0.1255116 0.18508928 -0.019055285 -0.080498666 -0.027623659 0.070512645 -0.03470136 0.05006429
0.38187805 0.6690481 0.0787798 0.068823144 -0.2918745 -0.41922656 0.19319716 0.1529726
0.06701961 -0.23477317 0.036785446 0.08942689 0.07904696 0.0045190174 0.037050735 0.0847491
-0.11001344 -0.08134855 0.012289975 0.11317245 0.02557223 -0.0972251 -0.2142033 -0.08169986
0.17417641 0.12012997 -0.026618177 0.0016602988 0.014362025 0.09703024 0.59158343 0.5438424
0.09069899 0.024594894 0.028130593 0.5552797 -0.058765773 0.0087242285 -0.041812547 -0.087371714
-0.096271515 0.11341224 -0.10165721 -0.027701754 0.110060275 0.03726859 0.10060136 0.13726903
-0.14076395 0.05525784 0.045089576 0.10693379 0.28950462 0.16752803 -0.049755387 -0.031021694
0.041690264 0.008623574 0.11348306 -0.01374601 -0.24143705 -0.17036879 -0.30149883 -0.20583762
00000000: 9e7f b93d 2de7 c63d 17fc 773d d571 8cbc
00000010: e754 c0be 3221 abbd f19b 2a3e 1c3c 403e
00000020: 3bcb be3c 982a e4bd 6b1f 85be 57c2 0bbf
00000030: 42cb 92bd 5916 38be fd77 e33d f87a ca3d
00000040: f047 e2bd 16af 403d 52d6 50bd 3f0b bbbd
00000050: 1052 aa3b e04c d2bd 7de1 dc3d 2708 6dbc
00000060: e2f9 f1bd f24b f13d fdac efbd 0b3a 86bb
00000070: eec8 8abb 2fa7 f5bd b02c 563c 31d9 043e
00000080: 2ed4 c23d 2365 58bd aed8 a0bc 61cf 653d
00000090: 4789 3dbe aaa3 d3be 7059 853c 197d 70bd
000000a0: e65f f63d 3e68 07bf 044e 32be 9917 7abc
000000b0: 5849 e1bd a456 813c 6915 82ba f14d 43bd
000000c0: 8d2d 54be e28d 5fbd e426 0a3d 7732 0d3e
000000d0: 5d00 ce3d c94c 19be 3733 f93d a7ed bd3d
000000e0: 4c3d 503e 08ef c3bd c7c5 f13d 0fbf 81bd
000000f0: 3129 503e cc18 3e3e 70b3 f7bd b773 5fbd
00000100: 2856 45bd d271 f8bc a4e8 81be 6dd3 c9be
00000110: 5a11 89be acfd 17bd 645d 26be 993e 6d3d
00000120: db59 01be 8145 a7be 4cbf 0fbe c58f a4be
00000130: 31d2 e2bc cefd b43e 2d13 5dbd c41f e13c
00000140: 176a 1cbd 0265 853d be73 8abd 6766 54bd
00000150: 31d9 ac3d 560f e1bd 4713 bbbd b574 303d
00000160: b8ad 1fbc 57e1 90bc c717 8a3e 8bf1 443c
00000170: 7863 963d 17f5 01bd 3ef6 ab3d 5bba 3abd
00000180: 107a a23a f97b db3d 5a8b 703e 35ba 483e
00000190: 4ab0 55bd 3d07 eb3d 7dc3 133d 6247 d33e
000001a0: 6481 94be 2922 803c 93b1 84be 0cf2 90be
000001b0: d458 1cbd 10e2 b73c 3712 9fbe 4846 51be
000001c0: dafb ef3d 1e6d 233d 3c34 8b3c 4dbc 05bd
000001d0: 8aeb 1fbc bd09 113e 93da f13d 8792 b2bd
000001e0: 3549 023e f8c1 ef3d 05e5 cdbd 7b62 0ebe
000001f0: 78f6 f23d 954e 403d 93c4 833d 7c68 c43d
00000200: 6d1b 80be 5839 29be 35ab 63be 03bb 6dbe
00000210: a56d 723e ea8b 093d 7653 dbbe e97f 9ebe
00000220: e24b a6be c87e 7abe 680c c0bd 915b 1fbf
00000230: f484 ccbd 4f75 acba 274e dfbd 4c5d b0bd
00000240: 987e 2fbd c20c e2bd 8251 aebd b0a0 edbd
00000250: fa94 fdbd 2e37 fdbc ae75 cabd 9f36 f9bd
00000260: 6d5b 98be f846 b83d b92e 8dbe 26bb 87be
00000270: 6410 6cbd 0060 e93d ec42 be3d 815f 7bbd
00000280: 7967 183e 6225 d13d 62eb 803d 3a87 603d
00000290: d483 d83d 76bc c23e 0c66 2abe c3d2 95bd
000002a0: 408e 433e 890d 8b3e 9f43 6e3d 4241 a93c
000002b0: 446b 583e 0bd1 6d3e 2f3c 723c 7e75 d23d
000002c0: 1812 fa3b a419 2dbe 594e 993c 6242 213e
000002d0: 0dfb 98bd 5b98 223c fffd 583d b658 0b3e
000002e0: 1d86 003e 0b88 3d3e d419 9cbc 7cdc a4bd
000002f0: 034b e2bc ef68 903d 0323 0ebd 3710 4d3d
00000300: 8585 c33e bc46 2b3f 4e57 a13d 26f3 8c3d
00000310: 9370 95be dda4 d6be 7ad5 453e d9a4 1c3e
00000320: 9441 893d 6168 70be 56ac 163d 7225 b73d
00000330: 5fe3 a13d 4414 943b 83c2 173d f090 ad3d
00000340: ba4e e1bd 129a a6bd e45b 493c f5c6 e73d
00000350: da7c d13c f41d c7bd 1c58 5bbe 4252 a7bd
00000360: 4d5b 323e b406 f63d 5d0e dabc 629e d93a
00000370: b34e 6b3c cab7 c63d 0372 173f 4139 0b3f
00000380: 64c0 b93d 3b7b c93c 2172 e63c cf26 0e3f
00000390: 61b4 70bd 11f0 0e3c a243 2bbd f1ef b2bd
000003a0: 002a c5bd ad44 e83d a831 d0bd caee e2bc
000003b0: 4867 e13d f3a6 183d 1608 ce3d 4190 0c3e
000003c0: 6d24 10be 0b56 623d d9af 383d 1a00 db3d
000003d0: f339 943e 788c 2b3e 4ecc 4bbd 3521 febc
000003e0: 69c3 2a3d e449 0d3c ce69 e83d f236 61bc
000003f0: 463b 77be 2875 2ebe 0e5e 9abe 19c7 52be

actor.0.bias f4 [64]
0.23392956 -0.03388406 0.16960996 0.1476536 0.0051700263 -0.049386255 0.10943215 -0.06799695
0.015995163 0.021133862 0.13808729 -0.057467308 0.08324619 0.10517899 -0.10195656 0.020617507
0.13141134 0.017090261 -0.0013995563 -0.11025798 -0.048530784 0.2610971 -0.08498542 0.15325049
0.12156862 -0.06982419 0.09609966 -0.08749147 -0.0012002186 0.086629204 -0.07440193 0.03679308
0.14778236 0.16460976 0.17957675 -0.017904127 0.114423245 0.05928192 -0.10047455 0.2165574
0.26430959 0.09321655 0.15822698 0.10892435 -0.0005085676 -0.039874934 -0.032428782 -0.020936202
0.14309478 -0.05332242 0.086190455 0.16183203 0.169464 -0.012267243 0.14257134 -0.013208335
-0.012244925 0.05508019 0.045328237 -0.054004945 -0.113025434 0.07372309 -0.08901907 0.16363823
00000000: 3b8b 6f3e 03ca 0abd 3cae 2d3e 8132 173e
00000010: 5369 a93b 3e49 4abd f71d e03d fc41 8bbd
00000020: 4a08 833c ec20 ad3c c166 0d3e d762 6bbd
00000030: fa7c aa3d 1568 d73d 9ace d0bd 0ce6 a83c
00000040: b290 063e e000 8c3c 5171 b7ba f0ce e1bd
00000050: 37c8 46bd 85ae 853e d60c aebd b2ed 1c3e
00000060: f8f8 f83d fcff 8ebd e6cf c43d ba2e b3bd
00000070: a750 9dba a76a b13d 0a60 98bd 57b4 163d
00000080: 4254 173e 768f 283e f8e2 373e adab 92bc
00000090: bc56 ea3d 99d1 723d 9ac5 cdbd 39c1 5d3e
000000a0: 9653 873e 52e8 be3d 4106 223e bb13 df3d
000000b0: 6551 05ba e653 23bd 0bd4 04bd 6682 abbc
000000c0: 7087 123e 9c68 5abd 9f84 b03d 4cb7 253e
000000d0: f987 2d3e 8cfc 48bc 39fe 113e c667 58bc
000000e0: f09e 48bc c49b 613d 1aaa 393d 4a34 5dbd
000000f0: e179 e7bd 22fc 963d a14f b6bd c890 273e

actor.2.weight f4 [64, 64]
0.22602259 0.1410381 0.4086926 0.009066125 0.21170354 0.028941002 -0.09451695 -0.1334102
-0.06959384 -0.13119249 0.2955036 -0.058970936 0.16076729 0.024811802 -0.11115299 -0.12210252
0.17482308 -0.10797651 0.024924153 0.10637466 -0.061994355 0.012982954 0.24705262 -0.057551567
0.053168193 0.25794935 0.26148978 0.0016633949 0.1870512 0.27008933 -0.097338304 0.19212152
-0.032956444 0.10463177 0.16457829 -0.026603188 0.20246693 -0.11510173 0.10075549 -0.010792099
0.25190836 0.1463996 0.35681912 0.15016246 0.11914569 -0.19836906 -0.032112103 -0.13000414
-0.10156719 -0.114343226 0.027923537 0.08927451 0.19485258 -0.098849155 0.107284226 -0.03338442
0.26073423 -0.18999669 0.24052678 0.054679785 -0.014061509 -0.022996904 -0.033300444 -0.013067321
0.02666748 0.20377026 0.2930855 0.38028762 -0.124865614 0.32964942 -0.020621786 0.17155606
0.06438511 0.053589266 0.34362492 -0.07881963 0.0937669 0.17602825 0.08376083 -0.14705025
0.22365345 -0.118891306 -0.05784317 0.079181276 -0.07332747 0.13164942 -0.012146087 -0.28648135
0.15204419 0.06056795 -0.12540922 0.11081889 -0.06518799 0.29096833 -0.2603475 -0.0059916754
-0.07741483 0.20356597 0.34141853 0.24298005 0.07404899 -0.17021824 -0.08909151 0.37323242
0.5614791 -0.12695554 -0.17125522 -0.23182705 -0.20435326 -0.24336237 -0.28208202 0.091999836
0.14961328 -0.19879027 0.04282005 -0.19424883 0.08606654 -0.0796468 0.09880352 -0.081280164
-0.07699569 0.51157844 -0.19817907 0.218703 0.01753657 0.07680693 -0.34545842 0.0024915165
0.0052954378 -0.058310874 -0.10705702 0.029976554 -0.13189653 -0.03638597 -0.040043894 -0.080403656
-0.0021638088 0.021114668 -0.12857196 -0.05216087 0.046770286 -0.04230471 0.069196075 -0.04680988
0.08604049 -0.090131745 0.009306422 0.07664321 0.03097876 -0.14905821 -0.010492266 -0.0037893862
0.06901474 -0.07739747 -0.0014993399 0.0443754 0.073006935 -0.12592277 0.038745496 -0.005269014
-0.15618342 -0.027089896 -0.08048519 -0.12742175 -0.074786715 -0.13060261 -0.07799987 0.050119653
0.06317109 -0.12389527 -0.05274229 0.070334196 -0.15124789 0.044161875 -0.023060704 -0.12954594
-0.1195453 -0.1366484 -0.096277416 -0.16037697 0.028198889 -0.018491143 -0.07309862 -0.09011321
0.03024955 -0.015602744 0.047790814 0.009485812 -0.11174241 0.08750958 0.09055424 -0.035065
-0.005657108 0.17231765 -0.17060065 0.072868854 -0.22669528 0.38166055 -0.30229113 0.18523967
0.2343027 0.3087709 0.14140573 0.15614353 0.056862038 0.26328105 0.19945359 -0.04996688
-0.073779255 0.17758115 -0.044301514 -0.0021550888 0.28423578 -0.16063397 0.01019189 0.019713303
-0.02784474 -0.01772224 -0.14546782 0.4096444 -0.007699328 0.1734522 0.1665111 0.07087267
-0.51828206 -0.12698066 0.34594926 0.38378817 -0.08973002 0.19811201 -0.21359706 0.28006613
0.16925618 -0.27613467 -0.1023637 0.3491921 0.045187056 0.34258014 0.26714924 0.27722892
0.03488477 0.16885048 0.31212574 -0.066804774 -0.41142893 -0.014179682 -0.23128392 -0.083904885
0.3183843 0.23079495 -0.13311301 0.063962534 -0.08347934 0.22629358 0.03737616 -0.0076620844
00000000: 7772 673e 4b6c 103e 2840 d13e 168a 143c
00000010: d0c8 583e ae15 ed3c 1a92 c1bd af9c 08be
00000020: 3787 8ebd 5357 06be 3f4c 973e 828b 71bd
00000030: 2ea0 243e 1f42 cb3c 2ea4 e3bd e310 fabd
00000040: d204 333e ca22 ddbd bd2d cc3c f5da d93d
00000050: cbed 7dbd 75b6 543c 5dfb 7c3e 31bb 6bbd
00000060: e4c6 593d f011 843e fde1 853e 4506 da3a
00000070: 5a8a 3f3e 2649 8a3e 4e59 c7bd 81bb 443e
00000080: 56fd 06bd 2e49 d63d 3687 283e eeee d9bc
00000090: 7e53 4f3e 75ba ebbd e558 ce3d 58d1 30bc
000000a0: 22fa 803e c7e9 153e ffb0 b63e 30c4 193e
000000b0: a802 f43d 4221 4bbe fb87 03bd ce1f 05be
000000c0: 7502 d0bd c82c eabd e7bf e43c 8ed5 b63d
000000d0: 6f87 473e 6d71 cabd d5b7 db3d 1abe 08bd
000000e0: f57e 853e 7e8e 42be a74c 763e e9f7 5f3d
000000f0: 3e62 66bc 0164 bcbc 0c66 08bd 5118 56bc
00000100: c275 da3c 27a9 503e 4d0f 963e 0fb5 c23e
00000110: 8bb9 ffbd cfc7 a83e 05ef a8bc 64ac 2f3e
00000120: 57dc 833d 6b80 5b3d 9bef af3e 306c a1bd
00000130: dc08 c03d c040 343e cc8a ab3d 5794 16be
00000140: 6905 653e 497d f3bd f6ec 6cbd cb29 a23d
00000150: b62c 96bd 1bcf 063e 6200 47bc afad 92be
00000160: 79b1 1b3e 1916 783d 466b 00be 04f5 e23d
00000170: 4881 85bd cdf9 943e 444c 85be d155 c4bb
00000180: ab8b 9ebd 9973 503e 69ce ae3e c3cf 783e
00000190: ffa6 973d b14d 2ebe 9c75 b6bd 5218 bf3e
000001a0: 18bd 0f3f a200 02be 875d 2fbe 1264 6dbe
000001b0: fb41 51be fc33 79be 0e6d 90be 696a bc3d
000001c0: 3934 193e ad8f 4bbe 1464 2f3d 2ae9 46be
000001d0: a743 b03d dd1d a3bd 8059 ca3d 3776 a6bd
000001e0: ebaf 9dbd cef6 023f 74ef 4abe aef3 5f3e
000001f0: daa8 8f3c f44c 9d3d eddf b0be b648 233b
00000200: 5a85 ad3b 62d7 6ebd b640 dbbd 6491 f53c
00000210: e20f 07be 7409 15bd 1105 24bd acaa a4bd
00000220: b0ce 0dbb abf8 ac3c 5ea8 03be a3a6 55bd
00000230: 3392 3f3d b447 2dbd acb6 8d3d b7bb 3fbd
00000240: ff35 b03d fe96 b8bd f779 183c 1ef7 9c3d
00000250: 2bc7 fd3c b7a2 18be c1e7 2bbc 5a57 78bb
00000260: 9a57 8d3d 9182 9ebd 8085 c4ba fbc2 353d
00000270: a984 953d e6f1 00be 99b3 1e3d b1a7 acbb
00000280: 8cee 1fbe a1eb ddbc 6bd5 a4bd d97a 02be
00000290: c729 99bd b1bc 05be 65be 9fbd 444a 4d3d
000002a0: d85f 813d cebc fdbd 4d08 58bd 600b 903d
000002b0: bae0 1abe 15e3 343d cde9 bcbc b1a7 04be
000002c0: 2bd4 f4bd 8fed 0bbe 182d c5bd dc39 24be
000002d0: 5b01 e73c bd7a 97bc bbb4 95bd 468d b8bd
000002e0: e7cd f73c a7a2 7fbc 4dc0 433d 616a 1b3c
000002f0: 34d9 e4bd 3938 b33d 8074 b93d 51a0 0fbd
00000300: 435f b9bb 0a74 303e f0b1 2ebe 443c 953d
00000310: cf22 68be 0369 c33e e7c5 9abe 78af 3d3e
00000320: 0ced 6f3e 3817 9e3e aacc 103e 17e4 1f3e
00000330: 2be8 683d c6cc 863e 903d 4c3e 12aa 4cbd
00000340: 9419 97bd d5d7 353e 8175 35bd 643c 0dbb
00000350: 5a87 913e 3b7d 24be e3fb 263c cb7d a13c
00000360: a71a e4bc 3b2e 91bc 84f5 14be e9bc d13e
00000370: a54a fcbb 749d 313e e381 2a3e b125 913d
00000380: 22ae 04bf 3807 02be 4320 b13e e27f c43e
00000390: 5fc4 b7bd e0dd 4a3e 30b9 5abe d464 8f3e
000003a0: 7e51 2d3e 8661 8dbe 0fa4 d1bd 4fc9 b23e
000003b0: 1016 393d aa66 af3e c9c7 883e f3f0 8d3e
000003c0: 55e3 0e3d 24e7 2c3e f2ce 9f3e f1d0 88bd
000003d0: d0a6 d2be e651 68bc b1d5 6cbe 53d6 abbd
000003e0: 4403 a33e 8355 6c3e c74e 08be cafe 823d
000003f0: 37f7 aabd 81b9 673e bf17 193d 3912 fbbb

actor.2.bias f4 [64]
0.06572136 0.1262574 -0.12739386 0.086939566 -0.123566985 0.13766667 0.122305386 0.0021126866
-0.0017062064 0.1612079 0.016242659 -0.07344657 -0.17337847 -0.1561104 -0.04869792 0.011520682
0.02137806 0.10598501 0.16704436 0.19434106 0.13988625 -0.101523116 -0.047993507 0.26298547
-0.11552372 0.012657677 -0.00018571166 0.030180283 -0.1435206 0.020237107 -0.05333315 -0.03606781
-0.113558 0.13587967 0.037610635 0.1043312 -0.06659618 -0.16213082 0.005791528 0.037215624
-0.083412185 -0.0053288057 -0.0059720566 0.088019654 0.15849286 0.0044901147 0.026403489 0.031033859
-0.019414453 -0.0436909 0.054392673 0.14807464 -0.0713902 0.032854717 -0.13646227 -0.024459556
0.17267878 0.010216481 0.05305109 -0.007680107 -0.07181138 -0.046719328 -0.12969773 -0.06255846
00000000: ec98 863d 9f49 013e 8973 02be 5f0d b23d
00000010: b010 fdbd 7ef8 0c3e 3f7b fa3d 0075 0a3b
00000020: c9a2 dfba af13 253e 530f 853c 286b 96bd
00000030: 208a 31be 68db 1fbe 7877 47bd 3ec1 3c3c
00000040: 0b21 af3c ab0e d93d ad0d 2b3e 5801 473e
00000050: 573e 0f3e 5aeb cfbd d794 44bd 08a6 863e
00000060: b397 ecbd 2562 4f3c 98bb 42b9 a43c f73c
00000070: 10f7 12be 4ac8 a53c dc73 5abd d7bb 13bd
00000080: 1991 e8bd 0a24 0b3e 9c0d 1a3d 99ab d53d
00000090: 9463 88bd 9f05 26be dcc6 bd3b 696f 183d
000000a0: 02d4 aabd 439d aebb 3eb1 c3bb a643 b43d
000000b0: f44b 223e d021 933b 214c d83c b83a fe3c
000000c0: 0f0b 9fbc 3bf5 32bd daca 5e3d e1a0 173e
000000d0: 0635 92bd ab92 063d c4bc 0bbe 685f c8bc
000000e0: b5d2 303e 0763 273c 1a4c 593d 68a9 fbbb
000000f0: d811 93bd c45c 3fbd 7bcf 04be a61e 80bd

actor.4.weight f4 [36, 64]
-0.40370005 -0.07952734 0.015163135 0.2581996 -0.28344694 -0.6146753 -0.171246 0.3808219
0.27375543 -0.27880818 -0.043893527 0.111111075 0.076370575 0.09065179 -0.09939023 0.33770108
0.07266667 -0.71325696 0.30326387 0.7042144 0.09538935 -0.5917963 -0.33681208 0.5298968
0.10725595 -0.47332445 0.08938638 0.29138267 -0.3175783 -0.29526463 0.026917154 0.30199265
-0.062352728 0.30853006 0.34145132 0.0976214 -0.21889763 -0.032258183 -0.036198635 0.30311736
0.24438053 -0.7777298 -0.3470598 -0.5417858 0.60779953 -0.0056347405 0.14778914 0.25485185
-0.3885828 -0.12950909 -0.05300242 -0.8640706 -0.01424011 -0.06958981 -0.09079276 0.05921139
-0.5801533 -0.027555088 -0.3000547 0.042490356 0.014775545 -0.5229722 -0.09011468 0.032651994
-0.58590454 -0.89808524 -0.037603896 0.11030509 -0.09049037 -0.022630764 0.46053198 0.22726366
0.552043 -0.86455315 -0.006238733 0.10430353 0.02636649 -0.021278666 0.042882428 -0.6883044
0.30571517 -0.28090563 -0.14420463 -0.27290776 -0.61790025 0.091651484 -0.36550167 -0.3111318
-0.10436883 0.15276536 -0.050958045 -0.07860942 0.11517628 0.56036276 -0.10087767 0.2618846
0.1020526 0.37378758 -0.70965964 -0.41725636 0.034448504 0.12107142 -0.15575266 0.26443768
-0.28823003 0.13537677 0.110178314 -0.32257092 -0.28335214 0.010227677 0.087685324 -0.024079194
0.31340244 -0.24458262 -0.06648619 -0.7263111 -0.05330953 0.22488339 -0.007965043 -0.52815145
0.4356848 0.04745804 -0.6173927 0.006981969 -0.11558077 0.4318271 0.0035567507 0.30870464
-0.2007329 -0.33214626 0.025338447 0.3635139 0.020894138 -0.7120497 0.24612948 -0.036802396
-0.19405872 -0.30276546 0.095482156 0.19331047 0.10892018 0.19223334 0.02060463 0.17961036
0.37091848 -0.53729 -0.16465573 -0.37728184 -0.5312283 0.17324157 0.21227854 -0.20931795
0.063853934 0.19799231 0.058247007 0.38767782 -0.19793646 0.2983349 -0.01978857 0.50713116
0.13032648 0.40335783 -0.041624587 -0.43765497 0.32269707 -0.16789575 -0.29712558 0.18761444
0.41806644 -0.19613163 0.061841346 0.4352649 -0.0015447115 -0.14505284 0.39468968 0.15493974
0.38252786 0.35001913 0.0727992 -0.22128108 -0.05266828 -0.4367832 -0.09050486 -0.45352536
-0.5256576 -0.15390378 -0.18900792 0.019427137 0.073565945 -0.1355305 -0.111402385 0.10795202
-0.23372905 -0.41429865 -0.028060839 0.36054936 0.0721077 -0.4462196 0.26257843 0.12963389
-0.018281532 -0.52676374 0.029093595 0.2962546 0.09743901 -0.0012542988 -0.045048907 0.12515573
-0.10647077 -0.51557857 -0.10417845 -0.103078865 -0.21260516 0.028313966 -0.25701204 -0.19758628
0.12797856 0.33262312 -0.060520288 0.04851286 0.47421163 -0.02170659 -0.030327694 -0.20110373
0.013433202 0.061824422 -0.044917364 -0.3972678 0.3152141 0.030474018 -0.24755183 0.22048159
0.071737066 -0.01526425 0.25702414 -0.14442894 0.22576264 -0.023839999 0.23703949 0.24857776
0.08366554 0.10530228 0.022942754 -0.06877635 0.059189092 -0.32266185 0.10081498 -0.25172707
-0.40696988 0.40953764 -0.117208466 -0.07021473 0.06891577 0.06985142 -0.039796095 0.042945586
00000000: c6b1 cebe 3bdf a2bd cc6e 783c bd32 843e
00000010: f51f 91be 5c5b 1dbf 1d5b 2fbe 17fb c23e
00000020: ac29 8c3e f2bf 8ebe b3c9 33bd 348e e33d
00000030: 2d68 9c3d a5a7 b93d 1b8d cbbd 28e7 ac3e
00000040: 43d2 943d 0298 36bf 6745 9b3e 6547 343f
00000050: 7e5b c33d f67f 17bf a272 acbe 51a7 073f
00000060: 02a9 db3d 9557 f2be 3510 b73d 1c30 953e
00000070: 9f99 a2be ed2c 97be 5d81 dc3c c89e 9a3e
00000080: 9365 7fbd a7f7 9d3e b5d2 ae3e bbed c73d
00000090: b326 60be 2821 04bd 0545 14bd 3332 9b3e
000000a0: e43e 7a3e 4d19 47bf d2b1 b1be 79b2 0abf
000000b0: c098 1b3f a1a3 b8bb 0956 173e f17b 823e
000000c0: 53f4 c6be 089e 04be 1119 59bd bb33 5dbf
000000d0: 5a4f 69bc 1a85 8ebd 8ef1 b9bd a487 723d
000000e0: ed84 14bf 35bb e1bc c5a0 99be 5e0a 2e3d
000000f0: 2115 723c 82e1 05bf 0c8e b8bd 19be 053d
00000100: d7fd 15bf eae8 65bf 8b06 1abd a3e7 e13d
00000110: 0453 b9bd 2764 b9bc d9ca eb3e ceb7 683e
00000120: b152 0d3f 5b53 5dbf 496e ccbb 179d d53d
00000130: 8afe d73c 9950 aebc 7ca5 2f3d b834 30bf
00000140: b386 9c3e ddd2 8fbe 61aa 13be 91ba 8bbe
00000150: b62e 1ebf c6b3 bb3d 0923 bbbe ab4c 9fbe
00000160: 53bf d5bd 866e 1c3e 62b9 50bd fafd a0bd
00000170: 8be1 eb3d ef73 0f3f f498 cebd bd15 863e
00000180: f400 d13d 1661 bf3e 41ac 35bf a0a2 d5be
00000190: e019 0d3d 4bf4 f73d a07d 1fbe 6064 873e
000001a0: e392 93be 35a0 0a3e 2ba5 e13d 0428 a5be
000001b0: 8813 91be fd91 273c 5d94 b33d bb41 c5bc
000001c0: 4976 a03e de73 7abe e929 88bd 86ef 39bf
000001d0: 185b 5abd d547 663e d07f 02bc ef34 07bf
000001e0: 1412 df3e 5d63 423d 730d 1ebf 00c9 e43b
000001f0: 9cb5 ecbd 7118 dd3e 6018 693b 890e 9e3e
00000200: ed8c 4dbe 130f aabe 9392 cf3c 7e1e ba3e
00000210: 2f2a ab3c e448 36bf 5e09 7c3e 1cbe 16bd
00000220: 54b7 46be 1304 9bbe 268c c33d 2ef3 453e
00000230: 8b11 df3d d1d8 443e 0acb a83c c7eb 373e
00000240: 07e9 bd3e d68b 09bf 839b 28be 162b c1be
00000250: 94fe 07bf 3d66 313e 8c5f 593e 7257 56be
00000260: dac5 823d 7fbe 4a3e 6a94 6e3d b57d c63e
00000270: dbaf 4abe 5abf 983e a41b a2bc 59d3 013f
00000280: 4e74 053e eb84 ce3e 8b7e 2abd 5014 e0be
00000290: 8d38 a53e ddec 2bbe d820 98be 001e 403e
000002a0: ce0c d63e bbd6 48be 5a4d 7d3d 0adb de3e
000002b0: eb77 caba bb88 14be c414 ca3e 86a8 1e3e
000002c0: b1da c33e b535 b33e bf17 953d 8297 62be
000002d0: b2ba 57bd 0ca2 dfbe 9d5a b9bd 7a34 e8be
000002e0: 7f91 06bf f498 1dbe 4b8b 41be a925 9f3c
000002f0: bea9 963d 82c8 0abe ef26 e4bd f315 dd3d
00000300: ab56 6fbe f41e d4be d8df e5bc ed99 b83e
00000310: 34ad 933d e576 e4be ae70 863e bfbe 043e
00000320: 27c3 95bc fdd9 06bf b155 ee3c afae 973e
00000330: 1b8e c73d 4967 a4ba 3485 38bd d328 003e
00000340: 590d dabd f5fc 03bf 835b d5bd 031b d3bd
00000350: 2bb5 59be b1f2 e73c 1597 83be 0f54 4abe
00000360: d00c 033e 944d aa3e 1fe4 77bd 6cb5 463d
00000370: decb f23e 05d2 b1bc c971 f8bc 23ee 4dbe
00000380: ef16 5c3c 9b3b 7d3d 45fb 37bd af66 cbbe
00000390: be63 a13e a6a4 f93c 3a7e 7dbe edc5 613e
000003a0: e2ea 923d e816 7abc ab98 833e 2ee5 13be
000003b0: 522e 673e 1a4c c3bc 7bba 723e 2b8b 7e3e
000003c0: d758 ab3d b9a8 d73d 71f2 bb3c 9dda 8cbd
000003d0: 4370 723d ef33 a5be 1678 ce3d 5fe2 80be
000003e0: 5b5e d0be ebae d13e fe0a f0bd becc 8fbd
000003f0: b623 8d3d 430e 8f3d 3b01 23bd b6e7 2f3d

actor.4.bias f4 [36]
0.06996619 -0.13222529 -0.108001925 -0.14065558 0.013330951 0.2607246 0.12837341 -0.034852475
0.20025955 0.13103504 0.02143534 0.03413208 -0.091620855 -0.048290286 0.13097376 0.18987226
-0.35515824 -0.25089273 -0.41292372 -0.38284874 -0.28731823 -0.02310489 0.2019382 0.19609293
0.19857726 -0.045215353 0.08142484 0.012283773 -0.11006602 0.08642406 0.098364584 -0.06577334
-0.02315965 0.083508514 -0.008381357 0.0701904
00000000: 6f4a 8f3d 1166 07be 1d30 ddbd 0408 10be
00000010: 106a 5a3c b27d 853e 5274 033e 78c1 0ebd
00000020: d710 4d3e 0d2e 063e 2b99 af3c 14ce 0b3d
00000030: b7a3 bbbd 09cc 45bd fc1d 063e e06d 423e
00000040: 4dd7 b5be 0375 80be bd6a d3be c004 c4be
00000050: 601b 93be 7746 bdbc e3c8 4e3e 96cc 483e
00000060: d657 4b3e bc33 39bd 11c2 a63d e141 493c
00000070: 4b6a e1bd 19ff b03d 5f73 c93d 2cb4 86bd
00000080: 4eb9 bdbc 8306 ab3d f651 09bc fcbf 8f3d

critic.0.weight f4 [64, 62]
0.012542352 -0.09755317 -0.10711075 -0.026748756 -0.11576743 0.17216888 0.24781734 0.28157154
-0.06753545 0.24252112 -0.07073437 0.40404215 -0.13372855 0.17751326 0.1164056 0.13837105
0.007841281 -0.07544458 0.019759806 0.037842188 0.018263832 0.09622557 -0.009489634 0.060665324
0.11434447 -0.116105095 0.09478317 -0.051043596 0.11968285 0.42773107 -0.031265795 0.52493626
-0.1151743 -0.10717605 0.077036634 -0.03410625 -0.3304571 -0.2948398 0.071905084 -0.11089789
-0.25139534 -0.18585978 0.26510292 -0.020463934 -0.23087879 -0.27450085 -0.019911036 -0.09920438
-0.417884 -0.24086562 0.12951413 0.092398904 0.0967016 0.004098956 -0.060662948 0.12024609
0.26975965 0.045747586 -0.010033714 0.01888847 -0.05201981 -0.058714133 0.084187835 -0.07797671
0.055318218 0.07808291 -0.08672225 -0.24166065 -0.25618804 -0.476889 0.021912012 -0.04395189
0.025396712 -0.21195127 -0.17666963 -0.13066411 -0.061992902 -0.3541069 -0.037378415 -0.09431681
-0.06370392 -0.07871964 0.010191687 0.05340357 -0.012563744 -0.10524401 0.11293349 -0.0037302598
0.12603787 -0.061722748 -0.014231952 -0.11792217 -0.007268477 -0.15743591 -0.033528373 0.01833482
-0.049442977 0.033741917 -0.1156947 -0.044874232 -0.045052547 -0.17967084 -0.07876968 0.056969956
0.030333135 -0.20194794 0.20788011 0.07644361 -0.0022466748 -0.015123565 0.2976573 0.10169054
-0.20214386 -0.110566825 0.0558673 0.0047614817 -0.17195712 0.053671144 -0.010444801 0.077469565
-0.065882735 -0.09518131 -0.019678105 0.06894698 0.015383691 0.0029869664 0.02538586 0.083353944
0.036847133 0.1603008 -0.00781781 0.15418728 -0.15972787 -0.18305108 0.09093504 -0.25838953
-0.18588082 0.025149833 0.02029871 0.010658649 0.111077264 0.082392156 -0.063149795 -0.02079814
0.12399752 0.068679154 -0.02336857 -0.06370682 -0.121580176 0.08151683 -0.121771425 -0.03478313
0.08027921 0.5808746 0.1640512 0.6719681 0.029149609 0.053304665 0.07865345 0.06894373
-0.28315184 -0.13704838 -0.07062667 -0.15726995 -0.08058022 -0.24571773 0.14935847 -0.08090033
-0.12708814 0.124534495 0.004666149 -0.048300076 -0.15986758 -0.07400434 0.14962544 -0.03186526
-0.09909915 -0.16157572 -0.044894263 0.15165794 0.24385656 0.075929716 -0.006408726 0.08939894
0.055022687 -0.018097999 0.06332326 0.031929087 0.038985606 -0.0009908259 0.30852678 -0.42657027
-0.20360094 -0.15154913 -0.031849034 -0.13154477 -0.12850015 -0.00392121 -0.13749367 0.00078010914
-0.20245087 -0.0978044 -0.04303999 0.008511601 -0.057961058 0.07353598 0.0076085245 -0.08723858
-0.064761266 -0.054242216 -0.003732879 0.05113442 -0.00065068464 0.06802359 -0.08385427 -0.09127496
0.049768362 -0.17698807 -0.09144299 0.06851252 0.01739703 -0.007095141 -0.119959705 0.10215544
-0.050358057 -0.05370086 -0.068426825 0.09583226 -0.076697424 -0.12727694 0.06330679 -0.09932873
0.12566222 0.039251752 -0.09752562 0.06431478 0.11465198 -0.06712109 0.125681 -0.008831462
-0.068949774 -0.18299545 -0.06790079 -0.077320695 -0.11594772 -0.11356114 0.037120633 -0.1462322
-0.072959416 -0.1123268 -0.035661392 -0.057200372 -0.04247721 0.15768759 0.14031912 -0.2937377
00000000: 707e 4d3c f5c9 c7bd e25c dbbd 3520 dbbc
00000010: 7917 edbd 0a4d 303e d4c3 7d3e 252a 903e
00000020: 0750 8abd 7557 783e 2edd 90bd 9dde ce3e
00000030: 23f0 08be 09c6 353e 0f66 ee3d 24b1 0d3e
00000040: b778 003c b082 9abd 51df a13c 6900 1b3d
00000050: 089e 953c e911 c53d 697a 1bbc 347c 783d
00000060: 6f2d ea3d 82c8 edbd ae1d c23d 1713 51bd
00000070: 481c f53d 91ff da3e 9010 00bd 3962 063f
00000080: 81e0 ebbd 1e7f dbbd 62c5 9d3d ffb2 0bbd
00000090: ac31 a9be 3ef5 96be f942 933d 6f1e e3bd
000000a0: e4b6 80be 0752 3ebe 92bb 873e fba3 a7bc
000000b0: 7d6b 6cbe 608b 8cbe 781c a3bc aa2b cbbd
000000c0: e4f4 d5be 7aa5 76be 5a9f 043e a33b bd3d
000000d0: 7d0b c63d 8950 863b b679 78bd 9543 f63d
000000e0: f01d 8a3e d261 3b3d 7264 24bc febb 9a3c
000000f0: b912 55bd 3b7e 70bd ac6a ac3d 41b2 9fbd
00000100: 5b95 623d efe9 9f3d 6f9b b1bd e475 77be
00000110: 142b 83be cc2a f4be d280 b33c e606 34bd
00000120: c40c d03c c109 59be e2e8 34be d0cc 05be
00000130: 45ec 7dbd 804d b5be 1c1a 19bd 2c29 c1bd
00000140: 3377 82bd c337 a1bd 09fb 263c b4bd 5a3d
00000150: 29d8 4dbc 2c8a d7bd ac49 e73d 6077 74bb
00000160: 1210 013e fed0 7cbd 222d 69bc 2e81 f1bd
00000170: 682c eebb e136 21be 0c55 09bd e832 963c
00000180: b884 4abd f734 0a3d 58f1 ecbd 0bce 37bd
00000190: 0589 38bd a2fb 37be ff51 a1bd 5459 693d
000001a0: 327d f83c 71cb 4ebe 86de 543e 788e 9c3d
000001b0: f33c 13bb d4c8 77bc 8a66 983e 2143 d03d
000001c0: cdfe 4ebe dc70 e2bd 1cd5 643d 3406 9c3b
000001d0: 8715 30be 46d6 5b3d ac20 2bbc 5da8 9e3d
000001e0: 87ed 86bd 6bee c2bd fa33 a1bc 1334 8d3d
000001f0: e00b 7c3c fbc0 433b 02f6 cf3c 79b5 aa3d
00000200: 05ed 163d e525 243e 4616 00bc 45e3 1d3e
00000210: b48f 23be be71 3bbe 263c ba3d a24b 84be
00000220: 8b57 3ebe 0607 ce3c 7b49 a63c 9da1 2e3c
00000230: 7a7c e33d 38bd a83d ae54 81bd dc60 aabc
00000240: 69f2 fd3d a8a7 8c3d 716f bfbc b978 82bd
00000250: 07ff f8bd 4cf2 a63d 4c63 f9bd c178 0ebd
00000260: 6d69 a43d 33b4 143f 0afd 273e 1a06 2c3f
00000270: 29cb ee3c fe55 5a3d 0f15 a13d 5f32 8d3d
00000280: 47f9 90be 6956 0cbe b7a4 90bd 600b 21be
00000290: 3e07 a5bd 6e9d 7bbe 6df1 183e 12af a5bd
000002a0: 6523 02be f10b ff3d 7fe6 983b 4dd6 45bd
000002b0: 54b4 23be 968f 97bd 6937 193e 2685 02bd
000002c0: 7ff4 cabd 1b74 25be 0ce3 37bd 384c 1b3e
000002d0: 89b5 793e 0a81 9b3d 4a00 d2bb cb16 b73d
000002e0: 785f 613d 4142 94bc a0af 813d 13c8 023d
000002f0: 5faf 1f3d 9ade 81ba 39f7 9d3e 6b67 dabe
00000300: c47c 50be b22f 1bbe 2274 02bd acb3 06be
00000310: 8b95 03be 7e7d 80bb 24cb 0cbe 3d80 4c3a
00000320: 484f 4fbe ac4d c8bd b34a 30bd 3e74 0b3c
00000330: 9368 6dbd 089a 963d ee50 f93b 24aa b2bd
00000340: 8ea1 84bd 162d 5ebd 51a3 74bb 5372 513d
00000350: b592 2aba f44f 8b3d cabb abbd 5eee babd
00000360: e9d9 4b3d 5c3c 35be 7646 bbbd 4b50 8c3d
00000370: 3784 8e3c 5b7e e8bb 6fad f5bd df36 d13d
00000380: 4044 4ebd 6ff5 5bbd 5d23 8cbd b443 c43d
00000390: 8a13 9dbd e354 02be fea6 813d dc6c cbbd
000003a0: 99ad 003e 72c6 203d 83bb c7bd 78b7 833d
000003b0: a8ce ea3d c876 89bd 85b2 003e d6b1 10bc
000003c0: 8a35 8dbd 2963 3bbe 920f 8bbd 505a 9ebd
000003d0: 0076 edbd be92 e8bd ce0b 183d e5bd 15be
000003e0: bf6b 95bd 980b e6bd ae11 12bd f04a 6abd
000003f0: 95fc 2dbd db78 213e d1af 0f3e ca64 96be

critic.0.bias f4 [64]
0.0072203185 0.08413183 -0.06376815 0.21516848 -0.032895315 0.3395957 -0.06339964 0.03141804
-0.07862574 0.2863539 0.1712729 -0.20260806 -0.19461064 0.19137639 -0.06327269 -0.13225675
-0.08921274 -0.03036828 0.17517368 0.0083529325 -0.07354869 -0.0049961666 -0.090307444 -0.17392921
-0.1146737 -0.03836603 -0.026019558 -0.07428195 -0.111099474 0.002769928 -0.12486273 0.07743981
0.061728906 0.18669319 0.021407805 0.16546848 -0.13496593 0.25925002 0.22645116 -0.14886941
-0.12616615 0.18492796 0.015672468 -0.1004895 -0.063404374 0.07594259 0.17454804 -0.15466449
-0.12741242 -0.15029162 0.24937615 -0.0794847 -0.21852571 -0.14717644 -0.041514806 -0.18662174
0.17931695 0.058988307 -0.17681317 -0.07337609 -0.081791565 0.0014648701 -0.16138697 -0.021920817
00000000: 6c98 ec3b 4f4d ac3d e098 82bd 2055 5c3e
00000010: 3dbd 06bd 7ddf ad3e acd7 81bd 34b0 003d
00000020: 8806 a1bd fa9c 923e 2a62 2f3e 7d78 4fbe
00000030: 0348 47be 2cf8 433e 1d95 81bd 506e 07be
00000040: 2bb5 b6bd e6c6 f8bc bb60 333e bdda 083c
00000050: b2a0 96bd e2b6 a3bb 1cf3 b8bd 801a 32be
00000060: 0bda eabd b325 1dbd f826 d5bc 2321 98bd
00000070: 1f88 e3bd ae87 353b 08b8 ffbd c398 9e3d
00000080: 73d7 7c3d 802c 3f3e 6c5f af3c 9270 293e
00000090: 8234 0abe 6bbc 843e d0e2 673e 3971 18be
000000a0: b331 01be c15d 3d3e 8c63 803c 70cd cdbd
000000b0: 27da 81bd ca87 9b3d b9bc 323e 5e60 1ebe
000000c0: 6778 02be 0ce6 19be 765c 7f3e e0c8 a2bd
000000d0: 34c5 5fbe 6cb5 16be 6e0b 2abd c519 3fbe
000000e0: dd9e 373e b99d 713d 830e 35be 3446 96bd
000000f0: 5682 a7bd e200 c03a a042 25be 4993 b3bc

critic.2.weight f4 [64, 64]
-0.061011612 -0.045968324 0.05143816 -0.14830774 -0.053297345 0.07741579 -0.16102266 -0.23903894
-0.107428566 -0.08716505 -0.17149185 -0.0048374557 0.10265785 0.054405123 -0.15997596 -0.13564977
-0.019489504 0.0016353773 0.016869677 -0.08219477 0.09499369 -0.11342551 -0.11277893 0.15395404
0.07933119 0.02928988 0.025579877 -0.16289738 -0.14422235 0.0017978614 0.07151009 0.02014429
-0.06415382 -0.08417733 -0.09191683 -0.028408077 0.092667624 0.0644981 -0.031561 -0.17742622
-0.019056354 -0.032426137 -0.17974699 0.06365976 -0.021006512 -0.04030467 0.07700654 0.043655254
0.04007296 -0.15050097 -0.09752207 -0.14111803 0.16715811 -0.037519295 -0.095228374 -0.16609317
0.06432113 0.024097722 0.017220503 0.04515703 -0.08029856 -0.112825215 -0.06713503 0.024875784
-0.09499746 -0.15406333 -0.117933095 -0.01157928 -0.09285772 -0.20811184 0.0014263636 -0.096111014
-0.12577407 -0.12823658 -0.041539934 0.05676374 -0.18580914 -0.033816103 -0.031709097 -0.009342886
-0.0007802816 -0.14150259 -0.106105134 0.0057024024 0.015671091 -0.10554257 -0.1389077 -0.12853993
-0.086721085 0.063742034 0.0006576308 -0.012287832 -0.09723607 0.18048035 0.024767622 -0.079729386
-0.18960813 0.080716506 0.0136827985 -0.13484852 0.03296322 0.031686347 -0.2607139 -0.032388613
-0.11785239 -0.14628166 0.085945316 0.14358641 -0.1166455 -0.13369313 -0.052476503 -0.013867362
0.064853705 -0.0071321116 0.0552186 -0.012154968 0.08713143 -0.02763036 -0.18554677 -0.18785512
-0.07920854 -0.052633535 -0.061443884 -0.01492668 0.04930322 -0.121466294 -0.041593637 0.060583033
-0.041356325 0.084441744 -0.03205966 0.01497902 -0.092749774 -0.042943876 -0.1218978 -0.062050678
0.054726962 0.014759824 -0.12920596 -0.094376475 -0.038872167 0.040271148 -0.05886933 -0.032429002
-0.118285574 -0.09351063 -0.10569154 -0.14944741 -0.04985065 0.111486524 -0.032654315 0.090199485
-0.09863889 0.10039043 -0.1097987 -0.052600373 -0.10315965 -0.049693763 0.05974564 0.038299233
0.0591585 -0.02075817 -0.048867818 -0.039043754 0.016418993 -0.029720267 -0.11669123 -0.081331454
-0.055218693 -0.06759346 -0.024968216 -0.06326398 -0.08501081 -0.03591395 -0.047950238 0.09620175
-0.010132428 -0.02068447 -0.13507767 -0.10094355 -0.045549244 0.08348592 0.0003622528 -0.04780525
0.10108141 0.008222487 0.04067944 -0.16350889 -0.043129425 0.026361877 -0.070397615 -0.009899393
-0.20431429 0.08500968 0.026276994 0.07647031 0.01850788 0.13096909 -0.06510795 -0.09770236
-0.13366118 0.37342772 0.0561406 0.054701727 0.17372823 0.11138562 -0.14697753 -0.08854714
0.12857781 -0.1689002 0.054319777 -0.036757465 -0.062044654 -0.13351315 0.05068956 0.14916798
-0.06677648 0.1188285 -0.26121175 0.13490807 -0.25380322 0.12518929 0.32013136 0.12032036
0.18046834 -0.008422329 0.11087748 0.06491003 0.0833656 0.29169 0.15654571 -0.15052074
0.06444147 0.1436531 0.17561585 0.101818234 0.09560487 -0.1625702 0.02441822 0.111754045
0.17488259 0.1644998 0.24847452 -0.11617458 -0.11516029 -0.06503761 0.032280117 0.1304978
0.15879947 -0.09233547 -0.117061526 0.037359677 0.03488916 -0.20648156 -0.04074688 -0.20158915
00000000: 50e7 79bd 4849 3cbd d2b0 523d fcdd 17be
00000010: 514e 5abd 2b8c 9e3d 20e3 24be a0c6 74be
00000020: 8203 dcbd 9783 b2bd 8f9b 2fbe 8583 9ebb
00000030: 473e d23d e8d7 5e3d bdd0 23be c6e7 0abe
00000040: 74a8 9fbc 285a d63a 4732 8a3c bb55 a8bd
00000050: 0d8c c23d a24b e8bd a4f8 e6bd 21a6 1d3e
00000060: 6478 a23d 55f1 ef3c e48c d13c 92ce 26be
00000070: 06af 13be 38a6 eb3a e273 923d a305 a53c
00000080: 1463 83bd 2a65 acbd e43e bcbd 0eb8 e8bc
00000090: 86c8 bd3d 9417 843d 1b46 01bd 38af 35be
000000a0: 121c 9cbc 45d1 04bd 980f 38be 0c60 823d
000000b0: d915 acbc 8216 25bd 9bb5 9d3d dacf 323d
000000c0: 8b23 243d ed1c 1abe a7b9 c7bd 3f81 10be
000000d0: 7f2b 2b3e d5ad 19bd 1807 c3bd 5414 2abe
000000e0: ccba 833d 9668 c53c 0312 8d3c 94f6 383d
000000f0: 9273 a4bd e810 e7bd 177e 89bd 4dc8 cb3c
00000100: 078e c2bd c7c2 1dbe e886 f1bd 05b7 3dbc
00000110: 302c bebd 451b 55be d2f4 ba3a dad5 c4bd
00000120: ebca 00be 7350 03be c725 2abd 1881 683d
00000130: c044 3ebe c182 0abd 66e1 01bd e712 19bc
00000140: d08b 4cba 0ee6 10be a64d d9bd 38db ba3b
00000150: a960 803c b426 d8bd d23d 0ebe f99f 03be
00000160: d39a b1bd 2f8b 823d db64 2c3a e752 49bc
00000170: b423 c7bd d7cf 383e 78e5 ca3c 2949 a3bd
00000180: a228 42be b24e a53d d12d 603c bb15 0abe
00000190: 7104 073d 8bc9 013d 4b7c 85be eca9 04bd
000001a0: 985c f1bd dcca 15be 1904 b03d 5108 133e
000001b0: d6e3 eebd dae6 08be 9af1 56bd ef33 63bc
000001c0: 05d2 843d 7db4 e9bb e62c 623d a225 47bc
000001d0: f771 b23d 1159 e2bc f9ff 3dbe 185d 40be
000001e0: 1638 a2bd 4396 57bd 95ac 7bbd 098f 74bc
000001f0: 2cf2 493d 52c3 f8bd 175e 2abd ea25 783d
00000200: 4065 29bd cbef ac3d fd50 03bd 906a 753c
00000210: 98f3 bdbd ebe5 2fbd 8ea5 f9bd da28 7ebd
00000220: 6129 603d 30d3 713c 914e 04be 7448 c1bd
00000230: 6c38 1fbd 5cf3 243d f720 71bd 46d4 04bd
00000240: b53f f2bd 8082 bfbd ce74 d8bd be08 19be
00000250: 3230 4cbd 0c53 e43d 88c0 05bd 82ba b83d
00000260: 3003 cabd 7f99 cd3d 24de e0bd 7d73 57bd
00000270: 5e45 d3bd b08b 4bbd d8b7 743d a8df 1c3d
00000280: 2f50 723d 0a0d aabc 9f29 48bd 58ec 1fbd
00000290: 2081 863c eb77 f3bc d0fb eebd 1b91 a6bd
000002a0: ff2c 62bd 716e 8abd 258a ccbc 8c90 81bd
000002b0: 261a aebd 821a 13bd 7867 44bd 6c05 c53d
000002c0: 7c02 26bc 7a72 a9bc cd51 0abe 7ebb cebd
000002d0: d891 3abd abfa aa3d bfec bd39 70cf 43bd
000002e0: c503 cf3d 9cb7 063c 7c9f 263d e06e 27be
000002f0: 7ba8 30bd ddf4 d73c a02c 90bd 1031 22bc
00000300: c437 51be 8e19 ae3d da42 d73c 779c 9c3d
00000310: d69d 973c c31c 063e 5157 85bd 2d18 c8bd
00000320: 7ade 08be eb31 bf3e b0f3 653d eb0e 603d
00000330: d0e5 313e 251e e43d 4781 16be 3458 b5bd
00000340: e7a9 033e 2df4 2cbe 6a7e 5e3d ff8e 16bd
00000350: 8922 7ebd acb7 08be db9f 4f3d 7ebf 183e
00000360: 1bc2 88bd 5b5c f33d 8cbd 85be 5725 0a3e
00000370: 7ff2 81be 9f31 003e 42e8 a33e 856a f63d
00000380: b1cc 383e cffd 09bc bb13 e33d 8def 843d
00000390: 95bb aa3d 6458 953e 854d 203e 1c22 1abe
000003a0: e4f9 833d cc19 133e a4d4 333e 1486 d03d
000003b0: 7ccc c33d cd78 26be b808 c83c 4edf e43d
000003c0: 6c14 333e a372 283e 1b70 7e3e f0ec edbd
000003d0: 28d9 ebbd 7032 85bd 2838 043d 37a1 053e
000003e0: 549c 223e 611a bdbd f4bd efbd 7606 193d
000003f0: f0e7 0e3d e76f 53be 33e6 26bd 636d 4ebe

critic.2.bias f4 [64]
-0.16196772 0.00019945682 -0.13647884 0.056670625 -0.1138613 0.027945332 -0.02693186 -0.07895626
-0.12019293 -0.046095297 0.19361693 0.15113677 0.058038116 -0.14557296 -0.003949051 -0.15233268
-0.042731483 -0.08024028 0.035177127 -0.12244177 0.044374347 0.0074457377 -0.072769284 -0.09326425
-0.080873676 0.11586955 -0.0774928 -0.09589692 0.12149769 0.051785182 -0.06885091 -0.14484745
-0.040567238 -0.09393209 -0.030376948 -0.05994322 0.016143061 -0.045582786 -0.108054705 -0.17559557
0.035752505 -0.006348337 -0.04469173 0.023310233 -0.09447145 0.082469165 0.015758159 0.038937755
-0.099550754 -0.06575965 -0.102885135 -0.18343906 -0.0031695268 -0.13983804 -0.015940785 -0.011685447
-0.13191542 -0.054702714 -0.14504799 0.09436506 -0.0062937173 0.10632602 -0.14391804 -0.048430488
00000000: deda 25be 4825 5139 1cc1 0bbe 751f 683d
00000010: 1d30 e9bd 9ced e43c 34a0 dcbc d2b3 a1bd
00000020: b627 f6bd 6cce 3cbd 8443 463e 99c3 1a3e
00000030: 60b9 6d3d 1411 15be 0a67 81bb 19fd 1bbe
00000040: 3507 2fbd 0455 a4bd e415 103d c0c2 fabd
00000050: e0c1 353d 60fb f33b 1008 95bd 5401 bfbd
00000060: 19a1 a5bd 044d ed3d 8cb4 9ebd 9b65 c4bd
00000070: c8d3 f83d b31c 543d b501 8dbd e452 14be
00000080: d529 26bd 785f c0bd 14d9 f8bc 0687 75bd
00000090: 743e 843c 04b5 3abd c94b ddbd 53cf 33be
000000a0: 3871 123d b605 d0bb ad0e 37bd 1af5 be3c
000000b0: 3f7a c1bd 98e5 a83d 4117 813c 327d 1f3d
000000c0: 44e1 cbbd ffac 86bd 71b5 d2bd 73d7 3bbe
000000d0: d6b7 4fbb b431 0fbe 4096 82bc 5174 3fbc
000000e0: d614 07be f40f 60bd 7687 14be 7842 c13d
000000f0: 873b cebb 75c1 d93d 405f 13be 0c5f 46bd

critic.4.weight f4 [1, 64]
0.0051941737 -0.041063316 0.07229625 0.102744885 0.010819069 -0.26688024 0.12090897 0.0011787199
0.0021266807 -0.0005842861 -0.2125659 0.090186834 0.03860971 -0.0031698064 -0.21199149 -0.33104828
0.021006038 -0.17189178 0.038610976 0.011349671 0.00895002 0.03623599 -0.010298592 -0.019253356
0.044322677 -0.1682609 0.025944034 -0.07260868 -0.24223591 -0.16061977 -0.1014334 -0.104723796
-0.11778313 -0.0346427 -0.044121213 -0.015744258 0.076585956 0.044211734 -0.00805147 -0.00085410813
0.15268919 -0.005411399 -0.0042926692 0.04226888 0.0010385793 -0.13096051 0.00108171 -0.17721447
0.045103118 -0.011245172 -0.07247045 0.0024691457 0.09778802 0.1743176 -0.022245277 0.015153123
0.0021857794 -0.00369671 -0.1826343 0.050936613 -0.0940724 0.06396698 -0.022114739 0.00710126
00000000: e333 aa3b 0232 28bd 0e10 943d e96b d23d
00000010: 7742 313c 87a4 88be 1f9f f73d 477f 9a3a
00000020: c85f 0b3b c72a 19ba e0aa 59be e0b3 b83d
00000030: 3725 1e3d 87bc 4fbb 4c14 59be 297f a9be
00000040: db14 ac3c 6604 30be 8b26 1e3d f8f3 393c
00000050: 1ba3 123c 306c 143d 6dbb 28bc 37b9 9dbc
00000060: b28b 353d 964c 2cbe 9588 d43c dcb3 94bd
00000070: b10c 78be 8279 24be 50bc cfbd 6e79 d6bd
00000080: 4838 f1bd 81e5 0dbd 72b8 34bd 1afa 80bc
00000090: 19d9 9c3d 5d17 353d 50ea 03bc 3ae6 5fba
000000a0: 8e5a 1c3e 1b52 b1bb 85a9 8cbb 2222 2d3d
000000b0: f020 883a 831a 06be 2ac8 8d3a b677 35be
000000c0: 0cbe 383d ab3d 38bc 636b 94bd 64d1 213b
000000d0: 1645 c83d 5080 323e ba3b b6bc ce44 783c
000000e0: 4b3f 0f3b 8144 72bb 7c04 3bbe e9a2 503d
000000f0: 08a9 c0bd 1f01 833d f829 b5bc b0b1 e83b
