Models/Reward_shaping_vm/ICM_reward_scale_09_0/28000.pth (torch, 78437 bytes, 11 tensors)

actor.0.weight f4 [64, 62]
0	0x3c9f3700	0.019435406
1	0x3d965ece	0.07342301
2	0xbdc4b3bb	-0.09604593
3	0x3dd20338	0.1025452
4	0x3c7c12a3	0.015385303
5	0xbdc8372d	-0.09776149
6	0xbd88c51b	-0.0667822
7	0xbe3c6574	-0.18398076
8	0xbd87ab4c	-0.06624469
9	0x3e1e05df	0.15431927
10	0x3ef9fce2	0.48825747
11	0x3f091b72	0.53557503
12	0x3ed3f160	0.41395092
13	0xbb4f494d	-0.0031629384
14	0x3dc9920a	0.09842308
15	0x3cefc6fa	0.029269684
16	0x3cb15260	0.021645725
17	0xbdee4512	-0.11634268
18	0xbd72dc94	-0.05929239
19	0xbd0121d8	-0.031526417
20	0xbd57effa	-0.052719094
21	0xbb903360	-0.0044006556
22	0x3c07b380	0.008282542
23	0x3d4c42f8	0.049868554
24	0x3db8117a	0.089877084
25	0xbaa73300	-0.0012756288
26	0x3c5092f0	0.012730345
27	0x3d5e5acc	0.05428581
28	0xbac129c2	-0.0014737176
29	0xbd023b82	-0.031795032
30	0x3e0000a0	0.12500238
31	0x3d960a6a	0.07326205
32	0x3cec39e8	0.028836206
33	0xbde305c4	-0.11085084
34	0x3cc72ac0	0.024312377
35	0xbd9542ac	-0.07288107
36	0xbe50be0e	-0.20385
37	0xbd5af17b	-0.05345295
38	0x3da852cf	0.082189195
39	0x3e1b893e	0.15189072
40	0xbe16c0f7	-0.14722048
41	0xbcf0dab4	-0.02940116
42	0xbdffaa0a	-0.12483604
43	0x3d8496f4	0.064741045
44	0xbe26b1b4	-0.16278726
45	0xbdf86ae7	-0.12129765
46	0x3dbcc9e9	0.09218199
47	0xbb226759	-0.0024780838
48	0xbdf3eb9e	-0.11910175
49	0x3d207338	0.03917238
50	0x3cd6f88f	0.026241569
51	0xbd6b6d04	-0.057477012
52	0x3dcec8ac	0.10096869
53	0xbdde58bc	-0.108567685
54	0x3cad8b8b	0.021184703
55	0x3e349c92	0.17637852
56	0xbd9e1cb5	-0.07720319
57	0x3dc9003c	0.09814498
58	0xbbbe526d	-0.0058081658
59	0x3d08ac77	0.0333676
60	0xbe1466f6	-0.14492401
61	0xbe079a7d	-0.13242526
62	0xbd94ec06	-0.072715804
63	0x3de2eec0	0.11080694
64	0x3dff72b0	0.12473047
65	0xbd77953c	-0.060445055
66	0xbdd3f80e	-0.10350047
67	0xbad50cc4	-0.0016254415
68	0xbe3977a2	-0.18112043
69	0xbe8160d7	-0.25269195
70	0x3d09fd20	0.033688664
71	0x3e184d0e	0.14873144
72	0x3ef776ee	0.48332924
73	0x3f1fae05	0.6237491
74	0x3ec71aa3	0.3888751
75	0x3dc6e284	0.09711173
76	0x3e309a46	0.1724635
77	0x3d6c25e4	0.057653323
78	0x3c0c97a0	0.008581072
79	0x3d599450	0.053119957
80	0xbcc9801c	-0.02459722
81	0xbbc64f70	-0.00605195
82	0xbd09acd6	-0.033612095
83	0x3daab08e	0.083344564
84	0xbd7cc5b0	-0.061711967
85	0xbdfe77f4	-0.12425223
86	0xbde5d5c7	-0.112224154
87	0x3b966be0	0.0045904964
88	0xbdfa44e9	-0.12220175
89	0x3df4acb2	0.119470015
90	0x3e33b9aa	0.17551294
91	0x3cfadfaf	0.030624239
92	0xbdb1a4e7	-0.08674031
93	0xbd968e09	-0.0735131
94	0xbddf7b98	-0.109122455
95	0x3c50cc20	0.01274398
96	0xbc85fb1c	-0.01635509
97	0xbd157e02	-0.036497124
98	0x3cab105f	0.02088183
99	0xbd7dea91	-0.061991278
100	0xbdc4164b	-0.095745645
101	0xbb6ccf6c	-0.0036134375
102	0xbccb1f64	-0.024795242
103	0xbabc0142	-0.0014343637
104	0xbc33c5e2	-0.010972472
105	0x3dc1cf9a	0.09463425
106	0xbd95291f	-0.07283234
107	0xbd8762ec	-0.06610665
108	0xbe071383	-0.13191037
109	0xbe470c1f	-0.19438218
110	0xbd0e17f7	-0.034690823
111	0xbe4cf2c4	-0.20014483
112	0xbdbacabe	-0.09120701
113	0xbdb90fe9	-0.09036238
114	0x3de43574	0.11143008
115	0xbe254604	-0.1613999
116	0x3e1e1dac	0.15441006
117	0x3dbdba2c	0.09264025
118	0x3da6b9e5	0.08140925
119	0x3e00345c	0.12519974
120	0x3e06aa3a	0.13150874
121	0x3ddb9722	0.10722186
122	0xbd60e17f	-0.05490255
123	0xbd04c441	-0.032413725
124	0xbdc264aa	-0.094918564
125	0xbd3eb93a	-0.046563365
126	0xbd32e180	-0.043672085
127	0x3c6577a0	0.014005572
128	0xbcb815d8	-0.022471353
129	0xbe4f7114	-0.2025798
130	0x3ea9a065	0.33130184
131	0x3ec70a17	0.38874885
132	0x3de48abf	0.11159276
133	0x3dc21df3	0.094783686
134	0x3c727dc0	0.014800489
135	0xbe43a3c5	-0.19105442
136	0x3c2a0914	0.010378141
137	0xbd9e8d36	-0.077417776
138	0x3e73ba9a	0.23801652
139	0x3ee3eb13	0.44515285
140	0x3d5fc2d4	0.054629162
141	0x3c9b4a10	0.018956214
142	0x3dc9f5d2	0.0986134
143	0xbd3002ee	-0.042971544
144	0x3b754580	0.0037425458
145	0xbcf06168	-0.029343322
146	0x3dfa4c80	0.122216225
147	0x3dd8e676	0.10590832
148	0xbd85035e	-0.06494783
149	0x3db186ba	0.08668275
150	0x3df780ca	0.120851114
151	0xbd8ca9ba	-0.0686831
152	0x3c5a0d46	0.013308829
153	0x3b1627f0	0.0022911988
154	0x3d2ff791	0.042960707
155	0x3e4550e0	0.19269133
156	0xbd4a1da0	-0.04934466
157	0xba9f1c80	-0.0012139231
158	0x3deafdac	0.11474165
159	0x3d919a28	0.07109481
160	0xbe6a1d79	-0.22862805
161	0xbd340bb9	-0.043956492
162	0x3d94f60e	0.07273494
163	0x3e2345ec	0.15944642
164	0xbe62dec9	-0.22155298
165	0xbcf2efe1	-0.029655399
166	0xbe07258f	-0.13197921
167	0x3d8ccaf2	0.06874646
168	0xbd135f72	-0.035979696
169	0xbdf53b52	-0.11974205
170	0x3e227f79	0.1586894
171	0xbccdbb68	-0.025113776
172	0xbc720533	-0.014771747
173	0xbe1aab9b	-0.15104525
174	0x3dfa123c	0.12210509
175	0x3d9caa4d	0.0764967
176	0x3d2f8780	0.042853832
177	0x3da2b31d	0.079443194
178	0xbdcfeedf	-0.10152983
179	0x3dfd15ba	0.1235766
180	0x3dce3a4d	0.10069714
181	0x3cd2e420	0.025743544
182	0xbde15504	-0.110025436
183	0x3e236cea	0.15959516
184	0xbd548dd0	-0.051893055
185	0xbd836236	-0.064152166
186	0x3cae1d78	0.021254286
187	0xbac69600	-0.0015150905
188	0xbde5413a	-0.111940816
189	0x3dd67bf0	0.10472858
190	0xbdbe4222	-0.092899576
191	0xbe7a7825	-0.24459894
192	0x3edb6954	0.42853796
193	0x3ebe2708	0.37139153
194	0x3d5a9c84	0.05337192
195	0x3e4d57e6	0.20053062
196	0xbe2aa22b	-0.16663425
197	0xbdd3d191	-0.10342706
198	0x3b9ba6eb	0.004750123
199	0xbe240970	-0.16019225
200	0x3e8568a3	0.26056394
201	0x3eb35ff2	0.35034138
202	0x3ce08790	0.027408391
203	0xbcf79dcc	-0.03022661
204	0x3dec8f7e	0.115508065
205	0xbd27e35a	-0.040988304
206	0x3d10b360	0.035327315
207	0xbc9f9b44	-0.019483216
208	0xbdb4ad08	-0.088220656
209	0xbdf61a76	-0.12016766
210	0xbdee69f5	-0.116413034
211	0x3c90b9d0	0.017666727
212	0x3b0d47c0	0.002155766
213	0xbdad3b30	-0.08458555
214	0x3d16d721	0.036826257
215	0xbd749a6a	-0.059717573
216	0xbd15de88	-0.036589175
217	0x3dd9a3de	0.10626958
218	0xbc81cfbc	-0.015846126
219	0xbd059880	-0.03261614
220	0x3c79fbe0	0.015257806
221	0xbdb81253	-0.0898787
222	0xbcf61165	-0.030037591
223	0x3c303aeb	0.010756235
224	0xbc93f995	-0.018063346
225	0x3d1b0bd1	0.037853066
226	0xbe23a68f	-0.15981506
227	0xbe5f2645	-0.21791942
228	0xbdc10ada	-0.09425898
229	0xbd0ab094	-0.033859804
230	0xbd924cb5	-0.07143537
231	0x3d914582	0.07093336
232	0x3e315a88	0.17319691
233	0x3dc67511	0.096902974
234	0x3d8ed29a	0.06973763
235	0xbdf0be98	-0.11755103
236	0x3dbb6300	0.09149742
237	0xbb47ba0d	-0.0030475885
238	0x3ad67400	0.0016361475
239	0xbd6b0d96	-0.057386003
240	0xbdd415dc	-0.10355732
241	0x3e084ecb	0.13311307
242	0x3ceb682f	0.028736202
243	0xbd9b1394	-0.075720936
244	0xbcf6a482	-0.03010774
245	0xbe1f2b38	-0.1554383
246	0xbd1bea5d	-0.038065303
247	0x3e32b1ec	0.17450684
248	0x3d4124ec	0.047154352
249	0xbdefedc1	-0.1171527
250	0xbcad00d0	-0.021118551
251	0x3d47a8f4	0.04874511
252	0x3dada9d5	0.084796585
253	0xbe9605c3	-0.2930127
254	0x3c16b90d	0.009199393
255	0xbeb2f876	-0.34955186

actor.0.bias f4 [64]
0	0xbc9af04a	-0.018913407
1	0x3dc9fab6	0.098622724
2	0xbc00218d	-0.007820499
3	0x3d0cdb8d	0.034389067
4	0xbd5c9984	-0.05385734
5	0xbce92a51	-0.02846256
6	0xbcf4f7b2	-0.029903267
7	0x3d8c5037	0.06851237
8	0xbcadea5e	-0.021229919
9	0x3d9acd31	0.075586684
10	0x3c2d46c7	0.010575957
11	0xbd504908	-0.050850898
12	0xbd295a20	-0.041345716
13	0xbd74c345	-0.059756536
14	0x3d91f048	0.07125908
15	0x3dcc3898	0.09971732
16	0x3e18f42b	0.14936893
17	0x3dc0cb1b	0.09413739
18	0x3d5b6a5a	0.05356822
19	0xbc4d3312	-0.012524383
20	0x3cd0509d	0.025429064
21	0xbc38f1aa	-0.011288086
22	0xbcc49fcf	-0.024001984
23	0xbdd997b5	-0.10624639
24	0xbdd6432d	-0.104620315
25	0xbd89b677	-0.067242555
26	0xbc3cc80d	-0.011522305
27	0x3e8548d4	0.26032126
28	0xbcc951a0	-0.024575055
29	0x3e1042b4	0.14087945
30	0xbd39c617	-0.04535493
31	0x3dd14a67	0.10219269
32	0x3e184173	0.14868717
33	0x3db9d280	0.09073353
34	0x3d94f714	0.07273689
35	0xbd387ec7	-0.04504278
36	0x3ba51720	0.005038157
37	0x3da008c2	0.078141704
38	0x3db0929c	0.086217135
39	0x3da66b4e	0.081259355
40	0x3ce7a6af	0.028277723
41	0x3dfed8be	0.12443684
42	0xbd83b8d0	-0.064317346
43	0x3e360765	0.17776258
44	0x3def846d	0.1169518
45	0x3db59feb	0.088683926
46	0x3dab5385	0.083655395
47	0x3c353cff	0.011061906
48	0x3cf8a19d	0.0303505
49	0xbca223da	-0.019792486
50	0x3dbe30e8	0.09286672
51	0x3d8c49ca	0.06850012
52	0x3d85292d	0.06501994
53	0x3d4a2292	0.049349375
54	0x3d482043	0.048858892
55	0x3d35079c	0.04419671
56	0x3e0ecd1a	0.13945428
57	0xbc1b9ed7	-0.00949832
58	0x3d989227	0.07449751
59	0x3e27d860	0.16391134
60	0x3caf32bf	0.021386502
61	0x3c333ec9	0.010940262
62	0xbe0d8d2f	-0.13823389
63	0x3defa9ff	0.11702346

actor.2.weight f4 [64, 64]
0	0xbdb0228a	-0.08600338
1	0xbd83b41a	-0.06430836
2	0xbdb7bd7d	-0.08971689
3	0x3d84d262	0.0648544
4	0x3d26f210	0.040758193
5	0x3db20595	0.08692471
6	0x3c2eb6a8	0.010663666
7	0xbcc2a558	-0.023760483
8	0x3d6fc984	0.05854179
9	0xbdb03f10	-0.08605778
10	0x3d941dec	0.0723227
11	0xbdf51d06	-0.119684264
12	0x3dbaaa30	0.09114492
13	0x3cff9917	0.031200929
14	0xbd1e29f9	-0.038614247
15	0xbe0b190d	-0.13583775
16	0x3d800e4b	0.06252726
17	0xbde1e9e8	-0.11030942
18	0x3d90bcf8	0.07067293
19	0xbd885a8d	-0.06657896
20	0x3dc7467f	0.09730243
21	0xbdd1ac68	-0.10237962
22	0xbdebd227	-0.11514693
23	0x3d0016e7	0.03127184
24	0xbdd1aea6	-0.1023839
25	0x3dc72403	0.097236656
26	0xbd1b929e	-0.037981622
27	0xbd26c2f0	-0.04071325
28	0x3aff70c1	0.0019488559
29	0xbcf32c60	-0.029684246
30	0xbd10b5dd	-0.03532969
31	0xbcb49cb4	-0.022047378
32	0xbdcc8f64	-0.09988287
33	0xbdfc4d43	-0.12319424
34	0xbb02bb4c	-0.0019948063
35	0x3d8937b1	0.067000754
36	0xbdd90d06	-0.10598187
37	0xbd064ed6	-0.032790028
38	0xbd905c60	-0.07048869
39	0xbb9f9413	-0.0048699467
40	0xbd9b4d3f	-0.07583093
41	0xbdded6b2	-0.10880794
42	0xbdb0a796	-0.086257145
43	0xbbacdd22	-0.0052753845
44	0x3d59c44c	0.05316572
45	0xbd90c52a	-0.07068856
46	0xbc84310f	-0.016136674
47	0xbcc857bf	-0.024455903
48	0x3cc54d10	0.024084598
49	0xbcde2de0	-0.027121484
50	0xbdab2fb6	-0.083587095
51	0x3d51daaf	0.051233944
52	0x3c906da8	0.017630413
53	0xbe0865fa	-0.13320151
54	0xbd2d70d7	-0.04234394
55	0x3dcacbc1	0.09902144
56	0x3cd14463	0.025545305
57	0xbd471dde	-0.048612468
58	0x3ca19ad9	0.019727157
59	0xbe047c2c	-0.12937993
60	0x3db476da	0.08811732
61	0x3d7a95a2	0.061177857
62	0xbd8cddf0	-0.06878269
63	0x3b2f1c44	0.0026719728
64	0xbe3962bb	-0.18104069
65	0xbe802c62	-0.2503386
66	0x3e9cfb1c	0.3066033
67	0x3eb14f9d	0.34631053
68	0x3c136805	0.008996968
69	0xbd70f6c0	-0.05882907
70	0xbdc76f1b	-0.097379886
71	0x3d3fcab5	0.046824176
72	0x3eba4928	0.3638394
73	0xbce3b15b	-0.02779453
74	0xbd00e54f	-0.031468686
75	0xbe21e36c	-0.15809411
76	0xbe417d86	-0.1889554
77	0xbe9a14ea	-0.3009408
78	0xbeae086b	-0.33990797
79	0x3e7d7cdc	0.24754661
80	0xbe8222d2	-0.2541719
81	0x3c35318c	0.011059176
82	0x3e8642a6	0.26222724
83	0x3e953140	0.29139137
84	0x3d199097	0.037491407
85	0x3c3ff3d2	0.011715846
86	0x3d35be5e	0.044371
87	0x3de99772	0.11405839
88	0xbce121ec	-0.027481996
89	0x3e57c7c9	0.21072306
90	0x3e08e444	0.13368326
91	0xbcba5d37	-0.022749526
92	0x3e202b9f	0.1564164
93	0x3dd1ce97	0.10244482
94	0x3e632227	0.22180997
95	0xbd2c0d8b	-0.042005103
96	0xbe594c5d	-0.21220537
97	0x3e1a59de	0.15073344
98	0x3ea735e1	0.32658294
99	0x3dac5db4	0.0841631
100	0x3e5e0b83	0.21684079
101	0x3d0fbd36	0.035092555
102	0xbe87fcb0	-0.26559973
103	0xbe5e933a	-0.2173585
104	0x3eb29643	0.34880266
105	0x3e2a66c3	0.16640763
106	0x3e1ef0ca	0.15521541
107	0xbe3d0fc1	-0.18463041
108	0xbea9c20c	-0.3315586
109	0xbe4b4271	-0.19849564
110	0x3ecdd383	0.40200433
111	0xbd58500e	-0.05281072
112	0xbe00da96	-0.12583384
113	0xbdaadd19	-0.08342952
114	0x3dd1853d	0.10230491
115	0x3e2083e8	0.15675318
116	0xbe97e8df	-0.29669854
117	0x39add8f0	0.00033158762
118	0xbe8bfd82	-0.2734185
119	0x3e37efd3	0.1796258
120	0x3e1a75db	0.15084021
121	0x3e79d405	0.24397285
122	0x3cc43e2c	0.023955427
123	0xbe00c202	-0.12574008
124	0xbe1b5c69	-0.1517197
125	0x3e3d8ac5	0.18509968
126	0xbd6697c1	-0.056297068
127	0xbdda54fc	-0.10660741
128	0x3d9d9634	0.076946646
129	0x3e8755b2	0.26432568
130	0x3e35cd53	0.17754106
131	0x3e003c45	0.12522991
132	0x3d25f5a9	0.040517483
133	0x3d15ab6a	0.036540426
134	0xbe61f4a3	-0.22065978
135	0xbc8bc0f0	-0.017059773
136	0xbdd55463	-0.10416486
137	0x3e89576d	0.26824513
138	0x3db0e6f2	0.08637799
139	0x3e39b21a	0.18134347
140	0x3dbe83b4	0.09302464
141	0xbd83daf0	-0.064382434
142	0xbda5aa8e	-0.08089171
143	0x3ce6daeb	0.02818056
144	0x3e1e243f	0.15443514
145	0xbd0ef70e	-0.03490358
146	0x3db60290	0.088872075
147	0x3d502230	0.050813854
148	0x3e4fd0ff	0.2029457
149	0xbda4d410	-0.0804826
150	0x3cf9ccda	0.030493189
151	0x3da598f6	0.080858156
152	0xbd4beab3	-0.049784373
153	0xbd2857ea	-0.041099466
154	0x3cfa8398	0.030580327
155	0x3c960a56	0.018315475
156	0xbcfb27e4	-0.03065867
157	0x3e71cebf	0.23614024
158	0x3dad1d49	0.08452851
159	0x3e7ea207	0.24866496
160	0x3d91bdd7	0.07116287
161	0x3e22538d	0.15852185
162	0xbd8be4d6	-0.06830756
163	0x3e20c8b0	0.15701556
164	0x3d080b6a	0.03321401
165	0xbd87f87f	-0.06639194
166	0xbe0859b6	-0.13315472
167	0xbded4836	-0.11586039
168	0xbe0ebd5f	-0.13939427
169	0x3da72ec2	0.08163215
170	0x3e4b02d2	0.19825295
171	0xbd2d0b2b	-0.04224698
172	0xbdc4ebc4	-0.09615281
173	0x3dee7c5b	0.11644813
174	0xbde2041f	-0.11035942
175	0xbe5a0c97	-0.21293865
176	0x3be3207e	0.0069313636
177	0x3d35b392	0.044360705
178	0x3cf61cdf	0.030043064
179	0xbd8cc01e	-0.06872581
180	0xbbe7ac1f	-0.007070079
181	0xbc5a7923	-0.013334545
182	0xbd033ecb	-0.032042306
183	0x3d7e9266	0.062151335
184	0xbc776d45	-0.0151017355
185	0xbcc6bb2c	-0.024259172
186	0x3de61a13	0.11235442
187	0x3d0fe56f	0.035130914
188	0xbe2e3c07	-0.17015086
189	0xbe1264e5	-0.142963
190	0x3d5ec8a6	0.054390572
191	0xbc88cc6a	-0.016699035
192	0xbe1c60d9	-0.1527132
193	0xbcb75ef3	-0.022384143
194	0xbceecfe2	-0.02915186
195	0x3d230595	0.039800245
196	0xbd33578d	-0.043784667
197	0x3e2474ca	0.16060176
198	0x3c9635b9	0.018336164
199	0x3e29eda2	0.16594556
200	0x3e86e5f1	0.26347306
201	0x3d736c87	0.05942967
202	0x3e2974ca	0.16548458
203	0xbe810ed6	-0.2520663
204	0xbe8c4c61	-0.27402022
205	0xbc9070d2	-0.017631922
206	0x3d059081	0.032608513
207	0xbd972b19	-0.07381267
208	0xbdf43898	-0.11924857
209	0xbcf76dd5	-0.03020374
210	0x3e9d046d	0.3066744
211	0xbdd87eab	-0.10571035
212	0x3d105f7c	0.03524731
213	0x3e46d001	0.19415285
214	0xbd4c5333	-0.049884032
215	0x3e05d3c0	0.13069057
216	0x3e701781	0.23446466
217	0x3e1aab1f	0.1510434
218	0x3da81c55	0.08208529
219	0xbdab2098	-0.08355826
220	0xbdf0af22	-0.11752154
221	0xbe0cfab1	-0.13767506
222	0xbd83f06a	-0.0644234
223	0xbdb80494	-0.08985248
224	0x3e61516a	0.22003713
225	0xbdfa33f3	-0.1221694
226	0x3eb5411d	0.3540124
227	0xbdb0d946	-0.086351916
228	0x3e73a71b	0.23794214
229	0xbd7d3c7e	-0.061825268
230	0x3e52445e	0.20533893
231	0x3d03db18	0.032191366
232	0x3e4cb349	0.19990267
233	0xbd93145c	-0.071816176
234	0xbe2e1ae6	-0.17002448
235	0xbd4dc4c6	-0.050236486
236	0xbd5fdd90	-0.054654658
237	0xbe25936f	-0.16169523
238	0x3e874762	0.26421648
239	0x3e9c5ef2	0.30541188
240	0xbdc01d4a	-0.093805864
241	0xbe896898	-0.2683761
242	0x3d9ec573	0.07752504
243	0x3e22400f	0.15844749
244	0x3ded057a	0.1157331
245	0x3c9639fd	0.018338198
246	0xbd1aedcd	-0.03782444
247	0x3decd082	0.11563207
248	0x3dc8e68c	0.09809598
249	0x3e8e97d0	0.278502
250	0x3d5a8802	0.053352363
251	0xbe2f4d60	-0.1711936
252	0x3e77af7f	0.2418804
253	0x3e482ec9	0.19549097
254	0xbddc3197	-0.10751646
255	0xbdb5e350	-0.08881247

actor.2.bias f4 [64]
0	0xbe1360c0	-0.14392376
1	0x3cb6206e	0.02223226
2	0xbbff6957	-0.00779454
3	0x3df9998b	0.12187489
4	0x3dd08268	0.10181123
5	0x3e15fefe	0.14648053
6	0x3e0a8577	0.13527475
7	0x3d249cc4	0.040188566
8	0x3dd303fa	0.10303493
9	0x3d5872ad	0.05284374
10	0x3df13f1b	0.117796145
11	0x3e76e574	0.24110967
12	0x3e08d19d	0.13361211
13	0xba29c2cb	-0.0006475865
14	0xbd35c368	-0.044375807
15	0x3da7f3b6	0.08200781
16	0x3dbb90b6	0.09158461
17	0xbd066bce	-0.032817654
18	0x3cd51af3	0.026013827
19	0xbcc17995	-0.023617545
20	0xbdda91c2	-0.10672332
21	0x3cfb7dce	0.030699637
22	0x3dc44bb7	0.09584754
23	0xbc1e5945	-0.009664838
24	0x3d0d2414	0.034458235
25	0x3e31826f	0.17334913
26	0xbd55beeb	-0.052184027
27	0x3d789b94	0.060695246
28	0x3bdc393b	0.0067206896
29	0xbde39236	-0.11111872
30	0x3cda3f5e	0.026641544
31	0xbd1653f5	-0.03670116
32	0xbde8113d	-0.11331413
33	0x3d980c56	0.07424228
34	0x3c606a00	0.013697147
35	0xbe02f2fd	-0.12788005
36	0x3e5d8629	0.2163321
37	0x3dcc0692	0.09962191
38	0x3e495ebf	0.19665049
39	0x3c2428ee	0.010019524
40	0x3caede25	0.021346161
41	0x3c0589fd	0.008150575
42	0x3d995375	0.07486621
43	0x3dc758bb	0.09733721
44	0x3df41d5b	0.119196616
45	0x3e0a9265	0.13532408
46	0xbd9e5e21	-0.077327974
47	0x3daa8ffc	0.08328244
48	0xbcaca613	-0.021075284
49	0x3d8084ba	0.062753156
50	0xbddfca78	-0.1092729
51	0xbde518ce	-0.11186372
52	0x3dc8f0c7	0.0981155
53	0x3d092c39	0.03348944
54	0x3bb2f7f6	0.005461688
55	0x3e3924f1	0.18080498
56	0xbcfd65a7	-0.03093226
57	0x3df335d0	0.11875498
58	0xbd114eaf	-0.03547543
59	0x3e15b56a	0.14619985
60	0x3e0e478a	0.13894477
61	0x3d965ec2	0.07342292
62	0xbd611ad3	-0.054957222
63	0xbdf3c819	-0.119034

actor.4.weight f4 [36, 64]
0	0x3df30d4b	0.1186777
1	0x3f1d5b50	0.61467457
2	0xbe1fa665	-0.15590818
3	0x3e691839	0.22763146
4	0x3e47f26a	0.19526067
5	0xbda27bfc	-0.079338044
6	0xbf1203b8	-0.57036924
7	0xbe4a2475	-0.1974047
8	0xbd708f02	-0.058730133
9	0xbd1604b9	-0.036625598
10	0x3e7bb760	0.24581671
11	0xbe45b627	-0.19307767
12	0xbf0fb9f6	-0.5614313
13	0xbd0e78a4	-0.03478302
14	0xbe362edc	-0.17791313
15	0x3e08a0cd	0.1334259
16	0x3e8098f4	0.25116694
17	0xbdfe2924	-0.12410191
18	0xbf1ac0e5	-0.60450584
19	0x3e25f692	0.1620734
20	0x3dccbd17	0.099970035
21	0xbf1a38e1	-0.6024304
22	0xbec2cea7	-0.38048288
23	0x3e80af60	0.251338
24	0xbeafce1b	-0.34336933
25	0xbf268383	-0.6504442
26	0xbd9080dd	-0.07055829
27	0x3edd6687	0.43242285
28	0xbd770efd	-0.06031703
29	0x3d194225	0.037416596
30	0x3e805843	0.25067338
31	0x3e3ec7e4	0.1863094
32	0x3d9a857b	0.07544991
33	0x3e3957c0	0.1809988
34	0xbdbdc5d7	-0.092662506
35	0x3df2a49d	0.11847804
36	0xbe93773c	-0.28801906
37	0x3e0f0d89	0.13970007
38	0xbf253242	-0.6452981
39	0x3eb467f0	0.35235548
40	0xbc70d282	-0.0146986265
41	0x3d251cc6	0.040310644
42	0x3e358322	0.17725804
43	0xbe9da4d5	-0.3078982
44	0x3ee80dc4	0.45323002
45	0xbe4e7eee	-0.20165607
46	0xbed7e1bd	-0.42164412
47	0x3ede3e8f	0.43407103
48	0x3f0e8fc7	0.55688137
49	0x3d3e2657	0.046423282
50	0xbda297bf	-0.079390995
51	0x3eb384b5	0.35062185
52	0xbefacec4	-0.48985875
53	0xbe2934bb	-0.16524021
54	0xbd5fb704	-0.054617897
55	0x3dd7aeb6	0.1053137
56	0xbdded62e	-0.10880695
57	0x3e8b607c	0.2722205
58	0xbe437c23	-0.19090323
59	0xbef40938	-0.47663283
60	0xbe0f6910	-0.14004922
61	0x3d4bc9f4	0.049753144
62	0xbeeb36dc	-0.45940292
63	0xbd4d133b	-0.050067168
64	0xbdc0e601	-0.0941887
65	0xbeed0c56	-0.46298474
66	0x3e6a3db0	0.22875094
67	0xbe8af2ee	-0.27138466
68	0xbede0625	-0.43364063
69	0xbf33efb1	-0.70287615
70	0x3e956cf0	0.29184675
71	0xbd8022b6	-0.062566206
72	0x3e8ebcc5	0.27878395
73	0xbbafd43a	-0.0053658755
74	0xbe6353c9	-0.2219993
75	0xbf3e3c6f	-0.74310964
76	0x3ec6c505	0.3882219
77	0x3ecde330	0.40212393
78	0x3c76fa01	0.015074254
79	0xbee07acd	-0.4384369
80	0xbead9fe8	-0.3391106
81	0xbd43dbf1	-0.047817174
82	0x3d906d66	0.07052116
83	0x3df43ee9	0.11926062
84	0x3bc09896	0.0058775647
85	0xbea5395e	-0.3227033
86	0x3e21af30	0.15789485
87	0xbebec26c	-0.37257707
88	0x3ea20a3a	0.31648427
89	0xbeeca4db	-0.46219525
90	0x3e856d26	0.26059836
91	0x3d7882b5	0.060671527
92	0x3cccb4ce	0.024988558
93	0x3c4ceede	0.012508122
94	0xbe810b28	-0.25203824
95	0xbdb4958c	-0.08817586
96	0x3e33d009	0.17559828
97	0xbf1dc38d	-0.6162651
98	0xbd522030	-0.051300228
99	0x3d9f2d2d	0.077722885
100	0xbe6022a8	-0.2188822
101	0x3e58a28d	0.21155758
102	0xbe415e66	-0.18883666
103	0xbd820c65	-0.0635002
104	0x3ddfca13	0.109272145
105	0xbdf081b6	-0.117434904
106	0x3db295bb	0.08719965
107	0xbe7f3ac4	-0.24924761
108	0xbec22efa	-0.37926465
109	0xbf297baa	-0.6620432
110	0x3ee474f1	0.4462047
111	0x3ed5e286	0.41774386
112	0xbec66308	-0.3874743
113	0x3c2ffc3c	0.01074129
114	0x3e0868c4	0.13321215
115	0xbd67eccd	-0.056622315
116	0xbf058298	-0.52152395
117	0x3eb7d740	0.3590641
118	0x3e80d634	0.25163424
119	0x3ea44bed	0.32089177
120	0xbe16af43	-0.14715295
121	0xbf47fd92	-0.7812129
122	0xbd480792	-0.048835345
123	0xbee13e4b	-0.43992838
124	0x3e871bef	0.263885
125	0x3e7a67a8	0.24453604
126	0x3e83a698	0.25713038
127	0x3d950cc2	0.07277824
128	0xbdbefd37	-0.09325641
129	0x3de43e4e	0.11144696
130	0xbddf9ee2	-0.10918976
131	0x3d4f8733	0.050666045
132	0x3e6d6e18	0.23186529
133	0xbe9c959c	-0.30582893
134	0x3d301411	0.042987887
135	0x3eaf74df	0.34268853
136	0xbeeb2104	-0.45923626
137	0x3e8394fd	0.25699607
138	0xbdec51f2	-0.11539067
139	0xbe3a5367	-0.18195878
140	0x3e81304d	0.25232163
141	0x3d294ad2	0.04133112
142	0xbd48bec6	-0.04901006
143	0x3d6684bb	0.056278925
144	0xbe378821	-0.17923023
145	0xbda1192d	-0.0786613
146	0x3e106214	0.14099914
147	0xbeb8a25f	-0.3606138
148	0x3d85a0c7	0.065248065
149	0xbeb8e975	-0.36115614
150	0xbeaa603a	-0.3327654
151	0x3e7f3614	0.24922973
152	0xbeecf04b	-0.4627708
153	0xbc817889	-0.015804546
154	0xbee8ad6f	-0.4544482
155	0xbcf28d8d	-0.029608512
156	0xbd251fd5	-0.04031356
157	0xbcd7c99c	-0.026341252
158	0x3eb38333	0.35061035
159	0xbdc7ca92	-0.09755434
160	0x3e61d383	0.22053342
161	0x3e979be1	0.29611114
162	0x3ea8b64f	0.3295159
163	0x3dfb9cba	0.122857526
164	0xbeca668d	-0.39531365
165	0x3e94e90d	0.29084054
166	0xbee05fe0	-0.43823147
167	0x3d4568ac	0.048195526
168	0xbd84ce5d	-0.06484673
169	0xbdb5a483	-0.08869269
170	0xbe9fccf4	-0.31211054
171	0xbed03b17	-0.40670082
172	0x3e6a4f72	0.22881868
173	0xbeaa5deb	-0.3327478
174	0xbea36ebb	-0.31920418
175	0xbe46d391	-0.19416644
176	0x3e4ccb1e	0.19999358
177	0xbdab8412	-0.083748
178	0x3d3ee2e0	0.046603084
179	0xbd9b5e6c	-0.07586369
180	0xbe6c5962	-0.23080972
181	0x3ea0c16d	0.31397572
182	0x3eaba5a1	0.33524802
183	0x3dd23406	0.10263829
184	0xbcafebfe	-0.021474835
185	0xbed09505	-0.40738693
186	0x3eab1561	0.33414748
187	0xbea7a9a9	-0.32746628
188	0xbe878763	-0.2647048
189	0xbe49a3a8	-0.19691336
190	0xbec939f0	-0.39302015
191	0x3e88570b	0.2662891
192	0xbd434133	-0.0476696
193	0x3d9e4e51	0.077297814
194	0xbe491739	-0.19637765
195	0x3e3a33ea	0.18183866
196	0x3e2651ed	0.1624219
197	0x3df3ddb7	0.11907523
198	0xbdc8a1da	-0.09796496
199	0x3e3a0d06	0.1816903
200	0xbe973aad	-0.29536954
201	0x3e705be7	0.23472558
202	0x3d2ac361	0.041690234
203	0xbe29bba3	-0.16575484
204	0xbe03355f	-0.12813328
205	0x3e376c08	0.17912304
206	0x3da950c1	0.08267356
207	0xbe4fe560	-0.20302343
208	0x3e0434ae	0.1291072
209	0xbd0c5881	-0.03426409
210	0xbdfbca3e	-0.12294434
211	0x3e7b6e2c	0.24553746
212	0xbd5e4c4b	-0.054271977
213	0x3bb59d42	0.005542428
214	0xbe78e342	-0.24305442
215	0x3e2b1bdb	0.16709845
216	0xbe17a529	-0.14809097
217	0xbe9e2961	-0.30890945
218	0xbe4b10ce	-0.19830629
219	0xbe935de3	-0.28782567
220	0xbdf0eb43	-0.117636226
221	0x3cb2dcc8	0.021833792
222	0x3e4f66ad	0.20254011
223	0x3ec0d7ba	0.37664586
224	0x3e6010cf	0.21881412
225	0x3e418425	0.18898065
226	0x3e6a147c	0.22859377
227	0xbd87fab3	-0.06639614
228	0xbe9f9ac2	-0.31172758
229	0x3b99ef35	0.004697705
230	0xbe4bb509	-0.19893278
231	0x3e773697	0.24141918
232	0xbd0b5db0	-0.034024894
233	0x3c955c11	0.018232377
234	0xbe929098	-0.2862594
235	0xbe9aac98	-0.30209804
236	0x3d916fe4	0.071014196
237	0x3ce0d2ff	0.02744436
238	0xbe1d25b4	-0.15346414
239	0xbdb5e3ee	-0.08881365
240	0x3c999bc5	0.018751035
241	0xbd3a167e	-0.045431606
242	0x3d1e9b49	0.03872231
243	0x3eb09918	0.344918
244	0xbdcc704f	-0.09982359
245	0x3e190c32	0.14946058
246	0xbd8a1dcb	-0.06743964
247	0xbee16ef4	-0.44029963
248	0x3d9019d2	0.07036175
249	0xbebf877a	-0.37408048
250	0x3c0e0810	0.008668914
251	0xbd81d2ca	-0.06339033
252	0xbe10dd22	-0.14146855
253	0xbe31424f	-0.17310451
254	0x3d4be1f8	0.049776047
255	0x3e3575d6	0.17720732

actor.4.bias f4 [36]
0	0x3beb3c02	0.0071787843
1	0xbe179431	-0.14802624
2	0x3d0f9061	0.0350498
3	0xbe5412ea	-0.2071034
4	0x3e46f21b	0.19428293
5	0x3d8c0154	0.06836191
6	0x3cd64bfd	0.02615928
7	0x3c4cde3e	0.012504159
8	0x3d6328ee	0.055458955
9	0xbd85cd54	-0.06533304
10	0x3d6cb61e	0.057790868
11	0xbd97f5fd	-0.074199654
12	0x3e2581bf	0.16162775
13	0xbdb025dc	-0.08600971
14	0xbcdf039e	-0.027223404
15	0x3d9e0731	0.077162154
16	0xbe57654f	-0.2103474
17	0xbe2c24bc	-0.16810888
18	0xbe7151d7	-0.23566376
19	0xbe42a20c	-0.19007128
20	0xbe6a84c9	-0.22902216
21	0x3dee49db	0.116351806
22	0x3d85003a	0.06494184
23	0xbd3a0c4b	-0.04542188
24	0x3d94fce8	0.072748005
25	0x3c03ab0c	0.008036386
26	0x3caacd1e	0.02084976
27	0x3d8e82d7	0.069585495
28	0x3c741f2c	0.01490001
29	0x3d76a43f	0.06021523
30	0xbbf85ffb	-0.007579801
31	0x3e259b62	0.16172555
32	0xbdf364f5	-0.118844904
33	0xbde59d69	-0.11211664
34	0x3e284884	0.16433913
35	0x3e195679	0.14974393

critic.0.weight f4 [64, 62]
0	0x3cf82760	0.030292213
1	0xbdc72535	-0.097238936
2	0xbc3d02a8	-0.011536278
3	0xbdfcb1c0	-0.123385906
4	0x3d502beb	0.050823133
5	0xbdf6f62d	-0.12058673
6	0xbcf847b9	-0.030307638
7	0xbdc68146	-0.09692626
8	0x3d969ceb	0.073541485
9	0x3d83148f	0.064004056
10	0xbd1ecfee	-0.038772516
11	0xbd1e6db5	-0.038678844
12	0xbdd10a6c	-0.10207066
13	0x3e3103f6	0.17286667
14	0x3d31c311	0.04339892
15	0xbd46a60a	-0.04849819
16	0xbdeedd17	-0.11663263
17	0xbdf86014	-0.121277004
18	0xbda16920	-0.07881379
19	0xbddef32a	-0.108862236
20	0x3d8a13ac	0.06742033
21	0xbddae483	-0.106881164
22	0x3b0eddc0	0.0021799654
23	0xbd73fbc6	-0.05956628
24	0x3da4b072	0.08041467
25	0xbbb60e00	-0.005555868
26	0xbd7af924	-0.061272755
27	0xbdcb70e0	-0.099336386
28	0xbd9d0d6b	-0.07668575
29	0x3d8c4b75	0.0685033
30	0xbbd2e575	-0.006436045
31	0xbcdc0f6c	-0.026862822
32	0xbdfcafa8	-0.12338191
33	0xbd1acaee	-0.037791185
34	0x3dff6a9c	0.12471506
35	0xbcd8f46c	-0.026483737
36	0xbc150cec	-0.009097319
37	0xbda14ae1	-0.0787561
38	0x3cfe599f	0.031048594
39	0x3d4a1663	0.049337756
40	0xbde9afe9	-0.11410505
41	0xbc265647	-0.010152406
42	0xbd61aeeb	-0.055098455
43	0x3da0636c	0.07831463
44	0x3ceebf1e	0.029143866
45	0xbe0c16a7	-0.13680516
46	0x3dd9ef12	0.10641302
47	0x3cdcaae9	0.026936965
48	0x3bc9f0d1	0.0061627408
49	0x3dcef5f7	0.10105508
50	0xbe013844	-0.1261912
51	0xbdaa44f3	-0.08313932
52	0x3d072b08	0.033000022
53	0xbcd85183	-0.026406055
54	0x3bfa673c	0.007641701
55	0xbd914494	-0.07093158
56	0xbdce3008	-0.10067755
57	0x3df623d6	0.12018554
58	0xbe0ba799	-0.13638152
59	0xbd97afb2	-0.07406558
60	0xbd1149b9	-0.035470698
61	0xbe14448f	-0.14479278
62	0xbab6e080	-0.0013952404
63	0xbcb10f24	-0.021613665
64	0x3bb7e8c0	0.0056124628
65	0xbdac5f4c	-0.08416614
66	0x3baa5917	0.0051986086
67	0x3ded1436	0.115761206
68	0x3d9cd5ce	0.076579675
69	0xbd02f77b	-0.031974297
70	0xbe9153a1	-0.28384116
71	0xbe5a51c9	-0.21320261
72	0xba730a17	-0.0009271218
73	0xbdc1e450	-0.09467375
74	0xbd8b7ab4	-0.06810513
75	0x3d10aa7c	0.035318837
76	0x3e27bf1d	0.16381498
77	0x3b9d464b	0.0047996393
78	0xbd9a073c	-0.07520911
79	0x3d8bf6b2	0.06834163
80	0xbc1bd720	-0.009511739
81	0x3d2e8240	0.042604685
82	0x3d9dce10	0.07705319
83	0x3c889160	0.016670883
84	0x3d2928b4	0.041298583
85	0xbc0e0528	-0.0086682215
86	0xbd411aa4	-0.047144547
87	0xbcdc2938	-0.026875123
88	0xbc707860	-0.014677137
89	0x3d6d7a9c	0.057978258
90	0xbcf20657	-0.029544039
91	0x3d8dcef5	0.069242395
92	0x3e156d40	0.14592457
93	0x3e8150ab	0.25256857
94	0xbdb4a0aa	-0.08819707
95	0x3dbc86be	0.092053875
96	0x3d5752ec	0.052569315
97	0xbd996d2e	-0.074915275
98	0xbe6d37d8	-0.23165834
99	0xbde1c911	-0.110246785
100	0x3e074652	0.13210419
101	0xbdfd1700	-0.123579025
102	0x3d15c549	0.0365651
103	0x3d922cb3	0.07137432
104	0xbe3aad82	-0.1823025
105	0xbe06fe29	-0.13182892
106	0xbd8343f5	-0.06409446
107	0xbbb96686	-0.0056579737
108	0x3cc83784	0.024440534
109	0xbd116ba2	-0.035503037
110	0xbdd0fd3b	-0.1020455
111	0x3e0ac868	0.13553011
112	0xbde75200	-0.11294937
113	0xbe0b1152	-0.13580826
114	0x3ca2d708	0.019877926
115	0xbe263966	-0.16232833
116	0xbe599c4c	-0.21251029
117	0x3c26ec0e	0.010188116
118	0x3e5838df	0.21115445
119	0x3d2618a4	0.040550843
120	0x3dcd5d58	0.100275695
121	0xbd205f52	-0.039153405
122	0xbb97b932	-0.0046302313
123	0x3d5d43f8	0.0540199
124	0xbdd8e829	-0.10591156
125	0xbdd37690	-0.103253484
126	0xbcb55220	-0.022133887
127	0xbdf8a6ab	-0.121411644
128	0xbdd97952	-0.10618843
129	0xbda19a0d	-0.07890711
130	0x3d9af88b	0.07566937
131	0xbdba365d	-0.090924
132	0xbe20cf3a	-0.1570405
133	0xbda8692a	-0.082231835
134	0xbbd4070c	-0.0064705666
135	0xbe86c147	-0.26319334
136	0x3a9b3db9	0.0011843956
137	0x3e32cc33	0.17460708
138	0xbda7f0d7	-0.082002334
139	0xbce7ab02	-0.028279785
140	0x3dd922b4	0.10602322
141	0x3d0f82dc	0.035036907
142	0x3c0852b0	0.0083204955
143	0x3de6e010	0.11273205
144	0xbca7a4d4	-0.020464338
145	0xbda5d16f	-0.08096587
146	0xbd02f3ae	-0.031970672
147	0x3d2f0508	0.042729408
148	0xbcaff554	-0.021479286
149	0x3ce7b7f8	0.028285965
150	0x3cca83d8	0.024721071
151	0xbdec1a7e	-0.115284905
152	0x3e6968cf	0.22793888
153	0x3e8af1e4	0.27137673
154	0x3c8f03e2	0.017457906
155	0x3e98f6bd	0.29875746
156	0xbdcd514a	-0.1002527
157	0x3c05b1c0	0.008160055
158	0xbd468bbc	-0.048473105
159	0x3d281fb0	0.041045845
160	0x3da80df8	0.08205789
161	0x3e5c7090	0.21527314
162	0xbd89be93	-0.06725802
163	0xbdcd579f	-0.10026478
164	0xbd00e873	-0.03147168
165	0x3d1c8e01	0.038221363
166	0xbd9b094d	-0.07570133
167	0xbe14fec2	-0.14550307
168	0xbdfe296c	-0.12410244
169	0xbd9ab668	-0.075543225
170	0x3e434b02	0.19071582
171	0xbd1f3af2	-0.038874574
172	0xbda3efdd	-0.08004735
173	0xbdc9ac89	-0.098473616
174	0xbd9a894c	-0.075457186
175	0xbb7f08ed	-0.0038915232
176	0x3d8755e2	0.06608178
177	0xbd8939f2	-0.06700505
178	0x3d346793	0.04404409
179	0x3d0550a8	0.032547623
180	0x3eb37881	0.35052875
181	0xbdbbac77	-0.091637544
182	0xbddb9a59	-0.10722799
183	0xbde29ef5	-0.11065475
184	0xbdb9e365	-0.09076575
185	0xbdcf2341	-0.10114146
186	0x3d95d80a	0.07316597
187	0x3d995094	0.07486072
188	0x3da14b84	0.078757316
189	0x3b0a5ac0	0.002111122
190	0x3e06f1e1	0.13178207
191	0x3db82507	0.089914374
192	0xbe6487d4	-0.2231744
193	0xbe28334c	-0.16425818
194	0x3d9647cd	0.07337914
195	0xbdc2a55d	-0.09504197
196	0xbe8e716a	-0.27820903
197	0xbeba9d99	-0.36448362
198	0xbd121243	-0.035661947
199	0xbc988fcb	-0.018623253
200	0x3dac713f	0.084200375
201	0x3da6ba40	0.08140993
202	0x3d363048	0.04447964
203	0x3d6c8e80	0.057753086
204	0xbd854bbe	-0.06508587
205	0xbcab27ac	-0.02089294
206	0xbdee2162	-0.11627461
207	0xbdcd474f	-0.10023367
208	0x3db46c04	0.08809665
209	0xbd0953fc	-0.03352736
210	0xbdbf4c60	-0.09340739
211	0xbdde5e60	-0.10857844
212	0x3cda4000	0.026641846
213	0x3dd41a44	0.10356572
214	0xbc958bea	-0.018255193
215	0x3d71957d	0.058980454
216	0xbb0478a5	-0.0020213511
217	0xbda10ce9	-0.078637905
218	0x3cb5e660	0.022204578
219	0x3d2729a8	0.04081121
220	0xbd558310	-0.052126944
221	0x3da02e2a	0.07821305
222	0x3c3a4a63	0.011370274
223	0xbd89b7b1	-0.067244895
224	0xbdc60d7c	-0.09670541
225	0xbe39e263	-0.18152766
226	0xbd2ea1ea	-0.042634882
227	0xbbd579c7	-0.006514761
228	0xbe106a7d	-0.14103122
229	0xbd8fa49e	-0.0701382
230	0x3d23b92d	0.03997152
231	0xbd336406	-0.04379656
232	0x3d2a0f4c	0.041518494
233	0xbdae2a3d	-0.0850415
234	0x3cdb272f	0.026752083
235	0xbde18af0	-0.11012828
236	0x3dd86e10	0.10567868
237	0xbdbd07af	-0.09229981
238	0xbcb1e638	-0.021716222
239	0xbd5a2079	-0.053253625
240	0xbd30a9da	-0.043130733
241	0x3d8a66f2	0.067579165
242	0xbdee4213	-0.116336964
243	0x3d5ff414	0.05467613
244	0x3da75146	0.081697986
245	0xbcc580ea	-0.024109323
246	0xbdc062b7	-0.09393828
247	0xbd7ec392	-0.06219823
248	0x3b634780	0.0034680068
249	0xbd8fc7c0	-0.07020521
250	0x3c1790a0	0.00925079
251	0x3da0a14c	0.07843265
252	0xbd6f3512	-0.05840022
253	0xbe672ac9	-0.22574915
254	0xbe9c7610	-0.30558825
255	0xbeb8b699	-0.3607681

critic.0.bias f4 [64]
0	0xbe239681	-0.15975381
1	0xbdee047c	-0.11621949
2	0x3d0e27c9	0.03470591
3	0x3e1162fc	0.14197916
4	0x3ddc5c0b	0.10759743
5	0x3c0e25d9	0.008676016
6	0x3d87dc30	0.06633794
7	0xbc3f7e77	-0.011687866
8	0x3a5e7019	0.0008485332
9	0x3e4fbd31	0.20287015
10	0x3cb50ece	0.022101786
11	0xbdd5b697	-0.10435217
12	0x3e248e19	0.16069831
13	0xbe26e85a	-0.16299573
14	0x3d822905	0.0635548
15	0x3da3ee5d	0.080044486
16	0xbc868bb6	-0.016424041
17	0x3e0f3643	0.13985543
18	0xbe2faac2	-0.17154983
19	0x3db02dab	0.086024605
20	0xbd939cbc	-0.07207629
21	0xbd079f5c	-0.03311096
22	0x3ddef668	0.10886842
23	0xbe5a8c3e	-0.2134256
24	0x3d7c97a8	0.06166807
25	0xbdc8333a	-0.09775396
26	0xbd468583	-0.04846717
27	0xbe0b7d33	-0.13621978
28	0xbd81393d	-0.063097455
29	0xbe0f36fb	-0.13985817
30	0xbd915147	-0.070955805
31	0xbdde6990	-0.10859978
32	0xbd828b27	-0.063741975
33	0xbce2c99a	-0.027684022
34	0xbe38e5c1	-0.18056394
35	0x3eb6c719	0.35698774
36	0xbe7a99dd	-0.24472757
37	0xbd3d3f5b	-0.046203
38	0xbe00e155	-0.12585957
39	0xbdb42a83	-0.08797171
40	0x3d01c498	0.031681627
41	0xbe3ce2b6	-0.18445858
42	0xbd08d3bd	-0.033405054
43	0xbe5975de	-0.21236369
44	0xbe0a1e07	-0.13488017
45	0x3c7e0a73	0.015505421
46	0xbd15f73f	-0.036612745
47	0xbcd8c4cb	-0.026461026
48	0x3dde5099	0.108552165
49	0xbe294535	-0.16530307
50	0xbce429d3	-0.027851975
51	0x3db48425	0.08814267
52	0xbd66add8	-0.056318134
53	0xbe18242c	-0.14857548
54	0xbe369c19	-0.17832984
55	0xbd3f0369	-0.04663411
56	0xbde0873d	-0.10963295
57	0xbd0a4da7	-0.03376546
58	0xbd96198d	-0.07329092
59	0xbe018239	-0.12647332
60	0xbd91d845	-0.07121328
61	0xbc826dc2	-0.015921477
62	0xbdc3c609	-0.095592566
63	0x3daa8116	0.083254024

critic.2.weight f4 [64, 64]
0	0xbc165536	-0.009175589
1	0x3ddf0f48	0.108915865
2	0x3d1f1a0e	0.038843207
3	0xbe1a80fc	-0.15088266
4	0xbe0018bf	-0.1250944
5	0xbc59aa09	-0.013285168
6	0x3db3bf77	0.087767534
7	0x3d72accc	0.059246823
8	0x3df16c26	0.11788206
9	0x3d95511e	0.072908625
10	0xbdbc0feb	-0.091827236
11	0xbd8b2c29	-0.06795532
12	0xbbeaafa8	-0.007162053
13	0x3cd43566	0.025904369
14	0xbe13e09c	-0.1444115
15	0xbd6c2507	-0.0576525
16	0xbdeed24a	-0.11661203
17	0xbe819da0	-0.2531557
18	0x3d6740d1	0.056458298
19	0x3e48a00c	0.19592303
20	0x3e5be7e6	0.21475181
21	0xbd9983df	-0.074958555
22	0x3e86f442	0.2635823
23	0xbba7bb0c	-0.0051187333
24	0x3e1e32a0	0.15449
25	0xbe04b900	-0.12961197
26	0x3e419ee7	0.18908273
27	0x3daf993e	0.085741505
28	0x3ddb4927	0.10707312
29	0xbd92d10f	-0.07168781
30	0xbd8a2f23	-0.06747272
31	0x3d9b08f3	0.07570066
32	0x3e8c8348	0.2744391
33	0x3cfa1c5e	0.030531105
34	0x3d3e15e1	0.046407584
35	0xbe5d9a40	-0.21640873
36	0xbe62561b	-0.22103159
37	0x3dafd353	0.08585229
38	0x3ceb84ab	0.028749784
39	0x3dbbb422	0.09165217
40	0x3e21f828	0.1581732
41	0x3d6d5d6c	0.057950422
42	0x3d4c3a6d	0.049860407
43	0x3e0264a6	0.12733707
44	0xbdf1159d	-0.117717005
45	0xbd2ed2c8	-0.042681485
46	0xbd94189e	-0.07231258
47	0xbe117534	-0.14204866
48	0x3d9370e1	0.07199264
49	0xbe17427f	-0.1477146
50	0x3e268b13	0.1626399
51	0x3d5e1a3a	0.05422423
52	0xbe0568cd	-0.1302826
53	0x3c72153e	0.014775572
54	0x3e211647	0.15731154
55	0x3d057584	0.032582775
56	0xbdd732fd	-0.10507772
57	0xbba693b2	-0.0050835246
58	0x3a45fb93	0.0007552441
59	0x3d1bdec0	0.038054228
60	0x3d3ff177	0.04686114
61	0xbc815b5b	-0.015790632
62	0x3da115c2	0.07865478
63	0x3d4c9e22	0.049955495
64	0xbda87a50	-0.08226454
65	0x3e23e304	0.16004568
66	0x3cc162b6	0.02360664
67	0x3dfab588	0.122416556
68	0xbe866216	-0.2624671
69	0xbd483b9e	-0.04888498
70	0x3e652c39	0.22380151
71	0x3de40ae2	0.11134888
72	0x3e3b02fc	0.18262857
73	0x3d8e62d4	0.06952444
74	0xbd814949	-0.06312806
75	0x3e1430c2	0.14471725
76	0xbd203828	-0.039116055
77	0xbb90f208	-0.0044233836
78	0xbe041282	-0.12897685
79	0xbce04e4d	-0.027381087
80	0xbe089836	-0.13339314
81	0xbe4805d1	-0.19533469
82	0x3e383d7d	0.17992206
83	0x3e8a241d	0.26980677
84	0x3de17001	0.11007691
85	0xbc5ad5f3	-0.0133566735
86	0x3ea35641	0.31901744
87	0xbda9dbd3	-0.08293881
88	0x3de41d18	0.11138362
89	0xbdac1d57	-0.08404034
90	0x3e4c22ad	0.19935103
91	0x3c57b453	0.013165551
92	0x3db4d82f	0.08830296
93	0x3d226eb9	0.039656375
94	0xbd137e65	-0.03600921
95	0x3d282c35	0.041057784
96	0x3e8c9f60	0.27465343
97	0x3ec1787b	0.37787232
98	0x3da645c9	0.08118779
99	0xbc93dbeb	-0.018049201
100	0xbd919351	-0.071081765
101	0xbc43545d	-0.011921969
102	0x3e083748	0.13302338
103	0x3d6aa2cf	0.057284173
104	0x3e17de50	0.14830899
105	0x3d29d1aa	0.041459717
106	0xbc6c1de9	-0.014411428
107	0xbbc939d4	-0.006140927
108	0x3cc71be3	0.02430529
109	0xbdcca4bb	-0.09992357
110	0xbd9fd38f	-0.078040235
111	0x3e2a8e2b	0.16655795
112	0x3d11e927	0.035622742
113	0xbda30f80	-0.07961941
114	0x3e9cb376	0.30605668
115	0xbde81937	-0.11332934
116	0xbbd3aeae	-0.0064600324
117	0x3dc57fb1	0.09643496
118	0x3d540ab2	0.051768012
119	0x3e88dc6b	0.26730666
120	0xbd92fa06	-0.071765944
121	0x3e0a27c0	0.13491726
122	0x3dd71b25	0.10503224
123	0x3c2d13b6	0.0105637815
124	0x3c543b7a	0.012953633
125	0x3d0a8d2d	0.033826042
126	0x3dd860e6	0.10565357
127	0x3d78f984	0.06078483
128	0xbd5aec26	-0.053447865
129	0xbd0297d0	-0.03188306
130	0xbd7216f5	-0.059103925
131	0xbc29d859	-0.010366523
132	0x3bba81c2	0.005691738
133	0x3d714006	0.058898948
134	0x3dbe1d3f	0.09282922
135	0xbe377f04	-0.17919546
136	0xbe090f8d	-0.13384838
137	0x3c81e83f	0.015857814
138	0x3e23dfa8	0.16003287
139	0xbd35f1ce	-0.044420056
140	0x3c79843f	0.015229284
141	0xbdaec61d	-0.08533881
142	0x3d34fe73	0.044187974
143	0xbdf4de4f	-0.119564645
144	0x3dc02dd1	0.09383739
145	0xbdd31b99	-0.10307998
146	0xbd80cfff	-0.06289672
147	0xbda71602	-0.081584945
148	0xbd004de4	-0.031324282
149	0x3ded8c13	0.11598983
150	0x3d83f6f9	0.06443591
151	0xbe0da0fd	-0.13830943
152	0xbddd0e1b	-0.10793706
153	0x3dc0541c	0.093910426
154	0xbdd7aed9	-0.105313964
155	0xbda163f9	-0.078803964
156	0xbd219811	-0.039451662
157	0xbdd214e4	-0.10257891
158	0xbda6dd02	-0.08147623
159	0xbcf9a234	-0.030472852
160	0xbd41c1f9	-0.047304127
161	0x3dfdc606	0.123912856
162	0xbd9a25da	-0.07526751
163	0x3cb88aca	0.022527117
164	0xbca9cf0a	-0.020728607
165	0xbe56a170	-0.20960021
166	0x3d8e1427	0.069374375
167	0xbd5c1e3b	-0.053739768
168	0xbd4e2187	-0.050324943
169	0x3c0f7a1c	0.0087571405
170	0xbe0c969f	-0.13729332
171	0xbce4b4e4	-0.027918287
172	0xbd3eb702	-0.04656125
173	0x3dd8c856	0.10585086
174	0xbdceb3b6	-0.10092871
175	0x3c9dd115	0.019264737
176	0xbe977924	-0.2958461
177	0xbde530f9	-0.111909814
178	0xbda8975c	-0.082319945
179	0xbd96cba3	-0.07363059
180	0xbd0edfe8	-0.034881502
181	0x3bb37fee	0.005477897
182	0xbc2b150b	-0.010442029
183	0xbe38e938	-0.18057716
184	0x3d58c5a1	0.05292285
185	0x3cfd1443	0.03089345
186	0x3d3a3ffc	0.045471177
187	0xbbefcf00	-0.0073183775
188	0xbdd2de6b	-0.10296329
189	0xbd056f4e	-0.03257685
190	0x3d81331e	0.06308578
191	0xbde8f03b	-0.11373945
192	0xbd5cc505	-0.05389883
193	0xbcee9200	-0.029122353
194	0xbce77583	-0.028254276
195	0xbe470044	-0.19433695
196	0x3cff6119	0.03117423
197	0xbba2a1f0	-0.004963152
198	0x3d8b0455	0.06787936
199	0xbe3e019b	-0.185553
200	0xbe55e4e6	-0.20888099
201	0x3cedd841	0.029033782
202	0xbe007789	-0.12545599
203	0xbd7953d4	-0.06087096
204	0xbe14af8c	-0.14520091
205	0xbd647a84	-0.055780903
206	0x3b8908ce	0.004181958
207	0xbe0b8e74	-0.1362856
208	0xbd21fee3	-0.03954972
209	0xbd3181e5	-0.043336768
210	0xbd88cbfe	-0.066795334
211	0xbc403b61	-0.011732907
212	0xbcf7aa23	-0.030232495
213	0x3cf8bac5	0.030362496
214	0xbd958e4b	-0.07302531
215	0xbde973b4	-0.11399022
216	0xbc801e91	-0.015639575
217	0x3d861603	0.06547167
218	0xbe040f4c	-0.1289646
219	0x3d8d4607	0.06898122
220	0xbd94023e	-0.0722699
221	0x3cc0eab1	0.02354941
222	0x3c5849fc	0.013201233
223	0xbe0c94d0	-0.13728642
224	0x3da2afc5	0.07943682
225	0xbdea68ca	-0.11445768
226	0xbd84c4d2	-0.06482853
227	0x3da2d7bd	0.07951305
228	0x3d65a858	0.05606875
229	0xbd4b5755	-0.049643833
230	0xbe01ff30	-0.12695003
231	0xbe2571cb	-0.1615669
232	0xbdef1135	-0.11673204
233	0x3c7ec3ed	0.015549642
234	0xbcb929c7	-0.022602929
235	0xbe015007	-0.12628184
236	0x3d6ac29a	0.057314493
237	0x3d7c0771	0.061530534
238	0x3d42a2b2	0.04751844
239	0xbd5f8b1e	-0.054576032
240	0xbe2765a5	-0.16347368
241	0xbd48668a	-0.048925914
242	0xbdb911d5	-0.09036604
243	0xbd3093eb	-0.043109816
244	0x3d26ea59	0.040750835
245	0xbd8a1c33	-0.0674366
246	0x39ecaae3	0.00045140748
247	0x3d9448be	0.07240437
248	0xbd100f6f	-0.03517097
249	0x3d8f9637	0.07011073
250	0xbca32481	-0.019914867
251	0xbc1b2272	-0.009468662
252	0xbdd2b498	-0.10288352
253	0x3cd0f2bb	0.025506368
254	0x3d5f12a5	0.05446114
255	0x3cc38ab2	0.023869846

critic.2.bias f4 [64]
0	0x3ca988c7	0.020695103
1	0xbdb8d9c6	-0.09025912
2	0xbe44ce9d	-0.19219442
3	0xbd2cd946	-0.042199396
4	0xbe0735ca	-0.13204113
5	0x3c3b9632	0.011449384
6	0x3e23788d	0.15963955
7	0x3e3bbaea	0.18333021
8	0x3e2e0dfb	0.1699752
9	0xbdb94cbd	-0.0904784
10	0xbd81ab1c	-0.06331465
11	0xbda86bdc	-0.082236975
12	0x3c872568	0.016497329
13	0x3d6aa287	0.057283904
14	0x3a80596f	0.0009792278
15	0xbdb8777a	-0.09007163
16	0x3d1b53be	0.03792166
17	0x3dc2c78c	0.09510717
18	0xbd859172	-0.06521882
19	0xbd8e4703	-0.06947138
20	0xbcd3ddb7	-0.025862558
21	0x3c8f783d	0.017513389
22	0x3d55b1e4	0.052171603
23	0xbd99c2f7	-0.0750789
24	0xbdeee7ed	-0.1166533
25	0xbd0ffccd	-0.0351532
26	0x3cbc051e	0.022951659
27	0xbc5984f2	-0.013276326
28	0xbdc69efe	-0.09698294
29	0xbdbf4c64	-0.09340742
30	0xbd4b0fd0	-0.049575627
31	0x3d760531	0.060063545
32	0xbe22842b	-0.1587073
33	0x3d206774	0.03916116
34	0x3d04a6d9	0.03238568
35	0xbcd010aa	-0.025398571
36	0x3b95a023	0.004566209
37	0xbdb9e2ff	-0.09076499
38	0xbdcef4d2	-0.101052895
39	0x3e444cce	0.19169924
40	0x3cbab33d	0.022790546
41	0xbd2dc957	-0.04242834
42	0xbde7988b	-0.11308392
43	0xbdb7c735	-0.089735426
44	0x3ca00b85	0.019536743
45	0x3d3399d5	0.043847878
46	0x3d8b77b2	0.068099394
47	0xbb4cbd93	-0.0031240925
48	0x3c694f6f	0.01424013
49	0x3e14c197	0.14526974
50	0xbdd3dadb	-0.10344478
51	0x3de6c90d	0.11268816
52	0xbc179ccf	-0.009253695
53	0xbc067e40	-0.008208811
54	0xbd79bec3	-0.06097294
55	0xbe025841	-0.12728979
56	0x3dc29d54	0.09502664
57	0xbc276e89	-0.010219225
58	0xbd2dace9	-0.042401228
59	0x3c1570b1	0.009121106
60	0xbd92a33f	-0.07160043
61	0xbdebb188	-0.11508471
62	0xbd74ab78	-0.059733838
63	0x3da1269c	0.07868692

critic.4.weight f4 [1, 64]
0	0xbc51246f	-0.012765034
1	0xbdf8b596	-0.1214401
2	0x3d746d06	0.059674285
3	0xbc78b5ef	-0.015180095
4	0xbdef15ba	-0.11674066
5	0xbcf6c114	-0.030121364
6	0xbdda1013	-0.10647597
7	0xbe04ea3a	-0.12979975
8	0x3de54b46	0.11195998
9	0xbe1a3884	-0.15060622
10	0xbdddbe21	-0.1082728
11	0x3daca72c	0.08430323
12	0xbd14c208	-0.036317855
13	0x3aedb38d	0.0018135175
14	0xbd536291	-0.051607672
15	0xbcacb814	-0.021083869
16	0x3c7276f7	0.014798871
17	0x3bc082bd	0.00587496
18	0xbc6b025e	-0.014343826
19	0xbca775f8	-0.020441994
20	0xbdd2c74f	-0.10291921
21	0xbb0d9abd	-0.0021607124
22	0x3c2c168e	0.010503424
23	0xbd706658	-0.058691353
24	0x3cd3cf48	0.025855675
25	0x3c0132a2	0.007885607
26	0xb7bd00c0	-2.2530905e-05
27	0xbda22822	-0.07917811
28	0x3dfc186e	0.12309347
29	0x3b607750	0.0034250803
30	0x3c26486a	0.010149101
31	0x3d7683d8	0.06018433
32	0xbde3aa51	-0.1111647
33	0xbcf0d6c7	-0.029399289
34	0xbad8d6d3	-0.0016543515
35	0xbd894108	-0.06701857
36	0x3bb9ae7d	0.0056665526
37	0xba0ba8fa	-0.00053276087
38	0x3c6a2b9a	0.014292622
39	0x3db11606	0.08646779
40	0x3cd1600e	0.025558498
41	0x3e1c3177	0.15253244
42	0x3d3dbbef	0.046321806
43	0xbc8716e1	-0.016490402
44	0xbd5398fe	-0.051659577
45	0xbdda6dcc	-0.10665473
46	0x3c07ca63	0.008287999
47	0x3b5a60d7	0.0033321881
48	0xbc0c4265	-0.008560752
49	0x3dc033b3	0.09384861
50	0xbdbf0e23	-0.09328868
51	0x3da0e577	0.07856267
52	0xbdb12130	-0.08648908
53	0xbe1ac50f	-0.15114234
54	0x3c79487a	0.015215034
55	0x3cf74807	0.030185713
56	0x3d9e9913	0.0774404
57	0xbdda76ac	-0.10667166
58	0xbaa74e33	-0.0012764394
59	0xbba19f72	-0.0049323374
60	0xbe1322f9	-0.1436881
61	0xbd80a414	-0.062812954
62	0x3d4e8df6	0.050428353
63	0x3d81fbd2	0.06346859
