Models/Reward_shaping_vm/RS_baseline_meander_vm_1_0/67000.pth (torch, 78437 bytes, 11 tensors)

actor.0.weight f4 [64, 62]
0.13490693 -0.07197672 -0.21155126 -0.08343377 -0.20640682 0.5279577 0.23662175 0.72687703
0.03981111 0.120791696 0.24229914 0.28112805 0.48430046 0.26130173 -0.08994705 0.44176632
0.015346691 -0.06780641 0.11101928 0.011816063 0.016757293 -0.0746119 -0.02128721 -0.09490022
0.07778798 0.1181118 0.0757083 0.034281556 0.10211967 0.054368947 -0.24607997 0.06640704
-0.09505175 -0.24171618 -0.12075278 -0.07195787 0.12102221 0.079609744 -0.23086442 -0.44448978
0.16577373 -0.18737318 0.39875454 0.14292447 -0.28002262 -0.21642183 0.028027529 -0.080957845
-0.17415713 -0.08008605 0.08937495 0.19303964 0.034756362 0.02120448 0.20207445 0.05839448
0.040750016 -0.12515284 0.053584743 0.10308301 -0.096838124 0.07073675 0.0329752 0.11617754
-0.082776025 -0.047907066 0.015704473 0.032272507 -0.1358822 -0.1251947 0.03304602 -0.03603256
0.03836456 -0.04575462 0.064033516 0.020643732 -0.02181198 0.046127517 -0.10268666 0.08104115
-0.089296736 -0.116743036 -0.032299403 -0.031443425 0.07459022 -0.09154329 -0.17562298 0.028328743
-0.018831812 0.05786621 0.03537892 -0.14491095 0.017695535 -0.02504082 -0.113855235 -0.089079246
0.04330395 -0.034995705 -0.10557374 -0.093459204 0.06557641 -0.05497479 0.10148642 0.10554919
-0.10186318 -0.10656306 0.065792724 -0.02014627 0.034370985 -0.012018491 0.016973007 0.07450278
0.07426321 -0.08084245 -0.05269136 0.060838997 0.027912669 0.024197452 -0.13344893 -0.13621879
-0.13487317 -0.07551493 0.0061068106 -0.17016163 0.01509612 -0.11237087 -0.035910632 -0.14641117
0.1631948 0.07640528 0.00683822 0.025170607 0.46269673 0.45529848 0.47609925 0.6182527
0.4146465 -0.005269215 -0.2693939 -0.31976187 -0.09651709 0.020649664 -0.07784501 0.079319514
0.13335744 0.0074794814 0.04881133 0.013086643 0.035744634 0.04474865 -0.04300894 0.1561398
-0.006889422 0.44489273 -0.24959785 -0.06044443 -0.074711785 -0.090755686 0.09029323 -0.01881251
-0.3008018 -0.21176657 0.20038079 0.44475472 -0.026161896 -0.1021039 -0.23778367 -0.13975307
0.06897601 0.009310426 -0.085434906 -0.16000754 -0.30567995 -0.30147427 0.31070644 0.5942713
-0.058452524 0.06642795 -0.013366214 0.08188893 -0.2478309 -0.03461174 -0.11906757 -0.059806526
-0.08183864 0.09124889 -0.24224375 -0.22830376 0.0018710643 -0.17670985 0.2329276 -0.1923908
-0.22834365 -0.26555094 0.36259383 0.20391406 0.43630072 0.6307608 0.6564175 -0.051826276
-0.17548239 0.08070378 0.064954124 -0.051161777 0.076498866 0.0037454714 0.18912631 0.1314081
0.021589324 0.09035736 0.045048155 -0.0045744632 -0.114239745 0.10668653 0.529685 0.47721532
0.099932574 0.048461497 -0.3597583 -0.21631335 -0.09673073 0.09762373 -0.048806857 -0.11298641
0.23338845 0.5211077 -0.40781784 -0.22889706 0.54677814 0.65229017 0.16072384 0.08485942
0.40759408 0.32354152 0.025201956 0.061361477 -0.24261266 -0.2796639 -0.007655867 -0.05453874
0.091274686 0.052951038 0.034410298 0.07430808 0.037535626 0.04943632 -0.038561266 -0.016794225
-0.040272154 -0.054141175 0.03266933 -0.21491852 -0.0060043097 -0.16519168 -0.18937448 -0.67982966
00000000: 0b25 0a3e 8868 93bd e5a0 58be 53df aabd
00000010: 4f5c 53be 3c28 073f f94c 723e 9d14 3a3f
00000020: f910 233d a361 f73d 441d 783e 04f0 8f3e
00000030: 3bf6 f73e 57c9 853e 2936 b8bd 322f e23e
00000040: b070 7b3c 16de 8abd 145e e33d 2998 413c
00000050: 9746 893c 20ce 98bd 8462 aebc 0c5b c2bd
00000060: 4e4f 9f3d 99e4 f13d f40c 9b3d d16a 0c3d
00000070: 1e24 d13d f9b1 5e3d 63fc 7bbe 6a00 883d
00000080: 7eaa c2bd 7284 77be 3c4d f7bd a65e 93bd
00000090: 7eda f73d 6f0a a33d b967 6cbe 2a94 e3be
000000a0: 97c0 293e c1de 3fbe 8e29 cc3e cb5a 123e
000000b0: 205f 8fbe af9d 5dbe fd99 e53c 3acd a5bd
000000c0: 3f56 32be 2804 a4bd 370a b73d 2fac 453e
000000d0: b05c 0e3d 05b5 ad3c 9bec 4e3e 0d2f 6f3d
000000e0: 7de9 263d 1128 00be ad7b 5b3d 2f1d d33d
000000f0: 1153 c6bd 6ede 903d 0111 073d 7dee ed3d
00000100: 7a86 a9bd 333a 44bd aba6 803c 2d30 043d
00000110: b424 0bbe 0a33 00be 435b 073d e196 13bd
00000120: 2824 1d3d 3269 3bbd 0124 833d 0b1d a93c
00000130: 0aaf b2bc 35f0 3c3d 624d d2bd e7f8 a53d
00000140: 35e1 b6bd f916 efbd 614c 04bd d2ca 00bd
00000150: c2c2 983d 0c7b bbbd 83d6 33be ae11 e83c
00000160: 2c45 9abc 1e05 6d3d 7de9 103d 8963 14be
00000170: 3af6 903c 6822 cdbc ef2c e9bd 2e6f b6bd
00000180: 7c5f 313d a857 0fbd 0c37 d8bd 8a67 bfbd
00000190: ed4c 863d 3f2d 61bd 1dd8 cf3d 2c2a d83d
000001a0: a59d d0bd bc3d dabd 56be 863d ca09 a5bc
000001b0: 97c8 0c3d 34e9 44bc fa0a 8b3c ea94 983d
000001c0: 4f17 983d ba90 a5bd e5d2 57bd 5032 793d
000001d0: 1ca9 e43c bc39 c63c d6a6 08be f07c 0bbe
000001e0: 311c 0abe 92a7 9abd a41b c83b da3e 2ebe
000001f0: b755 773c b322 e6bd 0717 13bd cfec 15be
00000200: 8a1c 273e 5f7a 9c3d 2613 e03b 9732 ce3c
00000210: 96e6 ec3e e21c e93e 48c3 f33e cf45 1e3f
00000220: 8c4c d43e 61a9 acbb ffed 89be d4b7 a3be
00000230: c1aa c5bd 7c29 a93c 346d 9fbd 4572 a23d
00000240: da8e 083e 7016 f53b 64ee 473d 5c69 563c
00000250: f768 123d 5c4a 373d 242a 30bd 1de3 1f3e
00000260: a9c0 e1bb fbc8 e33e 9496 7fbe 9494 77bd
00000270: 7e02 99bd 1ede b9bd a8eb b83d b11c 9abc
00000280: b202 9abe 56d9 58be 9f30 4d3e e4b6 e33e
00000290: 7951 d6bc d91b d1bd 907d 73be 6e1b 0fbe
000002a0: 4b43 8d3d c28a 183c 7ff8 aebd 04d9 23be
000002b0: 1582 9cbe d65a 9abe ea14 9f3e 2a22 183f
000002c0: ea6b 6fbd 610b 883d f7fd 5abc 62b5 a73d
000002d0: 62c7 7dbe 0ac5 0dbd b3d9 f3bd b0f7 74bd
000002e0: 049b a7bd b3e0 ba3d bf0e 78be 76c8 69be
000002f0: 803e f53a 6df3 34be 9384 6e3e 1802 45be
00000300: ebd2 69be 4bf6 87be e6a5 b93e d9ce 503e
00000310: cf62 df3e 8a79 213f fa0a 283f ca47 54bd
00000320: a8b1 33be 0648 a53d ab06 853d 038f 51bd
00000330: 70ab 9c3d 9576 753b 54aa 413e d88f 063e
00000340: 18dc b03c 480d b93d 6a84 383d 61e5 95bb
00000350: 87f6 e9bd 787e da3d 7099 073f 9155 f43e
00000360: 73a9 cc3d 907f 463d 3d32 b8be 3f81 5dbe
00000370: c31a c6bd f3ee c73d b3e9 47bd 6b65 e7bd
00000380: 62fd 6e3e 5067 053f 80cd d0be fe63 6abe
00000390: a7f9 0b3f 7dfc 263f ca94 243e c7ca ad3d
000003a0: 2cb0 d03e 3ca7 a53e 5574 ce3c 2c56 7b3d
000003b0: 746f 78be 1b30 8fbe 11de fabb 0464 5fbd
000003c0: 39ee ba3d 30e3 583d d0f1 0c3d d62e 983d
000003d0: f5be 193d bd7d 4a3d 6bf2 1dbd 0b94 89bc
000003e0: 6af4 24bd 23c3 5dbd 46d0 053d 9a13 5cbe
000003f0: cdbf c4bb 0228 29be 62eb 41be 5109 2ebf

actor.0.bias f4 [64]
-0.05571986 -0.12764192 0.04461499 -0.03732854 -0.053877868 -0.06254777 -0.031331655 0.050168205
-0.01219628 0.085231006 -0.015363074 0.07020141 -0.038266394 -0.023989996 0.10415345 -0.1360794
0.041573066 -0.0699256 0.06259928 -0.09298791 0.10331531 0.012770811 0.0029878009 0.01661403
-0.11622245 -0.10032009 -0.029566754 0.04103885 0.07292966 0.040446103 -0.0046841367 -0.018233372
0.07054428 -0.08409426 -0.018715087 0.04775056 0.12622832 -0.09942159 0.06684384 -0.057525568
0.10108272 0.007713224 -0.009210106 0.1764072 -0.025752 0.27602378 0.033419557 -0.01766203
0.25620514 -0.06265951 -0.17082147 -0.018462963 -0.1169287 0.19228159 0.16522698 -0.08707761
0.16574098 0.10644087 -0.02388531 0.11973276 -0.020732375 -0.10090125 0.05831933 0.09254616
00000000: 823a 64bd 90b4 02be 35be 363d d0e5 18bd
00000010: 0aaf 5cbd 0c19 80bd 9f55 00bd 2d7d 4d3d
00000020: e8d2 47bc 988d ae3d 67b5 7bbc c2c5 8f3d
00000030: 39bd 1cbd ab86 c4bc 674e d53d 6658 0bbe
00000040: 8548 2a3d 2735 8fbd 0d34 803d 7270 bebd
00000050: fa96 d33d aa3c 513c fbce 433b 251a 883c
00000060: 0906 eebd 9f74 cdbd fa35 f2bc 5a18 283d
00000070: 255c 953d d0aa 253d 637d 99bb 275e 95bc
00000080: 8579 903d 9d39 acbd 6250 99bc 1796 433d
00000090: ff41 013e 8c9d cbbd 6ce5 883d ee9f 6bbd
000000a0: 7504 cf3d 36bf fc3b fce5 16bc 17a4 343e
000000b0: dcf5 d2bc fd52 8d3e f2e2 083d f6af 90bc
000000c0: 522d 833e a153 80bd d3eb 2ebe a43f 97bc
000000d0: 5078 efbd 77e5 443e 4331 293e bf55 b2bd
000000e0: 01b8 293e acfd d93d 20ab c3bc 7336 f53d
000000f0: f1d6 a9bc 51a5 cebd 40e0 6e3d d788 bd3d

actor.2.weight f4 [64, 64]
0.1952397 0.0029504213 0.20418052 0.032688454 0.2738942 0.013991904 0.071927615 -0.051701326
-0.17922226 -0.11356444 0.026161078 -0.13158579 0.06397152 0.31217444 -0.2508545 -0.10841856
-0.05460025 0.1508138 0.011739339 0.091051385 0.18949232 0.35141075 0.15678883 0.119318195
0.003026609 -0.020966064 0.22469358 -0.2977577 0.26168522 -0.022954384 0.48354194 0.18909888
-0.18623586 0.1333479 -0.55041903 -0.37501776 -0.046137583 -0.17599745 -0.008021128 0.0867894
0.17078099 -0.09267944 0.20606622 0.08708744 -0.024858842 -0.116828226 -0.029902449 0.07440045
-0.05253149 0.032916527 -0.15998934 0.015416894 0.13834253 -0.29733527 -0.32511696 0.28548494
-0.33248702 0.08593286 -0.095788285 -0.2033917 0.22579901 0.056158315 0.1525789 -0.22162043
0.16570427 -0.053952076 -0.022813968 0.11484673 -0.059106894 0.093907475 0.05666313 0.39893594
-0.24900496 -0.2532755 0.18366952 -0.05073653 -0.10169558 0.000109420915 0.29505906 0.08908633
-0.15427105 -0.04380054 0.234929 0.16637926 0.3193232 0.20158051 0.35347837 0.5489759
-0.12807155 0.10985124 0.17542773 0.21619943 0.2970967 -0.13583471 0.16765408 -0.03280201
0.12575297 0.25704065 0.01870397 0.2043208 -0.3356637 -0.08265149 -0.15814367 0.06786527
0.0926224 0.043460213 -0.012530578 -0.22838107 0.18667059 -0.09272535 0.14818893 0.055070154
-0.109767586 -0.1982781 -0.03949867 0.089478225 0.22928043 -0.12881568 -0.10796946 0.0914302
-0.04835494 0.024887547 -0.19771521 -0.16310854 0.43439606 0.02534318 -0.2192823 0.06891208
-0.12122714 -0.054136526 -0.017570203 -0.0035757883 0.052460603 0.022502396 -0.103124 -0.13112168
0.07591741 -0.12687168 -0.048347935 0.051062293 0.06829502 0.042924907 -0.09210162 0.014624196
-0.002067973 -0.12419168 -0.12163715 -0.049923792 0.056954697 -0.065419145 0.0373991 0.07275659
-0.003591629 0.009609866 -0.058208346 0.025406685 -0.15043697 -0.015973216 -0.039514128 -0.06290027
0.06566379 -0.1549817 -0.12474358 0.04346502 -0.032468796 -0.0016013155 -0.022220438 0.102546826
-0.044395775 -0.08179301 -0.043252643 -0.07335361 -0.16261442 -0.0015938187 -0.0077791214 -0.079138026
-0.03386572 -0.108647004 0.014997115 -0.09201546 0.08200131 -0.15600756 0.10051599 -0.03866755
-0.01622708 0.05122426 -0.13512617 -0.16022164 -0.03164691 -0.028080061 -0.06714606 -0.1022608
-0.0990104 0.03631756 -0.10943178 -0.07745319 0.047103457 0.05686369 -0.06875651 -0.14025222
0.043583214 0.0844053 -0.07869149 0.09167895 -0.080863774 0.06940613 0.038283933 -0.11541464
0.01637635 -0.0807604 -0.05116934 0.008570611 -0.10822471 0.03093238 0.06950979 -0.031304825
0.06937092 -0.12865835 0.00054111547 -0.0840246 -0.014874511 -0.058257647 -0.083364986 -0.046968974
-0.13144211 -0.077294156 -0.07684026 0.10377481 -0.07991503 -0.022311272 -0.052941706 -0.0983952
0.018193215 -0.10907181 0.029699437 -0.069612585 0.041883316 0.06270739 0.113470085 0.10728524
-0.02674295 -0.1464836 -0.0539263 -0.13108495 0.0033219678 -0.13004422 -0.04137501 0.07983575
-0.021339417 -0.012195561 0.09582552 -0.0765197 -0.12679106 0.066321135 0.067133464 -0.02715305
00000000: eaec 473e db5b 413b b314 513e 54e4 053d
00000010: dc3b 8c3e 4d3e 653c c94e 933d c5c4 53bd
00000020: 0a86 37be 7994 e8bd c24f d63c 6dbe 06be
00000030: 8003 833d 54d5 9f3e 0070 80be 8d0a debd
00000040: 83a4 5fbd ef6e 1a3e 5b56 403c 2679 ba3d
00000050: 460a 423e 1cec b33e 408d 203e 195d f43d
00000060: 135a 463b 06c1 abbc 1316 663e b273 98be
00000070: 9bfb 853e d50a bcbc cf92 f73e 23a3 413e
00000080: 9db4 3ebe 5a8c 083e 43e8 0cbf 5402 c0be
00000090: c3fa 3cbd ad38 34be 0d6b 03bc a4be b13d
000000a0: 36e1 2e3e b8ce bdbd 0603 533e e65a b23d
000000b0: c5a4 cbbc a343 efbd fbf5 f4bc 435f 983d
000000c0: 422b 57bd 7bd3 063d 3fd4 23be 2497 7c3c
000000d0: aaa9 0d3e 543c 98be bb75 a6be 152b 923e
000000e0: bd3b aabe 91fd af3d a62c c4bd ea45 50be
000000f0: db37 673e 4306 663d a53d 1c3e 77f0 62be
00000100: 61ae 293e dafc 5cbd 5ce4 babc c334 eb3d
00000110: 121a 72bd 9052 c03d 9917 683d 5541 cc3e
00000120: 28fb 7ebe 54ad 81be dd13 3c3e 1cd1 4fbd
00000130: c645 d0bd e878 e538 fb11 973e e572 b63d
00000140: 3bf9 1dbe 3268 33bd 3a91 703e 535f 2a3e
00000150: 557e a33e 1f6b 4e3e 1efb b43e af89 0c3f
00000160: 3025 03be b0f9 e03d 54a3 333e 6263 5d3e
00000170: 0f1d 983e 4118 0bbe 83ad 2b3e 675b 06bd
00000180: 63c5 003e d59a 833e 1139 993c 7939 513e
00000190: 1ddc abbe 2f45 a9bd 6af0 21be f2fc 8a3d
000001a0: d0b0 bd3d 5603 323d 0e4d 4dbc badc 69be
000001b0: 9326 3f3e cae6 bdbd d7be 173e 3e91 613d
000001c0: d4cd e0bd 6a09 4bbe 5bc9 21bd 5c40 b73d
000001d0: 7dc8 6a3e 42e8 03be 181f ddbd c23f bb3d
000001e0: d40f 46bd f8e0 cb3c db75 4abe ed05 27be
000001f0: 2969 de3e 809c cf3c 8a8b 60be c721 8d3d
00000200: ef45 f8bd 43be 5dbd 63ef 8fbc c657 6abb
00000210: eee0 563d f256 b83c ad32 d3bd c344 06be
00000220: 967a 9b3d a6ea 01be 7c08 46bd b226 513d
00000230: 42de 8b3d 07d2 2f3d c69f bcbd 539a 6f3c
00000240: d486 07bb 3558 febd e61c f9bd e47c 4cbd
00000250: 5449 693d 79fa 85bd cc2f 193d 6801 953d
00000260: 8961 6bbb b372 1d3c e06b 6ebd ae21 d03c
00000270: 260c 1abe 43da 82bc 91d9 21bd dbd1 80bd
00000280: bd7a 863d 86b3 1ebe 9079 ffbd 6008 323d
00000290: 00fe 04bd 3be3 d1ba a307 b6bc 1204 d23d
000002a0: 58d8 35bd 1883 a7bd af29 31bd 6b3a 96bd
000002b0: 6584 26be aee7 d0ba 00e8 febb 1e13 a2bd
000002c0: c8b6 0abd 5282 debd 76b6 753c 9a72 bcbd
000002d0: 4ef0 a73d 72c0 1fbe 54db cd3d dd61 1ebd
000002e0: a7ee 84bc 88d0 513d 845e 0abe 2411 24be
000002f0: 31a0 01bd 2808 e6bc e083 89bd 1c6e d1bd
00000300: f7c5 cabd b9c1 143d c51d e0bd c79f 9ebd
00000310: 8eef 403d e7e9 683d 37d0 8cbd 479e 0fbe
00000320: 5084 323d b0dc ac3d 0129 a1bd 2cc2 bb3d
00000330: e89b a5bd cd24 8e3d 9dcf 1c3d 835e ecbd
00000340: b227 863c b565 a5bd f196 51bd bf6b 0c3c
00000350: eba4 ddbd e765 fd3c 265b 8e3d 7d39 00bd
00000360: 5712 8e3d 04bf 03be a5d9 0d3a 1715 acbd
00000370: 39b4 73bc 929f 6ebd 43bb aabd 8a62 40bd
00000380: c398 06be 664c 9ebd 6d5e 9dbd e387 d43d
00000390: 7eaa a3bd 21c6 b6bc 67d9 58bd 6c83 c9bd
000003a0: f009 953c 0b61 dfbd 3c4c f33c 0b91 8ebd
000003b0: d78d 2b3d bb6c 803d 0163 e83d 5db8 db3d
000003c0: 0814 dbbc ccff 15be d3e1 5cbd 223b 06be
000003d0: 5fb5 593b 502a 05be d878 29bd ed80 a33d
000003e0: 00d0 aebc e4cf 47bc 2c40 c43d 5cb6 9cbd
000003f0: 84d5 01be 60d3 873d 457d 893d 1370 debc

actor.2.bias f4 [64]
-0.008978784 0.117142536 -0.07641091 -0.06772027 -0.11664225 -0.041973956 0.050818205 0.082935765
0.033182696 -0.072832555 -0.107533045 0.048588324 -0.040954012 0.106911264 0.034703303 -0.095763944
-0.071577474 0.0568405 0.073849306 -0.018954119 0.14498031 -0.000372288 -0.06827475 0.071379654
-0.19733353 0.07339935 -0.022930639 0.07498323 0.010677037 0.055282608 0.035066783 -0.070123516
-0.052034575 -0.08434788 -0.045206904 0.033668287 -0.008872762 -0.13069062 0.13796619 0.02541603
-0.028169611 0.06172772 -0.0872991 0.02520309 -0.14913982 -0.028074216 -0.058289167 -0.13351317
0.034559917 0.04266279 0.043388072 0.0945003 -0.050213024 -0.06691895 0.11965379 -0.035048094
-0.011469705 -0.11078949 0.07740244 -0.05128039 -0.11661983 0.10620092 -0.03905126 -0.1306339
00000000: c01b 13bc 6de8 ef3d 537d 9cbd edb0 8abd
00000010: 22e2 eebd e2ec 2bbd c026 503d 3ada a93d
00000020: 94ea 073d 3c29 95bd 493a dcbd 8d04 473d
00000030: 65bf 27bd 4bf4 da3d 0d25 0e3d e31f c4bd
00000040: 3697 92bd 96d1 683d 4e3e 973d ab45 9bbc
00000050: b875 143e a62f c3b9 a2d3 8bbd 7f2f 923d
00000060: cd11 4abe 6652 963d 09d9 bbbc cf90 993d
00000070: bdee 2e3c 0470 623d 30a2 0f3d eb9c 8fbd
00000080: 3522 55bd 95be acbd e02a 39bd c2e7 093d
00000090: 105f 11bc c3d3 05be 0247 0d3e 4735 d03c
000000a0: f5c3 e6bc 35d6 7c3d dfc9 b2bd b676 ce3c
000000b0: 1cb8 18be e6fb e5bc 9fc0 6ebd adb7 08be
000000c0: b38e 0d3d 2dbf 2e3d b1b7 313d 6089 c13d
000000d0: 2cac 4dbd cd0c 89bd 0c0d f53d 978e 0fbd
000000e0: 6eeb 3bbc 9ae5 e2bd 2c85 9e3d 630b 52bd
000000f0: 61d6 eebd de7f d93d 37f4 1fbd e5c4 05be

actor.4.weight f4 [36, 64]
0.27123603 0.40257096 -0.10611496 0.104154006 0.034757838 -0.0419794 -0.48188293 0.118629254
-0.29862893 -0.25681454 0.12700142 0.46000788 0.22043584 0.231327 -0.048951793 -0.4029418
-0.7805888 -0.21261147 -0.7837089 -0.4326194 0.22276752 -0.22737382 0.0002991695 -0.34481755
0.02209332 0.5256555 -0.12844898 0.37392592 -0.5685276 -0.7435117 0.13651092 0.417103
0.5435253 0.24370348 0.06164524 0.12314768 0.46103942 -0.09926403 -0.715317 0.006334474
0.2506665 -0.026952429 -0.026991691 -0.06876208 -0.09290889 -0.19901775 0.0036058547 -0.044583928
0.121174544 0.07083515 0.019471087 0.3068632 0.020575887 0.12679178 -0.7580302 0.014714902
-0.23584773 -0.49450815 0.15849209 -0.17444207 -0.12412866 -0.94615626 -0.29175055 0.015973128
0.24776334 0.29078346 0.10910754 -0.0026152935 -0.0064426214 0.33739513 -0.30223292 0.41568792
-0.7767882 -0.08934986 0.08954572 -0.004394336 0.051314086 0.018433413 -0.12450231 0.31922448
-0.27365625 -0.13059323 -0.9295422 -0.49132156 -0.16564108 -0.31266052 -0.06859409 -0.12498152
0.59272444 -0.36507276 -0.033424977 0.20146711 0.2546991 -0.59315974 0.103361435 0.27973863
0.3797506 -0.08323825 0.0029239084 -0.2889185 0.05246357 0.09177261 -0.13936912 -0.4593098
0.27693924 -0.6846025 -0.25941956 0.29789203 0.084383585 0.33244276 -0.56115156 0.20636813
-0.21469556 -0.016545407 -0.020404194 -0.23225723 0.092563726 0.0031106602 -0.403958 0.061953515
0.11802623 -0.4050194 0.11750056 -0.0778022 0.15232317 -0.060932394 0.1878655 0.059130143
0.33459067 0.24670966 0.076868735 0.0017463195 0.0073805004 -0.35323763 0.24602872 0.30589533
-0.800353 -0.21289213 0.03651029 0.37642163 0.22761628 0.4438194 0.046868917 -0.2802145
-0.28404766 0.2269561 -0.6463879 -0.016073324 -0.82655114 -0.29723334 -0.07473423 0.11159698
-0.1883294 -0.37865177 0.06992693 0.05769499 -0.45301667 -0.37859482 0.014392889 0.5134843
0.33578262 0.07001863 -0.052237034 0.21160862 -0.28978077 -0.048392963 -0.36297366 -0.08520895
-0.08088517 -1.045429 0.2839162 0.03786944 0.028165106 0.16215962 -0.7864208 0.34396684
0.1603484 -0.04703109 0.1423013 0.14914827 -0.011695027 -0.08393072 0.07962492 0.063297525
-0.014535139 -0.32701004 0.10426754 -0.16700783 0.044307146 -0.4136924 -0.5269597 -0.017830618
-0.16428803 -0.038602997 0.04489799 -0.07983906 -0.033525467 -0.08547939 -0.013387005 0.13032919
-0.16118121 -0.14523576 -0.029189244 0.27533132 -0.24697495 0.16071525 -0.010066938 -0.13420492
-0.2977511 0.14410162 -0.3258832 -0.024124794 -0.6663463 -0.1525291 -0.039916877 -0.4180388
-0.1834973 -0.12390251 -0.11666222 -0.03241125 -0.46269393 -0.2888051 -0.057243694 0.060607783
-0.26245424 -0.3618457 0.050490372 -0.5567935 -0.41779172 -0.01335485 0.097494036 -0.62657934
-0.24421556 -0.6717714 -0.037073012 -0.1021519 -0.033647496 -0.20945199 -0.5609869 0.060859602
-0.07930294 -0.2047644 -0.059840225 -0.15213594 -0.076204665 -0.065173484 -0.27280098 -0.06838076
-0.46375823 -0.16173716 -0.2956214 -0.64075476 -0.044449333 -0.21639678 -0.24735257 0.020996505
00000000: 73df 8a3e c81d ce3e cd52 d9bd b24e d53d
00000010: 3c5e 0e3d 97f2 2bbd 5cb9 f6be e5f3 f23d
00000020: e4e5 98be 327d 83be a90c 023e 2786 eb3e
00000030: efb9 613e fce0 6c3e ad81 48bd 634e cebe
00000040: abd4 47bf d2b6 59be 25a1 48bf 4a80 ddbe
00000050: 2b1d 643e afd4 68be dad9 9c39 ed8b b0be
00000060: 0dfd b43c 5c91 063f 2188 03be 3873 bf3e
00000070: 068b 11bf c856 3ebf 85c9 0b3e 868e d53e
00000080: 7924 0b3f 688d 793e b87f 7c3d da34 fc3d
00000090: 5c0d ec3e f14a cbbd 041f 37bf 6b91 cf3b
000000a0: 5c57 803e 57cb dcbc ae1d ddbc 22d3 8cbd
000000b0: 0447 bebd 4fcb 4bbe 3450 6c3b a39d 36bd
000000c0: 5c2a f83d 0512 913d d481 9f3c 2c1d 9d3e
000000d0: c38e a83c b4d5 013e 440e 42bf c616 713c
000000e0: 1182 71be 2c30 fdbe c04b 223e f1a0 32be
000000f0: 2b37 febd 4c37 72bf 5460 95be 14da 823c
00000100: acb5 7d3e 92e1 943e c673 df3d 5865 2bbb
00000110: a01c d3bb 0ebf ac3e 46be 9abe 0cd5 d43e
00000120: 97db 46bf 0ffd b6bd bf63 b73d 5dfe 8fbb
00000130: b82e 523d ab01 973c 11fb febd 6471 a33e
00000140: ac1c 8cbe 3bba 05be 7af6 6dbf 808e fbbe
00000150: d19d 29be 0a15 a0be 0f7b 8cbd 50f6 ffbd
00000160: cabc 173f d1ea babe a1e8 08bd 654d 4e3e
00000170: ec67 823e 51d9 17bf 29af d33d e739 8f3e
00000180: ac6e c23e d178 aabd 0b9f 3f3b 20ed 93be
00000190: 0ae4 563d 47f3 bb3d c7b6 0ebe a72a ebbe
000001a0: fbca 8d3e 1c42 2fbf a4d2 84be 4e85 983e
000001b0: 4dd1 ac3d f035 aa3e a1a7 0fbf 2b52 533e
000001c0: 27d9 5bbe 3c8a 87bc b226 a7bc d7d4 6dbe
000001d0: 0d92 bd3d 38dc 4b3b 95d3 cebe f8c2 7d3d
000001e0: bcb7 f13d b45e cfbe 22a4 f03d c356 9fbd
000001f0: 9bfa 1b3e 3f94 79bd d05f 403e 7332 723d
00000200: 784f ab3e 75a1 7c3e 5b6d 9d3d c2e4 e43a
00000210: 20d8 f13b 90db b4be f4ee 7b3e 509e 9c3e
00000220: efe3 4cbf 6500 5abe d08b 153d 56ba c03e
00000230: 3e14 693e 4c3c e33e 9ff9 3f3d 4678 8fbe
00000240: b26e 91be 2e67 683e ad79 25bf 34ac 83bc
00000250: db98 53bf f82e 98be 430e 99bd f58c e43d
00000260: 6cd9 40be a5de c1be da35 8f3d 9551 6c3d
00000270: cdf1 e7be 2ed7 c1be 27d0 6b3c b573 033f
00000280: b3eb ab3e ed65 8f3d 80f6 55bd eeaf 583e
00000290: 255e 94be b337 46bd afd7 b9be 0882 aebd
000002a0: 20a7 a5bd 9ed0 85bf 775d 913e fc1c 1b3d
000002b0: 82ba e63c 2c0d 263e e052 49bf 6c1c b03e
000002c0: 5f32 243e aca3 40bd 6fb7 113e 53ba 183e
000002d0: 809c 3fbc dfe3 abbd 6412 a33d 22a2 813d
000002e0: cb24 6ebc dc6d a7be 388a d53d 1a04 2bbe
000002f0: 697b 353d 7ecf d3be d5e6 06bf 8411 92bc
00000300: 1f3b 28be 2d1e 1ebd f4e6 373d a982 a3bd
00000310: 0052 09bd d20f afbd 2b55 5bbc 0475 053e
00000320: b00c 25be afb8 14be 481e efbc 3af8 8c3e
00000330: 00e7 7cbe 8a92 243e ccef 24bc 046d 09be
00000340: d572 98be 608f 133e 2ada a6be 5ca1 c5bc
00000350: ac95 2abf 9730 1cbe e17f 23bd 2e09 d6be
00000360: b7e6 3bbe 99c0 fdbd 9aec eebd a9c1 04bd
00000370: 38e6 ecbe 43de 93be 5d78 6abd de3f 783d
00000380: 6760 86be d743 b9be fece 4e3d 058a 0ebf
00000390: cce8 d5be 4dce 5abc f4aa c73d 8167 20bf
000003a0: a513 7abe 36f9 2bbf dfd9 17bd 0435 d1bd
000003b0: f5d1 09bd 957a 56be d69c 0fbf eb47 793d
000003c0: 9469 a2bd c2ad 51be 061b 75bd 86c9 1bbe
000003d0: 3111 9cbd ad79 85bd 92ac 8bbe 360b 8cbd
000003e0: b871 edbe 6d9e 25be b05b 97be 8108 24bf
000003f0: 8110 36bd 1e97 5dbe fe49 7dbe dd00 ac3c

actor.4.bias f4 [36]
-0.22372663 -0.044102732 -0.071588874 0.018944735 0.03928525 0.08120113 -0.06501532 -0.045291606
0.0736945 -0.057312194 0.1845338 0.093473315 0.17143743 -0.021953613 0.11752906 0.13726342
0.010313535 -0.06385561 0.09016446 -0.020866672 -0.29447266 0.0071726623 0.12166866 0.14493442
0.08643379 0.07863738 -0.04062255 -0.011858296 -0.03149702 0.16782212 0.041009266 -0.05688288
0.087842345 0.04094388 -0.041444574 -0.0050116
00000000: 9818 65be 11a5 34bd 309d 92bd fd31 9b3c
00000010: 92e9 203d c74c a63d c126 85bd b183 39bd
00000020: 24ed 963d 31c0 6abd 6ef6 3c3e f06e bf3d
00000030: 4b8d 2f3e 10d8 b3bc 13b3 f03d c88e 0c3e
00000040: 1afa 283c bbc6 82bd 25a8 b83d 95f0 aabc
00000050: 1fc5 96be a708 eb3b 6b2d f93d b069 143e
00000060: 3304 b13d a20c a13d d563 26bd 4c49 42bc
00000070: 0503 01bd 90d9 2b3e 55f9 273d 06fe 68bd
00000080: b0e6 b33d c5b4 273d c9c1 29bd 5938 a4bb

critic.0.weight f4 [64, 62]
-0.23180936 -0.22428645 -0.20394121 0.08298598 0.035165183 -0.23992959 0.044580095 -0.18083002
0.20904765 -0.09250289 0.053371813 -0.023862101 -0.22229847 -0.23261608 0.083469294 0.038195893
-0.02713613 -0.022331413 0.040837005 -0.08832847 0.09825977 -0.008227069 0.045587152 0.09801586
-0.09020929 0.10550002 0.071749434 0.0088396035 -0.25034657 0.708451 0.17756587 0.70687234
-0.2665828 -0.2075799 -0.10912126 0.02202132 -0.40677145 -0.18071426 -0.02099395 -0.26531622
0.16874787 -0.010359969 -0.27443278 0.32221735 -0.07222383 -0.040683895 0.3928807 -0.49177757
-0.04128461 -0.24140608 0.16578019 -0.35536268 -0.09422527 -0.16427553 -0.122532874 -0.025318062
0.03422728 0.08874193 0.11695276 -0.055564057 0.10178187 0.0130690355 0.020247202 -0.085262105
0.0043462827 -0.02138693 -0.08550019 -0.045490302 -0.08846557 -0.12093215 0.016889434 -0.0011848048
-0.045000564 -0.1255426 -0.12632905 -0.024949241 0.0056938985 0.08271014 -0.15252008 -0.050687682
-0.08827609 0.08352122 -0.12732977 -0.0016389452 0.029015914 0.037161052 0.026663901 -0.0309887
0.12348625 -0.0794674 0.056592766 0.030887142 -0.049398355 -0.0522877 -0.047544803 -0.12510738
0.018541858 -0.13394728 -0.073431484 -0.18167622 0.0793436 -0.19235745 0.012199787 -0.12157602
-0.055039607 -0.06577304 -0.13753168 -0.013077113 0.17942852 -0.21562426 0.11982608 -0.19408825
-0.14079787 -0.09659277 -0.118183136 -0.09564901 0.0055645425 -0.083976425 -0.059771203 -0.26456732
-0.13890982 0.10408757 -0.1417888 -0.08157382 -0.038336255 -0.07257674 0.17622839 0.06586446
0.27272126 -0.21522291 -0.037824433 0.023389282 -0.001355579 -0.18833259 -0.06385037 -0.20423381
-0.06799569 -0.020556878 -0.13868803 -0.11560607 0.11471933 -0.08784312 -0.050722882 -0.01103583
0.16427054 0.10029876 0.096168414 -0.074235216 0.06279973 -0.036273606 0.06311989 0.06798297
-0.20556664 -0.10007317 -0.03776221 -0.14449419 -0.101107605 0.03568 -0.07380363 0.07961309
-0.091019794 -0.18637946 0.089417934 -0.51055014 0.12296912 0.13190953 -0.042585384 0.13461597
-0.2567026 -0.1288263 -0.07417186 -0.018065516 -0.26605886 -0.30663356 0.11620108 -0.04619374
-0.009351918 0.05554769 -0.5566044 -0.058589462 0.10724428 -0.0036188152 -0.06250889 0.09759058
0.048528638 0.06857688 -0.10608531 -0.026010562 0.028468627 -0.089867175 0.0002850697 0.018429115
-0.0065859947 0.07602911 -0.04074654 0.04743173 -0.011759391 0.06448747 0.048149288 -0.019392444
-0.07909469 -0.13050199 -0.10127794 -0.029904313 0.09811427 0.12032172 0.09012143 0.06893045
0.11341502 -0.086975686 -0.03284514 0.026638065 -0.04988773 -0.044453844 0.100547016 0.00624427
-0.03862824 0.037644256 0.05179812 -0.14689323 -0.016609982 -0.12462714 -0.023387896 0.013154875
-0.0011017192 -0.13952532 -0.1544651 0.10635465 -0.11585563 -0.077583134 0.06386367 0.043780662
-0.087690264 -0.1884597 -0.14813173 -0.09250112 -0.07082696 -0.12739103 0.07645887 -0.13625671
-0.09757653 0.040316097 -0.08932852 -0.033626925 -0.10040063 0.021338314 -0.08023453 -0.052047048
-0.08673349 -0.027209219 0.069808625 -0.06439815 0.102855146 -0.113795705 0.01420636 -0.023486728
00000000: 6f5f 6dbe 59ab 65be f7d5 50be 8ef4 a93d
00000010: 5e09 103d 1ab0 75be 9e99 363d 812b 39be
00000020: 9610 563e 2872 bdbd 679c 5a3d 747a c3bc
00000030: 36a2 63be e932 6ebe f3f1 aa3d 4c73 1c3d
00000040: 974c debc 5ef0 b6bc b444 273d 8fe5 b4bd
00000050: 6b3c c93d d4ca 06bc 98b9 3a3d 8abc c83d
00000060: a6bf b8bd 6510 d83d 5ef1 923d fcd3 103c
00000070: 6d2d 80be 0b5d 353f d4d3 353e 96f5 343f
00000080: 8a7d 88be d38f 54be f87a dfbd 0e66 b43c
00000090: 5944 d0be 290d 39be 81fb abbc 87d7 87be
000000a0: 3ecc 2c3e dcbc 29bc 7482 8cbe acf9 a43e
000000b0: 16ea 93bd 28a4 26bd a927 c93e 45ca fbbe
000000c0: 0d1a 29bd 2833 77be 48c2 293e 19f2 b5be
000000d0: 2ef9 c0bd d837 28be 84f2 fabd d367 cfbc
000000e0: e831 0c3d 54be b53d ee84 ef3d 2397 63bd
000000f0: 0373 d03d 821f 563c 76dd a53c e69d aebd
00000100: 436b 8e3b a533 afbc b91a afbd 0a54 3abd
00000110: 702d b5bd 46ab f7bd b65b 8a3c 744b 9bba
00000120: 8352 38bd 3d8e 00be 675c 01be 5a62 ccbc
00000130: e293 ba3b ef63 a93d 392e 1cbe e39d 4fbd
00000140: 18ca b4bd 2c0d ab3d bc62 02be e0d1 d6ba
00000150: c8b2 ed3c 3036 183d 416e da3c 04dc fdbc
00000160: 5ce6 fc3d cebf a2bd d1cd 673d 0807 fd3c
00000170: ee55 4abd a12b 56bd 57be 42bd 261c 00be
00000180: 18e5 973c 7a29 09be 3f63 96bd 5509 3abe
00000190: e67e a23d 5af9 44be 9ee1 473c d9fc f8bd
000001a0: 3671 61bd 04b4 86bd 1bd5 0cbe 6341 56bc
000001b0: 1cbc 373e 9bcc 5cbe 6067 f53d 12bf 46be
000001c0: 512d 10be 6ed2 c5bd 000a f2bd a1e3 c3bd
000001d0: c456 b63b d5fb abbd a6d2 74bd 5e75 87be
000001e0: 603e 0ebe dd2b d53d 1531 11be 2d10 a7bd
000001f0: 7a06 1dbd 1da3 94bd 3775 343e f2e3 863d
00000200: 1fa2 8b3e 6563 5cbe cbed 1abd e19a bf3c
00000210: afad b1ba 42da 40be fcc3 82bd ab22 51be
00000220: 5341 8bbd e666 a8bc 3c04 0ebe e0c2 ecbd
00000230: f8f1 ea3d 18e7 b3bd ccc2 4fbd a0cf 34bc
00000240: 8936 283e 7069 cd3d f2f3 c43d a208 98bd
00000250: 259d 803d a293 14bd 0045 813d a83a 8b3d
00000260: 1080 52be 2af3 ccbd 8cac 1abd 49f6 13be
00000270: 8111 cfbd 3125 123d 5c26 97bd 300c a33d
00000280: 9668 babd 42da 3ebe c020 b73d 6ab3 02bf
00000290: 3cd7 fb3d 4b13 073e 036e 2ebd c5d8 093e
000002a0: 866e 83be 0beb 03be 6be7 97bd 22fe 93bc
000002b0: de38 88be 13ff 9cbe d5fa ed3d a635 3dbd
000002c0: c938 19bc f985 633d a07d 0ebf 81fb 6fbd
000002d0: e4a2 db3d a529 6dbb a904 80bd 92dd c73d
000002e0: f7c5 463d 0972 8c3d 4143 d9bd 1a14 d5bc
000002f0: 0a37 e93c 480c b8bd 6875 9539 a8f8 963c
00000300: 54cf d7bb 26b5 9b3d d8e5 26bd c647 423d
00000310: 76aa 40bc 0212 843d 3038 453d e7dc 9ebc
00000320: 66fc a1bd 50a2 05be cf6a cfbd e4f9 f4bc
00000330: 22f0 c83d 3c6b f63d 9691 b83d 682b 8d3d
00000340: 2246 e83d 4f20 b2bd a088 06bd 1238 da3c
00000350: 1457 4cbd 3c15 36bd 98eb cd3d bc9c cc3b
00000360: a538 1ebd dd30 1a3d 442a 543d 2e6b 16be
00000370: a811 88bc 843c ffbd f997 bfbc 8b87 573c
00000380: 9067 90ba badf 0ebe 192c 1ebe 77d0 d93d
00000390: b745 edbd e8e3 9ebd f5ca 823d 5a53 333d
000003a0: f496 b3bd 94fb 40be d8af 17be 3a71 bdbd
000003b0: ba0d 91bd cb72 02be 7896 9c3d e186 0bbe
000003c0: 34d6 c7bd 7e22 253d dff1 b6bd 63bc 09bd
000003d0: d89e cdbd b0cd ae3c 0052 a4bd 492f 55bd
000003e0: 54a1 b1bd dee5 debc d3f7 8e3d 2de3 83bd
000003f0: b8a5 d23d b90d e9bd cbc1 683c 3d67 c0bc

critic.0.bias f4 [64]
-0.03559738 0.10418919 0.0317409 -0.014717935 -0.1413251 0.09679434 -0.04313373 0.03165786
-0.069594994 -0.03573941 -0.11995784 -0.09724362 -0.10647401 -0.048482805 -0.0133503685 -0.054947004
-0.13650924 -0.09942867 -0.0072054863 -0.19155808 -0.08255988 0.023435377 -0.06963244 -0.16787632
-0.026251206 0.09059436 0.26479858 0.1013703 -0.1573433 0.03862908 -0.0784525 -0.107539326
0.053874213 0.08359324 0.056030914 -0.03866046 0.05555304 -8.466421e-06 -0.13695163 0.20057854
0.06946185 -0.09593401 -0.18468696 0.0888659 -0.09767013 0.01913603 0.064820915 -0.012385895
-0.08539787 -0.014959139 -0.101314284 0.18001758 -0.07104867 0.104688756 -0.05918571 0.10788501
0.04192542 -0.15129489 -0.08695708 -0.14351413 -0.026250865 0.0091395145 0.17260273 -0.12312415
00000000: 8fce 11bd 2461 d53d bf02 023d 7e23 71bc
00000010: 87b7 10be 1c3c c63d feac 30bd acab 013d
00000020: d287 8ebd 7d63 12bd 75ac f5bd aa27 c7bd
00000030: 0c0f dabd e895 46bd 81bb 5abc 1c10 61bd
00000040: 14c9 0bbe 42a1 cbbd 001c ecbb cd27 44be
00000050: 2815 a9bd 8cfb bf3c 749b 8ebd c5e7 2bbe
00000060: c50c d7bc 8989 b93d ae93 873e 3b9b cf3d
00000070: 9a1e 21be 8739 1e3d b4ab a0bd 943d dcbd
00000080: 35ab 5c3d ef32 ab3d ac80 653d 6e5a 1ebd
00000090: 968b 633d 000b 0eb7 0c3d 0cbe 7664 4d3e
000000a0: 0442 8e3d 0d79 c4bd 941e 3dbe 53ff b53d
000000b0: 4707 c8bd 2ac3 9c3c d4c0 843d 35ee 4abc
000000c0: 14e5 aebd 2d17 75bc dd7d cfbd 8756 383e
000000d0: f781 91bd 0f67 d63d b76c 72bd d1f2 dc3d
000000e0: fdb9 2b3d 0ced 1abe 8e16 b2bd 5ef5 12be
000000f0: 0e0c d7bc e7bd 153c c5be 303e 8428 fcbd

critic.2.weight f4 [64, 64]
-0.08679424 -0.1753989 -0.12147788 -0.069951154 0.029475886 -0.015507582 0.031991474 0.080812484
-0.086149715 -0.08803069 0.022604046 0.13700081 0.11828836 -0.117779285 -0.18311012 0.03610961
0.016541585 -0.06768144 0.02374055 0.02514128 -0.15234905 -0.049884137 -0.016062237 0.1652482
-0.113511056 -0.12994316 -0.03037523 -0.13261263 -0.03914676 -0.19631936 0.045928694 -0.07306174
-0.07151827 -0.03737753 0.030677268 -0.10993599 -0.088690646 -0.24135582 0.037103686 0.10019394
-0.034643892 -0.06981781 -0.20716064 -0.010373058 -0.23568667 -0.09473221 -0.0010793023 -0.22132897
0.1399785 0.016463483 -0.038426407 -0.1526118 -0.15807405 -0.07687449 -0.19688933 -0.0032560858
0.0010159925 -0.043301903 0.09516191 -0.08915911 -0.010854349 0.023057166 -0.1268484 0.0027842522
0.059880756 0.048039243 -0.121334195 0.025918923 -0.072967894 -0.068792954 0.057849336 -0.17483613
-0.036710836 0.030001793 0.04609311 -0.17034051 -0.15156302 0.011908709 -0.36985108 0.013957309
-0.0024873493 0.1448868 0.071743235 0.07785252 0.02589246 -0.055778116 -0.19905406 0.020457096
-0.2154209 0.14913063 0.18299241 -0.025145046 0.0047906428 0.0433067 -0.21891709 0.015951969
-0.12414362 0.017142097 0.025825 -0.10199211 -0.0053077596 0.120993406 -0.12594855 0.094950505
0.12685801 -0.0446364 -0.07098561 0.045491166 -0.050646797 0.060612228 -0.045751262 0.06491358
0.12285585 0.080136515 -0.26617762 0.1908702 0.08896051 0.058827855 -0.2695443 0.26961476
-0.12533134 0.11157272 0.052446928 0.040345248 -0.06306854 0.005145992 0.102288626 0.041208494
0.15417716 -0.18739623 -0.037944403 -0.10949117 -0.0251984 0.09212204 0.04462271 0.2054032
0.08362259 -0.07521539 -0.07955217 0.11849325 -0.3124964 0.10090192 -0.18025663 -0.013793364
0.057570755 0.042020895 0.12630276 0.04301079 -0.16079746 0.047289573 -0.07834357 -0.046033204
-0.13923524 -0.043541063 -0.06426468 -0.053665746 -0.048450746 -0.01876298 -0.08827116 0.067146175
0.038637698 0.07561698 -0.09702513 0.016216738 -0.047922876 -0.15793525 0.09898711 -0.20930599
-0.06428376 -0.08559906 -0.12279649 -0.05222021 -0.10588036 -0.025164885 0.10216231 -0.035804443
0.056111746 -0.13659942 0.009531489 0.12203113 0.13815509 -0.12307322 -0.13067934 0.023927247
-0.093808934 -0.113597326 -0.049130533 0.049854938 0.07090944 0.056771833 -0.07218967 0.0368811
-0.05644636 0.09095342 -0.039665807 -0.060786616 -0.1114642 -0.058915228 0.057818662 0.061189394
-0.033139456 -0.033537995 -0.10106507 -0.15062232 -0.045272037 0.12154567 -0.05337019 0.060777377
-0.1309299 0.019487351 0.09782681 -0.08879816 0.051756877 -0.10625538 -0.07315942 0.060404424
0.016730871 -0.09821219 0.08185841 -0.043700613 -0.040700443 -0.07044605 -0.029196845 -0.060427155
0.05127231 -0.113410555 -0.17809229 0.06937682 0.09699987 0.008584832 -0.05672964 0.0948817
-0.11754398 -0.13363221 -0.037382547 0.058445677 -0.086072385 -0.009327055 0.030225553 0.02511683
-0.081367865 -0.057404105 -0.06969273 -0.12804607 -0.13590844 0.007454543 -0.062532514 -0.12535036
0.027489044 0.050536077 -0.017756412 -0.10576249 -0.14024207 -0.19315529 -0.08407367 -0.1083281
00000000: 2ec1 b1bd c59b 33be 65c9 f8bd 8d42 8fbd
00000010: 6a77 f13c 8313 7ebc 7e09 033d 0481 a53d
00000020: 436f b0bd 6f49 b4bd 1f2c b93c f149 0c3e
00000030: 2b41 f23d 4436 f1bd 3881 3bbe ace7 133d
00000040: 3882 873c 919c 8abd 8b7b c23c 16f5 cd3c
00000050: 6401 1cbe 4f53 4cbd f494 83bc d336 293e
00000060: 7c78 e8bd d20f 05be 79d5 f8bc 9bcb 07be
00000070: 5a58 20bd f107 49be ba1f 3c3d 65a1 95bd
00000080: 2c78 92bd 2e19 19bd e54e fb3c 1f26 e1bd
00000090: 71a3 b5bd fb25 77be 09fa 173d 7b32 cd3d
000000a0: c1e6 0dbd a4fc 8ebd eb21 54be c2f3 29bc
000000b0: d957 71be f602 c2bd 6077 8dba 10a4 62be
000000c0: 8656 0f3e 6dde 863c 0265 1dbd 4546 1cbe
000000d0: 2ade 21be 5f70 9dbd 5b9d 49be 0e64 55bb
000000e0: 0d2b 853a 565d 31bd 3fe4 c23d 0d99 b6bd
000000f0: 70d6 31bc 62e2 bc3c 8ce4 01be 0078 363b
00000100: 8645 753d ccc4 443d 107e f8bd ec53 d43c
00000110: 3170 95bd 52e3 8cbd 6df3 6c3d 3e08 33be
00000120: 1a5e 16bd 52c6 f53c 21cc 3c3d be6d 2ebe
00000130: 5633 1bbe bf1c 433c 1f5d bdbe 32ad 643c
00000140: cc02 23bb 355d 143e 1eee 923d 2471 9f3d
00000150: 6d1c d43c 9877 64bd d4d4 4bbe a495 a73c
00000160: 4c97 5cbe b3b5 183e 5d62 3b3e fcfc cdbc
00000170: d3fa 9c3b 5e62 313d cd2b 60be b4ad 823c
00000180: 033f febd 956d 8c3c f38e d33c 3de1 d0bd
00000190: b7ec adbb 64cb f73d a8f8 00be 6975 c23d
000001a0: 11e7 013e a8d4 36bd e760 91bd f254 3a3d
000001b0: 0473 4fbd 8744 783d ad65 3bbd 69f1 843d
000001c0: d99b fb3d 9d1e a43d 6f48 88be 7a73 433e
000001d0: ee30 b63d 7af5 703d b601 8abe f20a 8a3e
000001e0: dc56 00be 3d80 e43d 97d2 563d 0f41 253d
000001f0: 142a 81bd b69f a83b b37c d13d 3dca 283d
00000200: 9ee0 1d3e cce4 3fbe 976b 1bbd e83c e0bd
00000210: e06c cebc 7baa bc3d 4ec6 363d 3755 523e
00000220: 5242 ab3d 870a 9abd 40ec a2bd 97ac f23d
00000230: 87ff 9fbe aaa5 ce3d 3295 38be 90fd 61bc
00000240: 50cf 6b3d 1a1e 2c3d 8355 013e 152c 303d
00000250: 17a8 24be b6b2 413d 9872 a0bd 508d 3cbd
00000260: af93 0ebe 1d58 32bd 339d 83bd 9dd0 5bbd
00000270: 4a74 46bd d2b4 99bc 83c7 b4bd ef83 893d
00000280: 9042 1e3d 13dd 9a3d 1db5 c6bd f7d8 843c
00000290: c74a 44bd c7b9 21be c1b9 ca3d 4f54 56be
000002a0: 34a7 83bd 8f4e afbd ba7c fbbd dce4 55bd
000002b0: cdd7 d8bd 9726 cebc 793a d13d aea7 12bd
000002c0: 6ed5 653d b8e0 0bbe f629 1c3c 75eb f93d
000002d0: 8778 0d3e d00d fcbd ced0 05be 1303 c43c
000002e0: e61e c0bd b7a5 e8bd 193d 49bd b134 4c3d
000002f0: f838 913d 9589 683d 2dd8 93bd a310 173d
00000300: 4c34 67bd c945 ba3d 9d78 22bd 63fb 78bd
00000310: 5847 e4bd 1851 71bd 43d3 6c3d bba1 7a3d
00000320: 3dbd 07bd 235f 09bd 34fb cebd bd3c 1abe
00000330: 2c6f 39bd f0ec f83d b39a 5abd b3f1 783d
00000340: 7d12 06be f0a3 9f3c 6c59 c83d cfdb b5bd
00000350: 05ff 533d 6c9c d9bd 9bd4 95bd a16a 773d
00000360: 2e0f 893c 7923 c9bd 62a5 a73d 6aff 32bd
00000370: 82b5 26bd 0546 90bd 392e efbc 7782 77bd
00000380: ea02 523d cb43 e8bd d35d 36be 6f15 8e3d
00000390: dea7 c63d 65a7 0c3c 575d 68bd 5651 c23d
000003a0: e6ba f0bd e2d6 08be 711e 19bd bc64 6f3d
000003b0: b846 b0bd 81d0 18bc 949b f73c cfc1 cd3c
000003c0: 32a4 a6bd 9120 6bbd 10bb 8ebd 821e 03be
000003d0: 952b 0bbe 3d45 f43b 0c11 80bd d85b 00be
000003e0: b430 e13c ebfe 4e3d e575 91bc 019a d8bd
000003f0: 9e9b 0fbe 80ca 45be d12e acbd 1fdb ddbd

critic.2.bias f4 [64]
-0.13511537 0.1360554 -0.022165192 -0.106608145 -0.11423963 0.029108828 0.08593075 0.05868655
0.072491184 -0.17684197 0.03688523 0.026631353 -0.029584097 -0.12832756 -0.033590667 -0.14727508
-0.17868356 0.07409899 -0.1409812 0.0799613 -0.16447817 -0.042622216 -0.05501537 -0.026415294
-0.0814237 -0.09257945 0.051774282 -0.13393377 0.0674124 0.044538185 -0.081761226 0.09840485
0.007277254 -0.0984901 0.07146615 -0.10261381 0.06054629 -0.06857316 -0.08215193 0.09629613
0.014357003 -0.07421642 -0.17012985 -0.12336674 0.064089045 0.03498955 0.012861158 -0.06457978
-0.0201503 -0.054969333 0.023270385 -0.03441239 -0.076442234 0.0010400441 0.10408687 -0.17837898
-0.038250223 -0.041782916 -0.02849131 -0.06084056 -0.08905886 -0.1442486 -0.16978358 -0.106120735
00000000: af5b 0abe 1b52 0b3e c793 b5bc 5f55 dabd
00000010: 78f6 e9bd a375 ee3c 76fc af3d 4f61 703d
00000020: 4276 943d 1016 35be f814 173d ff29 da3c
00000030: 595a f2bc 4d68 03be 5e96 09bd 47cf 16be
00000040: d3f8 36be 36c1 973d 605d 10be c0c2 a33d
00000050: f76c 28be a294 2ebd cc57 61bd e364 d8bc
00000060: 78c1 a6bd 4b9a bdbd 4511 543d ef25 09be
00000070: 830f 8a3d ac6d 363d 6e72 a7bd 7b88 c93d
00000080: 0876 ee3b 2db5 c9bd d85c 923d 3027 d2bd
00000090: 63ff 773d 1670 8cbd 453f a8bd e836 c53d
000000a0: a339 6b3c c7fe 97bd 8536 2ebe b4a7 fcbd
000000b0: 1e41 833d 3451 0f3d 9bb7 523c 6742 84bd
000000c0: 3e12 a5bc 8627 61bd 89a1 be3c 02f4 0cbd
000000d0: bf8d 9cbd 1752 883a 7f2b d53d fba8 36be
000000e0: 44ac 1cbd 9024 2bbd 9c66 e9bc f333 79bd
000000f0: 7e64 b6bd e8b5 13be bfdb 2dbe d455 d9bd

critic.4.weight f4 [1, 64]
-0.022077091 0.02545407 -0.015686858 -0.06831264 0.0525769 -0.03769099 -0.06886589 0.0850344
-0.055565882 0.023864372 -0.22344074 -0.053407174 -0.013825648 -0.029226102 -0.032849766 -0.009250441
0.034886647 -0.28592342 -0.20021555 0.123400345 -0.009097699 -0.29928705 0.024338268 -0.021663807
0.015420668 -0.0107495 -0.06857923 0.027960202 -0.2603703 0.020022914 -0.022016212 -0.10008116
-0.049022473 -0.09115498 0.008608854 -0.07818869 0.07956674 -0.1706841 0.0012695288 0.07325758
-0.03038534 -0.05217479 0.015404545 0.04671037 -0.010778735 -0.1974807 -0.100190766 0.0037100494
-0.2761475 0.019601027 0.033000637 -0.013165243 0.023575045 0.0099436045 -0.1465034 0.024496753
-0.3209627 -0.14056282 -0.030185767 -0.016263442 0.07663096 0.0860281 0.009293331 0.017472893
00000000: 04db b4bc 0e85 d03c ba81 80bc 7fe7 8bbd
00000010: e05a 573d de61 1abd 8f09 8dbd 8426 ae3d
00000020: 0d99 63bd 377f c33c a6cd 64be 7bc1 5abd
00000030: f984 62bc 946b efbc 7a8d 06bd 298f 17bc
00000040: 4de5 0e3d 8e64 92be 4e05 4dbe 52b9 fc3d
00000050: 840e 15bc 273c 99be 0c61 c73c 4c78 b1bc
00000060: f8a6 7c3c ac1e 30bc 4473 8cbd cb0c e53c
00000070: 424f 85be 1807 a43c 585b b4bc 5af7 ccbd
00000080: cacb 48bd 76af babd 270c 0d3c 6421 a0bd
00000090: e3f3 a23d d0c7 2ebe 5166 a63a 1208 963d
000000a0: adea f8bc 3cb5 55bd 5863 7c3c 5f53 3f3d
000000b0: 4b99 30bc 6138 4abe d130 cdbd 4d24 733b
000000c0: 3563 8dbe 5592 a03c ad2b 073d 08b3 57bc
000000d0: 7420 c13c 80ea 223c fd04 16be 6aad c83c
000000e0: 3955 a4be b3ef 0fbe 2448 f7bc e93a 85bc
000000f0: b1f0 9c3d 802f b03d 0e43 183c 5023 8f3c
