Models/Reward_shaping_vm/RS_small_pos_vm_10_0/30000.pth (torch, 78437 bytes, 11 tensors)

actor.0.weight f4 [64, 62]
000000 b4 6e 2e bc a6 af 8e bb ed 12 43 bd 66 55 ef 3c
       -0.010646511 -0.004354435 -0.04762547 0.029215526
000010 99 3b b6 bd 3b 9e 12 bd 9f 6d 34 3d c8 36 a6 bc
       -0.08898086 -0.03579543 0.044049855 -0.020289794
000020 88 5d 51 bb 25 e7 86 be 46 46 75 be 34 09 91 be
       -0.0031946618 -0.26348224 -0.23952588 -0.28327334
000030 0f 21 84 bd a2 34 54 be 7d 71 1b bd db 12 6b be
       -0.06451618 -0.20723203 -0.037950028 -0.22956412
000040 e7 02 58 bd ba 13 93 bb f0 45 ef 3c c2 76 59 ba
       -0.052737143 -0.0044884356 0.029208153 -0.00082955894
000050 38 49 47 bc 1d 2d e6 bd 71 5c e0 bd d9 0c ea bd
       -0.012163453 -0.112390734 -0.10955132 -0.11428232
000060 37 80 fe bd 91 3d f2 bd fd 09 c5 bd 1f 97 ea bd
       -0.12426799 -0.11828149 -0.09621046 -0.11454605
000070 9d bb 38 be 3d 9e 80 bc d5 7d 81 3d 78 e2 19 bc
       -0.18040319 -0.015700454 0.06322829 -0.009392373
000080 7c 1e 8c 3d 39 44 30 3d 2b 2b 65 3d 89 d6 8f bd
       0.06841752 0.043033812 0.05594937 -0.07023341
000090 03 b8 09 3f 48 3c f8 3e 21 3c 21 3e 8b 3e b0 3d
       0.53796405 0.4848349 0.15745594 0.08605679
0000a0 4c 50 3e 3e 74 89 3e 3f 26 4e 1f be 9b 94 53 3d
       0.18585318 0.74428487 -0.15557155 0.051655393
0000b0 ca 6d a9 3d 7e 85 6e 3d 72 25 a1 bd 9e 82 6b bc
       0.08272894 0.058232777 -0.0786847 -0.014374403
0000c0 c2 2f fc bd f7 83 f3 bc bd d3 19 be 2a 85 17 3c
       -0.123137966 -0.029726012 -0.15022178 0.009248057
0000d0 45 ed b6 bd 6e 60 d6 bd 6b 35 00 bd 4a 98 24 3d
       -0.08931974 -0.10467611 -0.031300943 0.040184297
0000e0 b2 3f a7 3d ec 45 51 bc 92 d2 60 3e 37 58 88 3e
       0.08166446 -0.012773018 0.21955326 0.26629803
0000f0 76 10 51 be 46 1b 73 be ac 6a 2d 3c cb da 23 3d
       -0.20416436 -0.23740873 0.010584515 0.04000358
000100 32 72 ed 3c 39 41 f0 3d 24 c0 06 3d 5c 99 a3 bd
       0.028985117 0.1173119 0.032898083 -0.07988235
000110 01 1e b2 bd 6c f3 7f 3d 84 39 08 3e bb 86 92 be
       -0.08697129 0.062488005 0.1330319 -0.28618416
000120 cd 12 6b be 41 6d 84 be da e0 23 be 05 64 5a bd
       -0.2295639 -0.25864604 -0.16003743 -0.053318042
000130 c3 e2 9d be 8d a5 06 be f5 5f 31 bd 78 84 91 bd
       -0.30837068 -0.1314909 -0.043304402 -0.071053445
000140 90 64 a5 bd aa 0a 37 bd 00 10 77 3d 03 a2 eb 3b
       -0.080758214 -0.044687904 0.060317993 0.007190944
000150 b7 fa df 3d ea ec 39 bd b0 3b 18 bd 66 92 fe 3d
       0.10936492 -0.045391954 -0.037166297 0.12430267
000160 b1 17 f8 bd 31 c4 4c bd 5a 91 6d 3c 5b 14 0d 3e
       -0.12113894 -0.04999179 0.014499987 0.13777296
000170 0d ad 3d bd ae e5 af bc d2 d5 5c bd d4 88 1f 3d
       -0.046307612 -0.021471824 -0.053914852 0.03894885
000180 bc d8 2f bd 5e 82 21 3d e1 f1 b0 3e 43 4b ca 3e
       -0.042931303 0.03943097 0.3455954 0.39510545
000190 8f f9 cb bc 2a 94 f3 3d 3f e7 82 3d e3 79 38 3f
       -0.024899272 0.118934944 0.06391763 0.72060984
0001a0 08 12 57 be 04 66 f8 3d c3 c9 4a 3d 6d e8 5d 3d
       -0.21002972 0.12128833 0.04950882 0.054176737
0001b0 0d 6f 2d bd 11 5f 8c bc c7 1b 13 3d a4 62 80 3d
       -0.042342234 -0.017135175 0.035915162 0.06268814
0001c0 fa e8 45 3d 95 12 87 bd 5b 52 a3 3d 8c 52 a0 bd
       0.048317887 -0.06595341 0.079746924 -0.078282446
0001d0 cf 15 4e bc df 1e 1e be ae a1 52 bd ce 58 af 3d
       -0.012578442 -0.15441464 -0.05142372 0.0856186
0001e0 f1 d1 8e 3e 50 31 03 3e df 1b c3 bd 65 cc b7 bd
       0.27894548 0.1281178 -0.095268 -0.08974532
0001f0 c3 6b b4 3d 31 57 0c bd f0 78 d4 bd 86 a4 f1 3c
       0.088096164 -0.03426284 -0.103746295 0.029497396
000200 93 60 2e be d4 d3 5a bc f6 fd 06 be 9e b2 2a bd
       -0.17029028 -0.013356168 -0.13182816 -0.04167425
000210 6f 6a 17 be 76 31 02 be 72 6e fa bd 38 b5 78 be
       -0.14786695 -0.1271418 -0.12228097 -0.2428788
000220 45 5c 55 3e 15 5f 30 3e c4 c7 70 3c 53 ed e2 bc
       0.2083598 0.17223771 0.014696065 -0.027701056
000230 93 ae 8c bd 74 a8 f9 3d e8 15 ea 3d 01 17 fd bd
       -0.06869235 0.12190333 0.114299595 -0.12357903
000240 17 5b fc 3c 86 52 8c 3c 4c c9 e5 3d 0b f6 1b bd
       0.030805154 0.017129194 0.11220035 -0.03807644
000250 37 87 2b 3d 3a d1 80 bd 58 f8 f2 bd 83 82 69 3c
       0.041876998 -0.06289907 -0.11863774 0.014252308
000260 df fe 6c be 5d c9 87 bb c0 f9 e0 3c 92 be f6 bd
       -0.231441 -0.0041438774 0.02746284 -0.12048067
000270 0e 48 98 3d 18 a0 b3 3d 1d e4 c6 3d ed 06 87 3c
       0.07435618 0.0877077 0.09711478 0.016482795
000280 95 d6 bc bd 98 c6 b4 3d 43 0c 94 bd 8d 20 a4 bd
       -0.09220616 0.08826941 -0.07228901 -0.08014021
000290 82 9a 92 be e4 68 b0 bd ce 73 a3 bc 06 4c fa 3c
       -0.28633505 -0.08613756 -0.01995268 0.030553829
0002a0 59 3b f8 bd f2 04 2c 3d db fd c1 3c 26 cc d6 3d
       -0.12120695 0.041996904 0.023680618 0.10488157
0002b0 2d 08 1c 3e 35 8b 79 3d 97 d4 6a bd 83 45 0a 3e
       0.15237494 0.060923774 -0.057331648 0.13503079
0002c0 bc b5 79 3d 86 20 4f be a4 c4 8f 3d 83 4b 73 3e
       0.06096433 -0.2022725 0.07019928 0.23759274
0002d0 74 3b 7f 3c 7e a4 f7 bc dd 3a 0f 3e b8 d2 1b 3e
       0.01557814 -0.030229803 0.13987298 0.15217102
0002e0 72 1f 2a 3e a5 51 af 3d 57 ad a1 3c f2 6d a7 3d
       0.16613558 0.08560494 0.019735975 0.08175267
0002f0 66 ff f1 3d f7 66 ec 3d a6 ab 8d bd a8 1c ee bd
       0.118162915 0.115430765 -0.06917505 -0.116265595
000300 41 7b af be 60 45 dd be 16 03 08 be 58 78 89 be
       -0.34273723 -0.4321699 -0.13282427 -0.26849627
000310 a8 5a dc bd f7 2f b9 3c 44 da 68 be 31 ab 5d be
       -0.10759479 0.02260588 -0.22739512 -0.21647336
000320 cd 32 72 3e 13 b2 05 3f 1e b9 de 3c 53 f1 9c 3d
       0.23652191 0.52224845 0.02718788 0.076632164
000330 a5 9d 8b bc 8b 71 28 bd f5 6b da 3d c9 ce a9 bd
       -0.017042944 -0.041123908 0.106651224 -0.08291394
000340 93 fe a6 bd 1d fa b1 3d ad 7e f0 3d 02 5c 85 bd
       -0.08154025 0.086902834 0.117429115 -0.0651169
000350 b9 d8 f8 bd 93 67 cb 3b 7c c9 25 3e 8f 83 58 3d
       -0.121507116 0.0062074154 0.16190141 0.05285984
000360 76 ab 68 bb 01 69 a3 3d 1d 1e a8 bd 5e 58 0f bc
       -0.003550259 0.07979012 -0.08208869 -0.008749096
000370 86 2b 70 3d 6c 9e aa 3c 9e 21 27 3e be c3 5c 3e
       0.058635257 0.020827495 0.16321418 0.21559045
000380 af ab d7 39 24 a9 7a bb ec e1 ba 3d 36 89 40 3f
       0.0004113591 -0.0038247788 0.091251224 0.7520937
000390 05 cb 1e be ce c9 86 3d 25 d2 8d 3c ff bd c7 bc
       -0.15507133 0.0658146 0.017312119 -0.02438259
0003a0 d6 8d 04 3e d4 3c 0b 3d ee e1 47 bd 1b ce 53 bd
       0.12944731 0.033993557 -0.048799448 -0.05171023
0003b0 6e 43 f1 3b 3b e8 ea bb 1f 21 0b 3c 00 d5 d1 ba
       0.0073627746 -0.0071687973 0.008491783 -0.0016008914
0003c0 cb 80 0d be b8 08 0d 3e d5 d1 d9 3d 22 91 0a 3d
       -0.13818662 0.13772857 0.106357254 0.033829816
0003d0 94 b6 2e 3e 52 4d 39 3d 2e fb be 3d d1 a9 02 be
       0.17061836 0.045239754 0.093252525 -0.12760092
0003e0 6c 74 74 bd 81 c9 81 3d be 45 b4 bd e9 c4 38 bd
       -0.05968134 0.06337262 -0.08802365 -0.045109663
0003f0 03 09 ee bd 64 9b bc bd 7a 7c 8a bd 6b 1f e5 bd
       -0.116228126 -0.09209326 -0.06762023 -0.11187633

actor.0.bias f4 [64]
000000 52 df c8 bc 36 0f 42 bb a9 8b 1e 3e 36 63 6c 3d
       -0.02452055 -0.0029611117 0.15482964 0.057711802
000010 7f 0f cb 3c 42 df fa 3d f3 70 d3 3b bf 81 34 bd
       0.024787663 0.12249614 0.0064526736 -0.044069048
000020 81 7c c6 bd 69 b1 d3 bb 8a a3 0a 3e a6 47 8f bb
       -0.09691716 -0.006460358 0.13538948 -0.004372555
000030 b2 ad 1a 3d 1c d8 00 3d 4d 62 95 bd a1 56 cd 3d
       0.037763305 0.031456098 -0.0729414 0.10026289
000040 8e 02 c3 3d b8 6c 3a 3d 23 6c 1a 3d 59 1d b2 3d
       0.09521972 0.04551384 0.037700783 0.08697004
000050 71 31 be 3d e2 fd 9d 3d 7c 8c c9 3d 5f 27 ae 3d
       0.09286774 0.0771444 0.098412484 0.08503603
000060 19 e3 6c bd fb d2 fe ba ce 72 06 3e ae 41 01 3e
       -0.057833765 -0.0019441539 0.13129732 0.12622711
000070 0c 12 c1 3d 34 38 1f 3e bd d3 95 3d b1 a7 41 3e
       0.0942727 0.15548784 0.073157765 0.18911625
000080 de b7 33 3e e3 08 23 3e 71 67 2d be c3 fc 01 3e
       0.17550609 0.15921359 -0.16933991 0.12694077
000090 57 a0 38 3e 0a 42 c6 bc bf 29 84 bd cc 28 16 3e
       0.18029915 -0.024201412 -0.06453275 0.14664
0000a0 d7 2f 7c bd 34 90 bc 3c 4a 98 06 3d 54 29 20 3e
       -0.06156906 0.02301798 0.032860078 0.15640765
0000b0 f7 91 2a 3e f5 ab 15 be 61 e2 82 bc 2a 96 83 3d
       0.16657244 -0.14616378 -0.015977086 0.06425126
0000c0 7f 3b eb 3d 34 ef e5 3d 2a 0f 9e bd da bf 8f 3d
       0.11485957 0.11227265 -0.07717736 0.07019015
0000d0 c7 1a 9b bc c5 a6 08 3e ef a9 35 3c 3e 9c da bd
       -0.018933667 0.13344868 0.011087879 -0.10674332
0000e0 5c 67 e3 bc 60 06 7f 3d f3 0f 17 bd 6f 5e 73 3d
       -0.027759247 0.06226194 -0.036880445 0.05941623
0000f0 aa 85 50 3d 52 bc 91 3d 9a b3 74 3a 3e 95 f3 bc
       0.050908722 0.071159974 0.0009334624 -0.02973425

actor.2.weight f4 [64, 64]
000000 45 5d 76 bd 62 75 96 bd 25 15 bd 3d ea 17 2a 3c
       -0.060147543 -0.07346608 0.092325486 0.010381678
000010 f0 6e 47 3e d7 9f a6 3e f8 f9 30 be 5a f9 0c be
       0.19475913 0.32543823 -0.17282856 -0.13766995
000020 71 ef a8 3d 06 10 dd 3e 4d ce 71 3c 62 4d 5b be
       0.08248795 0.43176287 0.014758659 -0.21416238
000030 87 8f 55 3e c8 61 9f bd bc bd 21 be 0e 68 82 be
       0.20855533 -0.07782322 -0.15795034 -0.25470012
000040 0e 36 60 3e 69 8c 79 3e 60 1e 04 3e 98 50 10 3e
       0.2189562 0.24369968 0.12902212 0.14093244
000050 c2 7e 6d be ce 00 94 3d 50 28 98 3e e3 71 08 3f
       -0.23192886 0.07226716 0.29718256 0.5329878
000060 22 ee e7 3b e5 61 c7 3c e3 2e 6b 3e e0 ff f0 bd
       0.007077948 0.024338672 0.22967105 -0.11767554
000070 28 32 66 3e bd a8 3d bd 83 ad 70 be 15 ef ac 3d
       0.2248007 -0.0463035 -0.2350369 0.08444039
000080 1a c4 0d 3e 86 21 86 bd e1 98 85 be 73 33 3e 3e
       0.13844338 -0.06549363 -0.260932 0.18574314
000090 55 ba 46 3e db 28 ec 3b 2d 1a 89 bd 12 d0 4a 3d
       0.19407018 0.007207019 -0.06694446 0.049514838
0000a0 db fb ab 3d af 48 32 3e e3 75 09 be f1 56 f7 bd
       0.08397647 0.17410539 -0.13423876 -0.1207713
0000b0 6c 41 e5 3c a1 cb 2f be 9e 88 54 3e 26 25 2d be
       0.027985297 -0.17167522 0.2075524 -0.16908702
0000c0 df 99 2e 3e 92 b2 7f be c9 7d 4e 3e eb 1b 16 bd
       0.17050885 -0.24970463 0.2016517 -0.03664772
0000d0 ff 26 26 3e bb 2b ec bd 40 47 0a be 45 23 13 bd
       0.16225813 -0.115317784 -0.13503742 -0.035922308
0000e0 e5 65 aa bd 8a 88 a7 3d d0 96 0c 3e 8a 10 c7 bd
       -0.08320216 0.0818034 0.13729405 -0.097199515
0000f0 77 7a 1e bd bc 7a bd 3c 65 fa 98 3e 38 b2 d1 3d
       -0.03869101 0.023129813 0.29878536 0.10239071
000100 95 02 54 3e c4 24 e4 bd 83 07 81 3d bc 83 92 3b
       0.2070411 -0.11139825 0.06300261 0.0044712704
000110 9c 94 e4 3c 68 ed 36 be 40 6c 85 3e 6f 45 4f bc
       0.027902894 -0.17864001 0.2605915 -0.012650832
000120 6b 8d b0 3d ac 26 54 be f8 20 19 be 1e 8d 5a 3e
       0.08620723 -0.20717877 -0.14953983 0.21342894
000130 af 58 5f bb ed 6a 0a bc 4a 10 eb 3d aa 7d 69 3e
       -0.003407996 -0.008448345 0.11477716 0.22801843
000140 35 0d db bd bf cc 9f bd 3e 28 26 3d ab 83 33 be
       -0.106958784 -0.07802724 0.04056572 -0.17530696
000150 71 59 5f 3d 15 74 0a 3e 15 b0 a4 bd 88 c1 b1 bd
       0.054528657 0.13520844 -0.080413975 -0.08679491
000160 40 d1 36 bd bf a2 08 be 40 dd a7 bd cb a8 4a 3e
       -0.04463315 -0.13343333 -0.08196497 0.19790952
000170 73 d1 a2 be d8 c9 96 bd 7f db c3 3c 8a b2 2c 3d
       -0.31800422 -0.073627174 0.023908375 0.042162456
000180 60 a1 f7 bd 96 26 19 3e 71 37 49 be 15 13 96 bc
       -0.12091327 0.14956126 -0.19650055 -0.018319646
000190 a9 4b 0a be 0d d5 05 be 8f 96 7c 3d 0f 95 65 be
       -0.13505425 -0.13069554 0.06166702 -0.22420143
0001a0 9f 71 b9 3d 37 3a a6 bb 91 47 28 3e 4e 40 76 3e
       0.09054875 -0.0050728577 0.1643355 0.24047968
0001b0 0a 22 1a 3e fa ee 07 bc 61 fe a8 3e 79 ba 3a 3e
       0.15052047 -0.008296723 0.33006576 0.18235196
0001c0 d2 2a 46 be 4a 00 0d 3e 1a df ad bd 82 ff 7a 3d
       -0.19352272 0.13769642 -0.08489819 0.061278827
0001d0 a6 5f 89 bd 87 57 03 3e 94 91 aa bc ee 32 19 3e
       -0.067076966 0.12826358 -0.02082137 0.14960834
0001e0 d0 43 d5 3d f6 5b ca bc 25 7b 7f bb ec 9b 15 3e
       0.10413325 -0.024702054 -0.0038983312 0.1461026
0001f0 a6 57 41 3d 1f eb 52 3d c3 f8 b2 3d 1e b6 31 3e
       0.04720273 0.05149376 0.08738854 0.17354628
000200 24 be a7 bd b4 cb 1f 3e b6 ec c3 3d b3 92 dc bd
       -0.08190563 0.1560505 0.095666334 -0.10770168
000210 7e 14 2c 3e 1a a7 72 3e 7f 4d 2f bc ec 6c 19 3d
       0.16804692 0.23696557 -0.010699629 0.03745739
000220 7f 5e 76 bd 69 0d 87 3e d7 67 85 bd f3 21 59 be
       -0.060148712 0.2637742 -0.065139465 -0.21204357
000230 f9 2f 0e bd 83 aa 4e be 3b f6 18 be f0 02 d4 be
       -0.03471372 -0.20182233 -0.1493768 -0.4140849
000240 ed de fd 3d 91 2a 7f 3d b5 57 1b be a6 1c 31 bd
       0.12396035 0.062296454 -0.15170176 -0.043240212
000250 16 3b b8 bd 4f ae ff 3d 1b 06 0e be d2 72 a5 3e
       -0.08995645 0.124844186 -0.13869517 0.32314163
000260 2f 74 24 3e 43 3a 30 3e de 31 e8 3d 68 dd 95 be
       0.16059946 0.17209725 0.113376364 -0.29270482
000270 93 23 ac bd fa 3b 8b be 94 35 44 3e 9f 70 f6 3d
       -0.08405223 -0.27194196 0.19161063 0.120331995
000280 1e 54 09 3e 4f fc 5e 3e 20 4f 55 3e 4b 4e 1a be
       0.13410994 0.21775936 0.20830965 -0.15068929
000290 cd 73 76 be d0 a8 84 3e ab a8 6b 3e d2 52 17 3e
       -0.24067612 0.25910044 0.2301356 0.14777687
0002a0 4b 95 b0 be b5 a6 4f bd 70 5b a1 3d 43 ce 5b be
       -0.34488901 -0.050696094 0.078787684 -0.21465401
0002b0 36 a9 07 be d1 4f d2 bd 04 74 19 be 9f 2e 75 be
       -0.13248143 -0.1026913 -0.14985663 -0.23943566
0002c0 3e 0d fc 3d 9c 31 12 3d bc 56 28 3e 37 e0 8d be
       0.12307213 0.035691842 0.16439337 -0.27710125
0002d0 f2 da 11 be 02 df a9 be 5f 64 b6 be 88 38 6b 3e
       -0.14243677 -0.33177954 -0.35623452 0.22970784
0002e0 15 0b 0c 3e ed f1 99 3d f0 c8 2a 3d f7 92 3c 3e
       0.13676102 0.07516847 0.041695535 0.18415438
0002f0 3b 49 a2 be 74 46 3c be f0 a2 58 3d d4 ce e1 3d
       -0.31696495 -0.1838625 0.052889764 0.110257775
000300 27 5a eb 3e 52 9e dc 3e 9f b8 0b 3d b0 b8 a3 3d
       0.45967218 0.4308954 0.034111615 0.07994211
000310 c0 d9 7e 3d 70 9f 68 3d a5 02 46 3e 67 d2 16 be
       0.06221938 0.056792676 0.19336946 -0.147287
000320 f5 08 f9 bd 3e a7 b2 3e f0 28 34 3e 6b 6c 45 3e
       -0.121599115 0.3489322 0.17593741 0.1927964
000330 50 ce 24 3e 09 af aa 3d 21 93 23 be a3 02 db 3e
       0.16094327 0.083341666 -0.15974094 0.4277545
000340 3d 9e c7 bd fa c7 0e be 40 b3 85 be 27 c9 27 3e
       -0.097469784 -0.13943473 -0.2611332 0.16385327
000350 c2 08 e6 bc 66 d6 f8 bd fb 62 92 3c 08 cb cb bc
       -0.028080348 -0.12150268 0.017869463 -0.024877086
000360 5e c4 36 be 0a 97 1c 3e e2 22 6d 3b 1d c9 18 3e
       -0.17848346 0.15291992 0.0036184122 0.14920469
000370 87 6f c5 be 16 89 b4 3e b7 e6 90 3d 4a 9f 18 bd
       -0.3856165 0.35260838 0.07075255 -0.037261285
000380 b4 41 58 bd c3 c2 2a 3d 1a 57 91 3d bb b4 35 3d
       -0.052797034 0.041689645 0.070966914 0.04436181
000390 97 76 0d be e2 a0 19 3e 8d f6 39 3d 51 12 27 be
       -0.1381477 0.15002778 0.045401145 -0.16315581
0003a0 03 ee 4e 3e 41 e0 06 3b d2 98 25 be 97 62 cc 3e
       0.20207982 0.0020580443 -0.16171578 0.39918968
0003b0 ae e8 f6 3d c7 1e cf 3e b9 bf 24 3e 30 92 de 3d
       0.12056099 0.4045317 0.16088761 0.10867727
0003c0 7d b5 86 bd d3 66 d9 3e ce e1 9a bd e3 df 3d 3e
       -0.06577585 0.4246126 -0.075626 0.18542437
0003d0 ff cc 08 bc 35 d7 ff 3d da 02 6c 3e ae 9c f5 3c
       -0.008349656 0.12492219 0.23047963 0.029981937
0003e0 da e2 de 3d 97 3c c9 3d a8 07 5b 3e 42 2b 01 3e
       0.10883112 0.0982601 0.2138964 0.12614158
0003f0 23 ce 02 3e 79 1b 44 3e 7c 6f 33 3e 5f 77 32 3e
       0.12773947 0.19151105 0.17522997 0.17428349

actor.2.bias f4 [64]
000000 ff de 57 bc d5 3e 6b bb 93 c5 c1 bd 0b d0 d1 3d
       -0.013175725 -0.0035895605 -0.094615124 0.10244759
000010 9f 76 0c 3e 99 b0 f6 3d cf e4 77 3d 9a 25 d5 3d
       0.13717125 0.12045402 0.060520943 0.104075626
000020 e2 93 14 be 42 f3 52 bd 92 90 0e 3e d1 08 f4 3d
       -0.14509538 -0.05150152 0.13922337 0.11915744
000030 c8 55 e2 3d be ef 9e bd 51 cb 18 bd 83 77 3f 3c
       0.11051518 -0.07760571 -0.037303273 0.011686209
000040 3d d1 12 3e 0c 78 c7 3d 4c 8d d6 3d 00 6a 04 bd
       0.1433763 0.09739694 0.10476169 -0.032327652
000050 e2 47 cb 3d 2a 3b ce bd c2 27 e5 bc 54 60 83 3d
       0.0992582 -0.100698784 -0.02797306 0.064148575
000060 fd a7 07 bd dc 65 b1 3d 30 21 ae bd ec 26 22 3e
       -0.03311919 0.08662006 -0.08502424 0.1583516
000070 ea 94 ea 3d ff 0e 56 3c e0 60 4e bd 5c 2c ea bc
       0.11454184 0.013065099 -0.050385356 -0.028585605
000080 d8 3f 1b 3e c1 ae 0a 3e c9 50 67 3a 35 e1 1e 3c
       0.15161073 0.13543226 0.00088239886 0.009697248
000090 37 0e 7a 3e 7d 45 80 3d 1a fb c1 bd d5 23 9a bd
       0.24419485 0.06263254 -0.09471722 -0.07526366
0000a0 22 0d 5f bd fe f3 7c 3d cf ac ba bd 64 5b 86 3c
       -0.054455884 0.061756127 -0.09114992 0.016401
0000b0 61 ea b1 3a 1d cc e9 bd 4a 7e 72 bd 0f c7 ca 3d
       0.0013573879 -0.11415885 -0.05920247 0.09901249
0000c0 58 03 f9 3d 6a 13 a4 bd c4 9e 05 3e 96 db 9e 3d
       0.12158841 -0.080115154 0.13048846 0.077567264
0000d0 2d d4 56 3d 6b 5f 88 bc 08 af ee bd 75 24 08 be
       0.05244844 -0.016647061 -0.11654478 -0.13295157
0000e0 2d 8b 71 3d 2c 46 a3 bd 32 b9 8d 3d dc 40 5b 3e
       0.05897062 -0.079723686 0.06920089 0.2141146
0000f0 10 12 b3 bd 42 7f 8a 3d f9 22 82 3c 7e fe 0b 3e
       -0.087436795 0.06762554 0.015885817 0.136713

actor.4.weight f4 [36, 64]
000000 c8 80 67 be 30 59 a7 be f9 66 f5 3e 1f d0 cc be
       -0.2260772 -0.32685232 0.47930124 -0.40002534
000010 d6 92 05 bf 53 20 1d 3d a0 21 fe be 28 bc ca be
       -0.5217718 0.038360905 -0.4963503 -0.39596677
000020 c1 ec 58 bd d8 df c2 bd 24 30 13 3f c3 19 cd 3e
       -0.05296016 -0.09515351 0.5749533 0.40058717
000030 87 74 a3 be 8c 0a 81 3c be 80 b7 bc cc 20 0a 3e
       -0.3192484 0.0157521 -0.022400256 0.13489074
000040 4e bb 0d be 04 f6 08 3f 19 4d e7 3e 0d a2 bd be
       -0.13840982 0.5350039 0.45176008 -0.37037697
000050 97 15 99 be 3d 70 ee 3e 68 f4 44 be a7 4f ba be
       -0.29899284 0.46570006 -0.19233859 -0.36388895
000060 57 9b 78 3e c4 54 85 be 44 82 41 bd b1 2f b5 3e
       0.24278007 -0.26041234 -0.04724337 0.35387948
000070 92 b1 e5 3e 4b 52 1b be 98 98 ab bd 3b 6e 5c be
       0.44862038 -0.15168111 -0.08378714 -0.21526425
000080 09 df 38 be 6b 32 9f 3e 12 55 00 3e c7 63 c1 be
       -0.18053831 0.31093153 0.12532452 -0.37771437
000090 44 bd ed be ab ea dd bd b1 03 72 be be 60 36 bd
       -0.4643346 -0.10835775 -0.2363422 -0.044525854
0000a0 26 b6 91 be fd 94 9f be 7d 4a 7f 3d a0 9a a2 be
       -0.2845928 -0.31168357 0.062326897 -0.31758595
0000b0 69 fb d1 be 51 d4 46 be 71 7d af bd 52 51 8a be
       -0.41012123 -0.1941693 -0.08568848 -0.27015167
0000c0 fa a4 5c be f2 ac 22 3d 0b 3c de 3e ea e8 00 bf
       -0.21547309 0.039715715 0.43405184 -0.503554
0000d0 dc 54 03 be ae 6a 50 3c fa b1 d5 3d 08 53 2d bd
       -0.1282534 0.012720747 0.10434337 -0.042315513
0000e0 95 e2 be 3c 8e 83 97 3e b7 e1 e1 3d 53 a0 00 bf
       0.023301402 0.29592556 0.1102938 -0.50244635
0000f0 06 35 c4 bc 09 cc 02 3e a8 91 0e bf d4 e3 9c 3e
       -0.023951065 0.12773146 -0.55691004 0.3064257
000100 7f 78 3b be 53 fe f0 bb 0e e2 ef bd 78 83 ac be
       -0.18307684 -0.0073545366 -0.117130384 -0.33694053
000110 21 af 10 3e a6 43 30 be fa b7 aa be 2c 76 d0 bd
       0.14129306 -0.17213306 -0.33343488 -0.101787895
000120 e0 e5 db 3b 4a 86 15 be 4c b3 6d be 4e d3 aa be
       0.006710753 -0.14602008 -0.23212928 -0.33364338
000130 1a 29 a7 bd 00 9f 57 bd 0b 39 1f 3d fc 60 dc be
       -0.081621364 -0.05264187 0.03887276 -0.43042743
000140 92 5c ff bd 53 c3 bf bd 55 2b 54 3e e9 fe b3 3d
       -0.12468828 -0.09363427 0.20719655 0.08788855
000150 ea 4e d5 be b5 50 44 be 56 09 da 3e 7f 02 86 3e
       -0.4166177 -0.19171412 0.42585248 0.2617378
000160 10 02 a0 3c cd 18 c4 bd a6 32 a5 3d 52 5e 8f 3e
       0.019532233 -0.09575043 0.08066301 0.28001648
000170 e5 82 bc 3e 42 48 ba 3e 00 7c 29 b9 f4 e7 15 bf
       0.36818615 0.36383253 -0.0001616329 -0.5855706
000180 d1 fe e9 be a7 f0 e0 be 92 bf 44 3e e7 ac 4d 3e
       -0.45702222 -0.43933603 0.19213703 0.20085488
000190 f8 d5 47 bd 17 c8 cd bd 4e 26 d6 3e b7 e3 f8 3d
       -0.04878804 -0.1004793 0.418261 0.12152808
0001a0 40 2a e3 be b8 84 8c be 4b 2c 89 3e 39 a0 e4 3e
       -0.44368172 -0.27445006 0.26791605 0.4465349
0001b0 1a 81 3a bf 07 e4 11 be 34 fd db 3e f6 e3 de 3e
       -0.72853243 -0.14247142 0.42966616 0.43533295
0001c0 bf fb 6b bc 23 cc ce 3d aa 44 3d be 40 e7 3a be
       -0.014403283 0.1009753 -0.18483225 -0.18252277
0001d0 06 9e c6 3c 99 8e de 3d 50 bd 5b bd 3e 2b 98 bd
       0.024245273 0.10867042 -0.05364734 -0.07430123
0001e0 f9 5b a1 bd 92 f4 f5 3e f1 ff 0c 3c 8e 0c 50 be
       -0.078788705 0.48038155 0.008605943 -0.20317289
0001f0 9f 79 95 bd 0f 67 1e bc 00 5f 73 be 43 4a 85 3b
       -0.07298588 -0.009668126 -0.23766708 0.0040676906
000200 c9 b1 0e 3e 13 ab e5 be 93 76 cb bc b0 7e 38 bf
       0.13935007 -0.44857082 -0.024836814 -0.7206831
000210 8a 8d 88 3d 40 c3 1e 3e 95 b3 46 be 0d 75 10 bf
       0.066676214 0.1550417 -0.19404443 -0.56428605
000220 5f 8a 61 be 3e 05 c1 3e 07 bc 6f be f1 04 87 3e
       -0.2202544 0.37699312 -0.2341157 0.26370957
000230 b9 fc 71 3e ed 18 9a bd a1 0a 2d be ba 37 e8 bc
       0.23631562 -0.075242855 -0.16898586 -0.028346885
000240 03 49 90 3e fc 00 a5 bc bc 6b 35 3e 06 76 88 be
       0.28180704 -0.020142071 0.17716879 -0.26652545
000250 c3 86 ef bc db cb aa be 1c 44 a7 3e ef 3f 0d 3e
       -0.029239064 -0.33358654 0.3266915 0.1379392
000260 6d 0e 98 3e 28 6f a9 3d e8 10 ca bc 98 58 7f 3e
       0.29698506 0.082731545 -0.024666265 0.2493614
000270 51 53 dc 3d 12 59 96 bd 00 8b 60 3d ca a3 23 3e
       0.10758079 -0.073412076 0.05482006 0.1598045
000280 d7 27 84 3e 17 a4 1a bf aa b8 a4 3d 16 5a 78 3c
       0.25811645 -0.6040663 0.080430344 0.015158197
000290 f3 36 3a bf f2 d3 1a be ae 85 48 be 8e 38 48 bd
       -0.72740096 -0.15119913 -0.19582245 -0.04888206
0002a0 ac 93 06 bf 73 25 a9 3e d3 26 05 be f2 00 ee 3e
       -0.5256908 0.33036384 -0.13003092 0.46485096
0002b0 ae 0d 1c 3e ec 7d e7 3c 7c 70 65 bb 0d 2d 89 bc
       0.15239593 0.028258286 -0.0035009673 -0.016745115
0002c0 fe 9e 32 bf f3 21 3c bd 54 1c a3 3e ce 17 75 3e
       -0.6977385 -0.045930814 0.3185755 0.23934862
0002d0 67 62 da 3d 03 b3 78 bb b0 d4 eb bd 33 48 58 3d
       0.106633 -0.0037948496 -0.11515176 0.05280323
0002e0 f8 18 30 bd 2c 71 fd 3c 21 40 3b 3e 74 69 d9 be
       -0.042992562 0.030937754 0.18286182 -0.42463267
0002f0 f1 ab d3 bd 74 31 e3 3e 6b 6a ee be 73 27 29 3e
       -0.103355296 0.44373667 -0.46565565 0.16518955
000300 48 69 f6 3e fa 5b a4 be a5 8b 96 3e 2f 5b 89 be
       0.48127198 -0.32101423 0.29403415 -0.2682738
000310 24 63 23 3d 1b f6 dc 3d a6 10 85 bd ce b2 c0 be
       0.03988947 0.107891284 -0.06497316 -0.37636417
000320 31 4f 88 3e b6 63 6c 3e 99 78 10 3e 84 a1 aa bd
       0.26622918 0.23084912 0.14108504 -0.08331588
000330 80 25 91 bc c8 1f 3a 3d cc a0 6d bd d6 62 43 be
       -0.017718077 0.045440465 -0.058014676 -0.19080672
000340 54 35 a6 3e 97 06 42 3e 80 3a e9 3d cb 10 8a 3c
       0.3246256 0.18947826 0.11388111 0.01685371
000350 6d 54 13 be df e5 6d 3e 54 23 08 be 5b dd 84 bc
       -0.14387675 0.2323222 -0.13294727 -0.016218832
000360 7e 9e ae 3d 84 46 1a 3e c4 27 05 3d 3b 9f 58 bb
       0.08526324 0.15065962 0.032508627 -0.0033053893
000370 16 10 13 3e 45 4c a1 3e 0c 2f 5e 3d 84 42 75 be
       0.14361605 0.31503502 0.054244086 -0.23951155
000380 3f 6e 58 3e 7d 77 8c be bb b3 2e 3e 83 67 03 bc
       0.21135806 -0.27434912 0.17060749 -0.008020285
000390 84 e4 b9 be 93 51 a1 3c 58 e9 34 bd b2 5b 41 3d
       -0.36307156 0.019692218 -0.044167846 0.047206588
0003a0 8e 63 ad be cf 6e ae 3d 65 5b 11 3c 9f 08 3b be
       -0.33865017 0.08517229 0.008871888 -0.18265007
0003b0 d8 db 8d bd bb 57 1d bc 2b 28 e9 bc 6d 68 7c 3d
       -0.069266975 -0.009603436 -0.028461536 0.061623026
0003c0 12 37 a3 be bd ed 81 3d 6e b6 ed 3d b3 3a 98 be
       -0.31877953 0.06344173 0.11607061 -0.29732284
0003d0 91 e7 4e bd da 9d 17 bd e4 3f ee 3d 6f 8d 9b 3c
       -0.050513808 -0.037015773 0.1163328 0.01898834
0003e0 9e 19 36 bd 4c ef 83 be 90 6b 71 3e e4 ef 98 be
       -0.044458024 -0.25768507 0.23576188 -0.29870522
0003f0 42 dd b8 bd 86 d0 64 be fa a2 23 be 59 e0 80 3e
       -0.090265766 -0.2234517 -0.1598014 0.25171164

actor.4.bias f4 [36]
000000 fa e2 67 bd 54 2a 32 bd 7a ee f3 bd 4e 0d 28 bc
       -0.056612946 -0.0434974 -0.1191072 -0.010257078
000010 3a 33 31 3e 31 6f be 3d bf cc 9c 3d 51 b3 4e 3c
       0.17304698 0.09298552 0.0765624 0.012615995
000020 e5 77 e9 bd 27 f3 76 3d 68 b1 36 3e 9f 5f 97 bd
       -0.11399821 0.060290482 0.17841113 -0.07391285
000030 dd 16 c7 3d fc bd 0a 3e f0 62 0a 3d 07 ff a6 3c
       0.09721158 0.13549036 0.03378576 0.020385278
000040 ff 5b ba be b1 ed a7 bd d3 e6 23 be 48 87 3b be
       -0.36398312 -0.08199633 -0.16006021 -0.18313324
000050 9a 3a 51 be 99 db 2b 3e c7 45 39 bb 1f d0 87 3c
       -0.20432511 0.16782989 -0.002827035 0.016578732
000060 b0 fd b8 3d cb 17 3a be c6 42 b6 bd 0f e8 45 3e
       0.09032762 -0.18173139 -0.08899455 0.19326805
000070 6a aa 24 bd 18 49 43 bd c7 c3 db bd 15 a1 86 3b
       -0.040201582 -0.04767713 -0.10730701 0.004108558
000080 d0 5c e5 3c bc 34 e8 3d 71 6c 2c 3d 10 96 33 3e
       0.027998358 0.11338183 0.042095605 0.17537713

critic.0.weight f4 [64, 62]
000000 30 f5 a8 bd 6d d6 61 3d de c6 e4 ba bf f9 ef bd
       -0.08249891 0.055136133 -0.0017454287 -0.11717557
000010 96 44 1d be 25 1a d7 3d f6 03 be 3c 87 60 a2 3d
       -0.15358195 0.105030335 0.023195248 0.079285674
000020 8e e0 66 be ea e7 07 bd 7d 14 0a be 81 d4 19 3e
       -0.22546598 -0.033180155 -0.13484378 0.1502247
000030 81 ca 1a be 01 48 56 bb 26 41 b5 3d 7f f3 70 bd
       -0.15116312 -0.0032696726 0.08850317 -0.058825966
000040 b2 9e af 3d 95 69 b8 3d b0 c5 c7 bd a3 a1 a7 3d
       0.085751906 0.09004513 -0.09754503 0.08185127
000050 c2 9c b2 bd d5 61 82 bd 6c a1 0a bb 6a d3 aa bd
       -0.087213054 -0.06366316 -0.0021153344 -0.08341105
000060 54 72 c6 bd 67 f6 de 3d bd 50 ab bd d4 cd af bc
       -0.09689775 0.10886841 -0.08365009 -0.021460451
000070 cf 8a 57 bd 08 cb 9a bd 4f 64 c3 bc 68 02 dc 3c
       -0.052622613 -0.075582564 -0.023851542 0.026856616
000080 a4 00 ea bd f8 ee 62 bd 5e aa 7a 3d ee 7a 52 bd
       -0.114259034 -0.05540368 0.06119763 -0.051386766
000090 14 7f 0d be 7d 1c 0d be aa e5 62 3b 70 60 ff 3c
       -0.13818008 -0.13780399 0.0034621754 0.031173915
0000a0 0f ce 57 be 67 a9 2c be 61 91 33 3e 4f f3 2c bd
       -0.21074699 -0.16861497 0.17535926 -0.042224225
0000b0 08 d6 f3 bd bf b5 5a bd be 44 9d 3d 28 86 c7 bd
       -0.119060576 -0.053395983 0.07679127 -0.09742385
0000c0 95 d8 00 be 1a c2 cd 3d df 7f ab bd aa 44 dc bd
       -0.1258262 0.100467876 -0.08373999 -0.10755284
0000d0 7b 4e d5 bd 01 fa 4f bb ed 54 10 3e a6 5d f7 bd
       -0.104153596 -0.0031734707 0.14094897 -0.12078409
0000e0 c8 61 d6 3c c1 97 eb bc b8 9e c0 3b f8 12 f9 ba
       0.026169673 -0.028758885 0.0058782957 -0.0019002846
0000f0 75 7f 1d 3d 72 f9 1d bb 66 cb 90 bc fc 3a 0d bd
       0.03845163 -0.002410498 -0.017675113 -0.03448008
000100 c5 11 08 bd 77 9a c3 bd 5c 7b d5 bd 0f f4 55 bd
       -0.03322007 -0.09550946 -0.104239196 -0.052234706
000110 1b 77 d6 bc 36 74 23 be c4 3e 17 be 79 67 2f bc
       -0.02617984 -0.159623 -0.14770037 -0.010705822
000120 39 59 07 be 21 b4 a5 be 61 54 02 3e 1f e5 7f be
       -0.1321763 -0.3236399 0.127275 -0.24989747
000130 03 92 11 3e 73 12 a4 be b0 e2 b1 bc 60 d6 1b bd
       0.14215855 -0.32045326 -0.021714538 -0.03804624
000140 95 dc fb 3d 43 a4 e6 3d 35 da b7 3d 0f 50 e3 3c
       0.12297932 0.11261799 0.089771666 0.027748136
000150 c2 9f 6d bd 17 7e 92 3d 55 e3 c1 bb 08 4c a8 3d
       -0.058013685 0.07152956 -0.0059169927 0.08217627
000160 18 a6 d2 bc 46 93 21 3d cb ec e4 bd 11 32 08 3d
       -0.025713965 0.03944709 -0.11177977 0.033250872
000170 08 da 64 bd fe cf c1 3d 68 56 9c 3c d6 d8 8e 3d
       -0.055871993 0.094634995 0.01908417 0.06974952
000180 2d 10 9b 3b b9 c0 9c bd 1f 33 0b be 04 58 6d bd
       0.004732153 -0.076539464 -0.1359372 -0.057945266
000190 bb a7 04 bc 40 74 72 bc 80 6e d8 bd 7f 67 d7 bd
       -0.008096631 -0.014798224 -0.10567951 -0.10517787
0001a0 05 cc 05 3d 01 c0 a3 3d c6 ae 72 3d bb e1 61 3d
       0.03266527 0.07995606 0.05924871 0.055146914
0001b0 e2 b0 01 be 24 00 f7 bd b0 84 4e 3c d4 ce d9 3d
       -0.12665132 -0.12060574 0.012604877 0.106351525
0001c0 72 ad 01 bd 5f 12 3f be 5c e6 00 3e 0a df 6c be
       -0.03165955 -0.18659352 0.12587875 -0.23131958
0001d0 d9 a6 85 bd 66 1e 7e 3d 48 a4 b1 bd 9a 58 63 bb
       -0.06525964 0.06204071 -0.08673912 -0.0034690262
0001e0 ea 68 0e bd 1b 40 90 bd 44 f8 02 be 6e bb c2 3d
       -0.034768023 -0.07043477 -0.12790018 0.095084056
0001f0 93 70 29 bd dd 3e d9 3d 7d 99 e2 3d 84 b1 fe bc
       -0.041367125 0.10607693 0.11064432 -0.031090505
000200 67 d4 03 be 66 c6 6b 3e e3 f5 6b be 23 40 ab be
       -0.12873994 0.23024902 -0.23043017 -0.3344737
000210 f6 70 c4 bd 69 c1 d8 bd ba 63 b2 3d 60 5c 5c be
       -0.09591858 -0.10583765 0.087104276 -0.21519613
000220 82 4b 6e bb 71 cd c6 3d 42 e9 a6 bd 5c 16 5b 3e
       -0.0036360924 0.097071536 -0.08149959 0.21395248
000230 d7 37 ab bd 2a b8 bc bd 4c 62 be 3c 53 1b 68 3d
       -0.0836026 -0.09214814 0.023240231 0.056666683
000240 58 a8 66 bd 4f a9 62 3d f8 77 94 3d eb a6 ce 3d
       -0.05631289 0.055337247 0.07249445 0.10090431
000250 06 7e ab bd 0c 7f df 3d 14 c8 08 bd 45 0a bf 3d
       -0.083736464 0.10912904 -0.033393934 0.09328131
000260 cf db 20 bd 6f f0 e4 3b b7 20 66 bd 9b 2f 52 3c
       -0.039272126 0.0069866697 -0.056183543 0.012828733
000270 ef 07 b7 ba 1f 88 81 3d f9 d4 4e 3d 22 40 7c 3d
       -0.0013964156 0.06324791 0.050496075 0.0615846
000280 ff ea b3 bd fd e9 89 bd 15 8a 7d bd 90 e6 25 3a
       -0.08785056 -0.06734083 -0.061899263 0.0006328607
000290 6a 6d c0 3c ef a7 04 be b8 a6 e6 bd 5c b4 cc bd
       0.023489673 -0.12954687 -0.11262268 -0.09995338
0002a0 a7 c3 e9 3d 44 84 64 3d e1 2f 73 be 02 9c 9c bd
       0.11414271 0.0557902 -0.23748733 -0.07646944
0002b0 3e 97 ae bc a8 29 d1 bd 4e 04 c5 bd 6c 70 17 3e
       -0.021312352 -0.102130234 -0.09619962 0.1478898
0002c0 e7 91 36 3d 12 32 b5 be 3a 51 92 bd 33 d1 a2 bd
       0.044572737 -0.35389763 -0.07144399 -0.07950058
0002d0 da 1e 05 3e 7b 8f 42 3c 41 90 ba bd e2 82 d0 bd
       0.1300005 0.011875029 -0.091095455 -0.10181214
0002e0 22 a7 47 3e 85 20 42 3e 4d 45 ce bd ad b9 b5 3d
       0.1949735 0.18957718 -0.10071812 0.088733055
0002f0 e1 9a 84 bb 01 b6 7c bd da 4a fd 3c 9f b2 2c be
       -0.0040467833 -0.06169701 0.030919481 -0.16865014
000300 fc b2 93 3c 76 7b a6 3d 99 e7 1c 3e 35 8d 6c be
       0.018029682 0.08129017 0.15322722 -0.23100741
000310 dd b9 74 bd 47 e7 1f bd af 07 ae 3b 2e f7 7b 3d
       -0.059747566 -0.039038923 0.0053109745 0.061515026
000320 a8 1c 00 bd ad 03 b3 3d 8d d8 5e 3d 16 6c 2f 3d
       -0.03127733 0.087409355 0.054405738 0.04282769
000330 d7 67 e3 3d 03 4b 65 3d d5 5a 12 bd 43 91 8c 3c
       0.1110379 0.05597974 -0.035731155 0.01715911
000340 a0 18 d5 3d 18 83 c7 3d 55 34 92 bc 32 6c 9a 3d
       0.104050875 0.09741801 -0.01784722 0.07540168
000350 3f 4d be 3a 29 dc 4a bd 5f de 1e 3d fe 0d ec 3c
       0.0014518871 -0.049526367 0.03878629 0.028815266
000360 8b 2f e4 bd 50 5b a5 3c 4c bb 85 3b 4e 99 a2 bd
       -0.111418806 0.020185143 0.0040811654 -0.07939397
000370 9f 58 cc bb e8 7c 83 3d c4 1f 57 3d b9 58 a7 bd
       -0.0062361504 0.06420308 0.05252053 -0.081712194
000380 90 c6 aa bc 1f 44 c8 bd 98 b7 9b be d2 10 a2 bd
       -0.020846635 -0.09778618 -0.30413508 -0.079133645
000390 52 0d 0d bd 1b 01 a7 3d dd 2b fd 3c 49 93 18 bd
       -0.03443653 0.08154508 0.030904705 -0.037249837
0003a0 81 40 1b 3d 9f f3 e4 bc 31 b7 ca 3d 16 eb 08 3d
       0.037903313 -0.027948199 0.09898222 0.03342732
0003b0 71 3c 5f be f2 ae 23 3d 28 92 c8 bd f2 39 3a bd
       -0.218004 0.039961763 -0.09793502 -0.045465417
0003c0 6c 7d 3f bc bb 7d 79 be 6d 29 1d bd 29 72 f8 bd
       -0.011687618 -0.24364369 -0.038369585 -0.12131149
0003d0 71 55 ac 3c d4 22 60 3d e3 5e 6e bd 5e 5d 48 bd
       0.021036835 0.054720715 -0.05819596 -0.048917167
0003e0 28 56 f6 bd 8e b9 cc bd 09 fd 97 3d 6d 21 9e bd
       -0.12028152 -0.09996329 0.074213095 -0.07721219
0003f0 56 15 8f bd 50 3b 86 bc ee 61 03 3d a5 1a d1 bd
       -0.069864914 -0.016385704 0.032075815 -0.1021016

critic.0.bias f4 [64]
000000 d9 8d 1f be 32 d7 b5 bc ac 12 39 bc 25 86 97 bd
       -0.15581454 -0.02219734 -0.011295956 -0.07398633
000010 c7 f2 a3 bd 21 a7 dd bd b1 53 d2 3d 38 e2 0a be
       -0.080052905 -0.10822893 0.10269869 -0.13562858
000020 d5 a8 04 bd d2 b6 90 bc 1e 52 63 bc 65 ae 79 bd
       -0.032387573 -0.0176653 -0.013874559 -0.06095733
000030 a3 0a fa bd 66 b7 c4 3b 32 d5 4c 3b 67 b2 a0 bc
       -0.1220906 0.006003308 0.0031255004 -0.019616319
000040 c2 cc c0 3c f2 87 7d ba a5 50 33 be 08 1f 0b be
       0.023535136 -0.00096714415 -0.17511232 -0.13586056
000050 4f 23 30 3d 7c 61 7a bd ec 9e 65 bd 65 61 fa bc
       0.043002423 -0.061128125 -0.056059763 -0.03056402
000060 c4 af c0 3c c6 f4 4b be 5b fd a5 bc 04 cf af bd
       0.023521312 -0.19917592 -0.02026241 -0.08584407
000070 be 62 e4 bd 96 ea f7 bd 9d c4 d7 bd 9a 0f 91 bd
       -0.11151646 -0.121052906 -0.10535548 -0.07083054
000080 ab 26 c6 bd 66 64 52 bc 43 0b a0 bd 2f c8 8c bd
       -0.09675344 -0.01284132 -0.07814648 -0.068741195
000090 45 b5 16 be f5 f7 b3 bc ea 29 5c bd 07 36 c4 3d
       -0.14717586 -0.021968821 -0.05375091 0.095806174
0000a0 fa ea 16 be 78 fc 56 bd 81 f0 a8 bd 20 d6 31 3d
       -0.14738074 -0.052486867 -0.082489975 0.043417096
0000b0 3f b0 5b bd cb a6 17 bc 16 a3 17 be c9 ae 1d bd
       -0.05363488 -0.009256075 -0.14808306 -0.038496766
0000c0 14 ac 57 bd b6 e5 04 bc 2d 23 8a 3d 42 15 cc bd
       -0.05265434 -0.008111408 0.067449905 -0.09964992
0000d0 35 ab a3 bc 50 cb c1 3c 92 98 e6 bc 9a c3 b7 3d
       -0.019979099 0.023656517 -0.028148923 0.08972855
0000e0 a6 b7 a5 bc fa 0d 46 be 5c 6c 1e 3e 59 bb b2 bc
       -0.020229172 -0.19341269 0.15471023 -0.02181785
0000f0 d0 50 19 be bf 66 cd bd a7 ca cf bd 28 74 af bd
       -0.14972234 -0.10029363 -0.10146075 -0.08567077

critic.2.weight f4 [64, 64]
000000 05 ce b4 3d 10 9f c5 bd 94 63 c0 3d 26 6d be 3d
       0.088283576 -0.096494794 0.09393993 0.09298162
000010 f3 5f 0c be b3 8d 6f bd 08 7e 30 bd c1 b2 36 3d
       -0.13708477 -0.058484744 -0.043088943 0.044604067
000020 c0 02 e6 bd f0 a4 8a bd 6c 3b 9d bb a7 de d5 bc
       -0.11230993 -0.067697406 -0.0047983434 -0.026107145
000030 19 9e 35 bb b7 6a 2b 3c a8 fa 21 bd 93 fc 18 3c
       -0.0027712642 0.0104624545 -0.039545685 0.009337562
000040 c4 b8 9a 3c 38 21 71 3d 86 12 ad bd ca 9d a2 bd
       0.018886931 0.05886957 -0.08450799 -0.07940252
000050 e0 b0 77 bc 79 51 7e bd 72 e2 c9 bd 61 fd 30 bd
       -0.015117854 -0.062089417 -0.09857644 -0.04321039
000060 59 e4 81 3d ae 25 6a 3d ba 95 9c bd 87 28 25 bd
       0.06342382 0.05716484 -0.076457456 -0.040321853
000070 da 60 e0 bd b8 df a3 3d 76 72 d1 bd 82 7f 6a 3d
       -0.10955973 0.08001655 -0.1022691 0.057250507
000080 05 e0 a7 bd 2c cf 29 bc f6 7e 12 bd fc 9a 2c bd
       -0.08197025 -0.010364335 -0.03576561 -0.042139992
000090 29 c2 00 be 00 23 0e 3a bb fe 58 bd 2b 2f 20 bc
       -0.12574066 0.00054220855 -0.052977305 -0.009776871
0000a0 c0 53 07 3c 8a 10 d1 3d ea ad 2e bd 8e 3a 96 3c
       0.008259714 0.10208233 -0.042646326 0.018338468
0000b0 0b e8 c0 bd ab 2b 9a bc d7 f7 5f bc 4c bb 5b bd
       -0.09419259 -0.01881965 -0.0136699295 -0.053645417
0000c0 e4 ee 2b bd d8 b3 3c 3d 32 87 98 bd 84 38 fd bd
       -0.04197587 0.04606995 -0.074476615 -0.12364295
0000d0 f2 e4 99 bd ab 48 d3 3d e8 88 40 3d 70 4f e9 bc
       -0.07514371 0.10316595 0.047005564 -0.028480262
0000e0 c8 3f c0 bd 75 97 3d bd 8c 17 87 3d fe 0a d6 bc
       -0.09387165 -0.04628702 0.06596288 -0.026128288
0000f0 f0 4b 71 3d 56 df a0 bd 6b 69 8b bd c8 3f d8 3d
       0.05891031 -0.07855098 -0.06807216 0.1055904
000100 a2 c5 e3 3b 11 14 ef bc 19 b5 b7 bd 94 b4 09 bd
       0.00695105 -0.029184373 -0.089700885 -0.03361948
000110 c1 fa 35 be a8 56 24 3b 78 16 1f be 92 8a 01 be
       -0.17771436 0.0025076065 -0.15535915 -0.12650517
000120 99 68 18 be 15 ce fa bd 7d 07 7b 3d a8 12 16 bd
       -0.14883651 -0.12246338 0.06128644 -0.036638886
000130 95 50 70 bd 01 16 96 3c 96 4a 18 3c 53 3d 99 bd
       -0.0586706 0.01832104 0.009295126 -0.074824
000140 77 91 f4 3d ae 97 96 3d 96 f7 a4 3d 66 34 9b 3d
       0.11941808 0.07353149 0.08055036 0.075783536
000150 51 86 e6 bc 23 c2 55 3d 26 02 88 bd 1f 0a 21 3d
       -0.028140219 0.052187096 -0.06641035 0.039316293
000160 4e 47 15 bd 38 4f 9a bd a9 dc a0 3c 31 76 69 3d
       -0.036444955 -0.07534641 0.019636469 0.05699748
000170 a5 19 84 bd b1 47 4a bd 74 12 13 bd 3d 37 2c bd
       -0.06450204 -0.049384777 -0.03590627 -0.042044867
000180 bf 83 24 be 21 6f f6 3c 49 ad 18 3d 3d 07 44 3c
       -0.16065882 0.030082287 0.037274633 0.011964616
000190 3a f8 02 3d 63 b8 02 3e 24 3d 1f be 8b e0 cd 3c
       0.03197501 0.1276565 -0.15550667 0.025131484
0001a0 a0 eb 2e 3d 73 a8 86 be b8 89 3a 3b 46 01 c6 bd
       0.04270518 -0.26300392 0.0028463434 -0.09668212
0001b0 6c 06 fe 3d ee f3 12 3e b7 17 99 3c 89 c6 71 3d
       0.124035686 0.14350864 0.018688066 0.05902723
0001c0 14 38 e8 3b 1e aa a0 bd 3a 02 19 3b 69 ce f7 bc
       0.007086763 -0.07844947 0.0023347274 -0.030249791
0001d0 3c ed 26 bd 32 82 eb bd 13 30 fe bb 2c b7 bf bd
       -0.040753588 -0.11499442 -0.0077571957 -0.09361109
0001e0 c6 77 86 3d 6d ab 3b 3d 11 4f c0 3d cb aa 27 be
       0.06565814 0.04581778 0.09390081 -0.16373746
0001f0 ad e3 fc 3d 78 b7 29 bc 5c dd 8a bd 99 5a dc 3c
       0.12348113 -0.010358684 -0.06780502 0.02689867
000200 4f bd a0 3d f5 78 2d 3e 9d ff c2 bd 27 ff 89 bd
       0.07848608 0.16940673 -0.095214106 -0.067381196
000210 c3 5c e6 bd 0e 3f 00 bc 58 b1 c6 bd ac da 63 be
       -0.11248162 -0.007827533 -0.097017944 -0.22251385
000220 fa 1c 56 3e a1 a0 33 3d 61 37 3a be e7 01 a2 bd
       0.20909491 0.04385436 -0.18185188 -0.07910519
000230 b9 13 27 be d8 03 68 bd f0 84 e8 3d 11 bb 19 bd
       -0.16316117 -0.05664429 0.11353481 -0.037531916
000240 d6 a8 8e bc 94 8d ee bd 98 63 0c be ee e9 48 be
       -0.017414492 -0.11648098 -0.13709867 -0.19620487
000250 5b 3d 32 be 06 9e b7 bc c6 d0 cb 3a be 42 9b 3d
       -0.17406218 -0.022414219 0.001554989 0.075810894
000260 2a a3 7d be 7f c7 01 bd 3a be 93 bd 96 2a 65 3e
       -0.24769273 -0.031684395 -0.07214017 0.22379526
000270 9c 72 09 be 69 a1 37 bb 3d 2d e7 bd bd 18 41 be
       -0.13422626 -0.0028019792 -0.112879254 -0.18857093
000280 c4 bb 32 3e b8 af 06 3e 60 9c 70 bc c5 ee 38 bd
       0.1745444 0.13152969 -0.01468572 -0.045149583
000290 56 65 5f 3d 79 e0 d2 bd 29 6a 29 3e b4 34 86 bd
       0.05454 -0.10296721 0.16544403 -0.06553021
0002a0 ee b4 4a be ba d0 36 3e 9f 6f b3 3d 6a 18 81 be
       -0.19795582 0.1785306 0.087615244 -0.2521394
0002b0 44 7c 98 bc 1d ee 03 bc 60 87 31 be 42 94 e3 3c
       -0.018613942 -0.008052376 -0.17336798 0.027780656
0002c0 3a dc 61 be af 9f ba bc e9 8a 1b be b8 9a 3c 3e
       -0.22056666 -0.022781221 -0.15189709 0.18418396
0002d0 8c bd ab 3d 5b 40 58 3c 69 89 c7 bc ce 92 8f be
       0.083857626 0.013198937 -0.024357514 -0.2804169
0002e0 ac 04 50 be 65 3d 67 bd 45 f4 10 be d1 9c 46 3d
       -0.20314282 -0.056455035 -0.14155681 0.048489396
0002f0 12 92 8e bc b8 ca e7 3d 49 aa 95 3b ac 2c c8 3d
       -0.017403636 0.113179624 0.0045674187 0.097741455
000300 c1 19 06 be 40 27 8a 3d 35 7c a3 bb 97 8d e1 bd
       -0.13095762 0.067457676 -0.004989172 -0.11013334
000310 fb 46 93 3b 67 2c 13 3e b1 4a 26 bd b3 41 a0 bd
       0.0044945455 0.14372407 -0.040598575 -0.07825031
000320 96 bc c1 3d b2 99 62 bd ad 61 93 bd aa c8 e2 bc
       0.09459798 -0.055322357 -0.071963646 -0.027683575
000330 4e c2 f4 bd 7e b5 04 be 10 88 2f bb 40 e7 d8 3d
       -0.11951123 -0.12959859 -0.002678398 0.105909824
000340 61 2a c5 bd d1 61 1a 3e 25 9b d3 bd 46 4f da bd
       -0.09627224 0.15076376 -0.10332326 -0.106596515
000350 b8 e0 f6 bd 14 de 96 3d 5d 42 e7 bd 63 95 31 bc
       -0.120545805 0.07366577 -0.11291955 -0.010838839
000360 f4 d0 24 be fb df a1 bd ab b2 16 bd 6b fc b3 3c
       -0.16095334 -0.07904049 -0.036791485 0.021970948
000370 d4 4e fb bd aa 75 ae bc 8e 14 0e be 7a f6 e5 3d
       -0.12270895 -0.021296341 -0.13875028 0.11228652
000380 f4 ef 85 3b 54 8c a2 bd b8 ad 85 bc 52 6c ba bd
       0.0040874425 -0.07936922 -0.016318187 -0.09102692
000390 6c 97 c1 bd 0c 2e ba bd 0e b3 0f 3d 97 b2 1f 3d
       -0.094527096 -0.09090814 0.03508287 0.038988676
0003a0 95 cd c3 3d eb ff 9f bc 63 e8 cb bd b9 50 63 3d
       0.09560696 -0.01953121 -0.099564336 0.055496905
0003b0 0e da 15 3d 44 01 33 3c 6c e7 2d be 3a e0 45 3c
       0.036584906 0.010925595 -0.16982812 0.012077386
0003c0 d3 ea 9e 3c 22 49 8d 3a 76 69 7e 3c 10 5d 67 3d
       0.019399082 0.0010779242 0.015528074 0.056485236
0003d0 45 1e 9f 3d d8 fe ef 3c 8e 5e a3 bd ce 56 03 bb
       0.07769445 0.029296324 -0.07977019 -0.0020040753
0003e0 2b 9d c9 bd ce 9a 29 3d 2f e0 c1 bd c4 b5 3d bd
       -0.098444305 0.0414074 -0.09466588 -0.046315923
0003f0 df d0 12 be 15 34 19 3e ed b9 13 be d0 7c fb 3d
       -0.1433749 0.14961274 -0.14426394 0.122796655

critic.2.bias f4 [64]
000000 5c 53 c3 bd 98 26 af bd 51 f7 18 bd 9e 67 f1 bd
       -0.09537384 -0.08552283 -0.037345234 -0.117873415
000010 91 5f d2 bd bb 94 7e bd 31 1e 1b bb 6e df d4 ba
       -0.10272134 -0.06215356 -0.0023669119 -0.0016240904
000020 df 8a bb bd 38 94 e3 bd d0 c2 ec bc a6 23 c5 3c
       -0.09157347 -0.11112255 -0.028901488 0.02406485
000030 b5 cf 91 bc 0c b5 2a 3d fe 33 90 bd cc a2 67 bd
       -0.017799238 0.041676566 -0.07041167 -0.05655174
000040 de 9e 0d be fd 01 90 bd a5 49 3e 3d 7c 4f b1 bc
       -0.13830134 -0.07031629 0.04645695 -0.021644346
000050 6f 91 2d 3d bb 8b 8c bc d9 7c 81 bc f0 27 09 be
       0.042375024 -0.017156472 -0.015806602 -0.13394141
000060 1c 1b 0b bb 7e 1d ad bd 76 94 a5 3d bb 1f f1 bd
       -0.0021225875 -0.08452891 0.08084957 -0.1177363
000070 21 b8 83 bc f1 8e 94 3d d9 89 1b bd e3 ec 77 bc
       -0.01607901 0.072538264 -0.03797326 -0.015132162
000080 ad 83 1a bd 07 7b 4a 3d 55 71 a1 3d 2e e3 be 3c
       -0.037723232 0.049433734 0.078829445 0.023301687
000090 37 61 ef 3d 86 d6 c1 bd 03 a5 7c bd 77 6c 00 bd
       0.11688464 -0.09464745 -0.061680805 -0.03135344
0000a0 c6 fd 80 3d 35 9d 27 bd 97 59 86 3c 8e 44 b8 bd
       0.062984034 -0.04092141 0.016400142 -0.08997451
0000b0 d4 d9 29 3d a4 cf 93 3d 24 1b e6 3a 16 0f 19 be
       0.041467503 0.07217339 0.0017555696 -0.14947161
0000c0 e2 76 98 3d ef dc 95 3c 84 21 cb 3d 28 cc b8 bd
       0.0744455 0.018293826 0.09918502 -0.09023315
0000d0 97 e8 e7 3b b8 8a e7 bc bc 5a ef 3d 7d 15 17 3c
       0.0070772874 -0.028264388 0.11687228 0.009221432
0000e0 4e 27 81 3d c3 6a 12 bc 8b b1 09 be bd 51 33 bd
       0.06306325 -0.008936587 -0.13446634 -0.043779124
0000f0 f6 fe 7a 3d f6 e2 6b 3c 80 fd 70 bd 44 89 bb 3d
       0.061278306 0.014397373 -0.058835506 0.09157041

critic.4.weight f4 [1, 64]
000000 9c c1 de bd 6f 3e 28 bc c8 7b 07 be 77 10 37 3b
       -0.10876772 -0.010268792 -0.13230813 0.0027933398
000010 5b 67 e9 bd 34 fb d2 ba 53 79 01 be 54 ff 53 bd
       -0.113966666 -0.0016096593 -0.12643938 -0.05175717
000020 2a 6b 37 3b c8 cb 9e ba 8f e9 49 bb 00 56 32 bd
       0.0027987459 -0.0012115175 -0.0030809378 -0.043539047
000030 da 5a 7c bb 23 9f e0 bd 34 72 a7 bd dc aa 11 be
       -0.00385063 -0.10967853 -0.081760794 -0.14225334
000040 32 26 b8 3c 64 60 9a ba da a5 c8 bd 9c 43 53 bd
       0.02247915 -0.0011777994 -0.09797259 -0.05157815
000050 6d 2b 08 3e 15 b7 88 bc a9 0b 5a bd c9 20 be bc
       0.13297816 -0.016688863 -0.053233776 -0.023208993
000060 fd 64 a3 3c fe 67 06 3c 6e 9c 58 3d 53 eb 21 3c
       0.019945616 0.008203505 0.052883558 0.009882766
000070 29 56 99 be dd 41 12 3e 39 42 88 bd 49 ec 84 3a
       -0.29948547 0.14282937 -0.06653256 0.0010141219
000080 09 5b d6 3a f1 ea 9e bc ab da ea 3c 89 bf e3 3a
       0.0016354035 -0.019399138 0.028668722 0.0017375808
000090 bd 27 9d bd a6 64 48 3d d9 3f bb bd 41 ee 1e be
       -0.07673595 0.04892411 -0.09143037 -0.15520574
0000a0 3b 00 90 3d fb 64 39 bb ac 28 96 bd d7 35 3e bd
       0.07031294 -0.0028288949 -0.07331976 -0.046438064
0000b0 58 de b7 3b 78 d1 93 bd fb 8a 42 3e 17 c2 15 bd
       0.0056112222 -0.07217687 0.1899833 -0.03656205
0000c0 3e ac db 3d 8d 1d c7 bd b3 cf 02 bd 2c 9e bb bb
       0.10726212 -0.09722433 -0.03193636 -0.0057256427
0000d0 c2 9a 15 3c 4b c1 49 3c 55 13 c4 bd 14 7d b4 bd
       0.009131135 0.012314151 -0.09574 -0.08812919
0000e0 da 63 40 3c e7 33 b4 3d 8c 0c 28 3c 21 8e 57 bd
       0.0117425565 0.08798962 0.010256898 -0.05262578
0000f0 eb 75 22 3d cb 85 eb 3c f5 5d 49 bd bc ba aa bd
       0.039663237 0.02875032 -0.04916187 -0.08336398
