Models/Reward_shaping_vm/RS_norm_vm_meander_9_0/1000.pth (torch, 78423 bytes, 11 tensors)

actor.0.weight f4 [64, 62]
0	0x3d35bcee	0.04436963
1	0xbd6c15f3	-0.05763812
2	0xbbc43bc9	-0.0059885723
3	0x3d4c6808	0.0499039
4	0x3dfcadde	0.1233785
5	0x3e09a294	0.13440925
6	0xbd80907f	-0.062775604
7	0x3e010ed9	0.1260332
8	0xbd26d167	-0.040727045
9	0xbcfd7a03	-0.030941969
10	0x3df45dd5	0.119319595
11	0xbb10b479	-0.0022080226
12	0xbd8a980f	-0.06767284
13	0xbd6636e3	-0.056204688
14	0xbc0a2f4a	-0.008434126
15	0xbcb29d26	-0.02180345
16	0xbd352b50	-0.04423076
17	0xbda628d4	-0.08113256
18	0xbc59d89d	-0.013296274
19	0x3d76985d	0.0602039
20	0x3d5a0e03	0.05323602
21	0x3d5fef57	0.05467161
22	0x3dd5dd3f	0.1044259
23	0x3d9e31b7	0.07724326
24	0xbca611d9	-0.020272182
25	0xbdf4e34f	-0.11957418
26	0x3dda43ac	0.10657439
27	0x3dcb64a1	0.09931303
28	0x3e088af2	0.13334253
29	0x3d305164	0.04304637
30	0x3d2f9761	0.042868976
31	0x3d90e5bf	0.070750706
32	0x3da35060	0.07974315
33	0x3d348bed	0.044078756
34	0x3d6b44bb	0.057438593
35	0xbc84e18b	-0.016220829
36	0xbd4df2df	-0.050280448
37	0x3d0f651f	0.035008546
38	0x3d9d4e61	0.07680965
39	0xbc8c5501	-0.017130377
40	0x3dbb4f26	0.09145956
41	0xbdeae18c	-0.11468801
42	0x3dbe31c4	0.09286836
43	0x3cb71ec4	0.022353537
44	0xbdb631f8	-0.088962495
45	0x3d5cfb30	0.05395049
46	0xbdcd4e77	-0.100247316
47	0x3da7f9b4	0.08201924
48	0x3d85dec2	0.06536628
49	0xbe07a116	-0.13245043
50	0x3db1c05b	0.08679267
51	0x3d2da2a8	0.04239145
52	0x3d8632d5	0.06552664
53	0x3d1fd051	0.039017025
54	0xbd00d84c	-0.031456277
55	0xbd33c5ee	-0.043889932
56	0xbd34a50a	-0.044102706
57	0xbd6cd767	-0.05782261
58	0xbdfdae8b	-0.12386807
59	0x3d1ff867	0.039055254
60	0xbd8b1ec1	-0.06792975
61	0x3ca7a096	0.020462316
62	0xbcc27563	-0.023737615
63	0x3dca65e1	0.09882713
64	0x3cf4b2f5	0.02987049
65	0xbe0d3c72	-0.1379259
66	0xbbb4adac	-0.0055138674
67	0xbc8be7e6	-0.017078351
68	0xbdd53361	-0.104101904
69	0x3db724a5	0.08942536
70	0x3d0f8272	0.03503651
71	0x3b781ea6	0.0037860065
72	0xbe2b42fd	-0.16724773
73	0x3dc07298	0.09396857
74	0xbdfa2ea1	-0.12215925
75	0x3b536ccd	0.0032260895
76	0x3d46f42a	0.048572697
77	0xbe066360	-0.13123846
78	0x3d9377c9	0.072005816
79	0x3e2d6db0	0.16936374
80	0xbd528240	-0.051393747
81	0xbcc120e8	-0.023575261
82	0xbe08d446	-0.13362226
83	0xbe013dff	-0.12621306
84	0xbd104076	-0.035217725
85	0x3dcd8cef	0.100366466
86	0xbbfd46d4	-0.0077293906
87	0xbe05c8ed	-0.13064928
88	0x3da8d078	0.08242887
89	0x3d082e56	0.033247314
90	0x3e182da3	0.14861159
91	0xbe0e138c	-0.13874644
92	0xbe08ce77	-0.1336001
93	0x3b525848	0.0032096077
94	0xbe154ea7	-0.14580785
95	0xbdefc5ff	-0.11707687
96	0x3db6b3b9	0.08920998
97	0xbde16a3b	-0.1100659
98	0xbd44191e	-0.047875516
99	0x3db8ba8e	0.090199575
100	0x3d974535	0.07386247
101	0x3de62063	0.11236646
102	0xbd13c4e6	-0.03607645
103	0x3c002d88	0.0078233555
104	0xbd90180a	-0.07035835
105	0x3c35bcc1	0.011092366
106	0x3b6c939e	0.003609873
107	0xbd94bb1e	-0.07262252
108	0x3d8d968c	0.0691348
109	0xbd0bd149	-0.034135137
110	0x3abcf009	0.0014414798
111	0xbc581160	-0.013187736
112	0xbc37527b	-0.0111890985
113	0xbc800dd6	-0.015631597
114	0x3cdcd8a4	0.026958771
115	0x3db81ef7	0.08990281
116	0xbb883d72	-0.0041577155
117	0x3de71ac7	0.11284404
118	0xbd582945	-0.052773733
119	0x3d2e56b8	0.04256317
120	0xbdfca253	-0.123356484
121	0x3d810162	0.06299092
122	0x3cd56a95	0.026051799
123	0x3d4c545c	0.04988514
124	0xbda5d290	-0.08096802
125	0x3dff6b86	0.1247168
126	0xbd0972c8	-0.03355673
127	0x3bf23656	0.0073917313
128	0x3dac31f9	0.08407969
129	0xbe0f9b15	-0.14024003
130	0x3dd04703	0.101697944
131	0xbdcd22b6	-0.10016386
132	0xbe2f16c9	-0.17098536
133	0xbdee71e5	-0.116428174
134	0xbdce9346	-0.10086684
135	0x3de679cc	0.112537
136	0x3db3c855	0.08778445
137	0xbd82a292	-0.06378664
138	0x3d70fb61	0.058833484
139	0x3d878760	0.066176176
140	0x3ca856b6	0.02054916
141	0x3da7b4ec	0.08188805
142	0xbdde4c97	-0.10854452
143	0x3d378fc0	0.044814825
144	0x3deb94bf	0.115029804
145	0x3d17e8ef	0.037087377
146	0xbc276db7	-0.010219029
147	0xbd84b499	-0.06479759
148	0x3b9aec76	0.0047278954
149	0xbd91fb6e	-0.071280345
150	0x3d17cfd1	0.037063424
151	0xbc4f5495	-0.012654443
152	0xbcff1b8e	-0.031141069
153	0x3db03a0e	0.08604823
154	0xbd16cae1	-0.036814574
155	0xbdca5823	-0.09880092
156	0x3adb8f95	0.0016751165
157	0xbdef4201	-0.11682511
158	0xbdd43f35	-0.10363618
159	0xbd389c43	-0.045070898
160	0xbdc887d4	-0.09791532
161	0xbdc2078c	-0.09474096
162	0xbd1b58fc	-0.03792666
163	0x3c573050	0.013134077
164	0xbaf97b07	-0.0019033857
165	0x3d18a433	0.037265968
166	0x3cfbb35e	0.030725177
167	0x3dfa2dfb	0.12215801
168	0x3ca8465c	0.020541362
169	0x3c10ac41	0.008830131
170	0x3d34fa6f	0.044184145
171	0xbcc259f5	-0.023724535
172	0x3c7d378a	0.015455136
173	0x3c98e5d9	0.018664287
174	0x3dd9d844	0.106369525
175	0xbc2ce904	-0.010553602
176	0x3dd3aeb0	0.10336053
177	0x3d8b5529	0.068033524
178	0x3de8e8bd	0.11372516
179	0x3decf3a8	0.11569911
180	0xbdd787a9	-0.10523922
181	0xbdb0822e	-0.0861858
182	0xbddc9e73	-0.10772409
183	0xbde786ce	-0.11305009
184	0xbcd4a5c3	-0.025957948
185	0xbd9507e4	-0.07276896
186	0xbbd3741e	-0.006453051
187	0xbdc15d50	-0.09441626
188	0x3d9a19b1	0.075244315
189	0x3e0f64ac	0.14003247
190	0x3d0f2a36	0.034952365
191	0x3cd548af	0.026035635
192	0xbe298188	-0.16553319
193	0xbdceaae7	-0.10091191
194	0xbba94f2a	-0.005166908
195	0x3dcf2c0f	0.101158254
196	0x3d3be48b	0.045872252
197	0x3d6e34fb	0.058155995
198	0xbdbb0ed1	-0.091336854
199	0x3de0a830	0.10969579
200	0xbd92d9ac	-0.07170424
201	0x3d6cbc0b	0.05779652
202	0x3dadeead	0.084927894
203	0x3c045892	0.008077757
204	0x3d9cc051	0.07653869
205	0x3d57128f	0.052507933
206	0x3d0a03a4	0.03369488
207	0xbdaf8310	-0.0856992
208	0xbda34270	-0.07971656
209	0xbcfe369a	-0.031031895
210	0x3d2c5d83	0.042081367
211	0x3c1753e2	0.009236308
212	0xbc25e792	-0.010126011
213	0xbdac4825	-0.08412198
214	0x3d394ad5	0.04523738
215	0x3a55eeff	0.00081609184
216	0x3d9dfe2d	0.07714496
217	0x3d2b1d5a	0.04177604
218	0xbd6c252d	-0.05765264
219	0x3da39f7f	0.07989406
220	0xbd1ff0f7	-0.03904816
221	0xbe16ab11	-0.14713694
222	0xbc4b86fb	-0.012422319
223	0xbdd8b622	-0.10581614
224	0xbd144e52	-0.036207505
225	0xbe0ea83a	-0.13931361
226	0xbdcf7166	-0.10129051
227	0xbc3ae592	-0.011407273
228	0xbd6a70c5	-0.05723645
229	0x3d5ae7f0	0.05344385
230	0xbdf806cf	-0.12110674
231	0x3d99a2a0	0.075017214
232	0x3e1af411	0.15132166
233	0x3b8dc30e	0.004326231
234	0x3d247e8a	0.04015974
235	0x3c81d105	0.015846739
236	0x3cd0236c	0.025407515
237	0xbd9a9132	-0.07547225
238	0xbd897a3c	-0.067127675
239	0xbc82df94	-0.015975751
240	0x3da15b88	0.07878786
241	0x3d1ab96e	0.037774496
242	0xbdcda0a1	-0.10040403
243	0xbd97d2f4	-0.07413283
244	0x3de60f44	0.112333804
245	0x3df4925b	0.119419776
246	0xbdaff369	-0.08591349
247	0x3e0e1f8f	0.13879226
248	0xbdb44542	-0.088022724
249	0xbd2a1eaf	-0.04153317
250	0xbcea6e8c	-0.028617166
251	0x3c2ebdfd	0.010665414
252	0x3d2987b6	0.04138919
253	0x3d1c0859	0.0380939
254	0xbd40337c	-0.0469241
255	0xbd7cf0ee	-0.061753206

actor.0.bias f4 [64]
0	0xbdcb2544	-0.09919217
1	0x3c9f04f4	0.019411542
2	0xbd15eceb	-0.036602896
3	0xbd0d9f9c	-0.034576043
4	0xbddfeaa6	-0.109334275
5	0x3dd47266	0.10373382
6	0xbd135bb9	-0.035976145
7	0xbdf0e0a7	-0.11761599
8	0x3d0bb5fc	0.0341091
9	0x3d39f3bb	0.045398455
10	0x3db17ab9	0.086659856
11	0x3e1c4ab9	0.1526288
12	0x3e0b8f2d	0.13628836
13	0xbcdebad1	-0.02718869
14	0x3de95e3e	0.113949284
15	0xbd836a5a	-0.06416769
16	0x3c479316	0.012181064
17	0x3db1ab8b	0.08675297
18	0x3e02c5e8	0.12770808
19	0x3d185913	0.037194323
20	0x3e080201	0.13282014
21	0x3d51a5da	0.05118356
22	0x3c344c02	0.01100445
23	0xba829ea2	-0.0009965489
24	0xbdc5a86e	-0.09651266
25	0x3ce776cb	0.028254887
26	0x3ba7d9c4	0.005122395
27	0x3ddb9294	0.10721317
28	0xbd65b36c	-0.056079313
29	0x3d933904	0.07188609
30	0xbdbd8002	-0.09252931
31	0xbcec8d16	-0.028875869
32	0x3de61c95	0.1123592
33	0xbda6c6ad	-0.08143363
34	0x3dba03f7	0.090827875
35	0x3df46222	0.1193278
36	0xbdc3b0ab	-0.09555181
37	0x3a792ec4	0.0009505565
38	0xbc817965	-0.015804956
39	0xbd8a9741	-0.06767131
40	0xbb83494b	-0.00400654
41	0x3dd85ca6	0.10564546
42	0x3dc28433	0.09497871
43	0x3e01a2e2	0.12659791
44	0x3d8668e5	0.06562976
45	0xbdc7eb67	-0.09761696
46	0xbc906be0	-0.017629564
47	0xbc9939b8	-0.01870428
48	0x3de42f26	0.11141805
49	0xbd841ea8	-0.0645116
50	0x3d6bc521	0.057561044
51	0xbc942b7f	-0.018087147
52	0xbbb0416f	-0.005378894
53	0xbd1e12a0	-0.03859198
54	0x3c586700	0.013208151
55	0xbdfc1b56	-0.123099014
56	0x3d1ab19b	0.037767034
57	0xbd83cf23	-0.064359926
58	0x3d395552	0.045247383
59	0x3c70d7fb	0.014699931
60	0x3e0888f5	0.13333495
61	0xbd094508	-0.0335131
62	0x3d5266dd	0.05136763
63	0x3bfaf832	0.0076589817

actor.2.weight f4 [64, 64]
0	0x3c7bdc14	0.015372295
1	0x3dd1c071	0.102417834
2	0x3d0223e6	0.031772517
3	0xbd3e87f2	-0.046516366
4	0xba7b3192	-0.00095822767
5	0x3d936035	0.071960844
6	0xbd0fd626	-0.035116337
7	0x3d90e1d7	0.070743255
8	0xbb1823d0	-0.0023214705
9	0xbdb10818	-0.08644122
10	0x3cfe0956	0.031010311
11	0xbd0aac95	-0.033855993
12	0x3dd42c56	0.10360019
13	0xbcd0978a	-0.025462884
14	0xbd40a2ca	-0.047030248
15	0xbc8fb1f5	-0.017540911
16	0xbddb612a	-0.10711892
17	0x3e1bde14	0.15221435
18	0x3d6f1843	0.058372747
19	0xbc0ab811	-0.008466736
20	0x3cb70e0f	0.02234557
21	0x3c899fb4	0.016799785
22	0xbd40fad0	-0.047114193
23	0x3c44ec10	0.012019172
24	0x3e071b40	0.13193989
25	0xbd944546	-0.07239775
26	0x3d71ab07	0.059000995
27	0x3d5df1f5	0.054185826
28	0xbdd3539a	-0.1031868
29	0xbd04cbd7	-0.03242096
30	0xbd7e6dbb	-0.062116366
31	0xbd85b8f4	-0.06529418
32	0x3dab9070	0.08377159
33	0x3cf56103	0.029953485
34	0xbcbc7729	-0.023006039
35	0xbde3dc1f	-0.11125969
36	0x3e0aec21	0.13566639
37	0xbc505f4d	-0.012718034
38	0xbe094846	-0.13406476
39	0xbbde221c	-0.0067789685
40	0x3e093020	0.13397264
41	0x3cd96598	0.026537701
42	0x3c870cca	0.01648559
43	0x3d4dbcf2	0.05022902
44	0x3d0cec26	0.034404896
45	0x3dba9590	0.09110558
46	0x3e1f612d	0.15564413
47	0xbbc8870c	-0.0061196145
48	0xbd9549e0	-0.07289481
49	0x3ba3ef6b	0.005002906
50	0xbd92b69a	-0.07163735
51	0x3a1a28b4	0.0005880699
52	0x3cb5effe	0.022209164
53	0xbdae9a89	-0.08525569
54	0xbd808627	-0.062755875
55	0xbdb13d6b	-0.08654293
56	0xbdee155c	-0.11625168
57	0x3dceced1	0.10098041
58	0xbbb60ca7	-0.0055557075
59	0x3e0bd9fc	0.13657373
60	0x3dab68f4	0.083696276
61	0xbbf53d72	-0.0074841315
62	0x3c93a219	0.01802163
63	0x3d4d33ab	0.050098103
64	0x3dd1ae4a	0.10238321
65	0xbde86f6a	-0.113493755
66	0x3dda3b61	0.10655857
67	0x3cddc189	0.027069824
68	0x3db46e12	0.08810057
69	0x3d6def8f	0.05808979
70	0xbd7a8e36	-0.06117078
71	0xbd845066	-0.06460647
72	0x3dc56ade	0.09639524
73	0xbbe46470	-0.006969981
74	0xbc66a1e2	-0.014076682
75	0x3c9f96cc	0.019481085
76	0x3dcd19eb	0.10014709
77	0xbe026148	-0.12732422
78	0xba249061	-0.00062776176
79	0xbdc30e75	-0.09524242
80	0x3d725053	0.059158634
81	0x3cf40aff	0.0297904
82	0x3d93a86d	0.07209859
83	0xbca8e2cb	-0.020615956
84	0xbcdacb77	-0.026708348
85	0x3d346b8a	0.04404787
86	0xbc9c7c78	-0.01910232
87	0x3dc66290	0.09686768
88	0xbd408ded	-0.04701035
89	0xbd02a078	-0.031891316
90	0xbdb03b0d	-0.08605013
91	0x3dedea74	0.11616984
92	0xbd916acb	-0.07100447
93	0x3cb33441	0.021875503
94	0xbd479770	-0.048728406
95	0x3d3a5250	0.045488656
96	0xbce1024b	-0.027466914
97	0x3d7bfcc7	0.061520364
98	0x3dad0811	0.08448804
99	0xbdb5957a	-0.08866401
100	0xbbd98f0a	-0.006639366
101	0x3c5ea5fe	0.01358938
102	0x3c290f7d	0.010318634
103	0xbd44427b	-0.047914963
104	0xbd6d6257	-0.057955112
105	0xbe0fe1e1	-0.1405101
106	0x3d96de1b	0.07366582
107	0xbd354595	-0.04425581
108	0x3a9e4661	0.0012075418
109	0xbe133ba1	-0.14378215
110	0x3cc539a6	0.02407534
111	0x3d36b30c	0.044604346
112	0x3d07abb3	0.03312273
113	0xbe18264b	-0.14858358
114	0x3e2bc00f	0.16772483
115	0xbc242d56	-0.010020575
116	0x3d63a192	0.055574007
117	0xbdad17f8	-0.08451837
118	0xbcd1cfd9	-0.025611805
119	0xbe1f3fe0	-0.1555171
120	0x3c847975	0.016171196
121	0xbdba782d	-0.09104953
122	0x3d7b3fde	0.061340205
123	0xbbd818e8	-0.006594766
124	0x3cfcb5e3	0.03084845
125	0xbd8085d4	-0.06275526
126	0xbd8a3ecf	-0.06750261
127	0x3cec4c22	0.028844897
128	0x3d9b10d1	0.07571567
129	0x3dd462b0	0.10370386
130	0x3d8cbf18	0.06872386
131	0xbde4c51f	-0.1117041
132	0x3d437c6e	0.047726087
133	0xbd47f8fb	-0.04882143
134	0x3e018ae2	0.12650636
135	0xbd87ad8d	-0.06624899
136	0xbdc32611	-0.09528745
137	0x3e094140	0.13403797
138	0x3dfc4207	0.12317281
139	0xbced5785	-0.028972397
140	0x3db6ef97	0.08932417
141	0x3cf375b7	0.029719217
142	0xbd0a78d5	-0.03380664
143	0x3dedbbac	0.11608061
144	0xbceb2e84	-0.028708704
145	0xbdefae5a	-0.11703177
146	0x3d2d3692	0.04228837
147	0x3de533b2	0.11191501
148	0xbbd23293	-0.0064147203
149	0x3e1036d6	0.14083418
150	0xbbe6b42b	-0.0070405207
151	0x3cda8b79	0.026677834
152	0xbe074047	-0.13208114
153	0xbd75c8ab	-0.060005825
154	0xbd9f21cc	-0.07770118
155	0x3d7d2415	0.06180199
156	0x3d730f1a	0.059340574
157	0x3dec68d8	0.11543435
158	0xbde6966d	-0.1125916
159	0xbdb77dc5	-0.089595355
160	0x3cf17a5d	0.029477293
161	0x3d2433de	0.040088527
162	0xbcbd9d61	-0.023146333
163	0xbbb1e422	-0.005428807
164	0x3dde06b6	0.10841124
165	0x3d03b2b3	0.032152843
166	0xbbc0a2f4	-0.0058788005
167	0xbce66fd6	-0.0281295
168	0xbdd6d417	-0.10489672
169	0xbc2feacf	-0.010737135
170	0x3d7df393	0.06199987
171	0xbd0c53d0	-0.034259617
172	0xbdfb99d2	-0.12285198
173	0xbdbdf467	-0.09275132
174	0x3c06508c	0.008197915
175	0xbcc7bbd4	-0.024381556
176	0x3de6a748	0.11262375
177	0xbd265d80	-0.040616512
178	0xbdf4d3bc	-0.119544476
179	0x3d0bad66	0.034100913
180	0xbc37077a	-0.011171216
181	0x3d66125e	0.05616986
182	0x3e00d9fa	0.12583151
183	0x3df250d2	0.118318215
184	0x3d9b5432	0.07584418
185	0x3cef432e	0.029206838
186	0x3dd1e11d	0.10248015
187	0xbd1b1e1a	-0.037870504
188	0xbd609acd	-0.05483513
189	0x3b8812ab	0.004152616
190	0xbc541166	-0.012943601
191	0x3e034ce2	0.12822297
192	0xbb2aeb8c	-0.0026080338
193	0xbdb75c07	-0.089531
194	0xbbe31a3b	-0.006930617
195	0x3d1f8a46	0.038950227
196	0xbdda939c	-0.106726855
197	0xbc071740	-0.008245289
198	0xbda4eeea	-0.08053382
199	0x3d9bba66	0.07603912
200	0xbbbbccc0	-0.005731195
201	0xbdbabcb7	-0.09118026
202	0xbdeec8a0	-0.1165936
203	0xbe162f0c	-0.14666384
204	0x3d91c5d7	0.07117813
205	0x3ca7b5dd	0.020472461
206	0xbd8e66d3	-0.06953206
207	0xbddf6799	-0.109084316
208	0xbb0b8b52	-0.0021292758
209	0xbdbba2f0	-0.09161937
210	0xbc835f6c	-0.016036712
211	0xbc440437	-0.0119638955
212	0xbddc976d	-0.1077107
213	0xbd9a2a6d	-0.07527623
214	0xbdd0b0c0	-0.101899624
215	0x3ce1cf7b	0.027564755
216	0xbcde2655	-0.027117888
217	0x3da6b7cb	0.081405245
218	0x3dadbde5	0.08483485
219	0x3cfad105	0.030617246
220	0x3d84ca84	0.06483939
221	0x3d587568	0.052846342
222	0x3d60b47a	0.054859616
223	0x3d9753fe	0.07389067
224	0xbc445f9b	-0.011985685
225	0xbdf34e71	-0.11880196
226	0x3dbb421b	0.09143468
227	0xbd3054e3	-0.043049704
228	0xbdc83edf	-0.09777617
229	0xbd6a1b57	-0.05715498
230	0x3dafc9c3	0.08583405
231	0x3c8689eb	0.016423186
232	0x3d77f257	0.060533848
233	0xbde5ab80	-0.11214352
234	0xbd528cf1	-0.051403943
235	0xbce7be21	-0.028288903
236	0xbd67a387	-0.056552436
237	0x3cf1f46c	0.029535495
238	0x3e010d37	0.12602697
239	0x3d204aab	0.03913371
240	0xbd7fa270	-0.06241077
241	0xbd309c77	-0.043117967
242	0x3da70db8	0.081569135
243	0xbd3baa69	-0.045816813
244	0x3da889b6	0.08229391
245	0x3c9e8efa	0.019355286
246	0x3dc37238	0.0954327
247	0x3d69d2f6	0.057085954
248	0x3db188c6	0.086686656
249	0xbce05d60	-0.027388275
250	0xbdaa0863	-0.08302381
251	0x3d983ab6	0.07433073
252	0x3d958b92	0.073020115
253	0xbd80176c	-0.06254467
254	0x3cbf57cc	0.023357294
255	0x3deecc54	0.11660066

actor.2.bias f4 [64]
0	0xbd3fed72	-0.046857305
1	0xbd3eec5a	-0.04661212
2	0xbd91bda2	-0.07116248
3	0x3da67b09	0.08128936
4	0xbdde6cd5	-0.10860602
5	0xbde1693b	-0.11006399
6	0x3d4a0d07	0.04932883
7	0x3d81f449	0.06345422
8	0xbdf8f5c4	-0.12156251
9	0xbd149ea2	-0.036284097
10	0x3d803178	0.062594354
11	0xbd4348c8	-0.04767683
12	0xbc9e69ae	-0.019337501
13	0x3c12af4e	0.008952929
14	0x3d939cc6	0.072076365
15	0xbd97b498	-0.074074924
16	0x3c8725d4	0.01649753
17	0xbc07d362	-0.008290144
18	0xbc81e1f8	-0.01585482
19	0x3d65f15b	0.056138378
20	0x3dcfe915	0.10151879
21	0x3bdefa74	0.0068047587
22	0x3dd93782	0.106062904
23	0x3da6a8e8	0.08137685
24	0xbdba93e4	-0.09110239
25	0x3de9f6e0	0.11424041
26	0xbd412190	-0.04715115
27	0x3bb4196a	0.0054961937
28	0xbd98de08	-0.07464224
29	0x3daf64be	0.08564137
30	0x3dac39b2	0.08409442
31	0xbd68286d	-0.056679178
32	0xbcfd30b4	-0.030907013
33	0xbd034e2a	-0.032056965
34	0xbb92535e	-0.0044655045
35	0xbc987ded	-0.018614734
36	0x3d8b1ad0	0.067922235
37	0x3db5f5bb	0.0888476
38	0x3e0429ee	0.1290662
39	0x3e1503ec	0.14552277
40	0x3d82c668	0.06385499
41	0xbacc0362	-0.0015564973
42	0x3db79ccd	0.08965454
43	0x3d7198d4	0.05898364
44	0x3d67d250	0.056597054
45	0x3d85bdb8	0.065303266
46	0xbc7e04d3	-0.01550408
47	0x3d152ad0	0.036417782
48	0xbd0b09ca	-0.033944882
49	0x3df96754	0.121779114
50	0x3c5ba0eb	0.013405065
51	0x3d97f108	0.0741902
52	0xbd162000	-0.03665161
53	0x3da9d6e9	0.08292944
54	0x3dc23549	0.094828196
55	0x3d89cb8d	0.06728277
56	0xbd7a5b27	-0.061122086
57	0x3cd0feaa	0.025512058
58	0xbcf65e76	-0.03007434
59	0x3d9629af	0.07332169
60	0xbde15a77	-0.11003583
61	0x3bc365e4	0.005963074
62	0xbdb3c5fc	-0.08777997
63	0x3e22017e	0.15820882

actor.4.weight f4 [36, 64]
0	0xbcb018bd	-0.021496171
1	0x3d8bbb21	0.068228014
2	0xbdbee98f	-0.093218915
3	0xbd001bcd	-0.031276513
4	0x3db6cef7	0.08926194
5	0xbe18c15e	-0.14917514
6	0x3cd5b1ad	0.026085699
7	0xbd0cf3e7	-0.03441229
8	0x3dd92d58	0.10604352
9	0x3c10b154	0.008831341
10	0xbd863e9d	-0.06554911
11	0x3d1dec6f	0.03855556
12	0x3d8eaba1	0.06966329
13	0xbdd92c9e	-0.10604213
14	0xbd840e7d	-0.06448076
15	0x3d9fee58	0.07809132
16	0x3da0c792	0.07850565
17	0xbd0b3a14	-0.033990934
18	0x3ab632e9	0.001390067
19	0x3cb2080f	0.021732358
20	0xbd8c72e0	-0.06857848
21	0xbcf80b4b	-0.030278822
22	0xbcbbddc6	-0.022932898
23	0x3db8c5cb	0.09022101
24	0x3dd302c2	0.103032604
25	0x3bc84511	0.006111749
26	0x3d67dcce	0.05660706
27	0xbd81f255	-0.06345049
28	0x3dd2e819	0.10298175
29	0xbd4f40db	-0.05059896
30	0x3cfd1000	0.030891418
31	0xbe194705	-0.14968498
32	0xbc543eea	-0.012954453
33	0x3dc828b1	0.09773386
34	0xbdf76773	-0.12080278
35	0xbcd6e000	-0.026229858
36	0xbcd3cc82	-0.025854353
37	0x3dc848e0	0.09779525
38	0x3dc23ae7	0.09483891
39	0x3be3f7e7	0.0069570425
40	0xbe01eec1	-0.12688734
41	0x3d826aed	0.06368051
42	0x3d829143	0.06375363
43	0x3d19d231	0.03755397
44	0x3d8d1cb1	0.06890238
45	0xbd6d0265	-0.05786361
46	0x3d0585fd	0.032598484
47	0xbd47fc4f	-0.048824605
48	0xbdf58775	-0.11988727
49	0x3c7c685f	0.015405743
50	0x3e0fe4f0	0.14052176
51	0xbd4b20b4	-0.049591735
52	0x3d833c78	0.06408018
53	0x3d1a347f	0.03764772
54	0x3d40737d	0.04698514
55	0xbdd55f19	-0.10418529
56	0xbcb10b62	-0.021611873
57	0xbda789f5	-0.0818061
58	0x3db2fbc3	0.08739426
59	0xbda7f894	-0.082017094
60	0x3d1a350a	0.03764824
61	0xbdb5e8a0	-0.0888226
62	0xbd5fd2ca	-0.054644383
63	0xbdf9869c	-0.12183878
64	0x3c88d6a1	0.016703906
65	0x3d3141db	0.043275695
66	0x3da26f4b	0.07931384
67	0xbd423b31	-0.04741973
68	0xbd05912b	-0.032609146
69	0xbb8f23ed	-0.0043682964
70	0x3d89bc94	0.067254215
71	0x3d4cf99c	0.050042734
72	0x3dba66a0	0.091016054
73	0x3c079b55	0.00827678
74	0x3e2676bc	0.16256231
75	0xbdb42dd7	-0.08797806
76	0x3d0bf2a6	0.034166954
77	0xbdb9e7de	-0.09077428
78	0x3c8ba707	0.017047418
79	0x3de4ded8	0.111753166
80	0x3e0e800f	0.13916038
81	0xbbbbf5c4	-0.0057360847
82	0x3d503d8c	0.050839946
83	0x3b80ea97	0.0039342153
84	0x3dfc204a	0.12310846
85	0x3c1c7c8d	0.00955118
86	0xbdc55aea	-0.09636481
87	0x3e20a58e	0.15688154
88	0x3dab3994	0.083605915
89	0x3d8859cc	0.066577524
90	0x3d9279dd	0.0715215
91	0xbd84679a	-0.06465073
92	0x3d29dda7	0.04147115
93	0x3e18b864	0.1491409
94	0xbd95eedd	-0.0732095
95	0xbc1e347f	-0.009656071
96	0xbda89061	-0.08230663
97	0x3cc7c75a	0.02438705
98	0xbd0b1be9	-0.033962164
99	0xbdb1543c	-0.086586446
100	0xbdc4ed75	-0.09615604
101	0x3dbf77e9	0.09349043
102	0xbda7a158	-0.08185071
103	0xbcdc084d	-0.026859427
104	0x3dfb98fd	0.122850396
105	0xbc91b638	-0.017787084
106	0x3d940106	0.07226758
107	0x3d8e047f	0.06934451
108	0xbc93b345	-0.018029818
109	0x3d95186f	0.07280051
110	0xbd84cdf5	-0.06484596
111	0x3d9e45d5	0.07728163
112	0x3dcc5882	0.09977819
113	0x3c8bf39f	0.017083941
114	0x3c10bf55	0.00883468
115	0x3d3db625	0.046316285
116	0x3d85f0c7	0.06540065
117	0x3dd3af0a	0.103361204
118	0x3d89c1d0	0.0672642
119	0x3ceeb5f4	0.029139496
120	0x3dbb34e4	0.091409475
121	0xbd6f584f	-0.058433827
122	0xbd92d26f	-0.07169043
123	0x3da3f3bf	0.08005475
124	0xbdb6dafb	-0.08928486
125	0xbd7451f9	-0.059648488
126	0xbd35008a	-0.044189967
127	0x3de89f1c	0.11358473
128	0x3b5003d6	0.0031740568
129	0xbdaf75fd	-0.08567426
130	0x3d2989a3	0.041391026
131	0x3d7357f0	0.059410036
132	0x3d2dcf7b	0.042434197
133	0xbdaa1d4e	-0.08306371
134	0x3d8765e6	0.066112325
135	0x3dc0aa6d	0.09407506
136	0x3df2e670	0.11860359
137	0xbdea8a17	-0.1145212
138	0x3d7ac3c3	0.06122185
139	0x3d6601a8	0.056153923
140	0xbc9c1f51	-0.019057902
141	0xbdb9f05f	-0.0907905
142	0xbcd98c8b	-0.026556274
143	0xbd6eccc2	-0.05830074
144	0xbdc8a544	-0.09797147
145	0x3d253e24	0.040342465
146	0xbd54dc89	-0.05196813
147	0x3d3555c5	0.04427125
148	0xbc86b05e	-0.01644152
149	0xbcef2fb8	-0.029197559
150	0xbe29acee	-0.16569874
151	0x3b7b1b77	0.003831593
152	0xbd8f6508	-0.07001692
153	0xbd62c052	-0.055359192
154	0x3d031abc	0.032007918
155	0xbdc66262	-0.09686734
156	0xbd8e4643	-0.06946995
157	0x3d2cf639	0.042227004
158	0xbc812b03	-0.01576758
159	0xbde0004a	-0.10937555
160	0x3c246e14	0.01003601
161	0x3d8733b8	0.066016614
162	0xbd809b05	-0.06279568
163	0x3d1aa29c	0.037752733
164	0xbd46c7aa	-0.04853026
165	0xbc8d6e2a	-0.017264444
166	0xbcf57b86	-0.029966127
167	0xbcff1e35	-0.031142334
168	0x3cdc7870	0.026912898
169	0xbd5021d0	-0.050813496
170	0x3d1a9e47	0.0377486
171	0x3b869d22	0.004108087
172	0x3d52d794	0.051475123
173	0x3c22bd3d	0.009932813
174	0x3befcebc	0.007318346
175	0x3cc434fb	0.023951044
176	0x3de9d68f	0.11417877
177	0x3c79aa30	0.01523833
178	0xbdea8799	-0.114516445
179	0xbd82ffb1	-0.063964255
180	0x3d5e4aef	0.05427068
181	0xbc2bb8ba	-0.010481054
182	0xbb63c131	-0.0034752602
183	0xbe3d6cc9	-0.1849853
184	0x3c0b3afd	0.008497951
185	0x3dabd211	0.08389676
186	0x3ad7cd7a	0.0016464435
187	0xbe27dabc	-0.16392034
188	0x3db63b38	0.08898014
189	0x3da5307a	0.08065887
190	0xbd195749	-0.037436757
191	0xbd89b3a8	-0.0672372
192	0x3dbab875	0.09117214
193	0x3c732d0e	0.014842285
194	0x3dbd1a4d	0.09233532
195	0xbd0a24bb	-0.033726435
196	0xbdcef9c1	-0.101062305
197	0xbdaf2652	-0.08552231
198	0x3e05712f	0.13031457
199	0x3e08c742	0.13357261
200	0x3d42013c	0.04736446
201	0x3d3c6aef	0.046000417
202	0x3e15709e	0.14593741
203	0x3df5eff5	0.12008659
204	0x3d70c9a0	0.058786035
205	0xbbcf6eb5	-0.006330336
206	0x3c4449b1	0.01198046
207	0xbc32d4b2	-0.010914968
208	0x3e0350fd	0.12823863
209	0x3dbf2fdc	0.093353
210	0xbc5d27cf	-0.013498261
211	0x3d1df5a1	0.038564328
212	0xbd20842a	-0.03918854
213	0x3e12949d	0.14314504
214	0xbd5dc2f0	-0.054140985
215	0x3ce44ed1	0.027869614
216	0x3d7cfa58	0.061762184
217	0x3da5405c	0.08068916
218	0x3e09a7ff	0.13442992
219	0x3d9bedc3	0.07613709
220	0x3e09f310	0.13471627
221	0xbd317fe0	-0.04333484
222	0x3e097058	0.13421762
223	0x3d685b7e	0.05672788
224	0x3ddc0043	0.107422374
225	0x3d1bd6a2	0.038046487
226	0xbba3e09c	-0.0050011408
227	0xbdcd2926	-0.10017614
228	0x3de530b4	0.1119093
229	0x3e0c115a	0.13678494
230	0x3d63f3c7	0.055652406
231	0x3deb3fcd	0.114867784
232	0x3dd44e9c	0.10366556
233	0x3d9af5c1	0.07566405
234	0xbd913d9e	-0.07091831
235	0x3e04f3c8	0.1298362
236	0xbc529feb	-0.01285551
237	0x3da6d973	0.08146944
238	0x3dfffb98	0.124991596
239	0x3dfa8117	0.12231653
240	0xbd6be21d	-0.057588685
241	0x3e049429	0.12947144
242	0xbdcb0084	-0.09912208
243	0x3d58d772	0.05293984
244	0x3dd7befc	0.10534474
245	0x3dd17e3f	0.10229158
246	0xbd105bf7	-0.035243955
247	0xbd0823f1	-0.0332374
248	0x3d9db211	0.07699979
249	0x3dc3dead	0.095639564
250	0xbe1e030a	-0.15430847
251	0xbd09b1e3	-0.03361691
252	0xbde907b8	-0.11378425
253	0xbd3fe691	-0.046850745
254	0x3df9b8b5	0.12193433
255	0x3dd1e49f	0.10248684

actor.4.bias f4 [36]
0	0xbb86e47b	-0.0041165925
1	0xbc9cb8d6	-0.019131105
2	0xbd551e8d	-0.05203109
3	0x3ddcac7b	0.107750855
4	0xbbc6af77	-0.0060633975
5	0xb9859afc	-0.0002548321
6	0xbc8a84d6	-0.016909044
7	0xbdfd6a39	-0.12373776
8	0x3d97c86d	0.07411275
9	0xbce48008	-0.027893081
10	0xbe052315	-0.13001664
11	0x3dabf82a	0.08396943
12	0xbd824a76	-0.063618585
13	0xbdd43bf9	-0.103630014
14	0x3ce19f96	0.027541917
15	0xbda603f8	-0.08106226
16	0x3d220e98	0.0395647
17	0xbd1d9903	-0.038476
18	0xbd91b370	-0.07114303
19	0x3e005a8d	0.12534542
20	0xbc82c171	-0.01596138
21	0xbe03852d	-0.12843771
22	0xbdb12553	-0.08649697
23	0x3dbe8be8	0.09304029
24	0xbd713638	-0.058889598
25	0xbd952ca4	-0.07283905
26	0x3c20b58d	0.00980891
27	0xbcdfe260	-0.027329624
28	0xbe148037	-0.14502035
29	0x3d5af09a	0.05345211
30	0x3c812b00	0.015767574
31	0x3d3259e5	0.04354276
32	0xbdec2db4	-0.11532155
33	0xbd72cacc	-0.059275433
34	0xbd6fafaf	-0.058517154
35	0x3c008f5d	0.0078466805

critic.0.weight f4 [64, 62]
0	0xbdd38eec	-0.103299946
1	0xbd9ce39e	-0.07660602
2	0x3c3a8ef8	0.0113866255
3	0x3d204821	0.039131287
4	0xbd238e2b	-0.039930504
5	0x3dbb5340	0.09146738
6	0x3c48fe77	0.0122677
7	0xbd62091b	-0.055184465
8	0x3cba7d06	0.022764694
9	0x3da4aacd	0.0804039
10	0x3e1cd4a9	0.15315498
11	0x3c585a3d	0.013205108
12	0x3d7a4065	0.061096568
13	0xbcaf1fdb	-0.021377495
14	0x3e1866c7	0.14882956
15	0x3b2e1970	0.0026565455
16	0x3d993ec9	0.074826784
17	0xbda66dd2	-0.08126415
18	0x3da62406	0.0811234
19	0xbbed1643	-0.00723532
20	0xbd97707c	-0.073945016
21	0x3d1ba55a	0.03799949
22	0x3d95ccbc	0.073144406
23	0xbcd14adb	-0.02554839
24	0xbdfe338f	-0.12412178
25	0xbd98bd2a	-0.07457955
26	0xbdf05a83	-0.11736014
27	0x3db8134c	0.089880556
28	0x3c96215e	0.018326458
29	0x3d04813f	0.03234982
30	0xbda0ea19	-0.078571506
31	0xbd50b138	-0.05095026
32	0x3de3c3e5	0.11121348
33	0x3d0f2d2c	0.03495519
34	0x3d3b2629	0.04569069
35	0x3dccab36	0.099935934
36	0xbc272370	-0.01020132
37	0x3d2d0761	0.042243365
38	0xbd9f4ad0	-0.07777941
39	0xbd8dc802	-0.06922914
40	0xbbcb920f	-0.00621248
41	0xbda161a0	-0.078799486
42	0xbd6a995c	-0.05727516
43	0xbd20263c	-0.039098963
44	0x3db7fa19	0.08983249
45	0xbd1b847e	-0.03796815
46	0xbd974970	-0.07387054
47	0xbbf19efc	-0.0073736887
48	0x3d4b5d97	0.0496498
49	0xb8d38ecc	-0.00010087862
50	0x3debe093	0.115174435
51	0xbdd7359f	-0.10508274
52	0xbd3dcd52	-0.046338387
53	0xbe0d13d0	-0.13777089
54	0x3dbe0c4c	0.09279689
55	0x3de64e89	0.11245448
56	0xbcac76ea	-0.021052796
57	0x3cb3beda	0.021941591
58	0x3dcdf9bb	0.10057398
59	0xbc27f1f0	-0.0102505535
60	0x3d898a6b	0.06715854
61	0xbdda90a2	-0.10672118
62	0xbdb61fbd	-0.08892772
63	0x3db77c07	0.08959203
64	0x3c0e5864	0.008688066
65	0xbd7230f7	-0.059128728
66	0xbd8b94f9	-0.06815524
67	0x3d915de8	0.07097989
68	0x3e167364	0.14692456
69	0x3d737193	0.059434485
70	0xbdb128e6	-0.08650379
71	0xbd141b92	-0.036159106
72	0x3d811713	0.06303229
73	0x3dcb609a	0.09930535
74	0x3cbae414	0.022813834
75	0x3dff696a	0.12471278
76	0x3d326ca7	0.04356065
77	0x3da80ed6	0.08205955
78	0x3b24c4b3	0.0025141656
79	0x3cbeaffe	0.023277279
80	0xbd916405	-0.07099155
81	0xbdeb2081	-0.11480809
82	0x3a825b47	0.0009945416
83	0x3c433a6e	0.011915786
84	0x3d781145	0.060563345
85	0xbe268441	-0.16261388
86	0xbc66edf0	-0.014094815
87	0x3cd79b55	0.026319185
88	0xbcd3a659	-0.025836157
89	0x3cc77bc4	0.024351008
90	0x3ba28d4e	0.0049606925
91	0x3db07ccc	0.08617553
92	0xbbbc4926	-0.0057460247
93	0x3c1b7435	0.009488155
94	0xbc1d43d4	-0.009598691
95	0xbdaae459	-0.08344335
96	0xbdd8d361	-0.10587192
97	0x3df719ff	0.12065505
98	0xbcf09f6d	-0.029372895
99	0x3d9c99d8	0.07646531
100	0x3dc2fb00	0.09520531
101	0xbd445d6f	-0.047940668
102	0xbdf60f3f	-0.12014627
103	0xbd63ee6f	-0.05564731
104	0xbdbf0163	-0.09326436
105	0xbd9aa7b7	-0.0755152
106	0xbd989c21	-0.07451654
107	0x3d9d0271	0.07666481
108	0x3c2678fc	0.010160681
109	0x3da6fc9f	0.081536524
110	0xbdeb9ba1	-0.11504293
111	0xbdbe7b8b	-0.09300908
112	0x3a44ad5e	0.00075026404
113	0x3da06247	0.07831245
114	0xbdd5f69c	-0.10447428
115	0xbdbf5718	-0.09342784
116	0x3d09430e	0.033511214
117	0x3d8a9e8b	0.06768521
118	0x3d8ce36c	0.06879315
119	0x3ca4cf8e	0.020118501
120	0xbd12f448	-0.035877496
121	0xbccd3406	-0.02504922
122	0xbd24c917	-0.040230837
123	0x3d03bd6d	0.032163072
124	0x3d9daf83	0.07699492
125	0xbd5802a3	-0.05273689
126	0x3d2dd5d9	0.04244027
127	0x3c3c3f77	0.011489741
128	0x3dad8342	0.08472301
129	0x3c6f3692	0.014600413
130	0xbdc8cc29	-0.098045655
131	0xbd9616f1	-0.073285945
132	0xbd95ef82	-0.07321073
133	0x3d8bddb2	0.068293944
134	0xbd827205	-0.06369404
135	0xbb87be1a	-0.004142535
136	0x3dc18ad9	0.09450311
137	0x3c028b5a	0.007967794
138	0xbc545a9c	-0.012961056
139	0xbdc093b2	-0.09403171
140	0x3cab278a	0.020892877
141	0x3e0b754b	0.13618962
142	0xbdd454a8	-0.103677094
143	0x3ba22991	0.0049488028
144	0xbcb88c65	-0.022527883
145	0x3d7fe2e3	0.062472235
146	0xbdfb9574	-0.12284365
147	0x3e05d793	0.13070516
148	0x3c917457	0.01775567
149	0x3dbeff2b	0.09326013
150	0xbbe94c39	-0.007119682
151	0xbdaec1e4	-0.085330755
152	0x3da2a181	0.07940961
153	0x3db545bc	0.088511914
154	0x3db02959	0.086016364
155	0xbdef35cb	-0.11680182
156	0x3d99e8e6	0.07515125
157	0xbd4dd458	-0.050251335
158	0xbd43bfb1	-0.047790233
159	0xbd03c727	-0.03217235
160	0xbd839d9b	-0.06426545
161	0x3c415cfa	0.0118019525
162	0x3d20135e	0.03908097
163	0xbdcdbb6c	-0.100455135
164	0x3dbae30e	0.091253385
165	0x3cdfb92c	0.027309977
166	0xbd582bb0	-0.05277604
167	0x3d371f71	0.04470772
168	0x3bb831c5	0.0056211674
169	0x3d018f39	0.03163073
170	0xbd825e7e	-0.06365679
171	0xbcacfdd1	-0.021117123
172	0x3d391a45	0.04519107
173	0xbd179b13	-0.037013125
174	0xbd762872	-0.060097165
175	0x3dd16340	0.102240086
176	0xbcefd530	-0.02927646
177	0xbdae764a	-0.085186556
178	0x3cc06406	0.023485195
179	0xbde627e3	-0.112380765
180	0xbdedf546	-0.11619048
181	0x3d92c7d8	0.071670234
182	0xbcced03a	-0.025245775
183	0xbd665c46	-0.056240343
184	0xbd4404d9	-0.047856186
185	0x3daa7821	0.08323694
186	0x3da02a29	0.078205414
187	0x3ca3c6c5	0.019992242
188	0xbd4214c0	-0.04738307
189	0x3d17bf66	0.037047766
190	0xbd248121	-0.04016221
191	0xbdb3f380	-0.08786678
192	0x3b035489	0.00200394
193	0xbbd60ed9	-0.0065325317
194	0xbdad6423	-0.08466365
195	0xbdd3fdd0	-0.10351145
196	0x3d20872d	0.039191414
197	0xbd6298f7	-0.05532166
198	0x3daa4d55	0.08315531
199	0x3c8132d9	0.015771316
200	0xbca1ac3b	-0.019735446
201	0xbd475f9a	-0.048675157
202	0x3db39ff3	0.08770742
203	0x392db455	0.00016565745
204	0xbd154f09	-0.036452327
205	0x3d6f0d60	0.058362365
206	0xbd3380b1	-0.0438239
207	0x3c294dc7	0.010333485
208	0x3d8f50ad	0.069978096
209	0x3d84a028	0.0647586
210	0xbd828b5e	-0.063742384
211	0xbd510c74	-0.051037267
212	0x3ddcec6b	0.10787281
213	0xbc16c3b8	-0.009201936
214	0xbda0c360	-0.07849765
215	0xbd842af2	-0.06453504
216	0xbdf733e8	-0.12070447
217	0x3db14c64	0.086571485
218	0x3d39fa96	0.045404993
219	0xbce9749b	-0.028497985
220	0x3c61613c	0.013756093
221	0xbe10dbd5	-0.1414636
222	0x3dde4af3	0.10854139
223	0xbdc49228	-0.095981896
224	0x3c9eb195	0.019371787
225	0x3da971e8	0.08273679
226	0x3d8dc6f3	0.06922712
227	0xbc949446	-0.018137109
228	0xbdde333c	-0.10849616
229	0x3dbccdd1	0.09218944
230	0xbd12d497	-0.035847273
231	0xbda7e7d8	-0.081985176
232	0xbdb846c4	-0.089978725
233	0xbdc45300	-0.095861435
234	0xbd807622	-0.06272532
235	0x3dbe9f1b	0.09307691
236	0xbdc5875c	-0.096449584
237	0xbdc01abd	-0.093801
238	0xbd24ffa1	-0.04028285
239	0xbdfead62	-0.12435414
240	0xbd7d6323	-0.061862122
241	0x3d575cfd	0.052578915
242	0xbd6781bc	-0.05652021
243	0xbdf0a3fa	-0.11750026
244	0xbd4f3c2c	-0.050594494
245	0x3c864723	0.016391343
246	0xbe04efd9	-0.1298212
247	0xbd909600	-0.0705986
248	0x3daaae70	0.083340526
249	0xbdb0a98b	-0.08626088
250	0x3d2f34f7	0.04277512
251	0xbd1221e8	-0.035676867
252	0xbdddb761	-0.108259924
253	0xbcf32f72	-0.02968571
254	0x3d21aa6e	0.039469175
255	0xbd874bb4	-0.06606236

critic.0.bias f4 [64]
0	0x3de31e6d	0.11089788
1	0xbcce8115	-0.025208035
2	0xbd4009db	-0.0468844
3	0x3cc3c4f6	0.02389763
4	0xbe08dc78	-0.13365352
5	0x3dd86c36	0.105675146
6	0xbdb72d6d	-0.08944211
7	0x3d4bafb5	0.049728114
8	0x3d957145	0.07296995
9	0x3dcac1d1	0.09900249
10	0x3b654452	0.003498335
11	0x3d4a8ede	0.049452655
12	0x3dcaa5b1	0.098948844
13	0x3dd41843	0.1035619
14	0xbdcfb7a9	-0.10142452
15	0x3da16a22	0.07881571
16	0x3ca9d920	0.020733416
17	0x3b944007	0.004524234
18	0xbdcab73a	-0.09898229
19	0x3dc5a30f	0.096502416
20	0x3dfeb579	0.12436957
21	0x3dbc9a37	0.09209102
22	0xbdc0dec8	-0.09417492
23	0xbdfd7ca0	-0.12377286
24	0x3c6fe837	0.014642767
25	0x3d04f1e8	0.032457262
26	0x3d4f0597	0.05054244
27	0xbdfba97c	-0.12288186
28	0x3d116782	0.035499103
29	0x3df23209	0.1182595
30	0x3c3c1fdc	0.011482205
31	0x3d064db4	0.032788947
32	0x3dc9ae14	0.09847656
33	0x3ddd20f6	0.107973024
34	0xbd3f8955	-0.04676183
35	0x3d9b8c67	0.07595139
36	0x3c29f744	0.010373894
37	0xbba3b390	-0.0049957708
38	0xbdf90cc3	-0.12160637
39	0xbd948b74	-0.07253161
40	0xbdb73652	-0.08945908
41	0xbce2bf37	-0.027679069
42	0xbbe67efc	-0.0070341807
43	0xbc810232	-0.015748117
44	0x3df74fdf	0.12075781
45	0x3c690d18	0.014224313
46	0xbcefe60c	-0.0292845
47	0x3dd5ecba	0.10445543
48	0xbd3bdd4d	-0.045865346
49	0xbddf9952	-0.109179154
50	0x3df38a64	0.1189163
51	0xbd3f81e8	-0.046754748
52	0x3d317858	0.04332766
53	0x3db69ea5	0.08916978
54	0xbdaf9229	-0.085728
55	0xbd51b193	-0.05119474
56	0x3da11b3d	0.078665234
57	0x3d5ee8cb	0.054421227
58	0x3d0a4e28	0.03376594
59	0x3de800f8	0.1132831
60	0x3dcc46a7	0.09974413
61	0x3e00bfca	0.12573162
62	0xbc4ded1e	-0.01256874
63	0xbc56b579	-0.01310479

critic.2.weight f4 [64, 64]
0	0x3d920b93	0.07131114
1	0x3d7dd09b	0.06196652
2	0xbe05650b	-0.13026826
3	0xbd888771	-0.066664584
4	0x3d2a3b21	0.041560296
5	0xbe072e5d	-0.1320128
6	0x3d839135	0.064241804
7	0x3d98e810	0.074661374
8	0xbdcf46d1	-0.10120929
9	0xbda770c5	-0.08175806
10	0xbd4ab5d2	-0.049489804
11	0x3ded7ed2	0.11596455
12	0xbd306f62	-0.043074973
13	0x3db205f1	0.086925395
14	0x3dbe58fe	0.09294318
15	0xbd44dbe2	-0.04806126
16	0xbdd55f4b	-0.10418566
17	0xbe0a2ef2	-0.1349447
18	0x3db22cf3	0.0869998
19	0x3d68e2f3	0.05685706
20	0xbdc202b2	-0.0947317
21	0x3dbe6386	0.09296326
22	0x3ddf579e	0.109053835
23	0x3d0bb67f	0.03410959
24	0x3ca31b86	0.019910585
25	0xbbae32c4	-0.0053161103
26	0x3dc67729	0.09690697
27	0x3dc905b7	0.09815543
28	0x3d9d3560	0.07676196
29	0x3db867a0	0.0900414
30	0x3d81732f	0.06320798
31	0xbc93422f	-0.017975895
32	0xbd52414e	-0.05133181
33	0xbdcb1968	-0.09916955
34	0xbde32191	-0.11090387
35	0x3bb15a69	0.005412389
36	0xbcbffbbe	-0.02343547
37	0x3d0ac4b4	0.033878997
38	0x3cda0ffc	0.02661895
39	0x3d76a187	0.06021264
40	0x3d8ecaa3	0.06972244
41	0xbe102418	-0.14076269
42	0xbcc1e875	-0.023670414
43	0x3d063358	0.03276381
44	0x3df3d3af	0.1190561
45	0x3d058c46	0.03260448
46	0xbbf3d5d2	-0.007441261
47	0xbd66048a	-0.056156673
48	0x3d26ae4e	0.040693574
49	0xbdad6bd5	-0.08467833
50	0xbd948198	-0.072512805
51	0xbdd156d4	-0.10221639
52	0x3d961c08	0.07329565
53	0x3d8835bf	0.06650876
54	0x3db6f298	0.0893299
55	0xbd7a5a14	-0.06112106
56	0x3dee7a32	0.11644401
57	0xbddca47c	-0.107735604
58	0xbddbe365	-0.107367314
59	0xbc802e1a	-0.015646983
60	0x3d02b7f9	0.03191373
61	0x3d88e20a	0.066837385
62	0xbb2fa27b	-0.0026799727
63	0xbd81d951	-0.06340278
64	0xbda1c500	-0.07898903
65	0x3d666786	0.05625107
66	0x3dd4a964	0.10383871
67	0x3cdadc54	0.026716389
68	0x3b8e8140	0.004348904
69	0x3d500be8	0.050792605
70	0xbcfd7888	-0.030941263
71	0xbb9740d2	-0.0046158815
72	0x3c3784e5	0.011201118
73	0x3daa7bea	0.08324416
74	0x3d58d3f7	0.05293652
75	0x3c80690b	0.015675088
76	0xbd60b931	-0.054864112
77	0xbcaffc3e	-0.021482583
78	0x3d9bf634	0.07615319
79	0x3d9dd2b6	0.077062055
80	0x3d5b2932	0.053506084
81	0x3d8293da	0.06375857
82	0xbc829141	-0.015938403
83	0x3d67115b	0.056413036
84	0x3d838f1f	0.064237826
85	0x3d7d459e	0.06183397
86	0xbd7f1044	-0.06227137
87	0x3d99c5cb	0.07508429
88	0xbacba5c0	-0.0015537068
89	0x3a82992a	0.0009963859
90	0x3cf642ec	0.030061208
91	0xbe01ba3d	-0.126687
92	0x3d07c869	0.03315011
93	0xbe029d6e	-0.12755367
94	0x3dc68ed2	0.096952096
95	0xbe065e63	-0.13121943
96	0xbdafb694	-0.08579746
97	0x3c3ca6ff	0.011514424
98	0xbc326cc0	-0.010890186
99	0x3d282697	0.041052427
100	0xbbf921c7	-0.0076029035
101	0x3cc2487a	0.0237162
102	0xbddd026f	-0.1079148
103	0xbdccfc95	-0.10009114
104	0xbc921208	-0.017830864
105	0xbadf05de	-0.0017015298
106	0xbd8adefc	-0.06780812
107	0xbd52bc95	-0.051449377
108	0xbdb06cbb	-0.08614489
109	0x3ddf84ad	0.10913978
110	0x3d9eb5d2	0.07749523
111	0xbcdb0c1a	-0.026739169
112	0x3c4f20e1	0.012642116
113	0xbd896853	-0.067093514
114	0xbc909412	-0.01764873
115	0xbd06c8a2	-0.032906182
116	0xbd9216f3	-0.071332835
117	0x3df46ada	0.11934443
118	0xbda73f1f	-0.08166336
119	0xbdef4899	-0.11683769
120	0x3dd34f07	0.10317808
121	0xbcb3cca1	-0.02194816
122	0x3db06f72	0.086150065
123	0x3dd3bf81	0.10339261
124	0xbbdb5b46	-0.0066942303
125	0xbd8f4d89	-0.069972105
126	0x3e0c5656	0.1370481
127	0xbd415c23	-0.04720701
128	0x3dac1d5e	0.08404039
129	0x3bb45290	0.0055030063
130	0x3d3b4f75	0.045730073
131	0xbc344df5	-0.0110049145
132	0x3cea4216	0.028595965
133	0xbccf51c6	-0.025307547
134	0xbc013d90	-0.007888213
135	0x3da12aa1	0.07869459
136	0xbc8bede4	-0.017081209
137	0xbcda3b7e	-0.026639696
138	0x3d777e37	0.060423102
139	0x3c917749	0.017757075
140	0x3d1a287e	0.037636273
141	0xbe0fba0f	-0.1403582
142	0x3ddaf709	0.106916495
143	0x3e0b5cc8	0.13609612
144	0xbe159a86	-0.14609727
145	0xbdea03df	-0.114265196
146	0xbe0b4728	-0.13601363
147	0xbd9900fa	-0.074708894
148	0x3d482c90	0.048870623
149	0xbb143e56	-0.0022620163
150	0xbcfd39d5	-0.030911366
151	0xbce5d9ed	-0.028058017
152	0x3dd9bf01	0.10632134
153	0xbdf2074f	-0.118178
154	0x3d89d086	0.06729226
155	0xbddcdac3	-0.10783913
156	0xbdfe00b4	-0.12402478
157	0xbdd7a689	-0.10529811
158	0x3cfd034f	0.030885367
159	0x3dad564e	0.08463727
160	0xbca42b48	-0.02004017
161	0xbc246c09	-0.010035523
162	0x3c79e6cb	0.015252779
163	0x3d9d25d2	0.07673229
164	0x3d934641	0.07191134
165	0x3d8e799a	0.069567874
166	0xbd7c8615	-0.061651308
167	0xbd1973a5	-0.037463803
168	0xbd859e93	-0.06524386
169	0x3d9f72f4	0.077855974
170	0xbe0a38cc	-0.13498229
171	0x3dd5d78c	0.10441503
172	0xbdd5312d	-0.1040977
173	0x3cce1e29	0.025160866
174	0x3ce7e16c	0.028305732
175	0x3dfc3826	0.12315397
176	0xbddb2ea3	-0.107022546
177	0x3d012660	0.031530738
178	0xbd383ddf	-0.04498088
179	0xbde23e8f	-0.11047088
180	0x3cd847ca	0.02640142
181	0x3d852697	0.06501501
182	0xbd1652f0	-0.03670019
183	0xbdcb30a4	-0.09921387
184	0x3d3bf414	0.045887068
185	0xbda13f7b	-0.07873436
186	0xbcd5aba2	-0.026082817
187	0xbdaffe4b	-0.085934244
188	0x3d258668	0.040411383
189	0x3dbcee96	0.09225194
190	0x3b6a15d4	0.0035718577
191	0x3d726bb4	0.059184745
192	0xbcbe7799	-0.023250388
193	0x3c864fae	0.016395416
194	0xbdc6e580	-0.097117424
195	0xbd9bacc2	-0.0760131
196	0x3de3407b	0.11096283
197	0xbb8be0ef	-0.0042687575
198	0xbdb569ec	-0.088580936
199	0x3e1b9923	0.15195136
200	0xbe13ee29	-0.1444632
201	0x3d317152	0.04332096
202	0xbdc87cf9	-0.09789462
203	0x3d2db7a5	0.042411465
204	0x3c0ec61a	0.008714223
205	0xbde96bdc	-0.11397526
206	0x3da63a10	0.08116543
207	0xbd47b791	-0.048759047
208	0xbd405a27	-0.046960976
209	0x3da53fd6	0.08068816
210	0x3dd07e3b	0.101803266
211	0xbda22f4f	-0.0791918
212	0xbe22acdb	-0.15886252
213	0xbd811b5e	-0.06304048
214	0x3cfae854	0.03062836
215	0xbdf86455	-0.12128512
216	0x3d6fff7b	0.058593255
217	0x3e04ba20	0.12961626
218	0x3dc80f17	0.09768503
219	0x3db842ba	0.08997102
220	0x3da743a1	0.08167196
221	0x3d901f9c	0.07037279
222	0x3d39399c	0.045220956
223	0x3de2bb73	0.11070909
224	0xbdccf2b2	-0.10007228
225	0xbc678561	-0.014130921
226	0xbbb9fec9	-0.0056761247
227	0x3de3418c	0.110964864
228	0xbdc93cb5	-0.09826032
229	0xbd11485c	-0.035469398
230	0x3d7ace91	0.061232153
231	0x3d99261e	0.074779734
232	0x3d207745	0.039176244
233	0xbc2abf59	-0.010421597
234	0xbe007cb3	-0.12547569
235	0x3d116dce	0.03550511
236	0x3d183f1f	0.037169572
237	0x3d2fd476	0.042927228
238	0x3e006d59	0.12541713
239	0xbdb65fd4	-0.089049965
240	0x3c9a59af	0.018841593
241	0xbd8ec3cc	-0.06970939
242	0x3d232428	0.039829403
243	0xbd476b03	-0.04868604
244	0x3d825d4d	0.06365452
245	0xbdb4615e	-0.08807634
246	0xbcf50188	-0.029907957
247	0xbcc4ae37	-0.024008853
248	0xbd7fddfd	-0.062467564
249	0xbe0915ed	-0.1338727
250	0x3d1e7698	0.03868732
251	0x3dfca1b8	0.12335533
252	0x3d9f23e4	0.077705175
253	0x3d9d2054	0.07672182
254	0xbcdda6a3	-0.027056998
255	0x3db61cbb	0.08892199

critic.2.bias f4 [64]
0	0x3da1f179	0.079073854
1	0x3d58024e	0.052736573
2	0xbd6fdbe4	-0.058559313
3	0xbd151538	-0.03639719
4	0xbc4e0140	-0.01257354
5	0x3dcb215e	0.09918474
6	0xbc7a5840	-0.0152798295
7	0x3cba2ec3	0.022727376
8	0xbd00a07c	-0.03140305
9	0xbdb5e20e	-0.08881007
10	0xbd8fd6e5	-0.0702341
11	0xbd922f4f	-0.0713793
12	0x3d35203c	0.044220194
13	0xbdcabd2c	-0.09899363
14	0x3de0eb71	0.10982407
15	0xbda5e5bf	-0.08100461
16	0x3db527be	0.08845471
17	0x3d4e6de5	0.050397772
18	0xbd05e451	-0.032688443
19	0x3c8a10de	0.016853746
20	0xbd513965	-0.051080126
21	0xbdbedc88	-0.09319407
22	0x3e010cf9	0.12602605
23	0x3dfe0de4	0.12404993
24	0xbd45327c	-0.04814385
25	0x3cd02044	0.02540601
26	0x3dc7a3a6	0.0974801
27	0x3d92603d	0.07147262
28	0xbc82a917	-0.015949769
29	0x3dcc39ac	0.099719375
30	0xbd986bcc	-0.074424356
31	0x3cc6e86d	0.024280751
32	0x3e022748	0.12710297
33	0xbd8dd678	-0.06925672
34	0xbe01eb39	-0.12687387
35	0x3df911c1	0.121615894
36	0x3d9d170b	0.07670411
37	0x3d799521	0.060933236
38	0x3d039637	0.032125678
39	0x3d5b38ba	0.053520896
40	0x3db98379	0.090582795
41	0x3d35618f	0.044282492
42	0xbdfa506d	-0.12222371
43	0x3d217cad	0.03942554
44	0xbd89ae6e	-0.06722723
45	0xbd31bdc8	-0.04339388
46	0xbc574bd9	-0.013140642
47	0xbd92ec72	-0.071740046
48	0xbdb6c852	-0.08924927
49	0xbe06454f	-0.13112377
50	0x3d8b0406	0.06787877
51	0x3dd8dba5	0.10588769
52	0x3be5cc38	0.00701287
53	0x3d6bffdb	0.05761705
54	0x3d7974b4	0.060902312
55	0x3d6b3bcc	0.057430074
56	0x3dbb85ed	0.09156404
57	0x3d9c2690	0.07624543
58	0x3d1411d3	0.03614981
59	0x3dfaec2b	0.12252077
60	0xbd1725bf	-0.03690123
61	0xbda40257	-0.08008259
62	0xbd89220b	-0.06695946
63	0x3da3d676	0.079998896

critic.4.weight f4 [1, 64]
0	0xbda97e17	-0.08276003
1	0xbd934f38	-0.07192844
2	0xbdc8a6fa	-0.09797473
3	0xbe034e80	-0.12822914
4	0x3c615f10	0.013755575
5	0x3da0249a	0.07819481
6	0x3d4589cc	0.048227116
7	0x3cc9aef3	0.024619555
8	0xbd64f1b9	-0.055894587
9	0x3db7cc70	0.0897454
10	0xbd129ab6	-0.035792075
11	0x3ca2939a	0.019845773
12	0x3ddbe8a8	0.10737735
13	0xbd9e1bf7	-0.077201776
14	0xbdd00771	-0.10157669
15	0x3de843fb	0.11341091
16	0xbd318fdf	-0.043350097
17	0x3d99517a	0.074862435
18	0xbbb5e8a4	-0.0055514146
19	0xbdf52225	-0.11969403
20	0xbdf716fb	-0.1206493
21	0x3e061c7d	0.13096805
22	0xbd09060a	-0.033453025
23	0x3d87fd4f	0.06640112
24	0x3d05a839	0.032631133
25	0xbdd85209	-0.10562522
26	0xbd23b114	-0.039963797
27	0x3b93051f	0.0044866945
28	0xbd81d10c	-0.06338701
29	0x3da14820	0.07875085
30	0x3cd1b8a3	0.025600737
31	0xbc58e1aa	-0.013237396
32	0xbdade0a9	-0.08490116
33	0xbd226752	-0.039649315
34	0xbb6fbabc	-0.0036579808
35	0xbd74f596	-0.05980452
36	0x3da15d31	0.07879103
37	0xbd9b22d1	-0.07575
38	0x3d520d05	0.051281948
39	0xbd8df887	-0.069321685
40	0x3dd8805b	0.10571357
41	0xbd5d240f	-0.053989466
42	0x3c292fe3	0.0103263585
43	0xbcf677b4	-0.030086376
44	0xbbc9cc42	-0.0061583826
45	0xbdcce1c5	-0.100039996
46	0xbc91f7a5	-0.017818281
47	0x3de906da	0.1137826
48	0xbd8597e0	-0.065231085
49	0x3c39b4e9	0.011334636
50	0x3dbb9022	0.091583505
51	0x3c0056c3	0.007833186
52	0xbe069e6e	-0.13146374
53	0x3d84d6bf	0.06486272
54	0xbccc187c	-0.024914019
55	0xbe0505da	-0.12990513
56	0x3dc6c757	0.0970599
57	0xbcc75358	-0.024331734
58	0xbd6ccfc2	-0.05781532
59	0xbcd67bce	-0.026182082
60	0xbbcb2176	-0.006199057
61	0xbd1a14ab	-0.037617367
62	0x3d1df0a8	0.038559586
63	0x3cf99c65	0.030470083
