Models/Reward_shaping_vm/RS_baseline_meander_vm_9_0/53000.pth (torch, 78437 bytes, 11 tensors)

actor.0.weight f4 [64, 62]
0	0xbe23e72b	-0.16006152
1	0xbe8058c3	-0.2506772
2	0xbddff4aa	-0.10935338
3	0xbe19ccc3	-0.15019517
4	0x3e4bbfeb	0.1989743
5	0x3f2918d4	0.6605351
6	0x3e373016	0.17889437
7	0x3f403d56	0.7509359
8	0xbe5a97eb	-0.21347015
9	0x3cfc2c77	0.030782921
10	0x3ec0186a	0.37518626
11	0x3eb8e092	0.36108834
12	0xbcb55fdc	-0.022140436
13	0xbb909cd9	-0.004413229
14	0xbd3a67df	-0.045509215
15	0x3ca5059b	0.020144274
16	0x3ca0347a	0.019556273
17	0xbd9b8dc1	-0.07595397
18	0xbc59d8a0	-0.013296276
19	0xbd6987b6	-0.05701419
20	0xbcc81d43	-0.024428016
21	0xbbefc20e	-0.0073168343
22	0x3dd5dd3e	0.10442589
23	0xbc5d1b15	-0.013495226
24	0x3cf76542	0.03019965
25	0xbe5aee9e	-0.21380088
26	0x3dda43ac	0.10657439
27	0xbceed86e	-0.029155936
28	0x3dc86047	0.097839884
29	0x3d1d84d8	0.038456768
30	0xbd1a47c7	-0.03766611
31	0xbd8852b8	-0.06656402
32	0xbd8e9634	-0.06962243
33	0xbd84a095	-0.06475941
34	0x3d6b44bc	0.057438597
35	0x3d0574ef	0.03258222
36	0xbe13ad2a	-0.14421526
37	0xbd5b4e0b	-0.053541224
38	0xbe3825a8	-0.17983115
39	0xbdf08e13	-0.117458485
40	0xbd75c12c	-0.059998676
41	0xbdae64ec	-0.08515343
42	0x3e2e6508	0.17030728
43	0xbdc39054	-0.09549013
44	0xbe60cead	-0.2195384
45	0xbd8e0fde	-0.0693662
46	0xbe583e7a	-0.21117583
47	0xbc959782	-0.018260721
48	0x3d8310d9	0.06399698
49	0xbde3013c	-0.1108422
50	0xbba071aa	-0.0048963623
51	0xbd1e2d01	-0.038617138
52	0xbe58a0f0	-0.21155143
53	0x3e23f8f7	0.16012941
54	0x3d7156d0	0.05892068
55	0xbe89df7e	-0.26928324
56	0xbe22bbaf	-0.15891908
57	0xba55de24	-0.00081584067
58	0xbd3dc00c	-0.04632573
59	0x3e0e9c54	0.13926822
60	0x3c11dc43	0.008902612
61	0x3dbef9f9	0.09325022
62	0xbd88d39e	-0.06680988
63	0x3c0b3f22	0.008498939
64	0xbdf4e977	-0.119585924
65	0xbdc50ddd	-0.09621785
66	0xbc4090f7	-0.011753312
67	0xbed42b94	-0.41439497
68	0xbea70bf0	-0.32626295
69	0xbe8eb70d	-0.27874032
70	0x3dedb8d5	0.116075195
71	0x3e2d8085	0.16943558
72	0x3d864b33	0.06557312
73	0x3ef3c26c	0.4760927
74	0xbe5a2917	-0.21304737
75	0xbe52acb1	-0.20573689
76	0xbdd9e3e8	-0.10639173
77	0xbeb9c906	-0.3628618
78	0x3c4575d8	0.012052022
79	0x3e0a191f	0.13486145
80	0xbd528240	-0.051393747
81	0x3c87352b	0.016504845
82	0xbe9d767f	-0.30754468
83	0xbe7560db	-0.23962729
84	0xbd104076	-0.035217725
85	0x3e0fe56c	0.14052361
86	0xbd04bc6a	-0.03240625
87	0xbde70565	-0.11280326
88	0x3da8d078	0.08242887
89	0x3d43fdc1	0.04784942
90	0xbe783694	-0.2423957
91	0xbe09cbc7	-0.13456641
92	0xbdbb559e	-0.091471896
93	0xbde4c2af	-0.111699454
94	0xbe9458d5	-0.28974023
95	0xbe5862c1	-0.21131422
96	0x3db6b3ba	0.08920999
97	0xbe3a1b61	-0.18174507
98	0x3b19efd5	0.0023488898
99	0x3df08cd4	0.11745611
100	0x3ec0c494	0.37649977
101	0x3f1406b5	0.57822734
102	0xbdb34432	-0.087532416
103	0xbdfc368f	-0.12315094
104	0xbca24aa1	-0.019810976
105	0x3ea7d9a8	0.32783246
106	0xbc2c421c	-0.010513809
107	0xbd34ca95	-0.04413851
108	0x3e1aebc5	0.15129001
109	0x3d9beec9	0.07613904
110	0x3d8b894b	0.06813296
111	0xbe0f8f43	-0.14019494
112	0x3db602b6	0.08887236
113	0xbda0ea4d	-0.07857189
114	0x3b02b78f	0.0019945835
115	0x3db9b449	0.0906759
116	0xbb984ebc	-0.0046480577
117	0xbc4a9634	-0.012364913
118	0x3d9cd35a	0.076574996
119	0x3d2b58d3	0.041832756
120	0xbe00abfd	-0.12565608
121	0x3d3354d9	0.04378209
122	0x3c9f2e34	0.019431211
123	0x3d8a7184	0.06759933
124	0xbe426d3b	-0.1898698
125	0x3c4fc1c4	0.012680475
126	0xbd74e6a6	-0.059790276
127	0xbdc627fe	-0.09675597
128	0xbdbb6440	-0.091499805
129	0x3d8294e7	0.06376057
130	0x3e6f7df3	0.2338789
131	0x3dcd4db5	0.10024587
132	0xbd1b8458	-0.03796801
133	0x3db250db	0.08706828
134	0x3e730b69	0.23734821
135	0x3f062cfa	0.5241238
136	0x3ebb8be5	0.3663017
137	0x3e6b57a0	0.22982645
138	0x3e1938f1	0.14963128
139	0x3efd5ff8	0.4948728
140	0x3e52a539	0.2057084
141	0x3e54ba3c	0.20774168
142	0xbdde4c97	-0.10854452
143	0x3e25b3c6	0.1618186
144	0x3e6af105	0.22943504
145	0x3dad4c06	0.08461766
146	0xbc276db8	-0.01021903
147	0x3ab81f2c	0.0014047376
148	0x3e0c1d3a	0.13683024
149	0x3be524a0	0.0069928914
150	0x3d17cfd0	0.03706342
151	0x3d9de7a1	0.07710195
152	0x3ef950c8	0.48694444
153	0x3e89c314	0.26906645
154	0xbc4ae6ca	-0.012384126
155	0xbe8dd137	-0.2769868
156	0x3e499859	0.19687022
157	0x3d122c54	0.035686806
158	0xbdd43f36	-0.10363619
159	0xbd309564	-0.04311122
160	0xbe812654	-0.25224555
161	0xbe8a844e	-0.27054065
162	0x3e39ec24	0.18156487
163	0x3e7b1915	0.24521287
164	0x3dd0d5b3	0.1019701
165	0xbe8f8968	-0.2803452
166	0x3e36bf17	0.17846332
167	0x3ec511e2	0.38490206
168	0x3dbd2b15	0.09236733
169	0x3d1bf115	0.03807171
170	0x3d35bb5c	0.044368133
171	0x3e157cdd	0.14598413
172	0xbcfef3b8	-0.031122074
173	0xbd87a941	-0.066240795
174	0x3e35db49	0.17759432
175	0x3d86d355	0.06583277
176	0x3dd75938	0.10515064
177	0x3d9ff4ff	0.07810401
178	0x3e5e7120	0.21722841
179	0x3e198973	0.14993839
180	0xbcdd8f7e	-0.027045961
181	0xbd83f505	-0.06443218
182	0xbd9d7e64	-0.07690123
183	0x3908eb7e	0.00013057698
184	0x3c2b03ae	0.010437889
185	0xbd1e2010	-0.038604796
186	0xbce1f86d	-0.027584279
187	0x3e1a5604	0.15071875
188	0x3e954488	0.29153848
189	0x3e894736	0.26812142
190	0x3d9b214e	0.07574712
191	0xbe54af2d	-0.2076995
192	0xbe767e5b	-0.24071638
193	0xbee239fd	-0.44184867
194	0x3b56baa6	0.003276506
195	0xbc8066c6	-0.015674006
196	0xbdb92ef3	-0.09042158
197	0xbed9911c	-0.42493522
198	0xbe541611	-0.20711543
199	0xbcc80181	-0.02441478
200	0x3d74bcce	0.05975037
201	0xbe0dd080	-0.13849068
202	0xbd210131	-0.039307777
203	0xbdddc4cd	-0.108285524
204	0x3d9cc050	0.07653868
205	0xbc33fee4	-0.010986064
206	0xbdaa2db3	-0.08309498
207	0xbde0f844	-0.10984853
208	0xbda34270	-0.07971656
209	0xbdc57376	-0.09641163
210	0xbc78a478	-0.015175931
211	0xbdad2895	-0.08455006
212	0xbc25e790	-0.01012601
213	0xbe375c64	-0.17906338
214	0xbe2218a6	-0.15829715
215	0xbe05c2a1	-0.13062526
216	0x3e725f50	0.23669171
217	0x3ef16949	0.4715064
218	0xbc6b6520	-0.014367372
219	0x3cf74ad7	0.030187054
220	0xbd1ff0f8	-0.039048165
221	0xbe0e977c	-0.13924974
222	0x3ef56605	0.47929397
223	0x3e735a6a	0.23764959
224	0xbed9ab37	-0.4251344
225	0xbed15516	-0.40885228
226	0x3d387b8e	0.045039706
227	0x3e5fd462	0.21858361
228	0xbe7c00fc	-0.2460975
229	0xbdf6c487	-0.12049203
230	0xbd777154	-0.060410812
231	0x3d7a0b2f	0.06104582
232	0xbe06289c	-0.13101429
233	0xbe352537	-0.17689978
234	0x3eaa1f7a	0.3322714
235	0x3e336841	0.17520238
236	0xbdba156e	-0.09086119
237	0xbee40cb6	-0.44540948
238	0xbd8aad4f	-0.06771337
239	0xbddebd16	-0.10875909
240	0xbd4e9e8c	-0.05044417
241	0x3d99787c	0.07493684
242	0x3d7f5fc2	0.06234718
243	0x3d9ee5f3	0.07758703
244	0x3e7da7cb	0.24771039
245	0x3e324d9c	0.17412418
246	0x3c76c1b3	0.01506083
247	0x3e7962aa	0.24354044
248	0xbc502fd0	-0.012706712
249	0x3d1d28ec	0.038369104
250	0xbb97126a	-0.0046103494
251	0xbd954919	-0.07289333
252	0xbe8128b4	-0.25226367
253	0x3dca1ace	0.09868394
254	0x3cb48001	0.022033693
255	0xbde7c0ac	-0.11316046

actor.0.bias f4 [64]
0	0xbd374efb	-0.044753056
1	0x3d88b68a	0.066754416
2	0x3ccc3d0d	0.024931455
3	0x3d7c1ba1	0.061549786
4	0xbdd7c893	-0.10536303
5	0x3d998c42	0.07497455
6	0xbcddb4c0	-0.027063727
7	0x3c17c80a	0.009264002
8	0xbc77e5f4	-0.015130509
9	0x3c9c5048	0.01908125
10	0x3dd3ccdb	0.103418075
11	0x3de0cbf5	0.10976402
12	0x3d8cd9a8	0.06877452
13	0xbdcb82c3	-0.0993705
14	0x3e16e3b3	0.14735298
15	0xbddea454	-0.10871187
16	0x3da6e6e8	0.081495106
17	0x3dbe0c07	0.09279638
18	0x3d5a5ff9	0.053314183
19	0x3e22decd	0.15905304
20	0x3e20959f	0.15682076
21	0x3d495fa8	0.04916349
22	0x3d9193a4	0.07108238
23	0x3ddc1386	0.10745911
24	0xbda44bd9	-0.08022279
25	0x3e10219a	0.14075318
26	0xbd0fd8e2	-0.035118945
27	0x3ce4d351	0.027932795
28	0x3dde2794	0.10847393
29	0x3c8a4779	0.016879784
30	0xbdb5f745	-0.088850535
31	0xbd24a6a1	-0.040197972
32	0x3c529899	0.012853765
33	0x3cac02b5	0.020997385
34	0x3d972fdb	0.073821746
35	0x3ddbe5d8	0.107371986
36	0xbe0c605e	-0.13708636
37	0xbccfbeb2	-0.025359485
38	0x3c87afd6	0.016563337
39	0xbbe2f818	-0.0069265477
40	0x3dad38be	0.08458088
41	0x3d65c328	0.05609432
42	0x3de75afd	0.112966515
43	0x3dc6d0be	0.09707783
44	0x3d4bd060	0.04975927
45	0xbd89f05a	-0.067352965
46	0x3c79f746	0.0152567085
47	0x3da522f9	0.08063311
48	0x3df69f00	0.120420456
49	0xbdae8694	-0.085217625
50	0x3e1d62a3	0.15369658
51	0xbaaeb40d	-0.0013328806
52	0x3d08ef04	0.033431068
53	0xbd647b5f	-0.05578172
54	0x3b36b1e7	0.0027877034
55	0x3e1077cc	0.14108199
56	0x3c6b1406	0.014348036
57	0x3b10c947	0.0022092627
58	0x3c7ebfc5	0.015548651
59	0x3d30dec6	0.043181203
60	0x3ddb8c1c	0.10720083
61	0xbc0e85a1	-0.008698852
62	0x3d91fe3c	0.071285695
63	0xbbbade7d	-0.005702792

actor.2.weight f4 [64, 64]
0	0xbd014e8a	-0.03156904
1	0x3da0dda5	0.07854775
2	0x3d0bbfa4	0.03411831
3	0xbd20e0d1	-0.0392769
4	0xbce1040e	-0.027467754
5	0x3ceb429e	0.028718289
6	0xbd3c6d8c	-0.04600291
7	0x3d7ecf57	0.062209453
8	0xbd00ce26	-0.0314466
9	0xbde32c3c	-0.110924214
10	0xbb57f9e8	-0.0032955352
11	0xbc852c21	-0.016256394
12	0x3d5e2e0a	0.054243125
13	0xbd826b03	-0.06368067
14	0xbdddfec8	-0.10839611
15	0xbc59f1df	-0.0133022955
16	0xbe15a34f	-0.14613079
17	0x3db9b890	0.09068406
18	0x3c40d73b	0.011770065
19	0xbd16319e	-0.036668412
20	0x3bc12ff7	0.0058956104
21	0xbd51524d	-0.05110388
22	0xbceb9db1	-0.028761717
23	0xbca6a3aa	-0.020341713
24	0x3d9abec8	0.0755592
25	0xbd86b948	-0.06578308
26	0x3d4a9717	0.049460497
27	0x3bbc452f	0.005745552
28	0xbe006860	-0.12539816
29	0xbd6f30d0	-0.05839616
30	0xbdd8ab61	-0.10579563
31	0xbd04a0eb	-0.032380026
32	0x3d3af2bc	0.045641646
33	0x3d0084f7	0.031376805
34	0xbd2022d9	-0.039095733
35	0xbe1255c2	-0.14290527
36	0x3dfea05c	0.1243293
37	0xbd45ff44	-0.048339143
38	0xbdcc888d	-0.099869825
39	0xbd00a9d7	-0.031411972
40	0x3e0d4cde	0.13798854
41	0x3c57aff5	0.01316451
42	0xbcac92a5	-0.02106602
43	0x3bf33146	0.0074216453
44	0x3d17f454	0.037098244
45	0x3d9c78f2	0.07640256
46	0x3dbfe7d6	0.09370391
47	0xbd543536	-0.05180856
48	0xbe029950	-0.12753797
49	0x3a3469fd	0.00068822486
50	0xbdf6c498	-0.12049216
51	0xbd28ecec	-0.04124157
52	0x3b8895c0	0.004168242
53	0xbe14bdc1	-0.1452551
54	0xbdca274f	-0.09870779
55	0xbdc1b005	-0.09457401
56	0xbde5d67e	-0.11222552
57	0x3d8573b5	0.0651621
58	0xbd6ff8c8	-0.058586866
59	0x3decea76	0.115681574
60	0x3d41ff29	0.04736248
61	0xbd8acee9	-0.06777746
62	0x3d0db3ff	0.034595486
63	0x3c30bda1	0.010787399
64	0x3eb00249	0.34376743
65	0xbcc01975	-0.023449639
66	0x3e1480e7	0.14502297
67	0x3b0890fe	0.0020838375
68	0x3e31cbb3	0.17362861
69	0x3caa6e71	0.020804616
70	0xbcc12cc4	-0.023580916
71	0x3c9a1aed	0.018811667
72	0x3e43f529	0.1913649
73	0x3e795b87	0.24351321
74	0x3e15b25d	0.14618821
75	0xbe817dfc	-0.2529143
76	0x3ea19484	0.3155862
77	0xbda96d3b	-0.08272787
78	0x3e9f7395	0.3114287
79	0x3cd07b4a	0.025449414
80	0x3ecf8e17	0.40538093
81	0x3e01f93b	0.1269273
82	0x3e14eef4	0.14544278
83	0xbb8f6c6a	-0.0043769376
84	0xbd4212b6	-0.047381125
85	0x3e52dc57	0.20591865
86	0x3c5eaf04	0.013591532
87	0x3e3f245d	0.18666215
88	0x3bd25924	0.006419318
89	0xbe4fbb55	-0.20286305
90	0xbd58bfd6	-0.052917324
91	0x3eab5586	0.33463687
92	0xbe0fd7e9	-0.14047207
93	0x3bf424f8	0.007450696
94	0xbdebc2e7	-0.11511784
95	0x3e5c2d0d	0.2150156
96	0xbd39eac9	-0.045389924
97	0xbd994fbc	-0.07485911
98	0x3ee6acbb	0.45053658
99	0xbe025ff8	-0.12731922
100	0x3dd05106	0.10171704
101	0x3d8d2d01	0.068933494
102	0xbd8de0ba	-0.06927629
103	0xbdc8ff3a	-0.098143056
104	0x3e0ad59b	0.13558047
105	0xbd2efc71	-0.042721216
106	0x3d35c875	0.044380624
107	0xbe3c9eca	-0.18419948
108	0x3e276619	0.16347541
109	0xbcb7e816	-0.022449534
110	0x3ddae353	0.1068789
111	0x3deb9ae5	0.11504153
112	0x3e5beea3	0.21477751
113	0xbd82bd3a	-0.06383748
114	0x3e8a983d	0.27069274
115	0x3d8bb4a6	0.06821565
116	0x3dfdd5a9	0.12394268
117	0x3d01e18c	0.03170924
118	0x3e8abf47	0.27099058
119	0xbe4e8ca2	-0.20170835
120	0x3d2030dc	0.039109096
121	0xbe23785a	-0.15963879
122	0x3e245a1d	0.1605
123	0x3e6a700d	0.22894306
124	0x3e6a6b0a	0.22892395
125	0xbe46e035	-0.19421466
126	0xbd7fb0ba	-0.0624244
127	0x3dfa03ee	0.12207781
128	0x3dcb44ee	0.09925257
129	0x3e21a16d	0.15784235
130	0x3e6aea93	0.22941045
131	0xbe17c17d	-0.14819904
132	0x3e95253a	0.29129964
133	0xbe2fe07d	-0.17175479
134	0x3e929e12	0.28636223
135	0xbe0e5503	-0.13899617
136	0xbe2d7b37	-0.16941534
137	0x3e8d57d4	0.2760607
138	0x3e5d9bc1	0.21641447
139	0x3d8c52b4	0.06851712
140	0x3d1c85f6	0.038213693
141	0x3d7a49bb	0.06110547
142	0x3dc375c0	0.095439434
143	0x3dd83e04	0.105587035
144	0xbd3d2c7c	-0.046185
145	0xbeb29dbf	-0.34885976
146	0xbc891c07	-0.016736997
147	0x3e3cc35b	0.18433897
148	0xbda10ada	-0.07863398
149	0x3dc25312	0.09488501
150	0x3da89cb3	0.08233013
151	0xbddec937	-0.108782224
152	0xbe7a680d	-0.24453755
153	0xbd785855	-0.060631115
154	0xbd41ac5b	-0.04728351
155	0x3e892e25	0.26793018
156	0xbd561da4	-0.05227436
157	0x3e7e4dff	0.2483444
158	0xbe2b95ff	-0.16756438
159	0xbe1da6ba	-0.15395632
160	0xbe13c840	-0.14431858
161	0xbe5814ac	-0.21101636
162	0x3e79ad09	0.24382414
163	0xbd1b977e	-0.03798627
164	0x3edb61d5	0.42848077
165	0x3dbc8c11	0.09206403
166	0xbcf6ed40	-0.030142426
167	0xbe72c531	-0.23708035
168	0xbdf87a71	-0.12132729
169	0x3df268b4	0.11836377
170	0xbe61c74e	-0.22048685
171	0x3d83b491	0.06430925
172	0xbe9ecb22	-0.31014353
173	0xbe25d8f3	-0.16196041
174	0xbe49ac03	-0.19694524
175	0xbdd22ef0	-0.10262859
176	0x3d0b63a8	0.034030586
177	0xbd9598aa	-0.07304509
178	0xbe9efeaf	-0.31053683
179	0x3d1bd4c9	0.038044725
180	0x3ca0e69d	0.019641215
181	0x3d88ce3f	0.06679963
182	0x3e13f6ff	0.1444969
183	0x3de9113f	0.113802426
184	0x3e6b4605	0.22975929
185	0xbd47cc4a	-0.04877881
186	0x3e5a13ad	0.21296568
187	0x3df77f10	0.12084782
188	0xbd613915	-0.05498608
189	0x3d9b02f9	0.07568926
190	0x3e7932aa	0.24335733
191	0x3e80c523	0.25150403
192	0xbe26cf96	-0.16290125
193	0xbe0deb0d	-0.13859196
194	0xbd78345c	-0.06059681
195	0x3ded8792	0.115981236
196	0xbe047f99	-0.129393
197	0xbda89af3	-0.08232679
198	0xbd79ea5c	-0.06101452
199	0x3e16ebd6	0.14738402
200	0xbcf74fe7	-0.030189468
201	0xbdfbceea	-0.12295325
202	0xbe089e0d	-0.13341542
203	0xbd867621	-0.065655
204	0x3d66cf77	0.056350198
205	0xbde1c998	-0.11024779
206	0xbd77384f	-0.060356434
207	0xbdc51d6e	-0.09624754
208	0xbdade456	-0.08490817
209	0xbd9e727c	-0.0773668
210	0xbaef41db	-0.0018253879
211	0x3d5f4075	0.05450483
212	0xbd21cc94	-0.03950174
213	0xbe412bad	-0.18864317
214	0x3d2e7a49	0.04259709
215	0x3e02b191	0.12763049
216	0xbe903f7a	-0.2817343
217	0x3e845715	0.25847688
218	0x3dcc425b	0.09973594
219	0x3d47d23c	0.04878448
220	0x3e48ed42	0.19621757
221	0x3e0c4bb0	0.13700747
222	0x3c81d709	0.015849607
223	0x3e3b39e0	0.18283796
224	0xbd11d52b	-0.035603683
225	0xbda2815b	-0.07934829
226	0x3df64c3d	0.1202626
227	0x3d535d1d	0.05160247
228	0xbc9beb9d	-0.019033248
229	0xbe19141c	-0.14949077
230	0xbb81c38d	-0.003960079
231	0xbdf14af8	-0.11781877
232	0xbd8a49b9	-0.06752343
233	0xbe37acde	-0.17937037
234	0xbdd61add	-0.104543425
235	0x3d229b2b	0.03969876
236	0xbe4db007	-0.2008668
237	0xbdaf9078	-0.08572477
238	0x3e26df13	0.16296034
239	0x3d73552f	0.05940741
240	0xbd588edc	-0.052870616
241	0xbd8a8aff	-0.06764793
242	0x3e5c259a	0.21498719
243	0xbca3cbe6	-0.019994687
244	0x3d974461	0.07386089
245	0xbe34c5ef	-0.1765363
246	0xbc973b4f	-0.018460898
247	0x3e535b60	0.20640326
248	0x3de0d116	0.1097738
249	0xbced465c	-0.028964214
250	0xbe31dd9d	-0.17369695
251	0x3d573a38	0.052545756
252	0x3d099fc3	0.033599626
253	0xbd93c0ae	-0.07214485
254	0xbd8b17ad	-0.06791625
255	0x3da8d8f3	0.08244505

actor.2.bias f4 [64]
0	0xbda17f7e	-0.07885645
1	0xbba4909a	-0.0050221207
2	0xbd6ef056	-0.05833467
3	0x3dd0e874	0.10200587
4	0xbdbfd68c	-0.093670934
5	0xbc7eae1e	-0.015544442
6	0x3cf03bb8	0.029325351
7	0x3d403e99	0.046934698
8	0xbe01c592	-0.12673023
9	0x3c83978d	0.016063476
10	0x3db78a66	0.08961944
11	0xbd9bedb2	-0.07613696
12	0xbc8ded4e	-0.01732507
13	0x3dc064e9	0.09394247
14	0x3d90b597	0.070658855
15	0xbd8018b8	-0.06254715
16	0x3c5fa8cd	0.013651085
17	0xbc3c18a2	-0.011480482
18	0x3d1b6174	0.037934735
19	0x3d2f580f	0.04280859
20	0x3dc3eb31	0.095663436
21	0xbd4e0001	-0.050292972
22	0x3d84c1c9	0.06482274
23	0x3dc6f98e	0.097155675
24	0xbddde6e5	-0.10835055
25	0x3d146d5b	0.036237102
26	0xbcfcb670	-0.030848712
27	0xbd01e307	-0.03171065
28	0x3c177632	0.009244489
29	0x3e10c7f8	0.14138782
30	0x3d04065e	0.032232635
31	0x3c8ad2cb	0.016946217
32	0xbd2eb022	-0.042648442
33	0xbcd670be	-0.026176807
34	0xbac6270a	-0.0015117836
35	0x3d94eb68	0.07271463
36	0x3cc1c29c	0.023652367
37	0x3d50e085	0.05099537
38	0x3db42378	0.087958276
39	0x3d9d8dff	0.07693099
40	0x3c7559b0	0.014974996
41	0x3dc85c09	0.09783179
42	0x3e2f4646	0.17116651
43	0x3d9accf6	0.075586244
44	0x3bc2d9db	0.0059463806
45	0x3dacd225	0.084385194
46	0x3bebbc9e	0.007194116
47	0x3d43bfe1	0.04779041
48	0x3d3594d4	0.044331387
49	0x3dc07679	0.09397597
50	0x3d8ab5fd	0.06772993
51	0x3d89fda1	0.06737829
52	0xbcbd51b6	-0.023110252
53	0x3daaf6f6	0.08347885
54	0x3db047ef	0.0860747
55	0x3dc0594a	0.093920305
56	0xbd817b95	-0.063223995
57	0x3d5ae8ac	0.05344455
58	0xbd8ae82f	-0.06782567
59	0x3e1f9142	0.15582755
60	0xbd54e3cb	-0.051975053
61	0xbcd95672	-0.026530478
62	0xbd8dc4f9	-0.06922335
63	0x3e49f596	0.1972259

actor.4.weight f4 [36, 64]
0	0x3b1b5d1f	0.0023706628
1	0x3eba665a	0.36406213
2	0xbe97001e	-0.29492277
3	0xbe9490d2	-0.2901674
4	0x3ebad4ec	0.36490571
5	0xbf50f157	-0.81618255
6	0x3a68b2fa	0.0008876767
7	0xbeb9418e	-0.36182827
8	0x3de76a9c	0.11299631
9	0x3e88b62a	0.2670148
10	0xbebfd794	-0.3746916
11	0x3e85df73	0.2614704
12	0x3ee769bc	0.45197856
13	0xbf2ffc8e	-0.6874474
14	0xbec72f89	-0.38903454
15	0x3e4b99fb	0.19882958
16	0x3e150db7	0.14556013
17	0xbe99864e	-0.2998528
18	0x3e619acd	0.22031708
19	0x3db28b1a	0.08717938
20	0xbe0b5d30	-0.13609767
21	0xbe656f20	-0.22405672
22	0x3b3a7705	0.0028452289
23	0x3e7afc6c	0.24510354
24	0x3ddc3333	0.10751953
25	0x3bc9d88b	0.006159847
26	0x3e2e8e60	0.17046499
27	0xba1fa197	-0.00060894474
28	0xbe2d111c	-0.16901058
29	0xbe8deaf9	-0.27718332
30	0x3db4832e	0.08814083
31	0xbf206312	-0.6265117
32	0x3c894c36	0.016759973
33	0x3eb59098	0.3546188
34	0xbf43bd2a	-0.76460516
35	0xbf2c5200	-0.6731262
36	0xbc3799cc	-0.011206102
37	0x3eb74587	0.35795233
38	0x3e47e645	0.19521435
39	0xbe843900	-0.25824738
40	0xbdb26e08	-0.08712393
41	0xbf3b9e56	-0.73288476
42	0x3e17c015	0.14819367
43	0xbf2cb7e0	-0.6746807
44	0x3db3303b	0.087494336
45	0xbec31b26	-0.3810665
46	0x3e16d5e3	0.14730029
47	0x3ca0b420	0.01961714
48	0xbf232ed2	-0.6374332
49	0x3e4a963c	0.19783872
50	0x3e3e95f3	0.18611889
51	0x3d0a0887	0.03369954
52	0x3e8ac438	0.27102828
53	0x3e9ccf85	0.30627075
54	0x3dc52a41	0.096272
55	0xbf2779e1	-0.6542035
56	0xbf10e007	-0.5659184
57	0xbf07c9a6	-0.53042066
58	0x3da69a65	0.08134917
59	0xbf0764d3	-0.5288822
60	0x3d569238	0.05238554
61	0xbe64243f	-0.22279452
62	0xbef256f5	-0.47331968
63	0xbf47352e	-0.7781552
64	0xbd22a71b	-0.039710145
65	0x3e11ae31	0.14226605
66	0x3ea20140	0.3164158
67	0xbdc414f4	-0.09574309
68	0x3d9374fe	0.07200049
69	0xbe105695	-0.14095528
70	0x3d8d2cf4	0.0689334
71	0x3e86fef4	0.2636639
72	0x3dbee56a	0.09321101
73	0xbebd1cbd	-0.36935988
74	0x3eb8c5ab	0.3608831
75	0xbea79716	-0.32732457
76	0xbd70aeb4	-0.05876036
77	0xbef7a482	-0.48367697
78	0x3eaf6d6c	0.3426317
79	0x3eb43186	0.35194033
80	0x3e99fe07	0.3007662
81	0xbe1ccc56	-0.15312323
82	0x3ebc67bb	0.3679789
83	0x3ca5a24e	0.020218994
84	0x3e11582f	0.14193796
85	0xbe84b53b	-0.25919518
86	0xbde203d3	-0.11035886
87	0x3e88cbca	0.2671798
88	0x3db24dfd	0.08706281
89	0x3ea541ac	0.32276666
90	0x3e3ee17b	0.18640701
91	0xbd9a1cd3	-0.07525029
92	0xbe9e3ffc	-0.3090819
93	0x3de8b65b	0.113629065
94	0xbd687aa0	-0.05675757
95	0xbf3537b0	-0.707881
96	0xbddf74e0	-0.10910964
97	0x3dd9abee	0.10628496
98	0xbd15208e	-0.036408
99	0xbf3dcbae	-0.74138916
100	0xbda81c57	-0.082085304
101	0x3e874ea4	0.26427186
102	0xbe427541	-0.18990041
103	0xbf2b998c	-0.6703117
104	0x3d953699	0.07285804
105	0xbecfeb09	-0.40609005
106	0x3e83a301	0.257103
107	0xbef24ec0	-0.47325706
108	0xbd2c6dba	-0.04209683
109	0x3e25ff8e	0.16210768
110	0xbf31fd77	-0.6952738
111	0x3dfc3eef	0.12316691
112	0x3e856e66	0.2606079
113	0xbd9497ed	-0.0725554
114	0xbca3f9fb	-0.02001666
115	0x3c1fc754	0.009752113
116	0xbd618663	-0.0550598
117	0x3e9e1d45	0.30881706
118	0x3e3c66c1	0.18398573
119	0xbbf51008	-0.0074787177
120	0x3ebcf440	0.36905098
121	0xbede228e	-0.43385738
122	0xbd8ed378	-0.06973928
123	0xbce31db6	-0.027724128
124	0xbf206a90	-0.626626
125	0xbf40d0b2	-0.75318444
126	0xbedc649d	-0.43045512
127	0x3db5657f	0.088572495
128	0xbd752ee1	-0.05985916
129	0xbea45ef2	-0.32103688
130	0x3ea16ad2	0.3152681
131	0xbe5f69b9	-0.21817674
132	0x3e4a8152	0.19775894
133	0xbf442e21	-0.7663289
134	0x3ef1b126	0.47205466
135	0x3e9d1a7a	0.30684263
136	0x3df7141e	0.12064384
137	0xbf3a629d	-0.7280672
138	0x3eb8881e	0.3604135
139	0x3ea9036b	0.3301042
140	0x3d611d18	0.054959387
141	0xbf43330d	-0.7624977
142	0x3e855f10	0.2604909
143	0xbe619dea	-0.22032896
144	0xbea62fab	-0.32458243
145	0x3e612eb0	0.21990466
146	0xbebf19ee	-0.3732447
147	0x3e536b72	0.20646456
148	0xbdde7574	-0.10862246
149	0x3e26b83c	0.16281217
150	0xbdb5874d	-0.08863697
151	0x3e04a1a3	0.12952285
152	0xbd5d62ad	-0.054049183
153	0xbdc05bc1	-0.09392501
154	0x3dc84438	0.09778637
155	0xbd0322f5	-0.03201576
156	0xbf437a4d	-0.7635849
157	0x3c3ab616	0.011395952
158	0x3aaf095e	0.0013354232
159	0xbf402187	-0.7505116
160	0xbc0b2a1f	-0.008493929
161	0x3ea37f55	0.31933084
162	0xbf07a5e8	-0.5298753
163	0xbeefb737	-0.4681947
164	0xbc108575	-0.008820881
165	0x3e464405	0.19361885
166	0xbc0e92bb	-0.008701975
167	0x3de8f0b4	0.113740355
168	0x3dc3cc14	0.09560409
169	0xbf2492e7	-0.64286655
170	0xbe10861f	-0.14113663
171	0xbf179ac2	-0.59220517
172	0x3ddb1859	0.10698003
173	0x3dfb5e9b	0.12273904
174	0xbefd9eb0	-0.4953513
175	0x3e58a37e	0.21156117
176	0x3e96081f	0.2930307
177	0x3eb2b86c	0.34906328
178	0xbeead222	-0.45863444
179	0xbcbd666a	-0.023120124
180	0x3e984b6e	0.29745048
181	0x3e274c3b	0.16337673
182	0xbcec3b5b	-0.028836897
183	0xbf47b9b6	-0.7801775
184	0x3e06f507	0.13179408
185	0x3eb08918	0.34479594
186	0x3ce500b6	0.02795444
187	0xbf2dbc07	-0.6786503
188	0x3eb26b4d	0.3484749
189	0x3e7ab517	0.24483143
190	0xbe9f9ebd	-0.31175795
191	0xbf277b51	-0.6542254
192	0x3da1edca	0.07906683
193	0xbe83558a	-0.256512
194	0x3c1cbce5	0.00956652
195	0xbea4606b	-0.3210481
196	0xbe497b8e	-0.19676039
197	0xbec9a2d0	-0.3938203
198	0x3e0c616e	0.13709041
199	0xbdd1bd46	-0.10241179
200	0x3d327ba6	0.04357495
201	0xbe8a1413	-0.2696844
202	0xbd8f3c27	-0.06993895
203	0x3d8db836	0.06919901
204	0x3d8148fb	0.06312748
205	0xbe8fccde	-0.2808599
206	0xbe090b1b	-0.13383143
207	0xbebcffd6	-0.36913937
208	0xbe512eec	-0.20428056
209	0xbd50de78	-0.050993413
210	0xbe82fe0c	-0.25584447
211	0xbd7d712f	-0.06187552
212	0xbe893f27	-0.26805994
213	0x3d594f14	0.05305393
214	0xbd7a42b2	-0.06109876
215	0xbe2c3afa	-0.16819373
216	0x3d872a5c	0.06599876
217	0xbd5dc0e3	-0.05413903
218	0xbe0fa35e	-0.14027163
219	0x3d95f5a4	0.07322243
220	0xbe373e6a	-0.17894903
221	0xbe8581f5	-0.26075712
222	0x3dee5067	0.11636429
223	0xbe88c59c	-0.26713264
224	0x3de5b16d	0.11215482
225	0xbd7c1df8	-0.061552018
226	0xbeb0db4f	-0.3454232
227	0xbedd865a	-0.43266565
228	0x3de83133	0.11337509
229	0x3df5a880	0.119950294
230	0xbe6c43db	-0.2307276
231	0xbdf31f33	-0.11871185
232	0x3d65bb3e	0.05608677
233	0xbed120bd	-0.4084529
234	0xbec791f4	-0.3897854
235	0xbe56b924	-0.20969063
236	0xbd16bf18	-0.036803335
237	0xbe41d352	-0.18928269
238	0xbe3beeeb	-0.18352859
239	0x3d1d709d	0.038437475
240	0xbeb84818	-0.35992503
241	0x3e0c1b22	0.13682225
242	0xbf09617d	-0.5366438
243	0x3d3b8a70	0.04578632
244	0xbbcc99c8	-0.006243918
245	0x3d2c2e65	0.042036433
246	0xbebaa104	-0.3645097
247	0xbeec8520	-0.46195316
248	0xbe8c2bfd	-0.2737731
249	0x3b5bcafc	0.0033537736
250	0xbdeba2b7	-0.11505645
251	0xbecd2d30	-0.40073538
252	0xbe94c459	-0.2905605
253	0xbe20605d	-0.1566176
254	0xbe2d4fe6	-0.1692501
255	0xbe8e6cfa	-0.27817518

actor.4.bias f4 [36]
0	0xbe5a46fb	-0.2131614
1	0xbd01c49b	-0.03168164
2	0xbe68a7c8	-0.22720253
3	0xbe242b4d	-0.16032143
4	0x3d19f457	0.037586536
5	0x3d324cf0	0.043530405
6	0x3d024244	0.031801477
7	0xbe085e38	-0.13317192
8	0x3d2d8838	0.042366236
9	0x3d4e9b0f	0.050440844
10	0xbcdbba33	-0.026822185
11	0x3dffad80	0.124842644
12	0xbd0cdd83	-0.034390938
13	0xbcc6656f	-0.02421829
14	0x3d1db6ba	0.03850434
15	0xbd3bbe5a	-0.04583583
16	0x3d467b87	0.04845765
17	0xbc3322d9	-0.010933601
18	0xbcde9dd7	-0.027174873
19	0x3e289eb4	0.1646679
20	0x3e1c7d08	0.1528207
21	0x3ab84a4a	0.0014060226
22	0xbdcd5c33	-0.10027351
23	0x3e1ca91b	0.15298884
24	0x3ca8dac8	0.020612136
25	0xbdb298df	-0.08720564
26	0x3c205c8d	0.009787691
27	0x3cc39b5b	0.02387779
28	0xbdcafe88	-0.09911829
29	0x3e396491	0.1810477
30	0x3d8e8612	0.06959166
31	0x3ce5ca15	0.028050462
32	0xbc02cbf3	-0.007983196
33	0xbd85e0bd	-0.06537006
34	0xbd27bffb	-0.04095457
35	0x3da0f630	0.078594565

critic.0.weight f4 [64, 62]
0	0xbe383400	-0.17988586
1	0xbdcfd96d	-0.101488926
2	0x3e1c8fd7	0.15289246
3	0xbdb8d006	-0.09024052
4	0x3d1a3287	0.037645843
5	0x3ec74b13	0.38924465
6	0xbe326c46	-0.17424116
7	0x3d369836	0.044578753
8	0xbcae2f0c	-0.021262668
9	0x3e692edb	0.2277178
10	0x3e1f1daa	0.1553866
11	0x3e367deb	0.17821471
12	0xbd8f387e	-0.06993197
13	0xbe2be8e4	-0.1678806
14	0x3e1a1c6c	0.15049905
15	0xbe074087	-0.13208209
16	0x3d92f501	0.07175637
17	0xbd99b720	-0.075056314
18	0x3da62406	0.0811234
19	0xbd020bbd	-0.031749476
20	0xbd45b390	-0.048266947
21	0x3c3dd7f9	0.011587136
22	0x3d95ccbc	0.073144406
23	0xbd472752	-0.048621483
24	0xbe0fed92	-0.1405547
25	0xbe08445c	-0.13307327
26	0xbdf05a83	-0.11736014
27	0x3b009ce4	0.0019624764
28	0x3e2e00d2	0.169925
29	0xbe58fd18	-0.21190298
30	0xbf00137d	-0.50029737
31	0xbf0c72c6	-0.5486263
32	0xbe8f80ac	-0.28027856
33	0xbeda24ef	-0.42606303
34	0x3d3b2628	0.045690686
35	0x3da3bb85	0.07994751
36	0xbebef039	-0.3729265
37	0xbd9994dc	-0.07499096
38	0xbe8b167f	-0.271656
39	0xbeaef81d	-0.3417367
40	0x3d8e02a8	0.069341004
41	0x3e8842c8	0.2661345
42	0xbea683a6	-0.32522315
43	0xbdab4a64	-0.08363798
44	0xbeab8c4b	-0.33505473
45	0xbe023bd2	-0.12718132
46	0xbead09d5	-0.33796564
47	0xbf0b92cb	-0.54520863
48	0xbea7e151	-0.3278909
49	0xbe75e290	-0.24012208
50	0x3dbc6f1a	0.092008784
51	0xbe3797ce	-0.17929003
52	0x3d8ca6a5	0.068677224
53	0x3d736c72	0.059429593
54	0x3dbd31fa	0.09238048
55	0x3e5b8969	0.21439137
56	0x3e2cf9be	0.16892144
57	0x3be24669	0.006905366
58	0x3d86742c	0.06565127
59	0x3cf342e5	0.029694984
60	0xbc21798f	-0.009855642
61	0xbdcb55c1	-0.09928466
62	0xbe1d76df	-0.15377377
63	0x3d0234af	0.031788524
64	0xbdf10a7b	-0.11769577
65	0xbd680ae6	-0.05665102
66	0xbdef4edc	-0.11684963
67	0xbc4790c2	-0.012180509
68	0x3e36019e	0.17774054
69	0x3d6e6a20	0.058206677
70	0xbe16340d	-0.14668293
71	0x3ce528b6	0.027973514
72	0x3d25ebdb	0.040508132
73	0x3e731f15	0.23742326
74	0x3e0fd3ca	0.14045635
75	0x3e883f02	0.2661057
76	0x3e029f95	0.12756188
77	0x3e8fc565	0.28080288
78	0x3d896d49	0.067102976
79	0x3d192f13	0.03739841
80	0xbd916406	-0.07099156
81	0xbd6e1a26	-0.058130406
82	0x3d5e91f6	0.054338418
83	0x3dbfb6bd	0.093610264
84	0x3d781144	0.06056334
85	0xbdcd3217	-0.100193195
86	0x3d4042b1	0.046938602
87	0x3dafb16c	0.085787624
88	0xbcd3a658	-0.025836155
89	0x3d625ea8	0.055266052
90	0xbded65ea	-0.11591704
91	0x3ef3b840	0.4760151
92	0x3e901f01	0.28148654
93	0x3f301056	0.68774927
94	0xbd83cdb9	-0.06435723
95	0x3ca90d31	0.020636173
96	0xbdd8d361	-0.10587192
97	0x3cdbc8e4	0.02682919
98	0xbc8d3a72	-0.017239783
99	0x3e42b4a9	0.19014229
100	0x3e0ef1d9	0.13959445
101	0xbd058b89	-0.032603774
102	0xbe458b2e	-0.19291374
103	0xbe38e7de	-0.180572
104	0xbd1dbbfe	-0.03850936
105	0x3db53071	0.0884713
106	0x3d013f17	0.031554308
107	0x3d95ea57	0.073200874
108	0xbd0767c5	-0.033057947
109	0x3e2de9c6	0.16983709
110	0xbdf56ab8	-0.119832456
111	0xbd87e307	-0.06635099
112	0x3e1246f3	0.14284877
113	0x3e779902	0.24179462
114	0xbdd309ee	-0.10304628
115	0xbdfa8302	-0.12232019
116	0x3ce34bbc	0.027746074
117	0x3d92b469	0.07163317
118	0x3db42c9c	0.08797571
119	0x3d2ad43d	0.041706312
120	0xbd19c9b5	-0.03754588
121	0xbd502335	-0.050814826
122	0xbc309f70	-0.0107802
123	0x3d001a51	0.031275097
124	0x3dd5a0cc	0.1043106
125	0xbd7b3b42	-0.06133581
126	0x3dc8de78	0.098080575
127	0xbcf6ced0	-0.030127913
128	0x3d8664a8	0.065621674
129	0x3c193a19	0.0093522305
130	0xbe1b0879	-0.15139951
131	0xbdc232be	-0.094823346
132	0xbd25039c	-0.040286645
133	0x3dc77137	0.09738391
134	0xbd775a2b	-0.060388725
135	0x3cf610f5	0.030037383
136	0x3e168338	0.14698493
137	0x3d277511	0.040883128
138	0xbced0830	-0.028934568
139	0xbd6e5135	-0.058182914
140	0x3cf5dead	0.030013407
141	0x3e14cc2b	0.14531009
142	0xbdd454a8	-0.103677094
143	0x3c80326a	0.01564904
144	0xbcb88c64	-0.022527881
145	0x3d7fe2e4	0.06247224
146	0xbdfb9574	-0.12284365
147	0x3e0710db	0.13190024
148	0x3c917458	0.017755672
149	0x3dbeff2a	0.093260124
150	0xbbe94c40	-0.0071196854
151	0xbda9a8bd	-0.082841374
152	0x3da2a182	0.079409614
153	0x3db545bc	0.088511914
154	0x3db02958	0.08601636
155	0xbdef35cb	-0.11680182
156	0xbc63620e	-0.0138783585
157	0xbd9d2054	-0.07672182
158	0xbd43bfb2	-0.047790237
159	0xbd9ddd7f	-0.07708263
160	0xbce14246	-0.027497422
161	0x3cff5eb8	0.031173095
162	0x3d438aca	0.04773978
163	0xbc0d27aa	-0.008615414
164	0x3db065ce	0.08613168
165	0x3d35f8b5	0.04442664
166	0x3c423e9f	0.01185575
167	0x3d6a7cf7	0.057248082
168	0xbc8311f5	-0.015999774
169	0x3b8f8e4c	0.004380977
170	0x3bc7c656	0.0060966415
171	0xbc864ccb	-0.01639404
172	0xbb833114	-0.0040036533
173	0xbdce2ff8	-0.10067743
174	0xbd167d01	-0.036740307
175	0x3dc79934	0.09746018
176	0xbbc3a9f1	-0.0059711863
177	0xbd9ad626	-0.07560377
178	0x3cd1b686	0.02559973
179	0xbd9c28d6	-0.07624976
180	0xbe1233d2	-0.1427758
181	0x3c1982bc	0.009369548
182	0xbdadfd83	-0.08495619
183	0xbdead10e	-0.11465655
184	0xbdcf3714	-0.10117927
185	0x3cfaf647	0.030635012
186	0x3d941e45	0.07232336
187	0x3c49c23d	0.012314376
188	0xbd96b873	-0.073594
189	0x3d3eeb5c	0.046611175
190	0xbd4b0030	-0.049560726
191	0xbdb764ef	-0.089547984
192	0x3d1d8578	0.038457364
193	0xbacf773e	-0.0015828384
194	0xbdad6424	-0.08466366
195	0xbdd3fdd0	-0.10351145
196	0x3d4f9d5d	0.050687183
197	0xbdd750ae	-0.10513435
198	0x3c9b5899	0.018963145
199	0xbc3866cc	-0.011254977
200	0xbcf1f03a	-0.029533494
201	0xbd83faad	-0.06444297
202	0x3da61220	0.08108926
203	0xbbafc101	-0.005363584
204	0xbd154f0a	-0.03645233
205	0x3db9e84a	0.09077509
206	0xbcc81ac5	-0.024426827
207	0x3cf38d80	0.029730558
208	0x3d8f50ae	0.0699781
209	0x3ddb2dcb	0.10702094
210	0xbd828b5e	-0.063742384
211	0xbd510c74	-0.051037267
212	0x3ddcec6a	0.1078728
213	0x3d0d239f	0.0344578
214	0xbda0c360	-0.07849765
215	0xbd842af2	-0.06453504
216	0xbdf733e8	-0.12070447
217	0x3e0e662e	0.13906166
218	0x3e073dc3	0.13207154
219	0xbd2ff22d	-0.042955566
220	0x3c616140	0.013756096
221	0xbebc6c41	-0.3680134
222	0x3e9807c7	0.29693434
223	0xbe3fc3c7	-0.18727027
224	0xbbcbc036	-0.0062179817
225	0xbc851201	-0.016243936
226	0x3cc83986	0.024441492
227	0xbccf0934	-0.025272943
228	0xbd9ae884	-0.0756388
229	0x3e203f77	0.1564921
230	0xbd911115	-0.07083336
231	0xbde99303	-0.114049934
232	0xbcc97f73	-0.024596905
233	0xbdf5085b	-0.11964484
234	0xbe1a8acb	-0.15092008
235	0x3db10874	0.086441904
236	0xbd714b43	-0.058909666
237	0xbe3980fc	-0.1811561
238	0xbd17140e	-0.03688436
239	0xbe970c3f	-0.2950153
240	0xbe8f9a7b	-0.28047547
241	0x3abb4966	0.0014288842
242	0xbc95b72b	-0.018275818
243	0xbd69fb42	-0.057124384
244	0x3e37d36e	0.17951748
245	0xbd964ee2	-0.073392645
246	0x3ca8b521	0.020594181
247	0x3b1928b6	0.0023370213
248	0xbe02f41d	-0.12788434
249	0xbe6f5f6a	-0.23376241
250	0xbd9f576c	-0.07780346
251	0xbe3ebe2f	-0.18627237
252	0xbe7af790	-0.245085
253	0xbe24c3a4	-0.16090256
254	0x3c934352	0.017976437
255	0xbe62ffe6	-0.2216793

critic.0.bias f4 [64]
0	0x3dabe0d8	0.08392495
1	0xbd51259b	-0.051061254
2	0xbdc66143	-0.0968652
3	0x3d1b7553	0.037953686
4	0xbdce2af8	-0.100667894
5	0xbc3ee631	-0.011651562
6	0xbda2e7f0	-0.07954395
7	0x3dffc3f2	0.124885455
8	0x3ada861d	0.0016672049
9	0xbc96c6a8	-0.018405274
10	0x3c87b015	0.016563455
11	0x3d815c37	0.06316417
12	0xbbd41092	-0.006471702
13	0x3e71e205	0.23621376
14	0xbe13c209	-0.14429487
15	0xbc2f6bda	-0.010706866
16	0x3e707c0c	0.2348482
17	0xbd69c8b1	-0.05707616
18	0xbe23b30c	-0.1598627
19	0x3cbedd7e	0.023298975
20	0x3cf1b8ad	0.029507006
21	0x3d81e6d1	0.06342853
22	0xbdc8fc34	-0.09813729
23	0xbe23c1de	-0.15991923
24	0x3e00c097	0.12573467
25	0xbc98f394	-0.018670835
26	0x3cb32652	0.021868858
27	0xbdf1bd57	-0.11803692
28	0x3c0b80a0	0.008514553
29	0xbcfe9bd7	-0.03108017
30	0xbd1c9206	-0.038225196
31	0xbd687a53	-0.056757282
32	0x3e239aac	0.15976971
33	0xbc9fb31d	-0.019494588
34	0xbe002e2b	-0.12517612
35	0xbcc9c928	-0.024632052
36	0x3d532fab	0.05155913
37	0x3d6e9821	0.05825055
38	0xbe1dce3c	-0.15410703
39	0xbd5dce15	-0.054151613
40	0xbd5673b5	-0.05235644
41	0x3d05b35e	0.03264176
42	0x3df99b8d	0.12187872
43	0xbdcfb66f	-0.10142218
44	0x3d4071a1	0.046983365
45	0xbd08435b	-0.03326736
46	0xbd4e1287	-0.050310638
47	0xbb8f7da4	-0.004378991
48	0xbcac3ac7	-0.021024121
49	0xbde96811	-0.11396802
50	0x3db47cca	0.08812864
51	0xbdf27f8c	-0.11840734
52	0xbc87883e	-0.016544458
53	0x3dc43f9c	0.09582445
54	0xbd824745	-0.0636125
55	0x3ced170c	0.028941654
56	0x3ddf726c	0.10910496
57	0xbd860e29	-0.065456696
58	0xbcde94f8	-0.027170643
59	0x3df28936	0.11842577
60	0x3dd4d8f9	0.10392947
61	0xbce0fea0	-0.027465165
62	0x3ab6bb91	0.0013941397
63	0xbd22d9cf	-0.0397585

critic.2.weight f4 [64, 64]
0	0x3b0c877d	0.0021443062
1	0x3dc1860c	0.094493955
2	0xbe012937	-0.12613378
3	0xbec2b1bb	-0.38026223
4	0xbdf63d76	-0.120234415
5	0xbde84d45	-0.11342863
6	0xbd9d72d5	-0.07687918
7	0xbd823efb	-0.06359669
8	0x3cacdd30	0.021101564
9	0xbc9a5945	-0.018841395
10	0xbe19d57c	-0.15022844
11	0x3cbf04be	0.023317691
12	0xbc28c7d9	-0.010301554
13	0x3da9bd32	0.08288039
14	0x3d81c3ff	0.063362114
15	0xbd67258c	-0.056432292
16	0xbe89fe09	-0.26951626
17	0xbdc0c28e	-0.09412108
18	0x3d9889f7	0.0744819
19	0x3c7f9128	0.015598573
20	0xbda7ea12	-0.08198942
21	0x3c7da21f	0.015480547
22	0x3e1ee06b	0.15515296
23	0x3d1ac156	0.037782036
24	0x3db98f19	0.09060497
25	0xbde375ff	-0.1110649
26	0x3e1dd03f	0.15411471
27	0xbb8b02e7	-0.0042422893
28	0x3c937e43	0.018004542
29	0x3dbd0a24	0.0923045
30	0x3e396846	0.18106183
31	0xbdc62191	-0.09674371
32	0xbe5c07e9	-0.21487392
33	0xbdc17748	-0.09446579
34	0xbd48f8af	-0.04906529
35	0x3c90834d	0.017640734
36	0xbd8b2585	-0.06794266
37	0xbc94242b	-0.018083652
38	0x3e0afbcb	0.13572614
39	0x3e417fc4	0.18896395
40	0x3e58fdf1	0.21190621
41	0xbde3e233	-0.111271285
42	0xbe0ca8b5	-0.13736232
43	0x3bba4cb8	0.005685415
44	0x3dd69699	0.10477943
45	0x3e1d2d7c	0.15349382
46	0xbd412c88	-0.04716161
47	0x3db4da4b	0.088306986
48	0x3e390bcf	0.18070911
49	0xbdf95912	-0.12175192
50	0xbd9f666b	-0.077832066
51	0xbda1cae1	-0.07900024
52	0x3e1b944a	0.15193287
53	0x3e52d72f	0.20589899
54	0x3dfb9fb0	0.12286317
55	0xbe3b71e3	-0.18305163
56	0x3cc79675	0.024363736
57	0xbd12b18f	-0.035813864
58	0x3d8ec993	0.06972041
59	0xbd8c3b00	-0.06847191
60	0xbd0c44de	-0.034245364
61	0x3d811792	0.06303324
62	0x3cff3e8d	0.031157756
63	0xbd31f109	-0.04344276
64	0xbe045d68	-0.12926257
65	0x3d3aca55	0.045603115
66	0x3dd3a7e3	0.10334756
67	0xbe7215ba	-0.236411
68	0xbbd9a70d	-0.0066422285
69	0x3cd08783	0.025455242
70	0xbe271498	-0.1631645
71	0xbdadd7ea	-0.08488448
72	0x3d665a98	0.05623874
73	0x3db319b6	0.08745138
74	0x3db4e79c	0.088332385
75	0xbccc5e93	-0.02494744
76	0xbd24890e	-0.040169768
77	0xbe09dc51	-0.1346295
78	0x3da61997	0.081103496
79	0x3d43c07b	0.047790986
80	0xbd31ebbf	-0.043437716
81	0x3daf27df	0.08552527
82	0xbc739dc9	-0.014869162
83	0x3d7ecd7d	0.062207688
84	0x3d715250	0.05891639
85	0xbd74fb62	-0.05981005
86	0xbd61c039	-0.05511496
87	0x3de0ee85	0.10982994
88	0x3b0b6a94	0.0021273242
89	0xbded292f	-0.11580121
90	0x3d058da2	0.032605775
91	0xbe38e395	-0.18055566
92	0xbd63cf0e	-0.055617385
93	0xbe0408ab	-0.12893932
94	0x3e2c17b9	0.16805924
95	0xbe1c1fb8	-0.15246475
96	0xbe9b775f	-0.3036451
97	0x3c8da543	0.017290717
98	0x3d2647d3	0.04059584
99	0x3d96b9c4	0.07359651
100	0xbdc43c4a	-0.09581812
101	0x3bbaebe6	0.005704391
102	0x3d37785d	0.04479252
103	0x3ce6a58b	0.028155109
104	0x3db12d6a	0.0865124
105	0xbb574526	-0.0032847612
106	0xbe4a27ad	-0.19741698
107	0xbd5b5d15	-0.053555567
108	0xbd3601b1	-0.044435207
109	0x3e6049fb	0.21903221
110	0x3d78aa3b	0.06070922
111	0x3e090d30	0.13383937
112	0x3da5e2b5	0.080998816
113	0xbe0127f9	-0.12612905
114	0x3cdf7361	0.027276697
115	0xbccc3e33	-0.024932003
116	0xbc09d466	-0.008412456
117	0x3e1c1c3b	0.15245144
118	0xbcb0fa96	-0.021603864
119	0xbea46aa5	-0.32112613
120	0x3c2baafb	0.010477777
121	0x3c854055	0.016266027
122	0x3e843c10	0.25827074
123	0x3e1975d0	0.14986348
124	0xbcfa2d5c	-0.030539207
125	0xbd617b43	-0.055049192
126	0x3e194b6b	0.14970176
127	0x3d4f1c54	0.050564125
128	0xbe3bd935	-0.18344577
129	0x3d29983c	0.041404948
130	0x3d21e506	0.039525054
131	0xbe8a82e8	-0.27053
132	0x3d02157c	0.03175877
133	0xbd87d480	-0.06632328
134	0xbdf16b9b	-0.11788102
135	0xbe3d1dd0	-0.18468404
136	0xbd5c2b9c	-0.053752527
137	0xbb9f7868	-0.0048666485
138	0xbe02b380	-0.12763786
139	0xbe1517ed	-0.14559908
140	0x3da419ed	0.080127575
141	0xbe85cf36	-0.26134652
142	0x3daf3e4d	0.08556805
143	0x3e0a5249	0.13507952
144	0xbed74416	-0.42044133
145	0xbda12cce	-0.07869874
146	0xbdefdf67	-0.117125325
147	0xbdca61f8	-0.09881967
148	0xbd5945b0	-0.053044975
149	0xbe0f2de9	-0.13982357
150	0x3d44da6d	0.04805987
151	0xbc06a378	-0.008217685
152	0x3d6d795d	0.05797707
153	0xbe106459	-0.1410078
154	0x3dfb5eac	0.122739166
155	0xbecb8936	-0.3975312
156	0xbd6a0705	-0.0571356
157	0xbd87044e	-0.06592618
158	0x3dbe0302	0.092779174
159	0x3cf32d51	0.029684694
160	0xbdd9c769	-0.106337376
161	0x3b965e01	0.004588843
162	0x3c9c5f30	0.019088358
163	0x3d080bed	0.0332145
164	0xbcf021f6	-0.029313069
165	0xbe14ec57	-0.14543281
166	0x3e194acf	0.14969943
167	0x3cb8103e	0.022468682
168	0xbd1041ed	-0.03521912
169	0xbd205a72	-0.039148755
170	0xbe9611f8	-0.29310584
171	0x3e362609	0.17787947
172	0xbe02a70e	-0.12759039
173	0x3de7ca14	0.1131784
174	0x3c82725e	0.015923675
175	0x3e9bbbba	0.30416662
176	0xbda4ebac	-0.08052763
177	0x3c6b6c6f	0.014369114
178	0xbd589ff5	-0.052886922
179	0xbdb1f1fe	-0.086887345
180	0x3e1f64f4	0.15565854
181	0x3e8aea1c	0.27131736
182	0x3d960e7e	0.07326983
183	0xbe5b5e4d	-0.21422692
184	0xbe33615a	-0.17517605
185	0xbd3657a0	-0.04451716
186	0x3e2e56cc	0.17025298
187	0xbddadae7	-0.106862836
188	0x3d811738	0.06303257
189	0x3dd8a531	0.10578383
190	0x3ccc5fe6	0.024948072
191	0x3dfe6a9c	0.12422678
192	0xbe8269ca	-0.25471336
193	0x3df25c5f	0.11834025
194	0xbda8bbcd	-0.08238945
195	0xbe47f003	-0.19525151
196	0x3e1662bf	0.14686106
197	0x3cf17334	0.029473878
198	0xbe894006	-0.26806659
199	0xbe5266ba	-0.20547
200	0xbd6c0229	-0.057619248
201	0x3d5e6b51	0.054301564
202	0xbedcc7c4	-0.4312116
203	0xbe8a284a	-0.26983863
204	0xbcc41cbe	-0.023939487
205	0xbe2cbfbd	-0.16870017
206	0x3d06256b	0.03275053
207	0x3ba8e1c1	0.005153865
208	0xbeb51452	-0.35367066
209	0x3df558c0	0.11979818
210	0x3dba182e	0.09086643
211	0xbe349a29	-0.17636932
212	0xbe55b502	-0.2086983
213	0xbc879552	-0.016550694
214	0x3deacb71	0.114645846
215	0xbdcf00ee	-0.10107599
216	0x3d571204	0.052507415
217	0x3d82ff77	0.06396382
218	0x3e25c2d2	0.161876
219	0xbe70ddcd	-0.2352211
220	0x3e0d4ea2	0.13799527
221	0x3d9a3f89	0.075316496
222	0x3e0a645f	0.13514851
223	0x3d59e8d0	0.053200543
224	0xbda9151c	-0.082559794
225	0x3c41d46c	0.0118304305
226	0x3cc36de1	0.023856105
227	0x3e153e74	0.14574605
228	0xbe42289e	-0.18960807
229	0xbec6b9ab	-0.38813528
230	0x3e8f2d87	0.27964422
231	0x3e2b006d	0.16699381
232	0xbcea8a9b	-0.028630545
233	0xbe4b4ee4	-0.19854313
234	0xbe9f4753	-0.31109104
235	0x3d804e6f	0.0626496
236	0x3e1df6be	0.15426156
237	0x3d3b1446	0.04567363
238	0x3db3d1c6	0.087802455
239	0x3dc08a35	0.09401361
240	0xbd0e2ad7	-0.034708824
241	0xbe13dc9e	-0.14439628
242	0x3deca6e1	0.11555267
243	0xbd1bb554	-0.038014725
244	0x3e371b25	0.17881449
245	0x3d9e349c	0.07724878
246	0x3dc69673	0.09696665
247	0xbe12284f	-0.14273189
248	0xbeaa98a4	-0.3331958
249	0xbda1dbdf	-0.07903265
250	0x3e772705	0.24135979
251	0x3dfd61b2	0.123721495
252	0x3e1ac17b	0.1511287
253	0x3d605ed5	0.05477794
254	0x39cf7abd	0.00039573564
255	0x3e1a8bd2	0.150924

critic.2.bias f4 [64]
0	0x3d9b5335	0.0758423
1	0x3d60dcb5	0.054897983
2	0xbe071bc2	-0.13194183
3	0xbde5151d	-0.11185668
4	0xbc7b450e	-0.015336288
5	0x3cfa0301	0.03051901
6	0x3d19c7ef	0.037544187
7	0xbba3392f	-0.004981182
8	0xbd9e572f	-0.07731473
9	0xbe0c246a	-0.13685766
10	0xbdde909a	-0.10867424
11	0xbdbfefb5	-0.09371892
12	0x3b8bd482	0.0042672763
13	0xbdd73a86	-0.10509209
14	0x3da076a2	0.078351274
15	0xbe2f19a1	-0.1709962
16	0x3c48116e	0.012211187
17	0x3dd49534	0.10380021
18	0xbd994d7f	-0.07485484
19	0xbd28b9cb	-0.04119281
20	0xbd90393f	-0.07042169
21	0xbe024088	-0.12719929
22	0x3d8941f1	0.067020305
23	0x3d7bfab0	0.06151837
24	0xbde74d03	-0.11293986
25	0xbcf0db83	-0.029401546
26	0x3c46253b	0.012093837
27	0x3d5e5cfe	0.054287903
28	0x3d410307	0.047122028
29	0xba644f2f	-0.0008709309
30	0xbd99db25	-0.075125016
31	0xbd11f0e9	-0.03563014
32	0x3e3e1088	0.18560994
33	0xbdb0555b	-0.0861003
34	0xbe0a0b1a	-0.13480797
35	0x3e481465	0.1953903
36	0x3c879c4b	0.016554018
37	0x3d62e3c0	0.05539298
38	0xbd4508e2	-0.048104174
39	0x3d9e7019	0.07736225
40	0xbd16478d	-0.03668933
41	0xbc846385	-0.016160736
42	0xbdffee94	-0.12496677
43	0xbdb6afc9	-0.08920247
44	0xbdb0f3c4	-0.086402446
45	0xbde62025	-0.112366
46	0x3ccc5445	0.024942527
47	0x3c2d4b49	0.010577031
48	0xbdc91d7c	-0.09820077
49	0xbe1b48b8	-0.15164459
50	0xbbb382c5	-0.0054782354
51	0x3c0e5a28	0.008688487
52	0x3db0bb75	0.086295046
53	0xbd73d99c	-0.0595337
54	0xbcb11feb	-0.021621665
55	0x3c5b2193	0.013374704
56	0xbd18a72a	-0.037268795
57	0x3ca54ff6	0.02017973
58	0xbd216742	-0.039405115
59	0x3d2fd3cf	0.042926606
60	0xbd8f1483	-0.06986334
61	0x3c34d285	0.01103652
62	0xbdd36b62	-0.10323216
63	0x3d8affa0	0.06787038

critic.4.weight f4 [1, 64]
0	0x3c57439d	0.013138679
1	0x3aec01de	0.0018005928
2	0xbe4528bb	-0.19253819
3	0xbe988ec8	-0.29796433
4	0xbc542353	-0.012947875
5	0xbbea9de8	-0.007159937
6	0xbcd46fab	-0.025932154
7	0x3c9e444d	0.019319678
8	0xbe74cdbd	-0.23906608
9	0x3dd5e085	0.10443214
10	0x3bd0e8b3	0.006375396
11	0x3a477cd3	0.0007609848
12	0x3ddeece3	0.10885026
13	0xbc209c52	-0.009802895
14	0x3cff4e3e	0.031165238
15	0x3d4f30a2	0.05058349
16	0xbe9c9a15	-0.30586305
17	0x3d9e1bd1	0.07720149
18	0x3c453717	0.01203706
19	0xbecdbc79	-0.40182856
20	0xbe9ec79d	-0.31011668
21	0x3ded2642	0.11579563
22	0xbe8b982b	-0.27264532
23	0x3bb827f7	0.0056199986
24	0x3d39ee80	0.045393467
25	0xbed1cba4	-0.40975678
26	0xbe987434	-0.29776156
27	0x3b6f234f	0.0036489551
28	0xbe455ee4	-0.19274479
29	0xb9fd7db5	-0.0004834958
30	0xbd17efbb	-0.03709386
31	0xbd068d3e	-0.032849543
32	0xbe1fc41d	-0.15602155
33	0xbe45a182	-0.19299892
34	0x3c81bd98	0.015837476
35	0xbe4411fb	-0.19147484
36	0xbbf3eff7	-0.0074443775
37	0xbd0f067d	-0.034918297
38	0x3c40e1f4	0.011772621
39	0xbd850459	-0.0649497
40	0xbaa87035	-0.0012850823
41	0xbdcd0a51	-0.10011733
42	0xbc14100b	-0.009037028
43	0x3c593ef1	0.013259635
44	0xbd57186b	-0.05251352
45	0xbd28d424	-0.041217938
46	0xbeabc3d0	-0.3354783
47	0x3d3161e2	0.04330624
48	0xbe922398	-0.2854278
49	0xbd177874	-0.036980107
50	0x3c6c6514	0.014428396
51	0x3d44cdfe	0.048048012
52	0xbde804c1	-0.11329032
53	0xbc8cd6df	-0.017192302
54	0x3cac48ae	0.02103075
55	0xbdafd961	-0.085863836
56	0x3bd0f025	0.0063762837
57	0xbba88ec0	-0.0051439703
58	0xbe96ba90	-0.2943921
59	0xbe82945b	-0.2550381
60	0xbc339563	-0.01096091
61	0xbd56d804	-0.052452102
62	0xbcdbf1ed	-0.026848758
63	0xbd6aad11	-0.057293955
