Models/Reward_shaping_vm/RS_scaleup_mag_vm_6_0/47000.pth (torch, 78437 bytes, 11 tensors)

actor.0.weight f4 [64, 62]
0	0x3c9639fd	0.018338198
1	0x3c603480	0.013684392
2	0x3dfd3ecb	0.123654924
3	0x3ce0c8e6	0.027439546
4	0x3db8be60	0.09020686
5	0x3b81e4c6	0.0039640395
6	0xbe869aff	-0.26290128
7	0xbe6b08ab	-0.22952525
8	0x3dd7fd0c	0.10546312
9	0xbec3d46a	-0.38247997
10	0xbd901d73	-0.07036867
11	0xbe385f12	-0.18005016
12	0xbd8ab4a8	-0.06772739
13	0x3e5c5101	0.21515276
14	0xbe1a4aaf	-0.15067552
15	0xbe6c677e	-0.23086354
16	0x3dbd9023	0.092560075
17	0x3cdad758	0.026714012
18	0xbd0c7ab0	-0.03429669
19	0xbd802ff5	-0.06259147
20	0xbdaeadba	-0.085292295
21	0xbd616e5d	-0.05503689
22	0xbced95a1	-0.029002013
23	0x3dad9cfb	0.08477207
24	0x3cf41e9a	0.029799748
25	0xbce0089f	-0.02734786
26	0xbda2670e	-0.07929812
27	0x3daf8c00	0.08571625
28	0xbebf20d3	-0.3732973
29	0xbdecaa35	-0.11555902
30	0xbe056df7	-0.1303023
31	0xbeba5b4f	-0.36397788
32	0x3dc798d7	0.09745949
33	0xbdd2d659	-0.1029479
34	0x3d915cbc	0.07097766
35	0x3d4cf41a	0.05003748
36	0x3f2d9d55	0.67818195
37	0x3ee7981e	0.45233244
38	0x3e54c03c	0.20776457
39	0x3dc4f768	0.096175015
40	0x3e349adc	0.17637199
41	0x3f438ffb	0.7639157
42	0x3e1da3d6	0.1539453
43	0x3e09c465	0.13453825
44	0x3cab6c59	0.020925688
45	0xbd7a70a9	-0.061142597
46	0x3b89dfcd	0.0042075873
47	0x3d82d9cc	0.06389198
48	0x3c08f290	0.008358613
49	0xbd08b4b2	-0.03337545
50	0x3e1025d9	0.14076938
51	0x3cab694f	0.020924238
52	0x3decae93	0.11556735
53	0x3e140f28	0.14458907
54	0xbbaa20ae	-0.005191884
55	0xbe05a254	-0.13050205
56	0xbe0051f9	-0.1253127
57	0x3d9199a2	0.07109381
58	0x3e57c9d5	0.21073087
59	0x3d85d2b8	0.06534332
60	0x3de9dd9f	0.11419224
61	0x3e65179e	0.2237229
62	0x3b8e5b32	0.0043443674
63	0x3d4d36c7	0.050101068
64	0xbc82ace1	-0.015951576
65	0x3d054579	0.032536957
66	0xbddfb01c	-0.10922262
67	0xbe5b05e3	-0.21388964
68	0xbecfb9b9	-0.40571383
69	0xbee81cce	-0.45334476
70	0xbdb6b3c3	-0.089210056
71	0x3d855183	0.06509688
72	0x3eed6959	0.46369436
73	0x3eed78f3	0.4638134
74	0xbd38b254	-0.045091942
75	0x3e081227	0.13288175
76	0x3e0186c8	0.12649071
77	0x3e6ab357	0.22919975
78	0xbdf2f32f	-0.1186279
79	0x3da46657	0.08027332
80	0xbdcc91b7	-0.099887304
81	0xbcf11af3	-0.029431796
82	0xbd0f8168	-0.03503552
83	0xbd89e482	-0.067330375
84	0x3df1288c	0.11775312
85	0x3d8d28b6	0.068925306
86	0xbd6397d1	-0.055564705
87	0xbbe5951e	-0.0070063015
88	0xbd3323bb	-0.043735247
89	0xbd00eb8a	-0.031474628
90	0x3de79c6d	0.11309133
91	0x3d46d992	0.048547335
92	0x3d49d696	0.04927691
93	0xbdb3fe06	-0.087886855
94	0xbdcb3142	-0.099215046
95	0x3e008264	0.1254974
96	0x3dfb7ef9	0.122800775
97	0xbd80e7a4	-0.06294182
98	0x3f08b680	0.5340347
99	0x3ed32a66	0.41243285
100	0x3e030c55	0.12797673
101	0x3cbd2056	0.023086708
102	0xbddb7a17	-0.10716646
103	0x3f33a5ab	0.70174664
104	0xbe1a83d6	-0.15089354
105	0x3dde8c89	0.10866649
106	0x3d847240	0.06467104
107	0x3e2cdeca	0.16881862
108	0x3bea2ed4	0.0071466956
109	0xbd55a316	-0.052157484
110	0xbe151dab	-0.14562099
111	0x3d449b91	0.047999922
112	0xbdcb17fe	-0.099166855
113	0xbca2784d	-0.019832755
114	0x3d88a010	0.066711545
115	0xbdc9f137	-0.09860461
116	0xbe105df2	-0.14098337
117	0x3da4919d	0.08035586
118	0x3dd8dbe5	0.105888166
119	0xbd1d6a9e	-0.038431756
120	0x3d8637fc	0.06553647
121	0x3d36ed4c	0.044659898
122	0x3e4e08e5	0.2012058
123	0x3e551a76	0.20810875
124	0xbd82c6ca	-0.06385572
125	0xbd90b5d3	-0.0706593
126	0xbd595512	-0.053059645
127	0x3d9e4c2b	0.07729372
128	0xbd0c0be6	-0.034191035
129	0x3e59f3a3	0.21284346
130	0xbcc3963a	-0.023875345
131	0x3c05be0e	0.008162988
132	0xbdd4c111	-0.10388387
133	0x3e818df3	0.2530361
134	0x3e654875	0.22390921
135	0x3eb6330f	0.3558583
136	0xbd8c26ee	-0.06843363
137	0xbe77a8b9	-0.24185456
138	0x3e1f6a3a	0.15567866
139	0x3ef66261	0.48121932
140	0x3d1fbb6c	0.0389971
141	0x3d87d5df	0.066325895
142	0x3ddc2732	0.107496634
143	0x3d3f6ca2	0.04673446
144	0xbde3aa06	-0.11116414
145	0xbd394e63	-0.04524077
146	0xbd38cfac	-0.045119926
147	0x3e019a54	0.12656528
148	0x3d80981f	0.06279015
149	0xbd929273	-0.07156839
150	0x3d568eba	0.05238221
151	0xbd79095d	-0.060799945
152	0x3f070c73	0.5275337
153	0x3d1e30a5	0.03862061
154	0x3e3bbade	0.18333003
155	0x3e74305c	0.23846573
156	0x3db7b0a5	0.08969239
157	0xbcf28317	-0.029603524
158	0x3de7d476	0.113198206
159	0x3ca4749b	0.020075133
160	0xbedaa7b8	-0.42706084
161	0xbe864e6c	-0.26231706
162	0xbd891895	-0.06694142
163	0x3d1ba1e8	0.037996203
164	0x3d03d8a9	0.032189045
165	0xbed9f48b	-0.42569384
166	0x3e132eff	0.14373396
167	0x3dcc9bad	0.0999063
168	0xbcb995f5	-0.022654513
169	0xbccb2b63	-0.024800962
170	0xbd21199c	-0.039331064
171	0xbda9ad4e	-0.08285008
172	0x3e13c971	0.14432313
173	0x3e2ecddc	0.17070717
174	0xbdac4ab5	-0.08412687
175	0xbdeda874	-0.116043955
176	0x3cbaeeaa	0.022818882
177	0xbdd9c0ce	-0.10632478
178	0xbc5da32a	-0.013527671
179	0x3db91fe7	0.09039288
180	0x3e78ea7e	0.24308202
181	0xbcf327a6	-0.029681992
182	0x3de1edcc	0.11031684
183	0x3c58be60	0.013228983
184	0xbd6ced2b	-0.05784337
185	0x3d9014a0	0.07035184
186	0x3c0e23c2	0.0086755175
187	0xbcbc4316	-0.022981208
188	0xbd05654d	-0.03256731
189	0x3da5933e	0.08084725
190	0xbe28c8c6	-0.16482839
191	0xbe116e19	-0.14202155
192	0x3eeee502	0.46659094
193	0x3e8db661	0.27678207
194	0xbd0361ca	-0.03207568
195	0xbdaf888c	-0.08570966
196	0x3dddfb10	0.10838902
197	0xbd2533f0	-0.040332735
198	0xbe963538	-0.29337478
199	0xbeb8a382	-0.36062247
200	0xbd99be5e	-0.07507013
201	0x3ec13692	0.37736946
202	0x3d7fa3cc	0.06241207
203	0x3dfac5aa	0.12244733
204	0xbdac6cdf	-0.08419203
205	0xbca2639e	-0.019822892
206	0xbddeaa67	-0.108723454
207	0x3dab1ff8	0.08355707
208	0xbc7ebf84	-0.015548591
209	0xbd96d351	-0.07364524
210	0xbcbd7824	-0.023128577
211	0x3d2ee6a8	0.04270044
212	0x3ddea7df	0.108718626
213	0xbd529b2c	-0.051417515
214	0x3ec3ea55	0.3826472
215	0xbdb6e0cf	-0.089295976
216	0x3e526e8f	0.20549987
217	0x3e392f3a	0.18084422
218	0x3d434aeb	0.04767887
219	0x3d990067	0.0747078
220	0x3d41f68e	0.047354273
221	0x3c8d922f	0.01728162
222	0xbe2be78b	-0.16787545
223	0xbd8870cf	-0.066621415
224	0xbdd86e9c	-0.10567972
225	0xbc1b05df	-0.009461849
226	0x3c9cb9c5	0.01913155
227	0xbe9a1aba	-0.30098516
228	0xbe46e486	-0.19423112
229	0xbdac70dc	-0.08419964
230	0xbe515547	-0.20442687
231	0xbe521850	-0.20517087
232	0x3c5e8542	0.013581576
233	0x3dbb4bad	0.091452934
234	0xbdff65e8	-0.12470609
235	0xbd200eb0	-0.039076507
236	0x3d9b7ab9	0.07591767
237	0xbdfa8cab	-0.122338615
238	0x3da18adc	0.078878134
239	0xbb86e8ab	-0.0041170917
240	0xbdfb84e6	-0.12281208
241	0x3ddbea7a	0.10738082
242	0x3e8259b7	0.25459072
243	0xbd890688	-0.06690699
244	0xbdd5a604	-0.104320556
245	0xbdc55024	-0.09634426
246	0xbd5e34fb	-0.054249745
247	0x3da2e5fd	0.07954023
248	0xbd607c59	-0.054806087
249	0xbdd6d165	-0.104891576
250	0xbdaec139	-0.08532948
251	0x3dceaaaa	0.10091145
252	0xbe99d98a	-0.30048782
253	0x3d8a1e4c	0.0674406
254	0xbdce7a98	-0.10081977
255	0xbd8c1c75	-0.06841365

actor.0.bias f4 [64]
0	0x3e388c35	0.18022235
1	0x3ddd12fe	0.10794638
2	0x3d59e0e6	0.053192995
3	0xbad9df76	-0.0016622383
4	0x3d953601	0.07285691
5	0xbd6e7194	-0.058213785
6	0x3e056b55	0.13029225
7	0x3d9d94b5	0.07694379
8	0x3dba4d85	0.09096817
9	0x3a0e3e2e	0.00054261356
10	0x3e16f025	0.14740045
11	0xbdcded1b	-0.1005499
12	0xbe115cfa	-0.14195624
13	0xbbf5c53b	-0.0075003183
14	0xbd622301	-0.055209164
15	0x3e0d63df	0.13807629
16	0x3c8947f9	0.016757952
17	0x3e4f5108	0.20245755
18	0xbca3ac74	-0.019979693
19	0xba8550ad	-0.0010171138
20	0xbcf90ea5	-0.03040249
21	0x3deba721	0.11506487
22	0x3d21e09a	0.039520837
23	0xbdefb4e9	-0.11704428
24	0x3c96619b	0.018357089
25	0x3d9d90fd	0.0769367
26	0x3d25bb26	0.04046168
27	0x3dc79c22	0.09746577
28	0x3d25e4e6	0.040501498
29	0x3d74fe8d	0.05981307
30	0x3d9e79fd	0.07738111
31	0x3e14f8a8	0.1454798
32	0xbcf794a0	-0.030222237
33	0xbcf4c869	-0.02988072
34	0xbb94ceb4	-0.0045412425
35	0xbc99fd01	-0.0187974
36	0xbdd40b0c	-0.103536695
37	0x3e163aaf	0.14670824
38	0x3dc317f0	0.0952605
39	0xbc83e6ef	-0.016101329
40	0x3db9b5e2	0.090678945
41	0xbca049b8	-0.019566402
42	0xbd3008f0	-0.042977273
43	0xbcfe2bca	-0.03102674
44	0xbd1b30c5	-0.037888307
45	0xbdcaa96c	-0.09895596
46	0xbd955fd0	-0.072936654
47	0x3bea262e	0.0071456647
48	0x3cec460d	0.028841997
49	0x3d0711c9	0.032975946
50	0x3cecabef	0.028890578
51	0x3e3f4c24	0.18681389
52	0x3d0c79a3	0.03429569
53	0x3c397962	0.011320444
54	0xbd1639db	-0.03667627
55	0x3c8ee00a	0.017440815
56	0x3d28436a	0.041079916
57	0x3dc899b0	0.097949386
58	0x3da951b2	0.08267535
59	0xbdceac90	-0.100915074
60	0x3dcb7ec1	0.09936286
61	0xbcce7f98	-0.025207326
62	0xbce4aa00	-0.027913094
63	0x3c664cbe	0.014056383

actor.2.weight f4 [64, 64]
0	0xbc8144b3	-0.015779829
1	0xbdf03b36	-0.117300436
2	0xbdb394c4	-0.08768609
3	0xbe07ab2d	-0.13248892
4	0xbde71a64	-0.112843305
5	0x3bf218dd	0.007388218
6	0xbbe89f36	-0.0070990575
7	0xbcbce11d	-0.023056561
8	0xbc49c242	-0.012314381
9	0xbc9fb31f	-0.019494591
10	0xbd57f215	-0.0527211
11	0xbdea1b20	-0.11430955
12	0x3c29cabb	0.010363276
13	0x3d33960e	0.043844275
14	0xbe037c40	-0.12840366
15	0xbe013e05	-0.12621315
16	0x3d966ffc	0.07345578
17	0x3d888c6e	0.0666741
18	0x3cec0f0d	0.02881577
19	0x3dfb7211	0.12277616
20	0x3d9d0395	0.07666699
21	0x3dcff2a2	0.101537004
22	0x3d731314	0.059344366
23	0x3d7528d3	0.059853386
24	0xbcfda7c3	-0.030963784
25	0xbdd71885	-0.105027236
26	0xbdb9adab	-0.09066328
27	0xbda02abe	-0.078206524
28	0xbd8cd3cb	-0.06876334
29	0xbd1db7eb	-0.038505476
30	0xbd4284fe	-0.047490112
31	0xbd0beec6	-0.03416326
32	0x3db12d65	0.086512364
33	0x3d6e22fa	0.058138825
34	0xbdc1e58a	-0.09467609
35	0x3cfd5cce	0.030928042
36	0x3da5c44d	0.08094082
37	0xbdce824a	-0.100834444
38	0x3d17a03e	0.037018053
39	0x3d7c664c	0.061620995
40	0xbd55814c	-0.05212526
41	0xbcf970fc	-0.030449383
42	0x3dbc2012	0.091858044
43	0x3cec1c63	0.02882213
44	0x3db52439	0.088447995
45	0x3d7878b4	0.060661986
46	0x3d905d68	0.07049066
47	0x3ddca85c	0.107742995
48	0x3cfdbb65	0.030973146
49	0xbd82971b	-0.06376477
50	0xbdab3de2	-0.083614126
51	0xbd3f8e74	-0.046766713
52	0xbcdc8d66	-0.026922893
53	0xbbe179a9	-0.006880958
54	0xbdeb6db4	-0.114955336
55	0xbdeffa3d	-0.11717651
56	0x3caaf8c3	0.020870572
57	0xbd2b337f	-0.041797157
58	0xbdeb2420	-0.114815
59	0x3dd2f91b	0.10301419
60	0xbdc62ca0	-0.0967648
61	0xbd84c724	-0.064832956
62	0x3d4f504d	0.05061369
63	0xbe09da7e	-0.13462254
64	0xbdabaebc	-0.08382937
65	0xbe078286	-0.13233384
66	0xbe18a80a	-0.14907852
67	0x3cda138b	0.026620647
68	0xbe0f0413	-0.13966398
69	0xbdd927cd	-0.106032945
70	0x3d6a5329	0.057208214
71	0x3d956e53	0.07296433
72	0xbdf2d5b8	-0.1185717
73	0x3d85594c	0.06511173
74	0x3ddee4ac	0.108834594
75	0x3de4194f	0.1113764
76	0x3d17b65d	0.03703915
77	0xbce68db7	-0.028143747
78	0x3dd6aead	0.104825355
79	0xbdc8c7ce	-0.09803735
80	0xbc356c79	-0.011073225
81	0xbd2e9866	-0.042625807
82	0xbd3af3bd	-0.045642603
83	0xbe1298bc	-0.14316076
84	0x3af1e27c	0.0018454338
85	0x3d92856a	0.07154353
86	0x3cffe468	0.031236842
87	0x3db5ce6e	0.08877264
88	0x3d26d582	0.04073096
89	0x3d3ae2b4	0.045626357
90	0xbdf5c23b	-0.11999937
91	0xbdd36d57	-0.10323589
92	0xbd91d312	-0.071203366
93	0x3d2b80f8	0.04187104
94	0x3d9c7748	0.076399386
95	0x3cf561a0	0.029953778
96	0x3c9eab48	0.019368783
97	0x3d8912ba	0.06693025
98	0xbe0bc91c	-0.13650936
99	0xbda06c26	-0.07833128
100	0xbdb6cc5d	-0.08925698
101	0x3dde93fa	0.10868068
102	0x3d60aaac	0.054850265
103	0xbe14dbe1	-0.14537002
104	0xbd5c9870	-0.053856313
105	0xbe0b38ef	-0.13595937
106	0x3db7a89b	0.08967706
107	0xbd915ec1	-0.07098151
108	0xbd601964	-0.054711714
109	0x3cd93608	0.026515022
110	0x3d32d650	0.043661416
111	0xbd644a1b	-0.055734735
112	0x3d03277f	0.03202009
113	0xbe0ceeeb	-0.13763015
114	0xbe2d8423	-0.16944937
115	0x3d00049c	0.031254396
116	0xbe1f4311	-0.15552928
117	0x3d2df10f	0.04246622
118	0xbc641d32	-0.013922976
119	0x3c74f782	0.014951589
120	0x3d828137	0.06372302
121	0x3dca7bdd	0.09886906
122	0xbdf8484c	-0.121231645
123	0x3d87c360	0.06629062
124	0x3d816d09	0.06319625
125	0xbd81cfb6	-0.06338446
126	0x3dc22e19	0.09481449
127	0xbcdcd183	-0.026955372
128	0x3cb2ae96	0.021811765
129	0xbd10bbdd	-0.03533541
130	0xbc7e2a8f	-0.015513076
131	0x3a8dc76a	0.0010816876
132	0xbd3f0d35	-0.046643455
133	0xbe11bf3c	-0.14233106
134	0xbde3d28d	-0.11124144
135	0x3dc7182c	0.09721407
136	0x3bb35207	0.005472425
137	0xbdf67f6f	-0.12036025
138	0x3db338cd	0.08751068
139	0x3da4d57e	0.08048533
140	0x3da14b37	0.07875674
141	0x3d80c331	0.0628723
142	0xb74eefa6	-1.2334354e-05
143	0x3d380820	0.044929624
144	0xbd94489b	-0.07240411
145	0xbdb6fa6d	-0.08934484
146	0xbdc8356e	-0.09775816
147	0xbd502fe6	-0.05082693
148	0xbcb42483	-0.021990066
149	0xbde6b721	-0.11265398
150	0xbdbb2347	-0.09137588
151	0x3d9bee06	0.07613759
152	0xbdaac985	-0.08339218
153	0x3d4953eb	0.049152296
154	0xbd7fea0e	-0.06247907
155	0x3da96994	0.082720906
156	0xbc396a68	-0.011316873
157	0x3d8ce860	0.068802595
158	0xbdaeb3a1	-0.08530355
159	0xbcf3cafa	-0.029759873
160	0x3db41816	0.087936565
161	0xbbce5c9b	-0.0062976605
162	0x3c9c4fff	0.019081114
163	0x3d3c8690	0.046026766
164	0x3d365619	0.044515703
165	0x3da38b99	0.079856105
166	0x3d4e8924	0.050423756
167	0xbc1f65b3	-0.009728837
168	0xbe222d7a	-0.1583766
169	0xbdfbe797	-0.12300032
170	0x3c4f9a1f	0.012671023
171	0x3dd6fd75	0.10497562
172	0x3d98fd4e	0.07470189
173	0x3d7fab80	0.062419415
174	0xbca49421	-0.020090165
175	0xbacec2a0	-0.0015774556
176	0xbcbc3de0	-0.022978723
177	0xbda66639	-0.08124966
178	0x3cab6102	0.02092028
179	0xbd6db0ef	-0.058030065
180	0x3d5a77eb	0.05333702
181	0xbe1cab64	-0.15299755
182	0x3bfd3fee	0.0077285683
183	0xbc2612da	-0.0101363305
184	0xbdaa4d09	-0.083154745
185	0xbd7f3d7c	-0.062314495
186	0xbdfb7901	-0.12278939
187	0x3d2c0198	0.041993707
188	0x3dc6e849	0.09712274
189	0xbdd02fd2	-0.10165371
190	0xbe1cf540	-0.1532793
191	0xbc214fe6	-0.009845709
192	0x3da1dd00	0.079034805
193	0x3ec2b9c7	0.38032362
194	0x3d9ad181	0.07559491
195	0x3d832455	0.06403414
196	0x3cc15712	0.023601089
197	0xbe26626f	-0.16248487
198	0x3e23b1d3	0.15985803
199	0x3ea1f733	0.3163391
200	0x3e94fd66	0.29099578
201	0x3c290d0d	0.010318053
202	0x3edfa935	0.43683782
203	0x3c854d9c	0.016272359
204	0xbe4d9501	-0.20076372
205	0x3cb92390	0.022599965
206	0x3e2a30c4	0.16620165
207	0x3d046ed8	0.03233227
208	0x3e42e256	0.19031653
209	0x3d8361a3	0.06415107
210	0xbe313162	-0.17303994
211	0x3ea2936c	0.317531
212	0x3e5f981d	0.2183537
213	0xbe4842aa	-0.1955668
214	0x3e64d78d	0.22347851
215	0x3d555751	0.052085225
216	0x3e1ea742	0.15493491
217	0xbe5d6b13	-0.21622877
218	0x3e1cdca4	0.15318543
219	0x3e57fc42	0.21092322
220	0x3e3739f2	0.17893198
221	0x3d8d983c	0.06913802
222	0xbde2a8ad	-0.110673286
223	0x3e1031c5	0.14081486
224	0x3dcaae18	0.09896487
225	0x3ecdab4a	0.40169746
226	0xbc0e70df	-0.008693903
227	0xbdae6c57	-0.08516758
228	0xbe257258	-0.161569
229	0x3e7e1cf6	0.24815735
230	0x3f0493af	0.5178785
231	0x3dd161c8	0.102237284
232	0xbcba3f26	-0.02273519
233	0xbe05803c	-0.13037199
234	0x3dcbcf9e	0.09951709
235	0x3e1db1a2	0.15399793
236	0x3e526b59	0.20548762
237	0xbc451bd8	-0.012030564
238	0x3d59cd97	0.05317458
239	0x3e0aa82e	0.13540718
240	0x3e58a044	0.21154886
241	0xbd95305b	-0.07284614
242	0x3da75232	0.081699744
243	0x3df3cff4	0.11904898
244	0xbea5bb82	-0.3236962
245	0x3e4f560d	0.2024767
246	0x3e6c1e9e	0.23058555
247	0x3cf3ec63	0.029775804
248	0x3eaf4694	0.34233534
249	0xbd7c7ef9	-0.061644528
250	0xbde0ea86	-0.10982232
251	0x3e513eb2	0.20434073
252	0x3dc4c4ff	0.096078865
253	0x3e90a302	0.28249365
254	0x3e572aaf	0.21012376
255	0xbe9f4177	-0.31104633

actor.2.bias f4 [64]
0	0xbdb38b9d	-0.087668635
1	0xbe1c4e42	-0.15264228
2	0xbde50b38	-0.111837804
3	0xbd5f5d6c	-0.054532453
4	0x3d5f9661	0.054586772
5	0xbde36baa	-0.1110452
6	0xbcda6200	-0.026658058
7	0x3d08a6c5	0.03336217
8	0x3d731436	0.059345447
9	0xbe06a69b	-0.13149492
10	0x3da848f3	0.08217039
11	0xbcff454b	-0.031160971
12	0x3d1fb3ca	0.03898982
13	0x3d960282	0.07324697
14	0xbbf3ef75	-0.007444317
15	0x3c027699	0.007962846
16	0xbe0d214a	-0.1378223
17	0x3c4a525f	0.01234874
18	0x3c999fda	0.018752981
19	0x3d200d2c	0.03907506
20	0xbe078366	-0.13233718
21	0x3e3f734b	0.18696325
22	0x3d56c75a	0.05243621
23	0x3c8c36c2	0.017115954
24	0x3d5dea6f	0.05417865
25	0x3e18acdf	0.14909695
26	0x3d96a57f	0.073557846
27	0x3c128b99	0.0089444155
28	0xbbf57a46	-0.007491383
29	0x3dfc7221	0.12326456
30	0x3db5f513	0.08884635
31	0xbdbe04f8	-0.092782915
32	0xbb22ccfe	-0.0024841423
33	0x3d0f85a0	0.035039544
34	0x3e6eb227	0.23310147
35	0x3e1fa811	0.15591456
36	0x3dfac4e1	0.12244583
37	0x3e1e7020	0.1547246
38	0xbd9a290f	-0.075273626
39	0x3cc5a33a	0.024125684
40	0x3dfc2b32	0.12312926
41	0xbc7fb32c	-0.015606683
42	0xbe510f74	-0.20416051
43	0x3a618795	0.0008603272
44	0xbd54466e	-0.05182498
45	0xbe08c9cf	-0.13358234
46	0x3c967b07	0.01836921
47	0xbe0d72b7	-0.13813291
48	0xbda71eb4	-0.08160153
49	0xbd8a2f92	-0.067473546
50	0x3de7217e	0.11285685
51	0x3c556b23	0.013026032
52	0x3ce9696e	0.028492656
53	0x3d56183e	0.052269213
54	0x3d4fbcb1	0.05071706
55	0xbd352c8d	-0.04423194
56	0x3b84f147	0.004057083
57	0xbd79bff9	-0.060974095
58	0xbdad8301	-0.08472253
59	0xbde2469e	-0.110486254
60	0x3dff0d61	0.12453724
61	0x3dbb6121	0.09149385
62	0xbde28b43	-0.11061718
63	0xbdc1c03d	-0.09460495

actor.4.weight f4 [36, 64]
0	0x3db5ad58	0.08870953
1	0x3dc68e64	0.096951276
2	0x3d819471	0.06327141
3	0xbf7b0500	-0.98054504
4	0x3dbe73e1	0.09299446
5	0x3d74082e	0.059578113
6	0xbee9947c	-0.45621097
7	0x3e5e178a	0.21688667
8	0x3f20bfc9	0.6279264
9	0xbf040955	-0.5157674
10	0x3eec425b	0.46144375
11	0xbec200f8	-0.37891364
12	0xbf0ed16c	-0.557883
13	0x3ee0cdc7	0.43906996
14	0xbeec0b19	-0.46102217
15	0x3f110387	0.5664601
16	0xbc41f7b4	-0.011838842
17	0x3f182ef6	0.59446657
18	0xbda1872c	-0.0788711
19	0xbef21fa4	-0.47289765
20	0x3df92226	0.121647164
21	0xbec74e12	-0.3892675
22	0xbb1cc432	-0.0023920652
23	0xbeefab04	-0.46810162
24	0x3eb07970	0.3446765
25	0xbf889be9	-1.067258
26	0xbeeffde2	-0.46873385
27	0xbf12dd28	-0.5736871
28	0x3d8c4645	0.0684934
29	0x3ef77416	0.48330754
30	0x3ef3a68a	0.47587997
31	0x3d3f90b5	0.046768863
32	0xbee36341	-0.44411662
33	0x3ef104fc	0.47074115
34	0xbe1e1bfd	-0.15440364
35	0xbf6b9cf8	-0.9203639
36	0x3efff68e	0.49992794
37	0xbe98b8ec	-0.29828584
38	0x3c717e7b	0.014739628
39	0xbdfe2f84	-0.12411407
40	0xbf025550	-0.50911427
41	0xbee87387	-0.4540064
42	0xbd945e36	-0.07244532
43	0xbdd28e52	-0.10281052
44	0xbf30304c	-0.68823695
45	0xbdad0977	-0.08449071
46	0x3e025f8d	0.12731762
47	0x3dd4dc3f	0.10393571
48	0x3da83425	0.08213071
49	0xbebfdac6	-0.37471598
50	0xbe2b80b2	-0.16748312
51	0x3f2d81da	0.6777626
52	0xbebb5bb5	-0.36593404
53	0x3e982cdc	0.29721725
54	0xbf21da21	-0.63223463
55	0x3d6ed1fb	0.05830572
56	0xbe14260f	-0.14467643
57	0x3ec4e343	0.38454637
58	0x3d519d78	0.051175565
59	0x3d64b342	0.055835016
60	0xbecaa367	-0.3957779
61	0xbef3ae41	-0.47593883
62	0xbc62727f	-0.013821243
63	0xbe59e140	-0.21277332
64	0xbe05aeb0	-0.13054919
65	0x3dd56f1f	0.10421585
66	0x3d183576	0.03716036
67	0xbd0530c0	-0.032517195
68	0x3db19d86	0.08672623
69	0xbbc8db0c	-0.006129628
70	0x3eec519a	0.46156007
71	0xbf3ef8c7	-0.74598354
72	0xbed6f0b7	-0.41980526
73	0x3e6ff998	0.23435056
74	0xbf276526	-0.65388715
75	0xbf49a194	-0.78762174
76	0x3eb3fad4	0.35152304
77	0xbf066491	-0.524972
78	0xbd9a8342	-0.07544567
79	0x3e37165f	0.17879628
80	0x3d94fb0a	0.072744444
81	0x3d8c366f	0.0684632
82	0xbf3375b9	-0.70101506
83	0x3e270c0e	0.16313192
84	0xbe0bdcbb	-0.1365842
85	0xbf2bdb32	-0.6713134
86	0x3e46b1fd	0.19403835
87	0xbf093f14	-0.53611875
88	0xbf1552d2	-0.583295
89	0x3c8d3cbc	0.017240874
90	0xbf58f412	-0.8474742
91	0x3eff9b7e	0.4992332
92	0xbe39e5e3	-0.18154101
93	0xbf736d3f	-0.9508857
94	0x3e87a706	0.26494616
95	0x3d6fcac4	0.05854298
96	0xbf5d586f	-0.86463064
97	0x3e5f2d8e	0.21794721
98	0xbf8ee16d	-1.1162544
99	0x3ea4d73e	0.32195467
100	0xbea6aacd	-0.32552186
101	0xbed368b4	-0.4129082
102	0xbdf5011c	-0.11963102
103	0x3e87fb8f	0.2655911
104	0xbe49a99a	-0.19693604
105	0x3eb64af8	0.35604072
106	0x3d6dbf41	0.058043722
107	0x3e885a8a	0.26631576
108	0x3c2ee3d0	0.010674432
109	0x3caaecdf	0.020864902
110	0xbe739066	-0.23785552
111	0x3de4f960	0.11180377
112	0x3edd25ae	0.4319281
113	0xbebb7d86	-0.36619204
114	0x3dc0d30e	0.094152555
115	0xbe45e340	-0.1932497
116	0x3ec6f18d	0.38856164
117	0x3ea94457	0.33059952
118	0x3eb5a4ed	0.3547739
119	0xbde9c1ad	-0.11413894
120	0x3d881d3e	0.066462025
121	0xbecdc6f8	-0.40190864
122	0xbcadb297	-0.021203322
123	0xbd970268	-0.07373506
124	0xbf5d6948	-0.8648877
125	0xbf7b3f95	-0.98143893
126	0x3d8b62ef	0.068059795
127	0x3ea527db	0.3225697
128	0x3d97a9ff	0.07405471
129	0xbd3234b5	-0.043507297
130	0xbe03f1f2	-0.12885264
131	0x3c9347db	0.0179786
132	0xbdc6448c	-0.09681043
133	0x3de6d158	0.11270398
134	0xbe98868f	-0.2979016
135	0xbf0d3bb8	-0.5516925
136	0xbe3fba10	-0.18723321
137	0x3e3b4954	0.18289691
138	0x3e33fa70	0.17576003
139	0xbeb838d2	-0.3598085
140	0xbe5beb7a	-0.21476546
141	0x3dde0c1b	0.10842153
142	0x3d6ccaf2	0.05781073
143	0x3ea1dbc6	0.31612986
144	0xbd8f812a	-0.07007058
145	0x3ded2dcb	0.11581
146	0xbe7ce93f	-0.24698351
147	0x3ec731de	0.38905233
148	0xbd4a64c6	-0.04941251
149	0x3e5b3a01	0.21408845
150	0x3e8f5373	0.27993354
151	0xbf2686eb	-0.6504962
152	0x3e2bfb07	0.16794978
153	0xbeea59ad	-0.45771542
154	0xbebc7c20	-0.3681345
155	0x3e752275	0.23938926
156	0x3dae4c7a	0.085106805
157	0xbee5f1b0	-0.44910955
158	0x3e9dafa4	0.30798066
159	0x3a304d17	0.00067253545
160	0xbe5c8615	-0.21535523
161	0xbc851ad3	-0.016248142
162	0xbef1121b	-0.47084126
163	0x3da454ec	0.0802401
164	0x3e899c36	0.26876992
165	0xbf3c647c	-0.73590827
166	0xbd7028fe	-0.058632843
167	0x3e9cc16b	0.30616316
168	0xbf196c37	-0.5993075
169	0x3e52a1a8	0.2056948
170	0x3eb8e275	0.36110273
171	0xbf1110af	-0.5666608
172	0xbee79ace	-0.45235294
173	0xbdb82487	-0.08991342
174	0x3e864dfc	0.26231372
175	0x3b108b26	0.0022055595
176	0x3ed157ca	0.4088729
177	0x3e4c4a70	0.1995027
178	0xbed23a93	-0.41060314
179	0xbe8dea30	-0.27717733
180	0x3ec6d272	0.38832432
181	0x3ddd5f9d	0.108092524
182	0x3e739f0b	0.23791139
183	0xbd0ac3dc	-0.033878192
184	0x3dca7e51	0.09887374
185	0x3e08a97c	0.13345903
186	0x3cf9b8ca	0.030483622
187	0xbd6a0e7a	-0.057142712
188	0xbe9122b6	-0.28346795
189	0xbf1d689f	-0.61487764
190	0x3cc7e615	0.024401704
191	0x3e9a9fcb	0.30200037
192	0x3d029019	0.031875703
193	0x3d66deb6	0.056364737
194	0xbd215951	-0.03939182
195	0x3ddad49e	0.10685085
196	0x3e2af49b	0.16694872
197	0xbdca95db	-0.09891864
198	0xbe9291ed	-0.28626958
199	0xbee9ccf0	-0.45664167
200	0x3e07e477	0.13270746
201	0x3d8dc4c3	0.06922295
202	0xbcd5dccc	-0.02610626
203	0xbedea8ae	-0.43488067
204	0xbeaac5e5	-0.33354107
205	0x3e33c173	0.17554264
206	0xbdf820fa	-0.12115665
207	0x3dfce0f4	0.12347594
208	0x3d88c0a8	0.06677371
209	0x3d929a01	0.0715828
210	0x3d286f17	0.04112157
211	0x3db66b36	0.089071676
212	0x3deb1f39	0.114805646
213	0xbe2d40c9	-0.16919245
214	0xbddf0a53	-0.10890641
215	0xbf04bfc2	-0.518551
216	0xbe868e22	-0.26280314
217	0xbefcbe5a	-0.49363977
218	0xbf0887e8	-0.53332376
219	0x3d848155	0.064699806
220	0xbdfd3c08	-0.12364966
221	0x3cf0616e	0.029343333
222	0x3def0907	0.11671644
223	0xbd819c8a	-0.063286856
224	0xbdb9a753	-0.09065118
225	0xbeb7d744	-0.35906422
226	0xbf2321ee	-0.6372365
227	0xbe076720	-0.13222933
228	0x3ea8222a	0.32838565
229	0xbe53e88c	-0.20694178
230	0x3d95ffd6	0.073241875
231	0x3e758bc6	0.239791
232	0xbef21544	-0.4728185
233	0x3e9f2471	0.3108249
234	0xbe6e990c	-0.2330057
235	0xbef0365b	-0.4691647
236	0xbef24e81	-0.4732552
237	0xbdaba771	-0.08381546
238	0x3e64124d	0.22272606
239	0xbdf5b05c	-0.119965285
240	0xbe9d7837	-0.3075578
241	0xbd002101	-0.031281475
242	0xbeb5e98d	-0.35529748
243	0xbe01aa03	-0.1266251
244	0x3d7c855f	0.06165063
245	0x3ddd6a3d	0.10811279
246	0xbe75a334	-0.23988038
247	0xbda271b1	-0.07931841
248	0xbd6c09f7	-0.05762669
249	0x3dab6540	0.08368921
250	0xbd1993e4	-0.037494555
251	0x3dffa4a7	0.12482577
252	0xbf140b7f	-0.5783004
253	0xbf17af4c	-0.59251857
254	0x3dddaf94	0.108245045
255	0x3e28d498	0.16487348

actor.4.bias f4 [36]
0	0xbd69d4af	-0.057087597
1	0xbe590b74	-0.21195775
2	0x3c07f740	0.008298695
3	0xbd7974ba	-0.060902335
4	0x3d429ea1	0.04751456
5	0xbc5af4ff	-0.013364076
6	0x3a07234d	0.00051551015
7	0x3d57e955	0.052712757
8	0xbd252518	-0.04031858
9	0x3d588828	0.052864224
10	0x3d69828b	0.05700926
11	0x3e1e416a	0.15454641
12	0xbd050622	-0.03247655
13	0xbb4bddc7	-0.0031107531
14	0x3d880c40	0.066429615
15	0xbd2e7a0d	-0.042596865
16	0xbea0e10b	-0.31421694
17	0xbe452616	-0.1925281
18	0xbe6691bf	-0.22516535
19	0xbe90b22f	-0.28260943
20	0xbe8e1bba	-0.2775553
21	0x3d44fae9	0.04809085
22	0xbdd151c1	-0.102206714
23	0x3dd4f2eb	0.103978954
24	0xbd5f167c	-0.054464802
25	0x3e198f92	0.14996174
26	0x3e0e89fc	0.13919824
27	0x3c9bbad4	0.019009985
28	0xbdb343c9	-0.08753163
29	0x3e13c70f	0.14431404
30	0xbca0ab81	-0.01961303
31	0x3c61d5c2	0.013783874
32	0xbd2a66f1	-0.04160208
33	0xbbd7315d	-0.006567164
34	0x3e11bfd4	0.14233333
35	0x3e643476	0.22285637

critic.0.weight f4 [64, 62]
0	0xbd60c102	-0.054871567
1	0xbd175dc9	-0.036954675
2	0x3df6b40f	0.12046062
3	0x3c511464	0.012761209
4	0xbe06c2e7	-0.13160287
5	0x3eb124a3	0.34598264
6	0x3cb68d53	0.022284186
7	0x3e1e8225	0.15479334
8	0xbdc50cc0	-0.096215725
9	0x3dd79047	0.105255656
10	0x3d99744a	0.074928835
11	0x3e82fd89	0.25584057
12	0xbea57a61	-0.3231993
13	0xbd233938	-0.03984949
14	0xbde013af	-0.10941254
15	0xbde2c881	-0.11073399
16	0x3de82882	0.11335851
17	0x3d884fd9	0.06655855
18	0xbd827404	-0.063697845
19	0x3cc42f16	0.023948234
20	0x3daa9a62	0.083302274
21	0x3de4bf44	0.111692935
22	0xbdb7e2cb	-0.08978804
23	0xbd727306	-0.059191726
24	0x3dd9fa6f	0.106434695
25	0x3dcb3db8	0.09923881
26	0xbdc528c7	-0.09626918
27	0x3e00b573	0.12569217
28	0x3d447d3d	0.047971
29	0x3e532b0d	0.20621891
30	0x3e364eb0	0.17803454
31	0x3e7350b6	0.23761258
32	0x3ca62ac1	0.020284059
33	0xbd34329f	-0.04399359
34	0x3df7a7b7	0.12092536
35	0xbd7a9ae8	-0.061182886
36	0x3e32bc5e	0.17454669
37	0x3d4b36c5	0.04961278
38	0xbd4f8b69	-0.05067006
39	0xbcc6b602	-0.02425671
40	0xbe863e35	-0.26219335
41	0x3c0b8d93	0.008517641
42	0x3dbc92bd	0.092076756
43	0xbd3711ac	-0.044694588
44	0xbe1d0e04	-0.15337378
45	0xbd56c80d	-0.052436877
46	0x3d923198	0.071383655
47	0xbdcf9209	-0.10135276
48	0xbd41f081	-0.047348503
49	0xbe3a70b2	-0.18207052
50	0x3d75f94a	0.060052194
51	0xbdb7f287	-0.08981805
52	0x3de55553	0.11197915
53	0xbdab9d21	-0.08379579
54	0xbe488c86	-0.19584855
55	0x3c80923a	0.015694726
56	0xbd171bfa	-0.036891915
57	0xbdb69882	-0.08915807
58	0xbc7c9779	-0.015416973
59	0x3d0d302b	0.034469765
60	0xbe27a0ed	-0.16369982
61	0xbd2e1ca1	-0.04250777
62	0xbc434454	-0.011918146
63	0xbda6fefb	-0.081541024
64	0x3d0605a8	0.032720238
65	0x3d24c28d	0.0402246
66	0xbd77cf44	-0.0605004
67	0xbe796e6e	-0.24358532
68	0xbeb26aa7	-0.34846994
69	0xbec67dd5	-0.38767877
70	0xbd70c361	-0.058780078
71	0xbde3c68f	-0.111218564
72	0xbea438c4	-0.3207456
73	0xbe8e96d2	-0.27849442
74	0xbe747c9a	-0.23875657
75	0xbd10f1a2	-0.03538669
76	0xbe310a0f	-0.17288993
77	0xbe7a30e9	-0.2443272
78	0xbd0a82fd	-0.033816326
79	0xbc92d5a0	-0.01792413
80	0x3dd41d5b	0.103571616
81	0xbdb003bf	-0.085944645
82	0x3de53f1b	0.11193677
83	0xbb475c04	-0.0030419836
84	0xbd23d034	-0.03999348
85	0xbd52b62d	-0.051443268
86	0x3d10f794	0.03539236
87	0xbdf2ff17	-0.11865061
88	0x3d1d5913	0.038415026
89	0xbdab05d3	-0.0835072
90	0xbe80a426	-0.25125235
91	0x3b0f138e	0.0021831724
92	0xbd877c06	-0.066154525
93	0xbe937882	-0.28802878
94	0xbdd387e2	-0.10328652
95	0xbcb7eb5c	-0.022451095
96	0x3d6421ac	0.055696175
97	0xbd0fc229	-0.035097275
98	0x3c68b664	0.014203642
99	0x3e70bdaf	0.23509859
100	0xbd07c3e5	-0.033145804
101	0x3cf7fc98	0.030271813
102	0x3e4716bb	0.19442265
103	0xbe3013b9	-0.17195024
104	0xbe0e436b	-0.13892905
105	0xbda5f908	-0.081041396
106	0xbd8ddbff	-0.069267265
107	0x3d1f256e	0.038854055
108	0xbd621ce6	-0.05520334
109	0xbda64821	-0.08119226
110	0x3d9383c1	0.072028644
111	0xbd8b6a84	-0.068074256
112	0xbde7cdbe	-0.11318539
113	0x3d4726b3	0.04862089
114	0xbcf1b7c3	-0.02950657
115	0x3dac1593	0.084025525
116	0x3d20e782	0.039283283
117	0xbd53dfa2	-0.051726945
118	0xbd4732fd	-0.04863261
119	0x3d8d1f38	0.0689072
120	0x3da0ce54	0.07851854
121	0xbd187a25	-0.03722586
122	0x3db62bae	0.0889505
123	0x3e074088	0.1320821
124	0xbd9b6dae	-0.07589279
125	0xbcb239f0	-0.021756142
126	0x3d62a767	0.05533543
127	0xbd895a68	-0.06706697
128	0x3d2c61d0	0.04208547
129	0x3cc8fb94	0.024534024
130	0xbd707f20	-0.058714986
131	0x3e569a23	0.20957236
132	0xbe12b64c	-0.14327353
133	0xbd9f16fc	-0.07768056
134	0xbc23fa82	-0.010008456
135	0xbe99ef1d	-0.3006524
136	0xbdbba863	-0.091629766
137	0x3d04d5e6	0.032430552
138	0xbc85689d	-0.016285235
139	0x3da39f10	0.07989323
140	0xbd7aa2e4	-0.0611905
141	0x3d489553	0.04897053
142	0xbd7e0abb	-0.062021952
143	0x3dfe79bd	0.124255635
144	0xbde9f9b8	-0.11424583
145	0x3dc34b3c	0.09535834
146	0xbd06300f	-0.032760676
147	0xbd46b758	-0.048514694
148	0xbcf87cbe	-0.03033292
149	0xbd2bbc0c	-0.041927382
150	0x3da167e3	0.07881143
151	0xbdad4f5c	-0.08462402
152	0xbde5e712	-0.11225714
153	0x3da4bd1c	0.08043882
154	0xbba1bca2	-0.004935817
155	0x3a804492	0.000978606
156	0xbabe945e	-0.0014540066
157	0xbd61337c	-0.05498074
158	0x3de84c20	0.11342645
159	0x3d832ae7	0.06404667
160	0xbd05216e	-0.032502584
161	0x3d8aabe4	0.06771067
162	0xbe5c3d33	-0.2150772
163	0x3c9a6cf2	0.018850777
164	0x3e6e14a8	0.23250067
165	0xbe177f81	-0.14794733
166	0xbe1bcba3	-0.152144
167	0xbe9299e9	-0.2863305
168	0xbe196521	-0.14979984
169	0x3caaa3ed	0.020830119
170	0xbc9b0227	-0.018921925
171	0xbd0fb82b	-0.035087746
172	0xbd933600	-0.07188034
173	0xbc729034	-0.0148048885
174	0x3e1e7204	0.15473181
175	0xbdf117c1	-0.11772109
176	0xbd5f9862	-0.054588683
177	0x3dbcfe6e	0.09228216
178	0xbe674ca1	-0.22587825
179	0x3e750502	0.23927692
180	0xbdba5f92	-0.0910026
181	0xbd1f707e	-0.03892564
182	0xbdc1ff9f	-0.09472584
183	0x3e39bfcc	0.18139571
184	0xbdfc656e	-0.12324034
185	0xbd8beae9	-0.06831915
186	0x3df18ef3	0.117948435
187	0xbdb07810	-0.0861665
188	0xbdeaf8cf	-0.11473238
189	0x3df2f464	0.1186302
190	0xbdb66c49	-0.089073725
191	0x3e9a2b02	0.30110937
192	0xbdc20ce8	-0.09475118
193	0x3db27d7f	0.08715343
194	0x3cb379ed	0.021908725
195	0xbe4889e0	-0.19583845
196	0xbcd522da	-0.026017595
197	0xbd2d1133	-0.04225273
198	0x3e1a7616	0.15084109
199	0x3bd855a8	0.006602008
200	0x3dc8cc08	0.09804541
201	0x3e4e4e5a	0.20147076
202	0x3d71f580	0.059072018
203	0xbd854038	-0.065063894
204	0x3b8e2e1c	0.0043389928
205	0x3d1d1f8f	0.038360175
206	0xbdb8800f	-0.090088
207	0x3dc34d2c	0.09536204
208	0x3d0e0c78	0.03467986
209	0x3d1d7e8a	0.038450755
210	0xbd2dddd0	-0.042447865
211	0x3d05dcc7	0.032681253
212	0xbd18c1cc	-0.037294194
213	0xbbbe9c7f	-0.0058169956
214	0x3dfcd8c2	0.12346031
215	0x3ed07b12	0.40718895
216	0x3e68dcc5	0.22740467
217	0x3f02af32	0.51048577
218	0xbde8e19d	-0.11371157
219	0x3d792fe8	0.060836703
220	0x3c67d83d	0.014150676
221	0xbddb9447	-0.10721641
222	0x3dc3df0c	0.09564027
223	0x3da8aac0	0.08235693
224	0xbd66a7ba	-0.0563123
225	0x3e49637a	0.19666854
226	0x3e007542	0.1254473
227	0xbe69624f	-0.22791408
228	0xbdd76762	-0.105177656
229	0xbe0bf3d7	-0.13667236
230	0xbe93c5e5	-0.2886192
231	0xbe886c6c	-0.2664522
232	0x3d081bf4	0.033229783
233	0xbd758065	-0.0599369
234	0xbdb3b172	-0.087740794
235	0xbea93ca0	-0.33054066
236	0xbcade9bb	-0.021229615
237	0xbd26b013	-0.04069526
238	0xbd03c26c	-0.032167837
239	0x3cf65a74	0.030072428
240	0xbeb3eca1	-0.3514147
241	0xbe2dd323	-0.16975074
242	0x3ea75da0	0.32688618
243	0xbda2c146	-0.0794702
244	0x3d434766	0.047675513
245	0x3e17b66f	0.14815687
246	0x3a068420	0.00051313825
247	0x3cc0cb5c	0.02353447
248	0xbda8f1fb	-0.08249279
249	0x3cea0a4f	0.028569369
250	0x3dc5175b	0.09623595
251	0x3df9caa2	0.12196852
252	0x3e21b5bd	0.15791984
253	0xbed9cee8	-0.4254067
254	0xbeb0fb3c	-0.34566677
255	0xbf0589d2	-0.5216342

critic.0.bias f4 [64]
0	0xbd52e457	-0.051487293
1	0xbd23d7f0	-0.040000856
2	0xbe3394a5	-0.17537172
3	0x3c766b2b	0.015040199
4	0x3db09972	0.08623017
5	0xbe40a87d	-0.18814273
6	0x3e01bb64	0.1266914
7	0xbdd71b32	-0.10503234
8	0xbd5c4e5a	-0.05378566
9	0xbcbd655f	-0.023119627
10	0xbd4555f8	-0.04817769
11	0xbdbdc81e	-0.09266685
12	0x3d293876	0.04131361
13	0xbe2d0ce7	-0.16899453
14	0x3b329f10	0.0027255453
15	0xbe0d6a59	-0.138101
16	0x3d369dd5	0.044584114
17	0xbe1c3b2c	-0.15256947
18	0x3be8ee58	0.007108491
19	0xbe38a72a	-0.18032518
20	0xbe2157d4	-0.1575616
21	0xbcb651f2	-0.022255871
22	0x3c1257b1	0.00893204
23	0xbd9072f8	-0.070531785
24	0x3d9306e8	0.07179052
25	0x3d80b104	0.06283763
26	0xbd63f6ac	-0.055655167
27	0xbda31e91	-0.079648145
28	0x3da595b8	0.08085197
29	0xbd2b6650	-0.04184562
30	0xbe27c295	-0.16382821
31	0x3db4b8db	0.08824321
32	0x3e2caf38	0.16863716
33	0xbd74df42	-0.059783228
34	0xbe22f981	-0.1591549
35	0x3d7a07fa	0.061042763
36	0xbdccf8cf	-0.10008394
37	0xbdd4fbf4	-0.10399619
38	0xbd2ff825	-0.04296126
39	0xbe1d3dc3	-0.15355591
40	0xbe550d83	-0.20805936
41	0xbd81f2de	-0.06345151
42	0xbe3b2f88	-0.1827985
43	0xbd86f380	-0.06589413
44	0x3d040642	0.03223253
45	0xbde6accd	-0.11263428
46	0xbe0a2d64	-0.13493878
47	0x3d8a2a57	0.06746357
48	0xbd4a0ce9	-0.04932872
49	0x3d9013a7	0.070349984
50	0xbe0fc1d7	-0.14038788
51	0xbd29511d	-0.04133712
52	0xbd5ace97	-0.053419676
53	0xbd9fce2d	-0.07802997
54	0xbdcd3645	-0.10020117
55	0xbcee7708	-0.029109493
56	0xbdc2b7b9	-0.095076986
57	0xbe0bedca	-0.13664928
58	0x3df08842	0.11744739
59	0xbe15b2cf	-0.14618991
60	0xbe2cebd0	-0.1688683
61	0xbc98ff61	-0.018676462
62	0xbdb3264c	-0.08747539
63	0xbda30bf1	-0.07961262

critic.2.weight f4 [64, 64]
0	0xbcc82c41	-0.024435164
1	0x3c89bb16	0.016812842
2	0xbe1a4431	-0.15065075
3	0x3d9eec3e	0.07759903
4	0x3de1bc33	0.11022224
5	0xbd3a6c17	-0.04551324
6	0x3c20991e	0.009802131
7	0xbd5dc3b1	-0.054141704
8	0xbc6cc859	-0.0144520635
9	0x3ce090c0	0.027412772
10	0xbdb36604	-0.08759692
11	0xbbd3ff09	-0.0064696115
12	0xbe2d08de	-0.16897914
13	0x3c41f2fb	0.011837716
14	0xbe02fe3c	-0.12792295
15	0xbcb14d3a	-0.02164327
16	0x3c79875b	0.015230025
17	0xbd67a7d6	-0.056556545
18	0x3db12c5d	0.0865104
19	0x3dcf7db3	0.10131397
20	0xbd13a568	-0.036046416
21	0xbca9bcd8	-0.02071993
22	0x3d680741	0.056647543
23	0xbdebbd0a	-0.11510666
24	0x3b097de5	0.002097958
25	0x39b264c3	0.0003402588
26	0x3d90494f	0.070452325
27	0x3d331068	0.043716818
28	0xbdd75c9b	-0.1051571
29	0xbd46d614	-0.048544005
30	0x3d6d5404	0.05794145
31	0x3a52c49c	0.00080401613
32	0x3c20797e	0.009794591
33	0xbcd67c66	-0.026182365
34	0xbd8fba3f	-0.070179455
35	0xbbaf9890	-0.005358763
36	0xbda920b4	-0.08258191
37	0xbd851626	-0.06498365
38	0x3d14b619	0.036306474
39	0x3d8169b1	0.06318987
40	0x3ce31680	0.02772069
41	0xbe38dc0e	-0.18052694
42	0x3d9ad2b0	0.07559717
43	0x3cfc6229	0.030808525
44	0x3d7ad3c7	0.061237123
45	0xbd90e723	-0.07075336
46	0xbcc0584c	-0.023479603
47	0xbd560e37	-0.05225965
48	0xbd727343	-0.059191953
49	0xbde5cae1	-0.11220337
50	0xbd9adc53	-0.07561555
51	0xbe11ff57	-0.1425756
52	0xbe1dbe97	-0.15404736
53	0xbd64f0f2	-0.055893846
54	0xbc7de69b	-0.015496875
55	0xbe25ead0	-0.16202855
56	0x3dcc9ade	0.09990476
57	0xbd11120e	-0.03541761
58	0xbd1df402	-0.038562782
59	0xbe0c602c	-0.13708562
60	0x3d9f9b40	0.077932835
61	0xbe371701	-0.17879869
62	0xbe37c8b5	-0.17947657
63	0xbd09e800	-0.033668518
64	0xbe2d89c1	-0.1694708
65	0xbdfc5787	-0.12321382
66	0x3d98a810	0.074539304
67	0x3d33b04f	0.043869313
68	0xbd097bfa	-0.0335655
69	0x3d8e11d6	0.06936996
70	0xbd6d337c	-0.057910427
71	0x3da24baf	0.07924592
72	0xbe3081e7	-0.17237054
73	0xbdba04ac	-0.09082922
74	0x3d23d84a	0.04000119
75	0xbe0edaef	-0.13950704
76	0xbddc85bb	-0.107676946
77	0xbe039141	-0.12848379
78	0x3d66a88b	0.05631308
79	0x3e0ceeee	0.1376302
80	0xbcfe5f20	-0.031051219
81	0xbda10008	-0.07861334
82	0xbc7aab28	-0.015299596
83	0xbe1151cf	-0.14191364
84	0xbd74a5ba	-0.05972836
85	0x3db37406	0.08762364
86	0xbdf4bc6c	-0.11950001
87	0x3d16a744	0.03678061
88	0xbdce090c	-0.10060319
89	0xbe341e91	-0.17589785
90	0xbdef383c	-0.11680648
91	0xbc182db2	-0.009288238
92	0xbd98ec5c	-0.07466957
93	0xbe1ce755	-0.15322621
94	0xbd3dd541	-0.046345953
95	0x3d5258d3	0.05135424
96	0xbdbdbd6a	-0.092646435
97	0xbc17cf22	-0.009265693
98	0xbd48eb65	-0.049052615
99	0x3c0ec30b	0.008713494
100	0xbe7720a3	-0.24133544
101	0x3dc43572	0.095805064
102	0x3d9d15e2	0.076701894
103	0x3c9fa650	0.019488484
104	0xbd65997d	-0.05605458
105	0xbe3b3d10	-0.18285012
106	0x3e20b0fe	0.15692517
107	0xbdfeb637	-0.124370985
108	0xbe6975ca	-0.22798839
109	0xbc81f0ec	-0.01586195
110	0xbe2512b6	-0.16120419
111	0xbe04819c	-0.12940067
112	0xbc0e5e8f	-0.008689537
113	0x3dbcd3c7	0.09220081
114	0xbe4205c9	-0.1894752
115	0xbc27e34c	-0.010247063
116	0xbdc65aaa	-0.096852615
117	0xbd3f2442	-0.046665438
118	0xbdb5eae8	-0.088826954
119	0x3a9fbf6c	0.0012187785
120	0x3d050a03	0.03248025
121	0xbc62cbd1	-0.013842539
122	0xbe423f26	-0.18969402
123	0xb78ae60b	-1.6558004e-05
124	0xbe29d836	-0.16586384
125	0xbd8d830f	-0.06909763
126	0xbe22c27e	-0.15894505
127	0x3d7ab083	0.06120349
128	0xbde24937	-0.11049121
129	0xbd5ed02e	-0.054397754
130	0x3e80fcfa	0.25193006
131	0x3e4a8979	0.19779004
132	0x3d5bce9a	0.053663827
133	0x3d2a5c42	0.04159189
134	0xbdfa7cd6	-0.12230842
135	0x3cdc8021	0.026916565
136	0xb99d1776	-0.00029962853
137	0xbe366b6f	-0.1781442
138	0x3d3b1a53	0.0456794
139	0xbbded02f	-0.0067997198
140	0xbe883495	-0.26602617
141	0x3dd275c4	0.10276368
142	0x3dc55790	0.09635842
143	0xbcf7ffb4	-0.030273296
144	0xbc47a346	-0.0121849235
145	0x3c6ad93f	0.014334022
146	0xbe821263	-0.25404653
147	0x3d5c28e2	0.053749926
148	0xbdc7af1e	-0.09750198
149	0xbde4b7c5	-0.11167864
150	0xbdcc602f	-0.09979283
151	0xba964da6	-0.0011467233
152	0x3e26cf67	0.16290055
153	0xbcb6e0df	-0.022324024
154	0x3d3eea58	0.046610206
155	0xbe65a88d	-0.22427578
156	0x3d4c96e7	0.0499486
157	0x3d8bcc4b	0.06826075
158	0xbceca50a	-0.02888729
159	0x3e48c2f0	0.19605613
160	0x3e6e668b	0.23281305
161	0xbeda8d21	-0.42685798
162	0x3e2bc92a	0.16775957
163	0xbbf15c80	-0.007365763
164	0xbddffde7	-0.109371
165	0xbd18905f	-0.037247058
166	0xbd892b6a	-0.06697734
167	0xbda9e746	-0.08296065
168	0xbc0dc87f	-0.008653759
169	0xbc2d65e4	-0.010583375
170	0xbe25e741	-0.16201498
171	0xbea65db6	-0.3249337
172	0x3e05a1e9	0.13050045
173	0xbe2361cf	-0.1595528
174	0xbcbd96a5	-0.023143122
175	0x3d7a0cf9	0.061047528
176	0x3e06dc2f	0.13169931
177	0x3da47cfa	0.0803165
178	0xbe445e50	-0.19176602
179	0x3e1d0a35	0.15335925
180	0xbe909400	-0.28237915
181	0xbe5fb7ef	-0.21847509
182	0xbe9b2e4e	-0.30308765
183	0xbe98815f	-0.29786202
184	0xbd80272a	-0.0625747
185	0x3d9b6d3b	0.075891934
186	0x3d84b725	0.064802445
187	0xbdb691ff	-0.08914565
188	0xbe1f74ec	-0.15571946
189	0xbde0bb88	-0.10973269
190	0xbd98f74e	-0.074690446
191	0xbe0a15af	-0.13484834
192	0xbdad9b3e	-0.08476876
193	0xbe0c9ef1	-0.13732506
194	0xbe6cd744	-0.23128992
195	0x3d640625	0.055669922
196	0xbe94ebf9	-0.29086283
197	0x3e603597	0.21895443
198	0xbeac1c74	-0.33615458
199	0x3d00098b	0.0312591
200	0xbe7a9d4c	-0.24474066
201	0x3e97786f	0.2958407
202	0x3c63b2ea	0.013897637
203	0xbe8b8376	-0.27248734
204	0x3b9cceac	0.0047853794
205	0xbb992a1c	-0.0046742093
206	0x3df0792c	0.11741862
207	0x3d53f92e	0.05175131
208	0x3dca9399	0.09891433
209	0x3d0d080f	0.034431513
210	0xbbd01acf	-0.006350852
211	0x3e946730	0.28984976
212	0x3df7ad0c	0.12093553
213	0x3e9944c2	0.2993527
214	0x3e8401ff	0.25782773
215	0x3e53c927	0.20682202
216	0xbdef3a71	-0.11681069
217	0xbe3da0cf	-0.18518375
218	0x3de74e69	0.112942524
219	0x3db53d61	0.08849598
220	0xbee4b683	-0.44670495
221	0x3e1a2994	0.15054923
222	0x3e15ebfb	0.146408
223	0x3e28accc	0.16472167
224	0xbe8019f4	-0.250198
225	0x3e0e155e	0.13875338
226	0xbdc6f8fb	-0.09715458
227	0xbe11eaf6	-0.14249787
228	0x3de128dd	0.10994122
229	0x3e31aac2	0.17350295
230	0x3e3d79e0	0.18503523
231	0xbdb33081	-0.08749486
232	0xbd3750dc	-0.044754848
233	0x3e37227e	0.17884251
234	0x3db72286	0.08942132
235	0x3e806287	0.2507517
236	0xbde1030a	-0.10986908
237	0x3d8c7cb9	0.068597265
238	0xbc6f1b50	-0.014593914
239	0xbe592e6c	-0.21209115
240	0x3cb972f5	0.022637824
241	0x3d96540d	0.0734025
242	0x3e37b7e8	0.17941248
243	0x3d9620b6	0.07330458
244	0x3d9d4f5d	0.07681153
245	0x3e763656	0.24044165
246	0x3d178407	0.036991145
247	0x3e0e9503	0.13924031
248	0xbd7f9460	-0.06239736
249	0xbcf53b84	-0.029935606
250	0xbe0ed4ef	-0.13948415
251	0xbdae86aa	-0.08521779
252	0xbd9038ff	-0.07042121
253	0x3e5affaa	0.2138659
254	0x3dc2f88a	0.09520061
255	0x3c54cf5c	0.012988891

critic.2.bias f4 [64]
0	0xbdf95614	-0.12174621
1	0xbcdcba85	-0.026944408
2	0x3e41e342	0.18934348
3	0x3db6aca8	0.0891965
4	0x3cbcfe72	0.023070548
5	0xbddac6ae	-0.106824264
6	0xbe100447	-0.14064132
7	0xbdcb5d8d	-0.09929953
8	0xbd7f317e	-0.06230306
9	0x3c819106	0.015816223
10	0xbdaffb3c	-0.08592841
11	0x3d68f31f	0.056872483
12	0xbddb9cf6	-0.10723297
13	0xbd21c209	-0.039491687
14	0xbcce7d26	-0.02520616
15	0xbdf28894	-0.118424565
16	0xbe074db2	-0.13213232
17	0xbc2e0bb3	-0.0106229065
18	0xbe18c0c8	-0.1491729
19	0xbda6ef38	-0.08151096
20	0xbc80cd44	-0.015722878
21	0x3e23883c	0.15969938
22	0x3d00f151	0.031480137
23	0xbcd45c1b	-0.025922826
24	0xbd81c6c5	-0.063367404
25	0xbd228d9e	-0.039685838
26	0x3b4ca9cc	0.0031229137
27	0x3d94d667	0.072674565
28	0xbe12a469	-0.1432053
29	0x3c88a46b	0.016679963
30	0xbde48b1d	-0.11159346
31	0xbdd6c9ee	-0.10487734
32	0x3d110c96	0.035412394
33	0xbd3afa3a	-0.04564879
34	0x3dc9fd0b	0.09862717
35	0x3d8fff6e	0.07031141
36	0xbde4cfb0	-0.11172426
37	0xbd3ebafd	-0.046565045
38	0x3d7cef5e	0.061751716
39	0x3d00aef3	0.031416845
40	0xbe28cc5e	-0.1648421
41	0xbdea8aa3	-0.11452224
42	0xbd96a15a	-0.07354994
43	0xbda3bcde	-0.07995008
44	0xbe2bf4cb	-0.167926
45	0x3d149735	0.036277015
46	0x3b852c5e	0.004064127
47	0x3d8cbe74	0.068722636
48	0xbc7a5a1a	-0.015280271
49	0x3db45e9b	0.08807107
50	0x3d85eed0	0.065396905
51	0xbcbfbf49	-0.023406642
52	0xbe88b6a9	-0.2670186
53	0xbe064f02	-0.13116077
54	0x3d631d51	0.05544788
55	0x3d55a6e0	0.052161098
56	0x3ce5132c	0.027963243
57	0xbdaf638e	-0.085639104
58	0xbd2c3dfc	-0.0420513
59	0xbd74c0df	-0.05975425
60	0x3c2ba614	0.010476608
61	0x3dd132ac	0.10214743
62	0xbdb34cda	-0.08754893
63	0xbdb85e32	-0.09002341

critic.4.weight f4 [1, 64]
0	0xbc41337a	-0.011792058
1	0xbbfaf9ea	-0.0076591866
2	0x3e077337	0.13227545
3	0xbe0a9c8c	-0.1353628
4	0xbdd5557d	-0.10416696
5	0x3d0065ee	0.031347208
6	0xbbd1a7f4	-0.0063981954
7	0xbba3f686	-0.005003753
8	0x3afd51b4	0.0019326718
9	0x3c87880d	0.016544366
10	0x3d91c72e	0.07118069
11	0xbe42f7fd	-0.19039913
12	0xbe007a07	-0.1254655
13	0x3c8c5448	0.017130032
14	0xbacd9c84	-0.0015686904
15	0xbb59e398	-0.0033247229
16	0xbdada0bc	-0.08477923
17	0xbcad1ab1	-0.021130892
18	0x3c6144a1	0.013749273
19	0xbdd33f5a	-0.10314818
20	0xbd264dd8	-0.04060158
21	0xbe34ef79	-0.17669477
22	0xbda2a8ff	-0.0794239
23	0x3c016237	0.007896951
24	0xbe372d4f	-0.17888378
25	0xbdd0a1b1	-0.1018709
26	0x3c59e5dd	0.013299433
27	0xbe1b46ea	-0.1516377
28	0x3bcf35bd	0.006323545
29	0xbb0bee71	-0.002135184
30	0xba5b945e	-0.00083762954
31	0xbab46426	-0.0013762757
32	0xb9f4b7ac	-0.00046676153
33	0x3c13562d	0.008992714
34	0xbe0e0414	-0.13868743
35	0x3d999558	0.07499188
36	0xbc0f82d4	-0.008759219
37	0x3c29a350	0.010353878
38	0x3da6b13b	0.08139273
39	0xbc89d653	-0.01682583
40	0xb9782b9f	-0.00023667373
41	0x3c1bf9e4	0.009520028
42	0xbc923180	-0.017845869
43	0xbe32f86b	-0.17477576
44	0xbb82b655	-0.003989021
45	0xbdaea733	-0.085279845
46	0xbb4bd099	-0.0031099676
47	0xbd8315d7	-0.0640065
48	0xba6c0b42	-0.0009004363
49	0x3c82c968	0.015965179
50	0xbe46a2e7	-0.1939808
51	0x3dc58595	0.096446194
52	0x3ca041cc	0.019562624
53	0xbdf4496b	-0.11928066
54	0xbda934b9	-0.08262009
55	0x3cc6da1b	0.024273923
56	0x3df26f64	0.11837652
57	0xbdf68102	-0.12036325
58	0x3c02d089	0.007984289
59	0xbdc8db21	-0.098074205
60	0xbbd5dcf1	-0.0065265824
61	0x3d8241b6	0.063601896
62	0x3d63bfe2	0.055602916
63	0xbe2f8c72	-0.1714342
