Models/Reward_shaping_vm/Sparse_ICM_D_4_0/31000.pth (torch, 78437 bytes, 11 tensors)

actor.0.weight f4 [64, 62]
00000000: e433 a53d 577c 903d 4d19 ab3d be4a f1bd
00000010: 3cb2 0bbe fb22 a5bd 3f69 48be c6a9 94be
00000020: 01df 53be baef b33e 7233 843e a20b 8c3e
00000030: fb0c 8a3e 59bc 4c3d e844 193e 921d bd3d
00000040: ecc3 d2bd f1f6 8e3d aff2 423d 75c1 4abb
00000050: 5f01 8fbd 2213 633c c076 d83d 91fe b6bc
00000060: e36b 3fbd b463 92bb 44ac aebc 7784 c7bc
00000070: f58d 613d dcc5 b43d ff7f 8c3c 3499 953e
00000080: d679 c9bd eda2 bf3d 483f 63bd 8148 d63d
00000090: 4f1c 7c3e 1f30 4e3e a154 04bc fa68 d1bd
000000a0: 5ce7 1fbe a4f4 29be d0ee 26be 26a9 94bd
000000b0: 330c 64be f9ad 10be e5bd 40bc 5fc1 a7bd
000000c0: 4a84 12bc 63aa 55be ebc4 13bd 1ebe 41be
000000d0: 6e5c babd 221c 76be 927a e0bc 3ca8 733e
000000e0: 1d23 793e 07dd bf3d 993b ec3d ea72 913d
000000f0: e0f7 1abd 8a97 a8bd ce3f a3bc 8d51 213d
00000100: 181a a9bd 8cdd b53c 2792 fe3d f7ae af3d
00000110: 2ca0 e03c d2f6 783e afdb 99bd 604f cd3e
00000120: 71a8 3d3d 95eb 9a3e b76f 2bbe 15e9 7f3d
00000130: 5819 cabd f2cb 3bbe 8e0d fabd 820c bfbb
00000140: f9bb dcbc 7ee0 d9bd 8eec df3b 8993 ffbd
00000150: 6334 c0bd a9e4 fa3d 896c 9dbc 6aa2 193a
00000160: 96a5 f23d c54f ca3d 7f97 9dbd 6e4c 2f3e
00000170: 75f1 893e 164e af3e 4f5b 1abd 3181 c2bd
00000180: 8b5f de3d 0bf6 7abd 61d9 2e3e 2b59 c53e
00000190: 28d8 40be af51 4d3d 0280 3abe ec75 1b3f
000001a0: f2ce 8bbd 1cd4 463e 3292 a6be cc5f 22be
000001b0: 16b8 db3d 4532 1ebe 0bd1 b73d 5e04 4fbd
000001c0: 07e6 d93d 2cd0 d5bd eb0a f8bd 3456 963b
000001d0: d0f8 1b3d eb63 1ebd b2c8 e93d 66a3 b6bd
000001e0: e993 25be 4e5f 7b3d 5ef0 623c 9fef debd
000001f0: 7952 e03d b015 85bb 1cce 4bbd f2de b73d
00000200: f0c2 393c 3916 9cbd 6489 523e 459d 813d
00000210: 8fb5 943d 4124 a93e 14e4 543d bcee 833e
00000220: 2dba 0b3e 5a4a 1dbe 977b 1d3e b12e 1e3f
00000230: cbbb b0bc 40b4 0bbc 5c6a bb3c addb bdbc
00000240: ead3 7fbd 4d2c 91bd b519 66bb 7f3c 98bc
00000250: 93a0 cb3d 7766 30bd 16e2 513d f34e 633d
00000260: 3f00 2d3e d113 563d 1561 83bd f926 143c
00000270: 44c4 d33d 1d69 f8bd f79f 12bd fdc7 f53d
00000280: 3c5b 12be b693 27be 2735 32be c8aa 5c3c
00000290: 9b51 133d 75e0 e43e e05e 20be 4a76 523c
000002a0: dce4 12be 281a 1cbe c6cd c3bc f093 0fbe
000002b0: 96c6 a6bc f451 a5bc 39f6 003d f411 c4bd
000002c0: c581 0d3b 008f dfbd fba0 9dbd a79c 143e
000002d0: 2aed 693d 1be0 dabd c88c c0bc 7a38 be3c
000002e0: 5c43 14bd 5635 babd 204b b73d 1f27 6abd
000002f0: f249 013c 9b69 453c 9d97 293e d71b 153e
00000300: 6fa7 863e fe74 cb3e 5400 3e3e 1abf 053f
00000310: 22b1 253e e4b0 013f 216f a83e e021 193d
00000320: c125 8ebe 4dbb 4d3e 5ed3 4f3d 7e3e e1bd
00000330: 797a 1a3d 4109 1cbd 125d b6bd 5fdb 95bd
00000340: 5974 fb3d 49f1 df3c 034e 80bd 678d 63bd
00000350: cb1d f5bd ce49 a13d bf58 d53d d248 513e
00000360: 1577 ea3d 2530 0d3e 0893 773d b6af ecbd
00000370: 599a 13bc 62a4 9cbc fa8d fbbd 6b52 f5bd
00000380: 83d6 14be ff70 583a e77a 30be 3cf7 85bc
00000390: e642 4e3d 23c8 653d 91b8 f2bd 7d7c d73d
000003a0: cc25 973d 63e0 20bd 0186 9ebd 36e7 ebbc
000003b0: f7e5 983d 6add e73c af60 d9bd 3f0f d13d
000003c0: 5b69 fc3c 10a7 233d fd96 b33c dbbb f93d
000003d0: 3617 78bc 92f5 97bc 6b6d b3bd bfd1 02be
000003e0: b70d 5f3d 4028 49bd c2de 7d3d 4b72 c0bd
000003f0: a214 88be debe 00be 29d0 56bd db3e 0bbe
0.08066538 0.07054966 0.08354435 -0.11781834 -0.1364221 -0.080633126 -0.19571398 -0.29035777
-0.20690538 0.35143834 0.258205 0.27352625 0.26963028 0.04998431 0.14967692 0.09234156
-0.102912754 0.06980694 0.047594722 -0.0030938063 -0.069826834 0.013859542 0.10569525 -0.022338184
-0.04673375 -0.004467452 -0.021322377 -0.024355156 0.05506702 0.08826801 0.017150877 0.29218447
-0.098376915 0.093572475 -0.05548027 0.10463048 0.24620174 0.20135544 -0.008076818 -0.10225101
-0.156156 -0.16597229 -0.16302037 -0.07258825 -0.22270279 -0.14128865 -0.011764024 -0.081911795
-0.008942673 -0.20865779 -0.036076467 -0.1892018 -0.09099661 -0.2403417 -0.027402196 0.23794645
0.24329801 0.093683295 0.11534805 0.07101996 -0.03783405 -0.08232029 -0.019927885 0.039384414
-0.0825693 0.022200368 0.1243022 0.08578294 0.027420126 0.24312904 -0.075126044 0.4009962
0.046303216 0.3025786 -0.16741835 0.062478144 -0.09868115 -0.18339518 -0.122096166 -0.0058303485
-0.026945101 -0.106385216 0.0068336194 -0.12479312 -0.09384992 0.12250645 -0.019216793 0.00058606884
0.11847989 0.09878496 -0.07694911 0.17119 0.2694203 0.34239262 -0.037684735 -0.094972976
0.10858067 -0.0612698 0.17075111 0.38544592 -0.18832457 0.050126728 -0.18212894 0.6072681
-0.06826581 0.19416851 -0.32533413 -0.15856856 0.10728471 -0.15448864 0.08975419 -0.050541274
0.10639577 -0.10440096 -0.121114574 0.004587913 0.038079083 -0.038669508 0.11415233 -0.089178845
-0.16169704 0.061370187 0.013851253 -0.10885548 0.109532304 -0.0040614232 -0.049757108 0.0897807
0.011337981 -0.07621426 0.20560223 0.06328825 0.07261192 0.33035472 0.051975325 0.25768077
0.13645239 -0.15360394 0.15379177 0.61789995 -0.021573922 -0.008526862 0.022877865 -0.023176039
-0.062457956 -0.07088528 -0.0035110537 -0.018583534 0.099427365 -0.043066468 0.051241003 0.055495214
0.16894625 0.052264992 -0.06415001 0.009042495 0.10340169 -0.12129424 -0.035797086 0.12001035
-0.14292616 -0.16364941 -0.17403089 0.013468452 0.035966497 0.44702497 -0.15661192 0.012845585
-0.14345115 -0.15244353 -0.023901831 -0.14021277 -0.020358365 -0.02018068 0.031484816 -0.09573737
0.0021592241 -0.10915947 -0.0769672 0.14512883 0.057110943 -0.10687276 -0.02350463 0.02322029
-0.03619705 -0.09092204 0.08949876 -0.057166215 0.007891165 0.012049104 0.16561742 0.14561401
0.26299617 0.39737695 0.18554813 0.5224472 0.16180852 0.5066054 0.32897285 0.03738582
-0.2776318 0.20090981 0.050738685 -0.109982476 0.037714455 -0.038094763 -0.089044705 -0.07317232
0.12278051 0.027336733 -0.062648796 -0.055554774 -0.11968573 0.07875405 0.104173176 0.20437935
0.11448494 0.13787897 0.060442954 -0.11556952 -0.009008967 -0.019121353 -0.12282939 -0.119786106
-0.14534955 0.0008256584 -0.17234384 -0.016353242 0.050356768 0.05609907 -0.118516095 0.10521791
0.07380256 -0.03927649 -0.07740403 -0.028796773 0.07465737 0.02830382 -0.10614144 0.10207986
0.030811956 0.039954245 0.021922583 0.12194034 -0.015142253 -0.018549714 -0.08761104 -0.12775324
0.05445644 -0.04911065 0.061980017 -0.093968 -0.26578242 -0.1257281 -0.05244461 -0.13598196

actor.0.bias f4 [64]
00000000: 3d15 38bc 8e49 0f3d e6b6 663d 86f6 883d
00000010: c605 893d 52cd 053e 9048 a1bd 049b 543e
00000020: efdf cb3d 3555 21bd 72dc 233e 9b0d 513d
00000030: ebb0 043d 0fbf 913d fdda b83d a3f9 25bd
00000040: c947 943d 3e26 623d 16f7 8e3e 1f34 583d
00000050: 42c3 d6bd cf93 f63c fbea a73d 58c4 8a3d
00000060: 9fe6 f8bd 3cd0 26bb b5c3 5fbd f3f5 d53d
00000070: 5588 89bc c89e 3e3c 9f59 eabc d798 633e
00000080: 5f5a c93c 834f 653c c97b 043a 9168 293e
00000090: da95 c4bc 0bdd c53d 86c9 823d 4a88 be3d
000000a0: 95fa 133e 9f69 3b3e 524e 3bbe 7f0a e63d
000000b0: 1621 253d 83c0 863e 578b 7cbc 67e3 e33d
000000c0: da54 163d 34b1 9d3c cfdb f1bd 7fdb 2a3e
000000d0: e8d9 7cbd 2121 283e 25fe 9f3d 6084 62bd
000000e0: f1ab e33c a6eb a83d 1b7a 203e 0c99 ea3d
000000f0: 93db dd3b ad8a 90bc 0b9d 9a3d 81ab 07bc
-0.011235532 0.034982257 0.05632677 0.066876456 0.06690554 0.13066605 -0.07875168 0.20762259
0.09954821 -0.0393879 0.16002062 0.051038366 0.032395285 0.0711652 0.09026144 -0.040521275
0.072402544 0.05521225 0.27922887 0.05278408 -0.10486461 0.030099778 0.08199116 0.06775731
-0.121533625 -0.0025453707 -0.05463 0.10447302 -0.016788641 0.011634536 -0.028607188 0.22226273
0.024579225 0.013996008 0.0005053846 0.16543795 -0.023997236 0.09661301 0.06386094 0.09303339
0.14451058 0.1830201 -0.18291596 0.11232471 0.040314756 0.2631875 -0.015414081 0.11127358
0.036702015 0.019249536 -0.11809503 0.16685294 -0.06173125 0.16418888 0.07812146 -0.055302024
0.027791949 0.08248071 0.1567158 0.114549726 0.00677056 -0.01764425 0.07549485 -0.008280636

actor.2.weight f4 [64, 64]
00000000: 35f3 203e dbd9 2e3e aef3 8abd b2f5 4e3e
00000010: e335 a4be eca1 f2bd b447 00be 6748 4cbe
00000020: fd4b c6bd b77b 87bd 1283 9bbd 2693 343e
00000030: 69fc 9b3d 2d11 ad3d c164 72be f421 9dbd
00000040: 00c1 4f3e 8801 9fbd db3f bd3d 3f49 983d
00000050: 5535 5c3e 5047 a93c b60f de3d 0904 3fbc
00000060: ab3e 9cbd 3468 2a3e 09f6 be3d ff84 1bbe
00000070: 3dc9 5b3d 5e3e e23d d14e 33bb 737c 833c
00000080: 0622 30bc f62f 323d e33d dabd 1088 cbbd
00000090: 6a51 3ebe d1cb f13d 1660 523e 31d9 d2bd
000000a0: f686 a53e bc72 223e 5d3c 94bc 6f75 803d
000000b0: 01e7 5e3e 1fe3 12bd 926f 653d 4bde 75bd
000000c0: 1079 34bc 9f5d c03d b3aa 1fbe 3bd3 a1be
000000d0: 32ac bf3d 22d8 4abd 7f5c afbe 4d49 993e
000000e0: 1f6f 7a3e 00d8 1b3d e3ab 92bd f435 023e
000000f0: 7bc8 1dbe 6f7d b03d fe21 483e 9f72 70bc
00000100: ee68 6a3c dfd9 bdbd c1d7 b63e 920b 773e
00000110: 8918 46be 9a75 6dbd 890e e0bd 4374 a5be
00000120: dda8 863b fc07 05be c944 813d e9ae ffbd
00000130: df8a 0a3d d038 34be 1246 de3c 41dc 283e
00000140: 336c 08be ffe4 1dbe 8a3b 7dbe 6d95 2d3e
00000150: b324 7d3e 8804 933d ecf4 113e ff63 173e
00000160: dad0 8d3e 4a65 e03c 9689 033e b29b 603e
00000170: d583 c33b e42f 123e 80cb c6bd 6861 213e
00000180: 5147 273d a944 b03e 00dc e53d 4e53 543e
00000190: adf1 3a3e 6f9e 2c3e 1aee a0bc 25ce 3fbe
000001a0: 9ff4 863d b54f 90bd 2ad9 32bd 1d9c 23be
000001b0: 3a8d 6abd b703 45be 3e8b d73d 6b52 0fbe
000001c0: edf3 a73c a7bd 763e 7deb ab3d 0913 293e
000001d0: bb9e fa3d 5dff 92bc 69c8 eebe 22e6 753e
000001e0: a9cf 353d 3907 5a3e ff9f adbe 868b c03d
000001f0: a9fd 963d 1664 e5bd 5c69 673e be88 753d
00000200: cf87 01bd 6939 133e 4d53 733e 2a75 7c3e
00000210: 6581 073e 180e 563e bc9f e63c 28a6 b9be
00000220: 7576 1fbe 21d0 9dbe 983d 3f3e 5deb 2bbe
00000230: f23a 573e e292 b33c e0f8 cebb 3fec 3b3d
00000240: 8e57 a039 3d36 a63c 97ea 85be f752 873e
00000250: e07a 883e 4064 81bd bef9 9f3e 1adf 963e
00000260: 5a39 8f3e 56ab 703e cc94 363e b8c1 0d3e
00000270: 3565 edbc a8b9 353e d559 15bd 94b3 9b3c
00000280: 11a7 d13d 5727 a13e d9cb 54bc a81a 8d3d
00000290: e1ab d63b 37fc 8d3d 2f06 a8bc ab87 02be
000002a0: 31b2 87be 3223 41be 08ba c5bd 79d6 c73b
000002b0: 1a1e ac3d c34c 59be 254b 413c 936a a13e
000002c0: 153d aa3c 3fce 9c3e 0858 be3e af54 19be
000002d0: 755a f7bc d447 7a3e 2699 a1bd 5ba3 a53e
000002e0: de06 a63d 47bf 8c3e 8db4 02be bf52 7dbc
000002f0: 0809 723e ad01 813e 83d9 283d 9401 9dbc
00000300: 1266 85bd 2d15 e8bd f224 04bd d093 973d
00000310: 22be 6bbc 7e3c 933d 029f 973d 5c37 eabd
00000320: a03a a33c 5025 c63d c90b 27be df06 403d
00000330: 44f2 46bc 505c bb3d 507f 113d 258e 283d
00000340: 3d0f 99bd 5fdb cdbd 24e6 333d 6364 793c
00000350: d3d3 84bd 6323 b73d c9a9 1e3d 2833 79bd
00000360: b344 09be c635 bc3b 9020 c13d 9d21 7fbd
00000370: 4266 0ebe fd8b 13be 5a7d dfbd fe20 acbc
00000380: c2ea 9b3d 6847 83bd d30d 57bd e5f0 14be
00000390: 20a5 123e 43e7 013d 4067 523d e397 d7bd
000003a0: 5e15 92bd 1a0e 5abd 3d22 3b3c 36de 8bbd
000003b0: 6d12 37be b9a3 fabd 01b2 15bd 19ac 09bd
000003c0: abfa 9cbd 2683 b8bc c62c f6bd 95b9 e6bd
000003d0: 5d80 8e3c 492e 3abd ce8e 2abe 28e1 ef3b
000003e0: bcfb 283d 8451 093e 6e3e d23d fcbe c63d
000003f0: 2db2 e5bd 288a f4bd 6ab1 53bd 0f9f 5b3d
0.15717776 0.17075293 -0.067847595 0.20210913 -0.32072362 -0.118472904 -0.12527353 -0.19949494
-0.09682462 -0.066153936 -0.07593359 0.17634258 0.07616503 0.08450542 -0.23671247 -0.07672492
0.20288467 -0.07763964 0.09240695 0.074358456 0.2150472 0.020663887 0.108428404 -0.011658677
-0.076291405 0.16641313 0.09324271 -0.15187453 0.053658713 0.11047052 -0.002736021 0.016050553
-0.010750299 0.04350277 -0.10656335 -0.09938061 -0.18585745 0.11806453 0.20544466 -0.10295332
0.3232953 0.1586408 -0.01809519 0.06272399 0.21767808 -0.03586113 0.056014605 -0.06002645
-0.011015192 0.09392857 -0.1559246 -0.3160647 0.093590155 -0.049522527 -0.34250256 0.29938737
0.24456452 0.03804779 -0.07161691 0.12715894 -0.15408508 0.086176746 0.19544217 -0.014675765
0.014307244 -0.09270071 0.35711482 0.24125507 -0.19345297 -0.05797348 -0.10940272 -0.32315263
0.0041094855 -0.12991327 0.06311948 -0.12484533 0.033823844 -0.17599797 0.027133022 0.1649027
-0.13322525 -0.15419386 -0.24729744 0.16951533 0.24721031 0.07178599 0.14253587 0.14784239
0.27698404 0.027392048 0.12845454 0.21934393 0.0059666433 0.14276081 -0.09706783 0.15759814
0.040839497 0.34427384 0.11223602 0.20734903 0.18256254 0.16857313 -0.019644786 -0.18730982
0.065896265 -0.07046453 -0.043664135 -0.15977521 -0.05726359 -0.19239698 0.10524605 -0.13996284
0.020502055 0.24095784 0.08394525 0.16511168 0.12237307 -0.017944032 -0.46637276 0.2401357
0.044387493 0.21291818 -0.3391113 0.09401612 0.073726006 -0.112007305 0.22598785 0.05994486
-0.031623658 0.14377369 0.23762245 0.2465407 0.13232954 0.20903814 0.02815234 -0.3625958
-0.15572532 -0.30822852 0.1867584 -0.16789003 0.2101858 0.021920625 -0.0063162893 0.0458796
0.0003058281 0.020289535 -0.2615554 0.26430485 0.26656246 -0.06317949 0.31245226 0.29467088
0.27973443 0.2350286 0.17830199 0.13843429 -0.028978923 0.17746603 -0.036462624 0.019006528
0.102369435 0.31475326 -0.012988054 0.0688985 0.0065512513 0.06932872 -0.020510761 -0.12747066
-0.26503137 -0.18861082 -0.09654623 0.006098565 0.08404179 -0.21220689 0.011797701 0.31526622
0.02078108 0.30626103 0.37176538 -0.1497371 -0.0301945 0.24441463 -0.07890539 0.32351193
0.081067786 0.27489683 -0.12764187 -0.015461623 0.23636258 0.2519659 0.04122306 -0.019165792
-0.06513609 -0.11332164 -0.032261796 0.0740124 -0.014388593 0.07189272 0.07403375 -0.1143634
0.019925416 0.096750855 -0.1631309 0.046881553 -0.012142722 0.091484666 0.035521805 0.041151185
-0.074736096 -0.10051607 0.04392065 0.015221688 -0.06485715 0.08942296 0.03873614 -0.060839802
-0.13405113 0.005743715 0.09430039 -0.062287915 -0.13906196 -0.1440887 -0.10912581 -0.021011826
0.07613136 -0.06410104 -0.05250342 -0.14545019 0.14320803 0.03171469 0.051367998 -0.10527017
-0.07132982 -0.053236105 0.011421737 -0.06829493 -0.17878123 -0.12238259 -0.03654671 -0.03361139
-0.076649986 -0.022523474 -0.120202586 -0.11265866 0.017395193 -0.045454297 -0.16656038 0.007320542
0.041255698 0.13410002 0.10265814 0.09704396 -0.11215625 -0.11940414 -0.051682867 0.053618487

actor.2.bias f4 [64]
00000000: 690a f83d 2008 703d 24de 0f3d 896a 63bd
00000010: eacf b03d 74d7 ad3d 929d 12be 716a 0bbe
00000020: a38c 1cbc 9d4d d13b 397c 00bd 56a3 8d3b
00000030: 9830 263c 23cc 033e 6cfe 7dbd cf6d 04be
00000040: 2885 11bd eafc da3d 38e3 983c e9b6 473d
00000050: 5f7e b43d 9d2b 373d 0432 eabd 59e1 1e3e
00000060: da4a 703c 106a 1e3e 5b58 0abe ec52 983d
00000070: bfca 7d3c 4c16 64bd 35ce e7bd 6682 083e
00000080: 6a9f b33d f8a6 053e 60db b4bd e523 263e
00000090: e52a 003e a322 94bd 100b a23d 38dc abbd
000000a0: 077b 44bd fd19 b03d 668f 593d ee1c 9f3d
000000b0: a6d0 b6bd 85d3 c53d 81f6 d1bd 85d0 153e
000000c0: 5e1d b33c 1196 653e be35 f03d af1d 1f3e
000000d0: cdb0 9ebd f422 c23d ffa7 ad3d 4f00 123e
000000e0: 8da0 4cbc fdce bbbd e2db 4c3e ef74 fbbd
000000f0: 4894 fc3d c342 2c3d e9d2 fdbc 75b1 0bbe
0.121113606 0.0586015 0.03512396 -0.05552152 0.086334065 0.0848836 -0.14317921 -0.13614823
-0.009555015 0.006387426 -0.031368468 0.0043224497 0.010143422 0.1287084 -0.062010214 -0.12932514
-0.03552738 0.10692771 0.018663034 0.04875842 0.08813166 0.044719327 -0.11435321 0.15515651
0.0146662835 0.15470147 -0.13510267 0.07437691 0.015490233 -0.055685326 -0.11318628 0.13330993
0.0877064 0.13051975 -0.08830905 0.1622463 0.12516363 -0.07233169 0.07912266 -0.08391613
-0.04796889 0.08598707 0.05311527 0.0776919 -0.08926515 0.09659485 -0.10252095 0.14630325
0.02186459 0.22420527 0.117290005 0.15538667 -0.07748566 0.09479323 0.08479308 0.1425793
-0.01248945 -0.09170339 0.20005754 -0.12278163 0.1233297 0.042055856 -0.030984359 -0.13641913

actor.4.weight f4 [36, 64]
00000000: c62e 96be 15b0 d53d 951f e73e be57 d3bd
00000010: d8c9 203e 2a3d 523d 1bde f1bd 5642 19be
00000020: 390f 94be d82c bdbe 19b5 3bbc 22ba 4b3c
00000030: 0f03 cbbe 9fe6 3f3d 213b 9e3e 5457 813e
00000040: 2cf3 8f3d 2eda f73e 5f52 423d 6d69 dcbe
00000050: e20d a8be ac04 d03e 01fb 97bd 3d75 0bbf
00000060: e928 e5be e05d 91be 0d30 bf3c 92f2 adbe
00000070: 7dc8 b63c 81d3 4a3c fb65 74bd 5eba 8c3e
00000080: 744d f9bd 143d ea3d 6058 9fbc 092f 14bf
00000090: 9ccf 7a3e ac4c 023f 837e a23e d135 1ebd
000000a0: e92a 0e3d b52f f4be 9d3e 28be 7b1c f8be
000000b0: bbe5 c33c 101b 9fbd b8d9 b93d 84f7 c93e
000000c0: 2083 99bd 7f32 b4be 345a bb3d d5a6 eabe
000000d0: ed3d 053f 6b18 58be da55 8f3c 9539 0bbe
000000e0: c87e 803e 7005 dcbd 2ddd ae3e a6b7 cd3d
000000f0: 4e39 1ebf f1fd c73e 00f3 e7be 7733 18be
00000100: f670 ac3e 4cbd 863e e4d0 b73e f197 223c
00000110: e0fa 45be aa1b ad3e 5bf9 84bd 7dbf 80bd
00000120: 3422 4d3e eed1 9fbe daf9 d23e 5b55 9dbe
00000130: 3e5c 303e 9255 4cbf f3f9 47bd d232 8d3d
00000140: e174 a13b ecfb d73d 0d67 51bb e9e4 623e
00000150: 8e5a 6d3e 20df 463e 864d 7e3c bbfe 3abf
00000160: 4b00 3ebe 31cc 55be 87d6 023d 760a 9abd
00000170: 2be0 933e 04b9 a2bc 6b1e 14be c429 c33e
00000180: 7925 97bd e321 22bf 4366 853c c462 f2be
00000190: 8ab3 833e aa03 0ebe e801 f33c 900e 553d
000001a0: 5fdd ca3c ae4d f4bd 4903 d4be dbc0 63be
000001b0: 5b33 f43d 13c8 723d 818e 993d 48af 1bbe
000001c0: 4c36 40be 6164 14bf 84ba 14be 34f2 5d3e
000001d0: 24ad 9e3e 9521 82be 5731 c53d 188d 373e
000001e0: 1a14 e5bd 913b b9bd 4146 3ebf 41f6 0e3d
000001f0: 3116 14bf 8b19 9bbd a4cd a83e 52c8 6c3e
00000200: 864b 25bf 08bf 783e 5376 453e bd05 103b
00000210: dafb 443e a515 693e 9e91 323d 1e52 903d
00000220: 5011 933e bf4b 86be 48cc 403d 9ed1 923e
00000230: 7b06 9d3d 3028 a4be 907e 803e 80cd a63e
00000240: c8c4 1d3d 844b 853e 4020 00bd fcfb 903e
00000250: 803a 883e 01a2 85be fccb 883c 45fd e4be
00000260: 45ec 813e be59 bf3e 7a55 a63d c11f 13bf
00000270: dd34 aabe 0fc4 e5bd 30b4 cbbd 9f0a 873d
00000280: 86c8 3f3c 787e 4dbe a149 acbd 9fa1 42be
00000290: b4ba dbbd 4aa7 5abe bd00 b63e 9461 08bf
000002a0: b513 ba3d e8db 29be cfbd 9b3e a339 0ebe
000002b0: de39 ab3d bd97 09bb e7be 843d 9350 863e
000002c0: 1648 02be e047 8abe dcde a33e 5cb3 f2be
000002d0: 4cde f9bd 0a31 db3e 04fb 4ebc 9bef 803e
000002e0: af01 163e 92c4 f5bd 2599 6fbe 8129 6e3d
000002f0: 64dc f3be 6712 a2be 6342 ecbe a119 5f3e
00000300: 7d1c fabd f1b6 753d c032 15bd 5b25 edbc
00000310: 9285 b83d af3a 3abd f206 a6bd 5f98 bbbd
00000320: 19c1 263e 602a 2a37 d776 933e cb50 8d3d
00000330: 2b53 e5bc bbf8 aebe 1f4e 723e 9f41 c5bc
00000340: d132 913c bd14 4abe ed01 9fbd 4867 b0be
00000350: 8f33 503e f08b 293e 9eef 503c 74b0 bfbe
00000360: 922b 9abd 2d63 e03d 3469 eb3d 4228 bcbe
00000370: 6756 95be 708f 97ba a22f afbc 92b1 283e
00000380: 0b8b eebe 49b0 01be 3eb0 e23d d242 0dbe
00000390: 5edf 4b3c be2b f03d 8199 aa3d 22d0 a6be
000003a0: ffb4 edbc caa5 70be 4c21 93be 98f7 f3be
000003b0: db77 f53d 535b 31bd a517 98bd c935 533d
000003c0: e43d 26be 7888 69be 1015 443e b656 c7be
000003d0: e27e be3d 1231 aebc 0414 7bbd 37b9 223e
000003e0: d75f 0f3e fad0 883c 45fa d5bd d2ad af3d
000003f0: 1586 4cbe 342e 58bd 3247 2dbd 45ce 663e
-0.2933256 0.104339756 0.45141283 -0.1031947 0.15701997 0.05132786 -0.118099414 -0.14966711
-0.28917864 -0.36948276 -0.011456751 0.012434514 -0.3965077 0.046850797 0.30904487 0.2526194
0.07028803 0.48408645 0.047441836 -0.43049183 -0.32823092 0.40628564 -0.07420922 -0.54475766
-0.44757774 -0.28391933 0.023338342 -0.3397413 0.022312397 0.012379528 -0.05966757 0.27485937
-0.12172976 0.11437431 -0.01945132 -0.5788427 0.24493259 0.5089824 0.31737146 -0.038625542
0.03470889 -0.47692648 -0.16430135 -0.4845923 0.023913255 -0.07768834 0.0907473 0.39446652
-0.07495713 -0.35194775 0.09148064 -0.45830408 0.52047616 -0.21103065 0.017496992 -0.13596185
0.25096726 -0.107432246 0.3415312 0.10044794 -0.6180619 0.3906093 -0.45302582 -0.14863382
0.33679932 0.26316297 0.35901558 0.009923921 -0.19333982 0.33810169 -0.06492873 -0.062865235
0.20032579 -0.3121485 0.41206247 -0.30729184 0.17222688 -0.7981807 -0.048822355 0.06894459
0.004927263 0.10546097 -0.0031952292 0.22157635 0.23179075 0.19421053 0.015521413 -0.7304494
-0.185548 -0.20878674 0.03194287 -0.075215265 0.28881964 -0.019863613 -0.14464729 0.38117802
-0.07380194 -0.6333296 0.016284114 -0.47340977 0.25722915 -0.13868585 0.029663995 0.05201584
0.024763761 -0.11928879 -0.41408756 -0.22241537 0.11923858 0.059272837 0.074978836 -0.15203583
-0.18770713 -0.57965666 -0.14524275 0.21674424 0.3099147 -0.25416246 0.096285515 0.17924917
-0.11185475 -0.090445645 -0.7432595 0.034902815 -0.5784636 -0.07573231 0.3296939 0.23123291
-0.64568365 0.24291623 0.19283418 0.0021976077 0.19236699 0.22762163 0.043595903 0.070469126
0.28724146 -0.26229665 0.047069818 0.2867555 0.07667252 -0.3206191 0.2509656 0.3257866
0.038517743 0.26034176 -0.031280756 0.2831725 0.26607132 -0.26100162 0.01669883 -0.4472448
0.25375572 0.37373155 0.08121772 -0.5747033 -0.33243456 -0.11219036 -0.099464774 0.06593823
0.011705523 -0.20067775 -0.08412481 -0.19006966 -0.1072897 -0.21352878 0.35547438 -0.5327389
0.0908579 -0.16587794 0.3041825 -0.13889174 0.08360647 -0.0020994984 0.06481724 0.26233348
-0.12722811 -0.2700796 0.32005966 -0.47402465 -0.12200603 0.4281085 -0.012633089 0.25182804
0.1464908 -0.120003834 -0.23398264 0.05814505 -0.47629082 -0.31654665 -0.461444 0.2178712
-0.12212465 0.05998892 -0.036425352 -0.028948477 0.090098515 -0.04546612 -0.081067935 -0.09159922
0.16284598 1.0142656e-05 0.28801605 0.06900176 -0.02799376 -0.3417414 0.23662613 -0.024079142
0.017724426 -0.19734474 -0.07764039 -0.34453797 0.20332168 0.16557288 0.012752442 -0.3743931
-0.07527842 0.10956416 0.11494675 -0.36749464 -0.29167482 -0.0011563133 -0.021385018 0.16473988
-0.46590456 -0.12664904 0.11068772 -0.13795021 0.012443392 0.11727093 0.0833006 -0.32580668
-0.02901697 -0.23500744 -0.2873634 -0.47649837 0.11985751 -0.043299984 -0.07426385 0.051564965
-0.16234547 -0.22805965 0.1914866 -0.38933343 0.09301545 -0.021263633 -0.061298385 0.15890966
0.14001404 0.01670121 -0.10448126 0.085780755 -0.19973023 -0.052778438 -0.042304225 0.22539623

actor.4.bias f4 [36]
00000000: 6310 063d 3c57 3abe 5949 2a3d f709 f8bd
00000010: c53d f43d 05a4 d23d bc8c a43d 9861 c53c
00000020: 844f 1fbe cf1d 90bd d39d 283d d340 f13d
00000030: 2569 423d 7db0 2ebd 7efc ea3d d000 483d
00000040: 7e48 73be 16c2 74be 171f a4be 86ae 02be
00000050: 9102 f3bd 3a23 2d3e a480 bb3d ab17 003e
00000060: 848c d3bc 350c a9bb c44c 533e fd9c 283e
00000070: e6f6 593d 1c11 9a3d da12 263e cef8 ee3d
00000080: d28f 083e 9011 dd3d 714e cb3c 8e27 17bd
0.03273047 -0.1819734 0.041573856 -0.12111276 0.11925844 0.102851905 0.080346555 0.024094388
-0.15557677 -0.070369355 0.041166138 0.11779942 0.047463555 -0.04264878 0.1147394 0.0488289
-0.23758122 -0.23902163 -0.3205497 -0.12761888 -0.11865724 0.16907969 0.091553956 0.12509029
-0.025823839 -0.005158926 0.20634753 0.16466136 0.053213976 0.075227946 0.16218129 0.116685495
0.13336113 0.107943654 0.024817677 -0.036902957

critic.0.weight f4 [64, 62]
00000000: 6f84 0abd aa27 c03d 5cc5 1fbd 11bf a8bd
00000010: 6972 193e ae1f b73c e49f 2fbe f5c6 01be
00000020: 9854 063d 9a67 803d 740f 743d ab39 c7bd
00000030: 2d07 ad3b 9a1e cc3c 512e 183d 0553 c0bd
00000040: 98bd ec3d d8a4 ecbd 814c a03c dafa f6bc
00000050: fa54 1a3b a254 e63b 7df4 3d3d 02cc adbd
00000060: 9fa7 9bbd 1c00 ccbd 3ccb 413d eefa 71bd
00000070: 0991 35be af68 a0bd 0111 923d 5566 f5bd
00000080: 23e4 aabd 89e9 5b3d 6630 593d f6b9 01bc
00000090: 9a56 a8bd 33df 02be 5fc7 b13d d4f7 e1bd
000000a0: f3d4 153e 7d1b bc3c 8f9c 213d 04d8 1abd
000000b0: 0943 adbd dc86 9b3b 3062 143d 3424 35be
000000c0: 905a 5cbe 60ab f7bc 1d67 6bbd 4b51 98bd
000000d0: 0aea b4bd 97e2 2dbd 2a52 0fbe 403b 22bc
000000e0: 8a2e 3fbc e78e f7bc 675d 973c 6c0e 2c3d
000000f0: 97d1 17bd 1f3f 913d 2cfc abbd b9b8 f1bd
00000100: 552b e3bd 76f6 253d 5222 c4bd 14d8 063e
00000110: 390c 16be d064 01be 92f2 f5bd 056d ebbc
00000120: 2026 c3bc de75 0e3d 1292 0bbe 33b8 04bc
00000130: 0e46 35bd d25f 0d3b dc81 3f3d e020 ec3d
00000140: a2e6 b0bd 1df1 47ba 00a2 353d e3a1 f23d
00000150: 443c cabd 83d6 e0bd 9445 bbbd 2d99 013e
00000160: 761f f63c 4aaf 00be 9e7b a53d da05 733c
00000170: 8696 13bd 4cb5 1fbe 7ee7 a53d fbeb 3ebd
00000180: e081 213d 7810 ca3d 8e5f c3bd 3d12 2dbe
00000190: 1871 693d ee5f e4bc aba0 553d 29a8 933c
000001a0: d468 85bc 0417 49be 90cd a13d 3917 bbbc
000001b0: 8e18 fb3d 58f7 25be b91f 9fbc 80d7 49bd
000001c0: 44e7 94bd 5633 abb9 c31e a7bd b097 03be
000001d0: 246c 76be 12fc b7bd 30f9 cfbd 8ada 93bd
000001e0: b5b8 82bd e9e8 443d 7e90 37bd 5188 4fbe
000001f0: 5f8b a9bd 39ad 963d 066b a5bd f9a8 5c3d
00000200: 512d acbe 8114 16bd 3917 61bd 180b 6e3e
00000210: 342b 13bc 6f6a 3a3e 7d66 613d b477 893e
00000220: ad3f e9bd bbc8 e0bc e5c2 fabd 2257 303c
00000230: 2d8f 01bd 1dab 373d 1d88 05bc 992c cbbd
00000240: ed98 f0bd 81cf 21bd 9dbd d63d f6ce b8bd
00000250: bcbb 3abc c698 b33d 786f e03d 732e 3c3b
00000260: 42f2 54bd 63fd af3e a325 05be 33eb c53e
00000270: 5e0b 3dbc eeea a3bd 780d ebbd b7ce 49bd
00000280: 36fc 5bbe 29d6 0fbe 7397 ce3c a54e 7fbd
00000290: 66fc cfbd 4123 21be c1c1 083e 7a78 10bd
000002a0: eb94 b7bd 65bf e0bc 6bd5 6d3d e5dc b6ba
000002b0: b311 6abe 76fc c3bd d3e1 293e 7bf2 2dbd
000002c0: 005d 443c 8653 d03c 862f 19bc 6787 873c
000002d0: dfe6 b83e f9f2 983d 889b 32ba eb6a 113e
000002e0: 44c7 07bd d70b e33c 79ab af3d 6233 e4bd
000002f0: f7c0 ba3d 5994 993d c357 f03c c926 39bd
00000300: 8a3c e9bd 646c 5abe 0b3e 933c 4f6d d93d
00000310: 5073 01be d1f6 a8bd 95ab 743e 3a74 5d3e
00000320: 4eef 8d39 bd3b 943b 5a60 00be a4db df3d
00000330: 2f7a b5bd 07a2 8abd 7c5f b8bd 0b6d 873d
00000340: 5c62 bcbd f01c 5cbc b93d c43c b18d f9bd
00000350: 7496 2ebd dff6 5c39 11be f83d a366 ea3d
00000360: 7672 b4bd d113 613d 98bd 7f3d e50b a5bd
00000370: 609c 9b3d 6b01 8dbd e46d 3abd 4cb5 d63d
00000380: 57ee b8bd bab4 26be c865 8abd 42c0 05be
00000390: fd8d 293d 47e9 d73b 5f19 cabd a20c d9bd
000003a0: c7f7 70bd d730 6fbc 7128 cebd 906c a43d
000003b0: a67e 14bc 11e6 413d 00b2 d33a 3c1f ebbd
000003c0: a443 01be 573b 0e3c c488 d33c 1931 893d
000003d0: f303 e7bc 2ab1 1d3d a2a1 633d 66f3 cf3a
000003e0: b102 b13c cdb6 8fbd 0413 dabd dec8 a23c
000003f0: ad2a 75be c312 253e fd66 b33d 5240 0c3d
-0.033817705 0.09382565 -0.039006576 -0.08239568 0.1498505 0.022353973 -0.17150837 -0.12673552
0.03279552 0.062697604 0.05958505 -0.09727796 0.0052803964 0.024916936 0.037153546 -0.09390835
0.115596 -0.11554879 0.01956773 -0.030148912 0.0023549185 0.007029132 0.04637574 -0.08486177
-0.076003306 -0.09960958 0.04731296 -0.059077196 -0.17731108 -0.07832467 0.071321495 -0.11982409
-0.08344295 0.053689513 0.053024672 -0.007917872 -0.08219643 -0.12780456 0.08680605 -0.110335976
0.14632015 0.022962326 0.039455947 -0.037803665 -0.084600516 0.004746301 0.03622645 -0.17689592
-0.21518922 -0.030233085 -0.057471383 -0.074373804 -0.08833702 -0.04245242 -0.13996187 -0.009901822
-0.011668811 -0.030219508 0.018477155 0.04200594 -0.037065115 0.070921175 -0.08397707 -0.11802811
-0.11092249 0.040518247 -0.095768586 0.13168365 -0.146531 -0.12636113 -0.12009157 -0.028738508
-0.02382189 0.034780376 -0.1362994 -0.008100557 -0.044256262 0.0021572006 0.046754703 0.11529708
-0.0863774 -0.0007627176 0.04434395 0.11847284 -0.09874776 -0.10978415 -0.0914413 0.12656088
0.030044299 -0.12566867 0.08080219 0.014832938 -0.036032222 -0.15596503 0.08100794 -0.046611767
0.0394305 0.098664224 -0.0953971 -0.16901489 0.05699262 -0.027877774 0.052155178 0.018024521
-0.016285338 -0.19637686 0.07900536 -0.022838222 0.12260543 -0.16207635 -0.019424306 -0.049277782
-0.07270673 -0.0003265391 -0.08160164 -0.12850833 -0.2406469 -0.089836255 -0.101549506 -0.072194174
-0.06382886 0.048073683 -0.044815533 -0.20266844 -0.08278536 0.07357258 -0.08077054 0.053872082
-0.33628324 -0.036640648 -0.054953787 0.2324642 -0.008982468 0.18204664 0.05502938 0.2684914
-0.11389098 -0.027439466 -0.122442044 0.010762962 -0.031630684 0.04484092 -0.008150128 -0.09920616
-0.11747918 -0.03950453 0.104853846 -0.0902385 -0.011397298 0.087693736 0.10958761 0.002871421
-0.051988848 0.34373006 -0.13002639 0.38656005 -0.011538355 -0.08003794 -0.11477178 -0.049269404
-0.2148293 -0.1404654 0.025218701 -0.06233086 -0.10155563 -0.15736105 0.13355161 -0.035271145
-0.08963951 -0.027435014 0.05806486 -0.001395133 -0.22858314 -0.095696375 0.16590051 -0.042467576
0.011985064 0.025430452 -0.009349709 0.016544057 0.3611364 0.07468218 -0.0006813337 0.14200942
-0.03314902 0.027715607 0.08577628 -0.11142613 0.091188364 0.07498998 0.029338723 -0.045203004
-0.113885 -0.2133041 0.01797392 0.10616552 -0.12641644 -0.082502015 0.23893578 0.21626368
0.00027071912 0.004523723 -0.12536755 0.10930565 -0.08861195 -0.067691855 -0.09002587 0.06612595
-0.09198448 -0.013434634 0.023955213 -0.121852286 -0.042623952 0.00021072802 0.12145627 0.11445358
-0.08810894 0.05495054 0.06243667 -0.08058909 0.075981855 -0.06885036 -0.045514956 0.104837984
-0.09029835 -0.16279879 -0.067576945 -0.13061622 0.041395176 0.006589088 -0.098681204 -0.10598113
-0.05883005 -0.014599047 -0.10066307 0.08028519 -0.009063398 0.04733855 0.0016151071 -0.11480567
-0.12623459 0.00868114 0.02582205 0.06698818 -0.028200125 0.038499035 0.055574067 0.0015865385
0.021607729 -0.07017288 -0.10648158 0.019871172 -0.23942061 0.16120438 0.08759878 0.034241028

critic.0.bias f4 [64]
00000000: 43ca 9fbd c7ec 953e 7be7 67bd f6e7 b73c
00000010: e4cd 07be 3a08 563c ae5a 88bd 8a55 01be
00000020: 9b50 9dbd 63f1 2cbd 1c44 7ebd 0a86 0f3e
00000030: 8d7c e0bd 4b7b b3bc 158f 22bd b190 d1bc
00000040: 7191 80bc 3959 0bbe b64d a6bd 3f05 ffbd
00000050: b8ce bebd 8abc 14be e07f 36bd dd33 0bbe
00000060: b0dc 4fbd 0ccb e83d 3185 2e3a 8fb2 9ebc
00000070: 573a c13d 3b91 d7bd a7ad 82bd bb8d ed3b
00000080: 9faa 3ebd deb9 9fbd 5ec7 d5bd b5a5 063e
00000090: 85c0 0fbe 5671 acbc a77e b1bd 0e4f 693e
000000a0: f261 aebd 3c2f 473e 4309 f9bd e8f4 75bb
000000b0: a95a 21be 6be5 2c3e 8cf4 0d3e 4b24 363d
000000c0: 7a60 0ebe 6b45 bebd 76b9 4e3e bcd9 9abd
000000d0: 438a bebd ecb3 2abe c5b7 35be 72ee 123b
000000e0: 6cf2 5fbe 11b3 a2bd 14e0 fd3c 8556 08be
000000f0: 7f1f 4a3d 8e4d 143e f2a8 d0bd 0064 06be
-0.0780225 0.2928221 -0.05661724 0.022449475 -0.13262135 0.013063485 -0.06657921 -0.12630287
-0.0768139 -0.04222239 -0.062076673 0.14015976 -0.10961256 -0.021909377 -0.039687235 -0.02558169
-0.015694352 -0.13608254 -0.08120291 -0.124521725 -0.09316772 -0.14525047 -0.044555545 -0.13594003
-0.050747573 0.11366853 0.00066574203 -0.019372253 0.094349556 -0.105257474 -0.06380778 0.0072495616
-0.046549436 -0.07799123 -0.10438417 0.1314915 -0.14038284 -0.021050137 -0.08666735 0.22784063
-0.08514775 0.19451612 -0.1215997 -0.0037530009 -0.1575724 0.16884391 0.13862818 0.044468205
-0.1390399 -0.09290584 0.20187935 -0.07561061 -0.09303715 -0.16670197 -0.17745884 0.0022419957
-0.2186982 -0.079443105 0.030990638 -0.13314255 0.049346443 0.1448271 -0.10188474 -0.13124084

critic.2.weight f4 [64, 64]
00000000: beb1 99bd ccab 013e d537 303e 5d80 453d
00000010: bc98 eabc 6b4e b03e 200a 26ba 5526 1f3c
00000020: 38e3 7f3a 452b 4ebe 63a9 b13c fd39 a5bd
00000030: 0e13 71be b349 153c f8c5 65be 5b6a 083e
00000040: ea5b dfbe 17bd eabd 731e 213d 9a5b 8a3e
00000050: 6bb8 90be 5eef a73c 2282 0b3e 3cb2 d63d
00000060: a391 3c3e ec92 793e c52e 8f3c dbc6 1bbd
00000070: d7b7 db3d 4e0b 6bbe b4a6 b93d 7331 80bd
00000080: 64e7 1b3e 91f3 933d a932 82be d9f6 1fbe
00000090: bbfb 44be 082a 86bd 31fc c1bd f49c 7bbe
000000a0: bfe7 27be c1c2 e2bd 79db a5bd fac9 4d3e
000000b0: 0bc0 bebc 884e 4abd a86b 19be cc48 1c3e
000000c0: 4d7e be3c 297d 1b3e 0464 91be 02a1 ecbd
000000d0: b5e7 a73d 67c7 123d ce5f 463d b121 273e
000000e0: 8cd6 1a3d f145 a1bd 16fa e63d bf7a 2cbc
000000f0: 0e1b 183d dea3 113d 7d09 1f3b fb0d d6bd
00000100: a2be db3c 0650 05be 1212 1a3c d719 873c
00000110: b3d9 cabd f0fa 8b3d a2e0 95bd f4df 18be
00000120: 0bcb ccbd d1dd 46bd a02d cebb 156f 1bbd
00000130: 2073 7dbd 50f2 9e3d 51a0 ae3c 14fb babc
00000140: 7197 b8bb 5410 633d c2c3 ca3d b53a cd3d
00000150: 2df7 8d3d 3d20 91bd 3bfa 10bd 76e9 82bd
00000160: 8b71 873d f396 363d a6a1 a8bd 6f8b 4bbc
00000170: a6ad e63d 1c45 f9bd c7e8 953c 7b41 40bd
00000180: ac61 63bd 8c7a 34bd 91aa b63d ee01 883c
00000190: 610a 98bd 2d47 843d 1d4e b2bc 854f 10bd
000001a0: 72a4 93bd b8f1 9cbd 456e 89bd 3602 fcbc
000001b0: aee0 d63d 0e5d 593d 86af 9f3d 1e36 53bd
000001c0: 74ce dbbd 456e 843d 8628 ac3d 37fb 25bd
000001d0: deb0 88bd ca4a 75bd 0fad ab3b 6b0a efbd
000001e0: 28b7 17bd 66da e9bd 1e1f f9bd 74f5 a6bc
000001f0: 4dcb 13be dcd2 4fbd d497 043d db66 e9bd
00000200: 07e4 9e3d 46e6 a7bd ae57 7b3d 52d3 a83d
00000210: bce7 ab3d 67d7 a13d bfdb 613c 405b fdbd
00000220: fe8e e8bd 3a99 1fbe 3baa 3fbd 016f 89bd
00000230: e376 78bc 01fb 203d 5252 d5bc 8802 a0bd
00000240: 98e8 21bd 7e52 073d 08dc 003d 9727 9ebd
00000250: 9f54 a7bd 76b4 74bd ed5a 87bd a516 c63d
00000260: 5036 e73d 79d9 183d 0d07 c3bd d80c 6a3d
00000270: 9141 d5bd 2290 c03d 8122 b5b9 bcaf 37bd
00000280: fdf7 cfbc 8a9f dabd b510 69bd 3f97 753d
00000290: db78 b7bd 4b85 823b f1d4 12be ff39 7c3d
000002a0: 69d7 c0bc 1201 663d d61c cbbd ab7c f6bc
000002b0: e19b 5e3b 83fd 01be 05ad 84bd 08b3 00be
000002c0: 4148 dabc 5f21 f13d 8d6c 85bd 390c 5e3d
000002d0: 9e99 37bd cc24 573c dc68 d53c 57c6 d6bd
000002e0: ceed 8d3c 4341 b93d bf6c afbd 9196 a13d
000002f0: 991f 8bbd 7672 aabd 1b02 a4bd 2f4d 15bd
00000300: 35ce 07bd a6c0 ce3a 2cd1 e43d f084 783b
00000310: 1342 a0bd 0f74 8b3e 3094 113e d406 7fbd
00000320: 9b77 e4bd d438 87be a640 0b3e 3ce7 78bd
00000330: 074c a2bd 3c04 1e3d a2ca 8bbe bb00 ac3d
00000340: f7f9 c1be c190 e9bd c61b 773d 2634 5a3e
00000350: c6d4 5cbe 7a6d 67bc 157c 343e 449e 3b3d
00000360: aff0 f53d f72b 073e 835e 543d 17df 473d
00000370: 79cc f13d ac5d 77be b833 2e3e f497 6e3d
00000380: 8220 c9bd fa30 1f3d 3cc7 7cbe a321 1fbb
00000390: 81c5 123e 56fb 5b3d 68aa 733d d8ad 6ebe
000003a0: 4e21 e3bc 7ca2 edbd c5df 6fbd 1b5a df3c
000003b0: 37e8 d03d 78b2 95be e807 d9bc 9820 163e
000003c0: 2237 733e 990b 243e bddb 4bbe bf16 70be
000003d0: 6d54 0bbc 58e5 26bd 5e7e d5bd a9b5 8fbb
000003e0: 820f d43c c873 73bd 58ff f63d 67c4 dcbd
000003f0: 8780 ddbd 52c6 12be cea3 80bc 5337 393d
-0.07504605 0.12663192 0.17208798 0.04821812 -0.028637283 0.34434828 -0.0006333906 0.009713729
0.0009761336 -0.20133694 0.021687215 -0.08067701 -0.23542425 0.00911181 -0.224388 0.13321821
-0.43624812 -0.11461847 0.03933568 0.2702301 -0.282657 0.020499881 0.1362386 0.10483214
0.18414931 0.24372452 0.017478356 -0.03803144 0.10728424 -0.22953531 0.09064999 -0.06259432
0.15224987 0.07224191 -0.25429276 -0.15621509 -0.19236653 -0.065509856 -0.0947193 -0.24571592
-0.16396998 -0.110723026 -0.08098502 0.20096579 -0.023284933 -0.0493913 -0.14982474 0.15262145
0.023253584 0.15184464 -0.28396618 -0.11554147 0.081984915 0.035834696 0.04843121 0.16321446
0.037802264 -0.078746684 0.11278169 -0.010527312 0.037135176 0.035556667 0.002426713 -0.10451885
0.0268243 -0.13018808 0.009403722 0.016491814 -0.09904804 0.06834972 -0.07318236 -0.14929181
-0.09999665 -0.048551384 -0.00629206 -0.037947733 -0.06187737 0.07761061 0.02131668 -0.022824802
-0.0056332876 0.055435494 0.09900619 0.10020963 0.06931911 -0.07086227 -0.03539489 -0.063921854
0.066134535 0.04457755 -0.08233957 -0.01242338 0.112635896 -0.12171385 0.018299473 -0.046937447
-0.05551307 -0.044062182 0.08919252 0.016602483 -0.074238546 0.06458888 -0.021765763 -0.035232086
-0.072091 -0.07663292 -0.06710485 -0.030762773 0.10492073 0.05306726 0.0779715 -0.051565282
-0.10732737 0.06466345 0.08406167 -0.04052278 -0.0667436 -0.059885778 0.005239136 -0.11671909
-0.037039906 -0.11418609 -0.12164138 -0.020380713 -0.14433022 -0.0507382 0.032371357 -0.11396571
0.077583365 -0.08198218 0.061362915 0.08243431 0.08393809 0.07902413 0.013785302 -0.1237092
-0.113553986 -0.15585795 -0.046793204 -0.067106254 -0.015165064 0.039301876 -0.02604023 -0.07812983
-0.03952846 0.033037655 0.03145984 -0.07722395 -0.08170437 -0.059742413 -0.066091396 0.09672288
0.11289656 0.037316773 -0.09522829 0.057141155 -0.104128964 0.09402491 -0.00034548718 -0.044845328
-0.025386805 -0.10674961 -0.0569007 0.059958693 -0.08958598 0.003983175 -0.14339043 0.061578747
-0.023540216 0.056153364 -0.099176094 -0.030088743 0.0033967423 -0.12694363 -0.06478313 -0.12568295
-0.026645781 0.11773943 -0.06514845 0.054210875 -0.044824235 0.013131332 0.026050977 -0.10487049
0.017325308 0.09045651 -0.085656635 0.078900464 -0.06793136 -0.08322613 -0.08008214 -0.03645056
-0.03315564 0.0015773966 0.11172709 0.0037921034 -0.07825103 0.27236983 0.14216685 -0.06226237
-0.111556254 -0.26410544 0.1359888 -0.060767397 -0.07924657 0.038578257 -0.27303034 0.08398577
-0.3788602 -0.11404563 0.06032922 0.21308956 -0.21565542 -0.014125222 0.17625459 0.04580523
0.120087974 0.13200365 0.051847946 0.04879674 0.11806578 -0.24156827 0.17011917 0.058250383
-0.098206535 0.038865067 -0.24685377 -0.0024281524 0.14333154 0.05370649 0.059488684 -0.23308504
-0.027725842 -0.11603257 -0.058563013 0.027264645 0.102005415 -0.29237723 -0.026493028 0.14660871
0.237515 0.16020049 -0.19908042 -0.23446177 -0.008504015 -0.040746063 -0.10424493 -0.0043856693
0.025886301 -0.05943659 0.12060422 -0.10779648 -0.1081553 -0.14333466 -0.015703108 0.045218777

critic.2.bias f4 [64]
00000000: 76ba 2abc 49db b2bd d8ba 02be ee3b 483d
00000010: 929a babd 0d2b e43d 774d 88bd 1298 1e3e
00000020: 438d fcbd 884b 9dbd 8f80 33bd d18c 983d
00000030: fafa ec3d 4257 5f3d 43c4 03be ade4 853d
00000040: 5db2 463e 752e 313d a747 7abb 3dc1 e03c
00000050: 81c3 cdbd ea91 f53c 9f12 0e3e 5220 d8bd
00000060: 230d 24bd 98ef 1a3e d6b9 d43d 4867 1c3d
00000070: 63fd 053e b82e b13d 4149 a33d 9644 aa3d
00000080: 18c1 683c ae3a d3bc 9ed0 a2bd 497d 90bd
00000090: 1b78 3cbd a080 153d e063 38be d411 d83d
000000a0: b3ca f53d 1380 44be 2607 efbd 800f 353d
000000b0: 4a80 10bd 2a2d 09bd bf4d f13c 25c7 713b
000000c0: e19c d5bd 2290 4a3e 39e1 0c3e 8e43 3b3c
000000d0: 8857 d8bc 0db2 f5bd c2d3 773d fb0a 16be
000000e0: 1dfa 05be fa5a 2fbd e803 0fbe fabc f13d
000000f0: f225 fabd a2ec 79bd 9f5e 8ebd e6e2 873d
-0.010420432 -0.087332316 -0.12766588 0.04888528 -0.09111513 0.11141024 -0.066554 0.15487698
-0.12331631 -0.07680422 -0.043823775 0.074487336 0.115713075 0.054526575 -0.12867837 0.06537757
0.19403978 0.043257196 -0.003818968 0.027435893 -0.10047055 0.029976804 0.13874291 -0.105530396
-0.04005159 0.1513046 0.10387008 0.038184434 0.1308494 0.08651489 0.079729564 0.08313863
0.014206193 -0.025784817 -0.07949947 -0.07055146 -0.04601298 0.03649962 -0.1800685 0.105502754
0.120015524 -0.19189481 -0.11671285 0.044204235 -0.035278596 -0.033490337 0.029456018 0.003689238
-0.10430313 0.19781545 0.1375779 0.0114296805 -0.026408926 -0.11996851 0.060504682 -0.14652626
-0.13083692 -0.04281137 -0.13966334 0.118036225 -0.12214269 -0.061016686 -0.06951641 0.06635074

critic.4.weight f4 [1, 64]
00000000: 1710 45be 837d a0bc 823d bc3d 3b2c 11be
00000010: c03c 79bd b585 54be 2a42 283c ac2f dd3d
00000020: 7a6f 083d 9424 053b a754 a53c d2f4 e23c
00000030: 57eb 60be 4dbb 4ebe 76df a43d e75e 683d
00000040: bc45 063e 53bc 053e 9806 c13d dc0e 723d
00000050: af88 423e 9573 c33b b5b0 413d 9882 7c3d
00000060: 1c63 d139 243a e83d fb42 803c 3b49 22be
00000070: d9cb ea3d 19eb ae3c 544f ebbd cbca 21be
00000080: cdd2 4ebd 019a fcb8 a2a0 fd3b 3fc2 48bd
00000090: c7d1 9f3d bb9e 343e 687c 20bd 949f babd
000000a0: 1541 ba3d c9b0 08be b5bb c5bd 9fd2 f8bd
000000b0: 93d8 3ebd c7fe 8cbd 188c 38bd 5f2f 4abd
000000c0: 30f6 a3bc 15e5 cc3d 4f92 b83d 1fbb 8ebd
000000d0: 5590 36bc 61d3 813c aa58 093b 12d4 893c
000000e0: 010c a13d 2bce 5abd 2d25 1d3c c227 fcbd
000000f0: 716a 8cbc 3e2a 333d bd84 f4bd cb84 00be
-0.19244419 -0.019591099 0.09191419 -0.14177029 -0.06084895 -0.2075413 0.010269681 0.10800108
0.033309437 0.0020315992 0.020181967 0.02770463 -0.21964775 -0.20188637 0.08050434 0.05673113
0.13112539 0.13060121 0.09425086 0.059096202 0.18997453 0.005964706 0.04728766 0.06164798
0.0003993743 0.113392144 0.015656939 -0.15848248 0.11464662 0.021352338 -0.1148974 -0.15800016
-0.050494004 -0.00012044982 0.007740096 -0.049013373 0.07803684 0.17638676 -0.039181143 -0.09112468
0.09094445 -0.13348688 -0.09654943 -0.12149548 -0.04659326 -0.068845324 -0.04505548 -0.049361583
-0.020014852 0.100046314 0.09012281 -0.06969284 -0.01114281 0.015847864 0.002095739 0.016824756
0.07863618 -0.053419273 0.009591383 -0.12312271 -0.017140599 0.043741457 -0.1193938 -0.12550656
