Models/Reward_shaping_vm/RS_big_pos_meander_vm_3_0/45000.pth (torch, 78437 bytes, 11 tensors)

actor.0.weight f4 [64, 62]
000000 6b c6 5e be b0 6e 41 be ee 64 b1 bd ac ad 64 be
       -0.21755378 -0.1888988 -0.08661829 -0.22331876
000010 f0 2e 17 be 6b 8b 32 3e 3a d0 71 3d c4 17 b3 3e
       -0.14763999 0.17435996 0.05903647 0.3497907
000020 23 e6 ce 3d 75 51 e0 3e fa 30 8e 3e 89 03 14 3f
       0.10102489 0.43812147 0.2777174 0.57817894
000030 ee 04 5c 3e ce 58 e4 3d 01 28 f0 bd 54 37 2a 3e
       0.21486256 0.11149751 -0.1172638 0.16622669
000040 e6 36 15 3c d4 a4 f4 3d 2d ac b4 3d c5 3d f1 3d
       0.009107327 0.11945501 0.088219024 0.1177936
000050 e4 7d 3c 3e 57 e4 ae bd a0 b9 e9 3d 1f 9d 01 be
       0.18407398 -0.08539646 0.11412358 -0.12657593
000060 ec c1 0e 3d 1d a5 04 bd 14 a0 57 bd 04 cb 68 3c
       0.034852907 -0.032384027 -0.052642897 0.014208559
000070 00 d1 9a bc 40 c7 b5 bd a4 6e 8c be 70 e4 fd bd
       -0.018898487 -0.088758945 -0.27428162 -0.123970866
000080 1b 25 32 be a4 44 68 be 78 6d e1 bd 66 0f 3a bd
       -0.17396967 -0.22682434 -0.11007208 -0.04542484
000090 6f 9a b4 be 69 b3 51 be b7 5a 36 3d c7 29 a4 be
       -0.35274073 -0.20478596 0.044520106 -0.32063124
0000a0 89 ef 72 bd 53 ad fe bd 6e 2f 40 bd 20 12 f9 bc
       -0.05931047 -0.12435403 -0.046920232 -0.03040415
0000b0 bd c5 7a 3d c1 af 61 3e 33 29 c4 be d9 67 c2 be
       0.061223734 0.22039701 -0.38312683 -0.37969854
0000c0 82 b6 33 be b1 05 2c bd 20 ee 20 3d 49 9b 41 be
       -0.1755009 -0.041997615 0.039289594 -0.18906893
0000d0 86 fd e3 3c e0 5f 1d 3e 23 65 ff 3d 78 21 a2 3d
       0.02783085 0.15368605 0.12470462 0.0791654
0000e0 b9 a9 c3 bd 74 62 ca 3d dd e9 39 3d b5 f9 d2 bb
       -0.095538564 0.0988206 0.045389045 -0.006438459
0000f0 1c 8b be 3d 4e b5 a1 3c 96 06 96 bd 4a e8 ce bd
       0.09303877 0.019739773 -0.07325475 -0.101028994
000100 30 57 44 be 19 66 35 be 41 57 68 be 04 9b 38 3c
       -0.19173884 -0.17714728 -0.22689535 0.011267427
000110 7c c7 4f bd 39 58 29 3e 3d 6f 29 3e 70 84 91 bc
       -0.050727352 0.1653756 0.1654634 -0.017763346
000120 ae c8 c1 bd 02 b1 c4 bd 25 d6 04 3f 6a eb 91 3e
       -0.09462105 -0.09604074 0.5188926 0.2849992
000130 eb 3d 2e 3e f9 cc e0 3e d0 37 51 3d 3f b7 00 3c
       0.17015807 0.43906382 0.051078618 0.007856189
000140 cf 26 e0 bd 9d da 35 be 81 0a ae bd 68 a1 a6 bb
       -0.10944902 -0.17759176 -0.08498097 -0.005085159
000150 dd b8 dc 3d 2d ed 01 be 19 45 25 3d be 27 12 be
       0.107774474 -0.12688132 0.0403491 -0.14272973
000160 c4 d9 ac bd 63 53 f0 bd 7f e2 bb 3e d2 3d 8c 3d
       -0.08439973 -0.11734655 0.3669624 0.06847729
000170 e1 32 93 bd 32 13 80 3e b6 12 f0 bc 2d ca c3 bc
       -0.07187439 0.25014645 -0.029305797 -0.023900116
000180 f1 b2 af bd 7a 55 bb 3d 04 d8 f1 bd 2b 99 27 be
       -0.08579052 0.09147163 -0.1180878 -0.16367023
000190 66 80 ed bc f0 49 35 3d f9 93 8a bd 9b 14 38 be
       -0.02899189 0.044259965 -0.06766505 -0.1797661
0001a0 7f 5d 8f be de c0 d7 be c1 ee 6e be c0 a9 6f be
       -0.2800102 -0.42139333 -0.23333265 -0.23404598
0001b0 22 69 a8 3e 1a 27 1b 3e 18 38 14 3c fc 5a c9 3d
       0.3289271 0.15151635 0.009046577 0.09831807
0001c0 e9 d4 e5 bd b7 44 f6 bd 2d 6e a1 3d 20 15 0b be
       -0.1122225 -0.12024825 0.078823425 -0.13582277
0001d0 46 41 5a 3e c6 d3 56 3e c6 2b 9b 3d dc 5b 0b 3e
       0.21313962 0.20979223 0.075767085 0.1360926
0001e0 97 42 73 3d 0c d9 c2 bd 92 03 cf bd 29 c6 32 bd
       0.059389677 -0.09514055 -0.10108103 -0.04364601
0001f0 dd 3e fb bd c0 43 9f bb 7c 41 6b 3d 12 02 de 3b
       -0.122678496 -0.0048603714 0.057435498 0.006775149
000200 e1 3d d4 bd f1 4d 14 bd 6b 66 a2 3d fe 44 e6 bb
       -0.10363365 -0.036207143 0.07929691 -0.0070272675
000210 dd 0c 56 3c f9 6f 87 bc 3f 9e 0d be 6d b1 c5 3c
       0.01306459 -0.016532885 -0.13829897 0.024132455
000220 0b d1 ba 3c e9 ce 85 3d 81 c4 17 be 4a f5 0e bd
       0.022804758 0.065336056 -0.14821054 -0.034901895
000230 12 db 07 be 1c ea 28 3b d0 be b7 3b 10 54 cc 3b
       -0.13267162 0.0025774306 0.0056074634 0.006235607
000240 58 51 c8 3c 31 49 95 3b 95 46 ff 3c dc 48 91 bd
       0.02445285 0.0045558442 0.031161586 -0.07093975
000250 6a 2e d8 3c 81 dd 74 3d 55 19 b9 bd 20 bc fb 3d
       0.02638932 0.059781555 -0.09038035 0.12291741
000260 08 0b c2 bc d1 a0 2a 3e c7 51 b0 3d fa ef 0a be
       -0.0236869 0.16662909 0.08609348 -0.13568106
000270 77 3f 81 3d 04 5e 8d bc 50 d4 03 3d a7 55 c2 bd
       0.06310933 -0.017256744 0.0321849 -0.09488993
000280 5b 53 0f be ee 57 48 3d 44 b8 9c bc 07 35 96 bb
       -0.13996641 0.04891198 -0.019130833 -0.004583958
000290 be 47 4d be d5 4d ef bd bd 82 66 3d 1e 6b 05 be
       -0.20046899 -0.11684767 0.056277025 -0.13029143
0002a0 88 26 88 bd ae 89 d4 bd c4 87 7c bd 25 a8 30 bd
       -0.06647974 -0.10377823 -0.061652914 -0.043129105
0002b0 15 5e 4e be e1 d1 1f bd e6 2e d2 bc 29 c7 a3 3c
       -0.20153077 -0.039018515 -0.025657129 0.019992428
0002c0 5e 7d d1 bd 13 22 3c 3c 1c bc 21 3c e6 d6 c6 bd
       -0.1022899 0.011482733 0.009871509 -0.097089574
0002d0 f0 2d a1 3d b0 5f b6 bd 1e 32 b6 3b fb 50 bf 3c
       0.0787009 -0.0890497 0.0055601737 0.023354044
0002e0 2b f0 ae bd ed 60 a0 bd 96 ad 89 3d 90 f4 94 3c
       -0.08541902 -0.07830987 0.06722562 0.018183023
0002f0 ec 6b 0d be 10 ab 5c be 80 a8 2b bd ec 00 1f 3e
       -0.138107 -0.2154963 -0.04190874 0.15527695
000300 eb 4f ed 3a db 52 94 3e 29 18 78 bd d8 f1 92 3e
       0.0018105482 0.28969464 -0.060569916 0.28700137
000310 e5 3a e3 3d 5d 23 af 3e 06 c7 9b 3e a1 5c 5c 3e
       0.110952176 0.34206668 0.3042528 0.2151971
000320 69 b1 48 bc f6 2a 7b 3e 72 74 8e 3d 1e 54 97 3d
       -0.012249329 0.24528107 0.06955804 0.07389091
000330 dd db e6 3d a8 46 da bd 54 1e 02 3e 0c 2f da bd
       0.11272404 -0.10658008 0.12706882 -0.10653505
000340 02 62 b5 3d fc c5 e9 bd e7 31 93 bd 3b f4 ac bd
       0.08856584 -0.11414716 -0.071872525 -0.08445021
000350 cf 0d fd 3d 71 be 15 bd f8 9d 50 3e 43 7d 39 bd
       0.123561494 -0.036558572 0.2037276 -0.045285475
000360 00 b5 9b bd 70 8f 5e 3b e1 95 a6 3c ce 80 e8 bd
       -0.076028824 0.0033960007 0.02033514 -0.113526925
000370 5b 51 a4 bd f3 af 26 be 7c ab a9 3e 67 00 d3 3e
       -0.0802333 -0.16278057 0.33138645 0.41211244
000380 96 8f 35 be 98 74 b1 be dd 17 67 be 0a e0 a7 bd
       -0.17730555 -0.34659266 -0.22567697 -0.08197029
000390 5d f8 8b be 1f e1 0b bf 44 ef d9 bd 44 8f ea bd
       -0.27337924 -0.5464038 -0.106413394 -0.11453107
0003a0 52 2c 9e 3e aa b4 07 3f 96 08 04 3e cf c3 4e 3e
       0.3089319 0.53010046 0.128939 0.20191883
0003b0 4a 03 45 be 5d 5d e3 3d 81 55 3f ba 1f b1 10 3d
       -0.19239536 0.11101792 -0.0007298813 0.035325166
0003c0 0a 61 7b 3b 5c c1 7f 3b 95 2f e3 bd fb 6c df bc
       0.00383574 0.0039025163 -0.1109306 -0.027273646
0003d0 42 be 28 3d 8c 6b 8f 3d 0d 12 a6 3b bc 25 6c 3d
       0.04119707 0.07002935 0.00506807 0.057653174
0003e0 b2 50 40 bd 55 01 27 3c 17 e3 34 3e bf e7 16 3e
       -0.046951957 0.010193189 0.17664753 0.14736842
0003f0 b4 cf 09 3e 68 2a 12 bf ef 43 a9 be f4 dd 0e bf
       0.13458139 -0.57095957 -0.33059642 -0.55807424

actor.0.bias f4 [64]
000000 9b 7b a7 bd 0b d6 84 bc a6 85 db bc e7 da 83 3d
       -0.08177873 -0.016215345 -0.026797127 0.06438237
000010 14 97 6e 3d 5b 4d 57 bd 39 05 1e 3e d4 4f 2a 3e
       0.058249548 -0.052564006 0.1543168 0.16632015
000020 bc 39 93 3d 83 44 78 bd 4a c5 21 3e 17 49 04 3e
       0.07188746 -0.060612213 0.15797916 0.12918507
000030 e7 07 0a 3d 9e c1 db 3d f5 35 38 bd d8 10 2f 3e
       0.033698943 0.10730289 -0.044973332 0.17096269
000040 cf 57 2d 3c bd fe f8 3c 9f ee dd 3d e3 5b d0 3b
       0.010580017 0.030394906 0.10836529 0.00635861
000050 6d d0 d0 bd d7 dd a3 bd c8 9e e7 bd 3f 37 e3 bd
       -0.10196004 -0.08001297 -0.11309582 -0.11094522
000060 b7 0a 54 bd 40 48 f5 bd 00 83 b3 3c f6 58 ca bb
       -0.05176803 -0.11976671 0.021913052 -0.0061751558
000070 91 fc 32 3d da 25 c1 3d 24 8f fd 3d 65 11 95 bd
       0.043697897 0.09431048 0.123808175 -0.07278708
000080 04 c5 22 3d 6b bf 05 3e ce 37 bb 3c 9d 47 ea 3d
       0.03973867 0.13061301 0.022853758 0.114394404
000090 d2 9d 16 be ba 80 a3 3c 28 56 bd 3d ab 0f aa bd
       -0.14708641 0.019958843 0.092449486 -0.0830377
0000a0 cd ec cf bd a9 ce fd 3d 7f 09 c4 bd 28 d2 fa 3d
       -0.10152588 0.12392933 -0.09572124 0.122471154
0000b0 87 6f 29 3e 1c 3f 13 3e b2 48 bf bb 0e 3f 30 be
       0.1654645 0.14379543 -0.0058375234 -0.17211553
0000c0 24 31 c6 3d 33 23 0b 3e 0a f4 a5 bd c3 7d a9 bd
       0.096773416 0.13587646 -0.081031874 -0.0827594
0000d0 17 d2 f7 3d 51 02 a1 bd c3 7b 13 3e 64 ff 4d bd
       0.12100618 -0.0786177 0.1440268 -0.050292388
0000e0 49 cb 28 3d ff 55 55 bd 72 0b dd 3d ad 8c 24 3d
       0.041209493 -0.052083965 0.10793199 0.04017322
0000f0 cf 5c a1 bd 04 1e 62 bd d8 9a 39 3d 1a 27 59 bd
       -0.0787903 -0.055204406 0.045313686 -0.053015806

actor.2.weight f4 [64, 64]
000000 ee 9f 07 3e ce 27 5d 3e 57 19 1b 3d cd fd 8c bd
       0.13244602 0.21597216 0.037865963 -0.06884346
000010 34 67 7e be 1b 41 14 be 14 b0 a8 3e 9c 02 4c 3e
       -0.24844056 -0.14477961 0.32946837 0.1992287
000020 9c 01 73 39 c5 c2 3e be 34 8c a4 3e 6b 6b 54 3d
       0.00023174885 -0.18628986 0.32138216 0.051860254
000030 d2 35 83 3e 27 4d 60 3d b6 33 b6 3d ed 40 01 bd
       0.25627 0.05476108 0.08896582 -0.03155606
000040 cd ac ec bd ce 3b 8e bd ff 9c 0a bd 28 12 1b be
       -0.11556397 -0.069450006 -0.03384113 -0.15143645
000050 61 fb 16 be 1b 01 48 be 1d b1 d6 bd c9 20 8c bd
       -0.14744331 -0.19531672 -0.104830004 -0.06842191
000060 e7 89 3f 3e 4d df 1e be 2d b9 c9 bd 88 49 4c 3d
       0.1870495 -0.1551487 -0.098497726 0.049874812
000070 bc ad 62 3d ad 47 b2 bd 38 01 38 3e 61 0b 3a be
       0.055341467 -0.08705077 0.17969215 -0.18168403
000080 17 64 dc bd 04 ae 4d 3d f0 67 ce 3d 26 0d 3d be
       -0.10761278 0.050214782 0.10078418 -0.18462047
000090 7b b8 d2 bd 47 9e 9c bd 18 e9 31 3e 06 1c f9 bd
       -0.10289093 -0.076473765 0.17374074 -0.12163548
0000a0 12 b2 6e be 6c 0a 4c 3c 93 de 4a be 22 45 67 3e
       -0.23310116 0.012453657 -0.19811468 0.22584966
0000b0 99 da 04 3d 26 8b 55 3e 22 bd 52 3e 1d e0 81 bd
       0.032435033 0.20853862 0.20579961 -0.06341574
0000c0 fc 7b 9b be 55 19 ac 3d f4 47 80 3c fe 09 12 be
       -0.3036803 0.08403269 0.01565931 -0.14261624
0000d0 3d 63 04 3f 6a 2c 06 3d 94 a7 a3 3d 94 25 4f be
       0.51713926 0.0327572 0.07990947 -0.20229179
0000e0 2b 31 8a 3e d6 80 82 be 7c ce b3 3e f0 02 08 3e
       0.26990637 -0.2548892 0.35118473 0.1328237
0000f0 6c eb f1 bd 20 2c 80 3d 09 c0 12 3e c5 56 d5 bd
       -0.11812481 0.06258416 0.14331068 -0.104169406
000100 8a 35 86 bd 05 c5 12 3e 12 e8 d8 3d fd 0e df 3d
       -0.065531805 0.1433297 0.10591139 0.10891531
000110 ae 58 59 be ef f2 d9 bd 09 e3 58 be 61 d1 69 be
       -0.21225235 -0.10642039 -0.21180357 -0.22833778
000120 f6 ee 7a bd fa 0e 39 bd ba 9b 8c bd cd b5 6e 3e
       -0.061263047 -0.0451803 -0.0686564 0.23311539
000130 8e fd d6 bd fb 0c fb bd dd 08 8f 3d da 1f c8 3d
       -0.104975805 -0.12258335 0.069841124 0.097717
000140 60 85 14 b9 fa 82 b4 bc 03 25 af bd 54 99 af 3e
       -0.00014164066 -0.02203511 -0.08551981 0.34296668
000150 f1 ee 3a 3e c8 19 5b bb d1 22 35 bc 53 22 3e 3e
       0.18255211 -0.0033432115 -0.011055664 0.18567781
000160 09 17 d4 bd 70 d5 cc bd b7 5d 15 3c 3c b3 87 3d
       -0.10355956 -0.100016475 0.009116582 0.06625983
000170 9b 74 96 be ef 50 95 3d 2b 92 21 3d bb 08 c9 3d
       -0.29385838 0.072908275 0.039446037 0.09816118
000180 84 8a 0c be 0d 8d a3 bb 25 7e 3a be ce 80 84 3e
       -0.13724715 -0.00499118 -0.18212183 0.2587952
000190 c4 df b9 bd 10 0a 9b 3e ea 80 1b 3e 53 cd 22 be
       -0.09075883 0.30281115 0.15185896 -0.15898637
0001a0 26 62 8f 3e e8 1b 3b be 80 d2 62 3e 95 fa 4d 3d
       0.2800457 -0.18272364 0.22150612 0.0502878
0001b0 be 3b 8f be 9b 0a 19 3e cd 3a 99 be 9b 0b 3d bd
       -0.27975267 0.14945452 -0.29927674 -0.046153646
0001c0 af 9d 2e 3e cf 55 90 be c6 ea 72 3d 44 d9 a1 3e
       0.17052339 -0.28190467 0.05930593 0.31611073
0001d0 9e cf eb be 2d 16 53 3e 10 d7 c7 be 25 9a 44 3e
       -0.46056837 0.20613928 -0.39031267 0.19199426
0001e0 fc f0 44 be 06 f7 9a 3e c6 e4 f3 3d 0b aa 97 bd
       -0.19232553 0.3026659 0.119088694 -0.0740548
0001f0 83 ea 20 3d 62 e0 af bd 0a a0 60 3d 47 d6 79 bd
       0.039286148 -0.085877195 0.054840125 -0.060995366
000200 4b 3a 0e 3d 90 96 76 3d 12 8f d2 bd 7f 51 c9 bd
       0.03472356 0.06020218 -0.10281195 -0.09829997
000210 b5 52 b6 bc 65 6b 6b be e5 29 e3 3c f7 01 92 bb
       -0.022256235 -0.22990187 0.027729938 -0.0044558006
000220 b7 b2 b5 ba 3d 46 d7 3c df cb 81 bd 12 c5 b3 bd
       -0.0013862465 0.02627861 -0.063377135 -0.087778226
000230 bd a0 40 be 28 f5 5f bd 0a 06 4f 3d a1 1b 5b bd
       -0.18811317 -0.05467716 0.05054287 -0.053493146
000240 9f 8d 94 3d bf 2b 43 3d 61 24 6e 3d 06 01 b3 bc
       0.072535746 0.04764914 0.058140162 -0.021851074
000250 99 cf 41 bd 12 ad f8 bd 40 f3 43 be f1 a6 8e bd
       -0.04731712 -0.121423855 -0.19135761 -0.06965435
000260 cf f7 18 be 22 15 7a bd 60 50 ea bd 2b c8 c7 3c
       -0.14938281 -0.06105531 -0.114411116 0.02438744
000270 eb f2 01 be a7 fd 2b 3d 90 f2 62 3d 49 42 75 3b
       -0.12690322 0.04198995 0.055407107 0.0037423542
000280 ed 29 f2 bd fb ae a2 3c 3c ea a1 3d 22 d7 12 bc
       -0.11824403 0.019858828 0.07906005 -0.0089624245
000290 a1 4a b3 3c 63 e4 af bb a1 96 79 bd 1a a9 37 bb
       0.021886172 -0.005367802 -0.060934667 -0.0028024376
0002a0 a7 6e e7 bd 18 6e 53 3d e6 2c de bd 51 48 88 bd
       -0.11300402 0.051618665 -0.108484074 -0.06654418
0002b0 65 50 1a bd 43 0b 8f 3c 51 89 65 bd 73 a0 b5 bc
       -0.037674326 0.017461425 -0.05603916 -0.022171235
0002c0 4d 59 6b bd 78 92 6b 3c 6e 69 63 bd 2f 1e 59 bd
       -0.05745821 0.014378183 -0.055520467 -0.0530073
0002d0 72 c0 e9 3c dd 10 b1 3d a6 e1 54 be d5 12 56 bd
       0.028534148 0.086457945 -0.20789203 -0.052264053
0002e0 8e d3 43 bd ec b9 9d bd 07 5e d4 bc 5a 03 e4 bd
       -0.047809176 -0.077014774 -0.025923742 -0.11133452
0002f0 82 ba ba bd 8f 8a 22 be 5a 3b 06 bd 58 01 33 3d
       -0.09117605 -0.15873168 -0.032771446 0.043702453
000300 2b 28 41 bd f8 70 22 3c 68 99 62 bd 39 02 17 bd
       -0.047157448 0.009914629 -0.05532208 -0.036867354
000310 33 6c 07 3d 14 21 e5 3b 18 29 16 bc 13 c3 0c bd
       0.03306217 0.0069924686 -0.009165071 -0.034365725
000320 58 fb 26 bd 8e 10 49 bd 65 54 18 bd f1 4a 80 3c
       -0.040767044 -0.049088053 -0.03718986 0.015660735
000330 c3 c2 97 bd 92 9c c8 3c ee 62 fc 3b f6 1e c0 bd
       -0.07410195 0.024488721 0.007702223 -0.09380905
000340 0f 44 6d bd 4d 25 8f 3b 94 8e a0 3d 1e 87 db bd
       -0.057926234 0.0043684603 0.078396946 -0.10719131
000350 4d 64 9e bd e1 e4 15 be e2 39 a0 3c 76 5b 67 3c
       -0.077339746 -0.14638092 0.01955885 0.014120927
000360 fb b6 b9 3c 6a fc a9 bd ca ba 94 bc cc f1 d8 bd
       0.02267026 -0.08300097 -0.018155474 -0.10592994
000370 aa b1 a4 3d 55 1d 36 bd 0c 3e a7 bd 24 8e a9 bd
       0.08041699 -0.044461567 -0.081661314 -0.08279064
000380 25 df e3 bd ac 29 a2 3d b9 78 6c bd 7e da 7d bd
       -0.11126546 0.079181045 -0.057732318 -0.06197595
000390 ce 07 81 bd 9c 7b 89 bd 73 df f2 bd f4 e1 b7 bd
       -0.06300317 -0.0671303 -0.11859026 -0.08978644
0003a0 18 25 6c bd ca 66 86 bd fd 31 88 3d 2c ee 8a bc
       -0.057652563 -0.06562574 0.066501595 -0.016959272
0003b0 9f 02 51 3d 12 9c ae bd 9a a5 09 bd b2 0b 1f be
       0.05102789 -0.08525862 -0.033605196 -0.15531805
0003c0 32 4e ef bd 7e 5b 09 be 9c 70 db bd d1 49 85 3d
       -0.116848364 -0.13413808 -0.10714838 0.0650822
0003d0 85 12 31 bd 84 49 14 be 9d 88 d1 3b 70 0b f9 bd
       -0.043230552 -0.14481169 0.0063944594 -0.12160385
0003e0 e1 e4 fe 3d e3 42 75 bb ac da 56 bd 17 7a 06 bd
       0.12445999 -0.00374239 -0.052454636 -0.032831278
0003f0 52 67 d8 bd ba 17 6d 3d 28 ac 8d 3d 19 e2 88 3d
       -0.10566582 0.057883956 0.06917602 0.0668375

actor.2.bias f4 [64]
000000 eb 3b 02 3e ba 51 fc bc 9a c7 b4 bd c6 99 89 bd
       0.1271817 -0.030800689 -0.088271335 -0.06718783
000010 8f a2 47 3d 2f 22 7f bd 41 03 c8 3d af 37 3a 3e
       0.048739012 -0.06228846 0.09766246 0.18185304
000020 c8 34 28 3e 30 33 7b 3c cd c4 6e bd b7 99 16 3e
       0.16426384 0.015332028 -0.058293153 0.14707075
000030 2d 49 cd 3b 5c 7e 3e bd 6b a4 36 be a6 f6 a8 3d
       0.0062648267 -0.046507224 -0.17836158 0.082501695
000040 7e 07 53 3d e8 2c 93 3b 4b fe 36 3e 1f bb 3b 3d
       0.051520817 0.004491437 0.17870443 0.04583275
000050 bf e5 f9 3d 37 64 78 3e cb e2 ea bc 4a d7 0f be
       0.12202024 0.24256979 -0.028672596 -0.1404697
000060 b6 a6 22 be 11 32 11 3d 93 71 e2 3c d6 2e 48 bd
       -0.15883908 0.035448138 0.027642047 -0.04887279
000070 35 13 0f be 1b 07 f1 3c 5e 80 08 3e 57 68 05 be
       -0.1397217 0.029422333 0.13330218 -0.13028084
000080 5f 40 a3 bc 14 32 2c 3a 80 72 b0 bc 91 36 74 3d
       -0.019928155 0.00065687415 -0.021538973 0.05962235
000090 3e 4a e9 bd 27 6f 0e bc 02 80 8f 3d 2c 1b 43 3e
       -0.11391114 -0.008693493 0.070068374 0.19053334
0000a0 63 3a 04 3e 60 6b b3 3d a3 80 e3 3d 1b 46 d7 3d
       0.12912898 0.087607145 0.1110852 0.105114184
0000b0 c1 69 1c 3e 1a c8 bc bd d9 da 16 3d c2 32 ef bc
       0.15274717 -0.09217854 0.036829803 -0.029199008
0000c0 cb c7 18 bd 6f 08 2b bd 6d 97 66 3b d4 36 98 3d
       -0.037299912 -0.04175609 0.0035185472 0.07432333
0000d0 67 e5 64 3d 41 f3 0e 3e 2f d6 21 3d ee 80 ac 3d
       0.055882838 0.13959982 0.039510902 0.08423029
0000e0 c5 43 88 ba 01 8c bc 3d 87 c1 07 3e f4 2b 29 3e
       -0.0010396173 0.09206391 0.13257419 0.16520673
0000f0 b7 e3 07 3e 7b 2d eb bd 9c 1e bc bc f8 5f 2a 3e
       0.1327046 -0.11483284 -0.022963814 0.16638172

actor.4.weight f4 [36, 64]
000000 d9 1d 47 bf 7f 5c a2 3e 49 94 01 be 97 a5 28 bd
       -0.7777992 0.31711194 -0.12654223 -0.041173544
000010 ec 90 3b be 61 cd 99 bd 65 31 da 3e 12 6a 9e be
       -0.18317002 -0.07509876 0.4261581 -0.309403
000020 38 52 4d be 63 fa fb 3d 57 16 a8 3e 80 87 8a 3e
       -0.20050895 0.12303617 0.32829544 0.27056503
000030 8f f2 e5 3e da a6 a4 bd e4 a2 35 bd 30 e8 61 be
       0.4491162 -0.08039637 -0.044344798 -0.22061229
000040 d1 70 da bd e1 6f d3 be 5a a8 f1 be c7 69 b4 be
       -0.10666049 -0.41296294 -0.47198755 -0.35236952
000050 cf bc a2 3d 11 76 69 3e a6 c0 c0 3d 22 1f a7 bc
       0.07946169 0.22798945 0.09411745 -0.020400587
000060 5e 91 b1 3d 8c 8b ac be 8e a9 30 3e ac f3 42 bd
       0.08670305 -0.33700216 0.1725218 -0.047595665
000070 9b 73 c4 3c 0e 44 96 be b2 f1 5b 3e 0b 17 c1 bd
       0.023980906 -0.29348797 0.21478918 -0.09428223
000080 21 6f cd 3e a8 47 8d 3d d0 55 36 bc d3 4c e6 be
       0.40123847 0.06898433 -0.011128858 -0.44980487
000090 77 2c 47 bd b7 ab 1f bd c5 52 6b 3e 4c 98 58 bf
       -0.04862639 -0.03898212 0.22980793 -0.84607387
0000a0 7c 44 36 be 4a fd 6d 3e 10 31 55 be 28 a2 b7 be
       -0.17799562 0.23241153 -0.20819497 -0.35865903
0000b0 c8 7f 29 bf 26 81 52 3e 19 d8 36 3e c0 95 92 3e
       -0.66210604 0.20557079 0.17855872 0.28629875
0000c0 d1 ac a6 be f1 b8 8f 3d 7e e6 b1 be 2e 5e 0e bf
       -0.32553723 0.07017697 -0.34746164 -0.55612457
0000d0 c5 d6 de 3d 0b 92 de be 58 4a b3 3b 9c cf 8d bd
       0.10880808 -0.43470797 0.005471509 -0.06924364
0000e0 e0 50 94 bd 01 19 24 bf 1c 50 a2 be f2 c0 ea 3b
       -0.07241988 -0.6410065 -0.31701744 0.007164114
0000f0 9d 35 2f bf 93 79 75 bd bc ea 2e 3d a3 15 64 3d
       -0.6844118 -0.059930395 0.04270433 0.055684697
000100 6a 49 10 bf 02 26 59 bd cf c1 a8 bc 4e a9 c6 3d
       -0.5636202 -0.053014763 -0.020600228 0.09700261
000110 bf e8 0d be d2 02 09 3d 0f 5e 5e be 04 b1 03 be
       -0.13858317 0.033449955 -0.21715568 -0.12860495
000120 71 ba 02 bf af b9 8b 3e 65 e5 b6 be 97 8c 9d 3c
       -0.51065737 0.27290103 -0.3572189 0.019232078
000130 c7 ee 03 be 57 a2 0e 3d b2 57 81 3d a4 42 0a bf
       -0.12884055 0.034822788 0.06315555 -0.54007936
000140 5c 0d 95 3c 51 41 32 bf 41 e9 0e bf 2f 0a 78 3e
       0.018194847 -0.69630915 -0.5582467 0.24222635
000150 e2 6a 18 be 5e 62 17 bf 94 04 a4 bc c2 c3 9b 3b
       -0.14884523 -0.5913447 -0.020021714 0.0047535608
000160 60 9b 79 3d dc 6c ec 3e 6e 2f ba 3e ad d5 9c bd
       0.060939193 0.46176803 0.3636431 -0.07657943
000170 6b bd 0a 3d cb 48 52 3d ac bf c8 3d 91 60 77 bc
       0.03387205 0.051338952 0.098021835 -0.015098707
000180 41 02 82 3e cd 4c 09 3d 80 cc c0 bc ac c1 38 3e
       0.25392345 0.03352051 -0.023535013 0.1804263
000190 b6 cf f5 3e d3 17 0b 3e d9 49 65 3e 55 bc 5a bf
       0.48010033 0.13583307 0.22391452 -0.8544362
0001a0 6a 99 92 be 81 73 ed bd a7 29 fd be db 54 12 bf
       -0.2863267 -0.11594296 -0.4944584 -0.5716073
0001b0 93 5a 36 bf 84 cb a3 3e 06 cb 29 be c5 ab 55 3e
       -0.71231955 0.31991208 -0.16581354 0.20866306
0001c0 db da 00 3d 4e e0 40 3d e2 85 6a 3e fe 2d 50 be
       0.031458717 0.047088914 0.22902635 -0.20330045
0001d0 57 e8 9a be 16 50 ff bd 0f 29 b6 3e cc d2 2b 3e
       -0.30255386 -0.12466447 0.355782 0.16779631
0001e0 48 13 b5 3e ae 14 3c bd b7 ab 3a be 76 4b 6b 3d
       0.35366273 -0.04591816 -0.18229567 0.057445012
0001f0 ec 92 f7 be e9 7e 9c 3c 95 37 a3 3c 78 ec a8 be
       -0.4835428 0.019103484 0.019923965 -0.3299291
000200 dc 4f 94 be 8d 90 88 3e 05 87 bd 3d 27 48 27 3d
       -0.28967178 0.26672783 0.092542686 0.040840294
000210 6c d0 dd bc b8 7d a8 bc 4c e9 a4 be d6 3b f9 be
       -0.027076922 -0.02056776 -0.3220924 -0.48678464
000220 90 79 9b 3e 76 d6 a5 3d ba 87 87 be 39 83 9a 3e
       0.30366182 0.08097546 -0.2647074 0.3017824
000230 24 36 30 3e df 8a 65 bb 84 83 1e 3e 88 4f 00 bf
       0.17208153 -0.00350254 0.15479857 -0.50121355
000240 06 18 cb 3c ad d2 01 bf be 0e a8 3d 82 fc 06 bf
       0.024791729 -0.5071209 0.08205937 -0.52729046
000250 d2 bd 2f 3e 97 e2 da be 53 5f 5f bd 54 bd 94 bd
       0.17162254 -0.42751 -0.054534268 -0.07262674
000260 14 44 2a bd 00 0b 33 be 10 c5 62 3d 23 ed 2e 3c
       -0.04156883 -0.17484665 0.055363715 0.010676655
000270 fc f0 b0 bc 76 26 24 3e 5c bf 8b 3d a5 ea 28 bd
       -0.021599285 0.16030297 0.06823608 -0.0412394
000280 80 e3 26 be 45 73 6e 3e bc 98 d6 bd 58 7a 07 b9
       -0.16297722 0.2328616 -0.104783505 -0.0001292018
000290 ff be ae 3e 12 ac 5b bd a6 c2 92 be 9a d4 14 bf
       0.34130093 -0.053630896 -0.2866413 -0.58136904
0002a0 a6 ad a2 3e 26 24 2f be cb 32 80 3d 74 9c 2f be
       0.31773108 -0.17103633 0.06259688 -0.17149526
0002b0 d7 8c 9c bc 6e e8 55 3d 64 13 8f 3e c5 6c ad be
       -0.019110126 0.052223615 0.2794448 -0.33872047
0002c0 f7 75 8a be 0c 2d 64 be 5e c4 55 be 19 55 a7 3d
       -0.27043125 -0.22282809 -0.2087569 0.08170528
0002d0 45 5d be 3d 7d 05 23 be fc 9e 5b be 72 30 60 3d
       0.092951335 -0.15920062 -0.21447366 0.0547337
0002e0 65 c6 c7 bd e6 3b 06 bf 91 57 95 3e e0 da a6 3e
       -0.09754638 -0.5243515 0.2916837 0.32588863
0002f0 76 b8 16 bf 84 c9 a6 bd 50 e1 f5 3d e4 cf a8 3e
       -0.58875215 -0.08143905 0.120058656 0.32971108
000300 d9 eb ca be dd 9c 19 3e 5d 8c 70 bd a8 b5 c4 3d
       -0.39633062 0.15001245 -0.05872761 0.09604961
000310 13 24 cb bc f1 52 77 3c 13 97 4e be 7c 3c 2b 3d
       -0.024797475 0.015095458 -0.20174818 0.04180573
000320 25 56 97 3d bc 87 de bd 54 f5 6e be aa 8f f6 3d
       0.07389478 -0.10865733 -0.23335773 0.120391205
000330 88 22 57 3c 41 32 bc bd c5 fd f6 3d 93 71 08 be
       0.0131307915 -0.09189273 0.120601214 -0.13324575
000340 3d a6 b4 3d f3 5a ad bc e2 3f a1 3d a1 eb 05 be
       0.0882077 -0.021161532 0.07873513 -0.13078167
000350 6a c3 7e be 26 ee 77 be aa 35 99 3d 54 df 10 bb
       -0.24879232 -0.2421194 0.07480939 -0.002210577
000360 87 e1 01 3d 8b 2b 49 be 22 60 c8 3a 96 52 d3 3d
       0.03170922 -0.19645517 0.0015287439 0.103184864
000370 c9 aa e3 3d b1 38 75 3e e8 85 7a be 2b 2a 32 3c
       0.11116559 0.23947407 -0.24465144 0.010874311
000380 c0 a4 85 be 55 40 11 be 28 73 3b bd c7 d2 95 bd
       -0.26102257 -0.14184697 -0.04576412 -0.07315593
000390 64 a9 4b 3e ad 7c 90 bd 05 2b 34 be e5 d6 83 be
       0.19888836 -0.0705503 -0.17594536 -0.2574989
0003a0 a5 ba 68 3c 6e e5 d9 bd d5 55 ab 3c 1f 25 2f be
       0.014204656 -0.10639463 0.020914951 -0.17104004
0003b0 94 9f 39 be f9 cb 09 be f3 72 70 3d f8 42 d4 be
       -0.1812728 -0.13456716 0.058703374 -0.41457343
0003c0 38 f1 b7 3b 99 fe 84 bd 3e 7d fb bd f2 d6 2e be
       0.0056134723 -0.06493873 -0.122797474 -0.17074183
0003d0 09 56 cd 3d 64 0d d9 3d 4c c4 bb be a5 cf ac bd
       0.100261755 0.10598257 -0.366732 -0.084380426
0003e0 86 ab b4 3d 7e df 1f be 63 f5 f3 3c 4b 33 51 3e
       0.08821778 -0.15612599 0.029780095 0.20429723
0003f0 ae 5c 0d be c7 30 44 bd fa 83 86 bc dd a2 43 bd
       -0.13804886 -0.04789808 -0.016420353 -0.04776274

actor.4.bias f4 [36]
000000 f6 40 04 be de 3a e2 bd e5 8b 11 be 4c 69 21 3d
       -0.12915406 -0.11046384 -0.14213522 0.03940706
000010 68 d6 66 bd 4a 25 f9 3d 51 53 b8 3d 88 f0 bf 3b
       -0.056356817 0.121653154 0.09000266 0.005857531
000020 b8 73 3d bd 59 37 1b 3d b9 17 ad 3d a0 cb fd bd
       -0.046252936 0.03789458 0.0845179 -0.12392354
000030 e9 c4 df 3c ff fc f7 3d 0d b6 10 3e 8c e4 51 3d
       0.027315574 0.12108802 0.14131947 0.05124335
000040 c6 6a 91 bd ca ff 80 bb 9f 9a 15 3e 08 a7 8c bc
       -0.071004435 -0.0039367424 0.14609765 -0.01716949
000050 e9 cf f4 3c 0e 4d 6d 3d 01 5e 45 3d 4f d7 d7 bc
       0.029884296 0.057934813 0.048185352 -0.026347784
000060 65 1d ca 3d 94 7e ef bd e5 1c aa bd d5 23 6d 3c
       0.09868888 -0.11694065 -0.083062924 0.014473875
000070 00 a0 a2 bd 15 64 29 3d ea 26 04 be a0 ba ff 3d
       -0.07940674 0.04135521 -0.1290547 0.12486768
000080 7f 02 04 3e 95 5e e5 3d bc 20 31 3e d2 36 eb bc
       0.12891577 0.11199681 0.17297643 -0.028712664

critic.0.weight f4 [64, 62]
000000 3e fd 2c 3b 8e 01 c9 bd 03 4f cf 3d da 4e 71 3d
       0.0026396061 -0.0981475 0.10122492 0.05891309
000010 21 07 80 3d 36 26 4b bc f4 e6 47 bd 3d 20 d4 bd
       0.0625136 -0.012399247 -0.04880424 -0.103577115
000020 a5 03 80 3d 39 0b 67 3d d0 ec 43 be bc 7b 1c be
       0.06250695 0.056407187 -0.19133306 -0.15281576
000030 13 52 0e 3d aa 67 61 3b fb f8 ad 3c 65 6d aa bd
       0.03474624 0.0034394064 0.021236887 -0.083216466
000040 92 57 b6 3d 5d c1 a3 3b cb 57 0a bd 15 f0 bd 3d
       0.089034215 0.004997416 -0.033775132 0.09274308
000050 35 fa 46 3d 97 4e ee bd 23 1d ce bd 47 56 85 bd
       0.04857846 -0.116360836 -0.10064151 -0.06510597
000060 d3 45 6d bd bd 63 ec bd f1 88 c6 bc 67 99 e7 3d
       -0.057927918 -0.11542461 -0.02423522 0.11308556
000070 5e 94 9e bd 52 b3 55 3b 96 f1 32 3d c1 ed a0 3c
       -0.077431425 0.0032608104 0.043687426 0.01964462
000080 04 0d 97 3d ea 5c a9 bd b9 5c e8 3d 1f 95 04 bc
       0.073755294 -0.08269675 0.113458104 -0.008092194
000090 6e 12 a3 3d 1f 2c a6 bd 99 5e 90 bd d6 c0 be bd
       0.079624996 -0.08113884 -0.07049293 -0.09314124
0000a0 ba c3 3d bd 5b e5 2b bd 57 8e db bd 61 7c fa bd
       -0.046329238 -0.041966777 -0.107205085 -0.12230755
0000b0 53 bc 33 bd 64 09 c9 3d 2e ad 53 bd 02 5f 01 bc
       -0.04388077 0.09816244 -0.05167883 -0.007896187
0000c0 eb 64 4c 3e 9d e1 08 3e c8 13 a1 bd e6 9d 75 bd
       0.19960372 0.13367315 -0.07865101 -0.059965037
0000d0 9b a4 89 bd 68 15 a8 bd cd 02 85 bc 2a 9a 10 bd
       -0.06720849 -0.08207208 -0.016236687 -0.035303272
0000e0 2b 91 2b 3d ce 25 32 be 23 f3 99 3d 49 ea 6f be
       0.04188649 -0.17397234 0.07517078 -0.23429216
0000f0 55 1b df bd a2 5a bf 3c 7a ba d0 bd 2c bd b7 3a
       -0.10893885 0.023358647 -0.101918176 0.001401817
000100 06 57 2b be 0f 9b b8 bd 36 d7 07 bd 5b 12 3c be
       -0.16732416 -0.0901395 -0.033164226 -0.18366377
000110 91 d9 76 3e e4 d2 a8 3d 90 92 a6 3d 0c 60 8a 3e
       0.24106432 0.08243349 0.08133423 0.27026403
000120 37 55 0f be 69 6f 91 3d 7b 2e 9c 3d 5e 30 c0 bd
       -0.1399735 0.07101328 0.07626053 -0.09384225
000130 49 30 45 3d 6b 69 4c be fb d6 1f 3b 1a 2d 69 bd
       0.04814175 -0.19962089 0.0024389613 -0.056927778
000140 aa 9c de bd 38 c0 17 bd 65 bd c9 bd b0 21 29 3c
       -0.10869725 -0.03704855 -0.09850577 0.010322973
000150 26 62 93 3c 8c df 0a 3d ab f8 b4 3b de 97 4b 3d
       0.017991137 0.033904597 0.0055228076 0.04970538
000160 57 52 39 bd 01 6e 7d 3d 69 68 a3 3d 10 70 d5 3e
       -0.04524454 0.061872486 0.07978899 0.4168706
000170 70 42 16 3e f9 e9 36 3f 26 ed cf bb 74 9e 23 3e
       0.14673781 0.71450764 -0.006345409 0.15978414
000180 f8 d0 eb bc 5c 60 df bc 99 43 57 bc 2f c3 e5 bd
       -0.028786168 -0.027267627 -0.013138675 -0.11218869
000190 c2 f4 83 bc e3 c0 d5 3d 02 e0 aa 3d ab f3 91 3d
       -0.01610792 0.10437181 0.08343507 0.07126554
0001a0 62 d3 b2 3c b0 b1 d4 3d ff ac e7 bc 27 62 97 3d
       0.02182931 0.10385454 -0.028280733 0.07391768
0001b0 f0 7f aa 3b e6 77 86 bd e2 b3 43 bb 72 27 88 3d
       0.0052032396 -0.065658376 -0.0029861857 0.066481486
0001c0 75 f2 56 be 9f 27 87 3e 30 dc 5a bd 2a e1 a1 3d
       -0.20990928 0.26397416 -0.053432643 0.07904275
0001d0 3b f7 09 be 7d 3e 21 3e f3 16 0d 3e ec 56 11 3c
       -0.13473217 0.15746494 0.13778286 0.008870821
0001e0 eb 21 ab 3c 82 1c 01 bd cf 18 5a 3d 61 55 f3 bc
       0.020890197 -0.031521328 0.053246316 -0.029703798
0001f0 2d 1f dc 3c a0 d6 a7 3c 27 d4 35 be 23 02 22 be
       0.026870335 0.020488083 -0.17756711 -0.15821128
000200 42 af 17 3e 49 cc d2 bd 46 10 0e 3e 54 62 c6 bd
       0.1481295 -0.102928706 0.13873395 -0.09686723
000210 e6 42 07 be 5a 1f ad 3d 7e ce 06 3e ab 15 b2 bd
       -0.13209113 0.084532455 0.13164708 -0.08695539
000220 80 91 3c bd 33 d6 96 bd 5e b1 5f 3d c5 d5 91 bd
       -0.046037197 -0.07365074 0.05461251 -0.071208514
000230 41 34 b2 3c 96 36 12 be 5c 5a fa bb c6 63 06 bd
       0.021753432 -0.14278635 -0.007640166 -0.032809995
000240 dd cb 1a bd ee 49 16 bd e4 72 46 3d c5 0f 2e bd
       -0.037792075 -0.0366916 0.048449412 -0.042495508
000250 23 bf 4f be 19 8e f1 bd 73 68 e1 3d 62 e0 e2 bd
       -0.20287757 -0.11794681 0.1100625 -0.11077954
000260 6d 85 1a 3e 2a b5 4d 3d f1 d1 15 be 17 43 6d bd
       0.1508996 0.0502216 -0.14630868 -0.05792531
000270 be 94 99 bd 6c 5d 3e 3e 0a f8 d1 bc ab 11 56 3d
       -0.074990734 0.18590325 -0.02563097 0.052262943
000280 96 3b 7a bd f6 5f 9a 3d 03 05 c0 bd fe 02 14 3e
       -0.06109198 0.07537834 -0.09375956 0.14454266
000290 fe 41 9e bd 3b fa 51 bc b1 90 91 bd f8 03 2e 3b
       -0.07727431 -0.012816007 -0.07107676 0.0026552659
0002a0 ce b1 dd 3d b6 5a 2f 3e ee 43 d9 3c 5d 7c 4a 3d
       0.10824929 0.17124447 0.02652165 0.04943501
0002b0 d6 5c d7 bc 10 c9 c2 3c 8e 99 9d bc 21 9f 1c 3e
       -0.026289385 0.023777515 -0.01923826 0.15295078
0002c0 e9 fe 1e 3d fd 8a bd bd c2 f0 c3 bd f1 4b ce 3d
       0.03881732 -0.092550255 -0.09567405 0.100730784
0002d0 6b cc 1c 3c 37 80 ea 3b 11 d6 0e be e7 7e 13 be
       0.009570221 0.0071563977 -0.13948847 -0.14403878
0002e0 51 d6 2c be dd 61 9e bd 39 af 20 be f1 7a 8b 3c
       -0.1687863 -0.0773351 -0.15691842 0.017026396
0002f0 1b 06 28 be ce 37 2d be 10 9a 49 3d f7 83 18 be
       -0.16408579 -0.16915819 0.04921919 -0.1489409
000300 1b fe e8 3d 8a 4d 10 be 8d a7 81 bd 64 7a 83 bd
       0.11376592 -0.14092079 -0.06330786 -0.064198285
000310 27 1a 1c be 36 23 d7 bd f6 15 dc bd 60 ae 3f 3d
       -0.15244351 -0.10504763 -0.10746376 0.046797156
000320 e3 0b 98 3c f5 30 3a bd b8 d4 96 3d 54 2c 88 3d
       0.018560356 -0.045456845 0.07364792 0.0664908
000330 44 63 9b 3d f4 09 7a bd 8d 4f 05 be 5e 8d 81 bd
       0.07587293 -0.06104465 -0.13018627 -0.06325792
000340 ca c8 c0 bc b5 cd 1c 3d 09 34 00 3e 78 d7 8a bd
       -0.023533244 0.038282115 0.1251985 -0.06779379
000350 d5 c8 8b 3d 9d 90 80 bd 4b 45 5c bd 90 e5 5c bd
       0.06825415 -0.06277583 -0.05377702 -0.053929865
000360 57 e4 85 bd af 5b 13 3e d6 1b 2b bd 71 98 14 be
       -0.06537693 0.14390443 -0.041774593 -0.14511277
000370 31 34 b6 3c 94 60 d2 3b 4f 2b 46 3d af 7a 77 be
       0.022241684 0.0064202044 0.048381146 -0.24167894
000380 35 3a 44 be 8d a2 40 be 56 30 4d 3c b4 c2 ad bd
       -0.19162829 -0.18812008 0.012523731 -0.08484402
000390 e3 84 6f bd 78 7b 6e be f0 b3 da 3c 69 dc 8f bb
       -0.05847634 -0.23289287 0.026697129 -0.0043902886
0003a0 21 d6 01 b8 47 c9 f8 bd 57 c5 b0 3d ad 47 64 3e
       -3.095542e-05 -0.121477656 0.086313896 0.22292967
0003b0 2b ab 9e 3c 99 2a 48 3e 19 4b 45 be 4f d8 e5 bc
       0.019368729 0.195475 -0.19266929 -0.028057246
0003c0 fb 0e 8b bc cd 7f 28 be 7e 8b 05 be 63 0e 39 be
       -0.016974917 -0.16455002 -0.13041493 -0.18071894
0003d0 b6 91 59 3d e1 36 90 bb 06 6a 83 bd e0 ff 39 bd
       0.053117476 -0.0044010733 -0.06416707 -0.045410037
0003e0 b8 ee 2a 3d cb 9e 8e bd 4e 5c 9d 3d b4 f4 6e bd
       0.041731566 -0.06963881 0.07683621 -0.058338836
0003f0 cc 52 25 be 03 80 77 3c 0d a8 17 be 14 ea d5 3d
       -0.16144866 0.015106204 -0.148102 0.104450375

critic.0.bias f4 [64]
000000 82 9e e3 3d 12 cb f3 bc 02 f0 8a bd db 6e 00 be
       0.11114217 -0.029759917 -0.06784059 -0.12542288
000010 f0 3d c4 bd c6 10 bc bd 56 03 28 3e 0a fc 26 bd
       -0.09582126 -0.09182887 0.16407523 -0.040767707
000020 ec 96 ef 3d 22 a8 00 3c 15 64 89 bb 71 2d c3 bd
       0.11698708 0.007852586 -0.004192839 -0.09530152
000030 73 9d 01 be 32 0d 09 bb c2 20 b0 bb 18 2e dc bd
       -0.12657718 -0.0020912406 -0.005374999 -0.10750979
000040 a3 2c 05 be b0 88 4c 3c f8 58 86 bd f0 cd 3f 3d
       -0.13005309 0.012483761 -0.06559938 0.046827257
000050 64 32 66 3e cf d1 9f bd c4 ef 68 bd ed e0 d6 bc
       0.2248016 -0.0780369 -0.056869283 -0.0262303
000060 fb 9f 53 be 9f bd ee 3d f4 5c 45 bd 37 b9 1b be
       -0.20666496 0.11657261 -0.04818435 -0.15207373
000070 1b 9b d5 3d fe f3 c7 bc 80 a8 b6 3d a0 e5 81 bd
       0.10429975 -0.024408337 0.089188576 -0.063426256
000080 1b 1f 72 bc 7a 1f 22 bb b3 de 8d bd 6f 16 e1 bd
       -0.014777924 -0.0024738 -0.06927242 -0.10990607
000090 8b 65 05 3c 5d fb 9a 3d ea 03 9f bd ab b1 82 bd
       0.0081418855 0.07567475 -0.077644184 -0.06381544
0000a0 64 ea dd bd 2d c0 83 bd fd e1 a1 bc 12 14 12 be
       -0.10835722 -0.06433139 -0.01976108 -0.14265469
0000b0 63 e1 1b be aa 67 cd 3c 4f dc 97 3d ba 56 aa bd
       -0.15222697 0.025073845 0.074150674 -0.08317323
0000c0 61 31 1a be 76 55 9c bc 79 d4 0a be 93 d0 87 bd
       -0.15057899 -0.01908372 -0.13557614 -0.06631579
0000d0 16 3c 0c 3e 0d 35 b9 3d 7d ff 20 be 65 5f 98 bd
       0.13694796 0.09043322 -0.15722461 -0.0744007
0000e0 49 b9 ab bd 66 9e 1c bc 73 18 81 bc 4d bf d2 3c
       -0.0838495 -0.0095592495 -0.015758729 0.025725985
0000f0 e3 70 7c bd 8e 93 45 3b 89 9b b1 bd 2d 7d 0c be
       -0.061631095 0.0030147764 -0.08672244 -0.13719626

critic.2.weight f4 [64, 64]
000000 5e d3 15 be b4 df f3 bd 08 9c f7 bd 62 29 3e bd
       -0.14631411 -0.11907902 -0.120903075 -0.046426184
000010 5d f8 3c 3d b8 a6 dc bd 24 61 34 3d 77 5f e7 bd
       0.046135295 -0.107739866 0.044037953 -0.11297505
000020 ee 6f 94 3d ea e6 75 3a 1b 32 9b bc ab c4 05 bc
       0.072479114 0.0009380417 -0.01894479 -0.008164565
000030 15 5b 6e bd 6a 88 e2 bd 98 0e 36 bd 17 06 80 bd
       -0.05819233 -0.11061175 -0.04444751 -0.062511615
000040 80 fa de bd fa ef fe bc 71 3f 18 3c 94 a3 fe bd
       -0.10887623 -0.03112029 0.009292469 -0.12433544
000050 7a c0 8e bd d8 6e f3 3b 60 a0 d8 3c 14 ff 90 3d
       -0.06970306 0.007428985 0.02644366 0.07079902
000060 b4 7e a3 bc ce 0c 04 bd 73 af 9a bd ea b2 8a bd
       -0.019957878 -0.032238774 -0.075529955 -0.067724064
000070 1b f6 5f bd 95 0b 12 be c9 9b fa bc 93 b9 d4 bc
       -0.054678064 -0.1426223 -0.030591862 -0.025967395
000080 1e 7a 42 bd 21 31 35 be c9 70 b4 3d 7f 34 9f bc
       -0.04747974 -0.17694522 0.088105746 -0.019434212
000090 ce 79 7f 3c e0 ff 1b bd 46 bb 03 3d 46 c0 a3 3d
       0.015593005 -0.03808582 0.03216102 0.079956576
0000a0 fe 56 9d 3c 9c 5b f3 bc f7 de c8 3c 15 5d ad bd
       0.01920652 -0.029706769 0.02452038 -0.084650196
0000b0 8a 18 02 bd e1 9d 29 3d 9b 0c ba 3d c6 2e 2e bd
       -0.031761684 0.04141033 0.090844356 -0.042525075
0000c0 7d e8 f4 3d 44 72 ba 3c 9d 64 97 3d d9 46 ef bd
       0.11958406 0.022759564 0.07392237 -0.11683435
0000d0 fb 6c 17 be 0f 67 b1 3d d3 65 14 bd 69 12 04 be
       -0.14787666 0.08662235 -0.03622992 -0.12897648
0000e0 1e d2 0a be 05 a5 b1 3d b0 f0 93 3d d6 ad 5e bd
       -0.13556716 0.08674053 0.07223642 -0.054365
0000f0 e5 66 0c be 49 e5 da bd 7e 80 ce bd 60 ee d6 bd
       -0.13711126 -0.10688264 -0.10083102 -0.10494685
000100 82 6a b7 bd d8 e9 74 bd 8b 8a 02 3e ae 1e 2b be
       -0.08955862 -0.059793323 0.12748162 -0.16710922
000110 44 53 8a 3c 0b d1 0a 3e a3 20 29 be 4b 9e 8e bd
       0.016885407 0.13556306 -0.16516356 -0.06963786
000120 90 75 95 be fb d6 84 bd ca 57 a9 bc ac 73 bd 3d
       -0.29191256 -0.06486317 -0.020671744 0.09250578
000130 e6 96 f0 bc 9c d4 8c 3d ac 66 fb bd 36 5e 22 3d
       -0.029368829 0.068764895 -0.122754425 0.039640628
000140 88 0e a6 bd 5c 7c 87 3d 7b 39 a9 bd 53 ad 0c 3e
       -0.0810824 0.066155165 -0.08262917 0.13737993
000150 b2 15 41 be 98 a4 14 3e 37 05 f4 3d 3e d0 34 be
       -0.18855932 0.14515913 0.11915057 -0.17657563
000160 4b 1e b9 3c 4d 37 84 3a 88 80 00 bd 11 e2 75 bc
       0.022597453 0.0010087282 -0.031372577 -0.015007512
000170 b8 d1 25 be 6d ad 04 3e b6 1f d0 bd ca 4e cd 3d
       -0.16193283 0.12956782 -0.101622984 0.100247934
000180 6b e9 1c 3d c4 f4 c7 be 63 55 43 3d 0d 28 dd 3d
       0.038308542 -0.3905393 0.047688853 0.10798655
000190 e2 fe 27 be 64 75 38 3e c0 f8 cd bc 20 45 aa bd
       -0.16405824 0.18013531 -0.025143027 -0.08313966
0001a0 9f 24 b1 3c ef a3 d9 bc 97 9a 3a 3e 52 c2 f5 3c
       0.021623908 -0.026567427 0.18223034 0.029999886
0001b0 6e 66 b1 bd 85 fa 6e bd ee 1f 34 3d f6 a5 90 3e
       -0.08662115 -0.058344383 0.043975763 0.28251618
0001c0 49 fb 5e bd 61 a3 bf 3c 8d 8a 15 3e 3e d3 fb 3e
       -0.054438863 0.023393335 0.14603634 0.49184602
0001d0 03 f6 39 be 87 12 14 3d 67 f9 22 3d 21 35 ee bd
       -0.18160252 0.03615048 0.03978863 -0.11631227
0001e0 e5 fa 2f 3e 7e 06 d7 3d c2 be ef bc 72 34 26 3e
       0.17185552 0.10499285 -0.029265765 0.16230944
0001f0 37 51 34 bd 4a ee 3e be 7f ae dc 3d 99 25 57 3d
       -0.044022765 -0.18645588 0.1077547 0.05252609
000200 0d 4e 99 3d 46 ee ce 3d 98 0d cf 3b e4 2f b3 bd
       0.0748559 0.10104041 0.006318759 -0.08749369
000210 cc 8b 29 be ef 19 1c 3e 45 24 07 be f5 70 30 be
       -0.16557235 0.15244268 -0.1319743 -0.1723059
000220 e2 d5 50 be cd 2e bf 3d 5e 93 00 be 6e c9 e9 3d
       -0.2039409 0.093350984 -0.12556216 0.11415373
000230 c3 b7 a6 be 63 a2 81 3e 2f 78 94 bd f7 5b 0c bd
       -0.32562074 0.25319204 -0.07249486 -0.034267392
000240 f7 27 99 3d 10 47 ea 3d 27 bf 92 bc aa 5f f3 3d
       0.07478326 0.11439335 -0.017913414 0.11883481
000250 f7 98 06 bf 57 e4 9b 3e 2a c6 c9 bd ae 6c aa bd
       -0.52577156 0.30447647 -0.0985225 -0.0832151
000260 cc d0 e3 3d 0a 28 99 bd 50 04 80 3e bd 0b d0 bd
       0.11123809 -0.0747834 0.2500329 -0.10158489
000270 f4 f9 2c bd b8 32 90 3d 30 d1 24 be e4 09 84 3d
       -0.04223056 0.07040924 -0.16095424 0.06447199
000280 bd 7a cd 3d a3 ca 66 be fb 58 1c 3e a8 4e 83 3d
       0.10033176 -0.22538237 0.15268318 0.06411487
000290 64 73 f4 3d 7e b5 89 3d 1c 7c 56 3d a3 0f ba bd
       0.119360715 0.0672407 0.052364454 -0.09085014
0002a0 13 93 ee 3d 88 9c 2b bd 57 ba 1c be 12 ec 9b bd
       0.11649146 -0.041897327 -0.15305458 -0.07613386
0002b0 6c fb 28 3d 01 b4 4f 3c fc 57 66 3e f0 30 10 3e
       0.0412554 0.012677194 0.22494501 0.14081168
0002c0 41 ee 67 bd 3d 5a 19 bd 5b dc d6 3d 21 ed 8a 3e
       -0.0566237 -0.037439574 0.10491248 0.2713404
0002d0 4f 4b 93 bd e1 b0 f8 3c 28 ae 9a bc fb cd 44 bd
       -0.07192098 0.03035778 -0.018881872 -0.048048
0002e0 01 db 98 3c 6a 00 79 3e 65 ea 72 bc 6a 26 54 3e
       0.018659117 0.24316564 -0.014826392 0.20717779
0002f0 ff 5c 0d 3e 05 84 dd bc 82 72 4a bd 02 1a 98 bd
       0.13805006 -0.02704049 -0.04942561 -0.074268356
000300 1f 63 0a 3d 85 5b 75 bd 89 06 ed bd b4 d2 00 3e
       0.033785935 -0.059901733 -0.11573512 0.12580377
000310 fa 00 fa bd 17 a6 26 3d 08 55 d5 3d 48 58 f0 bd
       -0.122072175 0.04068574 0.10416609 -0.11735588
000320 0a 90 9d 3d 88 b8 e0 bd e6 f9 02 bd 35 d4 c9 bd
       0.07693489 -0.109726965 -0.031976603 -0.098549284
000330 8a 52 e0 bd c7 15 80 3d 2a ed 53 be 86 c0 1b be
       -0.10953243 0.06254154 -0.2069594 -0.1521016
000340 9d eb 0a 3d d0 43 12 be df fd a0 bd 97 1d f1 bb
       0.033916105 -0.14283681 -0.07860922 -0.0073582637
000350 f6 ea 10 3e f7 1f 90 bd f3 97 0c 3c d9 15 30 bd
       0.1415213 -0.07037347 0.008581149 -0.042989586
000360 69 b2 3d 3c 22 73 52 3d 68 47 25 be 91 61 9f 3d
       0.011578181 0.05137933 -0.1614052 0.07782281
000370 fd 01 21 3d 73 2a 43 be 67 b1 34 3d 03 e6 c4 bc
       0.039308537 -0.19059162 0.044114497 -0.02403546
000380 ea 78 a9 bd de f8 08 3d 00 e3 a8 bc 55 6f 43 3d
       -0.08275016 0.033440463 -0.020616055 0.047713596
000390 ba 47 11 be 06 f0 ea bd b4 d2 a3 bc 67 ab 91 bc
       -0.14187518 -0.11471562 -0.019997932 -0.017781926
0003a0 1f 78 06 be 92 82 89 bd ef 9a 16 3c b2 eb 4b bc
       -0.1313176 -0.067143574 0.0091922125 -0.012446331
0003b0 2c 5f b6 bc 3c de f0 bd 31 5f 79 bd 07 d8 93 3d
       -0.022262178 -0.11761138 -0.060881797 0.07218938
0003c0 8c 4e af 3d 3d d8 f3 3d 53 54 bf 3c 5d e8 5e be
       0.085599035 0.119064786 0.023355639 -0.21768327
0003d0 2c cb 44 3d df 8f 0c 3d 20 19 21 3d d9 44 00 be
       0.048045322 0.034316894 0.0393306 -0.12526263
0003e0 3c d5 e9 bd cd f8 3f 3d 54 7a 69 bd 8a 1b 18 be
       -0.11417624 0.046868134 -0.057001427 -0.14854255
0003f0 64 27 0b 3c 78 b9 35 be 67 70 6b bd 58 15 c3 3d
       0.008493278 -0.17746532 -0.057480242 0.09525555

critic.2.bias f4 [64]
000000 8c 32 68 bc 61 57 50 3c 26 17 d7 bc 8c c2 99 bd
       -0.014172208 0.012716145 -0.026256155 -0.0750781
000010 66 d5 27 bd 54 e4 2a be ab a0 fc bd e7 5c 9a 3d
       -0.040974997 -0.16688663 -0.123353325 0.07537251
000020 79 e6 9c bd dc a0 6b bc f4 89 a3 bd 39 2e 84 3d
       -0.07661147 -0.014381614 -0.07985297 0.06454129
000030 50 fd 56 3d b7 38 65 3d 46 22 94 3d be 83 e5 bd
       0.05248767 0.05596229 0.072331 -0.112067685
000040 14 66 68 bd d7 d6 91 bd 30 0f e8 bd ae c4 3c 3c
       -0.056737974 -0.071210556 -0.11331022 0.0115215015
000050 52 01 f4 bc b3 e4 3a bd a3 6d 58 3d 9a 0b ce bc
       -0.029785786 -0.04562826 0.052838933 -0.025152016
000060 55 2d 4b bb 8e e3 f8 bd 11 b3 dc 3b 5d 7e 2a bd
       -0.0031002362 -0.121527776 0.0067352136 -0.041624416
000070 b8 05 f6 3c f3 55 ea bc 9f f2 25 bd d0 f2 8f bd
       0.030032024 -0.028605437 -0.040514585 -0.07028735
000080 f6 ab 3e bd df 19 f9 bd 3a 93 50 3d 00 83 84 bd
       -0.046550713 -0.12163138 0.050921656 -0.06470299
000090 e0 2f 8a bd 98 e4 b1 bd 61 3e 8c bd 73 88 08 be
       -0.06747413 -0.08686179 -0.06847835 -0.13333301
0000a0 89 f6 e9 bc cb fb 67 bd 12 b6 c1 3d e0 07 a4 bd
       -0.02855994 -0.056636613 0.09458555 -0.080093145
0000b0 0e e1 92 bd 00 38 73 bd e4 d7 c6 bd 2b a2 3d bc
       -0.07171832 -0.059379578 -0.097091466 -0.011574308
0000c0 ef 25 22 be 69 fa bb 3d 38 c9 99 3d b7 03 29 3d
       -0.15834783 0.09178621 0.075090826 0.04126331
0000d0 79 45 f0 3d 87 b1 a7 3d fc 3c 13 be 30 70 bb bd
       0.11732001 0.081881575 -0.14378732 -0.091522574
0000e0 a1 7a 3c bd 7c 99 99 39 89 2a 68 3c c6 07 25 3d
       -0.046015386 0.0002929679 0.014170297 0.040290616
0000f0 c4 59 25 be 8a b5 f4 3b 67 9e e9 bc 95 1f 72 3c
       -0.16147524 0.00746793 -0.028517915 0.014778038

critic.4.weight f4 [1, 64]
000000 02 58 8d bd 74 0d 14 be b9 7b 37 be 8e 72 da bb
       -0.06901552 -0.14458257 -0.1791829 -0.006666488
000010 ac e0 6c be 38 fc 55 be 3b 12 66 bd 9a 9c e7 3b
       -0.2313258 -0.20896995 -0.05616973 0.007068229
000020 61 1c 8d be 5e 15 5e 3d 4d 38 c9 be d0 37 19 3a
       -0.27560714 0.054219596 -0.39300767 0.00058448035
000030 21 34 25 3d 4a 4c 22 bb 88 2f 89 bd 16 b2 a6 3d
       0.040332917 -0.002476471 -0.06698519 0.08139436
000040 dd 8c 1b bd 22 2e 2a be e7 d7 d7 3d 16 8e d8 ba
       -0.037976135 -0.16619161 0.10539227 -0.0016521837
000050 32 6a 7d bc 32 80 89 3c 10 cb 04 be a0 21 0f be
       -0.0154672135 0.016784761 -0.12968087 -0.1397767
000060 ec e8 52 bd 02 d1 9d 3d e3 01 bb bb 65 05 d0 3a
       -0.051491663 0.07705881 -0.005707012 0.0015870748
000070 65 f7 c6 3c cb ad 48 be 9e fd 23 bc a0 60 0f bd
       0.024287889 -0.19597547 -0.0100091975 -0.03500426
000080 66 f3 32 3a 91 d5 8c be f0 cf f0 3d 07 79 00 3b
       0.00068264303 -0.27506688 0.11758411 0.0019603388
000090 8b 81 a3 be 19 6d 3b bb 35 74 b4 b9 54 e7 02 3d
       -0.3193477 -0.0028598963 -0.00034418856 0.031958893
0000a0 b5 81 8b 3d cd 29 be be 28 71 3d 3d 17 8e f6 3c
       0.06811849 -0.37141266 0.046250492 0.03009705
0000b0 b2 e5 53 be 70 55 9b be d8 eb 2d bd 2e 32 2f be
       -0.2069309 -0.3033862 -0.042461246 -0.17108986
0000c0 cf 84 ac 3c 97 cc 43 3b 89 e0 56 bd 30 7e 85 3d
       0.021059422 0.0029876584 -0.052460227 0.06518209
0000d0 5d e7 09 be 6b 14 9b bb 21 57 90 be b0 c5 f1 3d
       -0.13467164 -0.0047326586 -0.28191474 0.11805284
0000e0 70 fe bc 3c 4c d5 43 3d da ac 60 ba 85 a6 17 bc
       0.023070544 0.047810838 -0.0008570679 -0.00925601
0000f0 87 f2 4a bd e8 74 04 bc d3 3d 83 bb c8 09 6a be
       -0.0495477 -0.008084513 -0.0040051728 -0.22855294
