Models/Reward_shaping_vm/RS_scaleup_mag_vm_11_0/71000.pth (torch, 78437 bytes, 11 tensors)

actor.0.weight f4 [64, 62]
00000000: dd90 b6bd b6d6 5fbb 32a3 fc3d bf7e acbd
00000010: 6b42 89be c44d 4ebe 1640 cb3e d70b cd3e
00000020: f532 b7be 8387 0dbe db46 b33d 4649 8e3c
00000030: 0626 86be 86ef e7be 18e3 173d 2517 c13e
00000040: 6ac6 cebd a43f 873d 75e6 9d3d 6101 8a3d
00000050: ebf0 c03d 2610 683d b102 af3d 23ac aa3c
00000060: 8996 b03d 8a23 e5bd 1b8f 8ebc 0677 6fbc
00000070: e652 d33e 0005 3a3e 272e 5b3e 084d 313c
00000080: 6045 85bd 865c 28bd 6e23 c83d 2c6e dcbd
00000090: 6418 e33d 9ee1 86be e93a 12be 2a3f 04be
000000a0: fbf4 94be 49e1 7abc 0391 a43d f772 fbbd
000000b0: fed6 6fbe f543 b03c 5c33 cb3b f200 5dbd
000000c0: 61ef ec3d 4d1a 1fbe 1d7f de3d bf16 3a3e
000000d0: 1274 2fbc f00b 11be 9462 23be f200 193e
000000e0: 50a4 19be 4a07 e23b 60f8 c43c 601c a23d
000000f0: 8bff 6f3d 4dab e03d 9d1d d9bd 4436 6cbd
00000100: 6622 8c3d 67f7 9c3d a83e 1bbe 6176 063d
00000110: f649 42be 5e75 f4be c376 8ebe 5c95 6a3e
00000120: e4a2 b23e 7c72 0d3f 203d 053f 85ea c5be
00000130: 3390 c33c 2199 17bf 0e9a c93d 5957 e83d
00000140: fb32 4cbd c576 ffbd 91ca 24bd 028a 8fbd
00000150: 6684 dd3d 6789 f53d 8347 863d 1789 31bc
00000160: ddc2 fabd 787a 153c 28e6 4a3e ac7e aa3d
00000170: 3332 6dbe 2344 6fbd b1f1 923d 6d6b 003e
00000180: 73d6 d53d 4f78 8dbd f0e4 c5be 64a5 71be
00000190: 1456 253e 401a 433e 7a08 a0bd d51a 6fbe
000001a0: 5a9c 293d 1905 9f3d 38f0 a4bd 6279 1abe
000001b0: 2675 783d f00c 35be 51f6 20be ba44 96bd
000001c0: defd 97be 93fa 98be 4c60 79bd d1be 83be
000001d0: 0839 563d 3138 a63e 1094 c6bd 6d36 88bb
000001e0: ce5e cfbc 76f1 a43c 38a6 20be 1466 cebe
000001f0: cc85 84bb 3c95 12bc a04e 873d 8c8d 96bd
00000200: 6a39 2ebd 9837 203e 4f8f 3fbd c08a 803e
00000210: 6dbf dabd fca8 2abd 676b 70be daa9 babe
00000220: 9a39 d33e 2e1f d63e e7eb 643e 760a e73d
00000230: 4d47 eabb 780d aa3d 4924 003e e209 923c
00000240: 8541 b2bd 4847 24bd b74c ca3c fc2a f53c
00000250: c6dc a13c 4031 4abd 2b23 e83c 799b e13d
00000260: 5bb5 3dbe 1419 d9bd c3f1 6abe 4428 a3be
00000270: 5313 eb3d 1324 6a3d 4081 f7bb b4e8 8bbb
00000280: 8ab4 463f 2dcb 1b3f ab09 c0bb 1a14 6f3d
00000290: bc92 c13d 3f8f 453f 4899 16be a116 38bd
000002a0: 011a d7be 699c 4ebe ee64 c9bd bce4 76bc
000002b0: a810 aebe b8e0 83be b448 4abe 779e 823b
000002c0: 9d85 ee3d 04d9 9fbc dda6 1dbe a415 4a3c
000002d0: e8f3 9f3e 64c6 fc3d 825c 3dbd 5572 5f3e
000002e0: e810 8a3d 9411 0cbe ed96 663b 0b02 14bd
000002f0: 73ea d13b 9660 45bc 594d 88be b394 cabd
00000300: 9673 c83e c9e8 063f 2f71 debd 6438 f5bd
00000310: 417c 273e 5b75 58bd 20cc e1bd 6ff8 d0be
00000320: fb92 c8bd 1448 233e 2cab a03d a47a 0d3d
00000330: 89a4 4bbd df63 a13d 11bb 17bd ae2c 90bc
00000340: 0820 a4bd 0771 993d baa2 cbbc f7cd 933d
00000350: 46bd e9bd ec4b eb3d b068 d83e 5d0d 57be
00000360: 5846 353e d718 843e 99ab a83c ba08 933d
00000370: 04c1 2abd ef80 ac3d 0bb5 3fbe e8df 56be
00000380: a559 993d f58c 5cbe ee06 84be 43b4 5bbd
00000390: 1cdf 143e 2f92 f5bd a9ae 15bd c92d 0c3e
000003a0: a975 143e 375c 1b3d 1cbe b1bd c27e ae3d
000003b0: 52d4 ab3d cc1a e43d 35c9 8dbd 4004 90be
000003c0: 3918 a8bc a8eb 603e b307 11be c533 63bb
000003d0: 4920 01be 63b1 ecbd ad7b c63d 7d2d 143e
000003e0: 03a0 12bd 6595 13bc e52e debd 1868 9e3c
000003f0: 4769 7cbe 4d06 87bd 9a11 ee3e 870c ea3e
-0.08914349 -0.0034155077 0.123358145 -0.084226124 -0.26808485 -0.20146853 0.3969733 0.40048096
-0.35781065 -0.13821225 0.08753749 0.017368924 -0.26200885 -0.4529993 0.037081808 0.3771297
-0.10096438 0.06603935 0.07709972 0.06738544 0.094209515 0.056656025 0.08545435 0.020834034
0.08622462 -0.11188419 -0.017402222 -0.01461578 0.41274184 0.1816597 0.21404324 0.010821588
-0.06507373 -0.041103862 0.09772383 -0.10763201 0.110886365 -0.26344007 -0.14280285 -0.1291472
-0.29093155 -0.015312501 0.08035471 -0.12277787 -0.23421857 0.02151678 0.006201191 -0.05395598
0.115690954 -0.15537377 0.10864089 0.1817274 -0.010708826 -0.1416471 -0.15955573 0.14941767
-0.15004086 0.0068978416 0.024044216 0.07915568 0.058593314 0.10970173 -0.106013514 -0.05766894
0.068424985 0.07664376 -0.1516062 0.03282774 -0.18973526 -0.47745794 -0.27824983 0.22908539
0.348899 0.55252814 0.52046394 -0.38655487 0.02387247 -0.5921803 0.09843837 0.11344785
-0.049853306 -0.12473825 -0.040232245 -0.07008745 0.108162686 0.11989098 0.065566085 -0.010835907
-0.122441985 0.009123437 0.1981436 0.08324942 -0.2316368 -0.05841459 0.07175005 0.1254098
0.104412936 -0.06907713 -0.38651228 -0.23598248 0.16146117 0.19052982 -0.07814117 -0.2335008
0.041408874 0.07764644 -0.080536306 -0.15085366 0.060658596 -0.17680717 -0.15718962 -0.07337327
-0.29685873 -0.29878673 -0.06088285 -0.2573152 0.052300483 0.32464746 -0.096962094 -0.0041568787
-0.025313761 0.020134669 -0.15688407 -0.40312254 -0.00404427 -0.008946713 0.066067934 -0.07351217
-0.042535223 0.15646207 -0.04676753 0.25105858 -0.10681043 -0.041665062 -0.2347847 -0.3645771
0.41254884 0.41820663 0.22355615 0.11281292 -0.007149613 0.0830335 0.12513842 0.017826978
-0.08703903 -0.04010704 0.024694784 0.029927723 0.019758593 -0.049363375 0.028337082 0.11015982
-0.18526213 -0.106004864 -0.22943787 -0.31866658 0.11478295 0.05716331 -0.0075532496 -0.0042696837
0.7761923 0.60856897 -0.0058605275 0.05836878 0.094518155 0.771717 -0.1470691 -0.044943456
-0.42012027 -0.20176853 -0.09833704 -0.015069183 -0.33997083 -0.25757384 -0.19754297 0.0039861756
0.116465785 -0.01951266 -0.15395685 0.012334261 0.31240773 0.123425275 -0.0462308 0.21820958
0.06741506 -0.1367858 0.0035185174 -0.03613476 0.0064061224 -0.012046954 -0.26621512 -0.098916434
0.39150685 0.5269895 -0.10861432 -0.11973646 0.16355993 -0.052846294 -0.11025262 -0.4081454
-0.09793659 0.15945464 0.078451484 0.034540787 -0.04971746 0.07880377 -0.037043635 -0.01759943
-0.08013922 0.074922614 -0.024857868 0.07217019 -0.11413054 0.1148909 0.4226737 -0.21001191
0.17702615 0.258002 0.020589637 0.07179399 -0.04168798 0.0842303 -0.18721406 -0.20983851
0.074878015 -0.21538146 -0.25786537 -0.053638708 0.14538234 -0.11990773 -0.036543522 0.1368934
0.14498009 0.03792974 -0.086788386 0.08520271 0.08390106 0.111379236 -0.06923143 -0.28128242
-0.020519363 0.21964896 -0.14163093 -0.0034668308 -0.12609972 -0.11557271 0.09691558 0.14470477
-0.03579713 -0.009007786 -0.10848788 0.019336745 -0.24649535 -0.06592999 0.46497804 0.45712683

actor.0.bias f4 [64]
00000000: 3140 f53d d2e3 3ebe f3e3 db3b 49c8 70bd
00000010: 9481 133e 81a5 193d b510 f93d 19b2 12bd
00000020: e1d2 5e3d c4b5 05be 17da 15bd 822b 333d
00000030: 3bea b33d b092 35bd ad2f 8e3d 88c4 c63c
00000040: 474a 8c3d 71c3 0fbd 1fad e9bb 7375 b5bd
00000050: 5828 76bd af26 1abe 7efc 303b c2cc 66bc
00000060: a566 70bd 9a44 e73d 9452 24bd 98ee 8a3b
00000070: dcc4 d43d d69b f83d 2a95 b4bc cfaf 8e3c
00000080: 9e09 de3c 187d 923d abbb 9f3d 0a31 45be
00000090: 07d1 16bc d5fa 15be 87de 4dbd 089f 253d
000000a0: 576d a9bd 2430 cbbc 9a9d fb3d b2da e4bd
000000b0: 9cf7 fbbd 319f 83bc 8776 ad3d 9a02 643d
000000c0: a1cd 5bbd 9025 54bd 3bfb 95bd 2c76 d7bc
000000d0: dee0 863b 2bad 07bd 560a cb3d 820c a0bd
000000e0: 6e70 09be 62ab c3bd 7b63 1f3d 192d 1f3e
000000f0: 8596 9a3c 2a44 2d3d 25e7 9abd a425 dfbd
0.11975134 -0.18641594 0.0067105233 -0.058784757 0.14404899 0.037511352 0.1216139 -0.03581438
0.05440033 -0.1305762 -0.03658494 0.043742664 0.0878491 -0.044329345 0.06942687 0.024263635
0.06850105 -0.035098497 -0.0071312333 -0.08860292 -0.06009707 -0.15053819 0.0027005966 -0.014086904
-0.05869164 0.112923816 -0.040117815 0.0042398684 0.103891104 0.12139098 -0.022043783 0.017417816
0.027104195 0.07152766 0.07799467 -0.19256988 -0.009205109 -0.14646466 -0.050261047 0.040434867
-0.08272808 -0.024803229 0.122859195 -0.11174525 -0.12303087 -0.01606712 0.08469873 0.055666544
-0.0536629 -0.051793635 -0.07323309 -0.026301466 0.0041161617 -0.03312413 0.09914081 -0.07814886
-0.13421795 -0.09554173 0.03891323 0.15544547 0.018870601 0.042301334 -0.075636186 -0.10895851

actor.2.weight f4 [64, 64]
00000000: 879b 263e 6ea5 93bc 4680 12bf 0ccd 853e
00000010: 1061 4ebd 05e5 6cbe f343 23be 0acb 0f3f
00000020: 70d1 e4bd 2d72 7e3e 899a df3e 0ed2 6c3e
00000030: babc 44be 707e ac3d 3012 b63d 9bd1 953d
00000040: 45f4 0abe 6eb6 fd3d bd68 82bc 338a acbe
00000050: e782 163e 4fb8 36bd 7f69 4cbd 5c2d cdbd
00000060: 0196 ccbd 4004 753e 9289 493e 7b7f a1be
00000070: 0bb4 1e3e 4288 933e 9c5d a0bd 593d 903e
00000080: f7a0 5bbe 3ada b23d 1c33 7e3d 2a9b b43e
00000090: bbf1 44be ba4e a93c e186 3fbe 318d 9e3d
000000a0: 319f 1bbd ecae 53be 3e28 7ebd 7a88 d33e
000000b0: 0ff4 da3d 050d ba3e 98d4 813e f3e1 e4be
000000c0: b0a7 c238 e806 843d 7158 ac3e a8a3 00bc
000000d0: 8fd8 7cbe 6f8d ad3c 11d4 cfbd c179 c93d
000000e0: 249b 0ebe 5a70 e03c eef3 293e 0a4d 50be
000000f0: 7d71 a3bc b71e d3bc 1cb6 b93e de5a cd3d
00000100: a868 5e3d d062 fdbc 1f35 c7be 547b d63d
00000110: d08c b1bc dcbb 7f3e 3e82 083d c74c 3f3e
00000120: c87a c0bc 5297 96be 0585 9e3e aaf5 873e
00000130: c962 55bd aeee 0a3e eac8 72be e29a 7e3c
00000140: ede7 90be 21ee 8cbe 0dd5 abbe ba44 1b3c
00000150: 1bf1 1c3e 1251 9dbd 3f34 71be ca20 033e
00000160: 5fa3 6ebe 0afc 973d 5d7f 333e a592 a5be
00000170: a560 86bd 023b e23d 0dab 86be 5728 1e3e
00000180: 54b1 27be 3069 9e3e 8e35 8d3c 2b83 8f3d
00000190: 1152 fb3d ce03 893e db9e 1dbe 40e6 2abe
000001a0: a81d 983e 9055 a2bc a969 253e c00e 4b3d
000001b0: 7d41 423c ad72 963e aba3 3d3e 3237 debd
000001c0: d1a4 bbbd 8bea 193d bf2b 8e3e c882 d8bd
000001d0: 8718 2fbb 8f90 343d 30f1 473e 7a7b 9cbe
000001e0: 641d 34bc 4334 0a3e f09e 05bd 0d31 fb3c
000001f0: 042c 933e bb9f 54be a852 443e ae48 5b3d
00000200: ec6f a53e 839f 8abe abd5 643e bfb8 ff3d
00000210: 6da4 ae3e 49bc d0be 381d 8d3e 026f 90be
00000220: 6ec2 273e 398f 2d3d c122 9c3e bd99 bdbc
00000230: e04f 3bbe 5602 79be 2e99 8a3e cf44 043e
00000240: 6248 943d 1cf7 e73e a484 f5bc 0698 87bc
00000250: c41e cf3b 63b0 ee3c f266 413e 1ac2 983e
00000260: e2a2 ad3d c037 a23e 0cfc 823d 6b7f a63e
00000270: 19b9 3d3e e0db a23e 1923 163e 29ad 27be
00000280: 785d 1b3e 2d42 1d3e bc1b c3be 9961 343e
00000290: 6839 0b3e 4a06 76be 79eb a3be ac31 673e
000002a0: 2b77 b8bd 4259 bbbe d8c0 9ebb 5780 873e
000002b0: f4cd f8bd 458e 3dbd ebbb ab3e d252 873c
000002c0: ba92 f4be 611d 1c3e 2494 57bd 2d6f 23be
000002d0: e5c3 9c3d bd19 ce3c d844 0ebe e420 963e
000002e0: aea5 acbd c4ab 73be 7947 463e d5b2 42bd
000002f0: acac 31be 9c2f 3f3e a4fd 04be 4c28 4f3e
00000300: 140d 173e b5f3 eebe b8c0 c33e 5714 b5bc
00000310: 5d17 d63e e58c 10bd 5dc7 3bbe b906 e0bd
00000320: 7531 a2bb 8c7f 563e 3285 423e 0d43 8c3e
00000330: 7f52 77be 28ba 93be 58ce 883e 67c0 c0be
00000340: afe2 bebd a214 703e 64ca 113e 9481 e43b
00000350: 0eb4 373d 4b20 f23d 6b57 f1bd def1 ce3e
00000360: 9ef0 813e 4197 6d3e 823e 893e dc31 a93b
00000370: 646d 32be 626b d4bd 5ca2 843e f0c5 5fbe
00000380: 8643 8b3e 8104 4b3e d246 1cbf b05c 82be
00000390: e3de 1b3d 8571 a03e bc26 b53e 6dc7 1a3f
000003a0: 8579 023e d698 bdbe 9113 c53d 7f47 593e
000003b0: 174f bdbd 44dc 16bd 64c1 503e 0f0b a6be
000003c0: d4f3 f63d 613e 033f 0871 3abe 43b5 a1be
000003d0: 09b4 893d fe1a 063e 068b 9fbe a7e2 8fbe
000003e0: 685b 15bd 516b 2cbd f806 e1bd 4d71 8cbd
000003f0: 76fe 8ebe 0cb2 f13e 3b9f 623e efe1 0dbd
0.16270266 -0.018023219 -0.5722698 0.26133 -0.050385535 -0.23134239 -0.1594389 0.5616919
-0.111727595 0.24848242 0.43672588 0.23127005 -0.19212618 0.084225535 0.08890188 0.0731537
-0.13569744 0.12388311 -0.015919084 -0.33699188 0.14698373 -0.044609364 -0.049905296 -0.10018417
-0.099895485 0.23927402 0.19681385 -0.31542572 0.15498368 0.28814894 -0.078303546 0.28171805
-0.21448122 0.0873303 0.06206046 0.3527463 -0.19232838 0.020667423 -0.18703796 0.07741774
-0.037993614 -0.20672196 -0.062050097 0.4131506 0.10691082 0.36338058 0.2535751 -0.44703636
9.281875e-05 0.0644663 0.33661225 -0.007851519 -0.24691986 0.021185605 -0.1014787 0.09837676
-0.13926369 0.027397323 0.16596958 -0.20341888 -0.019951576 -0.025771482 0.3627175 0.10027097
0.054299027 -0.030930907 -0.38907716 0.10472742 -0.02167359 0.24974006 0.033327334 0.18681632
-0.023496047 -0.29412323 0.3096086 0.26554614 -0.052096162 0.13567612 -0.23709455 0.015539857
-0.28301945 -0.27525428 -0.33560982 0.009476835 0.1532635 -0.076814786 -0.23555087 0.12805477
-0.23304509 0.074211195 0.17529054 -0.32338443 -0.06561402 0.11046411 -0.26302376 0.15445076
-0.16376239 0.30939627 0.01723745 0.0700744 0.12271512 0.26760715 -0.1539263 -0.16689396
0.29710126 -0.01981619 0.16153587 0.049574614 0.011856434 0.29384366 0.18519466 -0.108503714
-0.091622956 0.037577193 0.2776775 -0.105718195 -0.00267175 0.044083174 0.195256 -0.30562955
-0.010993335 0.13496499 -0.032622278 0.030663038 0.2874452 -0.20764057 0.19172156 0.05353611
0.32311952 -0.27074823 0.22347133 0.124864094 0.34109822 -0.4076865 0.27561355 -0.28209692
0.16382763 0.042372916 0.30495265 -0.023144597 -0.18292189 -0.24317297 0.27069992 0.12916873
0.072403684 0.45305717 -0.029970475 -0.016551983 0.006320806 0.029136842 0.18886927 0.29835588
0.08478333 0.3168316 0.063957304 0.32519087 0.1852764 0.31808376 0.14661826 -0.16374649
0.15172374 0.15357275 -0.38107097 0.17615356 0.13596117 -0.24025837 -0.3201559 0.22577542
-0.090071045 -0.36591536 -0.004844766 0.26465103 -0.121486574 -0.046278257 0.33541808 0.016518984
-0.47768193 0.15245582 -0.052631512 -0.15960379 0.076545514 0.025158757 -0.1389345 0.2932197
-0.084300384 -0.23795992 0.19363202 -0.04753383 -0.17351025 0.18670505 -0.12987381 0.20230216
0.14751083 -0.4667031 0.3823297 -0.022104425 0.418147 -0.035290617 -0.1833777 -0.10938782
-0.0049497434 0.20947093 0.18996122 0.27394906 -0.24152564 -0.28852963 0.26719928 -0.3764679
-0.0932058 0.23445371 0.14237362 0.0069734547 0.044849448 0.11822566 -0.11784252 0.40418905
0.2537889 0.2320223 0.26805502 0.0051634144 -0.17424542 -0.10372044 0.2590512 -0.21852851
0.27199954 0.19825937 -0.61045563 -0.2546134 0.03805436 0.3133661 0.35381114 0.6046055
0.12741669 -0.37030667 0.096228726 0.2121868 -0.09243601 -0.036831155 0.20386273 -0.32430312
0.12058225 0.5126706 -0.1820718 -0.31583604 0.06723792 0.13096234 -0.31160754 -0.2810261
-0.036464125 -0.042094532 -0.10987657 -0.06857548 -0.27928513 0.4720615 0.22131054 -0.034639295

actor.2.bias f4 [64]
00000000: 18b0 b43b 49b9 8f3c bc73 e03d ec9b 23bd
00000010: 7870 dd3d 4fa7 b73c 3f9c b23d f12e ddbd
00000020: b242 13bd 59f8 c83d b93b 0e3e a7a3 2ebd
00000030: d895 e63c 97d6 f1bd 8530 86bc 4f8d 00be
00000040: 69c9 edbc 9a2e d03c a800 0abe a4cc 99bd
00000050: 63a3 d33c 0a2d 16be ebc1 73bd 90d1 12be
00000060: 6013 30bd c914 bfbd a7a1 163a fc53 0abe
00000070: 6b5a 453e 82cf 993c 9677 6d3d 497d 85bd
00000080: 1787 0fbe 5c48 de3d 1cc5 33bd 5c11 b4bd
00000090: 4404 5f3b 56f9 00be 3a49 02be ae03 743b
000000a0: a1ad ee3c 8c7e 113d ef1f 913d 37cc 12bd
000000b0: cccd 4c3d 0993 ec3d 9386 3bbd 5110 d8bd
000000c0: 06f2 553c 5b66 ec3d 2f79 273e 7b2b 263e
000000d0: daae 073d f7f6 5ebd 6048 03be 7c9e adbd
000000e0: f67d b9bc e9bf 07bd 1149 0abc a275 e03d
000000f0: 919a 14be 2210 16bc e142 ecbc 60c4 dabd
0.005514156 0.017544406 0.109595746 -0.03994362 0.10812467 0.022418646 0.08721208 -0.10799969
-0.035952277 0.098129936 0.1388997 -0.04263654 0.028147623 -0.11808508 -0.016380558 -0.12553905
-0.029026704 0.025412846 -0.13476813 -0.07509735 0.025834745 -0.14665619 -0.059511106 -0.14337754
-0.042987227 -0.09330136 0.0005746134 -0.135086 0.19272773 0.018775705 0.057975374 -0.06518037
-0.14016376 0.10853645 -0.04388915 -0.087923735 0.0034029642 -0.12595114 -0.12723246 0.0037233639
0.029135527 0.035521075 0.07086169 -0.035839286 0.05000095 0.11551482 -0.045782637 -0.10549987
0.013058191 0.1154296 0.16354822 0.16227524 0.033125736 -0.054434743 -0.12820578 -0.08477494
-0.02264307 -0.033142004 -0.008440272 0.10959937 -0.14512087 -0.00915912 -0.028840484 -0.10681987

actor.4.weight f4 [36, 64]
00000000: 0309 f33d a36c 8cbe 28d6 eb3e f79b 5f3d
00000010: 3dc3 2f3f 7042 92bf a780 033f a942 48be
00000020: a417 abbf 123d 8ebe 8186 143f 0c8b cdbe
00000030: 422b efbe ca04 0b3f 87fd 37bf cc2d 6d3d
00000040: efaf 183d 1cf8 00bf fe8b a7be 4d9c cebd
00000050: 519b 16be 573d 493d 6eab adbd 1335 793e
00000060: 5dd8 95bf 700a 6e3d 9bbd a63d c2d5 083d
00000070: b66e 153e 3d7d 813e 2162 02bf 2f3b 75bd
00000080: bc7d ce3c c21e 7a3e 53ad b6ba 73f4 bbbc
00000090: 13c2 72bc 52ea aabd 6ff8 423e db12 183f
000000a0: 0c9a dcbe 64af 293d 632b 8c3c 1ec2 1f3d
000000b0: 21d9 1cbd 57de 65bf 4f1c d73e 571d bcbe
000000c0: 64b2 e1be dd68 2abe b123 70bf 934a 06be
000000d0: 8c17 afbe a632 8abf 949a 22bf 69a6 89bb
000000e0: 01d2 b0be 1a4c f2be b595 93bf 4113 37bf
000000f0: 8a6f b93d 12e4 2c3f de61 0a3f 1d66 3abe
00000100: 1077 4d3e 9799 4ebf 3e61 6dbe 11af 9abe
00000110: 4ea5 4ebe 8a45 61bf 78d5 1abf 9e56 803e
00000120: 66be 3ebf 44ec 043f 8ffd e4be 5f4c ec3e
00000130: a0d3 e33e 831f 953e d2bc 4ebf 9bb1 76bd
00000140: 6035 b1bc 8b50 5fbf 79ec 6cbf af97 bd3e
00000150: 7ef0 033f be91 b8bd 213a ca3e 8c1b 15be
00000160: 5c3a fcbd dea3 f63d 2853 0ebe 5108 dfbd
00000170: 836c 973e 21bf 81be 37cd 0f3f 03a3 3d3c
00000180: bcae a0bd c2be 27bd 1420 0abd 3c5f 463d
00000190: 98f3 cfbc f3b9 73bd e8b4 fdbe 6ca3 37be
000001a0: 2de3 49bf df98 bf3c a3b6 c4bd baf4 a6bd
000001b0: f71b 003f 8fc4 36bf 3109 9abe 577c 9b3d
000001c0: e18b ca3e d0ee eb3e 2fa5 123e eef8 39be
000001d0: 96a2 173f 8d72 b2bc c71c 81bf 4d16 ad3d
000001e0: 24a2 dcbd cedf e43e b3b4 7cbf d4d0 98bf
000001f0: 5d48 7e3b d1a3 63be 2060 0ebf f8b7 8b3e
00000200: 557c 553e ea33 8fbd 5807 d83e 8714 d53e
00000210: 5681 813e 0fc9 8cbe 6d4d 1fbe 9613 e73e
00000220: b821 51bf 999b 4abe 47dc a33d d258 023f
00000230: d1d3 9f3c dc06 263d b201 753e 93bb 8abd
00000240: ddbf a83e a25e 8dbf 05f3 28bf 06c1 c63e
00000250: 5569 293d 08c8 3d3c e447 ffbe 4528 c73e
00000260: f607 77bf b36b f8bc b022 073d c9f1 1cbb
00000270: eb45 16be 4d59 69bf fd02 143f be26 abbd
00000280: a2f0 debd fb69 8d3e 2f25 d3bc e2b5 ecbd
00000290: bafb a3bd 7995 723d 5516 8ebe fed5 893e
000002a0: 0a0d 74bf b9e5 a9bd 5de8 843d 5aef 92bd
000002b0: 1b58 db3e 9b9e 15bf fb74 8f3e 18a4 9fbe
000002c0: 5e56 fc3d 263c 9dbe 195c 81bf 7fb2 2a3d
000002d0: 292f 8cbe 01dc 64bf 4c0e 86be 3fe1 133d
000002e0: 49ee dc3e d1a1 9bbe 7f94 1abf 98bc 8ebe
000002f0: ae02 f83c c22a f6be bda4 743e d8ff 353e
00000300: e24b 75be 90b2 ee3d d901 63be c0f7 af3e
00000310: d35d f13d 6ec3 b3be 416e 1c3d 9c30 af3e
00000320: 37af 7dbf 78e9 2b3e fd25 45bc 1511 993e
00000330: adc0 aabe b08a d93d 4003 8dbe 644f efbd
00000340: f8b3 343c 15a4 09be 596e fbbe e7b3 003f
00000350: 56bf 993e 819d f43d e77d 053e 30d2 f83d
00000360: 9859 cdbe 5094 a7bd 77be 39bd 0666 7fbd
00000370: 0833 bc3e b773 58bf 9257 483d f728 f63b
00000380: 1249 113e 1140 c53e 986c 0fbd 945b aa3d
00000390: 281c 3fbd bbfe f43d 410d 3fbe d011 623d
000003a0: c76a 69bf b771 bc3d 8a6e a3bd a407 16bd
000003b0: 840d 813e 3eb0 f7be c02f 4c3d b65d 1b3e
000003c0: 0eba 0abf df4a 42be 4848 38bf fd10 80be
000003d0: b42a babc 0853 0ebf 61cb b2be b0f6 8dbd
000003e0: 2a47 bc3d 416e 963e 383e 13bf f0ba 3fbf
000003f0: ea80 053e b0dc d23e 5198 d4be b57e 943d
0.11866953 -0.27426633 0.46061826 0.0545921 0.68657285 -1.1426525 0.5136818 -0.19556679
-1.336659 -0.27780968 0.58017737 -0.40145147 -0.4671269 0.5430418 -0.7187123 0.057905003
0.03727716 -0.50378585 -0.32723993 -0.10088406 -0.14707686 0.049130764 -0.08479963 0.24336652
-1.1706654 0.058115423 0.08141633 0.03340698 0.14593014 0.25290862 -0.5093098 -0.059870895
0.02520644 0.24425796 -0.0013937153 -0.02294371 -0.014816779 -0.08345474 0.19040082 0.5940377
-0.43086278 0.04142703 0.017110532 0.039003484 -0.038293008 -0.8979239 0.42013785 -0.36741135
-0.44081414 -0.16641565 -0.9380446 -0.13114385 -0.34197652 -1.0796707 -0.6351712 -0.004200746
-0.3453522 -0.47323686 -1.1530062 -0.71513754 0.090544775 0.6753551 0.54055583 -0.18203016
0.2006495 -0.8070311 -0.23181626 -0.3021169 -0.20180246 -0.87996733 -0.6048198 0.25066084
-0.74509275 0.5192301 -0.447247 0.46152017 0.44497395 0.29125604 -0.80756867 -0.06022797
-0.021631896 -0.87232274 -0.9254833 0.37029788 0.51538837 -0.09012173 0.39497474 -0.1456129
-0.12315819 0.12042974 -0.13898909 -0.10890258 0.29574975 -0.25341132 0.5617251 0.01157451
-0.07845828 -0.040953405 -0.033722 0.048430666 -0.02538471 -0.059503507 -0.49552083 -0.17933434
-0.7886227 0.023388324 -0.09605148 -0.08152147 0.5004267 -0.71393675 -0.30085137 0.07592075
0.39559844 0.46080637 0.14320825 -0.18161365 0.5923246 -0.021783138 -1.0086907 0.08451519
-0.10773113 0.44702 -0.98713225 -1.1938729 0.0038800456 -0.2223046 -0.55615425 0.27288795
0.2084821 -0.06992324 0.42193103 0.41617224 0.25293988 -0.27497146 -0.1555688 0.4513213
-0.81692076 -0.19785918 0.08000999 0.5091678 0.019510182 0.040533885 0.23926428 -0.06774058
0.3295888 -1.1044505 -0.6599582 0.3881914 0.041360218 0.011583336 -0.49859536 0.3889791
-0.9649652 -0.030324792 0.032992065 -0.0023947826 -0.14675109 -0.9115189 0.5781706 -0.08356999
-0.10885741 0.2761992 -0.025774566 -0.11558129 -0.080069974 0.05922458 -0.27751413 0.26921076
-0.95332396 -0.08295769 0.06489632 -0.07174559 0.42840657 -0.5844514 0.28018937 -0.3117988
0.12321161 -0.30709952 -1.0106231 0.041674133 -0.2737973 -0.893982 -0.26182783 0.036103483
0.43150547 -0.30396894 -0.6038284 -0.2787826 0.030274715 -0.48079497 0.23890968 0.17773378
-0.23954728 0.11655152 -0.22168674 0.34368706 0.11785474 -0.3511004 0.038191084 0.34216774
-0.9909548 0.1678828 -0.012032983 0.29895845 -0.33350125 0.10622156 -0.27541542 -0.116850644
0.011029236 -0.13441499 -0.49107626 0.5027451 0.3002879 0.11944104 0.13036309 0.12149465
-0.40107417 -0.08182585 -0.045347657 -0.062353157 0.36757684 -0.84551567 0.04891164 0.0075122076
0.1418803 0.3852544 -0.035015672 0.083182484 -0.04665771 0.119626485 -0.186574 0.05519277
-0.91178554 0.09201377 -0.07980068 -0.03662838 0.25205624 -0.4837665 0.049850225 0.15172467
-0.54190147 -0.18973874 -0.7198529 -0.2501296 -0.02272544 -0.55595446 -0.3492079 -0.069318175
0.09193261 0.29380992 -0.57516813 -0.7489462 0.13037458 0.41183996 -0.41522458 0.0725073

actor.4.bias f4 [36]
00000000: a9a9 cebd 83f8 89be aa1b c6be 2b57 67be
00000010: abc0 a73d 47ef 913c 1969 c93d 5a27 873e
00000020: 14d1 583e b706 c93d c147 3c3e 63b8 89bc
00000030: ba6b 50bd e2b7 813e 5698 023d 24bc 3fbc
00000040: 7f9c 05bf ae42 86be 1f1c b6be 766d 09bf
00000050: 3f9f 09bf b364 903e 820e 023c 5157 453e
00000060: 7c35 343e f77e 483e 2570 d23d 7c29 cf3d
00000070: efdb 863c e8cd f43d 0c0c c13c f768 fd3d
00000080: 3270 80bd b235 a23d 3417 053e da82 f03d
-0.10090954 -0.26947412 -0.3869298 -0.22591846 0.081910454 0.017814292 0.09834499 0.2639721
0.21173507 0.09815734 0.18386747 -0.016811555 -0.050883986 0.25335604 0.03188356 -0.011702571
-0.5219192 -0.26222748 -0.3556833 -0.5368265 -0.53758615 0.28201827 0.007938029 0.1927159
0.17598528 0.19579683 0.10275296 0.101153344 0.016462294 0.11953336 0.023565315 0.12373536
-0.062713996 0.07920398 0.12997133 0.11743708

critic.0.weight f4 [64, 62]
00000000: 83e8 dfbd 0c98 773c 625f c7bc eed7 babc
00000010: f1df 533d a850 19be 5b15 e8bb 2f88 aa3d
00000020: 1834 a33c 8100 823d 4522 d03d bf6e 56bd
00000030: 12a8 1bbe 58d5 80bd 4481 373e a1a3 45be
00000040: 746a 543d 22eb eebb b5f9 703d d100 ef3c
00000050: 7970 1a3c 587f f43d 50af 8a3d 5a7e a7bd
00000060: fe83 e03d 417a 82bd c27d d8bd 5e61 dbbd
00000070: d9b1 b8bd 8c7a c73d 74d2 e2bd ebb6 853d
00000080: 0091 dc3d 46d0 d53d 82fb a03c e5a5 803d
00000090: 99aa 813d c695 193d 8f0c ed3c 67a4 723d
000000a0: 1b1e a93c 11f7 ebbd 2845 143b 6fd7 9e3c
000000b0: 7d8e 673c b901 1ebe f9cf d23d 7587 c9bd
000000c0: a934 d3bd 06e7 e6bd 281a 1abd 638e 913d
000000d0: ab4b ee3d db98 9abd ee4f adbd aac2 3fbe
000000e0: 8deb 01bc 3152 6d3c 4f21 92bd 96d7 a63c
000000f0: 00d8 03bd e4f9 18bc db8c d7bc 2e2f 8e3d
00000100: a7f2 223d b82f 9ebd 893a 33be e21d 2abd
00000110: 4109 84bd 2610 583b a2ca 6e3e 8e3e 10be
00000120: 50b6 64bd e553 0cbe 71c5 f1bd e6a7 f5bd
00000130: 1e18 7dbc fd8d 573e ffce 243d 19c2 9fbd
00000140: cea8 adbd fc4f 4cbd 1dae b8bc e4a9 7b3b
00000150: e4ef e53c 1f7d e0bd cc07 a73b dd7f c8bb
00000160: 4484 573d b484 f33d fe0a 0cbd 19d2 133d
00000170: e6e3 b7bd 476f 983c ae5b a63c 24c5 ab3d
00000180: e54a 36bc 503c 673d cdcd 24be b2e1 55bb
00000190: 1f48 42be ffe7 efbc f551 aabd ac9c 32be
000001a0: 8599 3c3d e5e6 40be f957 ef3c f1c1 c1bd
000001b0: f7ec 883d 48f9 0c3d c485 c4bd da62 de3d
000001c0: e87c 073a 8b1b c9bd 13e7 bb3a f6eb 20be
000001d0: d025 47be 78b0 3abe cfb8 80be 44a4 2abd
000001e0: 0946 2fbe b157 193d 1dce 42bd 76f8 3cbe
000001f0: 8f17 00be 6337 1bbd e963 a3bd f6d7 e83d
00000200: efdd 74bc b644 b43e 6a17 ff3e ae46 b63d
00000210: 9031 71be 887b 413e bc3c 083e 2651 1b3e
00000220: 8126 233d aa21 193d 772f 89be 6598 d33d
00000230: 2096 57bd 255a 9f3d ce98 d03d 31de f9bd
00000240: 47a2 d8bd a4d0 e63d 8b20 dfbd 0380 993d
00000250: 5e17 bf3d f9f3 6d3d 8f71 aabb 7e83 e1bc
00000260: 9c4e 473e dbaa 93bc 67c1 173e 77f6 263e
00000270: 9a51 85bd f469 073d df76 ca3d a454 183d
00000280: 0ff8 4e3d 8f52 4fbc 0971 ba3d 3bcd 72be
00000290: 7f4e 39bf 3ad0 4dbd 7be1 233e 7625 62be
000002a0: bd2c a0be 9c8c 94bd 8093 723c 7e34 65be
000002b0: 6b5d e5bd 5481 43be fbb4 073e 6e15 e1bc
000002c0: eb43 873c 88a1 b0bd 60d6 023e acec 333e
000002d0: 9d90 4c3e 0441 2c3d f955 0dbe bc24 a13d
000002e0: a6a8 17be 6341 dabd 7f61 823d 1933 973c
000002f0: 8452 17bd eecb 5e3d 1da2 173d 5dc9 eabe
00000300: c9ec c7be 29d4 e3be ab31 0f3e e017 35be
00000310: e13f 99be 88ab a0be ff3f 07bf 4704 68be
00000320: 1f91 c9be b26a 74be 2bb0 43bd 661f 7d3c
00000330: ed04 473d b9db 18bc 6c41 923d 6cdc 58bd
00000340: b7d7 e73d c37a fdbd fb56 3fbd ac82 e53c
00000350: 2d0e 8ebd 973e 973c fbad 50be e48a 6ebe
00000360: 716d 8fbe 9aa2 cfbe f07c 013c 28be 8b3c
00000370: e449 923d e2dc 3c3d ed63 80be 77c3 44be
00000380: 213c 9e3d 3edb 353d 5ecb 753e 982c 8abe
00000390: 572c f7bd 89ab 5c3e 8979 383d 7e64 9e3d
000003a0: f48d e73c 2f92 963d 7140 593e b8eb b13d
000003b0: 2e93 11be b55f 2e3d e448 6dbd 5cdb 13bd
000003c0: 4ad4 4bbd e20c aebd 9679 b3bd 85d3 903d
000003d0: a912 563e 9ad0 dfbc 0936 273e 9ed4 d93d
000003e0: a63b ebbc 7dce a53c 8b64 29bd 99a9 8abd
000003f0: d0fd aebd d422 e53e 2bda d4bd b6f0 ab3e
-0.1093302 0.015111934 -0.024337474 -0.022808041 0.05172724 -0.14972174 -0.007082624 0.08326756
0.019922301 0.06347752 0.101627864 -0.05235171 -0.15200832 -0.06290692 0.17920405 -0.193007
0.051859334 -0.0072912136 0.05883189 0.029175194 0.00942623 0.119383514 0.067717195 -0.081783965
0.109626755 -0.06370974 -0.105708614 -0.10711931 -0.09018297 0.09740171 -0.11075297 0.065290295
0.10769844 0.10440116 0.019651178 0.06281642 0.06331367 0.03749635 0.028936652 0.059238818
0.020644238 -0.115217336 0.0022624228 0.019389836 0.014133093 -0.15430345 0.10293574 -0.098402895
-0.103127785 -0.11274533 -0.0376226 0.07107236 0.11635526 -0.07548686 -0.08462511 -0.18726602
-0.007929695 0.014484928 -0.07135259 0.020366471 -0.032188416 -0.009336922 -0.026312282 0.069425926
0.039782193 -0.077239454 -0.17502798 -0.041532405 -0.064470775 0.003296861 0.23319486 -0.14086363
-0.05583793 -0.13703878 -0.11805237 -0.11994915 -0.0154476445 0.21050258 0.04023647 -0.07800693
-0.084794626 -0.049880967 -0.022543961 0.0038400823 0.02806849 -0.10961365 0.005097365 -0.006118758
0.052616373 0.118905455 -0.03419017 0.036089037 -0.08979015 0.018607749 0.020307388 0.08387211
-0.011126255 0.056454003 -0.16094132 -0.0032635746 -0.18972825 -0.029285429 -0.08316413 -0.17442578
0.046044845 -0.1883808 0.029216753 -0.094608195 0.066858225 0.03441742 -0.09595826 0.10858698
0.0005168454 -0.098197065 0.0014335833 -0.15715012 -0.19448018 -0.1823138 -0.25140998 -0.041660562
-0.1711656 0.037437145 -0.047559846 -0.18454155 -0.12508987 -0.037894618 -0.07978041 0.11369316
-0.014945491 0.35208672 0.4982255 0.089002 -0.23554063 0.1889478 0.13304418 0.15167674
0.039831642 0.03738562 -0.26794025 0.10331801 -0.052633405 0.077808656 0.10185395 -0.12200583
-0.10577827 0.11270264 -0.10894879 0.074951194 0.09330629 0.058094 -0.0052015255 -0.02752852
0.19463581 -0.018025806 0.14819871 0.16304956 -0.06509705 0.03306003 0.09885954 0.037190095
0.050529536 -0.012653961 0.09103591 -0.23711102 -0.723854 -0.05024741 0.16003983 -0.22084603
-0.31284133 -0.072533816 0.014805675 -0.22383305 -0.11199459 -0.19092304 0.13252632 -0.027476039
0.016511878 -0.0862456 0.1277709 0.17570752 0.1997704 0.04205419 -0.13802327 0.07868335
-0.14810428 -0.10657003 0.06366252 0.018456982 -0.036943927 0.0543937 0.037019838 -0.45856753
-0.3904784 -0.44497803 0.1398379 -0.17684889 -0.29931548 -0.31380868 -0.52832025 -0.22657882
-0.3936853 -0.23868826 -0.04777543 0.0154493805 0.048588682 -0.00932973 0.071413845 -0.052944586
0.11320441 -0.123769306 -0.04671381 0.02801641 -0.069362976 0.018462462 -0.20378868 -0.2329517
-0.28013185 -0.40553743 0.007903323 0.017058447 0.07143 0.046109088 -0.25076237 -0.19215189
0.077263124 0.04439854 0.2400336 -0.26987147 -0.12069004 0.2154981 0.04503778 0.07734011
0.02826593 0.07352101 0.21215989 0.08687538 -0.14216301 0.042571742 -0.057930842 -0.03609787
-0.049763 -0.08498551 -0.08763425 0.07071594 0.20905556 -0.027321149 0.16329207 0.10636257
-0.028714966 0.020240063 -0.04135565 -0.067706294 -0.08544505 0.44753134 -0.10393175 0.33582085

critic.0.bias f4 [64]
00000000: e403 adbd 52a8 803e 9497 bcbd 02d0 063e
00000010: 6091 9fbd 91b2 6ebd f93c bf3b 1901 9dbd
00000020: 3fa9 acbd fa61 67bc 6ee4 143d 1f3c cfbd
00000030: 6b3f 23be 56a1 fbbd 1c9b f9bd 7191 7abe
00000040: ab90 1ebc 41c8 bd3d 529f 943d c7ad e1bd
00000050: d745 19be 6d85 5bbd 3a22 13be dff2 11be
00000060: 1f6c 08bd d0e5 9e3d 66b8 06be b85b b4bc
00000070: fb87 42be cd4d 593d d6ec 033d 695d 783d
00000080: 251b c73d 654a 09bd 7dbd 1b3d 2b8e edbd
00000090: b222 2d3b b8f6 31be a447 41bd 862c f73d
000000a0: c4fa efbb 7f37 b1bd 2a26 e03c 4bb3 96bc
000000b0: af5c 5ebc 599c 11be 3f8b b3bd 5ae3 febd
000000c0: dba9 be3d 1b07 2abe 6686 6dbe 1a1e 933c
000000d0: 80e2 08be b60d 34be 9f54 513c ffa2 dfbc
000000e0: ffb4 bdbd 3d3e 27be b441 fcba 01a3 113d
000000f0: 1d76 f6bd 9cc9 8fbd 2240 adbc 73f4 e5bd
-0.08448008 0.25128418 -0.09208599 0.13165286 -0.077914 -0.058275763 0.005836126 -0.07666225
-0.08430719 -0.0141224805 0.03635066 -0.10118889 -0.15942161 -0.12286632 -0.12187788 -0.24469544
-0.009678046 0.09266711 0.072569504 -0.110194735 -0.14968048 -0.05359404 -0.14368525 -0.14252804
-0.033306237 0.07758677 -0.1315628 -0.022016391 -0.18997185 0.053052712 0.032208286 0.060635958
0.09721974 -0.033518214 0.038022507 -0.11599382 0.0026418385 -0.17379272 -0.047187462 0.12069039
-0.0073235948 -0.08653163 0.027361948 -0.01839604 -0.013571902 -0.14219798 -0.087667935 -0.124457076
0.09309741 -0.16604273 -0.231958 0.01795869 -0.13367653 -0.17583355 0.012776523 -0.027299402
-0.09263038 -0.16332336 -0.0019245655 0.035555843 -0.12034247 -0.07020876 -0.021148745 -0.112282656

critic.2.weight f4 [64, 64]
00000000: 8b94 6abd aaa5 693e 8768 28be 97e9 47be
00000010: 629d 61be 8576 82be de01 063d d52a 64bd
00000020: c65e 463c ea55 80be eb6b 093e 2f72 09be
00000030: 14bc 23be 9a17 36be 15cc 07bc 0d26 e1bc
00000040: d356 65bd 916c 5d3e 00ea f93d 3701 4bbe
00000050: 5755 86bd 945d f7bc 5564 b4bd c043 02be
00000060: 4fba 1f3e d609 4abc ccb7 93be 5c9b 90bd
00000070: a890 15be 0974 15be 4756 94be 1c1a 01be
00000080: fa3c 35be 452f 9bbd 4007 0abe 0251 cdbd
00000090: 0898 c93d 79f0 93bd 3a29 9a3b fb55 373e
000000a0: d92c fdbb 796b 233d 496d 2ebd 531e eebd
000000b0: f37c c73c add7 7abd c0c5 c4bd 51e6 f4bd
000000c0: 0c3c 5dbc 2d09 fc3d 6ab5 48bd 8e8b 533d
000000d0: a4bd 1cbd 55a9 8ebd 9f71 803d 6766 a0bc
000000e0: db0d 083e 3459 c6bd 572c 22be 429c 9d3c
000000f0: ea81 b4bd 7663 92bc a991 1bbe 1c02 2dbe
00000100: bb08 98bd d057 24be 501e 6ebe 1dcd 383e
00000110: e1d5 d6bd 9816 b3bd 6877 b93b 0f83 c43e
00000120: 8eba cb3c b116 973c bf5e d63d 8e12 8fbd
00000130: e105 9fbe 2d47 b2bd 1a45 d4bb d4ab 83bd
00000140: 7f23 bfbd 511e 34bf dc41 64bd c44d 62be
00000150: 1e2e 7abe f7a2 49be 8216 313e c330 70bd
00000160: 18dd 193e 7500 943e c28a 653c cae3 3abe
00000170: 1d8b 9a3d d5e1 a9bd 1a58 5bbe 53a0 33be
00000180: b332 923e d7ea 96be e903 173f 90d9 c7be
00000190: 886a 75be c542 b7bc 75fe 62be 095c b43b
000001a0: 0cc6 9abe 78a0 043c 1ca0 a53c 0e13 40bd
000001b0: 9e0e 80be 109f 39be af7e d1bd 0215 b4be
000001c0: 6259 623c 8795 cf3d 758a 53be 2be4 8abe
000001d0: d000 ad3d 18ed adbd 346a 25bd e941 a4be
000001e0: 3516 77be 0522 2dbe 7ff1 73bb 98f1 71be
000001f0: 1a3c 21be e384 5fbd ba28 c1be 4bb9 e03d
00000200: 2bcf b0bc cd09 35bd ab07 80be ebf9 11be
00000210: 9b78 80bd e289 ff3d bba5 19bd 2ce9 3cbe
00000220: 1853 533c 2d6d 35be 8bf8 52bd 872c aebd
00000230: 0f3d 0abe ae01 58bd c8e0 15bd e80b c83d
00000240: 06f7 7abd ec3a c63c 9d3d 0dbd 1ead 57bd
00000250: 443d 36bd 79c9 17be 85c8 13be bf83 693d
00000260: 62a9 2ebe 6a48 d2bd 0f07 5b3c c930 83bc
00000270: a0a7 93bd 22aa 813d 9c17 a13b dc56 5bbe
00000280: ef99 1fbe e158 6dbd ca80 25bd a6e4 a6bc
00000290: cf6b 1ebe a81b c9bc 4ee3 c7bd 64ab 98bd
000002a0: 8869 4bbd 2b06 a6bd 4d2c 0d3e 8682 adbd
000002b0: 0beb 1dbe 82e7 c2bc 669c bfba 6566 e2bd
000002c0: d40d ed39 8096 adbd 1418 3d3e 5be1 8f3c
000002d0: 6f48 12be 8d9d f4bd 7049 f2bd 27c8 1ebe
000002e0: 0062 d9bc 653b 513c 2df8 26be 7e86 7fbe
000002f0: 10fa b53c 01d0 c1bd a62a 4abe 63c3 58be
00000300: a322 a63d 6cfc f7bd 0370 9ebd cd00 bdbc
00000310: 85e7 0abd e8ea 7b3b 7307 91bd 1977 1dbc
00000320: 47ae 36bd 4b4d 143c abc3 23be dd46 1abd
00000330: ddb8 193c 6a30 2cbe 870b 0bbe c2a5 b1ba
00000340: 61cb a1bd 46c4 57bd 0195 a13d 5b40 40bd
00000350: 6554 c6bc 6df4 bb3c 0195 13be ee08 a53c
00000360: 5f87 823d 78d5 ddbd 6e6c d6bd 07ef d8bc
00000370: 0db0 143d 8c5f 07bd af17 b03d 4b03 6538
00000380: d4c0 ea3c 3fdf 77bd dd0b c53c 6ae6 293d
00000390: 6cd4 04bd 6e48 d3bd 7a4f 2fbe 532a d2bd
000003a0: 5f5c 613d 2644 a03d 5791 de3d 37aa f53b
000003b0: 0fe9 e8bc fda6 18bd 4398 a0bd 15f5 3fbb
000003c0: 9761 cebd 3d7c d2bd ea51 5a3d 96ad c8bd
000003d0: 04d3 2e3c 34a8 06be 8ca4 01be d062 9cbd
000003e0: f9ff dd3d 5710 c5bc fb6b 08bd f838 b03d
000003f0: f065 b03d 403a cf3d 6eb3 efbd 4866 cc3d
-0.057270568 0.22817102 -0.16446124 -0.19522701 -0.22032693 -0.25481048 0.032716624 -0.05570491
0.012107557 -0.25065547 0.13420074 -0.13422464 -0.15989715 -0.17782441 -0.008288403 -0.027483964
-0.055991005 0.21623446 0.12202835 -0.19824682 -0.06559246 -0.030195989 -0.08808199 -0.12721157
0.15598415 -0.012331447 -0.28851163 -0.070608824 -0.14605963 -0.14595045 -0.28972074 -0.12607616
-0.17699042 -0.07577375 -0.13479328 -0.10025217 0.09843451 -0.07223601 0.0047046216 0.17903893
-0.0077262935 0.039897416 -0.04258469 -0.11626878 0.024351573 -0.06124084 -0.0960803 -0.11957992
-0.013503086 0.12306438 -0.049001135 0.05164676 -0.038266793 -0.06965891 0.062716715 -0.01958008
0.13286535 -0.09684983 -0.15837227 0.019239549 -0.08813842 -0.017869692 -0.15192284 -0.16895336
-0.0742354 -0.16049123 -0.23253751 0.18046995 -0.10490013 -0.08744544 0.0056599863 0.3838124
0.02486923 0.018443437 0.1046729 -0.06985961 -0.31059173 -0.08704982 -0.006477964 -0.06429258
-0.09332942 -0.7035876 -0.05572687 -0.22099978 -0.24431655 -0.19691072 0.17293742 -0.058640253
0.15025747 0.289066 0.014010133 -0.18250957 0.07546065 -0.08295027 -0.21420327 -0.17541628
0.28554305 -0.29476044 0.5899034 -0.39033175 -0.2396642 -0.022370705 -0.2216738 0.0055041355
-0.30229223 0.008094899 0.020217948 -0.046893172 -0.25011152 -0.18127084 -0.10229241 -0.35172278
0.013815256 0.10135942 -0.20658286 -0.27127203 0.084474206 -0.08492488 -0.040384486 -0.32081535
-0.24129565 -0.16907509 -0.00372228 -0.23627317 -0.15745583 -0.05457009 -0.37726384 0.10972842
-0.02158316 -0.0441988 -0.2500585 -0.14255492 -0.06273004 0.12477471 -0.03751157 -0.18448323
0.012898229 -0.17717429 -0.05150656 -0.08504587 -0.13499855 -0.052735977 -0.03659132 0.09767896
-0.061270736 0.024198018 -0.034482587 -0.05265533 -0.04449202 -0.1482295 -0.14431961 0.05701041
-0.17056802 -0.10267718 0.013368382 -0.016014474 -0.07209706 0.063312784 0.0049161445 -0.21419853
-0.15586065 -0.05794609 -0.040406026 -0.0203727 -0.15470813 -0.02454932 -0.09760152 -0.07454565
-0.04966119 -0.08106645 0.1378643 -0.08472161 -0.15421693 -0.023792032 -0.0014618754 -0.110546865
0.00045214465 -0.08475971 0.18466216 0.017563513 -0.14285444 -0.11944113 -0.11830413 -0.1550604
-0.026535988 0.012770508 -0.16305609 -0.24953648 0.022213966 -0.09463502 -0.19742832 -0.21168284
0.08112075 -0.121086925 -0.07736208 -0.02307167 -0.0339122 0.0038439576 -0.07081499 -0.009610915
-0.044599798 0.009051631 -0.1599261 -0.037665237 0.009382454 -0.16815343 -0.13578616 -0.0013553428
-0.079001196 -0.052677415 0.07889748 -0.046936374 -0.024210164 0.0229437 -0.14412309 0.02014586
0.06373476 -0.108317316 -0.104699 -0.026481165 0.036300708 -0.033050105 0.08598267 5.460092e-05
0.0286564 -0.06051564 0.024053508 0.041479506 -0.032429144 -0.10316549 -0.17120162 -0.10261979
0.055019733 0.07825498 0.10867565 0.007497098 -0.028431443 -0.037268627 -0.078415416 -0.0029290367
-0.100772075 -0.10277603 0.053300776 -0.09798734 0.010670427 -0.13150102 -0.12660426 -0.076360345
0.108398385 -0.024055643 -0.033306103 0.08604616 0.08613193 0.10118532 -0.11704145 0.09980446

critic.2.bias f4 [64]
00000000: 96a8 2abc 3894 4dbd 8a3d 72bc 221a 1dbe
00000010: 2bf0 6bbd 764f ff3d 74dc 323e fe7d 323e
00000020: 40d4 5cbc 3d32 d03b 8d56 093c 7960 37be
00000030: 52f8 0dbe 7f3d bdbd 317d c83d 87a0 ff3c
00000040: 7187 06be 2fbb 903d ead5 cbbd 72bd 14bd
00000050: 9006 e6bc b456 47be ea6b 29be e8a1 de3d
00000060: 5415 36be a6d2 d3bd f89f c23d 5e24 df3d
00000070: 9eed 3bbd 5755 a5bd ed1c c73d 07b9 46bd
00000080: 5536 96bd 4526 36be e65b c3bc db53 d9bd
00000090: 2367 31be 20ff a7bd 028c 883d 7616 8dbd
000000a0: 2a91 b23b 132b 933d 4366 7c3d d769 8dbd
000000b0: 4bd0 2fbe f59f edbc 51e3 e63c 14aa 223d
000000c0: 9844 0d3d 42e6 cdbd dd7a c4bd 157b 21be
000000d0: 21c2 5d3c 72a6 36bd eb98 91bd 59cc 08be
000000e0: f164 1dbe 3893 ecbd 5f4e 473e 5c8a 173e
000000f0: c99d 56bc 0ee4 593d f3ab 22bd 10f6 cfbd
-0.010416171 -0.05019018 -0.01478518 -0.15342 -0.05760209 0.12466328 0.17466909 0.17430875
-0.013478339 0.006353645 0.008382452 -0.17907895 -0.13864258 -0.09240245 0.09789503 0.031204475
-0.13137604 0.070669524 -0.0995291 -0.03631348 -0.028079301 -0.19466668 -0.16545072 0.10870725
-0.17781574 -0.103429124 0.09503168 0.10895608 -0.045880906 -0.08072918 0.09722314 -0.0485163
-0.07334582 -0.17788036 -0.023847532 -0.10611697 -0.173245 -0.08202958 0.06667329 -0.0688905
0.005449434 0.0718595 0.061620962 -0.06904953 -0.17169301 -0.029006938 0.028184565 0.03971298
0.034489244 -0.10053684 -0.09593747 -0.15769608 0.0135350535 -0.04459233 -0.07109245 -0.13359202
-0.15370537 -0.11551517 0.1946349 0.14798874 -0.013099142 0.053196006 -0.039714765 -0.101543546

critic.4.weight f4 [1, 64]
00000000: a5e6 263b 31cc 45bd 0e0a 56bd 94c4 88bc
00000010: 999b 57bc 92c3 dfbd b5f7 17be 082e 41be
00000020: 2701 eeba 9f97 37be d543 4cbe 470d 563b
00000030: 897e 863c dc78 63bc c664 d8bd b450 1bba
00000040: 8f52 2abd 90ce abbb 3861 913c b3ef c63d
00000050: 8d08 16bd 80a9 9abc 7146 17bd df4f 943c
00000060: 7b71 c43a e34a 4ebd 1d3c 2a3d 5cc1 69be
00000070: f39a 7dbd 0c56 39be 665e 4dbe 3790 a1bc
00000080: 69b8 d73d ba80 053c 3810 5b3d 6976 e1bb
00000090: 38da 063b d36c 883d e50f aabd 2cb9 1f3d
000000a0: c449 df3a 4a6d 19be 5eeb d13a f5fb b53c
000000b0: 751f 0abc 62db 53bc 5f67 7dbe 75fe cc3d
000000c0: bf43 5d3d fe18 e23b ed13 9dbc e661 b33b
000000d0: 6a22 13ba 6e49 e4bb 137e ac3d 4780 b7bd
000000e0: 7809 9dbc b277 cd3a f2e5 653e 0bd6 1abe
000000f0: 9ab2 c4ba a900 5abc d11c 88bc bf28 673d
0.0025467065 -0.048290435 -0.052255683 -0.016695298 -0.013159656 -0.10925974 -0.14840586 -0.18865216
-0.0018158302 -0.17928933 -0.19947751 0.0032661723 0.016417759 -0.013883796 -0.10566096 -0.00059248065
-0.04158264 -0.00524313 0.017746553 0.09713688 -0.03662925 -0.018879652 -0.036932413 0.018104492
0.0014987433 -0.050364386 0.041561235 -0.22827667 -0.06191535 -0.1809923 -0.20055541 -0.019722087
0.1053322 0.008148367 0.053482264 -0.0068805707 0.0020576846 0.066613816 -0.08303813 0.038994953
0.0017035534 -0.14983097 0.001601558 0.022214869 -0.0084303515 -0.012930723 -0.24746464 0.10009471
0.054019686 0.006899952 -0.01917454 0.005474317 -0.0005612733 -0.0069667613 0.08422484 -0.08960014
-0.019169554 0.0015675931 0.22450998 -0.15120713 -0.0015006841 -0.013305821 -0.016615303 0.056435343
