Models/Reward_shaping_vm/RS_disprop_scale_mag_vm_1_0/49000.pth (torch, 78437 bytes, 11 tensors)

actor.0.weight f4 [64, 62]
0.06543849 -0.05605509 -0.024620432 0.059609912 0.042900883 0.30077976 0.056280505 0.37240037
0.10302779 0.30265203 -0.01766665 0.27055293 0.07913784 -0.24499649 0.15480109 0.3342997
0.0184079 -0.000507343 0.11101928 0.039521184 -0.047295637 -0.07670317 -0.021287208 -0.054780323
-0.040697 0.0060809697 0.0757083 0.06902923 0.063201055 0.22308165 0.09392193 0.21206634
0.083827674 -0.1157146 -0.12075278 -0.061256237 0.5824184 0.43692702 0.08895268 -0.06560107
0.13765743 0.6366727 -0.120555975 -0.081901856 -0.19151534 -0.07548294 -0.13171986 0.018611822
-0.27118844 -0.23592642 -0.19235197 -0.067183174 0.068914585 -0.003736943 0.037881125 0.20283324
-0.049270447 -0.08477043 0.095413685 0.004129071 -0.09356861 0.049794454 0.077102005 0.11263577
-0.07119114 -0.020904979 -0.09399534 -0.24066988 -0.20183419 -0.32851586 0.17821158 -0.3548064
-0.031239416 -0.37675735 -0.08180228 0.05541906 -0.11435092 -0.22100538 -0.11761635 0.0639257
-0.089296736 -0.09582273 0.007723434 -0.021641733 0.07459022 -0.0735503 -0.112900816 0.092426725
-0.018831808 0.071432136 -0.022583075 -0.20988391 -0.06999968 -0.06251745 -0.08503403 -0.06025804
0.043303948 0.022748588 -0.3210485 -0.20815422 0.12931518 0.06963719 0.20533459 -0.15121667
-0.1485164 -0.02055027 0.47349954 0.3731613 0.07854241 0.0013957656 0.27156982 0.4375592
0.13852274 0.06302373 0.015878694 0.045250185 0.14788614 -0.06103429 -0.06427418 -0.09145332
0.011597823 0.17450473 0.08965618 0.06905856 0.06767594 -0.07029306 -0.11940751 -0.026992565
-0.02632904 -0.14425325 -0.18049334 -0.35152835 -0.030591343 0.36497676 0.23517591 0.4696619
0.23558341 0.26174384 -0.2870963 -0.54058456 -0.05819407 -0.014788643 -0.07784501 0.04646346
0.03930499 -0.028757311 0.048811324 0.0410445 0.07753852 0.08552743 -0.04300894 0.12408237
-0.21856898 -0.082151875 -0.20988812 -0.21633391 -0.07419392 -0.054320864 0.09029322 -0.04150123
-0.4393288 -0.06628613 -0.08564148 0.29175097 -0.009446341 -0.4013565 -0.091674745 0.03042639
-0.15134466 -0.05336342 -0.06558366 0.1288745 0.03412823 -0.021879204 0.25865692 0.1136554
0.08662007 0.015252116 -0.004338988 0.078087196 -0.04050823 -0.01026737 0.075266704 -0.0052463105
-0.0044605443 0.11130911 -0.109794274 -0.098994404 -0.004312453 -0.06867093 0.28356528 -0.12135703
-0.28080574 -0.18265699 0.053028077 0.32759446 0.49935615 0.737263 0.6572686 0.36298954
-0.016960394 -0.19933315 0.108426385 -0.049264148 0.07649887 0.0037809776 -0.009891106 -0.004052294
0.021589318 0.05986736 0.020368265 0.03874201 -0.114239745 0.09252434 0.021229211 -0.036388457
0.21098047 -0.13506763 -0.047078945 0.111979224 -0.09673073 0.1152172 -0.11183004 -0.0336305
0.22579446 -0.085021995 -0.11034079 -0.2580839 0.033036318 0.20726468 0.0076621138 -0.08902503
0.32341608 -0.1042319 -0.13670823 -0.05349682 -0.1932663 0.019710306 0.07959513 -0.06274119
-0.050755367 0.23474234 0.0038249707 -0.0036781947 -0.0706331 0.036970384 -0.02479471 -0.16782811
-0.08454263 0.10458845 0.11195135 -0.043137714 -0.012035738 0.040484685 -0.06945709 -0.01810103
00000000: 9d04 863d 069a 65bd cab0 c9bc 8629 743d
00000010: d6b8 2f3d ceff 993e 6386 663d 43ab be3e
00000020: 3c00 d33d 35f5 9a3e a6b9 90bc ea85 8a3e
00000030: 0513 a23d 5ce0 7abe 2d84 1e3e 5529 ab3e
00000040: 2acc 963c 36ff 04ba 145e e33d f7e0 213d
00000050: 12b9 41bd 8d16 9dbd 8362 aebc 5561 60bd
00000060: e6b1 26bd df42 c73b f40c 9b3d 325f 8d3d
00000070: 8e6f 813d 846f 643e 245a c03d eb27 593e
00000080: d8ad ab3d c7fb ecbd 3c4d f7bd d2e7 7abd
00000090: 5f19 153f e6b4 df3e d32c b63d db59 86bd
000000a0: 12f6 0c3e fbfc 223f 0de6 f6bd 29bc a7bd
000000b0: 991c 44be cd96 9abd 92e1 06be d277 983c
000000c0: 36d9 8abe b296 71be eaf7 44be 5597 89bd
000000d0: 1723 8d3d 80e7 74bb 3d29 1b3d 84b3 4f3e
000000e0: cfcf 49bd 1f9c adbd 4068 c33d 284d 873b
000000f0: e6a0 bfbd 45f5 4b3d a8e7 9d3d 95ad e63d
00000100: a9cc 91bd eb40 abbc a180 c0bd 2a72 76be
00000110: 9fad 4ebe 3b33 a8be 197d 363e 2fa9 b5be
00000120: cee9 ffbc 57e6 c0be f487 a7bd 19ff 623d
00000130: d130 eabd 3c4f 62be d7e0 f0bd 7aeb 823d
00000140: 35e1 b6bd b53e c4bd dc14 fd3b 014a b1bc
00000150: c2c2 983d 8aa1 96bd 8b38 e7bd 394a bd3d
00000160: 2a45 9abc 034b 923d 2400 b9bc cfeb 56be
00000170: fe5b 8fbd 2609 80bd 5226 aebd 22d1 76bd
00000180: 7b5f 313d 3f5b ba3c 7860 a4be 6126 55be
00000190: 336b 043e f19d 8e3d 3b43 523e 8bd8 1abe
000001a0: af14 18be 0a59 a8bc 886e f23e ff0e bf3e
000001b0: d8da a03d 1ff2 b63a 330b 8b3e c207 e03e
000001c0: e8d8 0d3e 9612 813d 0914 823c 4258 393d
000001d0: 776f 173e 17ff 79bd 2ea2 83bd e14b bbbd
000001e0: cc04 3e3c 5eb1 323e a99d b73d 936e 8d3d
000001f0: af99 8a3d cff5 8fbd ed8b f4bd 831f ddbc
00000200: 00b0 d7bc 20b7 13be 3fd3 38be 86fb b3be
00000210: b29a fabc 3cde ba3e f4d1 703e 8677 f03e
00000220: c73c 713e 4a03 863e 49fe 92be c063 0abf
00000230: e85c 6ebd 114c 72bc 346d 9fbd 7850 3e3d
00000240: 45fe 203d 7494 ebbc 62ee 473d 471e 283d
00000250: 84cc 9e3d 0129 af3d 242a 30bd e61e fe3d
00000260: 8cd0 5fbe 3e3f a8bd e9ec 56be a386 5dbe
00000270: fbf2 97bd 8e7f 5ebd a7eb b83d 32fd 29bd
00000280: b4ef e0be 06c1 87bd cd64 afbd 6260 953e
00000290: d3c4 1abc 997e cdbe f8bf bbbd c440 f93c
000002a0: 18fa 1abe 9a93 5abd ba50 86bd adf7 033e
000002b0: 0bca 0b3d 043c b3bc ae6e 843e 2ac4 e83d
000002c0: dd65 b13d 03e4 793c 122e 8ebb 2eec 9f3d
000002d0: f5eb 25bd 7938 28bc 6e25 9a3d 3ee9 abbb
000002e0: c229 92bb 08f6 e33d d2db e0bd 94bd cabd
000002f0: 7a4f 8dbb 58a3 8cbd 782f 913e 098a f8bd
00000300: c5c5 8fbe 6f0a 3bbe f833 593d 76ba a73e
00000310: 9cab ff3e 45bd 3c3f c142 283f c4d9 b93e
00000320: 86f0 8abc fd1d 4cbe a70e de3d 34c9 49bd
00000330: 71ab 9c3d 47ca 773b 4e0e 22bc 1bc9 84bb
00000340: 15dc b03c 7a37 753d 59db a63c f1af 1e3d
00000350: 87f6 e9bd 677d bd3d e2e8 ad3c 100c 15bd
00000360: 440b 583e 2b4f 0abe dad5 40bd 5d55 e53d
00000370: c31a c6bd fff6 eb3d 2607 e5bd 23c0 09bd
00000380: aa36 673e 0320 aebd 5afa e1bd 9323 84be
00000390: 1751 073d 313d 543e 7812 fb3b c152 b6bd
000003a0: cb96 a53e 8977 d5bd 3efd 0bbe 7b1f 5bbd
000003b0: 9ae7 45be 8277 a13c c602 a33d 747e 80bd
000003c0: dce4 4fbd 4c60 703e 5cac 7a3b de0d 71bb
000003d0: 16a8 90bd 426e 173d 471e cbbc 22db 2bbe
000003e0: b024 adbd 7832 d63d c046 e53d 2cb1 30bd
000003f0: 8b31 45bc 45d3 253d 853f 8ebd 9c48 94bc

actor.0.bias f4 [64]
-0.09975279 -0.008188381 0.06666248 -0.09654219 -0.09623199 -0.039727036 0.18897215 0.002676788
-0.066340886 0.035984013 -0.04244249 0.115028165 -0.039167173 -0.11158143 0.05968717 -0.070626974
0.12976234 -0.039073847 0.036022495 0.0355555 0.043513786 0.027313871 0.035144333 -0.03090166
-0.04806967 -0.10210898 -0.1173375 0.051677052 0.014341131 -0.01848724 -0.10480875 -0.041549947
0.13097925 -0.076019615 0.008411908 0.018710742 0.13008623 0.024836453 -0.0698853 -0.011568978
0.118553825 -0.037218105 -0.0517171 0.09427624 -0.0056215567 0.16582794 -0.04153363 -0.03582472
0.072114415 -0.019540437 -0.05410988 -0.073353246 -0.027682992 0.10540685 0.0667016 -0.055016875
0.009648137 0.033446126 -0.010619556 0.07842023 -0.032010578 -0.06131833 0.004264235 0.0015914334
00000000: 314b ccbd 8f28 06bc 5786 883d e9b7 c5bd
00000010: 4715 c5bd d1b8 22bd ea81 413e 0d6d 2f3b
00000020: bbdd 87bd f963 133d 2dd8 2dbd e393 eb3d
00000030: c26d 20bd ce84 e4bd 897a 743d e0a4 90bd
00000040: 6be0 043e e60b 20bd 538c 133d a5a2 113d
00000050: 833b 323d 57c1 df3c 81f3 0f3d 7a25 fdbc
00000060: b4e4 44bd 831e d1bd a54e f0bd 51ab 533d
00000070: 10f7 6a3c 8d72 97bc f8a5 d6bd 4730 2abd
00000080: 6d1f 063e 2cb0 9bbd 19d2 093c 4547 993c
00000090: 5335 053e d175 cb3c 0620 8fbd d08b 3dbc
000000a0: 59cc f23d 0372 18bd 4fd5 53bd e713 c13d
000000b0: 0935 b8bb cdce 293e 2b1f 2abd f1bc 12bd
000000c0: b9b0 933d 4413 a0bc 52a2 5dbd 3a3a 96bd
000000d0: 71c7 e2bc 8cdf d73d d99a 883d 6059 61bd
000000e0: 3813 1e3c cefe 083d a5fd 2dbc c99a a03d
000000f0: 861d 03bd ee28 7bbd ffba 8b3b a597 d03a

actor.2.weight f4 [64, 64]
0.006406389 0.14903599 -0.087605745 -0.3523834 -0.2511528 -0.31740648 0.16953321 -0.10467266
-0.051729787 0.12984127 0.08334113 0.08801624 -0.21216068 -0.03345654 0.17303617 0.030444259
0.13327457 0.1447276 0.15679456 -0.17613454 0.15488297 0.13245666 0.038427066 0.012280679
0.08711416 -0.13274848 0.3940436 0.24911821 -0.03211554 0.04943099 0.27263278 0.22153454
-0.47178543 -0.032430157 -0.18943882 -0.068889186 0.14374807 -0.36318195 -0.55249774 0.017479228
0.2727413 -0.4861209 0.028808383 0.28624603 0.17017597 0.03246222 -0.16716482 0.0025353255
0.22578903 -0.007948317 -0.21856706 0.37342307 0.09448684 0.14387695 0.16525431 -0.18468158
0.18087727 0.14098765 -0.17492181 -0.08503529 -0.13806148 0.103127755 0.11435079 -0.14581604
0.3057978 -0.15343374 -0.24453773 0.2596885 0.12448001 0.26692683 -0.35695216 0.37594905
0.048993174 0.088836454 0.23951139 -0.08625103 0.14436291 0.1441164 0.24789687 -0.2012323
-0.32965586 -0.117345825 0.47247833 0.10839233 0.11338382 0.2701272 0.02271888 0.41650674
-0.23823595 0.24171239 0.15995818 0.12819344 0.29578122 -0.18589236 0.36907586 0.29516962
-0.02363208 0.27138644 0.18676117 0.07082744 -0.23900366 0.06498636 0.061546855 0.15475707
0.0369175 0.03520416 0.18326245 -0.15109448 -0.03709656 0.02363127 0.26125446 0.321495
-0.10365887 0.10053605 -0.105429 -0.094269775 0.14297405 0.041673195 0.030784527 0.27833042
0.026567876 -0.113246456 -0.08365217 0.0025789042 0.25198114 -0.025495773 0.00010432524 0.20716213
0.00880085 -0.08888068 0.23066132 0.1949847 0.23971997 0.37088665 -0.3015433 -0.07735136
-0.07462054 -0.0689806 -0.07946199 0.041414216 0.11615885 0.37678102 -0.22208151 -0.06026
-0.038583424 -0.07271109 -0.046683703 0.09242087 0.32018209 -0.029552417 0.2962253 0.11034591
-0.11635052 0.14313446 0.1650976 0.32773823 0.034616347 0.1903468 0.1627896 -0.04847811
0.21223952 -0.025749706 -0.17313932 0.17426173 -0.19532059 -0.029758096 0.09054449 0.32474506
0.20021252 0.15752885 0.09945346 0.14197913 -0.045522768 0.06289395 -0.2429753 0.07731208
-0.022809137 -0.20472206 0.18584648 -0.112556785 -0.06501171 -0.149354 0.017815081 0.34045494
-0.37362653 0.22384293 -0.08145536 -0.26864955 -0.07597714 0.030104086 -0.067670025 -0.01781131
-0.1022769 0.03642871 -0.12276754 -0.06269127 0.046250757 0.03231563 -0.04549977 -0.12096777
0.048277084 0.08547919 -0.06025505 0.09074209 -0.07978374 0.06747466 0.050786067 -0.09980111
0.015467181 -0.0640413 -0.025853392 -0.015213773 -0.10533318 0.042061754 0.06940016 -0.026480839
0.05732861 -0.1287843 0.012159094 -0.08563102 -0.014932266 -0.05930067 -0.07976536 -0.048644807
-0.13405865 -0.07165609 -0.07404743 0.09862028 -0.08223063 -0.021849485 -0.05338257 -0.10594813
0.016388508 -0.10963503 0.02845016 -0.068298906 0.055219814 0.062187158 0.08747737 0.11759238
-0.02674295 -0.12390442 -0.057325393 -0.13178672 0.020755604 -0.11629715 -0.03948949 0.08091476
-0.022314662 -0.014164622 0.09739327 -0.07956703 -0.13071875 0.066321135 0.066490605 -0.029889122
00000000: b0ec d13b e49c 183e a46a b3bd 996b b4be
00000010: 1a97 80be 1a83 a2be 1d9a 2d3e 9f5e d6bd
00000020: 9de2 53bd 1cf5 043e c1ae aa3d dc41 b43d
00000030: a640 59be ba09 09bd 6530 313e 3d66 f93c
00000040: 2179 083e 7933 143e c18e 203e 9d5c 34be
00000050: a499 1e3e b8a2 073e b365 1d3d e734 493c
00000060: e968 b23d 38ef 07be 15c0 c93e d818 7f3e
00000070: 968b 03bd 2678 4a3d 8696 8b3e f3d9 623e
00000080: dc8d f1be 7cd5 04bd 40fc 41be c615 8dbd
00000090: b232 133e fcf2 b9be 7e70 0dbf 9930 8f3c
000000a0: bfa4 8b3e d7e4 f8be 8fff eb3c d78e 923e
000000b0: 9c42 2e3e 1bf7 043d 412d 2bbe b427 263b
000000c0: 3d35 673e a839 02bc 0bd0 5fbe 4f31 bf3e
000000d0: 5182 c13d 7b54 133e 6d38 293e 2b1d 3dbe
000000e0: e437 393e 115f 103e b41e 33be fb26 aebd
000000f0: fd5f 0dbe a534 d33d bf30 ea3d cd50 15be
00000100: 8791 9c3e bc1d 1dbe 1968 7abe e4f5 843e
00000110: 60ef fe3d a2aa 883e 6fc2 b6be 657c c03e
00000120: 11ad 483d e3ef b53d 7942 753e 61a4 b0bd
00000130: dfd3 133e 4093 133e add8 7d3e d70f 4ebe
00000140: a7c8 a8be 0253 f0bd aee8 f13e ccfc dd3d
00000150: c735 e83d 1d4e 8a3e f21c ba3c 5f40 d53e
00000160: 20f4 73be 7483 773e 14cc 233e 2445 033e
00000170: a370 973e 915a 3ebe 83f7 bc3e 7920 973e
00000180: 1098 c1bc 2af3 8a3e 523e 3f3e fa0d 913d
00000190: 60bd 74be 9217 853d 8e18 7c3d a378 1e3e
000001a0: ce36 173d 3d32 103d 27a9 3b3e 83b8 1abe
000001b0: 90f2 17bd 5d96 c13c 25c3 853e fe9a a43e
000001c0: 1a4b d4bd d8e5 cd3d 29eb d7bd 8310 c1bd
000001d0: ca67 123e 83b1 2a3d d52f fc3c 5381 8e3e
000001e0: e0a4 d93c c2ed e7bd d451 abbd d502 293b
000001f0: ac03 813e 83dc d0bc 30c9 da38 4f22 543e
00000200: 7131 103c 1307 b6bd 7b32 6c3e 12aa 473e
00000210: 2779 753e dbe4 bd3e e263 9abe 646a 9ebd
00000220: a7d2 98bd b345 8dbd f8bc a2bd f4a1 293d
00000230: b1e4 ed3d 71e9 c03e 5669 63be 31d3 76bd
00000240: a709 1ebd 8de9 94bd 6937 3fbd 2747 bd3d
00000250: e8ee a33e e917 f2bc d8aa 973e 09fd e13d
00000260: 2e49 eebd d791 123e 580f 293e 4ecd a73e
00000270: dfc9 0d3d 46ea 423e 51b2 263e fc90 46bd
00000280: 5155 593e 0cf1 d2bc 6f4b 31be ab71 323e
00000290: 1f02 48be 40c7 f3bc 646f b93d fc44 a63e
000002a0: 8304 4d3e 3e4f 213e 41ae cb3d fa62 113e
000002b0: 1576 3abd 8bce 803d 84ce 78be cc55 9e3d
000002c0: 3ada babc a9a2 51be 8a4e 3e3e 2c84 e6bd
000002d0: dc24 85bd 41f0 18be eff0 913c 1c50 ae3e
000002e0: fa4b bfbe 1537 653e 11d2 a6bd 6f8c 89be
000002f0: e799 9bbd d89c f63c 9596 8abd 06e9 91bc
00000300: 8d76 d1bd 4536 153d 8c6d fbbd 4864 80bd
00000310: 6f71 3d3d 655d 043d f85d 3abd f3bd f7bd
00000320: 31be 453d b70f af3d 00ce 76bd fdd6 b93d
00000330: a865 a3bd 2830 8a3d 0d05 503d 8664 ccbd
00000340: 0f6a 7d3c 1628 83bd 7eca d3bc 3043 79bc
00000350: ecb8 d7bd f248 2c3d ac21 8e3d 58ee d8bc
00000360: 68d1 6a3d 08e0 03be f036 473c 515f afbd
00000370: 77a6 74bc 42e5 72bd 055c a3bd c73f 47bd
00000380: ac46 09be 6ec0 92bd 2ea6 97bd 6ef9 c93d
00000390: 8868 a8bd b1fd b2bc afa7 5abd 55fb d8bd
000003a0: 3141 863c 5588 e0bd 4f10 e93c 4ce0 8bbd
000003b0: 2c2e 623d f6b7 7e3d 5627 b33d 46d4 f03d
000003c0: 0814 dbbc 9ac1 fdbd 08ce 6abd 19f3 06be
000003d0: a807 aa3c 332d eebd bbbf 21bd a3b6 a53d
000003e0: 3dcd b6bc bb12 68bc 1f76 c73d 0af4 a2bd
000003f0: 23db 05be 60d3 873d 3a2c 883d 08da f4bc

actor.2.bias f4 [64]
0.03426814 0.13806768 -0.05380048 -0.06822706 -0.11664225 -0.14247528 0.044282965 0.058474388
0.078155026 -0.08027762 -0.035374574 0.052644253 -0.0673739 0.06625616 0.18717574 -0.12467257
-0.07551541 -0.030343805 0.13484654 -0.062449783 0.16446288 -0.038191713 0.10501013 0.03720385
-0.039350804 0.081052154 0.09688747 0.03010793 -0.023506327 -0.056130446 -0.00401099 0.009508263
-0.031122457 -0.07713129 -0.027689539 0.03463822 0.013616484 -0.06725129 0.13967356 0.08552538
-0.15754117 -0.06692687 -0.06274796 -0.0056899404 -0.060358997 -0.055228703 -0.13551979 -0.12948707
-0.008369419 0.07485715 0.20592406 0.11942721 -0.046704706 -0.042176913 0.10483184 -0.017277937
-0.11128533 -0.09411113 0.019952876 -0.08585932 -0.081540175 0.08525275 0.020475019 -0.10800845
00000000: c05c 0c3d 9d61 0d3e e45d 5cbd a1ba 8bbd
00000010: 22e2 eebd 0ae5 11be 0e62 353d d782 6f3d
00000020: be0f a03d 9868 a4bd eee4 10bd 80a1 573d
00000030: 54fb 89bd 4fb1 873d ffaa 3f3e 5554 ffbd
00000040: d3a7 9abd 9293 f8bc 3615 0a3e 58cb 7fbd
00000050: f568 283e ea6e 1cbd 8d0f d73d 1063 183d
00000060: 4f2e 21bd acfe a53d f06c c63d e8a4 f63c
00000070: 5790 c0bc 0ae9 65bd 9f6e 83bb 8cc8 1b3c
00000080: 86f4 febc 03f7 9dbd 2cd5 e2bc cee0 0d3d
00000090: ac17 5f3c 0bbb 89bd 9606 0f3e ee27 af3d
000000a0: 7952 21be f410 89bd 0182 80bd ae72 babb
000000b0: ff3a 77bd 7e37 62bd b3c5 0abe 4298 04be
000000c0: e31f 09bc b54e 993d c2dd 523e 4196 f43d
000000d0: 6f4d 3fbd b3c1 2cbd 13b2 d63d 768a 8dbc
000000e0: 90e9 e3bd 56bd c0bd 3774 a33c 03d7 afbd
000000f0: 89fe a6bd fe98 ae3d 3abb a73c 8933 ddbd

actor.4.weight f4 [36, 64]
0.006433453 0.40929946 -0.37281978 0.09914657 0.034757838 0.00411952 -0.17619483 0.2725835
-0.54336876 -0.0951651 0.47878534 0.1611476 0.23846991 -0.080393165 -0.8063254 -0.6401897
-1.1113597 -0.27524987 -1.0004873 -0.44000882 0.29620963 -0.7407505 -0.94522154 0.041509494
0.46566534 0.1407802 -0.37752402 0.34551314 -0.8195257 -0.012342084 -0.10471955 -0.2083292
0.50820285 0.5160721 -0.27309832 -0.0018870602 0.31194693 -0.2645074 -0.36158666 0.35140446
-0.59159356 0.03729252 -0.17513236 -0.21506149 -0.30079278 0.020995632 -0.017753433 -0.13052
0.34844923 0.37453657 0.49892384 0.044355202 -0.25126496 -0.67048866 -0.65883964 0.018851144
0.018395828 -0.87481624 0.4380725 0.030945128 -0.10961973 -0.48726407 -0.7103968 0.008045204
0.01037237 0.23376448 0.45801726 -0.002202691 -0.0064426214 0.45034397 -0.55902207 0.46123222
-0.7972623 -0.114281744 -0.33716786 -0.3871436 -0.05163265 -0.19734567 -0.97996044 0.2664971
-0.55250293 -0.039271105 -0.9760859 -0.9067546 -0.3962509 -0.77910256 -0.8910295 -0.13574761
0.333401 -0.60085595 -0.14209765 -0.016244205 0.21276116 -0.05023045 0.3969357 0.1463064
0.19478388 -0.16222504 -0.58035046 -0.27362013 -0.25531352 0.25234652 0.44549447 -0.38107222
0.27764007 -0.08619297 -0.39308834 0.4199318 0.40844256 0.24925727 0.00538378 0.045720965
-0.16093148 -0.58012205 -0.09168544 -0.1772585 0.0438537 -0.42439672 -0.26134196 0.09911505
0.06858887 -0.45636207 0.32446325 -0.12901974 0.13541959 0.30319107 0.097618945 0.051330313
0.294289 0.208654 -0.1931311 0.0009393291 0.0073805004 -0.30236745 -0.17293327 0.2966836
-0.6048707 -0.08201462 -0.0031863393 0.28323686 0.375514 0.3108759 -0.29952216 -0.38961604
-0.5752927 0.23393714 -0.40844652 0.0026863278 -0.5123048 -0.4202201 -0.6002724 0.413624
-0.10907266 -0.14183727 0.32214674 0.07389086 -0.49039522 -0.112425745 0.14203686 0.37818807
0.28867182 0.18403214 -0.18055594 0.23535481 -0.54748374 -0.6392325 -0.17611012 0.24009906
-0.43811226 -0.08412992 0.24352658 0.09318015 0.1821436 0.30791223 -0.035121635 0.01566948
0.3847296 -0.2914057 0.2579902 0.28815106 0.20273918 -0.54767483 0.13802777 0.06654815
0.04432785 -0.049384963 0.31821233 0.11005917 0.012498487 0.041916862 -0.54373044 -0.03713133
-0.02179836 0.050628148 -0.19403683 -0.08373087 -0.033525467 -0.2913872 -0.03589228 0.13400765
-0.3652214 -0.023561358 -0.32846323 0.012886955 0.015310083 0.1628041 -0.46857524 -0.2760381
-0.28305554 0.17886683 -0.5346039 -0.17301215 -0.38872266 -0.36387688 -0.47082254 -0.13003798
-0.44205618 -0.2641993 0.12687044 -0.016920932 -0.44019398 0.0537301 -0.13348207 -0.05510416
-0.16872644 -0.105084896 -0.08544249 -0.07797121 -0.4698462 -0.448849 -0.05011929 0.14332207
-0.49105412 0.04432288 0.096673496 0.23392342 -0.0410532 0.013803927 -0.11883101 -0.032756094
0.20837125 -0.44848168 0.07802283 0.24741232 -0.22625524 -0.394971 -0.2695434 -0.06452432
-0.0031499742 -0.31291342 -0.038019247 -0.029015467 -0.02915753 -0.111877516 -0.2742 0.013252316
00000000: b7cf d23b b38f d13e 3ce2 bebe 5b0d cb3d
00000010: 3c5e 0e3d 0afd 863b 6b6c 34be 1190 8b3e
00000020: 371a 0bbf ece5 c2bd 5a23 f53e e003 253e
00000030: 7531 743e 2ca5 a4bd 576b 4ebf 79e3 23bf
00000040: 0941 8ebf 8ded 8cbe f80f 80bf d648 e1be
00000050: caa8 973e d3a1 3dbf 0afa 71bf dc05 2a3d
00000060: b06b ee3e af28 103e d44a c1be 19e7 b03e
00000070: 70cc 51bf 7436 4abc 3477 d6bd 4054 55be
00000080: 9519 023f 4d1d 043f 8bd3 8bbe 3c57 f7ba
00000090: 82b7 9f3e 846d 87be e321 b9be 49eb b33e
000000a0: ad72 17bf 0bc0 183d e655 33be 1439 5cbe
000000b0: 8301 9abe 08ff ab3c a66f 91bc 09a7 05be
000000c0: f067 b23e 42c3 bf3e f272 ff3e cdad 353d
000000d0: cda5 80be 25a5 2bbf b7a9 28bf b76d 9a3c
000000e0: d9b2 963c f5f3 5fbf 0a4b e03e a380 fd3c
000000f0: 4f80 e0bd ad7a f9be 91dc 35bf 08d0 033c
00000100: dff0 293c f55f 6f3e 3d81 ea3e 065b 10bb
00000110: a01c d3bb 7c93 e63e 121c 0fbf a126 ec3e
00000120: 6219 4cbf 8c0c eabd 44a1 acbe b037 c6be
00000130: c27c 53bd fc14 4abe b0de 7abf 4f72 883e
00000140: d570 0dbf bdda 20bd c4e0 79bf 1221 68bf
00000150: 66e1 cabe 4473 47bf 821a 64bf 6c01 0bbe
00000160: 89b3 aa3e b2d1 19bf 0c82 11be 9112 85bc
00000170: 10de 593e 72be 4dbd 283b cb3e 58d1 153e
00000180: 6d75 473e 521e 26be d991 14bf f017 8cbe
00000190: 74b8 82be 9033 813e da17 e43e e61b c3be
000001a0: d726 8e3e f185 b0bd e042 c9be 4d01 d73e
000001b0: 621f d13e 4c3d 7f3e 6c6a b03b e845 3b3d
000001c0: 39cb 24be e182 14bf 93c5 bbbd 4183 35be
000001d0: f09f 333d 874a d9be 9dce 85be d5fc ca3d
000001e0: 5278 8c3d 4aa8 e9be 0c20 a63e c01d 04be
000001f0: 6fab 0a3e dc3b 9b3e 71ec c73d bc3f 523d
00000200: 0cad 963e 65a9 553e 29c4 45be 4f3d 763a
00000210: 20d8 f13b e8cf 9abe 6b15 31be eae6 973e
00000220: ced8 1abf 48f7 a7bd e7d1 50bb 6c04 913e
00000230: 5f43 c03e 202b 9f3e f85a 99be c17b c7be
00000240: 6246 13bf 388d 6f3e e71f d1be 1a0d 303b
00000250: 6826 03bf 1727 d7be 74ab 19bf 86c6 d33e
00000260: 7d61 dfbd ca3d 11be 6bf0 a43e 1754 973d
00000270: 1515 fbbe 783f e6bd 1c72 113e dea1 c13e
00000280: cbcc 933e ec72 3c3e a8e3 38be da00 713e
00000290: e527 0cbf bea4 23bf 3656 34be 87dc 753e
000002a0: 4050 e0be 4f4c acbd 085f 793e 3cd5 be3d
000002b0: da83 3a3e aca6 9d3e b4db 0fbd 485d 803c
000002c0: 47fb c43e 2133 95be 4b17 843e 8988 933e
000002d0: dc9a 4f3e 6b34 0cbf 2757 0d3e 654a 883d
000002e0: 1f91 353d e347 4abd baec a23e b466 e13d
000002f0: 74c6 4c3c 04b1 2b3d eb31 0bbf 0617 18bd
00000300: 7992 b2bc 765f 4f3d 97b1 46be 177b abbd
00000310: 0052 09bd b430 95be c903 13bd 4d39 093e
00000320: 4dfe babe c003 c1bc 552c a8be cf23 533c
00000330: 24d7 7a3c 1eb6 263e 18e9 efbe de54 8dbe
00000340: a8ec 90be de28 373e cddb 08bf 192a 31be
00000350: a806 c7be 124e babe a70f f1be ad28 05be
00000360: 3055 e2be 2145 87be 53ea 013e c49d 8abc
00000370: 1b61 e1be 1814 5c3d 86af 08be e6b4 61bd
00000380: a0c6 2cbe c036 d7bd 79fc aebd 5faf 9fbd
00000390: ae8f f0be 89cf e5be e249 4dbd 05c3 123e
000003a0: 726b fbbe e98b 353d c1fc c53d 9f89 6f3e
000003b0: 6627 28bd de29 623c ac5d f3bd 412b 06bd
000003c0: 465f 553e 649f e5be 6fca 9f3d a859 7d3e
000003d0: 74af 67be a439 cabe 9801 8abe 5425 84bd
000003e0: cc6f 4ebb 3036 a0be 12ba 1bbd d8b1 edbc
000003f0: c6db eebc 0a20 e5bd f163 8cbe 3e20 593c

actor.4.bias f4 [36]
-0.39318174 -0.17853971 0.068136886 -0.06501562 -0.013121445 0.16465923 -0.07091142 0.024909407
0.13188446 0.10678838 0.10308316 0.1116036 0.0109189665 0.004439109 0.18941215 0.16877839
-0.32947505 -0.50648373 0.00019186502 -0.27528292 -0.43185526 -0.003373211 0.061490662 0.19120952
-0.0036304777 0.1223521 0.037295204 0.062634945 0.012031944 0.23985262 0.1641968 -0.016371826
0.10202275 0.014912355 0.013256348 0.10867945
00000000: 1e4f c9be 1dd3 36be 5a8b 8b3d e926 85bd
00000010: 54fb 56bc 6e9c 283e 023a 91bd d00e cc3c
00000020: b80c 073e deb3 da3d 441d d33d 6e90 e43d
00000030: 77e5 323c f275 913b 42f5 413e 3ed4 2c3e
00000040: f4b0 a8be eba8 01bf 602f 4939 e2f1 8cbe
00000050: 221c ddbe 1711 5dbb a2dd 7b3d 6ecc 433e
00000060: 4fed 6dbb bd93 fa3d dbc2 183d c046 803d
00000070: a121 453c ed9b 753e 3523 283e 351e 86bc
00000080: 4ef1 d03d f352 743c 2731 593c 5593 de3d

critic.0.weight f4 [64, 62]
0.11041555 0.06751825 -0.11656295 0.11216992 -0.2061243 0.0729771 0.0689947 -0.018072544
-0.124855734 -0.08608545 0.12121179 -0.08165722 -0.29828653 -0.2256672 0.015035564 0.063882835
0.020440768 -0.021304544 0.040837012 -0.05648059 0.12547149 -0.039051615 0.045587152 0.10453396
-0.033929344 0.09928426 0.07174943 -0.0023364786 0.05420613 0.22784096 0.06297824 0.19988896
-0.04051899 -0.11903906 -0.10912126 -0.00053186907 -0.28555533 -0.35015455 -0.013243564 -0.090827815
0.059648603 -0.17847086 -0.19717003 -0.11784041 -0.1878641 0.016302293 -0.05899286 -0.0892764
-0.102929145 -0.111829214 0.08185166 -0.0093451785 -0.013233066 -0.12816331 -0.17245427 0.09472891
0.058809623 0.11608105 -0.010382915 -0.14277185 0.0176873 -0.030104186 0.07834119 -0.0598693
0.022059161 0.0040192446 -0.26642928 -0.09788085 0.10728639 0.07975724 -0.0064859213 -0.084798686
0.167957 0.035153903 -0.01881643 -0.004943695 0.061500445 0.0756009 -0.124818325 -0.028515713
-0.08827608 0.087835185 -0.117958196 0.029616695 0.029015912 0.069708586 0.026396565 0.017037554
0.123486236 -0.020574057 0.1351441 0.00022702213 -0.065120146 -0.062528774 0.06366152 -0.05388896
0.018541856 -0.097416036 0.14246611 -0.22355574 -0.2240384 -0.3056754 -0.23472643 -0.095338374
-0.518764 -0.56811327 -0.08191062 -0.054500148 0.036659807 -0.25806054 -0.02815386 -0.2476024
0.1104911 -0.07394492 -0.075359195 0.055967372 0.12552227 -0.087689385 -0.06281201 0.02094351
-0.031682834 0.2615089 -0.008238527 -0.02925418 0.1212409 -0.06773417 0.076197155 -0.07288879
0.17397764 -0.5598913 -0.03230371 -0.21280019 0.26506385 -0.15961957 0.038418025 -0.13194877
0.032714818 -0.19706073 -0.1255515 -0.3937523 0.08303305 -0.083816975 -0.05072288 -0.01915846
0.11873116 0.09755867 0.096168414 -0.08598292 0.043809474 -0.008730035 0.06311989 0.08401014
-0.32096994 -0.15516423 -0.14613312 -0.27545017 0.09159082 -0.09193426 -0.07380363 0.0005672503
-0.049883872 -0.011381377 0.1566446 -0.050341327 0.2229705 0.04987961 -0.14164852 0.19334371
0.094814196 0.07383489 0.01031134 0.14821158 0.18417834 0.11482972 -0.20963545 0.1716782
-0.00032430526 0.06767526 -0.15865138 -0.1384671 0.16088162 0.015402993 -0.26437894 0.18596654
0.1875157 0.14041802 -0.0738773 -0.051279973 0.039715473 -0.11915758 -0.08037969 0.120618105
0.10704799 0.04124025 -0.10725612 0.22347912 0.038845032 0.28879398 -0.061550867 -0.3091218
0.11531077 -0.46304286 -0.07437112 0.027733829 0.09811426 0.10347919 0.09566863 0.10849139
0.11341502 -0.076389745 -0.0387823 0.057798687 -0.049887735 -0.021666108 0.21902066 0.18694507
0.036936037 0.31526867 0.12424952 -0.054735463 -0.016609982 -0.11298841 -0.08804422 -0.010045997
-0.029764922 -0.4764864 -0.37662238 0.23429278 0.05234365 -0.19036207 -0.07936594 -0.015303155
-0.10195757 -0.16709307 -0.30493462 -0.16367689 0.06866443 -0.16224298 0.10299527 -0.25587866
-0.03666 0.19401313 0.124508694 0.09508295 -0.29531148 0.1485246 -0.049570926 -0.019662078
-0.11198367 -0.053971987 0.056799594 -0.048281424 0.18309332 -0.33629206 -0.025686841 -0.18733281
00000000: 8c21 e23d 0247 8a3d 8eb8 eebd 58b9 e53d
00000010: 4012 53be 0575 953d 184d 8d3d df0c 94bc
00000020: 5db4 ffbd 924d b0bd e33d f83d e73b a7bd
00000030: 03b9 98be 4d15 67be ba57 763c 01d5 823d
00000040: 6673 a73c de86 aebc b644 273d 3158 67bd
00000050: 997b 003e 96f4 1fbd 98b9 3a3d e715 d63d
00000060: 7ff9 0abd 8c55 cb3d 5df1 923d 9b1f 19bb
00000070: 3f07 5e3d 244f 693e bcfa 803d b1af 4c3e
00000080: 3ef7 25bd c0ca f3bd f87a dfbd 216d 0bba
00000090: 4f34 92be 7547 b3be 89fb 58bc ef03 babd
000000a0: 1852 743d 11c1 36be f1e6 49be 5056 f1bd
000000b0: 725f 40be 638c 853c 7fa2 71bd 8cd6 b6bd
000000c0: 84cc d2bd b706 e5bd d8a1 a73d 851c 19bc
000000d0: 80cf 58bc 3e3d 03be da97 30be 3b01 c23d
000000e0: 5ce2 703d e7bb ed3d 1a1d 2abc c932 12be
000000f0: f5e4 903c 0e9d f6bc 5971 a03d 8339 75bd
00000100: 6ab5 b43c deb3 833b 6b69 88be c175 c8bd
00000110: f8b8 db3d c457 a33d da87 d4bb efaa adbd
00000120: ebfc 2b3e 8afd 0f3d ea24 9abc b8fe a1bb
00000130: e4e7 7b3d a5d4 9a3d c0a0 ffbd c999 e9bc
00000140: 17ca b4bd efe2 b33d 1194 f1bd b69e f23c
00000150: c7b2 ed3c 60c3 8e3d 9c3d d83c 5792 8b3c
00000160: 5ae6 fc3d ed8a a8bc 3763 0a3e ca0c 6e39
00000170: b65d 85bd 160f 80bd f960 823d acba 5cbd
00000180: 17e5 973c 0f82 c7bd a3e2 113e cceb 64be
00000190: 536a 65be 7c81 9cbe 205c 70be c440 c3bd
000001a0: b8cd 04bf df6f 11bf c1c0 a7bd 8c3b 5fbd
000001b0: 9828 163d 8320 84be eca2 e6bc 7c8b 7dbe
000001c0: 2849 e23d 6f70 97bd ec55 9abd 0b3e 653d
000001d0: e988 003e 7e96 b3bd 95a3 80bd b991 ab3c
000001e0: dcc5 01bd 7fe4 853e e3fa 06bc 76a6 efbc
000001f0: 264d f83d 36b8 8abd 410d 9c3d b846 95bd
00000200: 3227 323e 0955 0fbf e550 04bd 4be8 59be
00000210: 73b6 873e 5073 23be 385c 1d3d 941d 07be
00000220: f9ff 053d 4aca 49be 9390 00be e799 c9be
00000230: 3b0d aa3d 3ca8 abbd cbc2 4fbd 34f2 9cbc
00000240: 5329 f33d d7cc c73d f2f3 c43d d017 b0bd
00000250: 9071 333d 6c08 0fbc 0045 813d 820d ac3d
00000260: 2c56 a4be 5fe3 1ebe eca3 15be ce07 8dbe
00000270: f893 bb3d 0848 bcbd 5c26 97bd 86b3 143a
00000280: 0853 4cbd f478 3abc 7167 203e b532 4ebd
00000290: 6152 643e 904e 4c3d 4f0c 11be e5fb 453e
000002a0: f22d c23d bf36 973d e5f0 283c c7c4 173e
000002b0: 3f99 3c3e d82b eb3d adaa 56be 69cc 2f3e
000002c0: 8407 aab9 5499 8a3d 8275 22be 52ca 0dbe
000002d0: 27be 243e d65c 7c3c ad5c 87be 036e 3e3e
000002e0: 1e04 403e bec9 0f3e fb4c 97bd f30a 52bd
000002f0: b1ac 223d e408 f4bd 1b9e a4bd a006 f73d
00000300: fa3b db3d 89eb 283d 19a9 dbbd b6d7 643e
00000310: f81b 1f3d cedc 933e c31c 7cbd 3645 9ebe
00000320: 0e28 ec3d f413 edbe e34f 98bd 0e32 e33c
00000330: 21f0 c83d e6ec d33d eaed c33d bc30 de3d
00000340: 2246 e83d 3a72 9cbd 30da 1ebd 51be 6c3d
00000350: 1557 4cbd 1f7d b1bc f446 603e 876e 3f3e
00000360: 3e4a 173d e56a a13e 8876 fe3d 4b32 60bd
00000370: a811 88bc 7866 e7bd 8750 b4bd f797 24bc
00000380: 91d5 f3bc 07f6 f3be a6d4 c0be 72ea 6f3e
00000390: 4c66 563d 46ee 42be 9c8a a2bd 16ba 7abc
000003a0: 21cf d0bd 721a 2bbe 6420 9cbe ea9a 27be
000003b0: f09f 8c3d 0623 26be 2fef d23d 8702 83be
000003c0: cc28 16bd 61ab 463e 6afe fe3d daba c23d
000003d0: 1133 97be d516 183e e20a 4bbd 5e12 a1bc
000003e0: b257 e5bd bb11 5dbd b1a6 683d bec2 45bd
000003f0: d17c 3b3e 792e acbe 366d d2bc 2cd4 3fbe

critic.0.bias f4 [64]
-0.08374629 -0.012620498 0.1396598 0.03360092 0.016651914 -0.0122559685 0.010697964 0.11534628
-0.010762954 -0.13385274 -0.16442527 -0.05272345 -0.047791246 -0.005918707 -0.03241273 -0.059532706
-0.046148818 -0.059602678 0.0410982 -0.23834391 -0.08158785 0.00078150386 -0.07997028 -0.16029325
-0.148942 0.0153372595 -0.0069976863 -0.12820412 -0.15954779 0.01960484 -0.11258946 -0.2085976
-0.03351826 -0.025484271 -0.17419344 -0.07547133 -0.08262414 0.024903772 -0.0764692 -0.044743843
-0.07663667 -0.12632701 -0.09385976 -0.07575652 -0.14813673 -0.024246491 0.17747264 0.0063063996
-0.009592633 -0.011316656 -0.12166568 -0.09726866 -0.05158823 0.13488573 -0.18358266 0.09160364
-0.022023398 -0.17672324 0.093587585 -0.21005291 -0.09195044 -0.07665204 0.045743566 -0.07580377
00000000: 2d83 abbd 35c6 4ebc fb02 0f3e 1ea1 093d
00000010: 9869 883c 42cd 48bc 8346 2f3c ac3a ec3d
00000020: 1a57 30bc b110 09be 195f 28be 8bf4 57bd
00000030: c1c0 43bd b6f1 c1bb 36c3 04bd 91d8 73bd
00000040: 8b06 3dbd f021 74bd 9656 283d 6d10 74be
00000050: 8817 a7bd d6dd 4c3a 75c7 a3bd ea23 24be
00000060: 4084 18be 2149 7b3c d94c e5bb f147 03be
00000070: 7f60 23be 549a a03c 4e95 e6bd 9c9a 55be
00000080: 714a 09bd 64c4 d0bc c45f 32be b690 9abd
00000090: d836 a9bd ff02 cc3c e29b 9cbd 5245 37bd
000000a0: b0f3 9cbd de5b 01be 8c39 c0bd 3c26 9bbd
000000b0: 28b1 17be 94a0 c6bc 63bb 353e eaa5 ce3b
000000c0: 6b2a 1dbc 7f69 39bc db2b f9bd cb34 c7bd
000000d0: 2e4e 53bd 7c1f 0a3e 18fd 3bbe b09a bb3d
000000e0: 6a6a b4bc f0f6 34be d9aa bf3d 1c18 57be
000000f0: 8350 bcbd bffb 9cbd 9b5d 3b3d 023f 9bbd

critic.2.weight f4 [64, 64]
0.06919053 -0.22796255 -0.045392755 -0.10175495 -0.0028257072 -0.08861016 -0.120844 0.10454078
-0.16465703 -0.030141167 0.11082191 0.15636279 0.03185392 -0.36618534 -0.08801225 -0.06528212
-0.12725908 -0.050192796 -0.2736242 0.05289666 -0.25612888 -0.005331566 0.1816221 0.08872083
-0.062215112 -0.11532723 0.11094364 0.0638494 -0.08571962 -0.18887262 0.102505766 0.060102668
-0.024291059 -0.105598025 0.00045025547 -0.3411046 -0.06950192 -0.19184425 0.14907227 0.24830659
0.0691309 0.001941507 -0.2396683 -0.050802924 -0.114219435 -0.124209255 0.17434067 -0.28853166
0.15113789 0.07984067 -0.22806907 -0.12984464 -0.098043755 -0.0387907 -0.28900012 0.31911865
0.26563558 -6.239915e-05 0.20811081 -0.0044043628 0.0931355 0.046976246 -0.11888518 0.11882068
-0.03902477 -0.21543533 -0.08737258 0.09499413 -0.19605267 -0.073701456 0.10988476 -0.04418547
-0.10036942 0.03423318 0.07795102 -0.10702951 -0.059476625 -0.14029954 -0.05477879 -0.021317147
-0.10716044 0.07727963 -0.13130656 0.044429027 -0.11012725 -0.009831546 -0.09274945 0.029614702
0.03069287 0.0426124 0.10121655 -0.13147059 0.025345234 -0.027399577 -0.1905653 -0.06619069
-0.1042371 0.042234026 0.043737773 -0.372765 -0.037189074 0.012061456 -0.07832909 0.049277324
0.012935599 -0.0376467 -0.12339585 -0.00876449 0.009855224 0.14468688 -0.042581197 -0.20078236
0.050371923 -0.03603083 -0.090131745 -0.12714195 0.104072854 0.033135783 -0.21875563 0.39444184
0.08063976 -0.09939653 -0.061770935 -0.047069933 0.12905271 0.008701165 0.009908869 -0.16104649
0.014655454 -0.101598844 -0.09765837 -0.2364213 -0.21313877 -0.0068367375 0.013290323 -0.011494431
-0.03166921 -0.045223437 -0.059723172 -0.08665884 -0.15810187 -0.0002902823 0.003956166 -0.046912227
0.12239949 -0.065495715 -0.021871032 0.049888212 -0.09412402 0.10409057 0.047862373 -0.011487043
-0.09476757 -0.12778157 -0.17867859 -0.052955993 -0.0284026 -0.1680404 0.051393304 -0.008049081
0.061195675 -0.042998016 -0.074196294 0.061479717 -0.10450538 -0.09787086 -0.039104376 -0.14342478
-0.08574949 -0.35754776 -0.025533698 -0.032397147 -0.11126733 0.017881637 -0.025513314 -0.03305083
0.003110705 -0.08097777 0.087898776 -0.010312176 0.057229135 -0.16133447 -0.13544422 0.051242456
-0.0363057 -0.21012165 -0.19556871 0.09793382 -0.025581865 -0.14619651 -0.08446041 0.07929038
-0.08368185 0.42686296 -0.24075662 0.15159334 -0.16370794 0.1699387 0.30889225 0.05217473
0.030262088 0.10325973 -0.01838411 -0.33304906 0.2531028 0.23516269 0.29031283 0.23785414
0.16123195 0.19232702 0.1670294 -0.11164778 0.06507191 0.12704535 0.07658533 0.038284425
-0.0470616 0.071286775 -0.023306284 -0.014976606 -6.932352e-05 0.13151392 0.21650484 -0.010641586
0.036619175 0.06862246 -0.07314827 -0.04474703 0.16447406 0.23125686 -0.07672389 0.2400965
-0.10933243 -0.05479705 -0.043497648 0.10578206 -0.13191207 0.30235982 0.0302422 -0.031154364
0.11222062 -0.0043033743 0.1927298 -0.09807844 0.03035923 -0.086937204 0.19444026 -0.2281713
0.07623575 0.13951007 -0.13190708 -0.032302927 0.12715746 0.03181162 -0.13773023 -0.16302374
00000000: c4b3 8d3d 046f 69be c1ed 39bd e664 d0bd
00000010: 802f 39bb 3e79 b5bd 0f7d f7bd 7a19 d63d
00000020: da9b 28be 9cea f6bc 99f6 e23d 911d 203e
00000030: 4279 023d a57c bbbe c43f b4bd a2b2 85bd
00000040: 3450 02be f696 4dbd 7918 8cbe 2baa 583d
00000050: 5323 83be 6bb4 aebb 25fb 393e 44b3 b53d
00000060: 46d5 7ebd af30 ecbd 6b36 e33d 79c3 823d
00000070: c58d afbd d367 41be 8bee d13d 372e 763d
00000080: 0bfe c6bc c743 d8bd 4410 ec39 43a5 aebe
00000090: 0657 8ebd d272 44be 67a6 183e 1544 7e3e
000000a0: 8094 8d3d 2a7a fe3a 9b6b 75be ba16 50bd
000000b0: e1eb e9bd 6c61 febd 5c86 323e 6cba 93be
000000c0: e4c3 1a3e 8183 a33d f08a 69be fef5 04be
000000d0: 2acb c8bd ffe2 1ebd d3f7 93be 8563 a33e
000000e0: 6301 883e 4adc 82b8 001b 553e 7952 90bb
000000f0: d3bd be3d 2a6a 403d 137a f3bd 4258 f33d
00000100: 70d8 1fbd 149b 5cbe 65f0 b2bd 488c c23d
00000110: 08c2 48be caf0 96bd 430b e13d d3fb 34bd
00000120: 7c8e cdbd 1738 0c3d c9a4 9f3d 4a32 dbbd
00000130: c39d 73bd afaa 0fbe b95f 60bd 4ca1 aebc
00000140: ef76 dbbd c844 9e3d 3a75 06be 36fb 353d
00000150: 658a e1bd 7e14 21bc 6cf3 bdbd 889a f23c
00000160: 9d6f fb3c 578a 2e3d 9f4a cf3d 3aa0 06be
00000170: cfa0 cf3c 1475 e0bc 8d23 43be fc8e 87bd
00000180: 437a d5bd 96fd 2c3d 6126 333d 0edb bebe
00000190: 9253 18bd 6a9d 453c 006b a0bd 05d7 493d
000001a0: d6ef 533c 6d33 1abd f7b6 fcbd ef98 0fbc
000001b0: ce77 213c cc28 143e 9f69 2ebd e499 4dbe
000001c0: ca52 4e3d 1095 13bd fe96 b8bd 8031 02be
000001d0: 2624 d53d 63b9 073d 7a01 60be 48f4 c93e
000001e0: 7526 a53d 6890 cbbd 8503 7dbd 67cc 40bd
000001f0: 6526 043e 558f 0e3c cf58 223c 5fe9 24be
00000200: 6e1d 703c 0e13 d0bd 1d01 c8bd 6d18 72be
00000210: 0d41 5abe b606 e0bb a8bf 593c 2353 3cbc
00000220: 93b7 01bd 363c 39bd 49a0 74bd 317a b1bd
00000230: 75e5 21be 0831 98b9 baa2 813b 0927 40bd
00000240: 95ac fa3d 9e22 86bd e12a b3bc 9557 4c3d
00000250: 18c4 c0bd 702d d53d 560b 443d 2734 3cbc
00000260: 8015 c2bd 2cd9 02be 85f7 36be 62e8 58bd
00000270: 92ac e8bc c812 2cbe c981 523d 4be0 03bc
00000280: 51a8 7a3d b01e 30bd 3af4 97bd 28d2 7b3d
00000290: eb06 d6bd 8470 c8bd e92b 20bd f2dd 12be
000002a0: 6e9d afbd 8010 b7be 0c2c d1bc dfb2 04bd
000002b0: 20e0 e3bd 837c 923c 4c01 d1bc 4f60 07bd
000002c0: f8dc 4b3b acd7 a5bd 4604 b43d 67f4 28bc
000002d0: 1969 6a3d dd34 25be e4b1 0abe 9ce3 513d
000002e0: 49b5 14bd 212a 57be 2a43 48be 8791 c83d
000002f0: 0f91 d1bc 8ab4 15be 94f9 acbd ff62 a23d
00000300: 6461 abbd c88d da3e e788 76be 493b 1b3e
00000310: 0ea3 27be 6904 2e3e 2027 9e3e 2bb5 553d
00000320: 33e8 f73c d679 d33d 469a 96bc 6885 aabe
00000330: b196 813e 7dce 703e e2a3 943e 0990 733e
00000340: fd19 253e 60f1 443e c109 2b3e 97a7 e4bd
00000350: 6c44 853d 2d18 023e c5d8 9c3d 21d0 1c3d
00000360: aac3 40bd cdfe 913d d2ec bebc 7060 75bc
00000370: c861 91b8 96ab 063e 72b3 5d3e 0c5a 2ebc
00000380: fdfd 153d ef89 8c3d c3ce 95bd a948 37bd
00000390: e36b 283e 99ce 6c3e 6a21 9dbd dbdb 753e
000003a0: aee9 dfbd df72 60bd 972a 32bd 44a4 d83d
000003b0: f513 07be e8ce 9a3e 7dbe f73c 7037 ffbc
000003c0: edd3 e53d 5203 8dbb f65a 453e 59dd c8bd
000003d0: ebb3 f83c 220c b2bd 591b 473e bda5 69be
000003e0: 7d21 9c3d badb 0e3e a612 07be 1350 04bd
000003f0: 9135 023e e74c 023d 2709 0dbe b2ef 26be

critic.2.bias f4 [64]
0.03871819 0.046578653 0.0006904769 -0.05234161 -0.13376182 -0.031049844 0.15736826 -0.065910704
0.057811845 -0.17323375 -0.004734137 0.013963512 0.03929029 -0.18029785 -0.08565887 -0.11658937
-0.09042128 0.1554094 -0.082033925 -0.08811877 -0.11496368 -0.15018539 -0.038870923 0.041326273
-0.061829284 -0.044937216 -0.16579182 -0.1194196 -0.018546525 0.032799512 -0.015623145 -0.07669883
-0.04352849 -0.07787764 0.2254776 -0.10943031 -0.11955262 -0.093885496 -0.13086608 0.20777816
0.12917222 -0.13878968 -0.14690176 -0.056000765 0.085582644 0.009961173 0.15383466 -0.055152047
-0.14054358 0.026281033 0.222221 0.0027000974 -0.0400774 0.004394223 0.018432658 0.03481466
0.14721604 -0.071055576 0.09868404 -0.091111206 0.05216496 -0.05732635 -0.101799905 -0.10512743
00000000: f796 1e3d 42c9 3e3d 1f01 353a 2864 56bd
00000010: dcf8 08be 3e5c febc 2525 213e 31fc 86bd
00000020: 1dcc 6c3d 3064 31be d220 9bbb 37c7 643c
00000030: dbee 203d 00a0 38be eb6d afbd 68c6 eebd
00000040: cb2e b9bd a423 1f3e 6701 a8bd 9d77 b4bd
00000050: 1472 ebbd 33ca 19be 1e37 1fbd bd45 293d
00000060: b440 7dbd 1610 38bd 55c5 29be 4392 f4bd
00000070: e2ee 97bc c858 063d 38f8 7fbc 4714 9dbd
00000080: ee4a 32bd 507e 9fbd 9ae3 663e 001d e0bd
00000090: 01d8 f4bd 0a47 c0bd c201 06be ccc3 543e
000000a0: b945 043e e21e 0ebe 6a6d 16be 0f61 65bd
000000b0: f445 af3d 3034 233c d586 1d3e 1de7 61bd
000000c0: a8ea 0fbe 524b d73c e78d 633e 1ef4 303b
000000d0: 3328 24bd 6afd 8f3b 1600 973c d199 0e3d
000000e0: cdbf 163e 9685 91bd dc1a ca3d 8398 babd
000000f0: edaa 553d 09cf 6abd 787c d0bd 0d4d d7bd

critic.4.weight f4 [1, 64]
0.08760573 0.021177232 -0.0165197 -0.24987191 0.05055456 -0.036038972 -0.17632309 0.0010407886
0.027327176 -0.0003513593 -0.06851849 -0.16421519 0.0070933704 0.016671993 -0.1226558 -0.045213774
0.029710107 -0.13955396 -0.21096058 -0.003678485 0.0618842 0.017765058 0.004778422 0.017742837
0.018440591 -0.09765306 -0.12317434 -0.05681583 -0.03282689 -0.0015383421 -0.022367345 -0.1658579
-0.014311182 -0.03609064 0.1350034 -0.18126576 -0.033334862 -0.037557453 -0.07083069 0.1098412
0.057926264 -0.17508313 0.0571494 0.0010841825 -0.030529857 -0.14726932 -0.19499889 -0.00954007
-0.007879092 0.11131077 -0.20814076 -0.14689068 0.036037527 -0.011414738 0.0081930235 -0.1594897
-0.16102228 -0.24119718 0.032337386 -0.030580228 0.038647283 -0.0040509105 -0.009807512 0.013410364
00000000: a26a b33d e07b ad3c 5254 87bc 6cde 7fbe
00000010: 4c12 4f3d 9a9d 13bd 0a8e 34be 126b 883a
00000020: 3edd df3c a636 b8b9 6c53 8cbd 0728 28be
00000030: 816f e83b b493 883c f732 fbbd 1432 39bd
00000040: 9c62 f33c 3ce7 0ebe 0d06 58be bd12 71bb
00000050: 497a 7d3d 0788 913c 4f94 9c3b 6d59 913c
00000060: b910 973c 54fe c7bd d442 fcbd b7b7 68bd
00000070: 7d75 06bd 32a2 c9ba b93b b7bc a7d6 29be
00000080: 7379 6abc c7d3 13bd 553e 0a3e bb9d 39be
00000090: 238a 08bd d8d5 19bd ae0f 91bd 6cf4 e03d
000000a0: 1744 6d3d fe48 33be 7d15 6a3d 211b 8e3a
000000b0: c019 fabc c5cd 16be caad 47be f44d 1cbc
000000c0: 4f17 01bc e7f6 e33d da22 55be 836a 16be
000000d0: 169c 133d e204 3bbc 083c 063c 4551 23be
000000e0: 06e3 24be 65fc 76be 3574 043d 6383 fabc
000000f0: 9d4c 1e3d 80bd 84bb b0af 20bc 25b7 5b3c
