Models/Reward_shaping_vm/RS_big_pos_vm_14_0/27000.pth (torch, 78437 bytes, 11 tensors)

actor.0.weight f4 [64, 62]
000000 58 9a 90 3c 07 d2 00 be 74 d0 df 3d 31 d9 6a 3d
       0.017651722 -0.12580119 0.10928431 0.057336036
000010 00 6e 01 3e 60 3b 4b bd 52 3d c8 be 8a 3f 6c be
       0.12639618 -0.04961717 -0.39109284 -0.23071113
000020 5d 64 ad 3b d1 e4 8a 3e d7 39 c8 bb b0 1f dc 3e
       0.0052915053 0.27127698 -0.0061104107 0.42992926
000030 92 1e 7b 3e 76 65 81 3e 6e 2e 6e be c1 87 9f be
       0.2452338 0.2527272 -0.23259899 -0.3115826
000040 2b cb f1 bd cf 75 fd 3d 37 f8 12 3d 42 fd 65 bc
       -0.11806329 0.12375986 0.035881247 -0.014037432
000050 a5 ac 29 bc 1b ac e8 3d 7b d5 f3 3c 06 60 13 bd
       -0.010356103 0.113609515 0.029764881 -0.035980247
000060 7b f8 ec 3d f5 40 fa bc 9f b4 75 3a 8f 62 89 3d
       0.115708314 -0.030548552 0.0009372923 0.06708252
000070 15 17 86 be 33 ad fb bc 08 cc 2a 3d 96 38 25 be
       -0.26189485 -0.030722236 0.041698486 -0.16134867
000080 4a 39 74 3d bb ea c6 bc f2 84 9f 3d 7b 93 92 3d
       0.059624948 -0.02428185 0.07789029 0.07157036
000090 0c 1b ce 3e db 0b 88 3e 03 6b 8d bd 43 a5 0c 3e
       0.4025501 0.26571545 -0.069051765 0.13734917
0000a0 f9 98 30 3e a5 94 15 3f 66 fc 87 3d 6e f1 42 3c
       0.17245854 0.5842994 0.06639938 0.011898382
0000b0 b5 cd 04 be ec 0d ff bd 6a 5a c4 3d 43 8a fc bd
       -0.12969096 -0.12453827 0.095875576 -0.12331059
0000c0 d1 2c 8e be 71 ae 16 be 28 8b e5 3d dd 0a 8a bd
       -0.27768567 -0.14714982 0.112081826 -0.06740353
0000d0 c2 2c af ba 92 19 5b bd bb 48 58 bd fc 0d 53 3e
       -0.0013364779 -0.053491183 -0.052803736 0.20610803
0000e0 f1 93 27 3d 24 22 de 3d 90 53 e5 3d 0c 0f 03 3e
       0.040912572 0.108463556 0.11197579 0.12798709
0000f0 1b 3a d7 bd 86 41 dd bc 5c 2e 29 bd 53 47 bc 3d
       -0.105091296 -0.027008783 -0.041303977 0.091932915
000100 f2 74 c5 bd 66 92 ef 3d 51 92 39 3e 82 3c 61 3e
       -0.09641446 0.11697845 0.18122222 0.21995738
000110 9c 19 bf be 2a 25 1b be e6 3f 9f ba d9 88 2d be
       -0.37324226 -0.15150896 -0.001214978 -0.16946734
000120 be 33 80 3d f7 00 c9 be 37 f7 23 3d 1f 02 4f 3e
       0.06259869 -0.3925855 0.040030684 0.20215653
000130 22 bd 5e be 20 6a 1b be b8 9b e2 3c 35 a1 96 3c
       -0.21751836 -0.15177202 0.027662143 0.018387416
000140 b7 93 fb bd 8d 2a cb 3c dc d2 ff 3d 87 61 8a 3d
       -0.12284034 0.024800563 0.1249139 0.06756883
000150 3a fb 65 3a a2 f2 9c 3d 9e 97 94 bd 04 4e 99 bd
       0.00087730924 0.07663466 -0.07255481 -0.074855834
000160 a5 35 c3 3d 31 8b fd bd 09 9a b7 be 50 f3 47 be
       0.09531716 -0.12380064 -0.35859707 -0.1952641
000170 19 4d 4f 3e f9 54 85 be c6 c9 91 bd ff a3 6f bd
       0.20244254 -0.26041391 -0.07118563 -0.05850601
000180 58 29 8d bd ac b8 7c 3d d3 fe 4a bd 0e 03 fe 3d
       -0.06892651 0.061699554 -0.049559426 0.124029264
000190 59 ee 98 bd 6e 5a 4f bb 40 14 88 3d b7 c0 31 be
       -0.07467336 -0.0031639594 0.066444874 -0.17358671
0001a0 48 d5 67 3e 8a 87 08 3e 38 88 b4 ba a4 9b 58 3e
       0.22639954 0.13332954 -0.0013773507 0.21153122
0001b0 25 c2 2c 3e ca 17 27 3e a3 69 0d 3e 76 29 d9 3d
       0.16870935 0.16317669 0.13809828 0.10603611
0001c0 4d 94 8f 3d f9 06 37 3e 5e 8e c3 3c 77 57 5f 3e
       0.07010708 0.17873754 0.023871597 0.21810709
0001d0 29 eb e2 3d 1f e7 38 be 04 f7 89 bd 8c 93 8b bc
       0.110800095 -0.18056916 -0.067365676 -0.01703813
0001e0 78 32 46 3e c2 a4 9c 3d 78 e0 bd 3e fa 50 6d 3e
       0.1935519 0.076486126 0.3708532 0.23175421
0001f0 13 3d 68 bc d8 60 ff bd 42 2a 9b 3d 7a 8b 9c bd
       -0.0141747175 -0.12469643 0.075764194 -0.076437905
000200 ac fc 04 3e be cc f7 bd f0 16 9e bc 87 fa a5 bd
       0.12987012 -0.12099598 -0.019298047 -0.08104425
000210 6b 9f 00 bd 8c a4 ae 3d 98 ff 4d 3e 4d ea 0f 3f
       -0.031402033 0.085274786 0.20117033 0.5621689
000220 a6 6b 99 3d f2 35 87 be a1 1d 8e 3e 2b ea 81 3e
       0.074912354 -0.26408345 0.2775698 0.25373968
000230 b5 1c 08 bd 20 2c 11 bd a5 41 40 bd 94 c8 1b bc
       -0.033230502 -0.03544247 -0.046937604 -0.009508271
000240 b0 63 df bd 2d ee e4 bc 3f 41 5c bd b5 2d e3 bd
       -0.10907686 -0.027945602 -0.05377316 -0.11092702
000250 95 40 88 bb 04 6c 04 3d 31 28 97 3d f6 f6 be bd
       -0.0041580894 0.032329574 0.07380713 -0.09324448
000260 5c f1 e2 3e ab cb b3 3d 3c ea 65 bc 21 15 c5 3e
       0.44324768 0.08779081 -0.014032897 0.38492683
000270 2d be 73 bd 32 e9 ed bd 17 d3 fe 3d 3c db 01 3e
       -0.059507538 -0.11616744 0.12442606 0.12681288
000280 5f f7 87 3e f7 e3 3b 3e 57 27 b3 bb 09 55 07 3e
       0.26555917 0.1834868 -0.005467336 0.13216032
000290 55 92 b9 bd e3 b3 c8 3e 81 70 eb bc e8 b3 8b 3d
       -0.09061114 0.39199743 -0.02874017 0.06821424
0002a0 ec be 8d be e6 28 bf bc 82 f5 1c 3c e3 51 96 bd
       -0.27684724 -0.023334932 0.009580018 -0.073398374
0002b0 cd b6 f8 bd 4a 9f 4d be 90 0f 38 ba b1 ee 26 3d
       -0.121442415 -0.20080295 -0.0007021362 0.040754978
0002c0 45 f8 b0 bd c4 33 c2 bd 6d 06 86 bd f1 06 21 3e
       -0.08641104 -0.0948253 -0.06544194 0.15725304
0002d0 0b 1e 7d 3c b9 bd dd bd ba 55 2d 3e 1f 7a 29 3d
       0.015449057 -0.10827202 0.16927233 0.04137623
0002e0 61 b0 ae bc 4b 49 af bd 5c b4 23 3d 21 e8 67 3d
       -0.021324338 -0.085589014 0.039966926 0.05661786
0002f0 fe ba 9d bc 6f 2a 00 3d 94 ab 32 be a5 16 06 be
       -0.019254204 0.031290468 -0.17448264 -0.13094576
000300 80 53 42 3e 57 b1 17 3e 73 6c 46 be 26 69 d1 bc
       0.18977165 0.14813744 -0.19377308 -0.025562834
000310 4e 57 1d 3e 0e 73 ad 3e 2e 49 da 3d b3 0e b1 be
       0.15365335 0.33876842 0.10658489 -0.34581527
000320 0e d1 46 3e e1 16 a3 3d f0 24 1b 3c 96 d5 44 3b
       0.19415686 0.07963348 0.009469256 0.0030034534
000330 fb ab af bd f9 ab 7f bd 52 25 ab 3d a6 c8 a4 3c
       -0.085777245 -0.062419865 0.08356728 0.020115208
000340 94 53 ca bd 5b d4 97 3d 96 84 fb 3d 0b 0f 6e bb
       -0.098792225 0.074135505 0.12281148 -0.0036324884
000350 76 96 88 3d 6b 78 01 3e 80 cd 36 3e e1 81 cd 3d
       0.06669323 0.12643592 0.1785183 0.10034538
000360 61 83 05 3e 5c a2 ec 3e f2 c2 3c 3d 27 17 df bd
       0.13038398 0.4621762 0.04608435 -0.10893088
000370 38 6a 9f 3c 91 fc 76 3d 5c d3 bb bd f6 60 8a be
       0.019459829 0.06029946 -0.09171173 -0.270271
000380 e2 a2 94 3d 33 90 07 3e 53 f4 25 be c6 75 ad bd
       0.0725763 0.13238601 -0.16206484 -0.08469729
000390 14 5c a5 3d 0a 58 22 3e 82 ba 3d be f8 14 20 be
       0.08074203 0.15853897 -0.18528178 -0.15632999
0003a0 62 32 ec bd 1f 7b 32 bd 70 68 c5 3c 8e cc 2a 3e
       -0.11533047 -0.04357445 0.024097651 0.16679594
0003b0 a9 1a 7c 3d a4 ec 8d bc 38 5e d2 bd a7 03 4e be
       0.061548863 -0.017324753 -0.10271877 -0.20118581
0003c0 09 7a 68 bc 63 ed 3f 3e bc 6f ab 3d 4f 48 59 bd
       -0.014189252 0.187429 0.08370921 -0.053047474
0003d0 ec 07 a1 b8 b1 8f 93 bd cd 77 13 3c 12 86 8a bd
       -7.678554e-05 -0.07205141 0.009000731 -0.06763853
0003e0 44 0c 17 bd 26 41 cb bd 4a 90 a3 3d 27 80 55 3c
       -0.03687693 -0.099245355 0.07986505 0.013031042
0003f0 85 57 d7 be 4f e0 ff bd 47 0d d5 3c 0a d9 b4 bb
       -0.4205896 -0.12493955 0.026007308 -0.005519037

actor.0.bias f4 [64]
000000 82 1c c0 3d 9d fe 1f 3e 06 6f bd 3d 54 97 1e 3e
       0.093804374 0.15624471 0.09249692 0.15487415
000010 64 d8 62 3d a2 4c 97 bd 17 ac 28 bd 89 f6 ce 3d
       0.055382147 -0.073876634 -0.041179743 0.101056166
000020 ac 12 9c 3d 99 55 da bb 06 cc 53 3d 8a 1f 51 3d
       0.07620749 -0.006663036 0.051708244 0.05105547
000030 a2 c6 02 3e 2b ee e4 bd 3b 31 a3 bd ac 47 e9 bc
       0.12771085 -0.111782394 -0.07968374 -0.028476559
000040 69 69 4e bd 07 60 e1 3d b2 72 ea 3d 20 7a 0c 3e
       -0.050393496 0.11004644 0.11447658 0.13718462
000050 4f 6a ef 3b 99 ae a4 bb 2a 05 ae 3d 73 8c 55 bd
       0.007306374 -0.0050256965 0.08497079 -0.052135896
000060 c0 53 06 bb 8f 76 0f bd db d3 c4 3d cf db 45 3d
       -0.0020496696 -0.035025176 0.09610721 0.04830533
000070 05 10 34 bd 65 9b 15 3e 9a 55 25 3d 8c 85 c7 bd
       -0.04396059 0.1461006 0.04036484 -0.09742269
000080 86 58 12 3e 88 eb b9 3d da 49 61 3c ec 7a 0c 3d
       0.14291582 0.09078127 0.013750518 0.034296915
000090 ac 9e 06 3d 71 91 3b 3e af 97 df 3d 4e 75 01 3d
       0.032866165 0.183172 0.10917603 0.03160601
0000a0 7b ce 3a 3b 09 be 10 bd 86 99 b8 bc 04 48 49 3d
       0.002850442 -0.03533748 -0.022534143 0.049140945
0000b0 fd cb 46 3e c6 19 96 bb 8b 6e d1 3c 98 29 bd bd
       0.19413753 -0.004580709 0.025565406 -0.09236449
0000c0 6a de bd 3d 34 a1 e6 3c ba 10 79 3d 6c ee 5e 3d
       0.09270938 0.02815304 0.060806967 0.054426596
0000d0 3f a6 ee 3d 7e 59 b2 3d 9c 57 f4 3d 44 8b 35 bc
       0.11652803 0.087084755 0.11930773 -0.011080567
0000e0 6d 70 f6 3d cf 73 0b 3e 0e f9 ad 3d f6 2a b5 3d
       0.12033162 0.13618396 0.08494769 0.08846085
0000f0 a2 3b 75 3d aa ab d1 bc 45 95 0f be cc 33 27 3e
       0.059871323 -0.025594551 -0.14021786 0.16328353

actor.2.weight f4 [64, 64]
000000 51 c4 c4 3e f9 ef c4 3d 81 df 49 3e 17 a0 21 bd
       0.38431028 0.09616084 0.19714166 -0.039459314
000010 f7 de 12 be 22 72 a3 bd cc d0 c9 bc 2f 7c d4 bd
       -0.14342867 -0.079807535 -0.024635695 -0.10375249
000020 47 39 6c 3d 0a 45 df 3d 98 d3 9b bd f8 2c 47 bd
       0.05767181 0.1090184 -0.07608718 -0.04862687
000030 76 77 d6 3d be 2e 21 3e 6d 55 e8 3d 51 e7 7b 3e
       0.10472004 0.15740487 0.11344419 0.24599959
000040 a4 3c 76 3d 51 4e 30 3e ac 95 50 bd 10 51 0d 3e
       0.060116425 0.17217375 -0.05092399 0.13800454
000050 d2 ce b0 3d e0 ff 40 3c d0 fb 4d be ad 95 b8 3c
       0.08633198 0.011779755 -0.2011559 0.022532308
000060 89 da f8 bd 00 dd 94 bd 20 29 c3 bd 24 21 37 be
       -0.12151057 -0.07268715 -0.09529328 -0.17883736
000070 27 f8 8a bd df 60 05 3e f4 f9 90 3e e7 7c a3 3e
       -0.067856126 0.13025235 0.283157 0.3193123
000080 90 12 9e bc 77 cc 7a 3d 6a 60 66 3c db d7 4a be
       -0.01929596 0.06123015 0.014061073 -0.19808905
000090 66 61 47 3e d1 67 0f 3e 1f 7d 3f bd 61 dc 1a 3e
       0.19470748 0.14004447 -0.046750184 0.1512313
0000a0 62 a6 88 3e 89 b2 93 be e7 3e 06 3d 42 92 15 3d
       0.2668944 -0.2884715 0.032774832 0.036516435
0000b0 3d 74 a2 3d 0c 19 e9 bd 2a 21 bb 3d fb b3 4b be
       0.07932327 -0.113817304 0.09137185 -0.19892876
0000c0 e1 e3 55 3e 3c 97 40 3d b3 25 36 3e 5d ee 10 be
       0.2088771 0.04701923 0.17787819 -0.14153428
0000d0 c7 c3 b3 3d 16 ff 35 bd 64 9b a4 bd ad ad 0f 3e
       0.08777576 -0.044432722 -0.08037451 0.14031096
0000e0 3a cd 46 3d 79 8f 27 3e 6f 62 56 3e 0a 2c 6f 3d
       0.048535563 0.16363324 0.20935987 0.05839161
0000f0 0d 97 0b bd 90 2a 1d 3e fe 51 df bb 86 9c e3 bc
       -0.0340796 0.15348268 -0.006815194 -0.027784597
000100 0a 1a cc 3e 72 9d 70 3d 1e 81 b7 3e ec 98 bf b8
       0.39863616 0.0587439 0.35840696 -9.136074e-05
000110 ab ec 5a bd 14 f4 87 3c 4b 02 d7 3c 89 14 c6 bd
       -0.05344836 0.016595878 0.02624621 -0.096718855
000120 a7 09 34 3e 2d e1 f9 3d f5 e4 88 bd 35 4e ec 3d
       0.17581807 0.12201152 -0.06684295 0.11538354
000130 8d 21 10 3e 0e 84 c2 3e 91 c0 5b be f3 bf 44 3e
       0.14075299 0.37991375 -0.21460177 0.19213848
000140 fe 6a 06 3d 03 93 1e 3e 0d d0 10 bd e1 0b 9f 3d
       0.03281688 0.15485768 -0.035354663 0.077659376
000150 ce 9b 73 bd ba 31 96 3d a5 77 9d be 78 9a e3 3d
       -0.05947476 0.07333703 -0.30755344 0.11113447
000160 04 7d 61 3c 54 9e 8c bd 91 d3 a9 bd c6 4b ac bd
       0.013762716 -0.06866136 -0.08292306 -0.0841289
000170 cc b2 23 3e b7 3b b4 3d 98 8f c8 3e 37 d7 8e 3e
       0.15986174 0.08800452 0.39172053 0.2789857
000180 b1 dd 24 3d 1b 42 08 3e eb 7b b4 bd bb 74 9d bd
       0.040250484 0.13306467 -0.08812698 -0.0768828
000190 fc a0 92 3e 6f 51 f0 3e 96 10 11 bd 17 dc 28 3e
       0.28638446 0.4693713 -0.03541621 0.16490208
0001a0 3e a5 3f 3e 49 4e 9c bd 0b ca a9 3d 3c 1d 88 bd
       0.18715379 -0.07632119 0.0829049 -0.06646201
0001b0 1c f6 6c bd aa f9 2a bc 4a 80 1a 3e e6 4b 5a bd
       -0.057851896 -0.010435501 0.15088001 -0.05329504
0001c0 8d d1 b8 3e ad 22 3b be e9 54 8b 3c 11 1e e2 bd
       0.36097375 -0.18274947 0.017008262 -0.11040891
0001d0 37 1e 33 3c 1d be 1d 3e 7f b7 0f bd a2 26 66 bc
       0.010932497 0.15404554 -0.035087105 -0.014047297
0001e0 cb 8d ad 3d f8 5c b7 3d b8 f8 96 3e 29 23 03 bd
       0.084743105 0.08953279 0.29486632 -0.032015953
0001f0 6e 61 8c bd bc b0 05 3e 34 ed dd 3d ad 0d 96 3d
       -0.06854521 0.130557 0.108362585 0.07326827
000200 a2 ac 2b be fa e2 a4 3e 0c 1b 87 bd b6 7d ba bd
       -0.16765073 0.3220442 -0.06596956 -0.09106009
000210 92 51 4e 3e 04 0e a0 bd 71 fc c0 bd d5 c0 77 3c
       0.20148304 -0.07815173 -0.094231494 0.015121658
000220 2e 3f 19 3e b7 07 1f 3e 3b 38 95 bd d1 ed d1 3c
       0.14965507 0.15530287 -0.07286116 0.025626095
000230 91 90 28 3e 78 63 6e be 2e 00 86 3d 44 30 74 bb
       0.16461398 -0.23280132 0.06543003 -0.0037260214
000240 f2 c5 5a 3b 7a 3d 24 3e 14 ef 12 3e 1b 18 8b 3d
       0.0033382145 0.16039076 0.14349014 0.06791707
000250 32 c3 0e 3e 7d 28 07 3e 38 b2 06 bd c4 9f 04 bc
       0.13941649 0.13199039 -0.032884806 -0.008094732
000260 b4 a7 0c 3c c0 66 8a 3e 17 ba b6 3d 2c b8 1f bc
       0.008584905 0.27031517 0.089222126 -0.0097485
000270 5f 71 7a 3e 2b 56 ad 3e 69 8c 3f 3d a4 f3 a0 bd
       0.2445731 0.33854803 0.046764765 -0.07858971
000280 b4 05 6a 3d 8f 10 a4 3d 94 33 68 3e ba ee 39 3e
       0.057134345 0.08010971 0.22675925 0.18157473
000290 01 dc 19 3e cd 6a 75 bd 0f 4c f4 3d 82 2e 98 3d
       0.15025331 -0.059916306 0.119285695 0.07430746
0002a0 bf 14 1c 3e 36 ff 2f bd 2f 72 0e bd 00 ce cf bd
       0.15242289 -0.042967997 -0.034776863 -0.10146713
0002b0 d3 8e ce 3e d2 c4 53 bd ab a5 6a 3e 3c c6 f8 bd
       0.4034334 -0.051701374 0.2291476 -0.12147185
0002c0 22 07 ed 3c 45 9e 73 3e 47 9b 4c bd 0e e6 28 3e
       0.028934065 0.23790844 -0.04995277 0.16494009
0002d0 e4 95 46 be 91 6f 92 3a 01 ae 41 3e b6 0f bf 3e
       -0.19393116 0.0011172165 0.18914033 0.37316674
0002e0 d4 3d cd bb 62 aa 8e 3e 43 f7 0d bd 3a a9 b8 3d
       -0.006263474 0.27864367 -0.034659635 0.090166524
0002f0 17 b0 98 bb d3 c7 41 3e 12 b5 da bc 59 61 c1 3d
       -0.0046596634 0.18923883 -0.02669767 0.09442396
000300 94 b9 af bd 59 90 ae bd 40 9e ad bb a0 2f 13 bd
       -0.08580318 -0.08523626 -0.005298406 -0.03593409
000310 0d e4 13 ba de 64 d3 3d 58 2b af 3d 58 24 06 be
       -0.0005641587 0.10321973 0.08553189 -0.13099802
000320 3e 17 c0 3d f6 11 87 bd 0b 16 24 bd 71 a9 21 be
       0.09379433 -0.06595223 -0.040060084 -0.15787293
000330 d0 8f 3a 3c 4a 20 23 bd eb 19 d6 bd b4 16 a8 bc
       0.011386827 -0.039825715 -0.10454162 -0.020518638
000340 7d 51 c0 bc 48 aa 04 3c 97 1c f4 bd 4d ca f5 bd
       -0.023476357 0.008097239 -0.119195156 -0.120014764
000350 bd 29 8f bc e1 1a 80 3d 00 e5 19 be c2 74 cb bc
       -0.017475957 0.06255127 -0.15028763 -0.024835948
000360 26 a6 1e be 65 38 ce 3d 45 f3 89 3d 2b 35 3c bd
       -0.15493068 0.1006935 0.06735853 -0.045949142
000370 57 ea 14 be 87 a7 f3 3d d1 6c 28 3c 7a 64 e5 3a
       -0.14542519 0.11897188 0.01027985 0.0017501258
000380 cb d9 07 3e ba 24 66 be a8 3b 21 3d 81 44 7c bd
       0.13266675 -0.22474948 0.039363533 -0.061588768
000390 48 ec f7 bd 11 e2 52 be d6 aa b5 bd 22 21 e1 3c
       -0.12105614 -0.2059405 -0.08870475 0.02748162
0003a0 9e 3c b9 3d 5c 7b 9b bd 09 58 20 3d bb a9 00 be
       0.09044765 -0.07591888 0.039146457 -0.12564747
0003b0 37 3d 42 bc 4f f5 e3 bd 4b eb 99 3d ee 60 2a be
       -0.011855415 -0.11130773 0.07515582 -0.16638538
0003c0 f0 97 85 bb 9e 83 9a 3d dd 7d b5 3d b1 01 8f 3c
       -0.0040769503 0.07544635 0.08861897 0.017456861
0003d0 3f ec 4d 3d 68 4b 3d bd b9 0c 3a be 37 cb 83 bd
       0.05027413 -0.04621449 -0.18168916 -0.064352445
0003e0 05 25 0a 3e e3 fc 31 3d bc 09 94 bd 5a f8 d4 bd
       0.13490684 0.043454062 -0.07228419 -0.10398932
0003f0 dd 1a 02 be 2c bc d4 bd 7c 46 82 bd c1 89 01 be
       -0.1270556 -0.103874534 -0.063611 -0.12650205

actor.2.bias f4 [64]
000000 d5 db 71 3d 74 75 c4 3b de eb 73 3e cc be 2b bd
       0.05904754 0.005995447 0.23820445 -0.041930005
000010 30 08 dd bd 15 03 a7 3d ef 73 66 3e 99 af 06 3e
       -0.10792577 0.08154885 0.22505163 0.13152923
000020 f2 91 b3 bc 14 69 bd 3c c5 02 9e bd 26 12 f5 bd
       -0.021920178 0.023121394 -0.07715372 -0.11966352
000030 0b 74 12 3e 69 76 28 bd b9 55 7b 3d d5 83 4c 3e
       0.1430208 -0.04112855 0.06136105 0.19972165
000040 58 45 37 bb e7 93 5a 3d e9 a3 bc bd b5 aa c0 3d
       -0.0027964916 0.053363707 -0.09210951 0.0940756
000050 e2 9f 26 3e c9 21 00 3e 4b 6c 13 bd c1 34 84 bd
       0.16271928 0.12512888 -0.035991948 -0.064553745
000060 3a 8c 18 3e f6 08 0a bd 6e f3 32 3d f5 e5 05 be
       0.14897242 -0.033699952 0.043689184 -0.13076003
000070 ad f1 49 bc 7c 83 8d 3d df 9b c8 3c 85 e8 b6 bc
       -0.012325686 0.06909844 0.024488388 -0.02232767
000080 7c 2c 94 3c 9b 03 a5 3d 34 33 10 bd d3 d2 46 3d
       0.018087618 0.08057328 -0.03520508 0.0485409
000090 82 07 1b 3e 3a bb f3 bd 1e b9 9b 3d 69 c7 62 bd
       0.15139583 -0.11900945 0.07603668 -0.055365954
0000a0 69 72 d6 bc df 27 d7 3c ba 5b 8c 3d 93 2f 00 bd
       -0.026177602 0.02626413 0.06853433 -0.03129537
0000b0 1b a9 30 bd d3 78 21 3e 70 ed 92 3d 2e 94 28 3e
       -0.04313002 0.15768747 0.07174194 0.16462776
0000c0 f3 14 21 3e 54 54 4b 3e 63 9f 4d bd 3a 04 f6 3c
       0.15730648 0.19856387 -0.05020083 0.030031312
0000d0 bd aa 1b bd 2f fc dd bd 35 77 74 bd 91 85 d3 bb
       -0.038004626 -0.10839116 -0.059683997 -0.0064551313
0000e0 d9 c3 da bd af 73 80 bc 63 47 89 3d 01 b9 9a 3d
       -0.10681886 -0.015680162 0.06703069 0.07554818
0000f0 59 17 fc bc ad 2c 24 3d 1d cd d5 bc 67 ab 87 bd
       -0.030772852 0.04008167 -0.026098782 -0.06624489

actor.4.weight f4 [36, 64]
000000 6e 71 c4 be 77 be 87 bd 61 f8 23 bf de 43 68 bd
       -0.3836779 -0.06628125 -0.6405087 -0.05670535
000010 30 9c 1e bd 2f 7c 37 be b7 59 1e bf 10 a1 c8 be
       -0.03872317 -0.17918466 -0.61855644 -0.3918538
000020 45 72 09 3d 10 33 e1 be 36 29 a3 3e 05 13 cd 3b
       0.03355624 -0.4398427 0.3186738 0.006258371
000030 eb f8 ea be 00 1b 95 3c 4d 12 31 be 72 54 09 be
       -0.45893034 0.018201351 -0.17292137 -0.1341112
000040 62 f3 e2 bd 60 70 c9 bd c1 a6 ef 3d 01 fb b9 be
       -0.11081578 -0.09835887 0.11701728 -0.36324313
000050 a5 df 9d 3d 6c 2e 1a 3d 2b 64 14 3e f9 03 8d 3c
       0.077086724 0.037641928 0.14491336 0.017213808
000060 1c 73 c7 3e 4a 4c 3a 3c 99 5c 25 3d 83 48 f3 bd
       0.3895501 0.011370728 0.04037151 -0.11879065
000070 62 0f b8 bd b7 30 4f 3e 7e 38 b2 3e e8 0f f9 bd
       -0.08987309 0.20233427 0.34808725 -0.12161237
000080 89 c9 04 bf 5e 65 97 be 92 1a e5 3e e3 9f 26 be
       -0.5187002 -0.29569525 0.44746834 -0.1627193
000090 1b df 7d be d2 c2 8e 3d f2 46 9b 3e 75 d9 cc bd
       -0.24792139 0.06970753 0.30327564 -0.10002414
0000a0 16 c9 f8 be da 51 51 be 07 99 03 3d 7c 6b 11 3d
       -0.48590916 -0.2044138 0.03212836 0.035502896
0000b0 c3 87 cb 3e 31 88 76 3e 6a 5a 8c bd 72 a2 af 3e
       0.39752015 0.2407539 -0.068531826 0.34303623
0000c0 73 a7 0c 3e 5d 11 14 3f ce b8 77 bd 95 5e 3c bc
       0.13735752 0.57838994 -0.060478978 -0.0114971595
0000d0 c5 65 0f be c5 0e 3d 3d 9d bb a7 be 56 5c 0e bd
       -0.14003666 0.046156663 -0.32760325 -0.034756027
0000e0 9a 38 3e bd 5b 14 da 3e 46 36 2d 3d c1 38 47 3e
       -0.0464407 0.42593655 0.042288087 0.19455244
0000f0 35 8a 0d be a8 62 e4 3e 2b 29 f5 bd dd cd 5a be
       -0.13822253 0.4460652 -0.11970743 -0.21367593
000100 4e 8f f4 3d ea c0 9b 3e 89 b6 1b bf 5f ee 55 bc
       0.11941396 0.3042062 -0.608254 -0.01305732
000110 10 c6 66 bd b8 e5 28 bf 3f 58 3f bf 2a 59 8f be
       -0.05634123 -0.65975523 -0.7474403 -0.27997714
000120 00 17 a1 bd 2c 2e 07 bf 36 3d 97 3e ee f4 b9 bd
       -0.07865715 -0.5280483 0.29538888 -0.0907992
000130 ca f9 02 be 12 af 91 be 6c de 97 3e 7a 38 8f 3d
       -0.127906 -0.2845388 0.29661882 0.06993194
000140 54 01 5c 3d 19 27 e2 be 82 6b a6 bd 9d 07 c6 bd
       0.053712204 -0.44170454 -0.08125974 -0.09669421
000150 fd 17 c5 3e ba 4b 07 bf 92 e0 ef bc a6 77 53 bd
       0.38494864 -0.52849925 -0.029281888 -0.051627778
000160 03 05 d3 3d 59 c7 00 3e d1 25 f9 3d 53 0b db 3e
       0.1030369 0.12576045 0.12165416 0.42782077
000170 39 29 d0 3d 6a 1e 4b 3e d4 73 14 3e fd bf 9c 3e
       0.101641126 0.19835821 0.1449731 0.30615225
000180 60 63 33 bf 9a 45 02 be ab 55 92 3e 37 13 bc 3e
       -0.7007351 -0.12721863 0.28580984 0.3673341
000190 03 83 e3 be 2e bd 1d 3e f9 68 93 3e 98 17 3b 3e
       -0.44435892 0.15404198 0.28791025 0.18270719
0001a0 47 be 45 bf 6f 2e 64 be 3e be 42 3e f8 db b7 be
       -0.77243465 -0.22283338 0.19017884 -0.3591001
0001b0 f6 81 f5 be 6b fe 92 be e7 e5 5b bc 07 8a 9f 3d
       -0.47950715 -0.2870973 -0.013421512 0.077899985
0001c0 7a 1e 72 be 4e cd 34 bd 46 eb 09 3d 43 1a e4 3c
       -0.23644438 -0.044141106 0.03367164 0.027844554
0001d0 53 8c 17 3d a4 83 a1 bd bc db 28 3e 1f fc 91 3d
       0.036999058 -0.078864366 0.16490072 0.071281664
0001e0 d8 a6 cd 3d 5d 09 25 be c3 2a 97 3e b1 6a 9e 3e
       0.100415885 -0.16116853 0.29524812 0.30940774
0001f0 37 68 ae bd b8 28 3f 3e f2 42 c7 bc 10 2a 82 be
       -0.08515971 0.18667877 -0.024323914 -0.25422716
000200 a4 b0 e2 be 08 6d 64 be 5a 07 6b bb 78 08 a2 3d
       -0.4427539 -0.22307217 -0.0035862536 0.079117715
000210 6e 23 f1 bd 52 d3 5c bc 73 5d 71 be 95 27 97 3e
       -0.11774336 -0.013478117 -0.23570804 0.29522386
000220 84 de 96 3e 92 2c da be 04 6d 25 3e a6 17 d1 3e
       0.2946664 -0.4261213 0.16154867 0.40838355
000230 57 48 02 bf b5 f2 f2 3d 94 f1 69 3e 98 4a 36 3e
       -0.5089163 0.11862699 0.22846061 0.17801893
000240 d3 49 ce 3d f1 d5 96 be ad e3 a2 3d 8b bd bd bd
       0.100726746 -0.294601 0.07953582 -0.09264668
000250 ab 88 93 bd 57 2c e5 3d 95 29 b9 3e 37 7d 21 3e
       -0.07203802 0.11190098 0.36164537 0.15770422
000260 af d9 94 be 18 30 d7 3a dd 7e 7b bd 95 19 03 3e
       -0.2907233 0.0016417531 -0.061400283 0.12802728
000270 d4 a2 ca bd 89 1f b5 3e 55 6b d8 bd da cd 93 3e
       -0.09894338 0.35375622 -0.10567347 0.2886799
000280 98 4e ac be 7b 08 d7 3d 8f d9 d6 3d 5f 1b 35 3e
       -0.33653712 0.104996644 0.10490715 0.17686222
000290 80 dd cf be 91 bc b1 bd c7 49 24 be 4f 1c 46 3e
       -0.4059868 -0.08678544 -0.16043769 0.19346736
0002a0 c0 a1 66 3c 98 c9 83 3e 6a 16 7f 3d 6b 6f a6 3e
       0.01407665 0.2573974 0.062277235 0.3250688
0002b0 3b ed 20 be 4c e3 7c 3e ab 61 bb be 8a c1 b8 3d
       -0.15715496 0.24696082 -0.36597952 0.0902129
0002c0 19 b4 75 3e 4f f9 e3 bd 46 8d 25 3e 14 b6 a6 3c
       0.23994483 -0.11131536 0.16167173 0.020350493
0002d0 5e ab 66 3e a4 95 8a 3d 68 a1 f2 bd 1d 2b 11 be
       0.22526309 0.06766823 -0.11847192 -0.14176603
0002e0 b4 ff 04 3d a3 8b d3 3d c8 bf 62 bc eb bf 97 3e
       0.03247042 0.10329368 -0.0138396695 0.2963861
0002f0 b0 35 27 bd d4 66 32 3e a4 aa d0 3e 74 26 85 3e
       -0.040822685 0.17422038 0.40755188 0.260059
000300 bb 33 83 bd 7a 89 22 bd df e1 05 be a4 39 ce 3d
       -0.06406351 -0.03968189 -0.13074444 0.10069588
000310 ce fc 8c bd b1 1f 87 be e1 22 8b be f9 0b ac be
       -0.06884156 -0.26391366 -0.27175048 -0.33602884
000320 bc b7 91 3e 60 da 0b be 45 38 43 be 83 b3 8d bd
       0.2846049 -0.13657522 -0.19064434 -0.06919005
000330 c4 15 c5 be f9 94 52 3e 45 e1 82 3e c4 cf ed bd
       -0.38493168 0.20564641 0.25562492 -0.11611894
000340 fc a2 93 bd 93 9c 3b bd c2 54 a0 bd b1 d9 84 3b
       -0.07208821 -0.045803618 -0.07828666 0.004054271
000350 a0 30 f1 bd e0 68 a3 39 85 fd c7 3d ab 5c 87 3e
       -0.117768526 0.0003116792 0.09765152 0.26437888
000360 d7 95 f4 3b c9 d0 4e bd 69 f7 3b bd 57 9b 12 be
       0.0074641514 -0.05049208 -0.045890246 -0.1431707
000370 ca 8f aa bd da 9d 80 3e d4 13 1b 3e 4a 56 79 3e
       -0.08328207 0.2512043 0.15144283 0.24349323
000380 21 55 6f bd a0 37 08 3e 6c 40 28 3e c8 92 ad 3d
       -0.058430795 0.13302469 0.16430825 0.08475262
000390 88 8f 9a bb 0a d6 12 bd 21 5c 17 3e 5f c5 2f 3e
       -0.0047168173 -0.035848655 0.14781238 0.17165135
0003a0 43 22 3b be 0e 53 5e be 20 d6 82 3d bb c8 ea 3d
       -0.18274789 -0.2171137 0.06388497 0.114640675
0003b0 55 ba 7f 3d 0a d3 89 3e 5b 5f 33 bf bf 5a 66 3e
       0.06243356 0.26918823 -0.70067376 0.22495554
0003c0 79 eb 97 3d ab 48 ca be 48 8b 82 3d d7 2d 76 bd
       0.0741796 -0.39508566 0.06374222 -0.06010231
0003d0 d0 65 6a 3e 01 54 98 bd 3f 45 7a be 82 74 90 3d
       0.22890401 -0.074378975 -0.24440478 0.07053472
0003e0 0d 42 eb 3d 43 48 82 3e ec cf f5 3d 8d c9 0a 3e
       0.114872076 0.25445756 0.120025486 0.13553448
0003f0 7f 58 31 3e e9 98 fe bd 4f 91 93 bd ea 63 20 3e
       0.17318915 -0.12431509 -0.0720545 0.15663114

actor.4.bias f4 [36]
000000 08 0f e1 3c a9 b9 9e bb f0 1f a1 bc 46 d9 0d be
       0.027472988 -0.0048439098 -0.01966855 -0.13852414
000010 ff bc 09 bd 16 a9 99 3d 8d c7 08 3e 0a a8 7e 3d
       -0.033627506 0.07502954 0.13357373 0.062171973
000020 4e 2a 68 3d 91 69 ff 3c 3a 1d f1 3c 18 7a 51 3d
       0.05668097 0.031178268 0.029432882 0.05114183
000030 11 76 18 3e 02 56 cf bd 42 df da 3d ae 21 a1 bc
       0.14888789 -0.101238266 0.10687114 -0.01966938
000040 a3 66 7c be 20 ae c3 be 05 70 7e be 05 d8 9d be
       -0.24648528 -0.38218784 -0.2484742 -0.30828872
000050 ce 87 58 be 7d 3f b8 bd 32 66 3d 3e d5 cd 78 3d
       -0.21145555 -0.089964844 0.18496016 0.06074317
000060 80 18 0d 3e e0 81 aa 3d fd d1 d5 bb ac 3b ac bd
       0.13778877 0.08325553 -0.0065252767 -0.08409819
000070 3b 5c 43 bb d5 a2 f3 3c 70 f8 b6 38 27 e5 4a bd
       -0.0029809612 0.02974073 8.7247114e-05 -0.049534943
000080 eb 61 00 bd e7 3a 26 3b c7 1c 91 3d ef 4f c4 3c
       -0.03134338 0.0025364698 0.07085567 0.023963897

critic.0.weight f4 [64, 62]
000000 64 3a 03 bd 8f 5f 0f bd 83 ed 6d bb 6d 2f 6a bc
       -0.032038108 -0.03500324 -0.0036304898 -0.014293534
000010 4c b4 61 3d 5b f3 82 be 25 02 dd bd a3 d8 92 be
       0.055103585 -0.2557629 -0.10791425 -0.28680906
000020 9f 70 7d 3d 9a 37 20 be e6 9d 14 bd 87 98 11 be
       0.061874982 -0.1564621 -0.036283396 -0.14218341
000030 f4 bb 7a bd bb 5c d2 bc b5 f2 c8 bd ef de 69 be
       -0.061214402 -0.025678983 -0.09811918 -0.22838949
000040 31 0d 5a bd 18 40 6d bc 62 6b c4 3c fd 9f bc 3a
       -0.053235237 -0.014480613 0.023976985 0.0014390942
000050 69 83 a8 3d 85 67 be bd 3d bb 2e bd e8 1f dd bd
       0.082281895 -0.092970885 -0.042659033 -0.10797101
000060 ee 96 ab bd 09 51 e0 3d 8b ec db bd 71 fe b5 3d
       -0.08378397 0.10952956 -0.10738476 0.088864215
000070 ae 93 3f be 0a 0e 25 be a7 16 87 bd ce ed 8f be
       -0.18708679 -0.16118637 -0.065961175 -0.28111118
000080 0b 7b da bd ae 83 99 bd ee 94 e8 bc dd 2f b3 3d
       -0.10668 -0.07495819 -0.028391328 0.087493636
000090 e8 62 0d bd 84 f5 48 3c 58 fe 69 3d ee 14 37 bd
       -0.034518152 0.012265567 0.057127327 -0.044697694
0000a0 9c bb 71 3e bc 3d c3 3c 57 ba 62 bd 82 d8 42 3d
       0.23606724 0.023833148 -0.05535349 0.04756976
0000b0 4b d6 3f 3e f1 5a f4 3d 5d 7f a7 bd 06 d4 b4 bd
       0.1873409 0.11931408 -0.081785895 -0.08829503
0000c0 35 f9 85 3c 7c f4 96 3d 40 f9 10 bd fc 3d 07 bd
       0.016354183 0.073708504 -0.035393953 -0.033018097
0000d0 73 4e a2 3d b3 99 03 3e 38 ce 58 bd b6 b2 59 bd
       0.07925119 0.128516 -0.05293104 -0.053148948
0000e0 64 7e c9 3d 5c 82 df bd 82 60 29 bd fa c8 26 3e
       0.0983856 -0.10913536 -0.041351803 0.16287604
0000f0 71 35 b0 bd 92 b2 0a be 55 70 e3 3d e6 12 ed 3d
       -0.08603943 -0.13544682 0.1110541 0.1157587
000100 6b 16 88 3d 69 1f d2 3b 44 cf 24 bd c5 5b 8d bd
       0.06644901 0.006412436 -0.040236726 -0.06902269
000110 c6 3e 87 bd 2a 81 81 3d 84 7a 10 3d b1 db e4 bb
       -0.0660377 0.06323464 0.03527309 -0.006984197
000120 f2 8f 01 be 42 50 7f be 81 1a bc bd 60 1c 26 be
       -0.12652567 -0.2493296 -0.09184743 -0.16221762
000130 9f 4b 73 3d 3c 92 1a be 45 9b 00 be b0 35 ed 3d
       0.05939829 -0.15094846 -0.1255923 0.11582506
000140 80 9c 86 bc c3 56 00 3e d2 c7 b5 3d 14 50 08 bc
       -0.016432047 0.12533097 0.08876003 -0.008319873
000150 2b 91 fa bd f5 b5 7d bc 46 a3 1f 3d e8 a7 d8 3c
       -0.1223472 -0.0154852765 0.03897407 0.026447251
000160 15 c6 cf 3d db 01 8b bd 42 df 8f 3c 24 fd 43 bd
       0.10145203 -0.06787463 0.017562512 -0.047848836
000170 e1 8f 51 bd 37 ba 10 be ca 66 dd bc 2c 29 a3 bd
       -0.051162604 -0.14133535 -0.027026553 -0.07966837
000180 2c a0 32 39 66 b3 94 3b f8 43 0b 3e 87 52 75 bd
       0.00017035072 0.0045379875 0.13600147 -0.059893157
000190 4e f4 86 3d 1c f4 88 bc 01 fa 1f 3e f6 2d 2e 3c
       0.06589566 -0.016717963 0.15622713 0.010631075
0001a0 02 e1 d3 3b 40 4a 28 be cb 8c fc 3c 45 40 52 3e
       0.006466032 -0.16434574 0.030828854 0.2053233
0001b0 8a 30 3e bd 03 36 85 3d 5f 3a 82 3c 7b 66 ad bd
       -0.04643301 0.065044425 0.015896974 -0.08466812
0001c0 b3 0f 2d bd 39 a5 a4 bd 81 dc 81 3c 12 72 97 3d
       -0.0422513 -0.08039326 0.015852215 0.07394804
0001d0 93 1b 6d be 1f 35 8f 3d 19 8b 04 be 63 9b c0 bc
       -0.2315505 0.06992554 -0.12943687 -0.023511594
0001e0 ea 9b 04 3e 8b 71 2b 3e ae 97 09 3d de ab 53 be
       0.12950101 0.16742532 0.03359192 -0.20671031
0001f0 00 b2 b4 bd fe 21 86 bd 60 06 72 3d d9 18 27 bd
       -0.08823013 -0.06549452 0.05908811 -0.04079518
000200 09 2d c8 bd bb fc cd bd 59 76 71 bd b7 b1 a6 bc
       -0.09774215 -0.1005797 -0.058950756 -0.020348413
000210 10 2d d3 bc 74 a7 67 3d 41 28 0f be 70 34 82 3d
       -0.025778323 0.05655618 -0.139802 0.06357658
000220 ea 40 23 bd 01 37 79 3d e9 1b a2 bd 45 44 d3 3c
       -0.03985683 0.06084347 -0.0791548 0.02578939
000230 05 e0 6c bc cd b2 7e 3d 5e ec aa bb b4 bc 9b 3d
       -0.014457707 0.062182236 -0.0052161654 0.07604352
000240 f3 74 ad bd 4f 4d 59 bd 43 44 3f bc d4 5e 6d bc
       -0.08469572 -0.053052243 -0.01167399 -0.014487941
000250 e4 69 89 bc ad 20 88 3c aa 96 00 be 0d 93 e0 3d
       -0.016774125 0.016617144 -0.12557474 0.10965548
000260 d4 82 96 bd 2d 2c 1b 3e 37 33 07 3d 19 aa 12 bd
       -0.07349172 0.1515357 0.033007827 -0.03580675
000270 9c 3a 00 be bd 3f bd bd e1 96 42 bd e8 d3 8c 3d
       -0.12522358 -0.09240673 -0.04750717 0.068763554
000280 63 8e 85 bd 35 16 73 be 70 d0 2e bd 83 e6 73 bd
       -0.06521299 -0.2373894 -0.04267925 -0.059546005
000290 f7 4b bf bd 56 ec 00 3e 75 04 4c 3e 26 e0 d0 bc
       -0.09340661 0.12590155 0.19923575 -0.025497507
0002a0 b3 64 0a bd 4a 20 61 3d 5a 07 13 bd 4d d3 a7 bc
       -0.03378744 0.054962434 -0.035895683 -0.020486498
0002b0 c4 0e c1 bd 87 9c e1 3d 5c 79 b8 3c 31 cf ef bc
       -0.094266444 0.11016183 0.022518806 -0.029273601
0002c0 f5 ac de bd 00 fb 03 be 32 cd b9 3c b3 7d f4 bd
       -0.10872833 -0.12888718 0.022680853 -0.11938038
0002d0 5e 94 97 3d 7a c4 0e bc 98 02 01 3c 71 cf 8f bd
       0.07401346 -0.008713836 0.007874154 -0.07021988
0002e0 dc c1 50 bd 92 f3 0e be bc f0 6b bd 7d 87 83 bd
       -0.05096613 -0.13960102 -0.05760263 -0.06422327
0002f0 4f f5 d1 bc 07 08 c3 bd 95 43 4c be 58 fe b5 3e
       -0.025629668 -0.095230155 -0.19947655 0.3554561
000300 b9 95 1c 3e 73 31 88 3e e3 4c be be 88 41 67 be
       0.1529149 0.26600227 -0.37168035 -0.22583592
000310 91 9f 0d be 2c ac 26 bd 9a 50 2e 3e 65 27 21 3e
       -0.13830401 -0.04069154 0.17022935 0.15737684
000320 83 10 71 3e 8b 7e 1b 3e 87 01 24 bd f3 94 96 bc
       0.23541455 0.15184991 -0.04004052 -0.018381571
000330 d8 6e 85 3b 0c 73 5f bd f2 b8 20 bd 52 4e 94 bd
       0.0040720515 -0.054553077 -0.039238878 -0.07241501
000340 4c c0 a2 bb 0a 02 0d 3d 64 d3 cf bd 32 e3 81 bd
       -0.004966771 0.034425773 -0.101477414 -0.06342162
000350 a8 33 3e 3d 62 31 e6 3d 57 ac 67 3e 85 09 79 3e
       0.046435982 0.11239888 0.22624336 0.24320038
000360 d2 ff 7e 3d de d6 99 3e db d5 01 3e 31 05 92 3d
       0.062255688 0.30046743 0.12679236 0.071298964
000370 db 6a f2 bd 67 05 a7 bd 20 6b eb be 8e 2d 90 be
       -0.11836787 -0.08155327 -0.45980167 -0.28159755
000380 04 26 e8 3d 61 1e cf 3c 73 69 25 be 9e ae 3b 3d
       0.11335376 0.02528304 -0.16153507 0.045820825
000390 08 64 00 3e 02 3f 87 bc ff e4 fb bd 3c e4 16 bd
       0.12538159 -0.016509537 -0.12299537 -0.036838755
0003a0 14 14 52 3d 5f 5c 87 bd f0 6f 61 be a8 3c e0 3c
       0.05128868 -0.06609415 -0.22015357 0.027372673
0003b0 9a 93 3a 3e ac 3c 29 3d 99 74 14 3c 2d 27 b7 bd
       0.18220368 0.041317627 0.009061002 -0.08943019
0003c0 80 55 fb bd 89 59 70 3d 93 b2 a3 3e 75 0a 17 bc
       -0.12272167 0.058679137 0.3197218 -0.009218802
0003d0 6b 22 14 bd c8 9b 8c bd 53 86 03 bd 8b 94 91 3c
       -0.036165636 -0.068656504 -0.032110523 0.017771026
0003e0 cc 18 61 bd 4e c7 52 3d 1c c2 a8 bc 59 4b 08 3d
       -0.05495529 0.051459603 -0.020600371 0.033274982
0003f0 57 46 36 3d 29 80 99 be b7 c4 20 3e 81 eb 58 bb
       0.044500675 -0.2998059 0.15700041 -0.0033099356

critic.0.bias f4 [64]
000000 ea 02 a8 3d 28 43 e2 3d 1f 4d 12 be b7 84 c3 3d
       0.08203681 0.11047965 -0.14287232 0.09546798
000010 b1 c7 da bd 85 18 48 3d f4 34 0f be 53 7d f2 3b
       -0.10682619 0.04885151 -0.13985044 0.0074001937
000020 b9 36 41 bc 05 ae 05 3e c5 36 81 bd 13 0a 20 be
       -0.011792832 0.13054664 -0.063092746 -0.15628843
000030 cb 01 b1 3d ca 5f 2d bb c8 2d a5 bd 23 0e ac bd
       0.0864292 -0.00264548 -0.08065373 -0.08401134
000040 ca 19 0a bd 4d 65 93 bd af 7e bb bd 7a 3a b5 3d
       -0.033716 -0.07197056 -0.09155022 0.08849044
000050 6e e6 d2 3d e9 76 bd bd e7 93 d2 bc b2 08 e2 bd
       0.10297857 -0.09251196 -0.025705291 -0.11036815
000060 42 c8 ef bd 14 c3 68 be 78 25 17 be 62 1e 21 bd
       -0.11708118 -0.22730666 -0.14760387 -0.039335616
000070 b8 04 6a 3d ca 68 d4 3b dc b8 f6 bd d2 2a 97 bd
       0.057133406 0.0064822184 -0.12046978 -0.07381214
000080 67 33 f2 bd 44 b9 09 be 0f e3 08 bd ad 1f 96 bc
       -0.118262105 -0.1344958 -0.033419665 -0.018325651
000090 b7 75 8a be c2 d5 ba bd 97 cf a7 3d d3 81 12 3c
       -0.27042934 -0.09122802 0.081938915 0.008942085
0000a0 0a b2 77 b9 f2 f3 70 be 14 bc b9 3d eb ed 51 3d
       -0.0002362208 -0.23530558 0.09069076 0.051252287
0000b0 ad 37 c4 3a 62 a2 98 3d b1 59 a8 bd 91 e7 8d 3d
       0.0014970206 0.07452847 -0.08220232 0.069289334
0000c0 3b 50 2a bd 26 7e a0 bb 6a 6a f8 bb f2 79 f6 bd
       -0.04158042 -0.0048978506 -0.007581045 -0.12034978
0000d0 e9 37 b8 bd c0 2f f2 3d 4c 02 97 3c 9f 58 40 3c
       -0.08995039 0.11825514 0.018433712 0.011739879
0000e0 55 6b c9 bd ce 4b a7 bd a2 3c 90 bd 19 aa 98 bd
       -0.09834925 -0.081687555 -0.07042815 -0.074543186
0000f0 28 4e 70 be 45 49 90 3d 61 63 82 bd 60 94 14 bd
       -0.23467314 0.07045225 -0.06366611 -0.036274314

critic.2.weight f4 [64, 64]
000000 d5 68 86 bd dc b2 0b be 00 d4 67 bb 3c 56 b0 bd
       -0.06562964 -0.13642448 -0.0035374165 -0.08610198
000010 55 8c 33 3c 71 b9 65 3c 18 8b 0d be e5 58 3f bd
       0.010958751 0.014021263 -0.13822591 -0.046715636
000020 10 17 84 3b 9d 86 c0 bd 0c 47 30 3d b7 47 32 3d
       0.0040310696 -0.094006754 0.043036506 0.043525424
000030 8d be 82 3d 5d 54 2b bd 9e 37 a9 3d 94 0e b2 bd
       0.06384001 -0.041828502 0.08262561 -0.08694187
000040 aa 87 a9 3a fd e2 08 be fc 0c bc bc 32 f0 9b 3d
       0.0012934108 -0.13367839 -0.02295541 0.07614173
000050 3c 4b 93 bd 63 45 4b b9 fc 99 ab bd 95 d6 66 3d
       -0.07192084 -0.00019385437 -0.083789796 0.056356985
000060 07 47 98 3b 3a b8 a0 38 3c cc 71 bd 7b fc c7 3c
       0.004647139 7.6637094e-05 -0.059032664 0.024412384
000070 b3 7e 8e 3c 4e a6 3c 3c c9 be f5 bd be 08 34 3d
       0.0173944 0.0115142595 -0.1199928 0.04395365
000080 b3 da 28 bd dc 83 20 bd 79 2a 20 3a 39 58 7b 3d
       -0.041224193 -0.03918825 0.00061098445 0.061363433
000090 9b dc 42 3c 19 4f f2 bd 67 a0 00 be 29 56 57 bd
       0.011893417 -0.11831493 -0.12561189 -0.052572403
0000a0 98 d1 19 be 70 23 aa 3d 31 cb 91 3d 45 d3 07 3d
       -0.1502136 0.083075404 0.07118834 0.033160467
0000b0 ad e9 de ba 6a 18 8a 3d 2f 2f 11 be 59 19 5a bc
       -0.0017006897 0.06742938 -0.14178155 -0.013311707
0000c0 aa 5c 15 be 44 33 a3 3d 39 53 7b 3d 9d 6d f8 bd
       -0.1458613 0.079687625 0.061358664 -0.12130282
0000d0 8c 91 c6 bc c3 24 f4 bc f2 65 4e 3d af 7e b2 3d
       -0.024239324 -0.029802686 0.05039019 0.08715569
0000e0 8f 2c c9 bd 80 1f e5 3b 14 69 96 bc 87 e5 e6 bc
       -0.09822952 0.0069922805 -0.018360652 -0.028185619
0000f0 5c 7e 01 be 63 8e 0d 3d 76 e7 9f ba 6a db 7c 3d
       -0.12645859 0.03455962 -0.0012199718 0.061732687
000100 b0 a6 3f 3d 8a 08 4a be 0e 59 3c be 68 ff 5e bd
       0.046789825 -0.1972982 -0.18393347 -0.054442793
000110 bf 1c 6a 3d 6f a8 13 be b5 c4 3b 3d 57 e2 76 bd
       0.05715632 -0.14419721 0.04584189 -0.06027445
000120 9c 31 15 be f0 b4 4f 3d 65 fd 05 3e 4c b5 06 be
       -0.14569706 0.050709665 0.13084944 -0.13155097
000130 99 46 e6 3c d2 6a b4 bd 64 74 91 bc ab 55 63 bb
       0.028109835 -0.08809437 -0.017755695 -0.0034688513
000140 7b f8 1e bd 33 6d ec bc 5e ae 41 be 41 36 40 3d
       -0.03881119 -0.028860664 -0.18914172 0.04692674
000150 c5 3a 75 3e 74 30 aa bd 78 5c c0 3d 88 27 19 3b
       0.239482 -0.08310023 0.09392637 0.002336951
000160 27 74 e1 bd c0 63 89 bd 6d 4c 85 bd 8b 06 99 3c
       -0.110084824 -0.06708479 -0.06508718 0.018679878
000170 27 49 9b 3d 68 37 1f be b3 94 51 be 31 c6 c1 3c
       0.07582312 -0.1554848 -0.2046688 0.023654075
000180 6d 94 3c bc 37 3d 74 bd 5d 78 72 3d a7 bd 79 bd
       -0.011509997 -0.05962869 0.05919682 -0.060971882
000190 49 fb f6 3b ba 94 97 bd 39 53 fd bc 70 a9 da bd
       0.0075372797 -0.07401414 -0.030923473 -0.10676849
0001a0 e9 8b ee 3c 63 f2 41 be 25 5c d2 bd fc e6 17 3e
       0.029119449 -0.1894012 -0.102714814 0.14834207
0001b0 de 9f 8e 3e 0f de f5 3d 52 20 52 bd ca 3a bf bc
       0.27856344 0.12005245 -0.051300354 -0.023343462
0001c0 51 3d 4f bd 65 05 2b be 67 f2 ee bd 6f 4b fc bd
       -0.050595585 -0.16701277 -0.11667328 -0.12319075
0001d0 d0 39 00 3e c3 15 f7 bd c7 26 69 3e 1b 24 64 bd
       0.12522054 -0.120646976 0.22768699 -0.055698495
0001e0 53 fa d6 3d 0e a1 82 3d 32 8d 05 be d6 fd 33 3d
       0.10496964 0.06378375 -0.13042143 0.04394325
0001f0 4c 40 6c bd 83 4d 86 bd 64 44 76 bd ea 00 2e be
       -0.057678506 -0.06557753 -0.060123816 -0.16992536
000200 43 09 01 bb de 20 6c bb e6 34 01 3e f8 1f 49 be
       -0.0019689358 -0.0036030333 0.12617835 -0.19641101
000210 df 03 b0 bd 81 82 03 bd 24 2c 8b bd 58 6d 00 be
       -0.08594488 -0.03210688 -0.067955285 -0.12541711
000220 ea e1 51 3d e4 16 b8 bd dd 93 0d be 03 98 1e be
       0.05124084 -0.08988741 -0.13825937 -0.15487675
000230 72 39 39 be 04 f2 8d 3d 73 54 25 3c f6 2c 26 3d
       -0.1808832 0.069309264 0.010090935 0.04057022
000240 3d a6 f0 3d f0 44 98 3c 5e 5a 71 bd 93 d2 11 bd
       0.117504574 0.01858756 -0.05892407 -0.03560121
000250 c5 42 32 be c1 2e 5a bd ca 03 1b 3d 5d 23 b8 bd
       -0.17408283 -0.053267244 0.03784541 -0.0899112
000260 ed ed 93 3d 96 9b cf bd 68 a7 f3 3c d3 c3 4e 3d
       0.07223115 -0.101370975 0.029742911 0.05047972
000270 e1 d9 0f be 89 94 4e bd 13 88 13 3e e0 b8 9a bd
       -0.14047958 -0.050434623 0.14407377 -0.07554793
000280 f5 dc f6 3c 31 15 06 be ac 96 48 bd 1c 6d 8b bd
       0.030134657 -0.13094021 -0.048971817 -0.0680792
000290 a2 ce 9f bd 10 26 0b be fd b9 32 be 05 7e 07 be
       -0.07803084 -0.13588738 -0.17453761 -0.13231666
0002a0 d5 97 67 bd 63 6d 39 3e c6 c4 55 3d 35 b7 90 be
       -0.056541283 0.18108134 0.05218961 -0.28264776
0002b0 14 67 2f be bf 23 00 be 26 9a 9f 3d ff d5 48 be
       -0.17129165 -0.12513636 0.07793073 -0.19612883
0002c0 7b f2 11 bb ef 03 d8 bd 2b 8f ca 3d 84 f3 7e 3c
       -0.0022269774 -0.10547625 0.098905884 0.015560988
0002d0 29 6b 3c bb 08 34 47 be 16 36 3e 3d fe 2c 81 3d
       -0.0028750396 -0.19453442 0.0464383 0.0630741
0002e0 c4 54 80 bc a5 78 9c bc 56 37 57 be b3 b2 41 be
       -0.01566542 -0.019100497 -0.21017203 -0.18915825
0002f0 ad 9b 6d be ec 98 8f 3c 0b 83 87 3c 45 55 0e be
       -0.23203917 0.017528974 0.016541978 -0.13899715
000300 7a cc 84 be 00 83 6e be 64 38 0d 3e d5 5d 74 bd
       -0.25937253 -0.2329216 0.13791043 -0.059659798
000310 26 cf 42 be 24 cc cc bd 69 06 86 3e db 35 46 3e
       -0.19024333 -0.09999874 0.26176766 0.19356482
000320 7b 70 ee bd 52 1c 0c be ba 2d ef bc a9 07 f3 bc
       -0.11642548 -0.13682678 -0.029196609 -0.029666739
000330 23 d1 d3 bd 05 72 3a be ac 1b b6 bd 0d 7a 00 3e
       -0.10342624 -0.18207557 -0.08891997 0.12546559
000340 79 11 cc 3d e7 02 73 bd 79 75 8b 3d cc 6d 02 bd
       0.0996427 -0.05932894 0.068095155 -0.03184299
000350 7d 3f 87 be 99 8a 19 3c 28 78 8c ba 30 f4 06 3e
       -0.26415625 0.009371423 -0.0010716962 0.13179088
000360 9f ec bf bc 36 ca a2 bd 19 a1 43 3d 98 ef 86 3d
       -0.02342826 -0.07948725 0.047761057 0.06588668
000370 5f cf 63 be ba c0 83 be 99 6b ed bc ca 27 60 3e
       -0.22247075 -0.25732976 -0.02898197 0.21890178
000380 03 bc f4 3d 8b 8a fb bd 48 6a 2c 3d 5d 9b 56 be
       0.11949923 -0.12282284 0.042093545 -0.20957704
000390 01 ab c0 bd 08 69 18 be ef 7b 01 bc 61 20 1f be
       -0.094076164 -0.14883816 -0.007903083 -0.15539695
0003a0 af 75 ad 3d 3f f7 22 3e aa 09 8a 3d ee d5 21 3b
       0.08469712 0.1591463 0.067401245 0.0024694162
0003b0 86 59 bd bd d4 79 17 3e d3 1a 14 3e c7 51 82 3b
       -0.09245591 0.14792567 0.14463358 0.003977034
0003c0 3c be 4c bc ba 8d 0a 3e cf c8 1d be 88 9d 8b bd
       -0.012496527 0.13530627 -0.15408634 -0.06817156
0003d0 b5 da 10 be ba e0 a1 3b bc 1a 90 3e 5e df 11 be
       -0.1414593 0.0049401196 0.28145397 -0.14245364
0003e0 92 8c 78 bc d2 c7 08 bd 8f 77 d0 bd 68 4e 44 be
       -0.015170233 -0.03339369 -0.10179054 -0.19170535
0003f0 3e 55 b4 bd de 07 0a be fa 65 01 be f5 f5 a4 bd
       -0.08805321 -0.13479564 -0.12636557 -0.08054725

critic.2.bias f4 [64]
000000 13 b2 96 bd cd d4 51 bd f4 0d a5 3c 0d 09 c5 3d
       -0.07358184 -0.051228333 0.020148255 0.09620867
000010 f0 5d 27 bd 05 ef 1d 38 c3 72 46 bd 6b 69 d2 3c
       -0.04086107 3.765432e-05 -0.04844929 0.025685033
000020 7a 8a 43 3b 1d d1 3c bd cd 3d fb bd c2 aa 15 3e
       0.0029837177 -0.046097863 -0.12267647 0.1461592
000030 c1 b0 b4 bb 7c 71 df 3c 55 c9 a3 bc ba c9 98 3d
       -0.005514235 0.027275793 -0.019993464 0.07460351
000040 34 57 aa 3d f5 74 b1 bd 9c 52 ca 3c d0 58 01 be
       0.08317414 -0.08664886 0.024697594 -0.12631536
000050 96 a6 b8 bd 79 37 c9 bd e7 90 76 bb bb 8b da bd
       -0.09016149 -0.09825034 -0.003762299 -0.10671183
000060 01 47 25 be b9 e5 1b 3e 18 8e 6a 3d 3d 0a d7 3d
       -0.16140367 0.15224351 0.057264417 0.105
000070 aa 2b f8 bd d2 80 1f bd c8 23 5a 3d f3 59 7c bc
       -0.12117703 -0.038941212 0.05325678 -0.015402305
000080 92 ef 9c bc 22 18 4f be 0b 0e c0 bd 65 b8 cd 3a
       -0.019157205 -0.2022405 -0.093776785 0.0015695213
000090 9b 46 15 be c1 55 a2 3d d1 5f 72 bd 67 78 80 bd
       -0.14577715 0.079265125 -0.05917341 -0.06272965
0000a0 50 e1 54 bd 43 f3 ad bd 89 38 2b bd 47 ac ff bd
       -0.051972687 -0.08493664 -0.041801963 -0.12484031
0000b0 8d 6c 81 bd 96 81 32 3d 73 73 f8 3d 7b 45 83 3c
       -0.063195325 0.043580614 0.12131395 0.016024342
0000c0 e3 c3 09 be 80 6c 50 3c eb 0d 00 be 6d cc 03 bb
       -0.13453631 0.012721181 -0.1250531 -0.002011086
0000d0 30 fb 6a 3c ab d3 db 3d 32 c8 7e bc 32 3d c1 3d
       0.014342114 0.10733732 -0.01555066 0.094355
0000e0 bb 0c ea bd 00 6e 9e bd 3a f9 42 ba c9 f5 c5 bd
       -0.114282094 -0.077358246 -0.00074376503 -0.096660204
0000f0 de 61 96 bc ba cd de bc d1 63 d3 3d d8 0b 36 be
       -0.018357214 -0.027197707 0.10321773 -0.17777956

critic.4.weight f4 [1, 64]
000000 62 e5 1e 3a 1f 73 a0 bd b6 da bc bd f1 5d 55 be
       0.00060614024 -0.078344576 -0.09221403 -0.20836617
000010 ae 6c b7 bd 88 6e 0f 3c 16 51 91 bd b3 8d 26 be
       -0.08956276 0.00875438 -0.07095544 -0.16264991
000020 6c 35 9e 3c 37 c6 ea bd 6b 76 be bd 9a 96 98 3d
       0.019312583 -0.11463588 -0.0929993 0.074506
000030 35 1f 97 bd 79 58 25 3d 9d 42 35 3d ee 05 de 3d
       -0.07378999 0.040367577 0.04425298 0.10840975
000040 17 07 1f 3d b0 71 4e be ee 52 3b be bf 2f af 3d
       0.03882512 -0.20160556 -0.18293354 0.08554029
000050 09 12 7d 3d 22 8c bf bd 4c 51 b6 ba 93 40 29 3c
       0.061784778 -0.093529 -0.0013909726 0.010330337
000060 4a 7f 94 b9 e6 74 27 3e 27 af 69 3d f0 3b d4 3c
       -0.00028323598 0.16353187 0.057051804 0.025907487
000070 db b8 a1 bc b2 d3 c7 bd 07 3c b3 3c 8c e4 13 3d
       -0.019741466 -0.097571746 0.02187921 0.03610663
000080 4d c4 27 be 62 b6 bc 3c 27 85 91 3d 38 62 1a 3b
       -0.16383477 0.023036186 0.07105475 0.0023557078
000090 c1 6a c5 3c e2 7c 54 be 62 a0 67 3a ee 42 10 be
       0.024098756 -0.20750764 0.00088358496 -0.14088032
0000a0 66 33 39 bb a1 c7 13 be 0b 37 ef bb 5e 1b 79 be
       -0.0028259396 -0.14431621 -0.007300263 -0.24326846
0000b0 59 b5 35 be f5 84 04 3e 69 e1 69 3d 22 89 1d be
       -0.1774496 0.12941344 0.057099734 -0.15384343
0000c0 7a 5a 83 3c 0a 95 b8 bc b9 14 10 3c a0 ac b4 bd
       0.016034354 -0.022532005 0.008794003 -0.08821988
0000d0 93 f1 62 bd 63 ee 96 3c ab e9 07 be 6c ff bb 3c
       -0.055406164 0.018424219 -0.13272731 0.022948943
0000e0 cc 39 d6 3c b0 ee 5b 3c fa fa 01 3c c5 e5 c1 bc
       0.026150607 0.013423607 0.007933373 -0.023669133
0000f0 e2 16 89 bb 34 f2 4e 3c 7a 70 cc 3c fe 33 03 be
       -0.004183636 0.012630988 0.024955977 -0.12812802
