Models/Reward_shaping_vm/RS_ICM_1_0/31000.pth (torch, 78437 bytes, 11 tensors)

actor.0.weight f4 [64, 62]
0	0x3c9f3702	0.01943541
1	0x3d965ecd	0.073423006
2	0xbdc4b3bb	-0.09604593
3	0x3dd20337	0.102545194
4	0xbe1f43bb	-0.15553181
5	0xbcbe8f05	-0.023261556
6	0xbdfb27e2	-0.122634664
7	0xbf03cf77	-0.5148844
8	0xbe1ab3c5	-0.15107639
9	0x3e34772f	0.1762359
10	0x3ef5daf9	0.48018625
11	0x3f18d39f	0.5969791
12	0x3eda5ac4	0.42647374
13	0x3db2b68d	0.08726225
14	0xbe201e83	-0.1563664
15	0x3e26827b	0.16260712
16	0x3cb15262	0.021645728
17	0xbdee4512	-0.11634268
18	0xbd72dc94	-0.05929239
19	0xbd0121d9	-0.03152642
20	0xbd57effb	-0.052719098
21	0xbb903361	-0.004400656
22	0x3c07b37d	0.008282539
23	0x3d4c42f8	0.049868554
24	0x3db8117a	0.089877084
25	0xbaa7331b	-0.001275632
26	0x3c5092ea	0.01273034
27	0x3d5e5ace	0.054285817
28	0xbcf54166	-0.029938411
29	0xb9761f1d	-0.00023471979
30	0xbca38a28	-0.019963339
31	0xbd82388d	-0.063584425
32	0x3cec39e7	0.028836204
33	0xbde305c4	-0.11085084
34	0x3cc72abd	0.024312371
35	0xbd9542ac	-0.07288107
36	0x3dff3d0e	0.12462817
37	0x3ec73f92	0.38915688
38	0x3d8b2532	0.06794204
39	0x3df8200a	0.12115486
40	0xbd54d3e9	-0.051959906
41	0x3ebf2b5b	0.37337765
42	0xbdf0d8e1	-0.11760116
43	0xbbd78239	-0.006576803
44	0xbdbf09fd	-0.09328077
45	0xbd56681c	-0.05234538
46	0x3cbd3d8f	0.023100642
47	0xbc230a3c	-0.0099511705
48	0xbe098469	-0.13429417
49	0x3cc83484	0.024439104
50	0x3e1db7db	0.15402167
51	0xbe249d1d	-0.16075559
52	0x3dcec8ad	0.100968696
53	0xbe01a8d7	-0.12662064
54	0x3d580233	0.052736472
55	0x3e4c152d	0.19929953
56	0xbe4ebacc	-0.20188445
57	0x3dc9003c	0.09814498
58	0xbca51e46	-0.020156037
59	0x3d6421f9	0.05569646
60	0xbe6dfe31	-0.23241498
61	0xbcdd5736	-0.027019124
62	0xbd94ec06	-0.072715804
63	0x3de2eec1	0.11080695
64	0x3dff72ae	0.12473045
65	0xbd77953d	-0.06044506
66	0xbe0ac9f3	-0.135536
67	0xbd889506	-0.06669049
68	0xbecc6e70	-0.39928007
69	0xbe9ccfe5	-0.3062736
70	0x3d449638	0.047994822
71	0x3e400376	0.1875132
72	0x3ee90fb7	0.45519802
73	0x3f228cbe	0.63496006
74	0x3e5ba30c	0.21448916
75	0x3e7c0678	0.24611843
76	0x3c738024	0.014862094
77	0xbd286b8a	-0.041118182
78	0x3c0c97a5	0.008581077
79	0x3d599451	0.05311996
80	0xbcc9801e	-0.024597224
81	0xbbc64f69	-0.006051947
82	0xbd09acd6	-0.033612095
83	0x3daab08d	0.08334456
84	0xbd7cc5b1	-0.06171197
85	0xbdfe77f4	-0.12425223
86	0xbde5d5c7	-0.112224154
87	0x3b966bd6	0.0045904918
88	0xbdfa44e9	-0.12220175
89	0x3df4acb3	0.11947002
90	0xbd70129a	-0.05861149
91	0xbd1791c0	-0.037004232
92	0xbe07caa3	-0.13260894
93	0x3d11ef73	0.035628747
94	0xbddf7b98	-0.109122455
95	0x3c50cc21	0.012743981
96	0xbc85fb1d	-0.016355092
97	0xbd157e03	-0.036497127
98	0xbc56ae38	-0.01310306
99	0xbdd21a07	-0.102588706
100	0xbc466e5e	-0.0121112745
101	0xbd6ddd33	-0.05807228
102	0xbeaaaec7	-0.3333647
103	0x3d0fb747	0.035086896
104	0xbcf51acb	-0.029920002
105	0xbbcd524b	-0.0062659136
106	0x3e3c5b83	0.18394284
107	0x3e88682f	0.26641986
108	0x3ce24944	0.027622826
109	0x3c123cd5	0.008925636
110	0x3e0695a9	0.13143028
111	0x3e0c6a47	0.13712417
112	0x3df29287	0.11844354
113	0x3d3f99b4	0.046777442
114	0x3de43574	0.11143008
115	0xbe7f0d7e	-0.2490749
116	0x3e00f52c	0.12593526
117	0x3b78fdcc	0.0037993072
118	0x3bdcbedf	0.006736621
119	0x3e00345b	0.12519972
120	0x3d9d00c8	0.07666165
121	0x3d3129b6	0.04325267
122	0x3e16f8a9	0.14743294
123	0x3e4afc19	0.1982273
124	0xbdc264aa	-0.094918564
125	0xbd3eb93b	-0.04656337
126	0xbd32e180	-0.043672085
127	0x3c6577a7	0.014005578
128	0xbb8c955a	-0.004290265
129	0x3d9c90ad	0.07644782
130	0x3edcafaa	0.4310277
131	0x3f0a32b9	0.53983647
132	0x3e82b372	0.2552753
133	0x3e0a5956	0.13510641
134	0xbe857d90	-0.2607236
135	0xbea697e7	-0.32537767
136	0x3d6c2c24	0.057659283
137	0xbe0449ca	-0.12918773
138	0x3dd70fa3	0.10501029
139	0x3e9225b2	0.28544384
140	0x3d5fc2d6	0.05462917
141	0x3c9b4a0e	0.01895621
142	0x3dc9f5d2	0.0986134
143	0xbd3002ee	-0.042971544
144	0x3b75459f	0.003742553
145	0xbcf06167	-0.02934332
146	0x3dfa4c80	0.122216225
147	0x3dd8e676	0.10590832
148	0xbd85035e	-0.06494783
149	0x3db186b9	0.086682744
150	0x3df780ca	0.120851114
151	0xbd8ca9ba	-0.0686831
152	0x3c45a1ed	0.012062532
153	0x3dcdfb02	0.100576416
154	0x3e299aa4	0.16562897
155	0x3eb8390c	0.35981023
156	0xbd4a1da1	-0.049344663
157	0xba9f1c7f	-0.001213923
158	0x3deafdac	0.11474165
159	0x3d919a28	0.07109481
160	0x3e55d8d8	0.208835
161	0x3ecb86ef	0.39751384
162	0x3b922838	0.004460361
163	0x3e3b6f9e	0.18304297
164	0xbb6cf180	-0.0036154687
165	0x3f173bd3	0.5907566
166	0xbe8aef2f	-0.27135608
167	0x3d508904	0.05091192
168	0xbde84206	-0.11340718
169	0xbe6f8e82	-0.23394206
170	0x3d8fe6d2	0.07026447
171	0x3d8299c7	0.06376987
172	0xbe8292d5	-0.2550265
173	0xbeab2b35	-0.33431402
174	0x3de28633	0.11060753
175	0x3df6c4f8	0.120492876
176	0x3d2f8780	0.042853832
177	0x3d9b4536	0.0758156
178	0xbdb4c12e	-0.088259086
179	0x3e22ea47	0.15909682
180	0x3d64e534	0.055882648
181	0x3cd2e422	0.025743548
182	0x3ac31bd5	0.0014885614
183	0x3d4b757a	0.04967258
184	0xbcf2697e	-0.029591318
185	0xbd8543f9	-0.065071054
186	0x3cae1d75	0.02125428
187	0xbac69626	-0.0015150949
188	0xbde5413a	-0.111940816
189	0x3dd67bf1	0.10472859
190	0x3e153850	0.14572263
191	0x3dffd236	0.124912664
192	0x3ead5c1a	0.3385933
193	0x3eab0edf	0.33409783
194	0xbd7ed8f7	-0.062218633
195	0x3e6ef139	0.23334207
196	0xbcdc084a	-0.026859421
197	0x3e6f480c	0.23367327
198	0x3dabc3ab	0.0838693
199	0xbe7d39fe	-0.24729154
200	0x3e44ede5	0.19231375
201	0x3eca829e	0.39552778
202	0x3ce0878f	0.02740839
203	0xbcf79dcb	-0.030226609
204	0x3dec8f7e	0.115508065
205	0xbd27e35a	-0.040988304
206	0x3d10b361	0.03532732
207	0xbc9f9b46	-0.01948322
208	0xbdb4ad08	-0.088220656
209	0xbdf61a76	-0.12016766
210	0xbdee69f5	-0.116413034
211	0x3c90b9cf	0.017666725
212	0x3b0d47db	0.0021557722
213	0xbdad3b30	-0.08458555
214	0x3e343dda	0.1760172
215	0x3dcfc5eb	0.10145172
216	0x3cb66ec5	0.022269616
217	0x3e32c0fc	0.1745643
218	0xbc81cfbe	-0.01584613
219	0xbd059880	-0.03261614
220	0x3c79fbdf	0.015257805
221	0xbdb81253	-0.0898787
222	0xbd833bee	-0.06407915
223	0xba2a7bf3	-0.0006503455
224	0xbc9e74e4	-0.019342847
225	0xbb38113d	-0.0028086447
226	0xbd5c66ce	-0.05380898
227	0xbe66fe59	-0.22557963
228	0xbda42371	-0.080145724
229	0x3e3314e9	0.17488445
230	0xbdbc708d	-0.09201155
231	0x3ca28f60	0.019843757
232	0x3e06a389	0.13148321
233	0x3c464533	0.012101459
234	0xbe0e30fc	-0.13885874
235	0xbe8681d5	-0.2627093
236	0x3dcd78a8	0.10032779
237	0x3cf1974f	0.029491095
238	0x3ad6741f	0.0016361511
239	0xbe1bd36f	-0.15217374
240	0xbd90d85f	-0.070725195
241	0x3e1e87ba	0.15481463
242	0xbcb301f3	-0.021851515
243	0xbd9b1394	-0.075720936
244	0xbde0a2ae	-0.10968529
245	0x3cca9376	0.024728518
246	0xbe25d1b8	-0.16193283
247	0x3dcdfc24	0.10057858
248	0x3d4124ed	0.047154356
249	0xbdefedc1	-0.1171527
250	0xbcad00d1	-0.021118553
251	0x3d47a8f2	0.048745103
252	0xbe5eca83	-0.2175694
253	0xbe450af3	-0.19242458
254	0x3e04436c	0.12916344
255	0xbc0d7ca8	-0.008635677

actor.0.bias f4 [64]
0	0x3cc37020	0.023857176
1	0xbcdb900f	-0.02680209
2	0xbbd1d8c5	-0.006404015
3	0x3d960f11	0.073270924
4	0xbd5f29f4	-0.05448337
5	0xbdaadfd8	-0.08343476
6	0x3c075ae8	0.00826142
7	0x3e057bbf	0.13035487
8	0x3d0bd3db	0.034137588
9	0x3d398539	0.045293067
10	0x3dc12d45	0.094324626
11	0xbdbbc64e	-0.09168683
12	0xbe0004b7	-0.12501799
13	0xbc1a7fc9	-0.00942988
14	0x3be5bda3	0.007011132
15	0x3df69f73	0.12042131
16	0x3d9e808c	0.07739362
17	0x3d7843fe	0.060611717
18	0x3db95a59	0.090504356
19	0xbd1c23d5	-0.03812011
20	0xbc69fa5d	-0.014280883
21	0xbd292348	-0.041293412
22	0xbde87d3b	-0.11352011
23	0xbe0b550f	-0.13606666
24	0xbd6ba7d3	-0.057533097
25	0xbc039d42	-0.008033099
26	0xbc318736	-0.010835459
27	0x3da17bbb	0.07884928
28	0x3af5d50a	0.0018755507
29	0x3d0c20e9	0.034211073
30	0xbd145b8e	-0.036220126
31	0x3c82a46f	0.015947549
32	0x3d89e865	0.06733779
33	0x3d638d86	0.05555489
34	0x3e50416f	0.20337461
35	0xbd59d9c3	-0.05318619
36	0x3cf6c007	0.030120863
37	0x3d0bc643	0.034124624
38	0x3e1871b1	0.1488712
39	0x3e031bdd	0.12803598
40	0x3d76c3c3	0.060245287
41	0x3e2b7f74	0.16747838
42	0xbdb76ada	-0.08955927
43	0x3e41f500	0.18941116
44	0x3cdf809e	0.02728301
45	0x3d94ef25	0.07272176
46	0x3e3e87fd	0.18606563
47	0x3d85431f	0.06506943
48	0x3e06fe08	0.13182843
49	0x3b6e3293	0.0036346063
50	0x3dd319fd	0.10307691
51	0x3d417839	0.047233794
52	0xbd5a96fc	-0.053366646
53	0x3b90250d	0.004398948
54	0xbc035ec6	-0.008018201
55	0x3df212c4	0.118199855
56	0x3dfb9e35	0.12286035
57	0xbc98e172	-0.018662188
58	0x3e104040	0.1408701
59	0x3db3c178	0.087771356
60	0x3ce8b069	0.028404431
61	0x3d3eeab0	0.046610534
62	0xbd9e507d	-0.07730196
63	0x3dc7ec16	0.09761827

actor.2.weight f4 [64, 64]
0	0xbe452a88	-0.19254506
1	0xbe073620	-0.13204241
2	0xbd4ee829	-0.050514374
3	0x3dd5654e	0.10419713
4	0x3e079256	0.13239416
5	0x3e911bed	0.28341618
6	0xbd713186	-0.05888512
7	0x3e0edf52	0.13952377
8	0x3e10c1da	0.14136449
9	0xbe6eb93f	-0.23312853
10	0x3e53529b	0.2063698
11	0xbe04a03f	-0.12951754
12	0x3c9b2446	0.018938195
13	0x3dbdfa16	0.09276216
14	0x3d577ea4	0.05261101
15	0xbe33912e	-0.1753585
16	0x3dd588fa	0.10426517
17	0xbe07f9e5	-0.13278921
18	0x3d808dfe	0.06277083
19	0xbd94d99f	-0.072680704
20	0x3e4ba85d	0.19888444
21	0xbd4c90e7	-0.049942877
22	0xbddfdc61	-0.10930706
23	0x3da19cbc	0.07891223
24	0xbe270769	-0.1631142
25	0x3e4857e6	0.1956478
26	0x3d9b2a63	0.07576444
27	0x3b8663c7	0.00410125
28	0x3d7c5a7b	0.061609726
29	0xbdcbd85b	-0.09953376
30	0x3da2562f	0.079265945
31	0x3e0d4238	0.13794792
32	0xbd213033	-0.039352607
33	0xbd79fabc	-0.061030135
34	0x3b9affab	0.004730185
35	0x3e0ff34d	0.14057656
36	0xbe8cb3e5	-0.27481
37	0x3d35c9ff	0.04438209
38	0xbda91b04	-0.08257106
39	0x3cc7718b	0.024346134
40	0xbdd396b3	-0.10331478
41	0xbe422274	-0.18958455
42	0xbd1b43e5	-0.037906546
43	0x3d3ec02a	0.04656998
44	0x3cd76936	0.026295286
45	0xbd55294f	-0.052041348
46	0x3e14b7f7	0.14523302
47	0xbd0138e8	-0.03154841
48	0xbc307a66	-0.01077137
49	0x3dd9d945	0.10637144
50	0xbd9aba8b	-0.075551115
51	0x3e0fb5b4	0.14034158
52	0xbdbc874d	-0.09205494
53	0xbe3c7d38	-0.18407142
54	0x3dc2d3f3	0.09513082
55	0x3e3eb97e	0.18625447
56	0x3d2becb5	0.04197379
57	0xbd407b69	-0.046992693
58	0x3d8db1bd	0.069186665
59	0xbdcdb9e6	-0.10045223
60	0x3db0713a	0.08615346
61	0xbda76e37	-0.08175319
62	0xbd995cc4	-0.07488397
63	0x3d8e66ca	0.06953199
64	0xbe34c607	-0.17653666
65	0xbeb0e653	-0.34550723
66	0x3ed62cca	0.41831046
67	0x3ea8daf9	0.32979563
68	0x3e62d83e	0.22152802
69	0xbe9d193b	-0.30683312
70	0xbd81af0d	-0.063322164
71	0x3e9b1342	0.3028813
72	0x3eb74783	0.35796747
73	0x3e1c7cbe	0.1528196
74	0x3e585065	0.21124418
75	0xbd7701a8	-0.060304314
76	0xbd74d5f6	-0.05977436
77	0xbe8423f6	-0.25808686
78	0xbe011f9a	-0.12609711
79	0x3ecf1d0a	0.40451843
80	0xbe444d11	-0.19170024
81	0x3defd05e	0.11709665
82	0x3e800230	0.2500167
83	0x3ca1f4e0	0.019770086
84	0x3dcbb9a7	0.0994752
85	0x3eb9ae24	0.3626567
86	0x3da4a5fe	0.08039473
87	0x3e4b85b5	0.19875224
88	0xbd2f1918	-0.04274854
89	0xbc018605	-0.007905488
90	0x3e00c9d4	0.12576991
91	0x3d28a9bd	0.0411775
92	0xbe603673	-0.2189577
93	0xbda05727	-0.07829123
94	0x3e69cb56	0.22831473
95	0x3c000ca5	0.007815515
96	0xbe445634	-0.19173509
97	0xbd930061	-0.07177807
98	0x3eb28706	0.3486864
99	0x3e30399d	0.17209478
100	0x3eb0e1cf	0.34547278
101	0xbe234b96	-0.15946802
102	0xbde4650f	-0.11152088
103	0xbea3018e	-0.31837124
104	0x3ebe126b	0.37123427
105	0x3e414ebf	0.18877696
106	0x3e6037bc	0.21896261
107	0xbe36e230	-0.17859721
108	0xbe1a386f	-0.1506059
109	0xbd944cf7	-0.072412424
110	0x3d17001b	0.036865335
111	0x3e26f1ba	0.16303149
112	0x3e12d821	0.14340259
113	0xbd726c7e	-0.059185497
114	0x3d66cd19	0.05634794
115	0x3e28f98f	0.16501449
116	0x3b4bcd7d	0.0031097822
117	0xbd878360	-0.06616855
118	0xbdeebf20	-0.11657548
119	0x3dff27ec	0.12458786
120	0x3e89424a	0.26808387
121	0x3e6afe8b	0.22948663
122	0x3d954b37	0.07289737
123	0xbcdfd2ab	-0.027322134
124	0xbdae9d17	-0.08526056
125	0x3b316e7e	0.0027073915
126	0xbe35c87f	-0.17752264
127	0xbd955e76	-0.072934076
128	0xbe807011	-0.250855
129	0x3d65b682	0.056082256
130	0x3e14aca8	0.14518988
131	0x3e8f8c8b	0.28036913
132	0x3e0ec30e	0.13941595
133	0xbe271363	-0.16315989
134	0xbd3ee7e4	-0.046607867
135	0xbda22b10	-0.0791837
136	0x3b403f6f	0.0029334684
137	0x3e7faeee	0.24969074
138	0x3e9ad596	0.30241078
139	0x3e70995a	0.23495999
140	0xbde54c5d	-0.11196206
141	0x3e755991	0.23959948
142	0xbe487f7f	-0.19579886
143	0x3d843bdb	0.06456729
144	0x3e4e8936	0.2016953
145	0x3dbf6309	0.09345061
146	0x3e50459c	0.20339054
147	0xbe1f4338	-0.15552986
148	0xbd97cf30	-0.07412565
149	0x3e0fd8fd	0.14047618
150	0xbd22cdbf	-0.039746996
151	0x3e570d5b	0.21001188
152	0x3e9442f5	0.28957334
153	0xbdab06a5	-0.08350877
154	0xbe277f00	-0.1635704
155	0xbd4798a6	-0.04872956
156	0xbdb42652	-0.087963715
157	0x3d0187aa	0.03162352
158	0x3d9f6678	0.07783216
159	0xbd08130e	-0.033221297
160	0x3df2061a	0.1181757
161	0x3df031b3	0.117282294
162	0x3da78e09	0.08181388
163	0xbb8c84de	-0.0042883
164	0x3e3ed0bc	0.18634313
165	0xbb6120e0	-0.003435187
166	0xbda76462	-0.081734434
167	0xbe35d96f	-0.17758726
168	0x3c44dba4	0.012015257
169	0x3db4f9be	0.08836697
170	0x3eac1ecc	0.33617246
171	0xbe2b29bf	-0.16715144
172	0x3c186e34	0.009303618
173	0x3e534bfd	0.20634456
174	0xbdd45355	-0.10367457
175	0xbb6c2ab6	-0.00360362
176	0x3e4704d6	0.19435439
177	0xbe2b5fa0	-0.16735697
178	0x3d9e054c	0.07715854
179	0x3d046064	0.032318488
180	0xbe0bc2e8	-0.1364857
181	0x3d436b67	0.04770985
182	0x3ddb3a0c	0.10704431
183	0x3eae9243	0.34095964
184	0xbda3c89c	-0.079972476
185	0x3e5ac7a1	0.21365215
186	0x3e7d9060	0.24762106
187	0xbd577842	-0.05260492
188	0x3d6e8e91	0.05824143
189	0x3db5e69c	0.08881876
190	0xbd6213c5	-0.055194635
191	0xbcf0778b	-0.029353878
192	0xbd94b9be	-0.0726199
193	0x3c8fe288	0.017564073
194	0x3ea2fea5	0.31834903
195	0x3dc2eb26	0.09517507
196	0x3d6cd007	0.057815578
197	0xbc98991e	-0.0186277
198	0x395a5260	0.00020820787
199	0x3e1554db	0.14583151
200	0x3ef87699	0.48527983
201	0x3e708d78	0.23491466
202	0x3e470bbb	0.19438069
203	0xbe8ed9df	-0.27900597
204	0xbe19149a	-0.14949265
205	0xbe285312	-0.16437939
206	0x3cd490f4	0.025948025
207	0x3e1fd051	0.1560681
208	0xbe146433	-0.14491348
209	0x3e3cb0a9	0.18426766
210	0x3ee2cecd	0.442984
211	0xbe34439e	-0.17603919
212	0xbd815ffa	-0.06317134
213	0x3e8f99ff	0.28047177
214	0xbc5e9e2b	-0.013587515
215	0x3dcdac16	0.100425884
216	0x3dc5da5b	0.096607886
217	0x3de214f9	0.110391565
218	0x3e871f46	0.26391047
219	0xbe170d0f	-0.14751075
220	0xbeb638c7	-0.35590193
221	0xbe1378bc	-0.14401525
222	0x3e4120d3	0.18860178
223	0xbc46affc	-0.012126919
224	0xbbf6c0ae	-0.0075302934
225	0xbe7f8c38	-0.24955833
226	0x3ebe506d	0.37170735
227	0x3d277e1f	0.040891763
228	0x3ea68f78	0.32531333
229	0xbd8df93c	-0.06932303
230	0x3b93e290	0.0045130923
231	0xbd41b436	-0.047291003
232	0x3e932612	0.28739983
233	0xbcba3f34	-0.022735216
234	0xbe09a8ca	-0.13443294
235	0xbd872190	-0.065981984
236	0xbd74906f	-0.059708055
237	0xbdc88ae4	-0.09792116
238	0x3e08f281	0.13373758
239	0x3e745b84	0.23863035
240	0xbe3b407b	-0.18286316
241	0xbe5bf337	-0.21479498
242	0x3de441bf	0.111453526
243	0x3e271426	0.1631628
244	0x3d5132db	0.05107389
245	0x3e262507	0.16225062
246	0x3d9cc70d	0.076551534
247	0x3d03d056	0.032181107
248	0x3daaf5b0	0.083476424
249	0x3e9cc9e7	0.3062279
250	0xba24747b	-0.00062734605
251	0x3e1f1144	0.1553393
252	0x3e4663be	0.19373986
253	0x3e8debb9	0.27718905
254	0xbeccac2c	-0.39975107
255	0xbd890b63	-0.06691625

actor.2.bias f4 [64]
0	0xbd7f07d5	-0.06226333
1	0x3ddf63b5	0.109076895
2	0x3c1ca7fa	0.009561533
3	0x3e0cd195	0.13751824
4	0x3dd190ed	0.102327205
5	0x3df6a9fe	0.12044142
6	0x3e245fe1	0.160522
7	0x3859f070	5.1960757e-05
8	0x3e2e7f3b	0.17040722
9	0x3daa7b68	0.08324319
10	0x3e354e66	0.17705688
11	0x3e526603	0.20546727
12	0x3da3f8da	0.08006449
13	0x3ade0faf	0.001694193
14	0xbd348b96	-0.044078432
15	0x3d804376	0.06262867
16	0x3cbbee7b	0.022940865
17	0x3d538e8e	0.051649623
18	0xbba41f99	-0.0050086495
19	0xbd1fbd7b	-0.038999062
20	0xbda35b8c	-0.079764456
21	0xbd19e846	-0.03757503
22	0x3d6cb006	0.057785057
23	0x3d8b95e6	0.068157
24	0xbd517c78	-0.051144093
25	0x3d0590c0	0.032608747
26	0xbe15eec6	-0.14641866
27	0xbd8823dd	-0.066474654
28	0xbc5b45c9	-0.013383337
29	0xbde6172d	-0.11234889
30	0xbc860ffa	-0.01636504
31	0x3d76c318	0.06024465
32	0xbe0c48b4	-0.13699609
33	0xbcf4099e	-0.029789742
34	0x3de49ac8	0.11162335
35	0xbe074a98	-0.13212049
36	0x3d6cb086	0.057785533
37	0x3d0d2d44	0.034466997
38	0x3e281683	0.16414838
39	0x3d3eb8dd	0.046563018
40	0x3e08fa0c	0.13376635
41	0x3ca5eaef	0.020253627
42	0x3da448e0	0.08021712
43	0x3d93ab5d	0.07210419
44	0x3dacfdcf	0.08446848
45	0x3e0fb64a	0.14034382
46	0xbdba07ab	-0.09083494
47	0x3d7ce625	0.06174292
48	0xbcd1b8e8	-0.025600865
49	0x3d6538a8	0.055962235
50	0xbd61390e	-0.054986052
51	0xbd854c01	-0.06508637
52	0x3d504433	0.05084629
53	0x3d9dce8e	0.07705413
54	0xbda01f5c	-0.07818481
55	0x3dc2812e	0.09497295
56	0x3d21c8ff	0.039498325
57	0x3e35337e	0.17695424
58	0xbd4579e6	-0.048211955
59	0x3e5082d6	0.2036241
60	0x3d43683e	0.047706835
61	0x3d966a3b	0.073444806
62	0xbda455e3	-0.08024194
63	0xbe028e9f	-0.12749718

actor.4.weight f4 [36, 64]
0	0x3db63b69	0.0889805
1	0x3f1e11b1	0.61745745
2	0x3de14bcd	0.11000786
3	0x3ecd8555	0.40140787
4	0x3e8cc432	0.27493435
5	0xbeaed73d	-0.3414859
6	0xbe856fa8	-0.2606175
7	0xbe51a54e	-0.20473215
8	0xbc6354a0	-0.013875157
9	0xbd6afe70	-0.057371557
10	0xbe4dc0a9	-0.20093025
11	0xbf27f90c	-0.6561439
12	0x3c51beba	0.01280182
13	0xbf149960	-0.5804653
14	0xbe14afb0	-0.14520144
15	0x3d022159	0.031770084
16	0xbe1254d6	-0.14290175
17	0x3ea736c8	0.32658982
18	0xbf16892c	-0.5880306
19	0xbe86908f	-0.26282164
20	0x3d6a0ac9	0.05713919
21	0xbeb699d5	-0.3566424
22	0xbe0d5d2b	-0.13805072
23	0x3eb8a316	0.36061925
24	0xbdf1b8fb	-0.1180286
25	0xbda7a28d	-0.08185301
26	0xbdb53928	-0.08848792
27	0x3d5e1c98	0.054226488
28	0xbed1143f	-0.4083576
29	0x3cf22c92	0.029562268
30	0x3e8f13bf	0.27944753
31	0x3ec1c90d	0.37848702
32	0x3de87c33	0.11351814
33	0x3b564fb6	0.003270132
34	0x3d0e31bf	0.03471541
35	0x3dce9069	0.10086138
36	0xbdb3b6ae	-0.08775078
37	0xbd4cea58	-0.050028175
38	0xbf1ded91	-0.6169062
39	0x3f07e11d	0.5307787
40	0xbf178b8c	-0.59197307
41	0x3da28a49	0.07936532
42	0x3e701ef0	0.23449302
43	0xbf1f87b3	-0.62316436
44	0x3d83ea90	0.064412236
45	0x3e36232f	0.17786859
46	0xbd702b6e	-0.058635168
47	0x3eae0fb9	0.3399637
48	0x3f0938c2	0.5360223
49	0x3d04ac6c	0.032390997
50	0xbe7f21c0	-0.24915218
51	0xbef835ec	-0.4847864
52	0xbf171053	-0.59009284
53	0x3d581725	0.052756447
54	0xbe6131d0	-0.21991658
55	0xbea04fc2	-0.3131085
56	0x3ec7f707	0.39055654
57	0xbed7a294	-0.42116225
58	0x3c70abf2	0.014689432
59	0xbf1f58ae	-0.6224469
60	0xbe134043	-0.14379983
61	0x3db462ab	0.08807882
62	0xbf16ae17	-0.5885939
63	0x3e8189f5	0.25300565
64	0xbeb7e0af	-0.35913607
65	0xbeac8372	-0.33694035
66	0xbe570a74	-0.21000081
67	0xbe8128cb	-0.25226435
68	0xbebed07d	-0.3726844
69	0xbf004d5e	-0.5011805
70	0x3e95f4ec	0.29288423
71	0x3d221a2c	0.03957574
72	0x3e8262f1	0.2546611
73	0xbe1993d9	-0.14997806
74	0xbf3e550d	-0.7434853
75	0xbf3448ca	-0.7042357
76	0x3e9b6cf9	0.30356577
77	0x3ed52ddb	0.41636547
78	0xbdfe015e	-0.124026045
79	0xbbeb5f50	-0.007182993
80	0xbe267a0e	-0.16257498
81	0xbee194ae	-0.44058746
82	0xbeb59b14	-0.35469878
83	0x3ec6a409	0.38797024
84	0x3c0f0b76	0.00873076
85	0xbc3f708d	-0.011684549
86	0x3e73f8b7	0.23825346
87	0x3ca00880	0.019535303
88	0x3e55c13f	0.20874499
89	0xbdc15df0	-0.09441745
90	0x3d90b9f5	0.070667185
91	0x3d5c7f54	0.053832367
92	0x3d972387	0.07379823
93	0x39f3614b	0.0004642106
94	0xbe8f3ba4	-0.2797519
95	0x3d309fb5	0.04312106
96	0x3e8b135b	0.27163205
97	0xbdf07065	-0.117401876
98	0xbdf321d5	-0.11871687
99	0x3d6f9552	0.058492012
100	0xbe025f98	-0.12731779
101	0x3ca060c3	0.01957739
102	0x3dd0a9a9	0.1018861
103	0xbe04854f	-0.12941478
104	0xbd9d01ff	-0.07666396
105	0xbe117370	-0.14204192
106	0xbf00169a	-0.5003449
107	0xbf134f43	-0.5754282
108	0xbe79888f	-0.24368499
109	0xbf0986a2	-0.5372106
110	0xbc6b430d	-0.014359248
111	0x3ed8bc66	0.42331237
112	0x3dead024	0.11465481
113	0xbc49e810	-0.012323394
114	0x3ebe35f4	0.37150538
115	0xbe352cfd	-0.17692943
116	0xbf1379c4	-0.57607675
117	0x3e781710	0.24227548
118	0x3ed934ae	0.42423004
119	0x3ed75f8a	0.42065078
120	0xbe6c793c	-0.23093122
121	0xbe758321	-0.23975803
122	0xbe74056b	-0.23830192
123	0xbf2be0ec	-0.6714008
124	0x3e6e19af	0.23251985
125	0xbde471b7	-0.11154502
126	0x3e74bd6b	0.23900382
127	0x3cc362db	0.023850849
128	0xbe9a1d36	-0.3010041
129	0x3e77da3b	0.24204342
130	0x3ed06406	0.40701312
131	0x3deb572b	0.11491235
132	0x3e53eaab	0.20694987
133	0x3e38abfc	0.18034357
134	0xbe69eeb5	-0.22844966
135	0x3ebc2ae6	0.3675148
136	0xbe78808b	-0.24267785
137	0x3e9ad578	0.3024099
138	0xbf0928f1	-0.53578097
139	0xbe69ed7c	-0.228445
140	0xbde863c5	-0.113471545
141	0x3af891cf	0.0018964353
142	0x3d4c80af	0.04992741
143	0x3d62c3cb	0.055362504
144	0xbdeb1176	-0.1147794
145	0x3e6da466	0.23207244
146	0x3e5268b0	0.20547748
147	0xbebd7d2e	-0.37009567
148	0x3dc7d563	0.09757497
149	0xbe1ae465	-0.15126188
150	0xbe6a5523	-0.2288404
151	0x3e371e45	0.1788264
152	0xbdb06c58	-0.08614415
153	0x3de6a4c7	0.112618975
154	0xbc5b7588	-0.013394721
155	0xbd6c6d87	-0.05772164
156	0x3ee483b3	0.4463173
157	0xbc9633ce	-0.01833525
158	0x3e9e20ba	0.30884343
159	0x3d0bd704	0.0341406
160	0x3e4bcf04	0.19903189
161	0x3de16c8a	0.1100703
162	0x3e9efa71	0.31050447
163	0x3dd5471f	0.10413956
164	0x3b701461	0.003663324
165	0x3dc5c086	0.096558616
166	0xbe116a79	-0.14200772
167	0x3dfa65e5	0.12226466
168	0xbebb21ff	-0.36549374
169	0xbd03c4a0	-0.032169938
170	0xbf04010a	-0.51564085
171	0xbe2031a8	-0.15643942
172	0xbe41cd8b	-0.18926065
173	0xbe4d9920	-0.20077944
174	0xbc41ccd9	-0.011828625
175	0xbe4f1cf3	-0.20225887
176	0x3e16c425	0.1472326
177	0x3d1be38f	0.038058814
178	0x3e9dbeb5	0.3080956
179	0xbeb3b056	-0.3509547
180	0x3ddbcf6f	0.10732924
181	0x3e9cee36	0.3065049
182	0x3eac6a7d	0.33674994
183	0xbe85a53b	-0.26102623
184	0xbeb753bd	-0.35806075
185	0xbe42ad7c	-0.19011492
186	0x3e81cfac	0.25353754
187	0xbec1b830	-0.37835836
188	0xbdcd4fc2	-0.10024978
189	0xbd94859f	-0.07252049
190	0xbec0ec8b	-0.37680468
191	0x3e84836e	0.25881523
192	0xbf024a19	-0.50894314
193	0x3dd50ec1	0.10403205
194	0x3e06a57c	0.13149065
195	0x3e4afa3f	0.19822024
196	0x3e3535e5	0.1769634
197	0x3e2ed241	0.17072393
198	0xbeb458db	-0.3522404
199	0x3e4afb5d	0.1982245
200	0xbee3354d	-0.44376603
201	0x3e8ab56a	0.27091533
202	0x3df4f2bb	0.1196036
203	0xbe9f6c92	-0.3113752
204	0xbdba6982	-0.09102155
205	0x3c29a527	0.010354317
206	0x3ded7892	0.115952626
207	0x3ccab338	0.024743661
208	0x3ec502cd	0.384787
209	0xbd78b624	-0.060720578
210	0xbd18ee8d	-0.037336875
211	0xbd934ebc	-0.07192752
212	0xbd948abc	-0.07253024
213	0xbd934f0e	-0.07192813
214	0xbec688f2	-0.38776356
215	0x3d8250d9	0.06363077
216	0x3deadfbf	0.114684574
217	0xbd875297	-0.0660755
218	0x3e31b24f	0.17353176
219	0xbbf5f617	-0.007506143
220	0xbe4f7541	-0.20259573
221	0x3d0e1090	0.034683764
222	0x3e6e8dbd	0.23296256
223	0xbe63f221	-0.22260334
224	0x3e40bacd	0.18821259
225	0x3de7af7c	0.11312768
226	0x3e959d2a	0.2922147
227	0xbdbd0bda	-0.09230776
228	0xbd5f3785	-0.054496307
229	0xbc169d34	-0.009192754
230	0xbe50631d	-0.20350309
231	0x3e821140	0.25403786
232	0xbf002a7f	-0.50064844
233	0xbb56dd75	-0.0032785807
234	0xbc8e4471	-0.01736662
235	0xbea2c4ff	-0.3179092
236	0x3e4015a9	0.18758263
237	0xbd9b82c3	-0.075933
238	0xbd1c5a2d	-0.038171936
239	0xbc1bd9a1	-0.009512336
240	0xbcc33044	-0.023826726
241	0xbd97b2a5	-0.074071206
242	0xbcff099d	-0.031132514
243	0xbd924059	-0.071411796
244	0xbd1f2646	-0.03885486
245	0x3e4ecc84	0.20195204
246	0xbe1aab5f	-0.15104435
247	0xbef39e7e	-0.47581857
248	0xbddc62cb	-0.10761031
249	0xbeabbd86	-0.33543032
250	0x3e238841	0.15969945
251	0xbca8539d	-0.020547682
252	0xbc88cefa	-0.016700257
253	0xbe81c4bd	-0.25345412
254	0x3cbecc5f	0.023290811
255	0x3e4e325a	0.20136395

actor.4.bias f4 [36]
0	0x3ced48c1	0.028965356
1	0xbe0773d8	-0.13227785
2	0x3c6125eb	0.0137419505
3	0xbe3524e1	-0.1768985
4	0x3d882142	0.066469684
5	0x3e0cd3d4	0.13752681
6	0xbba403de	-0.005005344
7	0x3d65eae8	0.056132227
8	0x3e18762f	0.14888833
9	0xbd36873a	-0.044562556
10	0x3dd98643	0.106213115
11	0xbb5770f9	-0.0032873733
12	0xbd170333	-0.036868285
13	0xbcbb912f	-0.022896377
14	0xbd14bc2e	-0.036312275
15	0x3d0cb98a	0.03435663
16	0xbe21c310	-0.15797067
17	0xbe54e983	-0.20792203
18	0xbe5f7177	-0.21820627
19	0xbe79ccb3	-0.24394493
20	0xbe85f2a5	-0.26161686
21	0x3e1a8da2	0.15093091
22	0x3dc4124d	0.09573803
23	0xbcf0e304	-0.029405124
24	0x3dd54001	0.104125984
25	0x3cd84133	0.026398277
26	0x3ce3fcea	0.02783056
27	0x3d9736f3	0.073835276
28	0xbcc496d7	-0.023997707
29	0x3dd2bc7c	0.10289857
30	0x3dbc51d7	0.09195297
31	0x3df35b6f	0.11882674
32	0xbd823e4f	-0.06359541
33	0xbdc38109	-0.09546096
34	0x3e420e1b	0.18950693
35	0x3d88aab1	0.06673182

critic.0.weight f4 [64, 62]
0	0x3cf8275e	0.03029221
1	0xbdc72535	-0.097238936
2	0xbc3d02aa	-0.01153628
3	0xbdfcb1c0	-0.123385906
4	0x3df46ed1	0.11935199
5	0xbd1b93ed	-0.03798287
6	0x3ddf1ae7	0.10893803
7	0xbc884a21	-0.01663691
8	0x3db0cee9	0.08633215
9	0x3ea0b1fd	0.31385794
10	0xbe22b737	-0.15890203
11	0x3db08d68	0.08620721
12	0xbdac88da	-0.0842454
13	0x3dc92396	0.098212406
14	0x3e199ac4	0.15000445
15	0xbd8137cd	-0.06309471
16	0xbdeedd17	-0.11663263
17	0xbdf86015	-0.12127701
18	0xbda16920	-0.07881379
19	0xbddef32a	-0.108862236
20	0x3d8a13ad	0.06742034
21	0xbddae483	-0.106881164
22	0x3b0eddc0	0.0021799654
23	0xbd73fbc6	-0.05956628
24	0x3da4b072	0.08041467
25	0xbbb60dff	-0.0055558677
26	0xbd7af924	-0.061272755
27	0xbdcb70e1	-0.09933639
28	0x3e37690d	0.17911167
29	0x3ed60c9e	0.418065
30	0x3e6a2763	0.22866587
31	0x3eb412e0	0.3517065
32	0xbdfcafa8	-0.12338191
33	0xbd1acaed	-0.03779118
34	0x3dff6a9c	0.12471506
35	0xbcd8f46d	-0.026483739
36	0xbd9c8003	-0.07641604
37	0xbdc031d0	-0.09384501
38	0x3deb3aeb	0.11485847
39	0xbcdd3a4e	-0.02700534
40	0xbe1db3b2	-0.1540058
41	0x3d950329	0.072759934
42	0x3d4aeb8b	0.049541038
43	0xbd3cbd61	-0.046079043
44	0xbd65e860	-0.056129813
45	0xbdc41585	-0.09574417
46	0x3e0204cb	0.12697141
47	0xbbe0d94c	-0.0068618413
48	0xbe0e6e95	-0.13909371
49	0xbd350c7b	-0.044201355
50	0xbeb0d594	-0.34537947
51	0xbe1aa83e	-0.15103242
52	0x3d072b06	0.033000015
53	0xbba765ea	-0.0051085846
54	0xbda35099	-0.07974357
55	0x3e12e8c5	0.14346607
56	0x3e66d7e0	0.22543287
57	0x3df623d5	0.12018553
58	0xbdbf3258	-0.09335774
59	0xbce74310	-0.02823022
60	0xbd6ae688	-0.057348758
61	0xbe83bb78	-0.25728965
62	0xbab6e04f	-0.0013952347
63	0xbcb10f23	-0.021613663
64	0x3bb7e8b9	0.0056124595
65	0xbdac5f4c	-0.08416614
66	0x3e08ad74	0.13347417
67	0x3e7b0b43	0.24516015
68	0x3bd635fc	0.006537197
69	0xbd6a8a82	-0.057260998
70	0xbe629e81	-0.22130777
71	0xbe192605	-0.1495591
72	0xbd28303a	-0.041061617
73	0xbd4c29a2	-0.04984439
74	0x3d936d88	0.07198626
75	0x3da7b00a	0.08187874
76	0x3da5473d	0.08070228
77	0xbc573b16	-0.013136646
78	0xbd9a073d	-0.07520912
79	0x3d8bf6b2	0.06834163
80	0xbc1bd71f	-0.009511738
81	0x3d2e823f	0.04260468
82	0x3d9dce11	0.0770532
83	0x3c889163	0.016670888
84	0x3d2928b5	0.041298587
85	0xbc0e0527	-0.008668221
86	0xbd411aa4	-0.047144547
87	0xbcdc293a	-0.026875127
88	0xbc707864	-0.014677141
89	0x3d6d7a9c	0.057978258
90	0xbdc4ece6	-0.09615497
91	0x3d270b60	0.040782332
92	0x3dabdd80	0.08391857
93	0x3e854ea1	0.26036552
94	0xbdb4a0aa	-0.08819707
95	0x3dbc86bf	0.09205388
96	0x3d5752ed	0.05256932
97	0xbd996d2d	-0.07491527
98	0xbe9d6ae2	-0.30745608
99	0xbda9968a	-0.08280666
100	0x3d85ff7a	0.06542869
101	0xbe557899	-0.20846786
102	0xbdd64224	-0.10461834
103	0x3c24c853	0.010057527
104	0xbdab7221	-0.08371378
105	0xbe3b3c92	-0.18284824
106	0x3e062377	0.13099466
107	0x3e796d31	0.2435806
108	0xbc9b6e66	-0.01897354
109	0x3ba9dc2d	0.0051837177
110	0xbe008630	-0.12551188
111	0x3d445519	0.047932718
112	0x3ce815a6	0.028330635
113	0xbde33eab	-0.11095937
114	0x3ca2d707	0.019877924
115	0xbdf5127b	-0.119664155
116	0xbd4196bb	-0.04726289
117	0x3db8d404	0.09024814
118	0x3e340361	0.17579414
119	0x3d2618a4	0.040550843
120	0x3daf3928	0.085558236
121	0x3d8752d2	0.066075936
122	0xbb94685b	-0.0045290417
123	0x3cc00893	0.023441589
124	0xbdd8e829	-0.10591156
125	0xbdd37691	-0.10325349
126	0xbcb55222	-0.02213389
127	0xbdf8a6ab	-0.121411644
128	0xbd9aeaaa	-0.0756429
129	0xbe29992f	-0.16562341
130	0x3ce66727	0.028125359
131	0x3cdec663	0.027194208
132	0xbeda934a	-0.42690498
133	0xbe46b9be	-0.19406793
134	0xbbf0aed3	-0.0073450594
135	0xbe57ae12	-0.21062496
136	0xbdb21fd3	-0.08697476
137	0x3dbb3d00	0.09142494
138	0xbc89e9ae	-0.01683506
139	0x3cd0d381	0.025491478
140	0x3dd922b3	0.106023215
141	0x3d0f82de	0.035036914
142	0x3c0852ae	0.008320494
143	0x3de6e010	0.11273205
144	0xbca7a4d6	-0.020464342
145	0xbda5d16f	-0.08096587
146	0xbd02f3af	-0.031970676
147	0x3d2f0506	0.0427294
148	0xbcaff553	-0.021479284
149	0x3ce7b7fb	0.02828597
150	0x3cca83d5	0.024721066
151	0xbdec1a7e	-0.115284905
152	0x3d896f40	0.067106724
153	0x3d5dd96a	0.05416242
154	0xbde33898	-0.11094779
155	0x3ee0c140	0.43897438
156	0xbdcd5149	-0.100252695
157	0x3c05b1c5	0.008160059
158	0xbd468bbc	-0.048473105
159	0x3d281fb1	0.04104585
160	0xbe905036	-0.28186196
161	0xbe489e5f	-0.19591664
162	0x3d5e6f9c	0.054305658
163	0xbe36e83e	-0.17862031
164	0xbdcddd4d	-0.100519754
165	0xbdc8bd0f	-0.09801685
166	0xbcd3d0a0	-0.025856316
167	0xbe5643e3	-0.20924334
168	0x3b9120b9	0.0044289497
169	0x3d2eac72	0.042644925
170	0xbe362e27	-0.17791043
171	0x3d89f0c5	0.06735376
172	0xbd8f0305	-0.06982998
173	0xbd94174b	-0.07231005
174	0xbdb703fb	-0.08936306
175	0xbdbb8327	-0.09155875
176	0x3d8755e1	0.06608177
177	0xbdf815ad	-0.12113509
178	0x3dc04419	0.093879886
179	0x3d208d76	0.039197408
180	0x3e9823d5	0.29714838
181	0xbdbbac77	-0.091637544
182	0xbdba3e0e	-0.09093867
183	0x3bdc34a9	0.006720145
184	0xbe5efce0	-0.21776152
185	0xbe2938d6	-0.16525587
186	0x3d95d80a	0.07316597
187	0x3d995094	0.07486072
188	0x3da14b85	0.07875732
189	0x3b0a5acf	0.0021111255
190	0xbc9e0bdd	-0.019292766
191	0xbcbd79b7	-0.023129327
192	0xbe57c71e	-0.21072051
193	0xbe6e6d54	-0.23283893
194	0xbdac3f9f	-0.08410572
195	0xbc861053	-0.016365206
196	0xbe832cc1	-0.25620082
197	0xbe6d964f	-0.2320187
198	0xbe55c2d2	-0.208751
199	0xbde6fd50	-0.11278784
200	0x3e27248e	0.16322538
201	0x3e1bd8ee	0.15219471
202	0x3d36304a	0.044479646
203	0x3d6c8e80	0.057753086
204	0xbd854bbe	-0.06508587
205	0xbcab27ad	-0.020892942
206	0xbdee2162	-0.11627461
207	0xbdcd474f	-0.10023367
208	0x3db46c04	0.08809665
209	0xbd0953fc	-0.03352736
210	0xbdbf4c60	-0.09340739
211	0xbdde5e60	-0.10857844
212	0x3cda3ffd	0.02664184
213	0x3dd41a45	0.10356573
214	0x3d400ee7	0.046889212
215	0x3d35ad2f	0.044354614
216	0x3d30e287	0.043184783
217	0xbd66d7ba	-0.056358077
218	0x3cb5e660	0.022204578
219	0x3d2729a9	0.040811215
220	0xbd55830f	-0.05212694
221	0x3da02e2a	0.07821305
222	0xbe45845c	-0.19288772
223	0xbd63b9b0	-0.055597007
224	0xbe1f95b6	-0.15584454
225	0xbe5be4d3	-0.21474008
226	0xbdb6d932	-0.089281455
227	0xbcfa76bd	-0.030574197
228	0xbd65a3a0	-0.056064248
229	0xbd85e990	-0.06538689
230	0x3e852a2e	0.26008743
231	0x3e1d617d	0.1536922
232	0x3e02add6	0.12761626
233	0xbd7c5653	-0.061605763
234	0x3d87aa22	0.06624247
235	0xbd7b336b	-0.061328333
236	0x3d1affcb	0.0378416
237	0xbde064c5	-0.1095672
238	0xbcb1e636	-0.021716218
239	0xbe12df07	-0.1434289
240	0xbdcb32c3	-0.099217914
241	0xbd325153	-0.043534588
242	0xbd4ff2f2	-0.0507688
243	0x3d5ff414	0.05467613
244	0xbd632664	-0.055456534
245	0xbdb9b5d2	-0.090678826
246	0xbd3154cd	-0.043293763
247	0xbdaa3f24	-0.08312824
248	0x3b634795	0.0034680117
249	0xbd8fc7bf	-0.070205204
250	0x3c1790a2	0.009250792
251	0x3da0a14c	0.07843265
252	0xbe29e15a	-0.16589871
253	0xbe0c67f7	-0.13711534
254	0xbe121fc5	-0.14269932
255	0xbe1ee29e	-0.15516135

critic.0.bias f4 [64]
0	0xbdfeb8c5	-0.12437586
1	0xbd907466	-0.07053451
2	0xbd096a30	-0.033548534
3	0x3e061e45	0.13097484
4	0x3e5d5d9a	0.21617737
5	0x3dc76e57	0.097378425
6	0xbac741da	-0.001520212
7	0xbe1a672e	-0.15078422
8	0xbc735eb0	-0.014854118
9	0x3de171fc	0.11008069
10	0xbda18d4a	-0.07888277
11	0xbddf1ada	-0.108937934
12	0x3e0965f0	0.13417792
13	0xbe3ecb94	-0.18632346
14	0x3d6e1a83	0.058130752
15	0xbc0e5fdd	-0.008689848
16	0xbd8de6af	-0.06928765
17	0x3e20651f	0.15663575
18	0xbe2bdaec	-0.16782731
19	0x3dc8857c	0.09791085
20	0xbc912e02	-0.017722134
21	0xbd631914	-0.05544384
22	0x3d3aa405	0.045566577
23	0xbe33667a	-0.1751956
24	0x3d81ef1c	0.063444346
25	0xbdd45cb7	-0.103692465
26	0xbcf22d58	-0.029562637
27	0xbd21e0ac	-0.039520904
28	0xbdbf6712	-0.09345831
29	0xbdf06329	-0.11737663
30	0xbdb54d2d	-0.08852611
31	0xbe0c7c38	-0.1371926
32	0xbd809551	-0.0627848
33	0xbb3c2fc7	-0.0028715
34	0xbd6e6bbe	-0.05820822
35	0xbba4f9f8	-0.0050346814
36	0xbdba46c2	-0.09095527
37	0x3cf319be	0.02967536
38	0xbd4ea270	-0.05044788
39	0xbcc126df	-0.023578105
40	0x3dcaf287	0.0990954
41	0xbe819d2f	-0.25315234
42	0xbdd7e79d	-0.105422236
43	0xbe2932b0	-0.16523242
44	0xbde53bc3	-0.11193039
45	0x3df3f6ec	0.11912331
46	0x3e4ebae0	0.20188475
47	0xbb115b04	-0.0022179494
48	0x3c4573f6	0.012051573
49	0xbe1f8397	-0.15577541
50	0xbd9a5d91	-0.075373776
51	0x3e17f1c0	0.14838314
52	0xbdd484d3	-0.10376897
53	0xbe2bacc1	-0.16765119
54	0xbe06f270	-0.1317842
55	0xbc6420e9	-0.013923862
56	0xbd8f1ba3	-0.06987693
57	0xbde30b14	-0.11086097
58	0xbdab2848	-0.083572924
59	0xbdca532a	-0.098791435
60	0xbe13950b	-0.14412324
61	0xbd657573	-0.05602021
62	0xbd96b951	-0.07359565
63	0x3d9af1a1	0.07565618

critic.2.weight f4 [64, 64]
0	0x3df15d37	0.117853574
1	0x3e055f6d	0.13024683
2	0x3dac2874	0.08406153
3	0xbe0f5384	-0.13996702
4	0xbd12bc17	-0.035823908
5	0x3d59bcf0	0.0531587
6	0x3a869ef6	0.0010270763
7	0x3de3c3e8	0.111213505
8	0x3e946331	0.28981927
9	0xbe0c7d6e	-0.13719723
10	0xbd87b8a5	-0.06627015
11	0xbd3a6a40	-0.045511484
12	0xbe0d4d0c	-0.13798922
13	0xbe8e763e	-0.27824587
14	0xbe7f542a	-0.2493445
15	0x3d8fbc47	0.07018333
16	0xbe378d53	-0.17925005
17	0xbeb2faa9	-0.34956864
18	0x3d849e73	0.06475534
19	0x3e3f98e6	0.1871067
20	0x3ea83920	0.32856083
21	0xbd2f8f86	-0.042861484
22	0x3e870cb2	0.26376873
23	0xbdb7b9b0	-0.08970964
24	0xbd0b6896	-0.034035288
25	0xbdd2cb67	-0.10292702
26	0x3e70f8b0	0.23532367
27	0xbd19130a	-0.037371673
28	0x3c3d28d8	0.011545382
29	0xbd428cc0	-0.04749751
30	0xbd23ab95	-0.039958555
31	0x3e1151a7	0.14191304
32	0x3eb75e10	0.35813951
33	0x3d2b35d1	0.04179937
34	0x3ccd2051	0.025039824
35	0xbd547a3a	-0.051874377
36	0xbe57fcdd	-0.21092553
37	0x3e147ed4	0.14501506
38	0xbd2f72aa	-0.04283396
39	0x3e267839	0.16256799
40	0xbd5099ec	-0.05092804
41	0x3cdb69a6	0.026783776
42	0x3e08a0b1	0.13342549
43	0xbd32f5f7	-0.0436916
44	0x3dfc3e39	0.123165555
45	0xbe68ad88	-0.22722447
46	0xbe5d962f	-0.21639322
47	0xbd71f299	-0.05906925
48	0x3e52ce6c	0.20586556
49	0xbdb23a7a	-0.0870256
50	0x3cde0bc8	0.027105227
51	0xbc4836ba	-0.012220079
52	0xbe68d0d0	-0.22735906
53	0x3ca70672	0.020388816
54	0x3e1ca49a	0.15297166
55	0x3d251258	0.040300697
56	0x3cb43ec8	0.022002593
57	0x3e532a0f	0.20621513
58	0x3cf07e14	0.029356994
59	0x3de326b7	0.11091369
60	0x3cafeeed	0.021476233
61	0x3c8f6e9e	0.017508801
62	0x3ddee45f	0.10883402
63	0x3e5beddb	0.21477453
64	0x3d69d6c0	0.057089567
65	0x3e3766b7	0.17910276
66	0x3d1af4b9	0.037831042
67	0x3e29d14b	0.16583745
68	0xbe91be9e	-0.28465742
69	0x3e24b136	0.16083226
70	0x3e2c84e0	0.16847563
71	0x3e0c5802	0.13705447
72	0x3ea2117c	0.31653965
73	0xbca5821e	-0.020203646
74	0x3c7f546c	0.015584093
75	0x3e177d65	0.14793928
76	0x3c7b326e	0.015331848
77	0xbeb97f8d	-0.36230126
78	0xbe434734	-0.1907013
79	0x3d782435	0.060581405
80	0xbdadbf29	-0.084837265
81	0xbdb9b3b9	-0.090674825
82	0x3e1a52e8	0.15070689
83	0x3e479bc5	0.19493015
84	0x3e778130	0.24170375
85	0xbcadbbe1	-0.021207752
86	0x3e97fa44	0.29683125
87	0xbd899aa9	-0.06718952
88	0x3c0f59aa	0.008749405
89	0xbd839a3c	-0.06425902
90	0x3e570279	0.20997037
91	0xbd8976bc	-0.067121
92	0xbcfa1453	-0.03052727
93	0x3df5bebf	0.119992726
94	0x3a2bceba	0.0006553937
95	0x3de7db12	0.11321081
96	0x3eb060b4	0.3444878
97	0x3e42bf0f	0.19018196
98	0x3de20098	0.110352695
99	0x3d901626	0.070354745
100	0xbdea3bef	-0.11437213
101	0x3e26bca0	0.16282892
102	0x3d98b608	0.07456595
103	0x3dd3c8ce	0.10341035
104	0xbadef439	-0.001701004
105	0xbd8381cb	-0.064212404
106	0x3d232087	0.039825942
107	0xbe0d6c8f	-0.13810943
108	0x3d1ea85f	0.03873479
109	0xbda445ed	-0.0802115
110	0x3e260aec	0.16215104
111	0x3e59748e	0.21235868
112	0x3ddc40df	0.10754561
113	0xbdec3920	-0.11534333
114	0x3eaa8c6c	0.33310258
115	0xbe07651a	-0.13222161
116	0x3c67c0fa	0.01414513
117	0x3e05f023	0.13079886
118	0x3cf8c95b	0.030369451
119	0x3e633559	0.2218832
120	0x3cc0e3cc	0.023546122
121	0x3e962318	0.2932365
122	0x3e0c0886	0.13675126
123	0x3d039bc4	0.03213097
124	0x3cc94370	0.02456829
125	0x3d7a2236	0.061067782
126	0x3dfe34e7	0.12412434
127	0x3e56df07	0.20983516
128	0xbe159543	-0.1460772
129	0x3d45e9db	0.048318725
130	0xbd3bf95b	-0.0458921
131	0x3d960d6e	0.0732678
132	0x3e107527	0.1410719
133	0x3da7ef85	0.081999816
134	0x3db7522b	0.08951219
135	0xbdccebbc	-0.100059
136	0xbe2b45d4	-0.16725856
137	0xbbccec7d	-0.0062537775
138	0xbbaf61e8	-0.0053522475
139	0xbe1de794	-0.15420371
140	0x3d2f54f7	0.04280564
141	0xbda0aaa1	-0.07845045
142	0x3d924e94	0.07143894
143	0xbdb368de	-0.08760236
144	0x3d907d25	0.070551194
145	0xbcd78283	-0.02630735
146	0xbde189e2	-0.11012627
147	0xbd37a860	-0.04483831
148	0x3d25b4ef	0.040455755
149	0x3db38da1	0.08767248
150	0x3de2536c	0.11051068
151	0xbe217139	-0.15765847
152	0x3d43cb5e	0.047801368
153	0x3deaba82	0.11461355
154	0xbdf4f09c	-0.11959955
155	0xbb49536e	-0.0030719894
156	0x3c7cad7d	0.015422222
157	0xbc69f76c	-0.014280181
158	0xbc92633e	-0.017869588
159	0x39e94291	0.0004449082
160	0xbcc7d510	-0.024393588
161	0x3def3a05	0.11680988
162	0xbb90fb22	-0.0044244686
163	0xbd0a1abb	-0.0337169
164	0xbe117393	-0.14204244
165	0xbe12b059	-0.14325084
166	0x3da72748	0.08161789
167	0xbd0326cc	-0.03201942
168	0xbd417bcb	-0.0472372
169	0xbd5038fd	-0.0508356
170	0xbe36dba7	-0.17857228
171	0x3ca4ace8	0.02010198
172	0xbcf2e06b	-0.029648026
173	0x3d4e1bcb	0.050319474
174	0xbd6c8177	-0.057740655
175	0x3d7d3134	0.061814502
176	0xbd318bb2	-0.043346114
177	0xbe08d06d	-0.13360758
178	0xbe13b1d2	-0.14423302
179	0x3d7e39bb	0.062066775
180	0xbdb8613b	-0.0900292
181	0xbaaadb9c	-0.0013035419
182	0x3c0ec88a	0.008714804
183	0xbe2abb94	-0.16673118
184	0x3d8de329	0.06928093
185	0xbd1155bd	-0.035482157
186	0x3dd2396a	0.10264857
187	0x3d7fa68a	0.062414683
188	0xbe0bcd6b	-0.1365258
189	0xbe164111	-0.14673258
190	0x3d99eadf	0.07515501
191	0xbdcc5a7a	-0.099781945
192	0xbd43380d	-0.047660876
193	0xbd64c8b0	-0.055855453
194	0xbacdde8b	-0.0015706582
195	0xbdc949c0	-0.0982852
196	0x3da403be	0.08008526
197	0xbc6618c6	-0.014043992
198	0x3d9d3a71	0.076771624
199	0xbdcd9684	-0.10038474
200	0xbd84284a	-0.06452997
201	0x3ba5012b	0.0050355396
202	0xbd673012	-0.056442328
203	0x3c47470f	0.012162938
204	0xbe28c671	-0.1648195
205	0xbdb0c07e	-0.08630465
206	0x3d35d00b	0.04438786
207	0xbe1f587b	-0.15561096
208	0xbcecf8f3	-0.028927302
209	0x3bab4ec3	0.005227895
210	0xbd43862d	-0.047735382
211	0x3d58e6fd	0.052954663
212	0xbdbcbdb5	-0.09215871
213	0x3d62ead7	0.055399742
214	0xbd063106	-0.032761596
215	0xbe32c09b	-0.17456286
216	0xbcaba2d7	-0.020951672
217	0x3d6b4966	0.057443045
218	0xbe0b98fb	-0.13632576
219	0x3d795c9f	0.060879346
220	0xbd9aacae	-0.07552467
221	0xbd0cd03d	-0.03437828
222	0xbd0a4fff	-0.033767696
223	0xbe252442	-0.16127113
224	0xb9afd58b	-0.00033537703
225	0xbe919ea6	-0.28441352
226	0xbe571edc	-0.21007866
227	0x3d672a83	0.056437027
228	0x3c1a537b	0.009419317
229	0x3e08ff8b	0.13378732
230	0xbe081366	-0.1328865
231	0xbe126621	-0.14296772
232	0xbdea3ce3	-0.114373945
233	0x3d0c39a7	0.03423467
234	0xba8c6140	-0.0010710135
235	0xbd2d407e	-0.042297833
236	0x3d9aead6	0.07564323
237	0x3d9420a4	0.07232788
238	0x3e1eb62b	0.15499179
239	0xbd9b624a	-0.075871065
240	0xbe239c66	-0.1597763
241	0x3dfc49c9	0.12318761
242	0xbe6835db	-0.22676794
243	0xbb6d9311	-0.0036250988
244	0x3d8ba63d	0.06818817
245	0x3c7f1ec3	0.015571299
246	0xbdc5f951	-0.09666694
247	0x3bfb6f61	0.0076731895
248	0xbccd3dee	-0.025053944
249	0x3d433175	0.047654588
250	0x3d944bfd	0.07241056
251	0xbda30651	-0.07960189
252	0xbc9b9049	-0.018989699
253	0x3d37aa5a	0.044840194
254	0x3c28575f	0.010274737
255	0x3d6bdc14	0.05758293

critic.2.bias f4 [64]
0	0xbba717da	-0.005099279
1	0xbd96b752	-0.07359184
2	0xbdf3df80	-0.119078636
3	0xbd5b1637	-0.053487983
4	0xbdd1bebf	-0.1024146
5	0xbd5f29ca	-0.054483213
6	0x3dddd966	0.10832481
7	0xbc49b6c6	-0.012311643
8	0x3bf5e266	0.0075037954
9	0xbd81312d	-0.06308208
10	0xbda1968d	-0.078900434
11	0xbdc40486	-0.09571175
12	0xbba23205	-0.0049498104
13	0x3dd784f0	0.10523403
14	0x3da5c6f8	0.08094591
15	0xbd467e80	-0.048460484
16	0x3e1a4f57	0.15069328
17	0x3d10b66b	0.035330217
18	0xbd1ff15a	-0.03904853
19	0xbdb28ba6	-0.08718042
20	0x3d0f3781	0.034965042
21	0x3c4ae1c4	0.012382928
22	0x3d98dcb3	0.0746397
23	0xbdcefdf8	-0.101070344
24	0xbe2c0ad9	-0.16801013
25	0x3ca64074	0.020294406
26	0xbd2945f9	-0.041326497
27	0xbdcc394f	-0.09971868
28	0xbdb73f76	-0.08947651
29	0xbde840f0	-0.11340511
30	0xbcb22b43	-0.021749144
31	0x3dba664a	0.09101541
32	0xbe077300	-0.13227463
33	0xbc3e117b	-0.011600847
34	0x3c9d6c10	0.019216567
35	0xbddb5f4e	-0.10711537
36	0xbd8cf90d	-0.0688344
37	0xbdcdca78	-0.100483835
38	0xbcd8fcaf	-0.026487676
39	0x3e1696a9	0.1470591
40	0x3c58cf7e	0.013233064
41	0xbe08a446	-0.13343915
42	0xbd9d8569	-0.076914616
43	0xbdaa1543	-0.083048366
44	0xbcb31a27	-0.021863056
45	0x3d5e9366	0.05433979
46	0x3d8dd4a4	0.069253236
47	0xbbcfa5d7	-0.0063369083
48	0x3c98f672	0.018672202
49	0x3dbbb498	0.09165305
50	0xbdbfc5da	-0.09363909
51	0x3d5a35d8	0.053274006
52	0xbc32b607	-0.0109076565
53	0xbda0fba8	-0.078604996
54	0xbe16f57b	-0.14742081
55	0xbdd8895e	-0.10573076
56	0x3e0cdcf0	0.13756156
57	0x3ca23bf9	0.019803988
58	0xbd972f38	-0.07382053
59	0x3d0f25e3	0.03494824
60	0x3b700341	0.0036623033
61	0xbe0f8dfc	-0.14019006
62	0xbd2435b0	-0.040090263
63	0x3dc0ef22	0.09420611

critic.4.weight f4 [1, 64]
0	0xbd713ebc	-0.05889772
1	0xbe057b2e	-0.1303527
2	0x3dcb232f	0.0991882
3	0xbc54b73c	-0.01298314
4	0xbe298f51	-0.16558577
5	0xbc6a8c74	-0.014315713
6	0xbd073af6	-0.033015214
7	0x3b754418	0.003742462
8	0x3c007a30	0.007841632
9	0xbe14cde2	-0.14531663
10	0xbdc3ae5b	-0.0955474
11	0x3d8a4f6f	0.06753432
12	0xbdf90156	-0.12158458
13	0x3c3aa83e	0.011392651
14	0xbdb63dd9	-0.08898515
15	0xbc1d4a3b	-0.009600217
16	0x3edea2d1	0.43483594
17	0xbc5b7c94	-0.013396401
18	0xbe475a58	-0.19468057
19	0xbc3eb8d7	-0.011640749
20	0xbdb534b1	-0.08847941
21	0xbd91f66b	-0.071270786
22	0x3cef7f49	0.029235499
23	0xbd27cebc	-0.04096864
24	0xbcb57673	-0.022151208
25	0x3ca6ea8e	0.020375516
26	0xbc0480c4	-0.008087341
27	0xbdcb1d1f	-0.09917664
28	0x3da23deb	0.07921966
29	0xbb90aa1c	-0.00441481
30	0x3dc1da8e	0.09465514
31	0x3ce68f27	0.028144432
32	0xbc3adc07	-0.011404998
33	0xbab559ba	-0.0013835945
34	0xbb567fa0	-0.003272988
35	0xbbfd0801	-0.0077219014
36	0x3a7985f8	0.0009518559
37	0xbd9e3b5e	-0.07726167
38	0x3da877bb	0.08225962
39	0x3dd4b44b	0.10385951
40	0x3d4d29d1	0.050088707
41	0xbb010011	-0.0019683877
42	0x3c405e17	0.011741183
43	0x3a762f92	0.0009391244
44	0xbe31ab68	-0.17350543
45	0xbd81d697	-0.06339758
46	0x3d471e73	0.048613023
47	0x3b0603d9	0.002044907
48	0x3c8a531b	0.01688533
49	0x3dcec495	0.10096089
50	0xbdd4d4b4	-0.103921324
51	0x3c397716	0.011319896
52	0xbde5d68e	-0.11222564
53	0xbe1f2979	-0.15543164
54	0x3d9dbb0e	0.077016935
55	0x3a0e5291	0.00054291735
56	0x3ca02812	0.019550357
57	0xbe1ab0e9	-0.15106548
58	0x3c7df1e1	0.015499563
59	0x3c524deb	0.01283596
60	0xbe084538	-0.13307655
61	0xbda00a4b	-0.07814463
62	0xbc065f14	-0.008201379
63	0x3d86091a	0.06544705
