Models/Reward_shaping_vm/RS_ICM_Meander_11_0/46000.pth (torch, 78437 bytes, 11 tensors)

actor.0.weight f4 [64, 62]
0	0xbdb9de55	-0.090756096
1	0xbe1e35e7	-0.1545025
2	0xbdf37fbb	-0.11889597
3	0xbe076659	-0.13222636
4	0xbd5fb71a	-0.05461798
5	0x3dcd2a3b	0.100178204
6	0xbdc83927	-0.09776526
7	0xbddce8b1	-0.1078657
8	0x3dfc53d0	0.123206735
9	0x3e18b5a0	0.14913034
10	0x3daffd67	0.085932545
11	0x3eab318f	0.33436248
12	0x3ec9520f	0.39320418
13	0xbe388f29	-0.18023361
14	0x3d9c3491	0.07627214
15	0xbe9fef03	-0.3123704
16	0xbd033cd0	-0.032040417
17	0x3d9f33e3	0.077735685
18	0x3dcfdcc4	0.101495296
19	0xbe03463a	-0.12819758
20	0x3e0bf5b8	0.13667953
21	0x3b6c242e	0.0036032307
22	0x3d979acb	0.07402571
23	0x3d1e61ce	0.038667493
24	0xbd25449d	-0.040348638
25	0xbe1395dc	-0.14412636
26	0x3d6896ee	0.056784563
27	0xbd69b153	-0.057053875
28	0xbec6b7f7	-0.3881223
29	0x3ec3a188	0.38209176
30	0x3e0f375e	0.13985965
31	0x3ef96724	0.48711503
32	0x3d6a7129	0.057236824
33	0x3b95e168	0.0045739897
34	0xbda45926	-0.08024816
35	0xbd5b8aec	-0.053599283
36	0x3c81a128	0.015823916
37	0xbd14c13d	-0.0363171
38	0xbdfe9406	-0.12430577
39	0xbd476448	-0.04867962
40	0xbc76214c	-0.015022587
41	0x3dea1ddb	0.11431476
42	0xbe233001	-0.15936281
43	0xbee1d7b3	-0.44109878
44	0x3e31e687	0.17373095
45	0x3eaaac0a	0.3333438
46	0x3bc058df	0.0058699693
47	0xbec4d03a	-0.38440114
48	0x3e3e6092	0.18591526
49	0x3a8390eb	0.0010037696
50	0xbf03a04e	-0.5141648
51	0xbf1cde81	-0.61277014
52	0x3e28373d	0.16427322
53	0x3cf47665	0.029841611
54	0x3de76e04	0.11300281
55	0x3da25a90	0.0792743
56	0xbdd442a1	-0.10364271
57	0x3e37daf6	0.1795462
58	0x3d9ea81e	0.077469096
59	0xbceef3b6	-0.029168945
60	0xbca4da98	-0.020123765
61	0x3d398eeb	0.045302313
62	0x3d46fb47	0.04857948
63	0xbeb69e9e	-0.3566789
64	0xbe429d51	-0.19005324
65	0xbddf4667	-0.109021
66	0x3cd92c06	0.02651025
67	0xbb8b6193	-0.004253575
68	0xbe47168d	-0.19442196
69	0xbc90b4b9	-0.0176643
70	0x3e6a3f09	0.22875609
71	0x3de04288	0.1095019
72	0x3ce77e39	0.02825843
73	0x3d94a9b8	0.07258934
74	0x3ec8133d	0.39077178
75	0x3d8f54a0	0.06998563
76	0x3e0f3e12	0.13988522
77	0x3e04ff8a	0.12988105
78	0x3e247f1d	0.16064115
79	0x3d0f30b6	0.034958564
80	0x3c0aaab2	0.0084635485
81	0xbe2b2c01	-0.16716005
82	0x3ba66dbb	0.005078999
83	0x3dad9348	0.08475357
84	0x3d78775c	0.060660705
85	0xbd941166	-0.07229881
86	0xba5ba0bd	-0.0008378139
87	0xbe50bd2b	-0.20384662
88	0xbcf66674	-0.03007815
89	0xbd8c1598	-0.06840056
90	0x3dd92b32	0.10603942
91	0xbdb9f738	-0.09080356
92	0xbe1bc52b	-0.15211932
93	0x3e0baa3b	0.13639157
94	0x3e2f0f27	0.17095624
95	0x3d50f67a	0.05101631
96	0x3dee03dd	0.116218306
97	0x3d0b5bf3	0.034023236
98	0xbe5ad12f	-0.2136886
99	0x3d1ee1f9	0.038789723
100	0xbeb34bd6	-0.35018796
101	0xbf09efb2	-0.5388137
102	0x3d30ef68	0.043197066
103	0xbda05c1c	-0.078300685
104	0xbd8745d3	-0.06605115
105	0x3ddedf36	0.10882418
106	0x3e2c124a	0.16803852
107	0x3cc9fd3e	0.024656888
108	0xbc7ea320	-0.015541822
109	0xbe82b7b9	-0.25530794
110	0xbebea4c9	-0.37235096
111	0xbea1f728	-0.31633878
112	0xbec4c7b3	-0.38433608
113	0xbe90eb5e	-0.2830457
114	0xbd0d2dd6	-0.03446754
115	0xbb459dbe	-0.0030153836
116	0x3df80dc7	0.12112003
117	0x3e12d082	0.14337352
118	0x3e5a3c0a	0.21311966
119	0x3c547117	0.012966416
120	0x3dbdf244	0.09274724
121	0x3de34493	0.11097064
122	0xbb82f4e7	-0.00399648
123	0xbdaa3af9	-0.083120294
124	0xbdd278dc	-0.10276958
125	0xbe85f7fe	-0.26165766
126	0xbdf3caa4	-0.11903885
127	0xbe342e69	-0.17595829
128	0x3e2e5ea0	0.17028284
129	0x3f0ad987	0.5423817
130	0x3db23145	0.08700804
131	0x3f238968	0.6388154
132	0x3dc434fc	0.095804185
133	0x3eb8a760	0.36065197
134	0x3e0f0921	0.13968326
135	0x3f014150	0.50490284
136	0x3e7cd7cd	0.24691696
137	0x3ed349bd	0.41267195
138	0xbdf56665	-0.11982421
139	0x3e699f07	0.2281457
140	0x3e0c7bbe	0.13719079
141	0x3e1db634	0.15401536
142	0xbd37d26f	-0.04487842
143	0xbdfa5ed8	-0.12225121
144	0x3e52078b	0.2051069
145	0x3e48e606	0.19618997
146	0xbd98b32d	-0.0745605
147	0x3e05d973	0.13071232
148	0xbda97e99	-0.082761
149	0xbbecf9ff	-0.0072319503
150	0xbd1589eb	-0.036508482
151	0xbd449ea0	-0.04800284
152	0x3ef642a9	0.48097733
153	0x3e467376	0.19379982
154	0xbe34304c	-0.17596549
155	0xbd2181d2	-0.039430447
156	0x3da97328	0.082739174
157	0x3d0fa829	0.03507248
158	0xbdade89a	-0.08491631
159	0xbd7465fc	-0.059667572
160	0xbd942f0d	-0.07235537
161	0xbe04aa6d	-0.12955637
162	0xbe935323	-0.28774366
163	0xbec63e0c	-0.38719213
164	0xbdaea16c	-0.085268825
165	0xbe809112	-0.2511068
166	0xbe10cc47	-0.14140426
167	0xbd96b971	-0.07359589
168	0xbe1325f1	-0.14369942
169	0xbe4cc2f4	-0.19996244
170	0x3e4ab39a	0.19795075
171	0x3f32d602	0.698578
172	0x3dd7ecb4	0.105431944
173	0x3e18d5a0	0.14925241
174	0xbe7828d0	-0.24234319
175	0xbebbc689	-0.36674908
176	0x3d15495f	0.036446925
177	0x3d819f45	0.063292064
178	0x3d316117	0.043305483
179	0xbe2c2c51	-0.1681378
180	0x3dcf345a	0.10117407
181	0x3dc1b1c1	0.09457732
182	0x3df88a8d	0.121358015
183	0xbcca25b9	-0.02467619
184	0x3df5eca6	0.12008028
185	0x3da50c49	0.08058984
186	0x3d915573	0.07096376
187	0x3c7cab73	0.015421736
188	0xbd889e9c	-0.06670877
189	0xbe03b17a	-0.1286067
190	0x3d4a2aaf	0.049357112
191	0x3e6f453b	0.23366253
192	0x3e58cce6	0.21171913
193	0x3f2e4697	0.6807646
194	0x3e2eb6be	0.17061898
195	0x3e137c22	0.14402822
196	0x3d1a6a11	0.03769881
197	0x3e25f03f	0.16204928
198	0xbe3da03a	-0.18518153
199	0xbe83d538	-0.2574861
200	0xbde43892	-0.111436024
201	0xbdcf40df	-0.10119795
202	0xbd83e719	-0.06440563
203	0xbd4fb0fb	-0.05070589
204	0xbdca7bcc	-0.09886894
205	0xbcb59589	-0.02216603
206	0x3d9ce7b5	0.07661382
207	0x3e1037e4	0.1408382
208	0x3b980875	0.00463968
209	0xbbd77c79	-0.0065761176
210	0xbc5a70b6	-0.013332536
211	0x3d267837	0.04064199
212	0xbda42978	-0.08015722
213	0xbae89e38	-0.0017747348
214	0x3d90b689	0.07066066
215	0x3d9cd895	0.07658497
216	0x3cae851c	0.021303706
217	0x3e4a444f	0.1975262
218	0xbd87eab2	-0.066365615
219	0xbbb869a6	-0.0056278287
220	0x3dcee2d4	0.10101858
221	0xbab79dbe	-0.0014008803
222	0x3e529deb	0.20568053
223	0x3e4e2718	0.201321
224	0x3eed4e5d	0.4634885
225	0x3e9e4382	0.3091088
226	0xbd81d0b4	-0.06338635
227	0xbd9860d9	-0.07440347
228	0x3db3bea0	0.08776593
229	0xbe2e81f8	-0.17041767
230	0xbe968963	-0.29401693
231	0xbe040d48	-0.12895691
232	0x3d9ab644	0.07554296
233	0x3e7f3048	0.24920762
234	0xbed00711	-0.4063039
235	0xbec66845	-0.38751426
236	0x3eccb3b2	0.39980847
237	0x3e8bfcb0	0.27341223
238	0x3e2a4944	0.16629511
239	0xbc95a7e2	-0.01826853
240	0x3a3c241b	0.0007177011
241	0xbc42b15d	-0.011883107
242	0xbe4eccfa	-0.2019538
243	0xbd5c24b8	-0.053745955
244	0xbbd87348	-0.0066055395
245	0x3dd60041	0.10449267
246	0xbd9570a8	-0.07296878
247	0x3d6f829e	0.058474176
248	0xbd9956f6	-0.074872896
249	0x3e09673a	0.13418284
250	0x3d4496b6	0.04799529
251	0x3dd0ba88	0.10191828
252	0x3d67b721	0.05657113
253	0xbecef5ed	-0.40422
254	0xbddb49aa	-0.1070741
255	0xbf10fde6	-0.5663742

actor.0.bias f4 [64]
0	0x3e5ed575	0.21761115
1	0x3e0a5daf	0.135123
2	0xbd73b5d4	-0.059499577
3	0xbd37b018	-0.04484567
4	0x3e599435	0.21247943
5	0xbd1b2ff0	-0.037887514
6	0x3dbc7b20	0.09203172
7	0xbd565588	-0.052327663
8	0x3cfcbdf0	0.030852288
9	0x3d765229	0.060136948
10	0xbd93d4c0	-0.07218313
11	0xbda7dd1d	-0.08196471
12	0x3e30d8f7	0.17270266
13	0x3dcb0e79	0.0991487
14	0x3e035454	0.12825137
15	0x3e42a877	0.19009577
16	0x3d813332	0.06308593
17	0x3e350c24	0.17680413
18	0x3e3b5290	0.18293214
19	0x3ca12f9d	0.019676024
20	0x3d91ff69	0.07128794
21	0xbdf7cce6	-0.12099628
22	0x3df8d89e	0.121506914
23	0x3de47c99	0.111565776
24	0xbc8db382	-0.01729751
25	0xbd0203d2	-0.031741925
26	0x3d89c0bd	0.06726215
27	0x3e0c4466	0.13697967
28	0x3e22ddde	0.15904948
29	0x3e259fe9	0.16174282
30	0x3dd02594	0.101634175
31	0xbe0cfcf8	-0.13768375
32	0x3aa31ec2	0.001244508
33	0x3db63d7d	0.08898447
34	0x3ce34708	0.027743831
35	0x3dcc6c94	0.09981647
36	0xbda0f5b8	-0.07859367
37	0xba8ff97b	-0.0010984385
38	0xba2ff51f	-0.0006712246
39	0xbd85d58d	-0.06534872
40	0xbd2c953b	-0.042134505
41	0xbd576625	-0.052587647
42	0x3d2316fd	0.039816845
43	0x3db1faea	0.08690436
44	0xbdaf22e6	-0.08551578
45	0xbd271b6a	-0.04079763
46	0x3c7f9e7f	0.015601753
47	0xbdcd5cd7	-0.100274734
48	0xbb7cf151	-0.0038595984
49	0xbd7f3364	-0.06230487
50	0x3e03c054	0.12866336
51	0x3e189b31	0.14902951
52	0xbdbc32db	-0.091893874
53	0x3e4dd9a6	0.20102558
54	0x3d8bbdf5	0.06823341
55	0x3cbfdd05	0.02342082
56	0x3a8398cc	0.0010040044
57	0xbcdbee50	-0.026847035
58	0x3dffc517	0.12488764
59	0x3e47c8e5	0.19510229
60	0xbd8e95ef	-0.06962191
61	0x3d33f443	0.043934118
62	0xbe27ce32	-0.16387251
63	0x3df98952	0.12184395

actor.2.weight f4 [64, 64]
0	0x3dfd1f36	0.12359469
1	0x3d10c990	0.035348475
2	0xbdec34ff	-0.11533546
3	0x3d9bf5d4	0.07615247
4	0xbe15465c	-0.14577621
5	0x3e781226	0.24225673
6	0xbdeaea15	-0.11470429
7	0xbe2aa98c	-0.1666624
8	0xbbf18300	-0.0073703527
9	0xbe6d30f2	-0.23163202
10	0xbc843c40	-0.01614201
11	0x3e641f23	0.22277503
12	0x3c8ef0ce	0.017448809
13	0x3d98c5b8	0.07459587
14	0xbda8458b	-0.08216389
15	0x3dde5cf9	0.10857577
16	0xbdaea954	-0.085283905
17	0xbe6590b5	-0.22418483
18	0xbe75a1d3	-0.23987512
19	0x3e23f26e	0.16010448
20	0xbe43aacb	-0.19108121
21	0x3ecbbb63	0.39791402
22	0x3d3c9996	0.04604491
23	0xbda569dd	-0.080768324
24	0x3d5c1c4f	0.053737935
25	0xbd308318	-0.04309377
26	0xbe5885e7	-0.2114483
27	0xbe522779	-0.2052287
28	0x3e0f9d10	0.14024758
29	0x3de94c33	0.11391487
30	0x3e8dc56b	0.2768968
31	0xbd58700d	-0.052841235
32	0x3de5e83f	0.11225938
33	0xbcbbb06d	-0.022911275
34	0xbe618ca6	-0.2202631
35	0x3e94515e	0.28968328
36	0x3e9c9f3f	0.30590245
37	0x3a81ed9d	0.0009912733
38	0xbcdfd3ae	-0.027322616
39	0x3ea12a24	0.31477463
40	0xbdffe492	-0.12494768
41	0x3e3867ab	0.18008296
42	0x3e114d82	0.14189723
43	0x3e704cb1	0.23466755
44	0x3d09107c	0.033462986
45	0x3eb2e258	0.34938312
46	0x3ddab9a5	0.1067994
47	0x3e97b9a9	0.29633835
48	0x3e6394a5	0.22224672
49	0x3d861463	0.06546857
50	0xbcd0f4cc	-0.025507353
51	0x3e8241da	0.25440866
52	0xbc2f19d6	-0.010687312
53	0xbd5cbf12	-0.053893156
54	0x3e5c129c	0.21491474
55	0x3e146125	0.14490183
56	0x3d6481c3	0.055787813
57	0x3e6afec6	0.22948751
58	0x3e4906c7	0.19631492
59	0xbd9a6158	-0.07538098
60	0x3e1b1958	0.15146387
61	0x3e887e67	0.26658937
62	0xbd445221	-0.047929887
63	0xbe5a1481	-0.21296884
64	0xbc977e02	-0.018492702
65	0xbe164439	-0.14674462
66	0x3c336a42	0.010950627
67	0xbd0439ad	-0.032281566
68	0xbd68270e	-0.05667787
69	0xbd5d6685	-0.05405285
70	0xbdd050b0	-0.1017164
71	0x3db4ab2f	0.08821713
72	0x3d281158	0.041032165
73	0xbcd376d3	-0.025813496
74	0xbdbb17ae	-0.09135376
75	0x3b96bf8a	0.00460047
76	0x3d828ab7	0.06374114
77	0xbcb204fe	-0.021730896
78	0xbdcad30c	-0.09903535
79	0x3d953499	0.07285423
80	0x3d77cf65	0.06050052
81	0xbe063940	-0.13107777
82	0xbcb7cd2b	-0.022436699
83	0x3db9daa4	0.090749055
84	0xbd84695a	-0.06465407
85	0xbddc12b4	-0.10745755
86	0x3db4af2e	0.088224754
87	0xbd7c652b	-0.06161992
88	0xbd0f27f9	-0.03495023
89	0x3d2a28f2	0.041542955
90	0xbde792ea	-0.113073185
91	0xbddbcbb5	-0.107322134
92	0xbd654655	-0.055975277
93	0x3d46738c	0.048450038
94	0xbd20eb98	-0.03928718
95	0xbd98fe81	-0.07470418
96	0xbdeb5eb1	-0.1149267
97	0x3d4af636	0.04955121
98	0xbe217343	-0.15766625
99	0x3d89df88	0.06732088
100	0xbd0c395e	-0.034234397
101	0xbcb34237	-0.02188216
102	0x3d435c52	0.047695465
103	0xbdfbecb5	-0.12301008
104	0x3dabb6b4	0.08384457
105	0x3dcade09	0.09905631
106	0xbd9c1c54	-0.07622591
107	0xbd575230	-0.052568614
108	0xbd0dbd44	-0.034604326
109	0xbe07811c	-0.13232845
110	0x3d1881f6	0.037233315
111	0x3d601dce	0.054715924
112	0xbc82071a	-0.015872527
113	0xbdb4d309	-0.08829314
114	0x3dca342d	0.09873233
115	0x3a8bcc39	0.0010665721
116	0xbb9aeeb3	-0.004728162
117	0xbdde36eb	-0.108503185
118	0xbd726af8	-0.059184045
119	0x3dd6a2f7	0.10480302
120	0xbc57814c	-0.013153385
121	0x3bbd17f4	0.0057706777
122	0x3d9c636c	0.07636151
123	0xbda3f9cc	-0.08006629
124	0x3d9aa890	0.07551682
125	0xbc6a9474	-0.014317621
126	0xbe0bfa04	-0.13669592
127	0xbe2304c2	-0.15919784
128	0xbe2ec282	-0.17066386
129	0xbb5cc05c	-0.003368399
130	0xbdb5c67a	-0.08875747
131	0x3db33c48	0.08751732
132	0xbda6b8c1	-0.08140708
133	0xbca84550	-0.020540863
134	0x3c326839	0.010889106
135	0xbdf4bf55	-0.11950556
136	0x3c49963c	0.012303885
137	0xbe070669	-0.13186039
138	0x3d61ed66	0.05515804
139	0xbd777ab6	-0.06041976
140	0xbc85403a	-0.016265977
141	0xbbfe7a2c	-0.007766029
142	0xbcaa0f38	-0.02075921
143	0xbe6c4974	-0.23074895
144	0x3d111ee7	0.03542986
145	0x3dcea769	0.10090525
146	0xbdb17468	-0.08664781
147	0xbda61e92	-0.081112996
148	0xbd102175	-0.035188157
149	0xbd089030	-0.033340633
150	0xbe23e308	-0.16004574
151	0xbd3924c7	-0.04520109
152	0x3d59e37a	0.053195454
153	0x3d166105	0.03671362
154	0xbb5d1c60	-0.0033738837
155	0xba9a4925	-0.0011771066
156	0xbe02f40d	-0.1278841
157	0xbdc56171	-0.09637726
158	0xbcc8e29f	-0.024522124
159	0x3c1e23a7	0.009652055
160	0x3cce1de5	0.02516074
161	0x3cac79c4	0.021054156
162	0xbe3a47b4	-0.18191415
163	0xbd05fee1	-0.032713775
164	0x3daf6036	0.08563273
165	0xbd51e5e2	-0.051244624
166	0x3d71481a	0.058906652
167	0x3c6a163e	0.0142875295
168	0xbcb98503	-0.022646433
169	0x3e07d497	0.1326469
170	0xbd9c95c5	-0.07645754
171	0xbe03451b	-0.1281933
172	0x3d969bc5	0.073539294
173	0xbd8aaa49	-0.067707606
174	0x3dacf567	0.08445244
175	0xbdc88fe1	-0.09793068
176	0x3cd8a004	0.026443489
177	0x3daf95e2	0.0857351
178	0x3cc0c03e	0.023529168
179	0xbdd9b385	-0.10629944
180	0x3e28e4a3	0.16493468
181	0xbe1240cc	-0.1428253
182	0xbdb6548e	-0.08902846
183	0xbcc1ff61	-0.023681344
184	0xbdec49fd	-0.1153755
185	0x3dc86d01	0.09786416
186	0x3c5cefb9	0.013484889
187	0xbe2c7101	-0.16839983
188	0x3d8e9656	0.06962268
189	0xbe293d98	-0.16527402
190	0xbc76c18e	-0.0150607955
191	0x3d95ff23	0.07324054
192	0x3d59476f	0.05304664
193	0x3de64541	0.11243678
194	0x3eab68f8	0.33478522
195	0x3e1af2d8	0.151317
196	0xbe22ae41	-0.15886785
197	0x3d59053e	0.052983515
198	0x3e912c67	0.2835419
199	0x3e41ab1b	0.18912928
200	0x3e4b3ac9	0.19846644
201	0xbd2e0d0c	-0.04249291
202	0x3ce17b51	0.027524622
203	0x3d0ed0a7	0.034866955
204	0x3cb995d5	0.022654453
205	0x3deff2d7	0.1171624
206	0x3d8ba442	0.06818439
207	0x3defb2ef	0.11704051
208	0x3e95884d	0.29205552
209	0xbe79e3ce	-0.24403307
210	0xbe88fe1d	-0.26756373
211	0x3e24eafa	0.16105261
212	0x3e1f41b8	0.15552413
213	0xbe25679c	-0.16152805
214	0xbda38597	-0.079844646
215	0xbe6c656f	-0.23085569
216	0x3e5fcb23	0.21854834
217	0x3dfd2f8a	0.12362583
218	0xbd45493b	-0.04816554
219	0x3eb7b4d1	0.3588014
220	0x3dcabe78	0.0989961
221	0xb7c5f5c4	-2.3598674e-05
222	0x3cf843a5	0.030305693
223	0x3e169c9b	0.14708178
224	0x3c87ebdb	0.016591957
225	0x3daf394e	0.08555852
226	0x3e6a5c49	0.22886766
227	0xbdf0be8c	-0.11755094
228	0xbda14924	-0.078752786
229	0xbe5379a1	-0.20651866
230	0x3e8fb7f1	0.28070024
231	0x3e0953b7	0.13410841
232	0x3da2a0fa	0.0794086
233	0x3e91a0fd	0.28443137
234	0x3de0904e	0.10965024
235	0xbea6b2fd	-0.32558432
236	0x3db1328c	0.08652219
237	0x3e325d2f	0.17418359
238	0x3d397e4f	0.045286473
239	0x3e014c5b	0.12626784
240	0xbd458ad0	-0.048228085
241	0xbd9e32c6	-0.07724528
242	0xbe31f974	-0.17380315
243	0xbd64b44b	-0.055836003
244	0x3d80df2e	0.06292568
245	0xbdba070f	-0.090833776
246	0x3eb64065	0.35596004
247	0xbaa0f367	-0.0012279571
248	0x3e6f995f	0.2339835
249	0xbd763a4b	-0.060114186
250	0x3cd0ec10	0.025503188
251	0xbe5dc391	-0.21656634
252	0xbda47f05	-0.080320396
253	0xbe8d1167	-0.2755234
254	0xbc8b2048	-0.016983166
255	0x3d9ddc07	0.077079825

actor.2.bias f4 [64]
0	0x3d8073dc	0.062720984
1	0xbe181f05	-0.14855583
2	0x3ceec583	0.029146915
3	0x3d56c499	0.052433584
4	0x3dcb5d93	0.09929957
5	0xbd0d5247	-0.034502294
6	0x3e07e5d5	0.13271268
7	0xbd484da3	-0.048902165
8	0x3bf18509	0.0073705954
9	0x3d515847	0.05110958
10	0xbd49fd0d	-0.049313594
11	0x3dba0acd	0.09084091
12	0x3d95a1a5	0.07306222
13	0xbd97e6f0	-0.07417095
14	0xbd3eb83d	-0.046562422
15	0x3dbac1df	0.09119009
16	0xbe338236	-0.1753014
17	0xbd7e03f9	-0.062015507
18	0xbdd02624	-0.10163525
19	0x3d6d2a9a	0.057901956
20	0xbd4d13e8	-0.050067812
21	0x3e552dff	0.20818327
22	0x3cd3aa5a	0.025838066
23	0xbd817e0a	-0.06322868
24	0xbd567d6e	-0.052365713
25	0xbd5b2bf0	-0.0535087
26	0x3bd4bdaa	0.0064923363
27	0x3dfcd284	0.1234484
28	0x3dfbbf81	0.12292386
29	0x3bc07378	0.00587314
30	0x3d495f94	0.049163416
31	0xbc9c643f	-0.01909077
32	0x3da41cff	0.08013343
33	0x3da4b1dd	0.08041737
34	0xbd3571f4	-0.044298127
35	0xbe0fcf82	-0.14044002
36	0xbe012d1d	-0.12614866
37	0x3da36ef2	0.079801455
38	0xbd84ca86	-0.06483941
39	0x3e4f55dd	0.20247598
40	0x3dcebf8b	0.10095128
41	0x3c673d57	0.014113746
42	0x3dcc148c	0.099648565
43	0xbe089bad	-0.13340636
44	0x3d2681e3	0.040651213
45	0xbe0541ef	-0.13013433
46	0xbdf0d95b	-0.11760207
47	0x3e2e9f95	0.17053063
48	0xbdb87d95	-0.09008328
49	0xbd9bdcd4	-0.07610479
50	0xbd2dc8ba	-0.042427756
51	0x3d88448d	0.066537
52	0x3c91f0a8	0.01781495
53	0x3da77b39	0.081778
54	0xbe0d919d	-0.13825078
55	0xbd3ea3ba	-0.04654286
56	0x3d17a836	0.037025653
57	0xbc988f5b	-0.018623045
58	0xbde0cbea	-0.109763935
59	0x3c26b5dd	0.0101751955
60	0x3ca11f4d	0.019668246
61	0xbb9a7168	-0.004713226
62	0x3e080507	0.13283168
63	0x3e376a3d	0.1791162

actor.4.weight f4 [36, 64]
0	0x3e863a99	0.2621658
1	0xbdf851f7	-0.121250086
2	0xbd9acfe0	-0.0755918
3	0xbcbbe348	-0.022935525
4	0xbe84f8ed	-0.25971165
5	0xbebf081a	-0.37310869
6	0xbecd7f6f	-0.40136287
7	0x3dcc7d89	0.099848814
8	0xbe236c99	-0.15959395
9	0x3be05f91	0.00684733
10	0x3d4e48e7	0.050362494
11	0xbf333d07	-0.70014995
12	0x3b279bf2	0.0025575128
13	0x3dcb5e2f	0.099300735
14	0x3ecdb235	0.40175024
15	0x3c9265af	0.017870752
16	0xbcd34a0a	-0.02579214
17	0x3e06fc8c	0.13182276
18	0xbdac744f	-0.084206216
19	0xbc67038b	-0.014099966
20	0x3ebd3e9b	0.36961827
21	0xbed1ba31	-0.40962365
22	0x3e0f7411	0.1400912
23	0xbd203584	-0.039113536
24	0xbec11cea	-0.37717372
25	0x3cb6cae8	0.02231355
26	0xbbd87bf3	-0.006606573
27	0xbe53b51a	-0.20674554
28	0x3e4cc23a	0.19995967
29	0x3e4006b6	0.1875256
30	0x3ddc5c41	0.107597835
31	0xbde974dc	-0.11399242
32	0xbef6079d	-0.48052683
33	0xbe75476b	-0.23953025
34	0x3e094432	0.1340492
35	0x3c8dd3b4	0.017312862
36	0xbf0f37fe	-0.5594481
37	0x3da6067f	0.08106708
38	0x3de15206	0.11001973
39	0xbf2a40cb	-0.66505116
40	0xbf0b41da	-0.54397357
41	0xbf1379dc	-0.5760782
42	0xbe995bfa	-0.29952985
43	0xbbd442ec	-0.0064777043
44	0x3c3046f1	0.010759101
45	0xbb5b8364	-0.0033495063
46	0x3ee7b466	0.4525482
47	0xbe5db2a2	-0.21650174
48	0x3e7c0377	0.24610697
49	0xbd7ba712	-0.061438628
50	0xbf13689e	-0.5758151
51	0x3c9483ed	0.018129313
52	0xbecc8cf4	-0.3995129
53	0xbf2267aa	-0.6343943
54	0x3d61592a	0.055016674
55	0x3e1a6b32	0.15079954
56	0x3eb3e2e7	0.3513405
57	0x3e9821c1	0.29713252
58	0xbd453ee3	-0.048155677
59	0x3eace600	0.33769226
60	0xbbb9f235	-0.0056746253
61	0xbeedcb71	-0.46444276
62	0x3de55f7a	0.11199851
63	0xbf46d378	-0.77666426
64	0xbe8470f6	-0.25867432
65	0x3d61138e	0.05495029
66	0x3d6e60b6	0.0581977
67	0x3eb0efd0	0.34557962
68	0x3e247517	0.16060291
69	0x3d0e074b	0.034674924
70	0xbecd03cd	-0.40041962
71	0x3e819c5e	0.2531461
72	0xbeb720ba	-0.35767156
73	0x3ebda228	0.37037778
74	0xbdb1bcbb	-0.086785756
75	0xbebb77fe	-0.36614984
76	0xbdf7ee35	-0.12105981
77	0xbca305c4	-0.01990021
78	0xbe7609a4	-0.24027115
79	0x3dbe5b5c	0.09294769
80	0xbc843791	-0.016139777
81	0xbe40f34f	-0.18842815
82	0xbd3e4f41	-0.0464623
83	0xbdd78c78	-0.10524839
84	0x3b75486e	0.0037427205
85	0xbe08aa8f	-0.13346313
86	0x3c0bf2e3	0.008541795
87	0x3d445e0d	0.047941256
88	0xbf43d53a	-0.7649723
89	0x3ed4aada	0.415366
90	0xbdbbd48e	-0.09171401
91	0xbe4c0893	-0.19925146
92	0x3e748dcb	0.23882215
93	0xbda5f822	-0.08103968
94	0x3c2cf77f	0.010557055
95	0x3ee50f7b	0.44738373
96	0x3e7b6888	0.24551594
97	0x3e7c87e7	0.24661218
98	0x3e83d7ed	0.25750676
99	0x3cc3e898	0.02391462
100	0xbed5e843	-0.41778764
101	0x3e86e6fb	0.263481
102	0xbd2b6521	-0.04184449
103	0x3e73e5e9	0.23818173
104	0xbeaca509	-0.33719662
105	0xbedb5e73	-0.42845497
106	0xbe75bf84	-0.23998839
107	0xb807ce69	-3.2378743e-05
108	0x3da433c4	0.08017686
109	0xbd843046	-0.0645452
110	0x3d39614c	0.045258805
111	0xbead4433	-0.33841094
112	0x3eafc700	0.34331512
113	0xbe2a353b	-0.16621868
114	0x3dea5135	0.1144127
115	0x3d0fa3f1	0.035068456
116	0xbf583987	-0.8446278
117	0xbf3d51af	-0.73952764
118	0xbde3e28b	-0.11127194
119	0x3eaca65c	0.33720672
120	0xbd84293f	-0.064531796
121	0x3e62c6da	0.22146168
122	0x3d2aafd8	0.041671604
123	0xbeaa654e	-0.33280414
124	0x3cf11095	0.029426852
125	0xbf189b5d	-0.59612066
126	0xbe94c1c5	-0.29054084
127	0xbf373581	-0.71566015
128	0xbd1418ef	-0.03615659
129	0xbd862bb9	-0.06551308
130	0xbbc9d0ea	-0.0061589377
131	0x3e91a408	0.28445458
132	0x3e759bcf	0.23985218
133	0xbf0627bd	-0.52404386
134	0x3e252484	0.16127211
135	0xbda8d828	-0.082443535
136	0x3e8a8589	0.27055004
137	0x3e40084e	0.18753168
138	0x3b2a3c34	0.0025975825
139	0xbe94fc94	-0.29098952
140	0x3e1c378a	0.15255561
141	0x3c8ee386	0.017442476
142	0xbe8d7c70	-0.27634
143	0xbf1ce830	-0.6129179
144	0x3d896b65	0.06709937
145	0x3e89852a	0.2685941
146	0x3de523b7	0.11188453
147	0x3de5bac7	0.112172656
148	0x3ea411aa	0.32044727
149	0x3e316cb7	0.17326628
150	0xbd556b26	-0.052104138
151	0x3c97679f	0.018482028
152	0xbedb40f3	-0.4282299
153	0x3eefb6f5	0.46819273
154	0xbe08b308	-0.13349545
155	0x3e916579	0.2839773
156	0x3e368d79	0.17827405
157	0xbf38cea7	-0.72190326
158	0x3d72134e	0.05910044
159	0x3e5edd59	0.21764125
160	0x3dc50ace	0.096212015
161	0xbeef99ba	-0.46796972
162	0xbcb83729	-0.02248724
163	0x3cca69c1	0.02470863
164	0xbec148bd	-0.37750807
165	0xbef122a7	-0.4709675
166	0x3e07c7f5	0.13259871
167	0xbf15bb34	-0.58488774
168	0xbf0aeb9b	-0.54265755
169	0xbf0c90db	-0.5490853
170	0x3e01dd30	0.12682033
171	0xbd17a7c6	-0.037025236
172	0xbf12dbb2	-0.5736648
173	0x3ca191f4	0.019722916
174	0x3ea36f6a	0.3192094
175	0x3e84aecb	0.25914606
176	0x3e1db1bb	0.1539983
177	0x3cc81a44	0.024426587
178	0x3e618235	0.22022326
179	0xbcaef961	-0.021359148
180	0xbf1a8047	-0.60351986
181	0xbe91809b	-0.2841843
182	0x3d32c6b7	0.04364654
183	0xbe11660b	-0.14199083
184	0x3c8e8710	0.017398387
185	0x3e5d3cd7	0.2160524
186	0xbdcb35da	-0.09922381
187	0xbbdd2614	-0.006748924
188	0xbd5cdf2c	-0.05392377
189	0xbd23b638	-0.0399687
190	0x3e1bf9d6	0.15232024
191	0xbf144956	-0.579244
192	0xbe904307	-0.28176138
193	0x3d1c3041	0.038131956
194	0xbd8635c8	-0.06553227
195	0x3c66789f	0.014066844
196	0xbd6bf4b1	-0.057606403
197	0xbe92ebe2	-0.2869559
198	0xbe6fd21e	-0.23419997
199	0x3d304511	0.043034617
200	0xbe667101	-0.22504045
201	0x3da0003f	0.07812547
202	0xb9a4b2bd	-0.00031413688
203	0xbd39238b	-0.045199912
204	0xbd9ed4d2	-0.07755436
205	0x3dbabe44	0.091183215
206	0xbd40dc4f	-0.047085103
207	0xbe8cda5f	-0.27510354
208	0x3d5ea53f	0.05435681
209	0xbe9dc4b8	-0.30814147
210	0xbd1ab6ba	-0.037771918
211	0xbdac8428	-0.08423644
212	0x3e07d89e	0.13266227
213	0xbe4384f5	-0.19093688
214	0xbd12ab7f	-0.035808083
215	0xbd160822	-0.03662885
216	0xbeda3703	-0.42620096
217	0xbd04b169	-0.032395754
218	0x3c0b4278	0.008499734
219	0xbc6acb27	-0.014330662
220	0xbe38733a	-0.18012705
221	0xbefbf6b1	-0.49211648
222	0xbb44cae2	-0.0030028154
223	0x3d9fdc6e	0.078057155
224	0xbea88004	-0.32910168
225	0xbec62668	-0.38701177
226	0xbe974b54	-0.29549658
227	0xbded85e0	-0.115978
228	0x3d121293	0.035662245
229	0xbe52066a	-0.2051026
230	0x3d43b2ae	0.047777824
231	0xbdb14860	-0.086563826
232	0xbe018fc3	-0.12652497
233	0xbe0dd1cb	-0.13849561
234	0xbe028bdb	-0.12748663
235	0xbd9bde9d	-0.076108195
236	0xbea13955	-0.31489053
237	0x3d1742b9	0.036928866
238	0x3d13816f	0.03601211
239	0x3cdd3317	0.0270019
240	0xbcede32c	-0.029038988
241	0xbdc68435	-0.09693185
242	0xbe3f1deb	-0.18663757
243	0xbda0838a	-0.07837589
244	0xbea58da6	-0.32334632
245	0xbddf93ff	-0.109169
246	0x3dfe981b	0.124313556
247	0x3dce4b2f	0.10072934
248	0xbebf9768	-0.374202
249	0xbce97be9	-0.028501468
250	0xbdcdca97	-0.100484066
251	0xbd8444fb	-0.064584695
252	0xbd1ea286	-0.038729213
253	0xbe7fcae8	-0.24979746
254	0xbd4fa411	-0.050693575
255	0xbe997f9b	-0.29980168

actor.4.bias f4 [36]
0	0xbda5d145	-0.080965556
1	0xbd63ad23	-0.055585038
2	0xbda49eef	-0.08038127
3	0xbd221725	-0.039572854
4	0x3c1fc58f	0.0097516915
5	0x3c2969fd	0.010340211
6	0x3e265ab7	0.16245542
7	0x3dd1cba7	0.10243922
8	0xbc26a8a2	-0.010172041
9	0xbd95df55	-0.07317988
10	0x3ca9c4c9	0.020723717
11	0xbd80e7ee	-0.06294237
12	0x3b228111	0.0024796168
13	0x3e216ee8	0.15764964
14	0x3cf1c07c	0.029510729
15	0x3c699a93	0.014258045
16	0xbe0dc7e1	-0.13845779
17	0x3db40eca	0.08791883
18	0xbcd7c3df	-0.026338516
19	0x3db04eba	0.08608766
20	0xbe0d3618	-0.13790166
21	0x3d550319	0.052004907
22	0x3de9ec8d	0.114220716
23	0x3e054b02	0.13016894
24	0xbcda43a5	-0.026643584
25	0xba31b80d	-0.000677944
26	0xbcd99fcb	-0.026565453
27	0xbdf28f8a	-0.11843784
28	0xbc2eac4a	-0.010661194
29	0x3e44990d	0.19199009
30	0x3da9af0e	0.08285342
31	0xbce533c8	-0.027978793
32	0x3cef7e8c	0.029235147
33	0xbcaf91e7	-0.021431876
34	0xbd7ab181	-0.061204437
35	0x3d88a61e	0.06672309

critic.0.weight f4 [64, 62]
0	0xbd887291	-0.06662477
1	0x3c989d85	0.018629799
2	0x3de480b8	0.11157364
3	0x3d785285	0.06062557
4	0x3da6ee7d	0.08150957
5	0x3db10670	0.08643806
6	0x3d432596	0.047643267
7	0x3e53749d	0.20649953
8	0xbd4e7c04	-0.05041124
9	0x3dcc9352	0.099890366
10	0xbc89069a	-0.01672678
11	0x3e5d8106	0.2163125
12	0x3d5d99a6	0.05410161
13	0xbd23ac34	-0.039959148
14	0x3e0b6320	0.13612032
15	0x3e7303b0	0.23731875
16	0xbd374830	-0.044746578
17	0x3d8995dd	0.06718037
18	0x3d701350	0.058612168
19	0x3c4fbae6	0.012678837
20	0xbe0de5a0	-0.13857126
21	0xbdd14f63	-0.1022022
22	0xbddca4fd	-0.107736565
23	0xbdf92fc3	-0.12167313
24	0x3d5950b5	0.053055484
25	0xbd2b0b55	-0.041758854
26	0xbc420cec	-0.011843901
27	0xbd8e1afa	-0.06938739
28	0x3d407dd2	0.04699499
29	0x3ee6079a	0.44927675
30	0x3e567ee3	0.20946841
31	0x3ef90713	0.4863821
32	0x3d0a3951	0.033746067
33	0x3e09b9e1	0.13449813
34	0x3d8df83d	0.06932113
35	0xbddf90da	-0.109163
36	0xbe9172ad	-0.28407803
37	0xbd61b3bf	-0.05510306
38	0xbd8bb0ea	-0.06820853
39	0x3e778093	0.24170141
40	0x3d5ca07d	0.05386399
41	0x3e969dd2	0.29417282
42	0x3ec07406	0.3758852
43	0xbeaf63d7	-0.3425586
44	0x3d8c4393	0.06848826
45	0xbe873f5b	-0.26415524
46	0xbe3e3fe2	-0.18579057
47	0x3d256b02	0.040385254
48	0xbe0c44c0	-0.13698101
49	0xbca1269e	-0.019671734
50	0x3df18d7f	0.11794566
51	0xbdcd893e	-0.100359425
52	0x3da26ea3	0.079312585
53	0x3dd38f9c	0.10330126
54	0xbda04d81	-0.07827283
55	0x3d11e928	0.035622746
56	0x3e36d9fe	0.17856595
57	0x3d37dd19	0.04488859
58	0xba26fae4	-0.0006369783
59	0x3d0163d1	0.031589333
60	0xbdde2874	-0.108475596
61	0xbccde7c8	-0.025134936
62	0xbc17d22c	-0.0092664175
63	0x3e39b648	0.18135941
64	0xbe16a482	-0.14711192
65	0xbe0dbd35	-0.13841708
66	0xbe0b0e53	-0.13579683
67	0xbe190c77	-0.14946161
68	0xbda371b3	-0.07980671
69	0xbdec16d0	-0.11527789
70	0x3e5a0e14	0.21294433
71	0x3d10d3b8	0.03535816
72	0xbcec8787	-0.028873218
73	0xbdca43a3	-0.09876182
74	0xbd458bab	-0.0482289
75	0x3a55f374	0.00081615825
76	0x3d5eb705	0.05437376
77	0xbd89eca0	-0.06734586
78	0xbb1ee6ea	-0.0024246522
79	0xbdd9f86c	-0.10643086
80	0x3d07b79d	0.03313409
81	0x3dff0980	0.12452984
82	0xbd8bc9ae	-0.06825577
83	0x3d2c2508	0.042027503
84	0xbbe76693	-0.0070617883
85	0x3cadb1d1	0.021202954
86	0x3df75697	0.120770626
87	0xbd15ea14	-0.036600187
88	0x3e006077	0.12536798
89	0x3e18d9cb	0.14926831
90	0xbc52ac4b	-0.012858461
91	0xbe09f36c	-0.13471764
92	0xbd07a079	-0.033112023
93	0x3ccbfd13	0.024900949
94	0x3dd2d4d0	0.10294497
95	0x3df3d327	0.119055085
96	0x3da4a0ed	0.08038507
97	0xba8fd02e	-0.0010972077
98	0xbe6f409f	-0.23364495
99	0xbe47ea01	-0.19522859
100	0xbd7d66ed	-0.061865736
101	0x3db34a6b	0.087544285
102	0xbcc5bbf0	-0.024137467
103	0x3e712e0f	0.23552726
104	0xbdd48f11	-0.1037885
105	0xbe7b0284	-0.24512678
106	0x3e1353bf	0.14387415
107	0x3e4312c4	0.19050127
108	0x3e65c71c	0.22439235
109	0x3e5ecb4c	0.21757239
110	0xbc75ad76	-0.01499497
111	0x3e7b1560	0.24519873
112	0xbd1ad751	-0.037802998
113	0xbe416ca0	-0.18889093
114	0xbe25487a	-0.16140929
115	0x3dccae3a	0.099941686
116	0xbb672af3	-0.0035273402
117	0xbe2e8cde	-0.17045924
118	0x3ba1ecb3	0.004941547
119	0xbe7c33aa	-0.24629083
120	0xbded08ca	-0.11573942
121	0xbe1bdbc7	-0.15220557
122	0xbb1a7682	-0.0023569171
123	0xbda04bea	-0.078269795
124	0xbe276236	-0.16346058
125	0x3d1507fc	0.036384568
126	0xbde60a83	-0.11232474
127	0x3b7f3338	0.003894044
128	0xbe6de07c	-0.23230165
129	0xbb7f2460	-0.0038931593
130	0x3e2b28cf	0.16714786
131	0x3d15c013	0.03656013
132	0xbd4b3675	-0.04961248
133	0xbc863caa	-0.016386349
134	0xbdce5cda	-0.10076304
135	0x3d560f85	0.052260894
136	0xbd7eb2ff	-0.062182423
137	0x3e0c79d7	0.13718353
138	0x3eadd742	0.3395329
139	0x3daafadf	0.08348631
140	0xbdb88eec	-0.09011635
141	0x3d0b59e5	0.034021277
142	0x3d590992	0.052987643
143	0x3b3b2145	0.0028553766
144	0xbdc8681f	-0.097854845
145	0x3cf690d7	0.030098362
146	0x3df52cd8	0.11971444
147	0x3d37fc0b	0.0449181
148	0xbd493ea8	-0.04913202
149	0xbcaec3d0	-0.021333605
150	0x3d92635f	0.0714786
151	0x3d067828	0.032829434
152	0x3e196bba	0.149825
153	0x3f131502	0.5745393
154	0x3e410639	0.1885003
155	0x3ee975f6	0.4559781
156	0xbc2bc82c	-0.010484736
157	0xbb99808d	-0.004684514
158	0x3d061f63	0.032744776
159	0x3d1614db	0.036640983
160	0xbdfd7160	-0.1237514
161	0xbd0e13d1	-0.034686867
162	0xbea3efda	-0.3201893
163	0x3e3362e6	0.17518196
164	0xbc386e6d	-0.011256796
165	0xba20e68e	-0.0006137871
166	0x3e1512e7	0.14557992
167	0xbc9ed2e0	-0.019387662
168	0xbdb87baf	-0.09007966
169	0xbca58174	-0.02020333
170	0x3c1e4934	0.009661008
171	0xbe3bd815	-0.18344148
172	0xbb701e64	-0.0036639208
173	0xbc08224f	-0.008308961
174	0xbe33b025	-0.17547663
175	0xbc260165	-0.010132168
176	0x3e07f7db	0.13278143
177	0xbf00678b	-0.50157994
178	0x3e186585	0.14882477
179	0xbbdec4c5	-0.006798359
180	0x3c4bbd36	0.012435248
181	0x3cfff30a	0.03124382
182	0x3d99091f	0.07472443
183	0x3db31be9	0.08745558
184	0xbe167d99	-0.14696349
185	0x3d15ddcd	0.03658848
186	0xbda41b54	-0.08013025
187	0xbda93751	-0.08262504
188	0x3d84cd33	0.06484451
189	0x3e170711	0.1474879
190	0x3e2b4947	0.16727172
191	0x3e3a47f1	0.18191506
192	0xbe077004	-0.13226324
193	0xbb7c2ea9	-0.003847996
194	0x3e6d3624	0.23165184
195	0xbd3b7a2e	-0.045770817
196	0x3c3dd1e5	0.011585687
197	0xbdfb5076	-0.12271206
198	0xbde95618	-0.11393374
199	0xbe049e6e	-0.12951061
200	0x3d30a8fb	0.043129902
201	0x3dc2c2fb	0.09509846
202	0xbd38ebf9	-0.045146916
203	0xbdb970bc	-0.090547055
204	0xbd71bd8f	-0.059018668
205	0xbe10580a	-0.14096084
206	0xbb9dc47c	-0.0048146825
207	0x3cade20f	0.021225957
208	0xbde7a7a1	-0.113112696
209	0xbd95f8a7	-0.07322817
210	0xbd0f45c1	-0.034978632
211	0x3c840991	0.016117843
212	0xbd6b585a	-0.057457305
213	0x3d723d48	0.059140474
214	0x3e5a074b	0.21291845
215	0xbe003fd8	-0.12524354
216	0xbd9cccc9	-0.07656247
217	0xbe6e7446	-0.23286542
218	0xbd286c04	-0.041118637
219	0xbdf9439b	-0.12171098
220	0x3d1149d0	0.035470784
221	0xbe237959	-0.15964259
222	0x3dce0471	0.10059441
223	0xbea7631d	-0.32692805
224	0x3d808230	0.06274831
225	0x3ea18070	0.31543303
226	0xbe21d2d7	-0.15803085
227	0x3d53f74e	0.05174952
228	0xbdfc76ce	-0.12327348
229	0xbda4403d	-0.08020065
230	0xbe1d1f1f	-0.15343903
231	0x3e06b8b1	0.13156392
232	0xbe08294c	-0.13297004
233	0xbe75321c	-0.23944896
234	0xbcbcae12	-0.023032222
235	0x3c80c377	0.015718205
236	0x3b83e8c0	0.0040255487
237	0x3c1cd720	0.009572774
238	0x3bcbd1c9	0.0062200767
239	0xbdf3cc88	-0.119042456
240	0xbd3e15fe	-0.046407692
241	0xbd7c6d78	-0.061627835
242	0x3e336058	0.17517221
243	0x3c2c929a	0.010532999
244	0x3d24fbf4	0.040279344
245	0xbdc1ddad	-0.094661094
246	0xbe058f41	-0.13042928
247	0xbe2b11f9	-0.16706075
248	0xbe68e67d	-0.22744174
249	0x3da70fd6	0.08157317
250	0x3c8fb202	0.017540935
251	0x3b1d86b6	0.0024036593
252	0xbd094331	-0.033511344
253	0x3d228db3	0.039685916
254	0x3d8d0aaf	0.06886803
255	0x3d545b7d	0.051845063

critic.0.bias f4 [64]
0	0x3cb86d6d	0.022513116
1	0x3e353e98	0.17699659
2	0x3d4b1deb	0.04958908
3	0x3dd37cca	0.10326536
4	0xbd5883a8	-0.052859932
5	0x3bd6f500	0.006559968
6	0xbc0fd58f	-0.008778944
7	0xbe1eb834	-0.15499955
8	0xbc13172a	-0.008977691
9	0xbcf1f9c9	-0.029538052
10	0x3dabdbad	0.08391509
11	0xbd4a691c	-0.049416646
12	0x3e7d3410	0.24726892
13	0xbd797313	-0.06090076
14	0xbd098005	-0.033569355
15	0xbc8966bd	-0.016772622
16	0x3c3857cc	0.011251401
17	0xbc8bbdc6	-0.017058264
18	0x3e1c73bd	0.15278526
19	0xbe196769	-0.14980854
20	0xbc612a07	-0.01374293
21	0x3cbce0b9	0.023056375
22	0x3d4baa60	0.04972303
23	0x3df64bf2	0.12026204
24	0x3db2849a	0.08716698
25	0xbd730145	-0.059327383
26	0xbdb0a9e4	-0.08626154
27	0x3e1dfa31	0.15427472
28	0xbbb356fd	-0.0054730163
29	0xbd8d5828	-0.0690158
30	0x3ba2b8a9	0.004965861
31	0x3ca785bb	0.02044951
32	0x3e01d9c7	0.12680732
33	0x3e85a1bb	0.26099953
34	0x3a11f330	0.0005567549
35	0xbe15567a	-0.1458377
36	0xbd3eedcd	-0.046613503
37	0xbe32d93c	-0.17465681
38	0xbe23a484	-0.15980726
39	0xbd9d4d53	-0.07680764
40	0xbe032b42	-0.1280947
41	0xbe40cdb2	-0.18828467
42	0x3e6142ec	0.21998185
43	0xbd63c0d7	-0.05560383
44	0x3cc78331	0.02435455
45	0x3c546f40	0.012965977
46	0xbda9c5f9	-0.082897134
47	0xbd97d202	-0.07413103
48	0x3e303f93	0.17211752
49	0xbdaf6378	-0.08563894
50	0xbe056a52	-0.13028839
51	0xbc96a96f	-0.01839134
52	0x3e36471a	0.1780056
53	0xbd3641b6	-0.04449626
54	0xbdd21eb1	-0.1025976
55	0x3dfcac3d	0.12337539
56	0xbe209319	-0.15681113
57	0xbe1a47fd	-0.15066524
58	0xbd2c9312	-0.042132445
59	0xbdec924c	-0.115513414
60	0x3d9f28e3	0.077714704
61	0x3e5e1a0a	0.2168962
62	0xbc9afd2f	-0.018919555
63	0xbe1f1159	-0.15533961

critic.2.weight f4 [64, 64]
0	0xbd90e115	-0.07074181
1	0x3d8b89a5	0.06813363
2	0xbdd7591c	-0.10515043
3	0xbd6eccef	-0.05830091
4	0x3b88cba9	0.004174669
5	0xbe78406c	-0.24243325
6	0xbae3b415	-0.0017372394
7	0x3d869d81	0.0657301
8	0x3c90ff17	0.017699761
9	0xbd6ba225	-0.05752768
10	0xbdd17c00	-0.10228729
11	0xbcf69c58	-0.030103847
12	0x3dcd14e4	0.1001375
13	0xbd5ac555	-0.053410847
14	0x3d95182a	0.072799996
15	0xbe01a47d	-0.12660404
16	0x3b735c9a	0.0037134052
17	0xbddf8300	-0.10913658
18	0xbe021b1f	-0.12705658
19	0x3d27fda8	0.04101339
20	0x3d63886e	0.05555003
21	0xbd901c48	-0.07036644
22	0x3c7c4afb	0.015398736
23	0x3d0deca5	0.03464951
24	0xbd8b3ec3	-0.0679908
25	0xbd87333e	-0.066015705
26	0xbd37b191	-0.044847075
27	0xbd13074f	-0.035895642
28	0x3d07a297	0.033114042
29	0x3dcc0746	0.09962325
30	0x3da0aa75	0.07845012
31	0xbe0df034	-0.13861161
32	0xbcf8c6ae	-0.030368175
33	0xbda36220	-0.079777
34	0xbcaee12a	-0.021347601
35	0xbd91514c	-0.07095584
36	0xbdb199a9	-0.086718865
37	0x3da18961	0.07887531
38	0xbbcc68bd	-0.0062380717
39	0x3d1a291d	0.037636865
40	0xbdeca41b	-0.11554738
41	0xbd7c58ec	-0.06160824
42	0x3c774809	0.015092858
43	0xbdab2bbf	-0.08357953
44	0xbdc9be6c	-0.09850773
45	0xbe0daebb	-0.13836186
46	0x3d075c0a	0.03304676
47	0xbddc07d1	-0.10743678
48	0x3d9f8441	0.07788897
49	0x3dea7637	0.11448329
50	0xbe382e2f	-0.17986368
51	0xbb138ec3	-0.0022515513
52	0x3ca91ba4	0.020643063
53	0xbe1decdb	-0.15422384
54	0xb9b072dc	-0.00033654913
55	0xbe2fc737	-0.17165838
56	0xbc13c922	-0.009020122
57	0x3d8ce8a4	0.0688031
58	0x3d262fd9	0.040572975
59	0xbdb2a04c	-0.087219805
60	0x3b88e4c4	0.0041776616
61	0x3c946c82	0.018118147
62	0x3de840f7	0.11340516
63	0x3dde98ce	0.10868989
64	0xbcad5a7e	-0.021161314
65	0xbdc606fe	-0.096693024
66	0xbda4cf53	-0.080473565
67	0xbd8f3495	-0.06992451
68	0xbda1e271	-0.079045184
69	0xbd272beb	-0.040813368
70	0x3be33b58	0.0069345646
71	0xbd92812f	-0.07153546
72	0xbcf37a1b	-0.02972131
73	0x3d95ea44	0.07320073
74	0x3c798d67	0.015231467
75	0x3c915e1c	0.01774507
76	0x3bcf4cf9	0.0063263145
77	0xbdbd8412	-0.09253706
78	0xbda179dd	-0.07884572
79	0xbdc18ae5	-0.0945032
80	0xbe0d4dda	-0.1379923
81	0xbd1c1bc8	-0.03811243
82	0xbdaf85b5	-0.085704245
83	0xbd11b94f	-0.035577115
84	0x3c8b9627	0.017039372
85	0xbe03074a	-0.1279575
86	0xbcf7a5b4	-0.03023038
87	0xbd2a2494	-0.04153879
88	0xbde21075	-0.11038295
89	0xbbdab241	-0.0066740816
90	0x3c78a2f8	0.0151755735
91	0xbdf00423	-0.11719539
92	0xbdd0b13b	-0.10190054
93	0xbc00977a	-0.007848615
94	0xbda99bca	-0.082816675
95	0x3d6de0f2	0.058075853
96	0x3b735975	0.0037132178
97	0xbd6b49e8	-0.05744353
98	0x3d9fe1b4	0.07806721
99	0x3dc5d17e	0.09659098
100	0xbe042373	-0.12904148
101	0xbd0e3fc8	-0.034728795
102	0xbdbb6bdd	-0.09151433
103	0xbd59ae07	-0.05314448
104	0x3d5a1e24	0.0532514
105	0x3d7f0e30	0.06226939
106	0xbdbe817d	-0.09302042
107	0xbda58c31	-0.0808338
108	0xbdd87188	-0.10568529
109	0xbdfe94a1	-0.124306925
110	0x3de9ca8e	0.11415587
111	0xbda0b4a5	-0.07846955
112	0xbcfa7213	-0.030571973
113	0x3de8ea9a	0.11372872
114	0x3d9085f4	0.070567995
115	0x3ccd214c	0.025040291
116	0xbd02057a	-0.031743504
117	0xbdb1ed34	-0.08687821
118	0xbd9547e7	-0.07289105
119	0xbcf8d23e	-0.030373689
120	0xbde4c7d4	-0.11170927
121	0x3969ff0c	0.00022315624
122	0x3c9b8934	0.018986322
123	0x3d560b98	0.05225715
124	0xbd25c487	-0.040470626
125	0xbcdd62b8	-0.027024612
126	0x3d003d4e	0.031308465
127	0xbcfa3312	-0.03054193
128	0xbc2ad17d	-0.010425922
129	0xbddbb815	-0.1072847
130	0xbe760294	-0.24024421
131	0xbe2df8ab	-0.1698939
132	0x3de2967c	0.11063859
133	0xbe344dad	-0.17607756
134	0x3ca6b559	0.020350145
135	0xbcc64583	-0.024203068
136	0xbd49f583	-0.049306404
137	0x3c02c4de	0.007981507
138	0x3e09ae57	0.13445412
139	0x3ca3a089	0.01997401
140	0x3cc87292	0.024468694
141	0xbdd4b381	-0.103858
142	0xbde58a36	-0.11208002
143	0xbdc86077	-0.09784024
144	0x3d41c67c	0.04730843
145	0xbe647f62	-0.22314218
146	0xbd9e0a42	-0.077168
147	0xbcd5ae0b	-0.026083967
148	0xbc4e0989	-0.012575516
149	0x3ca6c5cc	0.020357989
150	0x3d74f18a	0.059800662
151	0xbdd3f9cb	-0.103503786
152	0xbc5ccf87	-0.013477213
153	0x3dee8c90	0.11647904
154	0x3d207de2	0.03918255
155	0xbd8e3130	-0.069429755
156	0x3dc03fbb	0.093871556
157	0xbc49aa4e	-0.01230867
158	0xbdb6afd3	-0.089202546
159	0x3da9eaab	0.082967125
160	0x3cd7f894	0.026363648
161	0x3ccc438b	0.02493455
162	0x3e120d42	0.1426287
163	0xbe0ed481	-0.13948251
164	0xbdf9314a	-0.12167604
165	0xbd4e7cbb	-0.05041192
166	0x3ddf8951	0.10914863
167	0xbd0697bd	-0.032859553
168	0xbdaaba3e	-0.08336304
169	0xbdad9380	-0.08475399
170	0xbcb8aaa4	-0.022542305
171	0xbd2c861b	-0.04212008
172	0xbca2383b	-0.019802203
173	0x3dc407c8	0.09571797
174	0xbc8afe7e	-0.016967054
175	0xbdfc5a92	-0.123219624
176	0x3d18d0b8	0.037308425
177	0xbd19af7c	-0.03752087
178	0x3d9f645c	0.07782814
179	0x3d1f2b5e	0.038859718
180	0x3df60027	0.12011748
181	0x3c5b5692	0.013387339
182	0x3e47ba00	0.19504547
183	0x3d9a4c98	0.0753414
184	0x3aaaa8e8	0.0013020309
185	0xbde34234	-0.110966116
186	0x3e004b37	0.12528692
187	0xbdb25df4	-0.087093264
188	0xbe588c7e	-0.21147344
189	0x3cc00cf4	0.023443677
190	0xbb4b6528	-0.0031035636
191	0xbd374495	-0.04474314
192	0x3e46201a	0.19348183
193	0x3cc5ceba	0.024146426
194	0x3e898918	0.26862407
195	0xbe1cb338	-0.15302742
196	0x3d20434a	0.03912667
197	0x3d79dafc	0.060999855
198	0x3e30eaab	0.17277019
199	0x3dd631bd	0.104587056
200	0xbcdc76ae	-0.02691206
201	0xbcbbb36d	-0.022912705
202	0x3d89511c	0.067049235
203	0x3e09ad2b	0.13444965
204	0x3dd8b89e	0.10582088
205	0x3de72a7d	0.11287401
206	0x3d22e2c5	0.039767046
207	0x3e31ff84	0.17382628
208	0x3e9082b9	0.28224733
209	0x3e66dc5b	0.22544996
210	0xbead5ab2	-0.33858258
211	0x3c213186	0.009838467
212	0x3e881abb	0.26582894
213	0x3e493c50	0.19651914
214	0xbd654d67	-0.05598202
215	0xbe26daf0	-0.16294456
216	0xbe834019	-0.2563484
217	0xbd4a63de	-0.049411647
218	0xbd9698ab	-0.07353338
219	0x3d464abf	0.048411127
220	0x3d18c8f1	0.037301008
221	0x3bd8e3ae	0.0066189384
222	0xbe0889bd	-0.13333793
223	0xbd397a8e	-0.045282893
224	0x3da85b41	0.0822053
225	0xbda2f2d8	-0.07956475
226	0xbde77f45	-0.113035716
227	0xbd698cb7	-0.05701896
228	0x3e9ffce1	0.3124762
229	0x3d93ec88	0.07222849
230	0xbd932f8a	-0.07186802
231	0xb9e8e0d8	-0.0004441801
232	0x3c6d5eaf	0.014487906
233	0xbcec10f8	-0.028816685
234	0xbd93ef3f	-0.07223367
235	0xbd8b8ede	-0.06814359
236	0xbc9fed10	-0.01952222
237	0x3d744093	0.059631895
238	0x3d2ec51b	0.042668443
239	0x3eb4acaf	0.35287997
240	0x3d473ef1	0.04864401
241	0x3d1d967b	0.038473587
242	0x3d66cd00	0.056347847
243	0x3c8f630e	0.017503288
244	0x3d9ceb3b	0.07662054
245	0x3dff41c6	0.12463717
246	0xbc0ba163	-0.008522364
247	0xbde2d954	-0.11076608
248	0x3db2f895	0.087388195
249	0x3d464c9d	0.048412908
250	0x3e16803b	0.14697354
251	0x3e8864d3	0.26639423
252	0x3e04548d	0.12922879
253	0xbd923bbe	-0.07140301
254	0xbd1ec076	-0.038757764
255	0xbc4fc9b8	-0.012682371

critic.2.bias f4 [64]
0	0x3c82e0b6	0.015976291
1	0xbc894418	-0.016756102
2	0xbd890234	-0.06689873
3	0xbae0628c	-0.0017119213
4	0xbd801696	-0.06254308
5	0xbe19f465	-0.15034635
6	0xbd9b7f4f	-0.075926416
7	0xbe0d1be6	-0.13780174
8	0x3c246cf8	0.010035746
9	0xbdb4f54d	-0.0883585
10	0x3d77a265	0.060457606
11	0xbd2ce65a	-0.042211868
12	0xbd9da332	-0.07697143
13	0x3d1e7a76	0.038691007
14	0xbd10c81a	-0.03534708
15	0xbdb45352	-0.088049546
16	0x3e1c8110	0.15283608
17	0x3d16c0cb	0.036804955
18	0xbd041f65	-0.032256503
19	0xbd1253ec	-0.035724565
20	0xbcbb3c9f	-0.022856055
21	0x3d0e81f6	0.03479191
22	0xbd6724a3	-0.056431424
23	0xbda0e0e0	-0.078553915
24	0xbde6d0de	-0.11270307
25	0xbdae2b50	-0.08504355
26	0x3d6e1cd9	0.05813298
27	0xbd4b4c8c	-0.049633548
28	0x3c1a74bb	0.009427245
29	0x3c907447	0.01763357
30	0xbde6f127	-0.11276465
31	0x3d99ab68	0.07503396
32	0xbdcdbea7	-0.1004613
33	0x3dce8824	0.100845605
34	0x3da1ba72	0.0789689
35	0x3debf982	0.11522199
36	0xbc82a1fd	-0.015946383
37	0x3a7fe3f0	0.00097614434
38	0x3db2be17	0.08727663
39	0xbd8479f0	-0.0646857
40	0xbe110884	-0.14163405
41	0x3d4ebedd	0.05047499
42	0xbdddb604	-0.10825732
43	0x3cc2ea06	0.023793232
44	0xbd8b9fc0	-0.06817579
45	0x3d13c248	0.036073953
46	0x3bc0fa47	0.0058892104
47	0xbe28b66e	-0.16475841
48	0x3ce99cec	0.028517209
49	0xbe020a04	-0.12699133
50	0x3cf47c13	0.02984432
51	0x3e40c572	0.1882532
52	0xbba5a777	-0.0050553638
53	0xbe029984	-0.12753874
54	0x3db46abc	0.088094205
55	0xbd9a3929	-0.07530434
56	0xbd6ba339	-0.057528708
57	0xbe187783	-0.1488934
58	0x3cc97a23	0.024594372
59	0x3d755fcf	0.059905823
60	0xbc4d6d82	-0.012538316
61	0xbde80581	-0.11329175
62	0xbde061c9	-0.10956151
63	0xbdeff47a	-0.11716552

critic.4.weight f4 [1, 64]
0	0xbb1e4a2a	-0.0024153092
1	0xbcd4cdf1	-0.025977107
2	0x3ac0bca2	0.0014704654
3	0xbdd32b3b	-0.1031098
4	0x3da44e61	0.08022762
5	0xbe4c7fc3	-0.19970612
6	0xbecbbb47	-0.3979132
7	0x3dd00dd6	0.10158889
8	0x3e4d27c8	0.20034707
9	0xbdc262e5	-0.09491519
10	0xbd9b0e96	-0.075711414
11	0xbadc8e8c	-0.001682715
12	0xbe1bb05b	-0.15203993
13	0xbd2d1d59	-0.042264316
14	0x3da0564b	0.07828959
15	0xbe47ecdb	-0.19523947
16	0x3d8caec6	0.06869273
17	0xbccf1f0c	-0.025283359
18	0xbd8e281a	-0.069412425
19	0xbd95c956	-0.073137924
20	0xbc06ca42	-0.008226933
21	0xbe4c379e	-0.19943091
22	0xbe3d9a9a	-0.18516007
23	0xbd0bd814	-0.034141615
24	0x3dcdce0a	0.100490645
25	0xbc4f91a3	-0.012669
26	0xbec6d9ab	-0.38837942
27	0x39b9c003	0.0003542901
28	0xbea838af	-0.32855746
29	0xbb7164fd	-0.0036833875
30	0xbe002346	-0.12513456
31	0xbe23e785	-0.16006286
32	0xbdc7608c	-0.09735212
33	0x3e36d495	0.17854531
34	0x3c92da74	0.017926432
35	0x3c727ab3	0.014799762
36	0xbda7f501	-0.08201028
37	0x3b0a4718	0.0021099504
38	0x3e23a261	0.15979911
39	0xbe9e1d2d	-0.30881634
40	0x3b4046da	0.0029339106
41	0xbd8c811a	-0.06860562
42	0xba752fed	-0.000935315
43	0xbe9c9b6e	-0.30587333
44	0x3d88d94b	0.0668207
45	0xbe5688bb	-0.20950596
46	0xbba7914d	-0.0051137567
47	0x3d5113fc	0.05104445
48	0x3b9048e3	0.00440322
49	0xbab2f94f	-0.0013654622
50	0x3c0d6809	0.008630761
51	0x3db690f7	0.089143686
52	0xbbe196a8	-0.0068844147
53	0xbd7b17d0	-0.061302006
54	0x3d2a9272	0.041643567
55	0xbd58487b	-0.052803498
56	0x3c0df692	0.008664744
57	0xbd2ec7cf	-0.04267102
58	0xbec47c69	-0.38376167
59	0x3dce22b2	0.10065211
60	0x3ddff916	0.10936181
61	0x3c0d3f61	0.008621068
62	0xbdb51595	-0.08842007
63	0xbb7ac8a0	-0.0038266554
